trainedModels/clip/baseline/1.0/2/0.1/run3/model.pt (torch, 105473 bytes, 11 tensors)

init.weight f4 [10, 1, 1, 1]
0.5226522 -0.7700989 0.5536688 0.9912176 -0.88885826 0.74667495 -0.61513144 -0.18500884
-0.13078871 0.78623587
00000000: 89cc 053f 3425 45bf 3dbd 0d3f 70c0 7d3f
00000010: 378c 63bf 1726 3f3f 4179 1dbf f572 3dbe
00000020: 7aed 05be c146 493f

init.bias f4 [10]
-0.1695609 0.063095324 -0.23246661 0.3179715 -0.5226004 -0.19619 0.021187697 -0.14139284
0.5223551 0.06699635
00000000: 5fa1 2dbe 1f38 813d ba0b 6ebe 29cd a23e
00000010: 24c9 05bf 08e6 48be d291 ad3c 49c9 10be
00000020: 10b9 053f 6235 893d

encoder_layers.block_0.conv.weight f4 [40, 20, 3, 3]
0.033136643 0.024214884 0.007240616 -0.01643499 -0.04114527 0.01021947 -0.0025064144 -0.029535566
-0.0041871406 -0.14183195 -0.022070214 -0.0002464317 -0.12737699 0.0893044 0.1336076 0.07306165
0.017918447 -0.042238828 0.036447234 0.05819811 0.037127864 0.019607602 -0.026763575 0.016981319
0.012339977 -0.069484815 0.056170005 -0.054741025 -0.008456946 0.062397223 0.014418334 0.035862383
-0.04873804 -0.04541196 0.028529024 -0.041413974 0.040211186 -0.03253971 -0.057926018 0.064713314
0.025499038 0.028869655 0.0575889 -0.069579124 0.034358423 0.050102565 0.005463436 0.06066081
0.04438354 -0.05652521 0.00649319 -0.044898443 -0.0717685 0.05414242 -0.18293434 -0.07868746
-0.12448962 -0.17334248 -0.026508156 0.04135321 0.04790199 -0.046241418 -0.084971845 0.013321044
-0.010506449 -0.013164998 0.06669764 -0.025794765 0.031231558 0.07544106 0.021629542 -0.0018363891
0.002187721 0.021528963 0.014628364 0.026276989 -0.019901479 0.0439107 0.011523804 -0.012538696
-0.044456575 0.031853188 0.018426467 0.084831744 -0.012542003 -0.0078990655 -0.044741057 -0.063325584
0.04892347 -0.0092965895 0.037616435 0.05056832 0.12645239 0.023744063 0.0029460595 0.10207648
0.015580384 0.013956601 0.0144525515 -0.017637728 0.020036513 -0.032863233 -0.036318734 -0.076226294
0.037156567 -0.099771425 -0.08539657 0.037518356 -0.009667405 0.03262258 -0.04494194 0.012556518
0.017399741 -0.019851625 0.08345768 0.090965234 0.09050033 -0.0026254242 -0.005783339 0.043184463
-0.013363853 -0.08962717 -0.053810086 -0.069269165 -0.109177686 -0.014290216 0.059238438 0.10735459
0.085379995 -0.05723001 -0.07822896 -0.090741806 -0.07921668 -0.00017413178 0.012172129 0.028911456
-0.09249368 -0.051767133 -0.056892116 0.11727621 0.03985692 0.13584606 0.11520821 -0.05606681
0.008691119 -0.00020522313 0.05140478 0.035062116 -0.004682023 0.06114454 0.026895855 -0.015308634
0.023338336 0.042983416 -0.007916434 -0.14073496 -0.058318812 0.07289341 -0.09450983 0.061946496
-0.0032025983 -0.041310675 -0.090043664 0.00015946811 0.081204996 -0.108167924 0.07414969 0.0022257045
-0.043489546 0.030610954 -0.05255102 0.1258811 0.030390913 0.17197606 -0.07832385 -0.14901683
0.019563243 -0.18735676 -0.034621295 0.038034726 0.035390336 -0.019289223 0.043337185 -0.029023271
-0.09472661 0.08033786 0.009409697 0.052222736 0.063695446 -0.026332343 -0.0994411 -0.093684375
-0.11275198 0.038314745 -0.037921645 -0.09845954 -0.12535325 -0.08624924 -0.011408933 -0.028253624
0.012106661 0.029612232 -0.016751954 0.037923742 0.085947044 -0.00991431 0.11785254 -0.04043196
0.02021149 -0.055997826 -0.036805466 -0.029826082 0.052831788 -0.058217146 -0.0359513 -0.06815459
0.04409328 -0.026616082 0.015372555 -0.055347744 0.004023758 0.0039764447 0.028714968 0.04482434
0.0483606 0.0057956222 0.060604133 0.07281187 0.08420866 0.009927484 0.058595892 0.040549617
0.07138001 0.076282054 -0.07264646 -0.09620719 -0.07858076 -0.1527957 -0.015614802 -0.13507305
-0.16218752 -0.17236233 -0.12414646 0.030992135 0.016731923 0.04096099 0.016906997 0.018332575
0.051344234 0.032557998 0.012399642 0.021938503 -0.020610789 -0.035038505 -0.050129063 -0.011387859
00000000: 4aba 073d 4b5e c63c b042 ed3b aca2 86bc
00000010: f187 28bd 906f 273c a842 24bb 92f4 f1bc
00000020: 4834 89bb 653c 11be 98cc b4bc 8133 81b9
00000030: 1d6f 02be 3ae5 b63d 6ed0 083e 59a1 953d
00000040: b5c9 923c 9f02 2dbd b249 153d 2461 6e3d
00000050: 6313 183d 1fa0 a03c 493f dbbc 681c 8b3c
00000060: 9d2d 4a3c 0e4e 8ebd 8512 663d 2038 60bd
00000070: 018f 0abc 3b94 7f3d e03a 6c3c 6fe4 123d
00000080: 8aa1 47bd e401 3abd b3b5 e93c b3a1 29bd
00000090: 7cb4 243d 5c48 05bd d543 6dbd 6a88 843d
000000a0: 5ce3 d03c 0e80 ec3c 57e2 6b3d 807f 8ebd
000000b0: 6bbb 0c3d 5938 4d3d 9f06 b33b 7877 783d
000000c0: 84cb 353d fb86 67bd d3c4 d43b 6ee7 37bd
000000d0: 5dfb 92bd 71c4 5d3d 2453 3bbe e426 a1bd
000000e0: 6af4 febd b180 31be a227 d9bc fc61 293d
000000f0: e134 443d a467 3dbd b805 aebd 8240 5a3c
00000100: 3e23 2cbc 01b2 57bc c698 883d 8b4f d3bc
00000110: 53d9 ff3c d880 9a3d 7030 b13c feb2 f0ba
00000120: de5f 0f3b 825d b03c ceab 6f3c d742 d73c
00000130: 6d08 a3bc b5db 333d 56ce 3c3c 1a6f 4dbc
00000140: 1918 36bd 7d78 023d 1af3 963c 44bc ad3d
00000150: f97c 4dbc 156b 01bc 6642 37bd d8b0 81bd
00000160: fa63 483d b950 18bc b113 1a3d ba20 4f3d
00000170: bc7c 013e e982 c23c ad12 413b 790d d13d
00000180: de44 7f3c 3aaa 643c 65ca 6c3c ff7c 90bc
00000190: 9d23 a43c 999b 06bd f4c2 14bd 881c 9cbd
000001a0: 7c31 183d f654 ccbd 66e4 aebd d9ac 193d
000001b0: 0964 1ebc 419f 053d 0a15 38bd dbb9 4d3c
000001c0: e789 8e3c e09f a2bc dceb aa3d fb4b ba3d
000001d0: 3d58 b93d 4f0f 2cbb 2a82 bdbb 31e2 303d
000001e0: 10f4 5abc 738e b7bd f767 5cbd fedc 8dbd
000001f0: 8d98 dfbd 8321 6abc 01a4 723d b9dc db3d
00000200: b5db ae3d 046a 6abd 8136 a0bd d7d6 b9bd
00000210: 5b3c a2bd 2597 36b9 9c6d 473c b8d7 ec3c
00000220: 546d bdbd c609 54bd b507 69bd 822e f03d
00000230: 0241 233d 3b1b 0b3e 48f2 eb3d 50a6 65bd
00000240: 3265 0e3c 2a31 57b9 d28d 523d 4b9d 0f3d
00000250: a86b 99bb b272 7a3d b254 dc3c 11d1 7abc
00000260: 0a30 bf3c 610f 303d eeb3 01bc d31c 10be
00000270: b5df 6ebd 2449 953d 5f8e c1bd 9cbb 7d3d
00000280: afe2 51bb 6235 29bd d068 b8bd e536 2739
00000290: ce4e a63d 2587 ddbd cbdb 973d 20dd 113b
000002a0: 1822 32bd d3c3 fa3c bd3f 57bd fae6 003e
000002b0: 5df6 f83c 7e1a 303e 4168 a0bd de97 18be
000002c0: 1843 a03c 73da 3fbe 0fcf 0dbd 4dca 1b3d
000002d0: 75f5 103d 6f04 9ebc 5582 313d 36c2 edbc
000002e0: 0600 c2bd 2d88 a43d 212b 1a3c 82e7 553d
000002f0: c272 823d edb6 d7bc c7a7 cbbd 98dd bfbd
00000300: 83ea e6bd ecef 1c3d ba53 1bbd 28a5 c9bd
00000310: 9a5c 00be 71a3 b0bd 89ec 3abc 2574 e7bc
00000320: 045b 463c 5a95 f23c 653b 89bc ed55 1b3d
00000330: 0105 b03d a16f 22bc ac5c f13d fc9b 25bd
00000340: 9192 a53c fa5d 65bd 54c1 16bd d455 f4bc
00000350: 2566 583d 1a75 6ebd ac41 13bd a294 8bbd
00000360: 289b 343d f809 dabc 2bdd 7b3c 51b4 62bd
00000370: bbd9 833b d64c 823b a73b eb3c ba99 373d
00000380: c415 463d 34e9 bd3b 0a3c 783d 641e 953d
00000390: 9775 ac3d e3a6 223c 3f02 703d 5b17 263d
000003a0: af2f 923d c439 9c3d abc7 94bd 4608 c5bd
000003b0: f3ee a0bd 7a76 1cbe 3ad5 7fbc 9750 0abe
000003c0: 7c14 26be c07f 30be 8040 febd 38e3 fd3c
000003d0: 6311 893c b6c6 273d 8b80 8a3c 322e 963c
000003e0: 554e 523d 895b 053d de27 4b3c 60b8 b33c
000003f0: f5d7 a8bc 8984 0fbd 2254 4dbd 2494 3abc

encoder_layers.block_0.conv.bias f4 [40]
0.05109349 0.014284315 -0.059009995 0.052506387 0.045133032 0.1366791 -0.0068670367 0.06383506
0.021567978 0.0038187027 0.07734429 0.06696237 0.06941961 0.10251685 0.06542881 0.08771886
0.09493413 0.0478492 0.05135372 0.05909694 0.077907205 0.058641054 0.002084395 0.100009896
-0.003946355 0.35938674 0.14717735 0.05497982 -0.024354838 0.110923775 -0.016157273 -0.050354064
-0.024276512 -0.033886172 0.000636493 0.0687038 -0.0053454814 0.03556841 0.045418 -0.041715387
00000000: 6847 513d c208 6a3c 77b4 71bd f010 573d
00000010: 6add 383d 9bf5 0b3e e104 e1bb f5bb 823d
00000020: 54af b03c 3343 7a3b af66 9e3d 9123 893d
00000030: de2b 8e3d 5bf4 d13d 8aff 853d f2a5 b33d
00000040: d36c c23d 86fd 433d 4758 523d a20f 723d
00000050: d08d 9f3d 9a31 703d 589a 083b fdd1 cc3d
00000060: 6d50 81bb 8a01 b83e a9b5 163e 8532 613d
00000070: cc83 c7bc 012c e33d 425c 84bc 1040 4ebd
00000080: 89df c6bc 3acc 0abd 52da 263a 94b4 8c3d
00000090: 2629 afbb 2eb0 113d 3a08 3a3d c1dd 2abd

encoder_layers.block_1.conv.weight f4 [40, 20, 3, 3]
0.19897251 0.025270417 0.05728684 -0.056728918 -0.18442646 -0.16274616 -0.099170275 -0.26366138
-0.29710662 0.009622731 0.06324538 -0.01373688 -0.04089144 -0.0025943834 -0.07541628 0.085237086
-0.07405865 -0.09261621 -0.23766196 -0.14505339 -0.030993698 -0.32786283 -0.03173735 -0.154876
0.16890125 0.26384002 0.17774218 0.017138494 0.13756394 0.0900753 0.14726627 0.12572968
0.044776462 0.035832454 -0.115696706 -0.117284834 -0.15311585 0.3046995 0.45107225 -0.051496893
0.11944988 0.30740887 -0.031374026 0.10438166 0.3569176 -0.18417528 -0.09287047 0.12513544
0.05620228 0.14912237 0.045955148 -0.030853288 -0.1295529 -0.20904219 -0.06902035 -0.19449805
-0.2630952 -0.0955964 -0.2947686 -0.23350069 -0.27038747 -0.19417688 -0.25932738 -0.42770845
-0.30412865 -0.12749442 -0.16136748 -0.105474286 -0.058149233 -0.0926828 -0.06221909 -0.10266158
0.0447119 -0.024605954 0.13976088 0.1563599 0.038213335 0.13240516 -0.008488909 -0.056362793
-0.06572824 0.13688514 0.079288796 0.34930155 -0.07607031 -0.06288585 -0.02837971 0.024059173
-0.018983038 -0.039213177 0.058645174 0.06625774 -0.16554096 -0.024339985 0.1956953 0.18014708
-0.18260941 0.06936099 -0.13500163 -0.01830774 -0.11756268 -0.077601075 -0.34438044 0.065934844
-0.28316653 0.0186804 -0.08938595 0.004908598 -0.1708533 -0.08876287 -0.108853355 -0.102675125
0.21722911 0.060421403 -0.1221432 0.22138421 0.11041474 0.19276665 0.24889666 -0.008117398
0.01876634 0.13424602 -0.20692132 -0.096736364 -0.20883971 -0.3051058 0.15134676 0.06919111
0.21492852 0.07430545 -0.11314962 -0.23635338 0.048886225 -0.08446186 -0.26863015 0.2201158
0.20331784 0.3178939 0.13967466 0.029638048 0.0040818607 0.019724464 0.2842385 -0.07348237
-0.23457113 -0.15211076 -0.049776483 -0.10028657 0.028511884 0.121413045 0.050887164 0.16820195
0.332349 -0.1629695 0.10455129 0.119633354 0.075149454 0.13145986 0.1912342 0.39705753
0.06627124 0.023301573 0.20176473 0.25199503 0.085604385 -0.059818104 0.11913643 0.13632604
0.20906752 0.06771655 0.19063595 0.2138245 -0.034881044 0.06848839 0.060775835 0.18352899
0.14549436 -0.06564429 -0.04239805 0.08356686 0.26054227 0.10252275 -0.01785272 0.118351854
0.06505113 0.032035504 -0.12458702 -0.090259284 0.018391855 -0.022079108 -0.12298803 -0.05266082
0.012691476 -0.087727256 -0.022537412 0.14957456 -0.14059949 -0.03858099 -0.019060059 -0.1301343
-0.0696558 -0.04593401 -0.12923689 -0.053520437 -0.038378175 -0.11741549 -0.19409637 0.008618647
0.059064195 0.056366935 -0.14631425 0.022591455 0.058905613 -0.17647141 0.012063771 0.098190196
-0.011127817 -0.11181567 0.08113914 -0.10849601 -0.08996895 0.009835585 -0.24024062 0.03525496
0.07547032 -0.0061897337 -0.09499528 -0.20759356 0.10801571 0.11627714 0.0016464326 0.08014959
-0.0022228002 -0.17278752 -0.017221602 -0.09553908 -0.0643835 -0.049665347 -0.012431587 0.036150306
-0.14179678 -0.02649564 -0.08455409 0.052376147 -0.18374719 0.038532548 -0.060894806 0.016114693
0.14907268 0.055669356 0.0044503612 -0.07892602 -0.122091 0.02697315 -0.05935288 0.04853761
00000000: 73bf 4b3e e803 cf3c 9ba5 6a3d 955c 68bd
00000010: 4ada 3cbe eea6 26be c919 cbbd a0fe 86be
00000020: 5c1e 98be a9a8 1d3c cb86 813d a710 61bc
00000030: c87d 27bd 8806 2abb da73 9abd c890 ae3d
00000040: 10ac 97bd 91ad bdbd a85d 73be e088 14be
00000050: 7fe6 fdbc a3dd a7be 06ff 01bd d097 1ebe
00000060: 73f4 2c3e 0a16 873e 0c02 363e 0766 8c3c
00000070: 90dd 0c3e 6679 b83d f8cc 163e 48bf 003e
00000080: 8667 373d 0dc5 123d 65f2 ecbd 0833 f0bd
00000090: 67ca 1cbe 9301 9c3e f1f2 e63e 68ee 52bd
000000a0: 24a2 f43d b264 9d3e 0d82 00bd 0dc6 d53d
000000b0: e7bd b63e 7298 3cbe df32 bebd 8123 003e
000000c0: 5d34 663d 89b3 183e 773b 3c3d 09c0 fcbc
000000d0: 84a9 04be 280f 56be 8b5a 8dbd 7f2a 47be
000000e0: 6ab4 86be 0cc8 c3bd e9eb 96be ce1a 6fbe
000000f0: 3a70 8abe 4ed6 46be 8fc6 84be 9afc dabe
00000100: c0b6 9bbe e68d 02be 843d 25be e702 d8bd
00000110: e42d 6ebd 7bd0 bdbd 72d9 7ebd 3c40 d2bd
00000120: d323 373d 6d92 c9bc 7a1d 0f3e cf1c 203e
00000130: 9685 1c3d 3895 073e 1115 0bbc acdc 66bd
00000140: 879c 86bd 9e2b 0c3e 2a62 a23d a7d7 b23e
00000150: c0ca 9bbd 4cca 80bd 917c e8bc be17 c53c
00000160: 5182 9bbc ff9d 20bd ec35 703d 23b2 873d
00000170: 9283 29be a664 c7bc 5964 483e 7a78 383e
00000180: f6fd 3abe 220d 8e3d de3d 0abe 1dfa 95bc
00000190: b4c4 f0bd 50ed 9ebd a252 b0be d908 873d
000001a0: 34fb 90be a307 993c fb0f b7bd 4ed8 a03b
000001b0: 2bf4 2ebe 4fc9 b5bd 82ee debd 5647 d2bd
000001c0: 4f71 5e3e 6f7c 773d 3726 fabd 8bb2 623e
000001d0: 2021 e23d 9f64 453e c4de 7e3e d6fe 04bc
000001e0: debb 993c ca77 093e 2fe3 53be b71d c6bd
000001f0: 14da 55be d436 9cbe a5fa 1a3e 12b4 8d3d
00000200: 3916 5c3e 752d 983d fdba e7bd 9f06 72be
00000210: ec3c 483d 57fa acbd e489 89be 0966 613e
00000220: 8d32 503e fdc2 a23e e006 0f3e 7ecb f23c
00000230: 21c1 853b 3395 a13c b587 913e ed7d 96bd
00000240: 6a33 70be ecc2 1bbe 6de2 4bbd 0c63 cdbd
00000250: c191 e93c 67a7 f83d 0f6f 503d 223d 2c3e
00000260: a629 aa3e 7ae1 26be fd1e d63d 5502 f53d
00000270: f5e7 993d 6a9d 063e e6d2 433e 204b cb3e
00000280: 37b9 873d f1e2 be3c 6a9b 4e3e 7e05 813e
00000290: 5a51 af3d d403 75bd cdfd f33d 0e99 0b3e
000002a0: cc15 563e f9ae 8a3d 1236 433e cff4 5a3e
000002b0: 6ddf 0ebd a443 8c3d 15f0 783d 06ef 3b3e
000002c0: 79fc 143e 8370 86bd 94a9 2dbd 1a25 ab3d
000002d0: cc65 853e 73f7 d13d de3f 92bc 7562 f23d
000002e0: 8739 853d a937 033d 7b27 ffbd dcd9 b8bd
000002f0: 84aa 963c 3fdf b4bc 26e1 fbbd dfb2 57bd
00000300: e9ef 4f3c 59aa b3bd 61a0 b8bc 132a 193e
00000310: 50f9 0fbe 1a07 1ebd d723 9cbc ed41 05be
00000320: b3a7 8ebd 4d25 3cbd ad56 04be 3f38 5bbd
00000330: 6f32 1dbd 8877 f0bd 33c1 46be 3a35 0d3c
00000340: 4ced 713d 04e1 663d 67d3 15be b711 b93c
00000350: 0347 713d ecb4 34be 1fa7 453c f117 c93d
00000360: 7351 36bc 9dff e4bd 472c a63d 2833 debd
00000370: a441 b8bd 6f25 213c a301 76be 8167 103d
00000380: 2f90 9a3d 40d3 cabb e38c c2bd 6893 54be
00000390: 5737 dd3d b622 ee3d 1ccd d73a 7825 a43d
000003a0: 66ac 11bb 36ef 30be 5114 8dbc fea9 c3bd
000003b0: 7fdb 83bd e46d 4bbd dbad 4bbc 5812 143d
000003c0: 2d33 11be 620d d9bc b22a adbd 5f88 563d
000003d0: 3928 3cbe 4ed4 1d3d d56c 79bd f602 843c
000003e0: 82a6 183e 8d05 643d 56d4 913b f7a3 a1bd
000003f0: d90a fabd ccf6 dc3c 011c 73bd 5fcf 463d

encoder_layers.block_1.conv.bias f4 [40]
0.24036449 0.062590666 0.047799565 0.11200633 0.17376505 0.17799807 0.094811775 0.082273655
0.16470079 0.07194796 0.06714724 0.074423835 0.107137516 0.085487425 0.08877959 0.14390703
0.16120575 0.073033206 0.11906559 0.07676109 0.07036637 0.066168524 0.13216496 0.21632828
0.057083126 0.14150685 0.1873189 0.110830106 0.19577949 0.28687096 0.05324826 0.008474546
0.028398134 0.037442416 -0.05700114 0.08249293 -0.064301565 0.11798401 0.05775035 0.10011069
00000000: 1c22 763e 892f 803d 7ac9 433d 9363 e53d
00000010: 77ef 313e 2045 363e ad2c c23d 177f a83d
00000020: 53a7 283e 7459 933d 7e84 893d 866b 983d
00000030: ea6a db3d 0814 af3d 13d2 b53d 5d5c 133e
00000040: 1f13 253e 6f92 953d a9d8 f33d eb34 9d3d
00000050: 3e1c 903d 5d83 873d 4056 073e 2985 5d3e
00000060: ffcf 693d 2ce7 103e 87d0 3f3e e5fa e23d
00000070: 6b7a 483e c0e0 923e d91a 5a3d d2d8 0a3c
00000080: 34a3 e83c 385d 193d 077a 69bd 0ef2 a83d
00000090: 8ab0 83bd 9aa1 f13d a28b 6c3d d506 cd3d

decoder_layers.block_0.conv.weight f4 [40, 10, 3, 3]
0.00895401 0.07435199 -0.023367906 -0.048099563 -0.030427588 0.04997682 -0.044523574 0.045312047
0.03274095 0.04227568 -0.0077868477 0.010981764 0.0013070646 0.11802894 0.06732867 -0.05266921
-0.057160433 -0.03153905 0.11204895 -0.050796628 -0.014683012 -0.054005798 -0.027170286 0.07387362
-0.11234294 0.012926024 -0.055343296 -0.030692738 0.025421085 0.072197065 -0.1255245 -0.041166514
-0.121682405 0.119916245 0.0044988366 -0.12716089 0.10576491 0.025198065 -0.17498198 0.056785278
-0.0063561173 -0.017364865 -0.033298694 0.067775145 -0.05481213 0.061838683 -0.07333694 -0.02431385
0.22432874 -0.0010416918 0.098499686 0.11656933 0.0702099 0.13517934 -0.07775293 -0.045753498
0.053100523 0.0192416 -0.050477643 -0.04838715 0.0908866 0.037064854 0.03904857 0.014109358
-0.043318473 0.09534995 -0.047112115 -0.020315789 -0.0022391346 0.060785785 -0.011146581 0.12224481
0.08769976 0.09130561 -0.012370211 0.11067747 0.0073405798 -0.032754805 0.023164324 0.07094248
0.011269444 -0.02944364 -0.013816044 0.054310642 0.08347804 -0.073028766 0.008368944 0.15120232
0.06267441 0.0035886625 -0.08100969 -0.026205882 -0.03241689 0.0033652994 -0.059114378 -0.10033435
-0.0029056936 -0.09858209 -0.018392446 0.046824332 0.08073216 -0.010151675 0.105750516 -0.01846823
0.092628576 0.05823716 0.017397178 0.07478335 -0.019588053 0.001138252 0.0006505593 -0.029131176
0.036547724 0.027958583 0.052951105 0.06701698 -0.027906504 -0.013324747 0.06975873 -0.022746306
-0.10656477 -0.1181234 -0.122167856 -0.067469895 -0.0963991 -0.01652058 -0.052574206 -0.19690876
-0.024822958 -0.11625019 -0.08204348 -0.010434737 0.08398206 0.1437382 -0.044836383 -0.06341326
-0.11067605 -0.067680515 -0.010163743 -0.10473928 -0.17210361 0.066661425 -0.092200585 -0.24306794
-0.15112782 -0.022940809 -0.045012943 -0.07090876 -0.07968472 -0.09466266 -0.13011792 -0.15969118
-0.1677544 -0.019476797 -0.08388436 -0.078649044 -0.10908078 -0.06696689 -0.17308922 0.052803684
0.052643742 -0.012096201 -0.024851765 -0.075408086 -0.013267363 0.027157472 -0.11308091 0.016514745
-0.26636928 -0.062121972 0.04774677 -0.0147991665 -0.0022992562 -0.04273343 -0.0016460498 -0.028519323
-0.1875508 0.092997536 0.0615393 -0.02895495 -0.060139205 -0.010288626 -0.055754803 -0.016664714
0.024899011 -0.026836466 0.0073189638 -0.031806678 0.005125568 -0.0030776816 0.052941576 0.008017566
0.13541889 0.0060059153 0.015358951 0.040969864 -0.021771822 -0.048791017 -0.057108596 -0.038077433
0.042186853 0.025317179 -0.07917059 0.06253595 -0.0044456543 -0.013707473 -0.06572661 0.06280254
0.03619079 0.011377416 0.22675665 0.025768999 -0.0026126674 0.23199825 0.17939325 0.2941541
0.06335398 -0.02587968 -0.10359613 -0.0046169437 -0.03946073 -0.10197466 0.029986544 -0.025273096
-0.049131848 -0.09422512 0.015063237 -0.0073691183 -0.07233224 0.000101251826 -0.088355295 0.06503068
-0.015993157 -0.027174296 -0.12825923 -0.20772615 -0.026727803 -0.123534106 -0.1628571 -0.06703172
-0.021393104 0.026476884 0.010645384 0.014236026 -0.08524984 -0.03982374 0.03039836 -0.13133875
0.059109293 0.07476243 0.072721384 0.08475085 -0.10078288 0.018153885 -0.0061235377 -0.08215936
00000000: d7b3 123c db45 983d 0d6e bfbc 0c04 45bd
00000010: 4743 f9bc 7eb4 4c3d 5a5e 36bd 2099 393d
00000020: 601b 063d 4329 2d3d d028 ffbb dbec 333c
00000030: cf51 ab3a 28b9 f13d 9de3 893d abbb 57bd
00000040: 0f21 6abd 172f 01bd eb79 e53d 2010 50bd
00000050: 0491 70bc 2f35 5dbd 3894 debc 0d4b 973d
00000060: 0e14 e6bd adc7 533c a7af 62bd 566f fbbc
00000070: e13f d03c 0edc 933d 7f89 00be 389e 28bd
00000080: a034 f9bd a696 f53d fa6a 933b 7736 02be
00000090: 469b d83d 2c6c ce3c 7a2e 33be ae97 683d
000000a0: fa46 d0bb c340 8ebc 3664 08bd b2cd 8a3d
000000b0: af82 60bd 8f4a 7d3d ad31 96bd d72d c7bc
000000c0: 6fb6 653e 6089 88ba 34ba c93d e7bb ee3d
000000d0: 35ca 8f3d 746c 0a3e ee3c 9fbd 0568 3bbd
000000e0: ef7f 593d 8fa0 9d3c a5c1 4ebd 9b31 46bd
000000f0: c122 ba3d 51d1 173d 65f1 1f3d f02a 673c
00000100: b66e 31bd d646 c33d a2f8 40bd 4c6d a6bc
00000110: 72be 12bb 84fa 783d 26a0 36bc 7d5b fa3d
00000120: ef9b b33d 70fe ba3d 6dac 4abc dfaa e23d
00000130: 3f89 f03b e729 06bd 1cc3 bd3c 4a4a 913d
00000140: 79a3 383c ca33 f1bc b05c 62bc d674 5e3d
00000150: 89f6 aa3d 1b90 95bd e51d 093c c8d4 1a3e
00000160: 715b 803d c42f 6b3b 69e8 a5bd b8ad d6bc
00000170: 93c7 04bd 5b8c 5c3b eb21 72bd 187c cdbd
00000180: 736d 3ebb 68e5 c9bd c1ab 96bc dfca 3f3d
00000190: e756 a53d 3653 26bc ba93 d83d af4a 97bc
000001a0: 0db4 bd3d 178a 6e3d 8784 8e3c 0328 993d
000001b0: 2077 a0bc 6631 953a 4c8a 2a3a 81a4 eebc
000001c0: 11b3 153d 6609 e53c 42e3 583d 3340 893d
000001d0: 2e9c e4bc 0a50 5abc aadd 8e3d 7656 babc
000001e0: a13e dabd aeea f1bd 2433 fabd a82d 8abd
000001f0: e46c c5bd 2b56 87bc 0d58 57bd 73a2 49be
00000200: 8459 cbbc 9414 eebd 6906 a8bd 76f6 2abc
00000210: c9fe ab3d 1b30 133e 5ba6 37bd d0de 81bd
00000220: 20aa e2bd 159c 8abd d485 26bc 8c81 d6bd
00000230: ee3b 30be c985 883d a9d3 bcbd cde6 78be
00000240: 40c1 1abe 5dee bbbc 7e5f 38bd 9d38 91bd
00000250: be31 a3bd 7fde c1bd a23d 05be 1686 23be
00000260: cfc7 2bbe ce8d 9fbc 90cb abbd c012 a1bd
00000270: be65 dfbd f025 89bd 4d3e 31be ad48 583d
00000280: f7a0 573d 252f 46bc ee95 cbbc 8e6f 9abd
00000290: 5b5f 59bc 5979 de3c f796 e7bd ee49 873c
000002a0: 8e61 88be 9c73 7ebd 1e92 433d 3478 72bc
000002b0: 1eaf 16bb 4009 2fbd 44c0 d7ba 5ba1 e9bc
000002c0: 510d 40be 7e75 be3d a210 7c3d ee32 edbc
000002d0: 8754 76bd a091 28bc 265f 64bd 7084 88bc
000002e0: 03f9 cb3c 26d8 dbbc ebd3 ef3b b847 02bd
000002f0: 61f4 a73b eeb2 49bb 44d9 583d 1c5c 033c
00000300: 40ab 0a3e 45cd c43b 1ca4 7b3c 04d0 273d
00000310: d25a b2bc 17d9 47bd b4ea 69bd 15f7 1bbd
00000320: 1fcc 2c3d f965 cf3c 3124 a2bd d912 803d
00000330: daac 91bb 4f95 60bc ac9b 86bd 9e9e 803d
00000340: cb3c 143d 5768 3a3c e532 683e 8219 d33c
00000350: 4939 2bbb f390 6d3e ddb2 373e 5e9b 963e
00000360: bbbf 813d 9f01 d4bc 352a d4bd bb49 97bb
00000370: 93a1 21bd 17d8 d0bd 57a6 f53c 8609 cfbc
00000380: 7a3e 49bd 1af9 c0bd cccb 763c a578 f1bb
00000390: ed22 94bd 2957 d438 9ff3 b4bd ce2e 853d
000003a0: 1504 83bc a19c debc 6356 03be 2ab6 54be
000003b0: 44f4 dabc 73ff fcbd 03c4 26be ed47 89bd
000003c0: 9740 afbc 0de6 d83c fa69 2e3c 393e 693c
000003d0: 7897 aebd 381e 23bd fb05 f93c aa7d 06be
000003e0: 961c 723d 0b1d 993d f3ee 943d db91 ad3d
000003f0: 4167 cebd 75b7 943c f5a7 c8bb 2b43 a8bd

decoder_layers.block_0.conv.bias f4 [40]
0.06225078 0.15144543 0.003525684 0.1659441 0.11141971 -0.010304806 0.045515414 0.014127594
0.04146861 0.093538366 0.12864338 0.07639157 0.19175985 0.24735366 0.23861498 0.066987485
0.06279206 -0.008310736 0.24479869 0.20009056 -0.019618886 0.09809989 -0.01952523 0.14074445
0.24232335 0.12350433 -0.046208452 -0.0016876854 0.16603516 0.120336 -0.057706613 0.008771838
-0.03499007 -0.07205182 0.0054505337 0.01860745 -0.00019536207 -0.050350677 -0.05310815 -0.0038320532
00000000: adfa 7e3d 8314 1b3e 290f 673b 40ed 293e
00000010: 0430 e43d 7dd5 28bc 5f6e 3a3d 6d77 673c
00000020: fdda 293d 0b91 bf3d 17bb 033e 2f73 9c3d
00000030: b25c 443e 474a 7d3e 7c57 743e bc30 893d
00000040: 2099 803d c129 08bc 82ac 7a3e 8ae4 4c3e
00000050: c9b7 a0bc 98e8 c83d 60f3 9fbc 501f 103e
00000060: 9d23 783e d7ef fc3d 1345 3dbd 5335 ddba
00000070: 1f05 2a3e b972 f63d c55d 6cbd c1b7 0f3c
00000080: bf51 0fbd e88f 93bd 649a b23b a76e 983c
00000090: 1bda 4cb9 833c 4ebd ee87 59bd 2f23 7bbb

decoder_layers.block_1.conv.weight f4 [40, 20, 3, 3]
-0.10016644 -0.11529213 0.034656975 -0.091208726 -0.118642196 -0.09070386 -0.06390791 -0.032804325
0.06192877 -0.04212026 0.020347236 0.031046033 0.08129267 0.03718767 0.08547202 -0.0081131505
-0.057170987 -0.07100994 0.11827011 0.057722144 0.103319906 0.1125201 0.07259613 0.17602687
0.09742917 0.06115657 0.19436449 0.2865371 0.10845283 0.012143828 0.04358276 -0.035799306
0.094600536 0.14478777 -0.08538105 0.122685656 -0.038785852 -0.08437557 0.0010805833 -0.1271436
0.020712556 0.100075014 -0.104762174 0.12019078 0.12235789 0.3402821 0.4863097 0.4042346
0.19822736 0.46715987 0.42833233 0.22369546 0.28189486 0.3213948 -0.009248801 -0.030979302
-0.110466406 -0.025824903 0.012061991 -0.027310438 -0.025720283 0.0025064216 0.0718797 0.124817304
0.004275868 0.09476284 -0.08463677 -0.039684884 -0.01410319 -0.013871154 -0.02603365 0.015279736
-0.007493621 0.04215976 -0.03646403 0.2002639 0.15251452 0.16187489 0.19790488 0.1755376
-0.16334629 0.15932599 0.0323112 -0.113990106 -0.096830525 -0.13569784 -0.20441386 0.01043658
-0.12404879 -0.11698324 0.1086999 -0.090090014 0.061186552 -0.12142562 -0.20496921 -0.18036161
-0.07132682 -0.15366031 0.058871746 -0.2285772 -0.28581858 -0.1562779 -0.08234715 -0.10300524
-0.09198334 -0.035386637 0.035359297 -0.06587127 -0.032648407 0.0030980208 -0.04990104 0.029581971
0.1828053 0.09407159 -0.109946094 0.07493131 -0.018759143 -0.07665062 -0.039203476 0.1012844
0.009885496 0.19652338 0.0854713 0.014883376 0.06058456 0.09834592 0.10325997 0.049581267
-0.08152199 -0.033049326 -0.34153748 -0.06373326 -0.13887297 0.07041563 0.4156788 0.024971072
0.03902038 0.095676586 -0.07779629 0.061884537 -0.00628075 0.03964178 -0.14799316 0.10284362
0.13711649 0.071275175 0.11836754 0.2601497 0.4904871 0.20384876 0.14361882 0.1646927
0.11356654 0.086610585 0.03633126 0.10534327 0.12109744 -0.11789618 0.21915069 0.12725003
0.1797143 0.10521953 0.07545349 0.036367193 -0.060656108 0.09946401 0.1034594 0.08781094
0.109861754 0.027653689 0.004807578 -0.14088301 0.113790914 -0.07108048 -0.016979292 0.10420087
0.10382069 -0.15381196 0.02011819 -0.1210293 0.0019183427 -0.046771616 0.013979993 -0.04705765
0.028826078 0.0023366243 -0.024060689 -0.029873503 -0.020349652 0.087501496 0.07088494 0.003593111
0.011557327 0.08840208 0.046052184 0.039545126 0.082064606 0.056673665 -0.07628385 -0.054779217
-0.040714443 0.017165381 -0.16475812 -0.07061491 0.14205942 0.0030923437 0.011002079 -0.030795677
-0.2639095 -0.024095712 -0.11760385 -0.08964699 0.022546591 -0.18907347 -0.30444917 -0.06926272
0.18982023 0.025124738 -0.10471232 -0.2435241 -0.17233723 -0.044072468 -0.15200329 -0.119694345
0.089208655 0.07045693 0.08831427 0.20289525 -0.0032235212 0.04699505 0.029488418 0.1940429
0.1163033 -0.025608031 -0.057421226 -0.071758635 -0.038241882 -0.11449674 -0.015986927 0.013440764
0.070898764 -0.048544746 0.004206968 0.15454486 -0.022962358 0.10588236 -0.09683633 -0.19410259
-0.231714 0.09640474 -0.121067084 -0.028109936 -0.26295802 -0.0015074951 -0.09471293 0.083434045
00000000: 1024 cdbd 481e ecbd 79f4 0d3d a4cb babd
00000010: aefa f2bd f2c2 b9bd 26e2 82bd d45d 06bd
00000020: 06a9 7d3d 4b86 2cbd 3faf a63c 4054 fe3c
00000030: c57c a63d 1952 183d f40b af3d 05ed 04bc
00000040: 202c 6abd a96d 91bd 9937 f23d 0e6e 6c3d
00000050: 6399 d33d f070 e63d 48ad 943d 6340 343e
00000060: f288 c73d 507f 7a3d 7c07 473e feb4 923e
00000070: 841c de3d e8f6 463c d683 323d 4ba2 12bd
00000080: edbd c13d 3f43 143e 43dc aebd 9e42 fb3d
00000090: eadd 1ebd 19cd acbd 5ca2 8d3a ef31 02be
000000a0: 61ad a93c 21f4 cc3d 8d8d d6bd 9526 f63d
000000b0: c696 fa3d 7539 ae3e 96fd f83e d6f7 ce3e
000000c0: 1dfc 4a3e 942f ef3e 604e db3e 6c10 653e
000000d0: 8654 903e dc8d a43e 4888 17bc 4ec8 fdbc
000000e0: 363c e2bd bf8e d3bc a89f 453c 24ba dfbc
000000f0: 58b3 d2bc c742 243b aa35 933d 37a0 ff3d
00000100: 951c 8c3b 0513 c23d 0b56 adbd 9e8c 22bd
00000110: 1111 67bc d643 63bc 8544 d5bc dc57 7a3c
00000120: 0d8d f5bb b6af 2c3d 4f5b 15bd fb11 4d3e
00000130: c42c 1c3e 88c2 253e 94a7 4a3e 21c0 333e
00000140: 4044 27be 5a26 233e c058 043d a573 e9bd
00000150: 154f c6bd 60f4 0abe de51 51be 30fe 2a3c
00000160: 4b0d febd e994 efbd 0e9e de3d 1d81 b8bd
00000170: c09e 7a3d ffad f8bd 73e3 51be b7b0 38be
00000180: cc13 92bd 2159 1dbe 8023 713d 2410 6abe
00000190: d056 92be 5007 20be 9fa5 a8bd 69f4 d2bd
000001a0: c361 bcbd 94f1 10bd e9d4 103d 84e7 86bd
000001b0: 56ba 05bd 2a08 4b3b 0865 4cbd e455 f23c
000001c0: 5031 3b3e 9ba8 c03d 6b2b e1bd 9675 993d
000001d0: c6ac 99bc 00fb 9cbd d393 20bd 326e cf3d
000001e0: c7f6 213c 6d3d 493e 940b af3d 67d9 733c
000001f0: 8427 783d 9669 c93d f779 d33d ba15 4b3d
00000200: 00f5 a6bd bb5e 07bd 00de aebe 9586 82bd
00000210: b734 0ebe 1236 903d dad3 d43e 2290 cc3c
00000220: d5d3 1f3d 16f2 c33d a953 9fbd a47a 7d3d
00000230: c0ce cdbb 6b5f 223d 858b 17be ad9f d23d
00000240: 4468 0c3e b8f8 913d ae6a f23d 5732 853e
00000250: 2021 fb3e bbbd 503e d010 133e 34a5 283e
00000260: 9395 e83d e460 b13d 16d0 143d 36be d73d
00000270: ef01 f83d 8d73 f1bd 0a69 603e d54d 023e
00000280: 0707 383e 567d d73d 5c87 9a3d c4f5 143d
00000290: 8a72 78bd c9b3 cb3d 86e2 d33d 39d6 b33d
000002a0: 33ff e03d fd89 e23c e388 9d3b a343 10be
000002b0: 360b e93d a592 91bd 2818 8bbc 4467 d53d
000002c0: f19f d43d e280 1dbe e7ce a43c 36de f7bd
000002d0: e670 fb3a 9893 3fbd 570c 653c 86bf 40bd
000002e0: ab24 ec3c 0d22 193b ec1a c5bc 47b9 f4bc
000002f0: 50b4 a6bc fc33 b33d 202c 913d 667a 6b3b
00000300: f15a 3d3c 260c b53d 37a1 3c3d 12fa 213d
00000310: 7d11 a83d a522 683d b53a 9cbd 2c60 60bd
00000320: 30c4 26bd 6a9e 8c3c 5ab6 28be 8d9e 90bd
00000330: 0678 113e eba8 4a3b 1042 343c 3747 fcbc
00000340: 251f 87be 5f64 c5bc 4ada f0bd d798 b7bd
00000350: a1b3 b83c 7a9c 41be c3e0 9bbe 9dd9 8dbd
00000360: 3c60 423e 65d2 cd3c 6a73 d6bd 625e 79be
00000370: 2c79 30be 5585 34bd c0a6 1bbe 4f22 f5bd
00000380: 07b3 b63d b94b 903d 1dde b43d c6c3 4f3e
00000390: b641 53bb e27d 403d b291 f13c 2fb3 463e
000003a0: 6d30 ee3d efc7 d1bc 8532 6bbd 31f6 92bd
000003b0: 85a3 1cbd 447d eabd 04f7 82bc a636 5c3c
000003c0: 5f33 913d dbd6 46bd 9bda 893b 0241 1e3e
000003d0: 8e1b bcbc dad8 d83d 2052 c6bd d4c2 46be
000003e0: 6f46 6dbe d96f c53d 05f2 f7bd cf46 e6bc
000003f0: 6fa2 86be 2497 c5ba daf8 c1bd 78df aa3d

decoder_layers.block_1.conv.bias f4 [40]
0.23665248 0.21585242 0.052194085 0.21369849 0.29633465 -0.0057821036 0.3255315 0.09180217
0.06983343 0.10587945 0.20278582 0.29724535 0.05866293 0.28779742 0.26264483 0.14416316
0.17223081 0.19431481 0.004479496 0.1895588 0.20024267 0.31845295 0.1148987 0.40720105
0.52196914 0.0965889 0.18935072 0.31553882 0.006401098 0.27753398 -0.11651146 0.04015409
0.02626053 0.04278779 -0.0171429 -0.05843872 0.06184694 0.007629589 0.08176001 0.052213326
00000000: 0755 723e 6b08 5d3e 77c9 553d c7d3 5a3e
00000010: 2db9 973e cd77 bdbb 11ac a63e c702 bc3d
00000020: d404 8f3d 53d7 d83d 16a7 4f3e 8b30 983e
00000030: 8a48 703d 2f5a 933e 6279 863e 829f 133e
00000040: 465d 303e 76fa 463e bcc8 923b b41b 423e
00000050: 6a0c 4d3e 440c a33e 0250 eb3d a87c d03e
00000060: c59f 053f 67d0 c53d 28e5 413e 4e8e a13e
00000070: 4dc0 d13b ef18 8e3e 8f9d eebd 9d78 243d
00000080: 5320 d73c 4042 2f3d 446f 8cbc 705d 6fbd
00000090: 3853 7d3d a201 fa3b cb71 a73d a4dd 553d

read.weight f4 [1, 10, 1, 1]
-0.11108415 0.015271986 -0.15260547 0.07598589 0.05818265 -0.09627961 -0.13165872 0.17892388
0.22373775 0.130985
00000000: 1680 e3bd 5a37 7a3c 9c44 1cbe 7e9e 9b3d
00000010: ee50 6e3d 3f2e c5bd 8bd1 06be d237 373e
00000020: 821b 653e ef20 063e
