trainedModels/all-40/twoLayer/0.5/3/run1/model.pt (torch, 211025 bytes, 27 tensors)

init.weight f4 [32, 1, 1, 1]
-0.8162313 -0.8104379 -0.75712276 0.56470823 0.76799 0.80704796 0.8876938 -0.6263985
-0.6017201 0.910752 0.6785423 -0.784023 0.091233045 0.90573454 -0.56494784 0.43136153
0.7228143 0.6016861 0.5956419 0.7990296 -0.5089629 -0.9497526 0.70714056 -0.9775021
-0.8191346 0.6489724 0.8500253 -0.9785696 0.46458668 0.18293929 -0.45052606 0.65540266
00000000: 89f4 50bf dc78 4fbf ccd2 41bf b890 103f
00000010: fe9a 443f b29a 4e3f e73f 633f a75b 20bf
00000020: 540a 1abf 0b27 693f f3b4 2d3f bbb5 48bf
00000030: 64d8 ba3d 38de 673f 6ca0 10bf 6bdb dc3e
00000040: 5c0a 393f 1a08 1a3f fd7b 183f 348d 4c3f
00000050: 654b 02bf fd22 73bf 2a07 353f 943d 7abf
00000060: ceb2 51bf 0e23 263f 429b 593f 8a83 7abf
00000070: 4ede ed3e 7054 3b3e 5aab e6be 78c8 273f

init.bias f4 [32]
0.40622237 -0.31994936 -0.11670687 0.23754594 -0.30807287 -0.2747419 -0.26144367 -0.005962305
0.27049565 0.046316393 0.3016144 -0.27525514 0.36784783 -0.3972245 -0.21203525 0.43309915
0.4343113 -0.09839504 -0.03783301 0.32616895 0.037303537 -0.29403305 -0.19784725 -0.45641446
-0.21878573 0.016698472 0.28999135 0.00726136 0.13363308 -0.17877671 0.35194197 0.14979616
00000000: 61fc cf3e 67d0 a3be 0304 efbd 3e3f 733e
00000010: babb 9dbe f8aa 8cbe f2db 85be 705f c3bb
00000020: 687e 8a3e 42b6 3d3d 346d 9a3e 3eee 8cbe
00000030: 8d56 bc3e 0261 cbbe c51f 59be 2cbf dd3e
00000040: 0d5e de3e 5783 c9bd c9f6 1abd 9eff a63e
00000050: 98cb 183d 808b 96be 7898 4abe 28af e9be
00000060: 5e09 60be 3ccb 883c bf79 943e b4f0 ed3b
00000070: 1cd7 083e 3e11 37be bd31 b43e 2a64 193e

encoder_layers.block_0.transition.weight f4 [16, 64, 3, 3]
-0.013579815 1.4717853e-05 0.0073337136 0.013507514 -0.019262604 -0.002464208 0.0016624401 0.03362658
0.02760894 -0.0564373 -0.039969172 -0.06283348 -0.05259852 -0.0012296457 -0.077188276 -0.0035477278
-0.06271558 -0.043622687 -0.06176788 -0.012536772 -0.03292827 -0.065692306 0.0077222623 -0.060813352
-0.0251055 -0.044509795 -0.041746344 0.03833455 0.03861075 0.05067151 0.04764542 -0.0009845933
0.06618776 -0.00075651833 0.038811665 0.04221454 -0.0015010898 -0.0076064914 -0.034492537 -0.002716213
0.025241945 0.015943427 0.024199536 -0.015350633 0.007716743 0.00580496 -0.024301382 0.010694293
-0.021449277 -0.009086477 0.01901143 0.033169948 -0.039680403 0.01629771 0.033982545 0.0032876637
0.014783656 0.014565593 -0.014848197 0.051668324 0.0012918768 -0.0110680135 -0.0021757921 -0.049185865
-0.02081419 -0.05639804 -0.044845372 -0.021126397 -0.10338353 -0.06272801 -0.04951352 -0.051959354
0.0045404597 0.016878156 0.023014227 0.019806823 0.0069180992 -0.02189996 0.00819981 0.0074333516
0.018481944 0.08643631 0.020444164 0.07298404 0.05969735 0.027538601 0.099130645 0.04446229
0.06138874 0.08831146 0.039639663 0.040946063 0.034932043 0.027038584 -0.023129985 0.04342869
0.0066600423 0.06809038 0.06969988 -0.059964474 -0.025230635 -0.05861182 -0.06323335 -0.012327902
-0.06795402 0.0006145554 -0.040551946 -0.047085043 0.027851665 0.0066535654 0.015775993 0.008866548
-0.01838329 0.018731024 0.007953664 0.04025716 0.028135438 0.00493151 -0.017596519 0.0067387507
-0.013630151 -0.0096589895 0.045148272 0.021130318 -0.027971137 0.0014860384 -0.053775866 -0.019390328
-0.050370585 -0.027510209 0.0012827648 -0.033984467 -0.02882595 -0.03427865 -0.029765004 0.028094975
0.030915745 0.046938263 0.052941974 0.007615988 0.050351996 0.010260028 0.06879953 0.033585757
0.01907533 -0.000751297 0.057124667 0.041207086 0.013862536 0.024251593 0.0048551005 0.029170943
0.046075687 0.0033909236 0.014837675 0.0053613726 -0.0010480405 0.007946722 0.020984791 0.001454489
0.0027591335 0.0072624367 0.042289525 0.0030641835 0.01594807 0.020758193 0.006833449 0.07969463
0.017012307 0.031326707 0.010824621 0.027945323 0.02639926 0.05791806 0.060599387 -0.010344668
0.07371431 0.022475729 0.064399466 0.049195934 -0.012052215 -0.0002355096 -0.019076116 -0.019837506
0.020198243 -0.049410585 0.013165965 -0.011353738 -0.017518431 -0.06246697 -0.02111655 -0.038559355
-0.048655875 -0.018046532 -0.06277195 -0.0040427153 -0.074097835 -0.06643892 0.012928261 -0.028174158
-0.024642058 -0.0016624244 0.0042387424 0.0444196 0.026809663 0.0016058438 -0.015626347 -0.053273983
-0.024466757 -0.058721427 -0.03293597 0.023383416 -0.06689025 -0.03166949 -0.0333679 -0.06611063
-0.05347759 -0.003063107 -0.06614891 -0.028848127 -0.009710842 -0.086192735 -0.026462182 -0.07149322
-0.043261867 0.056868088 0.045858666 0.052487917 0.056052007 0.031404994 0.068591684 0.048596088
0.027007816 0.05261066 0.052788585 0.017074533 0.06919583 0.06260191 -0.013486078 0.07468914
0.005130305 0.06831867 0.039367758 -0.07775549 -0.05911998 -0.106951624 -0.07969808 -0.0315132
-0.15019186 -0.090234995 -0.09110736 -0.095094785 0.02621438 -5.3023647e-05 0.03285212 0.05485939
00000000: df7d 5ebc b3ec 7637 a64f f03b 9f4e 5d3c
00000010: 9ccc 9dbc 8d7e 21bb 3ce6 d93a 06bc 093d
00000020: 252c e23c cc2a 67bd b7b6 23bd d7ae 80bd
00000030: 8c71 57bd 102c a1ba e314 9ebd ff80 68bb
00000040: 0771 80bd b4ad 32bd 5100 7dbd 0867 4dbc
00000050: cbdf 06bd b089 86bd 080b fd3b 6c17 79bd
00000060: 0daa cdbc e74f 36bd 37fe 2abd b004 1d3d
00000070: 4e26 1e3d ee8c 4f3d d827 433d 780d 81ba
00000080: 738d 873d 1651 46ba fbf8 1e3d 27e9 2c3d
00000090: 37c0 c4ba e03f f9bb 0c48 0dbd 7e02 32bb
000000a0: 32c8 ce3c ca9b 823c 1b3e c63c 3981 7bbc
000000b0: bbdc fc3b 8937 be3b b113 c7bc 1e37 2f3c
000000c0: 65b6 afbc 72df 14bc dcbd 9b3c 36dd 073d
000000d0: eb87 22bd c682 853c 4831 0b3d d875 573b
000000e0: 2637 723c 86a4 6e3c da45 73bc 2aa2 533d
000000f0: 3154 a93a 9d56 35bc bc97 0ebb 1e77 49bd
00000100: 8582 aabc a201 67bd c8af 37bd 4411 adbc
00000110: bfba d3bd 8b77 80bd b0ce 4abd 55d3 54bd
00000120: 23c8 943b 0f44 8a3c 5588 bc3c eb41 a23c
00000130: 39b1 e23b 8b67 b3bc 7f58 063c 7993 f33b
00000140: 7267 973c 8505 b13d 857a a73c a878 953d
00000150: 3585 743d a298 e13c 0205 cb3d 171e 363d
00000160: c272 7b3d a4dc b43d 335d 223d 0fb7 273d
00000170: e714 0f3d 0580 dd3c 187b bdbc 48e2 313d
00000180: 7c3c da3b f872 8b3d d0be 8e3d 4f9d 75bd
00000190: 7ab0 cebc f312 70bd 7d80 81bd f8fa 49bc
000001a0: 7a2b 8bbd 1d1a 213a cc19 26bd 3fdc 40bd
000001b0: 2d29 e43c 2706 da3b a83c 813c ff44 113c
000001c0: 8e98 96bc ce71 993c 1650 023c b1e4 243d
000001d0: 4a7c e63c 8198 a13b 9326 90bc bdd0 dc3b
000001e0: ff50 5fbc bd40 1ebc 65ed 383d 7d19 ad3c
000001f0: ba23 e5bc 2dc7 c23a 1544 5cbd 77d8 9ebc
00000200: 6351 4ebd 175d e1bc 7222 a83a 4c33 0bbd
00000210: 6624 ecbc c567 0cbd bdd5 f3bc 6f27 e63c
00000220: 0443 fd3c 5642 403d afd9 583d 8a8f f93b
00000230: e53d 4e3d ad19 283c c5e6 8c3d 3891 093d
00000240: de43 9c3c b0f2 44ba 8efb 693d c3c8 283d
00000250: b11f 633c 47ab c63c 8917 9f3b e7f7 ee3c
00000260: dcb9 3c3d 423a 5e3b b819 733c 74ae af3b
00000270: 675e 89ba f832 023c 4ce8 ab3c 8da4 be3a
00000280: 94d2 343b bcf9 ed3b c837 2d3d 78d0 483b
00000290: 87a5 823c 160d aa3c 20eb df3b f036 a33d
000002a0: 655d 8b3c 6f50 003d c059 313c 97ed e43c
000002b0: 4343 d83c 7d3b 6d3d 1037 783d af7c 29bc
000002c0: 87f7 963d 051f b83c dee3 833d ad81 493d
000002d0: a776 45bc 20f3 76b9 8445 9cbc 4482 a2bc
000002e0: c976 a53c c162 4abd 0fb6 573c 0705 3abc
000002f0: d082 8fbc 5edd 7fbd 9dfc acbc 6af0 1dbd
00000300: 624b 47bd 52d6 93bc 958e 80bd c178 84bb
00000310: 9bc0 97bd 2111 88bd 0fd1 533c 7ecd e6bc
00000320: 24de c9bc b5e5 d9ba 26e5 8a3b 54f1 353d
00000330: f09f db3c 2d7b d23a d302 80bc d235 5abd
00000340: 826e c8bc e185 70bd dee7 06bd 948e bf3c
00000350: c1fd 88bd deb7 01bd c7ac 08bd 0365 87bd
00000360: 510b 5bbd 68be 48bb 1479 87bd e852 ecbc
00000370: 391a 1fbc d185 b0bd 38c7 d8bc 0a6b 92bd
00000380: 5b33 31bd 83ee 683d 4cd6 3b3d 92fd 563d
00000390: ca96 653d 86a2 003d cc79 8c3d b10c 473d
000003a0: 7f3f dd3c 477e 573d d838 583d e4df 8b3c
000003b0: 8bb6 8d3d 6e35 803d b6f4 5cbc 9ff6 983d
000003c0: 1e1c a83b a9ea 8b3d 1640 213d 453e 9fbd
000003d0: cb27 72bd 7409 dbbd bf38 a3bd fc13 01bd
000003e0: e5cb 19be 20cd b8bd 7f96 babd 0ec1 c2bd
000003f0: 8abf d63c b565 5eb8 f28f 063d 3db4 603d

encoder_layers.block_0.transition.bias f4 [16]
-0.023865936 -0.039273508 0.052955396 0.09351019 0.06564151 0.013730551 0.11019435 -0.040710658
0.072132885 -0.0010699339 0.09276174 -0.08871741 0.04667606 -0.070349775 -0.08050744 0.024341041
00000000: 7f82 c3bc 42dd 20bd c2e7 583d 4582 bf3d
00000010: 0e6f 863d 1bf6 603c 93ad e13d 38c0 26bd
00000020: 68ba 933d 063d 8cba def9 bd3d 79b1 b5bd
00000030: 652f 3f3d 8b13 90bd 16e1 a4bd dd66 c73c

encoder_layers.block_0.transition_deep.weight f4 [16, 16, 3, 3]
-0.06124922 0.017744573 -0.039836813 -0.031032532 0.05116142 -0.005739041 -0.024902208 -0.055295277
-0.039663922 -0.009775785 0.032007653 0.014428278 -0.016249169 -0.014785493 -0.043495663 -0.019003917
0.041864563 0.017880104 0.08427067 0.091511816 0.0423404 0.124991186 0.14545982 0.061877124
0.110573515 0.12069528 0.068297096 0.020070607 0.038942926 0.02056723 0.023481002 0.03182629
0.043360773 -0.0018708536 -0.03185094 0.0019538966 0.0036426762 0.040144462 -0.071727 0.045303904
0.037155923 0.017166298 -0.076459974 0.05640781 0.013835927 0.04771089 -0.08588238 0.057681695
-0.04241556 -0.1857006 0.003614046 0.012415093 -0.06582577 0.02799219 0.043358877 0.029876215
0.059749633 0.051393677 0.04609079 0.047050327 0.029373923 0.10487649 0.057861447 0.08547455
0.0151861515 0.057126086 0.040275794 0.02722836 -0.00957527 0.064678684 0.008152546 0.065427266
0.06449393 0.030204171 0.00375777 0.021106021 0.1038809 0.06760878 0.07380899 0.09464514
0.025523856 0.047466464 -0.00024380106 0.06467825 -0.055716336 -0.3125867 -0.052720934 -0.0037721668
-0.12945332 0.04631397 -0.04853654 0.010174598 -0.03423567 0.053361963 0.0267753 0.0015543107
0.016564362 -0.03973405 -0.023533264 0.0022876633 -0.060907 -0.037520986 -0.010024189 -0.05127623
-0.084117524 0.007599387 -0.056026354 -0.0584106 0.082869 0.04357284 0.029639935 0.014127354
0.07911653 0.115844965 0.0777747 0.022974191 0.034006774 0.018660313 0.0038198282 -0.018936407
-0.019463262 -0.058083642 -0.03923131 0.041145045 0.018560383 -0.015438094 -0.039875213 -0.026929107
-0.025836058 -0.025048833 -0.102714196 -0.0507163 -0.010544075 -0.049040657 -0.009480267 -0.05687359
0.10373646 -0.2472988 0.32139915 0.37833914 -0.037723 -0.07976743 0.1694695 -0.16006482
-0.02778022 -0.0072851772 -0.058467537 0.009298663 0.027239114 0.02160053 -0.0011150611 0.030836277
0.0012981506 0.007582481 -0.033400543 0.0033380468 0.05200411 -0.048918575 0.019361325 0.05632994
-0.014804443 0.028563008 -0.10387161 -0.013216597 -0.02756171 -0.1224584 -0.08970674 -0.09662536
-0.04563981 -0.098174594 -0.060127765 -0.014963562 0.06509295 -0.016995383 0.010892683 0.05134099
0.009996092 0.045239925 0.01753475 0.033111423 -0.10507713 -0.012049213 0.035301957 -0.042005874
0.019827645 -0.00897429 -0.11325509 0.0072098137 -0.012746346 0.16810331 -0.13370577 -0.04123524
0.067837484 -0.2662227 -0.054375466 0.13939519 -0.088825464 0.075670764 -0.027238127 0.023205109
-0.043769635 0.027587978 0.0858521 -0.02998346 -0.02549102 -0.032022346 -0.033883918 0.035066318
0.024283603 0.05292816 0.03381283 0.0002453235 0.041383646 0.040165048 -0.04607242 0.008158637
-0.013039742 0.029143283 0.046910632 0.018592026 -0.0002875815 -0.05032769 0.029501202 -0.04392612
-0.042064443 -0.021230062 -0.080692425 -0.07152745 0.027498689 -0.14737661 0.035763685 0.004957003
-0.09220031 -0.05569585 -0.01473767 0.044184167 -0.0013589007 -0.061271347 -0.01279186 -0.0222838
-0.03777229 -0.048262663 0.0057334104 0.017237525 -0.037001483 -0.011688461 0.0340236 -0.04062964
0.018834438 -0.016943062 -0.026980832 -0.009695839 -0.007949966 0.0086748805 0.010777093 0.003548889
00000000: 76e0 7abd 115d 913c ed2b 23bd f037 febc
00000010: a38e 513d 910e bcbb b7ff cbbc 4d7d 62bd
00000020: a376 22bd 9d2a 20bc 751a 033d 9664 6c3c
00000030: fa1c 85bc da3e 72bc 8228 32bd 1aae 9bbc
00000040: 2d7a 2b3d 4c79 923c 1a96 ac3d 8c6a bb3d
00000050: 216d 2d3d 61fb ff3d 6bf3 143e de72 7d3d
00000060: 5e74 e23d 162f f73d 59df 8b3d 1d6b a43c
00000070: 9e82 1f3d 9c7c a83c 3b5b c03c 495c 023d
00000080: 119b 313d 6e37 f5ba 2276 02bd f20c 003b
00000090: f7b9 6e3b 856e 243d 9be5 92bd 9690 393d
000000a0: cf30 183d 56a0 8c3c 0c97 9cbd e00b 673d
000000b0: 15b0 623c 7f6c 433d 1ae3 afbd a443 6c3d
000000c0: f0bb 2dbd 4c28 3ebe a1d9 6c3b ad68 4b3c
000000d0: a9cf 86bd e14f e53c 1499 313d f7be f43c
000000e0: 08bc 743d 2d82 523d b2c9 3c3d d8b7 403d
000000f0: 95a1 f03c 7cc9 d63d 2000 6d3d 480d af3d
00000100: 56cf 783c 0bfd 693d 3bf8 243d 020e df3c
00000110: 98e1 1cbc 4276 843d 4292 053c bbfe 853d
00000120: 6515 843d bd6e f73c eb44 763b 89e6 ac3c
00000130: 82bf d43d 7976 8a3d 2b29 973d 50d5 c13d
00000140: 6817 d13c 326c 423d d9a4 7fb9 0876 843d
00000150: d036 64bd 5d0b a0be e8f1 57bd 7536 77bb
00000160: 698f 04be b8b3 3d3d 40ce 46bd 5bb3 263c
00000170: b43a 0cbd 1392 5a3d e057 db3c 03ba cb3a
00000180: fcb1 873c 2cc0 22bd d5c8 c0bc 9fec 153b
00000190: 9e79 79bd 9baf 19bd 7f3c 24bc 0607 52bd
000001a0: cf45 acbd 4704 f93b e47b 65bd f43f 6fbd
000001b0: 39b7 a93d 6f79 323d 73cf f23c 6b76 673c
000001c0: d907 a23d 2040 ed3d 5848 9f3d 5f34 bc3c
000001d0: b04a 0b3d 83dd 983c 1556 7a3b 8620 9bbc
000001e0: 6b71 9fbc 1de9 6dbd 03b1 20bd b587 283d
000001f0: f20b 983c 0ff0 7cbc 3154 23bd 6e9a dcbc
00000200: 24a6 d3bc 3633 cdbc d25b d2bd e5bb 4fbd
00000210: 0ec1 2cbc dbde 48bd 1f53 1bbc 48f4 68bd
00000220: c873 d43d e63b 7dbe 6e8e a43e abb5 c13e
00000230: 6f83 1abd 1b5d a3bd 6a89 2d3e 08e8 23be
00000240: 5893 e3bc 7fb8 eebb a87b 6fbd 6b59 183c
00000250: 9024 df3c 98f3 b03c 3e27 92ba 5c9c fc3c
00000260: b526 aa3a 7676 f83b 02cf 08bd 22c3 5a3b
00000270: 4302 553d d85e 48bd a49b 9e3c 39ba 663d
00000280: 568e 72bc f8fc e93c a3ba d4bd 6d8a 58bc
00000290: 18c9 e1bc 78cb fabd 2bb8 b7bd 84e3 c5bd
000002a0: cff0 3abd c30f c9bd 8848 76bd ba29 75bc
000002b0: 744f 853d e739 8bbc 3977 323c ee4a 523d
000002c0: a6c6 233c 804d 393d 09a5 8f3c d89f 073d
000002d0: ae32 d7bd 106a 45bc c998 103d 5a0e 2cbd
000002e0: 966d a23c e708 13bc 49f2 e7bd 4d40 ec3b
000002f0: 0dd6 50bc 4623 2c3e 2aea 08be 48e6 28bd
00000300: 61ee 8a3d 574e 88be cfb8 5ebd 9dbd 0e3e
00000310: 20ea b5bd 46f9 9a3d 7e22 dfbc a418 be3c
00000320: ca47 33bd 2f00 e23c 3ad3 af3d e09f f5bc
00000330: 8bd2 d0bc dd29 03bd ddc9 0abd b3a1 0f3d
00000340: 68ee c63c 33cb 583d 527f 0a3d c39e 8039
00000350: e681 293d 1b84 243d 6fb6 3cbd ceab 053c
00000360: a4a4 55bc e5bd ee3c 5d25 403d 4e4e 983c
00000370: 89c6 96b9 6824 4ebd 81ac f13c e0eb 33bd
00000380: c44b 2cbd abea adbc 1242 a5bd fc7c 92bd
00000390: ee44 e13c e5e9 16be f17c 123d 5b6e a23b
000003a0: 84d3 bcbd 5521 64bd 4576 71bc 75fa 343d
000003b0: 241d b2ba aaf7 7abd f394 51bc 848c b6bc
000003c0: 1eb7 1abd 12af 45bd 55df bb3b b635 8d3c
000003d0: de8e 17bd f580 3fbc 555c 0b3d 446b 26bd
000003e0: ae4a 9a3c 2dcc 8abc e806 ddbc 4cdb 1ebc
000003f0: 9340 02bc 1621 0e3c 6792 303c 7a94 683b

encoder_layers.block_0.transition_deep.bias f4 [16]
0.046605125 0.07519741 0.012065194 0.03176396 0.039065 -0.07163001 -0.047845926 -0.042657323
0.12987092 -0.08290952 0.09001602 -0.072908655 0.017836269 -0.050408255 0.026291665 -0.06734631
00000000: 04e5 3e3d 1a01 9a3d 17ad 453c ed1a 023d
00000010: 9f02 203d c1b2 92bd 17fa 43bd 72b9 2ebd
00000020: e2fc 043e 77cc a9bd 525a b83d 2251 95bd
00000030: 5e1d 923c e378 4ebd 9e61 d73c ddec 89bd

encoder_layers.block_0.conv.weight f4 [128, 16, 1, 1]
-0.3060665 0.124339536 -0.0113281105 -0.11570147 -0.12836003 0.101561055 0.08659647 -0.045196142
-0.09886802 -0.10744761 -0.11454244 0.19858147 -0.19150898 0.05780825 0.016837783 -0.02376359
-0.10413154 -0.09027957 0.09141546 -0.08816153 0.11402226 0.13720208 0.028733535 -0.17105381
-0.02906242 0.041364647 0.1365209 0.12092294 0.23296693 -0.07707852 -0.14301907 0.2571978
-0.07913138 -0.028183844 0.08057201 0.09182142 -0.0018654704 0.021292422 0.08332255 -0.135378
-0.08874975 -0.20289233 0.0004294502 0.1326464 -0.16713555 -0.13590729 0.13275625 -0.17580928
0.061259273 0.022062164 0.07466343 -0.07871427 0.11210901 0.031133663 0.018522618 -0.01040876
-0.07872646 -0.021607602 0.13283163 0.14113773 -0.15382078 0.085468516 0.0035127546 -0.080847494
-0.15917255 0.10513123 0.113265224 -0.2243429 0.20927303 0.06312844 -0.036411792 -0.22981882
0.029107288 0.09196203 -0.18966423 0.11944609 0.12788722 0.050243545 -0.033189923 0.22466198
-0.080100134 0.007883173 -0.020864975 -0.010285455 0.041539997 0.056803674 -0.0029907816 -0.0025501011
-0.12129355 -0.13453744 0.11569251 0.11237731 -0.22142328 0.052497517 0.13656607 -0.047934428
-0.03099046 -0.104724124 0.0047208765 -0.08632159 0.07823178 0.15751006 0.060101483 -0.20834546
-0.16021565 -0.24137484 -0.11063222 0.19805129 -0.08856818 -0.14132698 0.17491846 0.033556733
-0.088696234 -0.05716688 -0.001302155 -0.04827029 -0.006478366 0.031353854 -0.009086418 0.11010994
-0.07901458 -0.07036337 0.068499714 0.11976049 -0.15899266 -0.024764264 -0.05736209 -0.07543641
0.048490103 -0.0961341 0.055356182 0.017740367 0.09095739 -0.13515146 -0.09395805 -0.047105264
0.046347547 0.094716035 0.019654268 -0.061661594 -0.12779091 -0.06345952 0.12761931 -0.19053987
0.015755592 -0.15034771 0.10523143 0.08860314 0.11629549 -0.16244902 -0.0005763892 0.08533229
0.19135879 0.13264729 -0.09454716 -0.1416624 0.015966441 -0.12832426 -0.073933266 -0.06817226
-0.04699556 0.037082214 0.009636574 -0.098296694 0.13043238 0.115709424 0.054014727 0.02845286
-0.06794057 0.116189845 0.0186601 -0.018225875 0.052931394 0.015364985 -0.039693847 0.02583181
0.029027231 0.062865965 0.019363806 0.108031824 0.3538537 0.10154778 -0.067541674 0.05017592
0.077369615 -0.16478047 0.15970701 -0.13334893 0.13015479 0.14390436 -0.26127523 0.16180037
0.019616133 -0.012907427 -0.07295498 0.02587778 -0.2538111 0.15555629 0.08551689 -0.13168667
-0.05030586 0.19121896 0.053260334 0.097744085 -0.31674638 0.057671502 0.05784655 0.046832964
-0.23245241 -0.03289301 -0.07313634 -0.09141786 -0.06446958 0.11077444 0.1537855 -0.16624308
-0.035235904 -0.1837037 -0.08885014 -0.008028306 -0.14968458 -0.078064136 -0.041597784 -0.001375935
-0.2297655 -0.08678119 0.04858978 -0.005002794 -0.21278866 0.09915712 0.06393138 -0.06922135
-0.2279506 -0.07010842 -0.107692696 0.2281877 -0.24590972 -0.09920407 -0.032423206 -0.1878966
-0.05493567 0.15685947 -0.08771994 0.04766838 -0.07798434 -0.014254898 -0.048518598 -0.032245073
0.0030491157 0.3878764 -0.14641903 0.003328908 0.06719638 0.15615813 0.10738637 -0.12560876
00000000: c0b4 9cbe baa5 fe3d 8a99 39bc e4f4 ecbd
00000010: d070 03be 3eff cf3d 7d59 b13d 971f 39bd
00000020: 517b cabd 7e0d dcbd 3a95 eabd f158 4b3e
00000030: ee1a 44be 58c8 6c3d 64ef 893c dcab c2bc
00000040: eb42 d5bd 7fe4 b8bd 0738 bb3d 088e b4bd
00000050: 8184 e93d b47e 0c3e 9762 eb3c bb28 2fbe
00000060: 5014 eebc fa6d 293d 23cc 0b3e 72a6 f73d
00000070: e28e 6e3e 58db 9dbd 9773 12be 6eaf 833e
00000080: a20f a2bd cee1 e6bc f002 a53d de0c bc3d
00000090: cd82 f4ba 726d ae3c 03a5 aa3d 88a0 0abe
000000a0: 6ec2 b5bd 02c3 4fbe d527 e139 75d4 073e
000000b0: 9525 2bbe 482b 0bbe 41f1 073e 5907 34be
000000c0: 01eb 7a3d b6bb b43c 24e9 983d f234 a1bd
000000d0: 6999 e53d 060c ff3c bfbc 973c 8189 2abc
000000e0: 573b a1bd 6d02 b1bc 0405 083e 6986 103e
000000f0: 3283 1dbe 1e0a af3d 3e36 663b 5f93 a5bd
00000100: 21fe 22be 0b4f d73d 99f7 e73d 25ba 65be
00000110: ab4b 563e 7c49 813d 8824 15bd a055 6bbe
00000120: 6872 ee3c 9756 bc3d 5737 42be 27a0 f43d
00000130: def4 023e 2dcc 4d3d 28f2 07bd ca0d 663e
00000140: 8a0b a4bd 6d28 013c 06ed aabc 5384 28bc
00000150: d825 2a3d f8aa 683d fd00 44bb 991f 27bb
00000160: c168 f8bd 2fc4 09be 32f0 ec3d 1326 e63d
00000170: c9bc 62be a307 573d fad7 0b3e e456 44bd
00000180: b5df fdbc 9a79 d6bd 95b1 9a3b 60c9 b0bd
00000190: fc37 a03d 514a 213e f92c 763d 8358 55be
000001a0: 920f 24be f72a 77be 2593 e2bd f5cd 4a3e
000001b0: 3c63 b5bd 05b8 10be d31d 333e c972 093d
000001c0: 5fa6 b5bd d227 6abd 12ad aaba 11b7 45bd
000001d0: 7948 d4bb e66c 003d 33df 14bc 5281 e13d
000001e0: 65d2 a1bd ac1a 90bd 9449 8c3d fd44 f53d
000001f0: f9ce 22be 6dde cabc 83f4 6abd 687e 9abd
00000200: 8f9d 463d f4e1 c4bd 2abd 623d 3f54 913c
00000210: de47 ba3d 2565 0abe 146d c0bd 73f1 40bd
00000220: edd6 3d3d 7bfa c13d fd01 a13c de90 7cbd
00000230: 9fdb 02be 11f7 81bd a3ae 023e e21c 43be
00000240: df11 813c c0f4 19be 9383 d73d 9075 b53d
00000250: 542c ee3d 0959 26be d318 17ba b2c2 ae3d
00000260: 8ff3 433e b1d4 073e f1a1 c1bd f30f 11be
00000270: 0ecc 823c 6f67 03be 536a 97bd e69d 8bbd
00000280: 6b7e 40bd 85e3 173d b9e2 1d3c c74f c9bd
00000290: 1190 053e 10f9 ec3d 8c3e 5d3d f915 e93c
000002a0: 6d24 8bbd f1f4 ed3d 11dd 983c 6e4e 95bc
000002b0: 97ce 583d 6bbd 7b3c 0496 22bd 3b9d d33c
000002c0: 84ca ed3c dfbf 803d d8a0 9e3c ca3f dd3d
000002d0: 502c b53e 48f8 cf3d 4a53 8abd 4485 4d3d
000002e0: f673 9e3d 36bc 28be 3c8a 233e 9f8c 08be
000002f0: 4c47 053e aa5b 133e dec5 85be ffae 253e
00000300: 03b2 a03c ac79 53bc 6c69 95bd a3fd d33c
00000310: 87f3 81be 264a 1f3e 7b23 af3d dfd8 06be
00000320: 840d 4ebd e7ce 433e 8227 5a3d 0d2e c83d
00000330: 952c a2be f438 6c3d 81f0 6c3d ecd3 3f3d
00000340: 0108 6ebe d2ba 06bd 81c8 95bd 4939 bbbd
00000350: a108 84bd b6dd e23d f279 1d3e a03b 2abe
00000360: 8653 10bd d31c 3cbe 10f7 b5bd 2889 03bc
00000370: ea46 19be 17e0 9fbd 7062 2abd b858 b4ba
00000380: a647 6bbe 56ba b1bd 1406 473d 7aee a3bb
00000390: 45e5 59be e312 cb3d 75ee 823d ecc3 8dbd
000003a0: e26b 69be 0195 8fbd fd8d dcbd 09aa 693e
000003b0: c2cf 7bbe 812b cbbd 32ce 04bd f767 40be
000003c0: 3a04 61bd c59f 203e 83a6 b3bd eb3f 433d
000003d0: 41b6 9fbd 608d 69bc 70bb 46bd 6913 04bd
000003e0: acd3 473b bc97 c63e dfee 15be cf29 5a3b
000003f0: 419e 893d ebe7 1f3e 63ed db3d 959f 00be

encoder_layers.block_0.conv.bias f4 [128]
0.07474639 0.12169959 0.009951723 -0.051877704 0.058640335 0.13692328 -0.0630466 -0.0067796474
-0.019625688 -0.0612684 0.022842567 0.06115998 0.12756936 -0.08009974 0.06329722 -0.021675851
0.10283499 0.07494345 0.12778354 0.06410602 0.04812585 -0.11706696 -0.08475288 0.10215322
0.01840101 -0.041390628 -0.009541582 -0.018379858 0.0054150596 0.114235334 0.025335683 0.16531146
0.11573795 0.013267962 -0.077589616 -0.044543017 0.017715845 0.030497137 -0.0217106 0.18634759
0.08388702 -0.025760014 0.04716775 0.0942264 -0.040367123 0.11644043 0.18703301 0.112754256
0.07215693 -0.07649673 0.010579559 -0.12211637 0.01828153 -0.10692202 0.07472219 -0.19276793
-0.00069950713 0.10816645 -0.09153621 -0.016384855 0.19835329 0.0937877 0.034468193 0.08896945
-0.03987908 0.052185323 0.03467694 -0.003629753 -0.07678727 -0.0056645814 -0.11458466 -0.10438343
0.1509357 0.24370685 -0.028679186 -0.06510675 0.14052844 0.09806917 -0.035049856 -0.08707644
-0.0006501232 -0.021544093 0.000802938 0.15539713 0.081953265 -0.1041124 -0.08854327 0.05466742
-0.040561933 0.05580969 0.06737289 -0.023829807 0.11166405 -0.018293489 -0.08217448 -0.02431778
0.041339558 -0.061655466 0.110106744 -0.0992637 0.04234644 0.15284654 0.047578916 -0.121936895
0.011752395 -0.06999989 -0.060848933 -0.044984955 -0.112598 -0.21433018 -0.077394955 0.011266151
-0.118488 0.02118468 0.022391543 0.079799324 -0.06948181 0.06881434 0.048495837 0.05801659
-0.00799918 -0.044779684 0.07995313 0.07548365 -0.066088594 0.08967306 -0.041062932 -0.002074033
00000000: a314 993d a23d f93d 8d0c 233c b77d 54bd
00000010: d930 703d 9e35 0c3e 931e 81bd ce27 debb
00000020: 0dc6 a0bc 93f4 7abd 5620 bb3c e382 7a3d
00000030: 8ba1 023e 550b a4bd f9a1 813d 8e91 b1bc
00000040: 279b d23d f47b 993d b0d9 023e 044a 833d
00000050: 9c1f 453d cdc0 efbd eb92 adbd b535 d13d
00000060: b7bd 963c 3889 29bd 4c54 1cbc 5b91 96bc
00000070: d070 b13b 37f4 e93d c78c cf3c 6847 293e
00000080: 0508 ed3d de61 593c 4ee7 9ebd bd72 36bd
00000090: d220 913c 22d5 f93c 6eda b1bc e7d1 3e3e
000000a0: f5cc ab3d aa06 d3bc f832 413d c5f9 c03d
000000b0: ff57 25bd 5278 ee3d 9585 3f3e b4eb e63d
000000c0: 03c7 933d 51aa 9cbd e355 2d3c 2618 fabd
000000d0: 26c3 953c eff9 dabd f307 993d f564 45be
000000e0: 215f 37ba 5f86 dd3d 5677 bbbd 8839 86bc
000000f0: 201d 4b3e c413 c03d 852e 0d3d 9d35 b63d
00000100: 3f58 23bd 47c0 553d 6809 0e3d 26e1 6dbb
00000110: a542 9dbd f49d b9bb 5dab eabd fbc6 d5bd
00000120: e38e 1a3e 4a8e 793e 9df0 eabc b056 85bd
00000130: b0e6 0f3e 7dd8 c83d 7090 0fbd 2255 b2bd
00000140: 086d 2aba 3d7d b0bc 427c 523a 6d20 1f3e
00000150: 1dd7 a73d e238 d5bd 2d56 b5bd f2ea 5f3d
00000160: 4524 26bd b498 643d ccfa 893d ba36 c3bc
00000170: 1fb0 e43d 3adc 95bc 184b a8bd 1536 c7bc
00000180: ab53 293d 718a 7cbd a57f e13d c44a cbbd
00000190: 7673 2d3d ce83 1c3e 1ce2 423d 0dba f9bd
000001a0: 1e8d 403c 1a5c 8fbd bb3c 79bd 2542 38bd
000001b0: c899 e6bd 5f79 5bbe 3f81 9ebd aa95 383c
000001c0: d6a9 f2bd 7e8b ad3c 786e b73c d46d a33d
000001d0: 7b4c 8ebd 88ee 8c3d 92a3 463d cea2 6d3d
000001e0: fe0e 03bc e76a 37bd 77be a33d 2c97 9a3d
000001f0: 7559 87bd 82a6 b73d 9b31 28bd 80ec 07bb

encoder_layers.block_1.transition.weight f4 [16, 64, 3, 3]
-0.00040180463 0.020031948 -0.038888127 -0.015175287 -0.02385402 -0.08051662 -0.038764413 -0.035384264
-0.0066579673 -0.018854808 0.022474583 0.030807095 -0.022155926 -0.09135637 -0.007116388 -0.0005397471
-0.058560383 -0.025394443 0.029961126 0.027295917 0.022216469 0.04929601 0.15520039 0.04670711
0.025147885 0.16627908 0.08157642 0.053747587 0.15495118 0.08596053 0.07620374 0.0863006
0.002697338 0.0817063 0.059528213 0.051605444 -0.024634695 0.012267266 0.001955763 -0.036712013
-0.043346286 -0.036648653 -0.055967152 -0.025254633 -0.06096518 0.026129004 -0.03830921 0.006991501
-0.05437649 -0.03023405 0.0146902315 0.06356664 -0.019842075 -0.017090233 -0.027819661 -0.08031735
-0.0066182306 -0.0646584 -0.07381761 -0.03408834 -0.007184831 -0.029216858 -0.028631598 -0.02981094
0.053602602 -0.020346126 -0.0134994425 0.05731044 -0.040698618 -0.035030797 -0.0035626139 -0.020515718
0.028823461 0.2774716 0.12752527 -0.18835504 -0.11563751 0.05523053 -0.04137538 -0.18472932
0.0073286653 -0.07288024 0.06880748 -0.058525424 -0.019999051 0.0950834 0.0044949683 -0.016322294
-0.034605615 -0.019923931 -0.064306095 0.1451829 -0.053113397 0.073036246 0.33778054 0.17359358
0.012613528 0.1335181 -0.089054786 0.06650944 0.059892736 0.024061898 0.10415372 0.016693175
0.13780075 0.19592457 0.116464846 0.10091353 -0.022955082 -0.05746612 0.0052394494 -0.07647191
-0.11908181 -0.04830966 -0.023876961 -0.048554428 0.05554152 -0.044762943 0.052888017 -0.009664661
0.068341754 0.16100225 -0.010260322 -0.048889887 0.035155833 0.019489773 0.0276616 0.07357628
0.028934756 0.013019733 0.13757648 0.050104428 0.009132721 0.052840512 0.009061569 -0.02799066
-0.006812059 -0.024115436 0.017737838 0.04591592 -0.00037197318 -0.010451351 0.04722202 -0.015612315
0.021922693 0.10829989 0.017741736 0.09804008 0.29851153 0.23750867 0.027900895 0.18912126
0.14036429 -0.03114844 -0.04674898 -0.01894277 0.014806173 -0.049288567 -0.028688585 -0.00036116867
-0.018313667 0.016333703 -0.048681013 -0.005287765 0.009991093 -0.042633727 0.012090556 0.024866762
-0.026171459 0.019101154 0.01834059 -0.04316008 0.008219312 0.08462946 -0.019385112 -0.042816654
-0.069843754 0.018465111 0.029060716 0.06662602 -0.17489754 0.0482849 -0.026250077 0.033489157
0.2851048 0.19924508 -0.03907311 0.111106694 0.04012383 0.035277802 0.029023323 0.02202705
0.024951858 0.041518588 0.053093337 0.018543372 0.027351096 0.042416073 -0.11088678 -0.22548296
-0.14158851 -0.1834106 -0.24602126 -0.2759486 -0.15661752 -0.21957709 -0.099675626 0.0063934554
0.0136543475 -0.00490482 0.03366171 -0.014348527 -0.005648915 0.003858494 -0.019861985 0.00981367
-0.026415644 -0.040965807 0.009371979 -0.03285328 -0.042854436 -0.027414698 -0.031949386 -0.061411485
-0.029336784 0.030649615 0.14480975 -0.046925016 -0.06646627 0.13185534 -0.05916623 -0.054819938
0.12014213 0.11173954 0.022246288 0.019141264 0.012321217 0.021650132 0.048321165 0.0408083
0.0029492618 0.07375892 0.06836891 -0.12802406 -0.009756283 -0.018038582 0.037662152 0.19201204
0.15731421 0.022778448 0.08580949 0.01491989 0.0072161653 0.021672642 0.02181922 0.031264156
00000000: 4ea9 d2b9 0a1a a43c 2849 1fbd c4a1 78bc
00000010: 8169 c3bc e6e5 a4bd 6fc7 1ebd 17ef 10bd
00000020: 142b dabb 6675 9abc 9e1c b83c 295f fc3c
00000030: 5880 b5bc 0c19 bbbd 9730 e9bb d17d 0dba
00000040: 03dd 6fbd 0208 d0bc 0971 f53c b09b df3c
00000050: 50ff b53c 9dea 493d daec 1e3e f44f 3f3d
00000060: f002 ce3c 1045 2a3e 8a11 a73d 6e26 5c3d
00000070: 86ab 1e3e 130c b03d b510 9c3d 5ebe b03d
00000080: d2c5 303b a255 a73d dbd3 733d 3b60 533d
00000090: b3ce c9bc a5fc 483c 422c 003b 565f 16bd
000000a0: e08b 31bd e61c 16bd d03d 65bd cee2 cebc
000000b0: a0b6 79bd 7e0c d63c 1eea 1cbd f618 e53b
000000c0: e2b9 5ebd 66ad f7bc 4caf 703c 3a2f 823d
000000d0: d98b a2bc d100 8cbc 0fe6 e3bc 6c7d a4bd
000000e0: bedd d8bb a06b 84bd b02d 97bd 37a0 0bbd
000000f0: bb6e ebbb 3158 efbc d08c eabc 1336 f4bc
00000100: 678e 5b3d ebac a6bc c42c 5dbc 5abe 6a3d
00000110: 98b3 26bd 747c 0fbd be7a 69bb 9410 a8bc
00000120: 2e1f ec3c c210 8e3e fc95 023e 25e0 40be
00000130: 5cd3 ecbd 6939 623d 3b79 29bd af29 3dbe
00000140: 4d25 f03b 3c42 95bd f0ea 8c3d 5bb8 6fbd
00000150: 0dd5 a3bc 16bb c23d 874a 933b 55b6 85bc
00000160: 9ebe 0dbd 8337 a3bc eab2 83bd d3aa 143e
00000170: 6f8d 59bd 0794 953d 92f1 ac3e 84c2 313e
00000180: f9a8 4e3c f8b8 083e 5b62 b6bd 1a36 883d
00000190: 1652 753d 751d c53c 8c4e d53d 20c0 883c
000001a0: a41b 0d3e 73a0 483e 1f85 ee3d c1ab ce3d
000001b0: 4c0c bcbc 9861 6bbd b0af ab3b 4e9d 9cbd
000001c0: 2ae1 f3bd 5ae0 45bd 9e99 c3bc 02e1 46bd
000001d0: 817f 633d 5959 37bd 1ba1 583d 8758 1ebc
000001e0: c3f6 8b3d c6dd 243e e91a 28bc c340 48bd
000001f0: 90ff 0f3d 04a9 9f3c 949a e23c 29af 963d
00000200: 9508 ed3c b850 553c d9e0 0c3e 4d3a 4d3d
00000210: 69a1 153c 4b6f 583d fa76 143c ab4c e5bc
00000220: b137 dfbb bc8d c5bc f14e 913c 5512 3c3d
00000230: 6505 c3b9 253c 2bbc e06b 413d ccca 7fbc
00000240: 3897 b33c 55cc dd3d 1e57 913c 3dc9 c83d
00000250: 81d6 983e 7935 733e 6b90 e43c 01a9 413e
00000260: a8bb 0f3e 032b ffbc dc7b 3fbd de2d 9bbc
00000270: 9795 723c cfe2 49bd 5304 ebbc 3d5b bdb9
00000280: 8b06 96bc 42ce 853c be65 47bd fd44 adbb
00000290: aeb1 233c b4a0 2ebd 7817 463c 61b5 cb3c
000002a0: 8765 d6bc 067a 9c3c 013f 963c a0c8 30bd
000002b0: 4baa 063c 3652 ad3d 87cd 9ebc 8460 2fbd
000002c0: 3e0a 8fbd 2544 973c bd10 ee3c 3973 883d
000002d0: 5718 33be 63c6 453d 670a d7bc ed2b 093d
000002e0: 42f9 913e e706 4c3e 200b 20bd e88b e33d
000002f0: e358 243d 757f 103d 52c2 ed3c 1272 b43c
00000300: d767 cc3c 650f 2a3d 6678 593d 45e8 973c
00000310: 680f e03c 7abc 2d3d 9c18 e3bd 01e5 66be
00000320: 94fc 10be fdcf 3bbe ffec 7bbe 2349 8dbe
00000330: 5860 20be d1d8 60be bc22 ccbd 3180 d13b
00000340: 7cb6 5f3c 9db8 a0bb dce0 093d 1616 6bbc
00000350: 891a b9bb cade 7c3b 9ab5 a2bc 84c9 203c
00000360: 9f65 d8bc c3cb 27bd ee8c 193c 2991 06bd
00000370: 2288 2fbd ca94 e0bc 5cdd 02bd 9c8a 7bbd
00000380: b253 f0bc e714 fb3c 0249 143e 7234 40bd
00000390: 781f 88bd 1605 073e 4a58 72bd df8a 60bd
000003a0: 140d f63d b3d7 e43d d93d b63c 24ce 9c3c
000003b0: eede 493c 9e5b b13c 6aec 453d 9b26 273d
000003c0: 6748 413b eb0e 973d 0005 8c3d bd18 03be
000003d0: d1d8 1fbc a6c5 93bc a143 1a3d ce9e 443e
000003e0: fa16 213e de99 ba3c e3bc af3d 8e72 743c
000003f0: 9575 ec3b d38a b13c 39be b23c d80e 003d

encoder_layers.block_1.transition.bias f4 [16]
0.0023360976 0.05928683 0.05299593 -0.0058020856 -0.017146004 0.012932424 -0.027880868 -0.018232843
0.014249097 -0.0030511748 0.040790595 -0.016275296 0.05163072 0.06834761 -0.019518146 -0.05572785
00000000: 3719 193b bfd6 723d 4312 593d 6c1f bebb
00000010: c775 8cbc 85e2 533c 6b66 e4bc 0b5d 95bc
00000020: 0b75 693c 38f6 47bb 0a14 273d c553 85bc
00000030: bc7a 533d d5f9 8b3d 85e4 9fbc e342 64bd

encoder_layers.block_1.transition_deep.weight f4 [16, 16, 3, 3]
0.08711959 0.16008025 0.06108727 0.15486054 0.18660301 0.14064048 0.08877031 0.117309704
0.033019006 -0.024679784 -0.00933559 -0.019360594 -0.07812513 0.16517103 -0.074177645 -0.01746273
-0.03315504 -0.056910194 0.030371469 0.11959882 0.07391378 0.028780896 0.34086227 -0.014843099
-0.037609465 -0.04389021 0.1656565 0.007290603 -0.08815141 -0.06823034 -0.09428393 0.034990624
-0.10008703 -0.04105926 -0.060941853 0.001748511 0.026593016 0.0052844947 -0.022025125 0.0695524
0.12889065 -0.12146571 -0.036440786 -0.018725213 0.07898582 -0.1088496 -0.06101176 0.09191216
-0.09636556 0.021634111 0.040583204 -0.16478717 -0.12414443 -0.1596949 0.08145444 0.09677896
0.016523886 0.15728098 0.1666829 0.18636487 -0.0012622485 0.0022425596 0.09537613 -0.07826047
-0.1412626 -0.061997555 -0.123445764 -0.08798707 -0.09820852 -0.11659459 -0.15603223 -0.09456774
0.0887365 0.15429562 0.08781228 0.067657106 0.12232815 -0.06201093 -0.056741443 0.09063722
-0.036597595 0.052099418 0.014876242 0.09923937 0.019245995 0.10129439 0.0711126 -0.0050713797
0.028742867 0.05361662 -0.07551169 0.08196991 -0.006235893 -0.13645425 0.121869266 0.02677043
0.08223563 -0.049395986 0.022981793 0.055925157 -0.1191224 0.09281178 -0.117247246 -0.20380825
0.031150015 0.05599107 -0.07392862 0.043559186 -0.011856343 -0.018124264 -0.06806909 -0.034279067
-0.07351108 -0.15192567 -0.026099639 0.017315896 -0.08867105 -0.07454636 -0.05375024 -0.11793269
-0.03891904 -0.08123631 -0.05923366 -0.07531998 -0.07565774 -0.11155656 -0.12265084 0.17742288
0.02118046 0.06097985 0.36412126 0.108156666 -0.017907396 0.11188577 0.016186764 -0.07502573
0.09186676 -0.049695566 0.10704074 -0.17537501 0.006920301 -0.04477352 -0.009985253 0.09451101
-0.014017043 -0.030313125 -0.057912298 0.08689331 0.15577354 -0.000703101 -0.1690021 -0.10721354
-0.19737983 -0.09336823 -0.046166163 0.01731005 -0.037047874 0.07834671 -0.052771185 -0.12431936
-0.014786517 -0.12111353 0.15721047 0.06297645 0.07301526 0.08636333 0.39346844 -0.042133808
0.10510274 0.044827953 0.20836027 -0.021792797 -0.16324814 -0.14791743 -0.038701832 -0.09676398
-0.044939995 -0.16177806 -0.15658446 -0.15156014 0.06532621 0.058250837 0.16091588 0.08589179
-0.1520363 0.09526476 0.06513022 0.12828094 0.21332334 -0.03850628 -0.023684233 -0.048238777
-0.01886632 0.11848495 0.00035847945 0.05115744 -0.12329764 0.15414105 0.055784177 0.15764768
0.05495315 0.115147874 0.33346543 0.12656672 -0.042190194 -0.09222728 -0.016618367 -0.0094000865
-0.09536276 0.020453794 -0.010662747 0.16482547 0.06066815 -0.12663099 -0.0133083835 0.030523513
0.039786056 0.09704896 -0.083136626 -0.07335888 0.0013244966 0.002470615 -0.20369686 -0.1964953
-0.028085966 -0.14881238 0.042941935 -0.22126046 0.07261705 0.123816624 0.07175478 -0.012837309
0.13688862 -0.051665537 0.033169016 -0.005295821 -0.106682375 0.1162834 0.025680073 -0.06367729
0.07891293 0.07190178 0.059801307 0.023810359 -0.23044755 -0.07326281 -0.013910874 -0.4707291
-0.06956682 -0.0016187651 -0.071699485 0.08184368 -0.056320902 0.034903795 0.11519432 -0.05765146
00000000: c16b b23d 14ec 233e a536 7a3d c393 1e3e
00000010: dc14 3f3e 0f04 103e 35cd b53d 1240 f03d
00000020: f03e 073d 422d cabc 4df4 18bc 1c9a 9ebc
00000030: 1100 a0bd 9822 293e 73ea 97bd 000e 8fbc
00000040: 94cd 07bd aa1a 69bd 96cd f83c 3af0 f43d
00000050: 1c60 973d eac5 eb3c 8085 ae3e 7830 73bc
00000060: 620c 1abd 39c6 33bd dca1 293e 03e6 ee3b
00000070: ba88 b4bd 59bc 8bbd ef17 c1bd 5452 0f3d
00000080: 6efa ccbd c12d 28bd 2a9e 79bd 4b2e e53a
00000090: 99d9 d93c 8e29 ad3b 096e b4bc 7d71 8e3d
000000a0: e9fb 033e 04c3 f8bd ef42 15bd 9e65 99bc
000000b0: 51c3 a13d 8aec debd 78e7 79bd 713c bc3d
000000c0: 4f5b c5bd 053a b13c 933a 263d f8bd 28be
000000d0: 6f3f febd 0f87 23be 96d1 a63d 0c34 c63d
000000e0: 1a5d 873c 440e 213e ecae 2a3e 6fd6 3e3e
000000f0: 0872 a5ba e8f7 123b 8f54 c33d 0647 a0bd
00000100: 25a7 10be 26f1 7dbd 22d1 fcbd 9132 b4bd
00000110: 8c21 c9bd 25c9 eebd eac6 1fbe bbac c1bd
00000120: 7bbb b53d acff 1d3e edd6 b33d cf8f 8a3d
00000130: 2e87 fa3d 2cff 7dbd b769 68bd 02a0 b93d
00000140: 5ce7 15bd 3366 553d 7bbb 733c 033e cb3d
00000150: c7a9 9d3c 6f73 cf3d 7ca3 913d d12d a6bb
00000160: 2976 eb3c 1a9d 5b3d dfa5 9abd d7df a73d
00000170: 7656 ccbb aaba 0bbe 9896 f93d a94d db3c
00000180: 276b a83d 7253 4abd 5044 bc3c c711 653d
00000190: 72f6 f3bd 1a14 be3d 531f f0bd 1cb3 50be
000001a0: 512e ff3c e456 653d e367 97bd 1e6b 323d
000001b0: 1b41 42bc 5679 94bc cf67 8bbd 3568 0cbd
000001c0: fa8c 96bd 6792 1bbe e9ce d5bc 11da 8d3c
000001d0: 2b99 b5bd c3ab 98bd 3629 5cbd b286 f1bd
000001e0: 9269 1fbd 395f a6bd ff9e 72bd 5d41 9abd
000001f0: 72f2 9abd c477 e4bd 5d30 fbbd 58ae 353e
00000200: a582 ad3c 02c6 793d 1a6e ba3e 3e81 dd3d
00000210: 88b2 92bc 5e24 e53d 1b9a 843c 17a7 99bd
00000220: a424 bc3d 948d 4bbd 2d38 db3d 8295 33be
00000230: b1c3 e23b 7064 37bd 3099 23bc fd8e c13d
00000240: bda7 65bc 3b53 f8bc 7235 6dbd 1ff5 b13d
00000250: 1983 1f3e 4f50 38ba e30e 2dbe c692 dbbd
00000260: f01d 4abe d837 bfbd bb18 3dbd cecd 8d3c
00000270: 83bf 17bd 3d74 a03d 9926 58bd 269b febd
00000280: 2643 72bc 5f0a f8bd c8fb 203e ccf9 803d
00000290: 0689 953d 42df b03d b274 c93e 8094 2cbd
000002a0: 1b40 d73d 849d 373d 655c 553e cf86 b2bc
000002b0: 852a 27be ab77 17be d085 1ebd 322c c6bd
000002c0: 0013 38bd 26a9 25be ad57 20be 9532 1bbe
000002d0: bfc9 853d 6e98 6e3d 22c7 243e 09e8 af3d
000002e0: 67af 1bbe 2c1a c33d fe62 853d 145c 033e
000002f0: 6f71 5a3e c3b8 1dbd 7005 c2bc 0696 45bd
00000300: 8a8d 9abc 3da8 f23d 4cf2 bb39 778a 513d
00000310: 7983 fcbd 27d7 1d3e f37d 643d 656e 213e
00000320: 8e16 613d a6d2 eb3d fbbb aa3e b59a 013e
00000330: a0cf 2cbd a8e1 bcbd 3e23 88bc d202 1abc
00000340: 8d4d c3bd b78e a73c cdb2 2ebc 02c8 283e
00000350: 2b7f 783d 8eab 01be 680b 5abc 720c fa3c
00000360: b4f6 223d 9bc1 c63d 8943 aabd 2e3d 96bd
00000370: bb9a ad3a 0bea 213b e995 50be 1036 49be
00000380: 8a14 e6bc 4662 18be e2e3 2f3d 1a92 62be
00000390: 3fb8 943d 9293 fd3d 2cf4 923d 9453 52bc
000003a0: 882c 0c3e 3e9f 53bd 3cdc 073d 9188 adbb
000003b0: 4a7c dabd fe25 ee3d 045f d23c 3d69 82bd
000003c0: 1a9d a13d 3e41 933d 37f2 743d f10d c33c
000003d0: 71fa 6bbe d00a 96bd 6fea 63bc 6803 f1be
000003e0: 0d79 8ebd be2c d4ba 2ed7 92bd a99d a73d
000003f0: bfb0 66bd 48f7 0e3d 00eb eb3d f023 6cbd

encoder_layers.block_1.transition_deep.bias f4 [16]
-0.12934399 -0.037879553 -0.040040974 0.051462833 0.20879261 0.13291773 -0.19129021 0.066737816
0.063227706 -0.022189897 0.056400716 -0.14926657 -0.09573702 0.0046689557 0.030397018 0.02610156
00000000: c072 04be 9727 1bbd 0102 24bd b1ca 523d
00000010: bbcd 553e 961b 083e 95e1 43be d6ad 883d
00000020: 877d 813d 96c7 b5bc 7004 673d 56d9 18be
00000030: c511 c4bd 0afe 983b 2b03 f93c f0d2 d53c

encoder_layers.block_1.conv.weight f4 [128, 16, 1, 1]
-0.19792089 -0.084937245 0.04369599 0.15897833 0.52825576 -0.127854 0.1802594 0.061080687
-0.3844154 -0.05486663 0.019581052 0.23385495 0.10393422 0.08000111 -0.25825325 0.16030942
-0.06679788 0.07315956 -0.11533144 0.066838555 -0.04974517 0.004436548 -0.00043233097 -0.005937072
-0.19504122 0.011883417 -0.15183516 -0.10042486 0.04364383 0.056650367 -0.06742512 -0.121261165
-0.25251818 0.014913821 -0.059971087 -0.27047324 0.16790025 -0.012067328 0.068409495 0.0033137787
0.17549263 0.20726016 0.06652428 -0.1251041 -0.0017846137 -0.01825154 -0.2627104 0.13547319
-0.16396146 0.12470668 -0.23293115 0.2189488 0.23819347 0.13090827 -0.07809316 0.077069186
0.057900738 0.05315503 0.03548317 -0.16699436 -0.1169695 -0.28675148 0.23923437 0.3429572
0.20068799 -0.29818308 0.06286251 -0.13220988 0.13682795 -0.08104045 -0.14461243 -0.102180175
0.07233613 0.2513006 -0.14606741 -0.025958378 0.24262285 0.27794477 -0.22151798 -0.29231972
0.2490043 0.00952694 0.039320428 0.23481338 0.059578422 0.0125146285 0.11347717 -0.14426358
-0.0983536 0.098591566 0.010374656 -0.04621382 0.26776373 -0.061445955 -0.31135935 -0.07510041
0.09076584 -0.019578528 -0.06108365 -0.08807115 -0.052812073 -0.023239758 0.025114737 -0.16674483
-0.042069502 0.05294451 -0.24159579 0.075151205 0.032156516 -0.047253106 -0.114324264 0.14685155
0.028452992 -0.06492167 -0.17734466 0.016811255 -0.088361666 0.14140508 0.0022938407 0.003980937
-0.08884365 -0.032094374 0.07927927 -0.1418352 -0.027900225 -0.11403633 0.024849597 -0.13559511
-0.006448319 -0.10841596 -0.28969657 0.124361135 0.049140397 0.0920609 0.124030426 -0.14151539
-0.2156316 -0.113945164 0.008824273 0.11465895 -0.027962534 -0.010596779 -0.10261236 -0.18589465
-0.1865919 -0.16612782 0.20161548 0.027583826 0.20500694 -0.11317604 0.0652244 -0.18459734
0.0020608434 0.017969914 -0.03363964 -0.19803 -0.03581372 -0.14037222 -0.10541891 0.101442024
-0.11179675 0.28553307 0.036073904 -0.072243616 0.020858964 0.070061624 -0.10740844 -0.066002645
-0.15936923 -0.043814193 -0.12976378 0.13083084 -0.06852703 -0.1259326 0.10186659 -0.044502623
0.12811257 -0.1798988 0.008461093 -0.11264636 0.6395551 -0.10042291 0.048103638 -0.26864198
0.1864993 0.24360791 0.044199068 -0.14164025 0.4517397 -0.011785733 -0.06133429 -0.09089569
-0.35320097 0.1713889 -0.097509205 0.1693493 0.05281847 0.060162406 -0.053924803 -0.12852904
-0.08379357 0.30651033 -0.25625414 -0.19181044 -0.15489808 -0.094150916 -0.029892676 0.20264618
0.07449253 -0.33816773 -0.01275995 -0.18580157 0.42285076 -0.13700512 -0.14328699 -0.25967762
-0.14180034 0.2602476 -0.030613596 -0.12566988 0.33327985 0.039228365 -0.3162184 -0.22787583
0.17617106 -0.24697006 0.05134755 0.10556136 -0.13397038 -0.29195273 0.2688978 -0.1453183
-0.25955632 0.058843385 -0.07722029 0.006107093 0.22560546 -0.06602609 0.013237384 0.02002064
0.18065298 -0.0047133057 -0.07131505 0.036659542 0.11615174 -0.18381776 -0.0014723425 -0.21054506
-0.058660332 -0.23745419 -0.010090253 0.038976926 0.17734273 0.17900257 -0.23307486 -0.09342613
00000000: c6ab 4abe 94f3 adbd 91fa 323d 37cb 223e
00000010: c53b 073f 29ec 02be ec95 383e be2f 7a3d
00000020: 18d2 c4be d5bb 60bd 7168 a03c ac77 6f3e
00000030: 77db d43d 9fd7 a33d c539 84be 2728 243e
00000040: 54cd 88bd aed4 953d e432 ecbd a7e2 883d
00000050: 97c1 4bbd 7660 913b 7baa e2b9 c58b c2bb
00000060: e3b8 47be aab2 423c ad7a 1bbe 8dab cdbd
00000070: dfc3 323d 370a 683d 2e16 8abd c657 f8bd
00000080: 104a 81be 1959 743c 3ea4 75bd 787b 8abe
00000090: 0bee 2b3e 0bb6 45bc 471a 8c3d fb2b 593b
000000a0: 57b4 333e 023c 543e e23d 883d 4a1b 00be
000000b0: b3e9 e9ba 4184 95bc fa81 86be 7cb9 0a3e
000000c0: 83e5 27be 3766 ff3d 8185 6ebe 1d34 603e
000000d0: fde8 733e d10c 063e 4fef 9fbd 73d6 9d3d
000000e0: 5329 6d3d 17b9 593d cd56 113d 9200 2bbe
000000f0: b58d efbd 17d1 92be dbf9 743e 1698 af3e
00000100: 2781 4d3e 74ab 98be 0fbe 803d 0762 07be
00000110: a01c 0c3e 89f8 a5bd 4815 14be d743 d1bd
00000120: f724 943d 79aa 803e b292 15be aaa6 d4bc
00000130: 2072 783e c74e 8e3e 9cd5 62be eeaa 95be
00000140: fcfa 7e3e e216 1c3c 750e 213d eb72 703e
00000150: 8108 743d 280a 4d3c b866 e83d d5b9 13be
00000160: 9d6d c9bd 60ea c93d 76fa 293c b44a 3dbd
00000170: 5418 893e c1ae 7bbd 7e6a 9fbe 3ece 99bd
00000180: 71e3 b93d 2663 a0bc d932 7abd a65e b4bd
00000190: 7951 58bd 4e61 bebc 6cbd cd3c 28bf 2abe
000001a0: 1251 2cbd 58dc 583d e364 77be e0e8 993d
000001b0: 8db6 033d 798c 41bd d722 eabd 4160 163e
000001c0: 4016 e93c a7f5 84bd d799 35be c2b7 893c
000001d0: f6f6 b4bd 7ecc 103e 4354 163b 8572 823b
000001e0: a9f3 b5bd 6475 03bd 2b5d a23d 3f3d 11be
000001f0: 038f e4bc e18b e9bd 6291 cb3c 72d9 0abe
00000200: 6c4c d3bb 3009 debd 1c53 94be 0db1 fe3d
00000210: 7147 493d 6d8a bc3d aa03 fe3d 69e9 10be
00000220: 88ce 5cbe 155c e9bd af93 103c 50d2 ea3d
00000230: af11 e5bc 1d9e 2dbc 6e26 d2bd 2b5b 3ebe
00000240: f211 3fbe 691d 2abe 4a74 4e3e 7af7 e13c
00000250: 57ed 513e d7c8 e7bd 5f94 853d 1607 3dbe
00000260: 370f 073b a435 933c b8c9 09bd 60c8 4abe
00000270: 68b1 12bd bcbd 0fbe dfe5 d7bd d6c0 cf3d
00000280: b2f5 e4bd 6431 923e 3bc2 133d 76f4 93bd
00000290: 6be0 aa3c 787c 8f3d f5f8 dbbd 652c 87bd
000002a0: b031 23be 8376 33bd cce0 04be 85f8 053e
000002b0: e657 8cbd 7af4 00be 6e9f d03d 6248 36bd
000002c0: f12f 033e 6437 38be 65a0 0a3c 23b3 e6bd
000002d0: e2b9 233f 87aa cdbd 5208 453d 718b 89be
000002e0: acf9 3e3e 5a74 793e 150a 353d 240a 11be
000002f0: 6d4a e73e f218 41bc aa39 7bbd 8527 babd
00000300: c2d6 b4be 9280 2f3e e8b2 c7bd e769 2d3e
00000310: 2e58 583d db6c 763d 41e0 5cbd 1e9d 03be
00000320: f79b abbd ecee 9c3e be33 83be f569 44be
00000330: 9a9d 1ebe 32d2 c0bd 7ce1 f4bc 7b82 4f3e
00000340: 8a8f 983d 5224 adbe 1c0f 51bc c442 3ebe
00000350: e57f d83e 124b 0cbe d3b9 12be 77f4 84be
00000360: 1c34 11be 2c3f 853e 5dc9 fabc 9baf 00be
00000370: a8a3 aa3e ecad 203d 61e7 a1be 4858 69be
00000380: 3066 343e b8e5 7cbe cf51 523d 8e30 d83d
00000390: 882f 09be d47a 95be f9ac 893e 52ce 14be
000003a0: 91e4 84be c305 713d ac25 9ebd 021e c83b
000003b0: 1e05 673e b038 87bd 9de1 583c 5302 a43c
000003c0: 18fd 383e 1372 9abb a00d 92bd 5128 163d
000003d0: f7e0 ed3d b93a 3cbe 9efb c0ba 2099 57be
000003e0: d145 70bd 3127 73be 9751 25bc 45a6 1f3d
000003f0: 5599 353e 734c 373e 2dab 6ebe 3356 bfbd

encoder_layers.block_1.conv.bias f4 [128]
0.20468834 0.020138597 0.07349778 0.08272984 -0.08551942 -0.03435148 -0.006230202 -0.054733217
-0.105817094 0.12966488 0.19805528 0.036999512 0.15070727 0.083398685 -0.0605589 -0.00020889707
0.009962286 -0.046192292 0.04304107 0.046430133 0.015347178 -0.11841242 -0.07523338 0.07305883
-0.034139626 -0.1285664 -0.15645935 -0.2222705 0.08162314 0.068678536 0.08501252 -0.09872879
0.016353317 -0.03652209 -0.14056292 0.2764423 -0.0955557 0.027985621 0.103455275 0.0047232984
0.060210355 0.21145304 -0.07030443 -0.06731714 -0.05454312 -0.21382645 0.17353882 0.03513784
-0.18362552 -0.009421527 0.05617775 0.0016890505 0.06383006 0.15580946 0.02309078 0.0090498505
0.24650908 -0.0071682152 -0.10592701 0.052957956 0.1420087 0.03360321 0.067903094 0.018307066
0.15934266 0.07997017 -0.023367252 0.06646503 -0.08701492 0.005420206 0.06475171 -0.035306904
0.09391031 0.22161621 0.23227674 -0.023836492 0.096983835 0.103925124 -0.048289318 -0.02579911
0.16427682 -0.061797265 0.15463752 0.1986296 0.03694583 -0.03960083 0.17141905 0.025437495
0.11047099 -0.040598508 0.07264483 0.22680649 0.058808945 0.0372702 0.049404006 -0.032264803
-0.06967018 0.06780906 0.027636422 -0.15620309 -0.026976908 0.033064615 0.026857741 0.21022439
-0.04809322 0.1025323 -0.03341098 -0.079091094 -0.05386812 -0.094085194 -0.10943989 -0.05384777
-0.050173678 0.11654116 0.043791763 0.06383549 -0.11131584 0.06292058 -0.16454162 -0.13182525
-0.072517216 -0.18749036 0.095688455 0.11798164 0.048523474 -0.10248326 -0.01723897 0.0063359905
00000000: d299 513e b3f9 a43c 0186 963d 436e a93d
00000010: ce24 afbd 23b4 0cbd b926 ccbb f02f 60bd
00000020: a2b6 d8bd dfc6 043e 01cf 4a3e cd8c 173d
00000030: 0253 1a3e eecc aa3d 9c0c 78bd 610b 5bb9
00000040: db38 233c 2134 3dbd d54b 303d 862d 3e3d
00000050: bb72 7b3c 3682 f2bd f513 9abd de9f 953d
00000060: fed5 0bbd e9a6 03be e136 20be e19a 63be
00000070: 082a a73d 55a7 8c3d 0b1b ae3d 5232 cabd
00000080: 64f7 853c 3098 15bd baef 0fbe d889 8d3e
00000090: b5b2 c3bd 1a42 e53c 5ce0 d33d e6c5 9a3b
000000a0: 229f 763d 2587 583e c5fb 8fbd 92dd 89bd
000000b0: 9b68 5fbd 52f5 5abe 29b4 313e b2ec 0f3d
000000c0: 5408 3cbe c05c 1abc a41a 663d 2163 dd3a
000000d0: 56b9 823d 848c 1f3e e028 bd3c d345 143c
000000e0: e06c 7c3e 59e3 eabb 43f0 d8bd 71ea 583d
000000f0: bb6a 113e 85a3 093d c710 8b3d b3f8 953c
00000100: b92a 233e 67c7 a33d ae6c bfbc d11e 883d
00000110: e134 b2bd fc9b b13b 8b9c 843d f99d 10bd
00000120: 0c54 c03d 5cef 623e f4d9 6d3e bf44 c3bc
00000130: 769f c63d b2d6 d43d 05cb 45bd a858 d3bc
00000140: 2f38 283e 211f 7dbd 4c59 1e3e 8f65 4b3e
00000150: 8354 173d 7b34 22bd 7a88 2f3e 4b62 d03c
00000160: 9d3e e23d 9f4a 26bd d0c6 943d f63f 683e
00000170: a6e1 703d a3a8 183d db5b 4a3d 1928 04bd
00000180: 3daf 8ebd 7adf 8a3d c765 e23c b4f3 1fbe
00000190: adfe dcbc c36e 073d c404 dc3c 1045 573e
000001a0: 65fd 44bd 74fc d13d f4d9 08bd 83fa a1bd
000001b0: d1a4 5cbd bdaf c0bd 0522 e0bd 7b8f 5cbd
000001c0: ea82 4dbd 22ad ee3d fe5e 333d 2ebc 823d
000001d0: 8ff9 e3bd 81dc 803d 997d 28be 33fd 06be
000001e0: e883 94bd 79fd 3fbe 4ff8 c33d 5ca0 f13d
000001f0: 8dc0 463d bee2 d1bd be38 8dbc 249e cf3b
