trainedModels/speed/border/depthWise/16/run4/model.pt (torch, 104169 bytes, 19 tensors)

init.weight f4 [28, 1, 1, 1]
000000 75 1d 00 bf 35 43 cc be 26 c2 91 bf 69 8f af be
       -0.5004495 -0.39895025 -1.1387374 -0.342891
000010 0a b6 d3 be d9 75 c7 3e fd ee ea 3e da b0 68 3f
       -0.41349822 0.38957098 0.4588546 0.90894854
000020 64 e4 2b bf 07 c1 72 3f 24 c0 3c be 6c f2 7f 3e
       -0.6714537 0.94825786 -0.18432671 0.2499482
000030 1b 14 fd 3e d8 0e 47 3f db bd 26 bf 38 9c 21 3f
       0.49429402 0.77757025 -0.65133446 0.63128996
000040 ea 3d 6a 3f 8e 30 b0 3f 4d 95 0b 3f 64 e3 cb be
       0.91500723 1.3764818 0.5452469 -0.39821923
000050 af fb aa 3f 03 4a 8a bf 45 a2 36 bf a6 06 2d 3f
       1.3358058 -1.0803837 -0.71341354 0.6758827
000060 ad 29 be bd 81 eb 2c bf e9 d1 36 c0 cf 2b 82 3f
       -0.09285293 -0.6754685 -2.856562 1.0169619

init.bias f4 [28]
000000 2e c8 a9 be a1 d5 29 bf c8 c4 05 3f e5 ad b3 3e
       -0.33160537 -0.66341597 0.5225339 0.35093608
000010 ff 69 d8 be 58 69 6b be 2a 5c fe 3e 42 aa b5 be
       -0.4226837 -0.22989404 0.4967969 -0.3548146
000020 b2 4c f2 3e 07 44 e5 3d e3 50 34 bf 56 0a 81 be
       0.4732414 0.11194616 -0.70435923 -0.25203198
000030 f2 56 d2 be c4 8a d9 3e 32 19 0f bf d8 a6 6f be
       -0.4108196 0.42488682 -0.5589782 -0.2340349
000040 57 6b f0 bd 61 ee d1 bc 35 9b d8 be 3e 77 33 bf
       -0.117392235 -0.025626363 -0.42305914 -0.70103824
000050 e3 c2 16 bf e1 a5 0d bd 2c e1 17 bf 67 a7 bb be
       -0.58891124 -0.034582023 -0.5932796 -0.36651155
000060 90 64 ac 3e 95 95 16 bf 16 34 19 bf 3f 6f 76 be
       0.33670473 -0.58821994 -0.598451 -0.24065875

encoder_layers.block_0.transition.weight f4 [56, 1, 3, 3]
000000 1e cd ee 3d 97 a1 4b 3e 8a c8 95 bd 85 32 20 3d
       0.11660217 0.1988586 -0.073136404 0.03911068
000010 88 a9 cc bd 00 64 56 3d c3 cb a5 3d b3 c5 2e bd
       -0.09993273 0.05234146 0.08095505 -0.04266901
000020 e3 f4 56 3e 49 0a f2 bd fb b8 37 3e 3d 25 43 3b
       0.20991854 -0.11818368 0.17941658 0.0029776834
000030 16 20 8b bd e7 75 04 bd e7 2b d3 3b c4 11 1d 3e
       -0.06793229 -0.032339003 0.0064444426 0.15338808
000040 de e7 1a 3e dd df d7 3d 8c 4e 5c 3d bb 4f 55 bc
       0.15127513 0.105407454 0.053785846 -0.0130194975
000050 ac 51 33 3c 5d c1 64 3d e6 dc 98 be a6 02 c0 3c
       0.010944765 0.055848468 -0.29856032 0.023438763
000060 50 b8 ec bd 7a d4 0d 3e 15 95 5d be a6 43 0a be
       -0.11558592 0.13850585 -0.21638902 -0.13502368
000070 08 07 da 3c 0b 5e 55 be da 38 21 bd 6c 8d 87 be
       0.02661468 -0.20836656 -0.03936086 -0.26475084
000080 e6 5c 9e bc 12 79 f6 3c 30 76 19 be cc 74 5a 3d
       -0.019331407 0.030087028 -0.14986491 0.053334042
000090 2b b0 7c be 3d 21 2e be 35 06 eb bb ec de 82 be
       -0.24676578 -0.17004867 -0.007172371 -0.255607
0000a0 51 75 a8 bd 3b a5 35 be 3b 4e 73 3e 74 73 7d 3d
       -0.08225501 -0.17738812 0.23760311 0.061877683
0000b0 31 32 13 3e e1 9e 48 bd 53 34 df bd b6 fe d4 bd
       0.14374615 -0.048979644 -0.10898652 -0.10400145
0000c0 3f 46 b7 bd 5f 39 57 be 55 4c 08 be 79 f9 4f bd
       -0.08948945 -0.21017979 -0.13310368 -0.050775025
0000d0 ab a7 b6 bd fe ec 0e be 27 83 a3 3d e6 e6 b1 3d
       -0.08918699 -0.13957593 0.07984 0.086866185
0000e0 86 8f 3f 3e f2 7f ad 3d c4 ed f2 3d df 47 36 3e
       0.18707094 0.08471669 0.118617564 0.17800854
0000f0 4e a9 40 3d 05 c5 5c be 86 19 d8 3d 50 f9 31 3e
       0.04703646 -0.21559532 0.10551743 0.17380261
000100 78 df 81 3e 15 89 56 3e 81 2c e0 bd 29 2f 53 be
       0.25365806 0.2095073 -0.109459884 -0.20623459
000110 62 e0 27 3e 68 c5 79 3d e4 3c ec 3d 98 82 f4 bd
       0.16394189 0.060979277 0.115350515 -0.11938971
000120 98 0d 80 3d e2 85 0b 3e c0 52 88 bd 92 51 f7 bb
       0.06252593 0.13625291 -0.06656408 -0.0075475657
000130 96 50 45 3e 93 e9 5b 3e 5d d3 66 be cd 61 1f 3d
       0.19269022 0.2147582 -0.22541566 0.03891163
000140 2b 24 f6 bc 9b ff 57 bd 8b 7a 44 be 81 13 38 be
       -0.030046543 -0.052734 -0.19187371 -0.1797619
000150 06 53 b0 be ab e0 b9 be 84 94 59 be 85 8e 67 bd
       -0.34438342 -0.3630422 -0.2124806 -0.0565324
000160 8e 8e 68 be ad ef 87 be 2f 7d 7a be 0c ff 1f be
       -0.2271063 -0.26550046 -0.24461816 -0.15624636
000170 27 f1 d4 bd cc 79 a7 bd da ce 5a 3e 1d e7 26 be
       -0.10397559 -0.08177528 0.2136797 -0.162991
000180 e1 07 b9 3d 77 58 8d 3e ed 76 9a 3d 5c 25 c8 3d
       0.09034706 0.27606556 0.075422145 0.09772751
000190 a1 3d 8e bd 0d ba 87 bc 3b 55 68 be ea 9c 4e bb
       -0.069453485 -0.016568208 -0.22688763 -0.0031526634
0001a0 40 f5 eb 3d 48 8f 64 3e ca c0 7a 3e e9 44 c5 bc
       0.11521387 0.22320282 0.24487606 -0.02408071
0001b0 ad 32 5b 3e 4c 78 96 3a ce 1a 7c bd e2 46 42 be
       0.2140605 0.0011479943 -0.061549 -0.18972352
0001c0 55 49 a0 bc 7d fd 16 3e fc 23 06 3e a8 fd 30 be
       -0.019566217 0.14745136 0.13099664 -0.17284262
0001d0 cc 8b d2 bd 0c c2 ea 3d c3 3c e6 bc ea 33 cc 3c
       -0.102805704 0.11462793 -0.028105145 0.024927098
0001e0 81 f2 f5 3c 7f 98 42 3d b1 8b a8 bc 33 d1 00 3e
       0.030022861 0.047508713 -0.020574423 0.12579803
0001f0 50 47 1d 3d 90 29 e1 bd 87 05 0e be d4 65 90 bd
       0.038398087 -0.109942555 -0.13869296 -0.07050672
000200 dd d9 6c 3e 30 17 03 3e f9 d2 2b 3e a9 b4 0d 3e
       0.23129983 0.12801814 0.16779698 0.13838448
000210 88 49 56 3e f1 00 d3 3d 07 61 3e be ec 81 09 3d
       0.20926487 0.10302914 -0.185917 0.03357117
000220 d6 64 1d 3c d3 fd 23 3e 03 ab 7f 3d e3 7e f0 3d
       0.009606561 0.16014795 0.06241895 0.11742952
000230 4c a0 fe bd 8e aa 66 3e 6a 0d b7 3e b5 e2 5e 3e
       -0.12432918 0.22525999 0.35752422 0.2176617
000240 2d 3a 89 be da 0e d5 bd fd 78 8d be f6 0b 1b be
       -0.26802197 -0.10403223 -0.2763137 -0.15141281
000250 7c e0 fa 3c 1e 1d 3c be e3 88 ad be f9 42 10 bd
       0.03062462 -0.18370482 -0.338935 -0.03522012
000260 b2 68 2e 3d fd b7 01 3d c6 5f 1c 3e b1 b4 5c 3d
       0.042580314 0.031669606 0.1527091 0.05388326
000270 5f 7e 4c bd e1 61 6f bf 89 8b f3 3e 93 eb aa bd
       -0.049925204 -0.93508726 0.47567394 -0.083457135
000280 a9 42 1b 3f 45 7e be bd 48 36 64 be d5 3d b8 bd
       0.6064859 -0.09301428 -0.22286332 -0.089961685
000290 75 55 08 bd 8d 4d 9b be e2 9a 90 3e eb 7e 10 3e
       -0.033284623 -0.30332604 0.28243166 0.14110915
0002a0 a7 a6 21 3e 3f c5 10 be 9d f5 d8 3d a3 a5 68 bd
       0.15786229 -0.14137743 0.10593722 -0.05679859
0002b0 76 ab 27 3d 25 b7 c5 3d 75 50 f7 3d 26 98 af 3d
       0.040935002 0.09654073 0.12075893 0.08573942
0002c0 f3 f3 50 3e e5 1d 4d be 90 63 8d be 2d 77 fe bd
       0.20405559 -0.20030935 -0.27615023 -0.12425075
0002d0 e3 f7 d0 bd d6 7a 73 3d ed 34 d6 bd 06 73 5d 3e
       -0.10203531 0.059443317 -0.104593135 0.21625909
0002e0 d2 af 96 3d f9 68 1b 3e 59 d6 50 3d 9b bf d4 3d
       0.07357754 0.15176763 0.050985668 0.10388108
0002f0 50 74 60 be ad e1 47 be a5 09 13 bf e3 27 0c be
       -0.2191937 -0.19519682 -0.5743659 -0.1368709
000300 25 85 d9 be b4 39 d1 bf 26 bf 2b be e2 d8 2b 3e
       -0.42484394 -1.6345735 -0.16772136 0.16781953
000310 1d e2 7e be 11 88 3d be be 35 a7 bc 65 13 7d 3e
       -0.24890943 -0.18508936 -0.020411368 0.2471443
000320 52 18 8f 3c f0 9c 55 3d 42 ac fd bd da d5 65 3e
       0.017467652 0.05215162 -0.12386371 0.22444859
000330 34 52 3e 3e 36 84 00 3e 7b f4 6e bc 22 0b 7c bd
       0.18586046 0.12550434 -0.014584656 -0.061534055
000340 39 ce f9 3d bf 85 e6 bd 8e 13 e0 3d d2 50 c2 3e
       0.12197537 -0.11255979 0.1094123 0.37952286
000350 fc 79 70 3d 75 da 80 bc 27 7a 43 3e fa be e8 bd
       0.058710083 -0.015729168 0.19089566 -0.11364551
000360 f5 15 4c 3d 8a 62 22 be 03 2a 70 3e 11 9b 03 be
       0.049825627 -0.15857902 0.23453526 -0.12852122
000370 f7 13 8a bb 58 b9 0f be 18 ab b2 bd 05 b7 29 3e
       -0.004213806 -0.14035547 -0.0872404 0.16573723
000380 a7 23 87 bd 12 74 4b 3e bd 17 59 be 8a 4d 1c bd
       -0.06598597 0.19868496 -0.21200462 -0.038159885
000390 43 4d 1a 3e 1b 22 76 be 0a 58 58 be b3 c0 cf bd
       0.15068536 -0.24036448 -0.21127334 -0.10144176
0003a0 e4 34 1e be ac 06 ab bc 63 5c 54 be 54 04 3e 3d
       -0.15449864 -0.020877205 -0.20738368 0.046390846
0003b0 c3 76 e1 bd a1 de b9 bd 23 3e 85 3e 09 e3 a8 3c
       -0.1100898 -0.09075666 0.2602397 0.020616071
0003c0 4c fa 80 bd 65 15 b4 3d 81 d0 b9 bd 81 d0 bc bd
       -0.0629774 0.08793143 -0.09072972 -0.092194565
0003d0 22 9d f4 bd 03 60 c3 bd ea ba 85 be dc bf 69 bd
       -0.11944033 -0.09539797 -0.26119167 -0.057067737
0003e0 97 95 53 be ce a0 27 be 13 ad 26 be 31 dc 78 bd
       -0.20662533 -0.16369936 -0.1627696 -0.060756866
0003f0 d7 da 12 3e 60 bf 9c bd 45 07 dc 3d eb af 80 be
       0.14341293 -0.076536894 0.10743574 -0.25134215

encoder_layers.block_0.transition.bias f4 [56]
000000 04 42 2e 3e 96 56 1c be e0 09 ef bd c0 9c 1c be
       0.1701737 -0.15267405 -0.116718054 -0.1529417
000010 f7 8f b0 3d 8b 2f 77 3d c1 7d 82 3e c9 fe f7 3c
       0.08621209 0.060348075 0.25486568 0.030272858
000020 bd 36 86 3e b0 9f 66 3b cd d0 58 be 50 53 c4 bd
       0.26213637 0.0035190396 -0.21173401 -0.09586203
000030 5f 30 aa bd 4b 81 88 3d 48 d7 11 3e 51 69 7d 3e
       -0.08310007 0.06665286 0.1424228 0.24747206
000040 74 01 3a 3e 53 4b 80 3d df 91 19 be 14 ef 9a bd
       0.18164617 0.06264367 -0.14997052 -0.07565132
000050 98 ce a4 3c d0 bf 56 3e 0f 75 d6 3d af b2 81 be
       0.020118043 0.20971608 0.10471546 -0.25331637
000060 75 2a 0c bd 8a 8d 3a be e2 7b ca bd 0f b2 30 3e
       -0.034220178 -0.18218055 -0.0988691 0.17255424
000070 2d 2d 6b be 20 8d cf bc 80 0c 23 3e 8e e8 64 3d
       -0.22966452 -0.025335848 0.15922737 0.055885844
000080 9c 12 a6 3d 84 28 4c 3c 8b 72 33 be bc b5 9b 3e
       0.08109018 0.012460832 -0.17524163 0.3041209
000090 18 fb 10 3e 45 78 f0 bd 8d 64 0a be df 85 1f 3d
       0.14158285 -0.117416896 -0.1351492 0.03894603
0000a0 71 59 97 bd 3b 12 12 3e 1f 24 68 be 5d f5 8e 3d
       -0.073901065 0.14264767 -0.22670029 0.06980393
0000b0 89 c8 51 3e d0 55 50 bd 86 d8 0f 3e a1 6e be 3d
       0.20486654 -0.050863087 0.14047441 0.092984445
0000c0 8b 7d 54 3e 92 e0 04 3e 74 4a 5e be 9d 6b 66 3e
       0.20751016 0.12976292 -0.21708089 0.22501989
0000d0 a5 eb 0c be da 89 1c 3e f3 ea 99 3d a0 eb af bd
       -0.13761766 0.15286961 0.07515516 -0.08589864

encoder_layers.block_0.conv.weight f4 [112, 56, 1, 1]
000000 9c bc 8e 3e f7 b5 14 bd 3d b1 7c bd cb eb 3b bd
       0.27878273 -0.036306348 -0.061692465 -0.045879167
000010 c9 ca 66 3e 44 6e 6c 3c eb 0c bd 3c ec c8 c6 3d
       0.22538294 0.014430586 0.023077449 0.097062916
000020 a4 e5 89 3d 34 81 c3 bd c4 fe 4a be d7 ac eb bc
       0.067332536 -0.09546128 -0.19823748 -0.02876894
000030 e7 e7 45 be 6d 37 87 3e 6c de af bd 16 08 d3 3e
       -0.19326745 0.26409474 -0.085873455 0.41217107
000040 62 18 96 3d 98 6e 16 3f fc 0e 24 be 4e 92 82 be
       0.073288694 0.587625 -0.16021341 -0.25502247
000050 05 63 94 bd 1b 70 36 3e 41 1e 0f bd e9 24 ba bd
       -0.07245449 0.17816202 -0.03494096 -0.09089071
000060 82 57 bc bd c7 74 9e 3d 07 90 a0 be 65 9b 82 bd
       -0.09196378 0.07737117 -0.31359884 -0.063772954
000070 cd bc 08 bf c5 e4 08 bf 00 85 0c 3e cd a6 99 3d
       -0.5341309 -0.53474075 0.1372261 0.07502518
000080 80 83 e2 3d a0 c5 ad 3d 33 49 22 3e ab 9e c1 bd
       0.11060238 0.084849596 0.15848236 -0.09454092
000090 ae 16 c1 3d d0 58 ab be 3d 75 94 bb a8 a4 17 bc
       0.09428154 -0.33466196 -0.0045305775 -0.009255566
0000a0 ad e7 4a be 8c 5d 11 3e 78 89 b1 bd 12 2e 46 bc
       -0.1981494 0.14195842 -0.08668798 -0.012095945
0000b0 c1 ff 80 3e 9c 99 83 bd 7e 33 c1 3e c8 cf 80 3d
       0.25195125 -0.06425783 0.37734598 0.06289631
0000c0 ba 7f 18 3d fd fd ed 3d b6 6c 39 be 16 15 22 3e
       0.037231185 0.1162071 -0.18107876 0.15828356
0000d0 5a ea 2c be f0 9d af 3e 20 e6 26 3e 5f 8a ac 3d
       -0.16886273 0.34300184 0.16298723 0.0842483
0000e0 bc 83 12 bd 90 11 48 3d 62 d7 b0 bd cc a3 bc bc
       -0.035770163 0.048844874 -0.08634831 -0.023027323
0000f0 78 0a 9e bc d6 ef cb 3d 3d e2 80 3d fc 6d c0 bd
       -0.019292101 0.099578544 0.062931515 -0.09395978
000100 b3 39 37 3d 7c 61 05 3d 2b a7 ce bd 2c d4 ac bd
       0.04473276 0.03256367 -0.100904785 -0.08438906
000110 8f 05 39 bd 03 d7 b5 3d 55 e3 6f 3d 2e d5 47 be
       -0.045171317 0.08878901 0.05856641 -0.19514915
000120 60 4b 07 3d c8 f6 de 3d c6 0f 0b 3d fe 57 0d 3f
       0.033030868 0.108869135 0.03395059 0.5521239
000130 f5 6a 49 be dd 16 2b bd b0 50 c8 bd 45 11 db bd
       -0.19669707 -0.04176985 -0.09781015 -0.10696653
000140 a0 a8 66 3d 79 1c a9 bd 0c 33 00 be ec 32 e0 3d
       0.056313157 -0.08257384 -0.12519473 0.109472126
000150 88 c9 4f bc 41 24 46 bd 23 85 fd 3b 0f 85 27 bd
       -0.012682326 -0.04837442 0.0077368184 -0.04089838
000160 b7 c4 83 3c b0 de d9 3d 2f 20 a3 bd 2f f9 28 3d
       0.016085012 0.106381774 -0.07965123 0.041253265
000170 73 56 d8 3d d6 43 3e 3d 4e 74 81 3b fd be 04 3d
       0.10563364 0.046451412 0.003950632 0.032408703
000180 b3 02 c0 3c 97 32 6e 3d d5 27 f4 bd d0 78 66 3e
       0.023438787 0.058153715 -0.1192166 0.22507024
000190 bc 3d df 3d e6 44 77 3d 47 06 7d bd d9 9a ee 3d
       0.10900447 0.06036844 -0.061773565 0.116506286
0001a0 e5 1f 55 bd 16 80 d0 bb 34 83 8f bd dd 7c c3 bd
       -0.05203237 -0.0063629253 -0.07007447 -0.095453
0001b0 24 11 ba bd b5 87 b2 3d 7c da 2b 3e 88 38 3e bd
       -0.090853006 0.0871729 0.16782564 -0.04644063
0001c0 51 b9 9f 3c ed d8 8c bd a0 32 9e bd 36 83 34 be
       0.019497545 -0.06877313 -0.077245 -0.17628178
0001d0 9b 09 9c 3d c6 ab d9 3d de 96 4f 3d 4c 22 ba bd
       0.076190196 0.10628466 0.050680988 -0.09088573
0001e0 d3 8e 93 3d d3 60 d0 bd 94 fc 8e be 83 19 bb bd
       0.07204976 -0.10174718 -0.27927077 -0.09135725
0001f0 a2 4e 17 be c0 59 b5 3d 7a 5e b0 bd fe b8 6d 3d
       -0.1477609 0.08855009 -0.0861177 0.05803775
000200 4f f8 02 3e b1 b7 b2 3e 07 c4 06 be 79 f5 97 ba
       0.12790035 0.3490577 -0.13160716 -0.0011593542
000210 f9 c0 65 be f7 f7 6a bc 5e 3d 46 be a5 62 29 be
       -0.22436894 -0.014341346 -0.19359347 -0.16541536
000220 8b 35 14 be 42 81 31 3e 71 ca 7b be 47 67 ed 3c
       -0.1447355 0.17334464 -0.24588944 0.02897991
000230 50 14 25 be 3e fd 20 3e f0 49 cc bd df 70 81 3c
       -0.1612103 0.15721604 -0.0997504 0.015800891
000240 80 c8 4c 3d 80 40 4b 3d 8e e3 30 bd f6 d8 f8 bc
       0.0499959 0.04962206 -0.043185763 -0.030376893
000250 44 b3 59 3e c8 73 ae be c6 0d 48 be e1 8e 38 3e
       0.2125979 -0.3407271 -0.19536504 0.18023254
000260 8b bb de bd b1 ff 75 3d 5e 7d 83 be 72 40 28 3e
       -0.10875615 0.0600583 -0.25681585 0.16430834
000270 00 41 82 3e f2 36 c8 bd fb ed 69 3e eb 49 8c 3e
       0.25440216 -0.09776105 0.22844689 0.27400145
000280 ef 0f 37 3e 42 3a 7e 3d e1 b6 0e be 0d 69 c6 3d
       0.17877172 0.062067278 -0.1393695 0.096880056
000290 71 d9 33 3d bd 3a 9a 3e 20 b2 43 3e 0d 65 a5 3d
       0.04390854 0.3012294 0.19110918 0.080759145
0002a0 56 02 39 bd 72 3a 01 3d 31 ad 84 bb 42 00 1e be
       -0.045168243 0.03154988 -0.0040489663 -0.15429786
0002b0 cc 3b 28 3e 0e be a8 3d 7c fc 4f 3e c0 72 58 bd
       0.1642906 0.08239375 0.20311159 -0.05284381
0002c0 a6 61 13 3e 35 6f 99 bd 29 c1 d1 3e 33 77 94 3c
       0.14392719 -0.07491914 0.40967682 0.018123245
0002d0 ba 69 2a be 26 5b 6a 3e c4 d2 12 bc 6c d3 83 3e
       -0.16641894 0.22886333 -0.008961383 0.2574724
0002e0 21 a6 66 3d 9e 7e 9d 3e 29 08 6a 3d 13 b7 a4 3c
       0.056310777 0.30760664 0.05713669 0.020106828
0002f0 80 c1 3f be ee 13 9c ba 4f 70 37 bd bd ea 1a be
       -0.18726158 -0.0011907795 -0.04478484 -0.15128608
000300 43 25 37 bd 9d f6 9d bd d7 13 cc 3e 5c 66 30 3d
       -0.04471327 -0.077130534 0.39858887 0.043066368
000310 9f 15 18 bf 17 72 aa 3c 98 fa 20 3d 15 90 96 3e
       -0.5940799 0.020806355 0.039301485 0.294068
000320 a2 05 a1 bd 97 d9 9a be 3b f2 f7 3d 92 34 81 3f
       -0.078624025 -0.30244133 0.12106749 1.0094168
000330 19 71 cb 3c be ca 7c be ab df fe 3d 75 db 28 3e
       0.024834203 -0.24686715 0.12445005 0.16489966
000340 e7 a2 0f be 70 45 3c 3d 5e 31 25 bd aa df 40 bb
       -0.14026986 0.04596466 -0.040330283 -0.002943019
000350 c4 43 fa 3d 0e 34 1a bd d6 14 65 3e a6 b6 b6 3d
       0.122199565 -0.0376473 0.2237123 0.08921556
000360 31 f8 37 3e 54 43 08 3e cf 15 06 be 3a ca 23 3e
       0.17965771 0.13306934 -0.13094257 0.15995112
000370 48 47 42 3d 9d 40 a4 bc 8f 35 5c be 7f 49 87 bd
       0.04743126 -0.020050341 -0.21504806 -0.06605815
000380 cc ae 75 be 7a 47 59 be aa c2 35 be 60 0c 4e be
       -0.23992461 -0.21218672 -0.1775004 -0.20121908
000390 4c e3 01 3e 11 8a 75 3e 5c 29 b0 3c 09 93 5a be
       0.12684363 0.2397845 0.021504097 -0.21345152
0003a0 af 8f b9 3d 35 56 ca bd f0 09 14 bc 1a 2e 0d be
       0.090606086 -0.09879724 -0.009035572 -0.13787118
0003b0 78 11 28 be 84 00 57 3b a8 ad 48 3e 22 c7 e4 bd
       -0.16412914 0.0032806704 0.19597495 -0.11170794
0003c0 27 b5 71 3e e7 58 ea bd db 90 80 be 0f 59 b8 3e
       0.2360426 -0.11442738 -0.25110516 0.36005446
0003d0 5b ac a6 3d 1c 06 78 3e f3 cc cc bb 8e e4 60 be
       0.08138343 0.2422108 -0.006250018 -0.21962187
0003e0 14 fd 15 bd 93 de 29 3e b9 43 0a be 98 81 8c 3e
       -0.036618307 0.16588812 -0.13502397 0.27442622
0003f0 68 97 a6 3e a6 27 25 3f ec a4 b1 bd d5 dc 87 3e
       0.3253739 0.64513624 -0.086740345 0.2653567

encoder_layers.block_0.conv.bias f4 [112]
000000 a5 88 3f 3e 03 36 95 3d 70 56 f5 3d f9 7f 1f 3d
       0.1870447 0.072856925 0.11979377 0.038940404
000010 51 61 1e 3e b1 f1 1f 3e 9e 3e 96 3e df fd 04 3e
       0.15466811 0.15619542 0.29344648 0.12987469
000020 d5 e4 1f 3e 1d 54 c5 3d 0a 50 d6 3c 48 fd 16 3d
       0.15614636 0.09635184 0.026161212 0.03686264
000030 de 6a ce 3d 62 72 99 3d b4 da 43 bd 95 74 d8 bd
       0.10078977 0.0749252 -0.047815993 -0.10569111
000040 ea bf 4f 3d 0a 8f fa 3c a4 db 93 3e 26 8a 75 3e
       0.050720133 0.030585784 0.2887851 0.2397848
000050 0e 4d ee 3e 00 c6 b1 3e a9 df 8a 3e 95 fc 86 3d
       0.46543163 0.34721375 0.27123764 0.06591145
000060 62 68 b9 3d f6 44 47 3e a9 74 cb 3d 0b ed 0c 3e
       0.090531126 0.194599 0.099343605 0.137623
000070 53 11 2a 3e 25 cb 7c 3d c0 68 e2 3d 40 32 1e 3e
       0.16608171 0.06171717 0.11055136 0.15448856
000080 3d 29 9d bd 1f 52 14 3c 25 6d 70 3e e6 e0 11 3d
       -0.07673881 0.009052782 0.23479135 0.03561487
000090 1e 7d 0a bc 40 16 c3 3d f3 02 a6 3d bd c8 1f bd
       -0.008452682 0.09525728 0.08106031 -0.0390098
0000a0 db 2e 07 3e a7 ed ad bd 9c 92 29 3e 14 13 23 3e
       0.13201468 -0.08492594 0.16559833 0.15925246
0000b0 24 2e 77 3e 0a d0 99 bc a0 8b 9b 3c c4 e8 dc 3d
       0.24138695 -0.018775959 0.018987477 0.10786584
0000c0 7b da 2f be 1c 03 75 bd b4 f9 cb bb bf 4d 5d 3d
       -0.17173187 -0.05981742 -0.0062248353 0.054029223
0000d0 4d 13 08 3e 99 92 43 3b 9c b3 b1 3d d4 f5 bf 3d
       0.13288613 0.0029842018 0.08676836 0.0937306
0000e0 51 b9 5a bd 14 00 26 3e 9d 66 fe 3d 93 a4 b1 3e
       -0.053399388 0.16210967 0.12421916 0.34695873
0000f0 03 14 92 3e 9a b2 da 3c c3 5f 02 3d 56 e2 a4 3d
       0.28530893 0.026696492 0.031829607 0.08050983
000100 29 a8 05 3e 36 4f ba 3d e8 60 33 3e 23 17 27 3b
       0.1305243 0.090971395 0.17517436 0.0025495968
000110 d2 1d de 3e c5 b9 35 3e 41 98 27 3d dc 2c fa 3d
       0.43382126 0.17746647 0.040916685 0.122155875
000120 1d 4d 6d 3c 6d fe 6d bc 02 7b 90 3e d0 62 71 3f
       0.014483717 -0.014525992 0.28218848 0.942914
000130 0e 7a 07 3f d3 1b 64 3e 31 4d 51 3e 5f 23 27 3e
       0.52920616 0.22276239 0.20439602 0.16322087
000140 ce e1 89 3e bd c8 89 3e ee 8e d6 3d 48 d0 cd 3d
       0.26930088 0.26910964 0.104764804 0.10049492
000150 c3 aa 29 3d 74 44 8f 3d 3d fc 05 bc 2b c2 41 bd
       0.041422617 0.06995478 -0.008177814 -0.047304314
000160 bb a9 3b bb d9 6a 6b bd b4 cc 39 bd a1 c3 84 3d
       -0.0028635103 -0.057474945 -0.045361236 0.06482626
000170 22 c0 86 bd 21 71 3a bc 81 fa de bc 79 bc 34 3d
       -0.06579615 -0.011379511 -0.027219059 0.044125054
000180 06 65 db 3c 9e e3 e9 bb 40 21 8c 3d a2 4c 90 3d
       0.02678157 -0.00713773 0.068422794 0.070458665
000190 76 f6 51 3d b7 a0 fa 3a 5e 60 34 bd 20 75 cf 3c
       0.051260434 0.0019121383 -0.044037215 0.025324404
0001a0 90 27 4b 3d c8 98 d5 3c ac 22 9f bc df 93 22 3d
       0.049598277 0.026073828 -0.019425713 0.039691802
0001b0 72 32 6d bd 7d 78 1d bd ed c4 e8 3d ce 4f c9 bd
       -0.057909437 -0.038444985 0.113656856 -0.09829675

encoder_layers.block_1.transition.weight f4 [56, 1, 3, 3]
000000 e0 56 0f 3e 6f fd 56 3e 7a 17 13 bc 7c 9e be 3d
       0.13997984 0.20995115 -0.008977765 0.09307572
000010 5d dc 0f bc 4b 35 11 3e 60 38 35 bd 8e 73 4f be
       -0.008780566 0.14180486 -0.044243217 -0.20258924
000020 2c 90 6a 3e 2d dc 4d be 81 09 d5 bc c7 4d f5 3d
       0.2290656 -0.20103522 -0.026005508 0.119777255
000030 c7 6a b8 be 39 57 41 be cf a9 76 bd b4 eb 02 be
       -0.36018965 -0.18880929 -0.060220536 -0.12785226
000040 b5 58 62 be 4a 5d e4 be ce a4 a3 bd 52 40 aa be
       -0.22104152 -0.44602424 -0.079904184 -0.33252198
000050 8f b8 54 be 89 35 96 be b4 2f 8d be e1 f7 f0 bd
       -0.20773529 -0.2933772 -0.27575457 -0.11766029
000060 46 82 3b be f2 d4 4b be 95 fc 1f 3e 76 1e ce bd
       -0.18311414 -0.19905451 0.15623696 -0.10064404
000070 0a 2c 89 be 2b cb 25 be 2e 9a 61 3e fe 8e 47 3f
       -0.26791412 -0.16190784 0.22031471 0.77952564
000080 dc b9 78 3e 31 65 1c 3c 0b 24 d9 3e a0 5a 30 be
       0.2428965 0.00954561 0.4241031 -0.1722207
000090 7f 6b e6 be 0b b3 20 be e9 01 07 3e 17 f9 45 bb
       -0.45003888 -0.156933 0.13184322 -0.0030208284
0000a0 78 02 d9 be b6 f5 87 3e 22 a5 dc be 48 0e 35 be
       -0.42384696 0.2655465 -0.43094736 -0.17681229
0000b0 4d ec 6b 3d a7 2e b1 3e 13 a3 f7 bd 9b c0 13 be
       0.0575984 0.34605905 -0.12091651 -0.14428942
0000c0 b9 95 1f 3e e6 05 6a 3e dc f5 1d be ee 7b 36 3e
       0.15584458 0.22853813 -0.15425819 0.17820713
0000d0 8d c2 c4 3e 8f 38 c5 3e b3 b4 8b 3d 01 57 dc bd
       0.3842968 0.38519713 0.06821575 -0.10758782
0000e0 48 03 4c 3e 61 00 a6 bd 85 bf a1 be c5 b7 3a be
       0.19923127 -0.08105541 -0.3159143 -0.18234165
0000f0 55 70 09 be 6b fb 1c bf e9 8a 72 be e1 a1 0d 3d
       -0.13421758 -0.61321133 -0.23685803 0.034578208
000100 ac a2 d0 bd 98 46 7b 3e 44 e5 8f 3b b2 9b ca be
       -0.10187277 0.24538648 0.0043913443 -0.3957191
000110 ab 01 10 be 3c f2 6e be e0 24 88 be ae 1d a0 3d
       -0.14063136 -0.23334593 -0.26590633 0.07818161
000120 2d 60 74 be 39 47 43 be 2f 02 80 be 2a 89 6a be
       -0.23864813 -0.19070138 -0.25001666 -0.22903886
000130 da b7 c0 3d d4 c5 24 3e 23 b0 2e bd 8a d4 a6 3d
       0.09410067 0.1609109 -0.042648446 0.08146007
000140 c9 15 99 3d 43 7a e4 bd 65 cb 45 be 09 97 b3 be
       0.07474858 -0.11156132 -0.1931587 -0.35076168
000150 2c 44 02 3e 01 84 bf bd 5a 9b d5 bd 48 13 81 3e
       0.12721318 -0.093513496 -0.104300216 0.25210023
000160 c3 f9 b1 3e e3 86 87 3e 86 ee c3 3c 18 73 c0 be
       0.34760866 0.26470098 0.023917448 -0.3758781
000170 96 94 bc bc 5b 0f a2 3d 0e 02 f9 3e 76 cb e4 3e
       -0.02302007 0.07913085 0.4863438 0.44686478
000180 98 83 4d 3d 07 76 5c 3e 05 68 c2 3e 2e f5 92 be
       0.050174326 0.21529399 0.37969986 -0.28702682
000190 47 7d 90 be 0f 84 f0 bd 6e 93 91 bd e9 a3 37 be
       -0.2822058 -0.11743938 -0.07108198 -0.1793362
0001a0 ad a0 4f bd 12 c5 21 3e 6b 26 33 3e 20 ad 8d be
       -0.05069034 0.15797833 0.17495124 -0.27671146
0001b0 cd c7 05 3d bc 06 a3 be 1a 48 ff bd cf be 94 3e
       0.032661248 -0.31841075 -0.12464924 0.29051825
0001c0 f5 40 7e 3f b4 da 3d be 44 ff 9f bd 46 9d 0f be
       0.99317867 -0.1854046 -0.0781236 -0.14024839
0001d0 3b fd 29 be 3c a4 9f bc d7 d6 1f 3d f0 17 5b 3e
       -0.16600506 -0.019487493 0.039023247 0.2139585
0001e0 f1 52 0b bd ec 1e df 3e 54 33 5d 3e b1 22 90 3e
       -0.034014646 0.4357828 0.21601611 0.28151467
0001f0 6a 20 9f 3e f3 f6 78 bc ea 01 2d 3e 09 41 86 3d
       0.31079417 -0.015195596 0.16895261 0.06555373
000200 51 cc 28 3e 1c 3b cf 3d 53 2a 1e 3e 01 84 e3 3c
       0.1648419 0.10118696 0.15445833 0.027772905
000210 e4 fb a9 bd eb 42 21 be 1c 81 d8 3c 1d aa 5a 3e
       -0.082999974 -0.15748183 0.026428752 0.21353956
000220 bb e5 b9 be 89 b0 93 be c9 54 84 bd 4a 51 84 be
       -0.36308083 -0.28845623 -0.06461484 -0.2584327
000230 01 04 9b be 10 50 d4 bd 69 4a 16 be 7b 0f 17 be
       -0.30276492 -0.10366833 -0.14676823 -0.14751999
000240 40 29 14 bd a5 0b bd be ce 10 07 be 1b 1c df 3e
       -0.03617215 -0.36922947 -0.13190004 0.4357613
000250 32 18 14 3f ed f5 cb 3d 31 02 8f be 30 4d 0a 3d
       0.5784942 0.09959016 -0.2793136 0.033765018
000260 fa d9 57 be 19 b5 81 3e 8c 2c 3f 3e 0d 64 4e 3e
       -0.21079245 0.2533348 0.18669337 0.20155354
000270 40 cb 71 3e 81 a2 6f 3d e4 05 cc bd 9e 13 8c 3e
       0.2361269 0.058504585 -0.09962061 0.27358717
000280 ed bd 4c 3e 2f 86 54 be f2 bd 01 bd ca 1c 10 bc
       0.19994326 -0.20754312 -0.031675287 -0.008795926
000290 28 18 0d 3c 58 31 83 3d 0f 46 48 bf 02 87 19 be
       0.008611716 0.06405896 -0.782319 -0.14992908
0002a0 f5 77 07 bf 91 f1 08 3d 07 c3 2c be 01 48 ef bc
       -0.52917415 0.0334335 -0.16871272 -0.029209139
0002b0 82 db aa be 9a 63 cc 3c 23 5c 1a bf 2f 6c 48 3f
       -0.33370596 0.024949837 -0.6029684 0.78290075
0002c0 b0 85 a9 3d ab 2b 9c bd 99 76 a7 bc 57 9f b5 3b
       0.08277452 -0.076255165 -0.020442294 0.0055426764
0002d0 bf 98 92 3c 36 1e 87 3d a5 8c fe 3d 98 e4 64 3d
       0.0178951 0.06597559 0.124291696 0.055882066
0002e0 60 c9 f3 3e 4a f2 a0 3e 99 cb d2 bd 1c 2f c4 3e
       0.47614574 0.31434852 -0.102927394 0.38317192
0002f0 89 53 2e 3d 52 69 17 be 1c a8 3c be 89 09 3d be
       0.042560134 -0.1478627 -0.18423504 -0.18460669
000300 9c f8 f8 be 1b c9 35 be 84 cb 56 3d 07 9b 59 3d
       -0.48627174 -0.17752497 0.05244018 0.05312636
000310 44 57 9f be 54 4c 13 3e 23 3c 6c 3e 23 b0 63 3e
       -0.31121266 0.14384586 0.23069815 0.2223516
000320 4d 48 bc 3e c5 f8 40 3e 5d 67 9f 3e 42 6c c3 3e
       0.3677391 0.18844898 0.31133547 0.38168532
000330 3f 4e 51 be 55 12 c0 3e 7f c9 8d 3e 05 38 90 3d
       -0.20440005 0.37513986 0.27692792 0.07041935
000340 27 66 f7 bc 80 b8 82 3e cd 0b e5 be 64 59 0d bd
       -0.030200077 0.25531387 -0.44735566 -0.034509078
000350 fd 93 07 3e 53 83 e8 bd c8 9b ae be fc 88 25 be
       0.13240047 -0.11353173 -0.34103227 -0.16165537
000360 cb 32 e0 3e 1d 4c 01 bc e3 57 17 3e 2f b1 b5 bb
       0.43788752 -0.007891682 0.1477962 -0.0055448036
000370 c2 10 26 3d 30 23 5e bc f4 18 9f be cc 1b 37 3e
       0.040543325 -0.013558194 -0.31073725 0.17881697
000380 1b cd d8 bd 68 a1 98 be 47 ff 17 3e c2 5f 2d be
       -0.10585996 -0.29810643 0.14843474 -0.1693106
000390 43 2e d6 3d 07 0f 0c 3d 94 9a b9 bd 06 ba d7 be
       0.104580425 0.03419402 -0.090626866 -0.42134112
0003a0 48 ec cc 3e 0d 28 22 3e 7a ed e7 3d 94 f6 c3 3e
       0.40024018 0.1583559 0.11324592 0.38274062
0003b0 21 14 8b 3e 6a 6a d4 3e 24 b2 2e be 72 33 96 bd
       0.27163795 0.41487437 -0.17060143 -0.07334031
0003c0 8d bc 41 3e 99 93 10 be 05 20 c0 bd a9 bf 82 bd
       0.18919583 -0.14118804 -0.09381107 -0.063842125
0003d0 7d d3 30 be d9 a3 6c 3d 8a e3 ef 3d 69 d5 9c 3f
       -0.17268176 0.057773445 0.117133215 1.2252628
0003e0 8e 6c 0d 3d 74 5d 47 3d 74 96 c5 3e eb 03 dc 3d
       0.034527354 0.04867311 0.3859135 0.10742935
0003f0 12 68 c1 bc 3d 09 0e bd 6d aa 13 bd d4 37 d8 be
       -0.023609195 -0.03467678 -0.036051203 -0.42230093

encoder_layers.block_1.transition.bias f4 [56]
000000 27 ab d5 bb 66 b1 72 be ae b3 3a 3e a3 ba 1b bd
       -0.006520647 -0.23700485 0.18232605 -0.038019788
000010 8a 33 0d be f8 bf 11 be 5d 2f 59 3e e1 27 99 be
       -0.13789192 -0.14233387 0.21209474 -0.29913238
000020 1b 65 19 3e 03 83 c0 bc 71 a9 50 3e 7f 04 17 3e
       0.14979975 -0.023499971 0.20377137 0.14747809
000030 d3 e5 79 bd 3e 5b 41 3e 93 65 f7 3d 59 bc 08 bc
       -0.061010193 0.18882462 0.120799206 -0.008345687
000040 fe 59 98 3e 7c 99 15 bd b8 1b 1b bd 6d 8f 6d 3d
       0.2975616 -0.036523327 -0.03786823 0.05799811
000050 69 39 25 3e ea 46 c4 3c fb cb 0e 3e c0 05 94 3d
       0.16135181 0.023959596 0.13945 0.07227659
000060 17 27 85 be 0e 7c 2c 3e 84 68 b0 3d 08 ca 6c 3e
       -0.26006386 0.16844198 0.08613685 0.23123944
000070 b5 1a f5 bd 56 69 b8 bd 5b a8 61 be bb 3f 22 3e
       -0.119679846 -0.09004466 -0.22036879 0.15844624
000080 ff 94 1e be 90 4d 4f be fa 2e 82 be 59 b1 91 be
       -0.15486525 -0.20244431 -0.25426465 -0.28455618
000090 2e 24 68 bd 40 fd 18 3d b4 ef 95 3e b1 d4 a1 3d
       -0.05667513 0.037350893 0.2928444 0.07901896
0000a0 a2 14 aa bd 1a b2 50 3e 1a a3 21 be 94 22 98 bc
       -0.08304717 0.2038044 -0.15784875 -0.018571176
0000b0 12 de 2f 3e f9 fe 0b be 92 05 5f be 31 67 8d 3e
       0.17174557 -0.13671483 -0.21779469 0.2761779
0000c0 e2 e4 f5 3d a5 f0 b1 bc e2 0f 33 be 62 8a 70 bd
       0.120065466 -0.021721194 -0.17486528 -0.058725722
0000d0 32 22 dd bc 32 41 36 be 67 45 17 3e a7 7e 64 be
       -0.026993845 -0.17798308 0.14772569 -0.22313939

encoder_layers.block_1.conv.weight f4 [112, 56, 1, 1]
000000 51 0d 29 ba f6 a5 36 be 15 55 80 3e 46 60 25 3d
       -0.00064488227 -0.17836747 0.25064912 0.040375017
000010 bc cf ef be 0b 46 f1 3c 39 d9 a3 3c 6e e2 14 be
       -0.46838176 0.029452344 0.02000104 -0.14539501
000020 5a 2e 27 3e 3e 2a 45 be f7 a6 be 3e e1 5c 8c be
       0.16326275 -0.19254395 0.3723676 -0.2741461
000030 82 d9 d7 be e3 c1 18 bb d0 4a 14 3d 56 4e cb bd
       -0.42158133 -0.0023308925 0.03620416 -0.09927051
000040 23 5b e6 3d e1 db 48 bd 83 2f 68 be d9 67 13 3f
       0.11247852 -0.049037818 -0.22674374 0.57580334
000050 9f 0e 84 be 97 b1 1f be 94 a1 76 3e 71 28 19 3e
       -0.25792405 -0.15595089 0.24085075 0.14956833
000060 42 a1 09 be 60 a7 77 3e 0e 75 d4 3e 43 5d 80 3d
       -0.13440421 0.24184942 0.41495556 0.06267788
000070 9c 09 8f 3d 63 3d 3a be 46 fb 09 be ee 85 b7 3e
       0.06984255 -0.1818748 -0.1347476 0.35844368
000080 2d f2 13 be 2e 5f 62 3d bd 8e ca be 95 9d 90 be
       -0.14447851 0.05526655 -0.39562026 -0.28245226
000090 6e 1e 28 3e ce 69 ab 3e e0 e6 bc bd 1f 17 0a be
       0.16417858 0.3347916 -0.092237234 -0.13485382
0000a0 a9 ae 9a 3e 94 ae 3b 3e 74 2f 83 3c 68 7d 5a 3d
       0.3021138 0.18328315 0.016013838 0.053342253
0000b0 5c 0d 23 3e 7a 34 98 be 23 fe 2b 3d 4c bf 05 3e
       0.15923065 -0.29727536 0.04199041 0.13061255
0000c0 26 b7 ac be d2 6e 8a 3e 5b b6 4b be 3d 22 e5 3e
       -0.3373348 0.27037674 -0.19893782 0.44752684
0000d0 31 36 87 3d c2 3d 18 be 7c 65 67 3e a4 df fd 3b
       0.06602133 -0.14867309 0.22597307 0.0077476073
0000e0 a9 4e 66 3d 6b f7 19 3d 74 9f 1b 3e bb e4 9a 3e
       0.05622736 0.03758947 0.15197545 0.30252632
0000f0 06 e9 ad 3d 80 fa 3f 3d f1 2d bd 3e fe 86 34 3d
       0.08491711 0.046869755 0.36949113 0.04407405
000100 fe af a6 3b 9f d3 4e 3e cc 5a a6 3d 24 b1 8a 3c
       0.005086898 0.20197915 0.08122787 0.01693017
000110 e5 6b de bd fe 5e 5b 3e 3a 57 14 bc e7 ae 6e be
       -0.10860423 0.21422955 -0.009054 -0.23308907
000120 51 e5 17 3e 9f 59 42 bd b5 e4 b3 3e 4b dd cd 3b
       0.14833571 -0.04744875 0.35135427 0.0062824837
000130 ba b6 9e 3e 54 be f0 be 2c 43 65 3d b0 5e 36 3e
       0.30998784 -0.4702021 0.055972263 0.17809558
000140 1d fb 38 be 0b 56 86 3d 74 81 6d be 55 54 90 bd
       -0.18064542 0.0655938 -0.23193914 -0.07047335
000150 c3 61 05 3e 0f f4 87 bd 9f 3c 1f be 68 b1 3f 3d
       0.13025574 -0.06638347 -0.15550469 0.046800047
000160 72 77 96 be 60 7f be bd bf f5 4b bd 4b ba 83 be
       -0.29388005 -0.093016386 -0.04979491 -0.25728068
000170 3a 25 98 3c ed 1e 8c 3e bd f2 8c 3e ae da 98 3e
       0.018572439 0.27367344 0.27528945 0.2985434
000180 78 f5 f4 bd 52 3c ce 3b 67 9d 8e 3d c9 93 df 3d
       -0.11960882 0.006293812 0.06963616 0.1091686
000190 1a 49 82 3e 00 86 83 be b9 c3 67 3e 23 c9 6a bd
       0.25446397 -0.2568817 0.22633256 -0.057320725
0001a0 02 59 dd 3e 34 28 ad 3d 68 89 c7 bc 26 69 19 be
       0.4323197 0.08454934 -0.024357513 -0.14981517
0001b0 1a 0e 02 3e a8 3a ed bd a5 a8 1b bd 13 d2 b9 be
       0.12700692 -0.115834534 -0.03800263 -0.36293086
0001c0 55 a6 d7 be be 6b 9e be fb d3 6c 3e 59 3e 42 3d
       -0.4211909 -0.30941576 0.23127739 0.04742274
0001d0 4b 05 9d bd 6c 94 8d be 00 4c 83 3e fe 45 08 bf
       -0.07667025 -0.276523 0.2564392 -0.532318
0001e0 68 b3 5d 3e 52 92 65 be 6f 76 db 3e ee 6a 56 be
       0.2165047 -0.22419098 0.42863795 -0.20939228
0001f0 81 bb ab 3e 51 4f a2 be 14 9f 09 3e f4 7c 22 3c
       0.33541492 -0.3170114 0.1343959 0.009917486
000200 3c 81 9a 3e 9b 17 51 bd c3 f8 e2 3d 12 55 b7 3e
       0.30176723 -0.051047903 0.11082604 0.3580709
000210 df 0d d5 3d e4 c5 cd 3e c7 d0 c5 3d fe a4 e3 be
       0.10403036 0.4019004 0.09658962 -0.44461817
000220 10 e4 8e be 64 ac 74 3e e2 38 f8 3e db eb 2c 3e
       -0.27908373 0.23893887 0.48480898 0.16886847
000230 cc c3 2e 3f 51 24 84 be 7d 01 d5 bd 8b 8c bc 3e
       0.6826751 -0.25808957 -0.104006745 0.36825976
000240 fc d9 a4 be d4 c4 89 be c9 c9 19 bf fe 23 b5 3d
       -0.3219756 -0.2690798 -0.60073525 0.088447556
000250 fe 90 d8 bd aa cd 59 3e 09 7a 99 bd 40 d0 2c be
       -0.1057453 0.21269861 -0.074939795 -0.16876316
000260 95 54 5b 3e 1f b1 e6 3d 8d 7e ab 3d e8 a7 67 3e
       0.21418984 0.11264252 0.08373747 0.22622645
000270 88 ab 37 3f c8 44 d2 be 49 d3 a8 3e 32 bc 30 3e
       0.7174611 -0.410681 0.32973698 0.17259291
000280 7c f2 20 bf 3d 49 c4 3e b9 c2 6a be 88 cb f3 3e
       -0.6287 0.38337126 -0.22925843 0.4761622
000290 eb ad bb 3e b8 4e c7 be 65 95 90 3e 9c 28 ab be
       0.36656126 -0.38927245 0.2823898 -0.3342942
0002a0 b8 06 66 bd 31 26 0e be 7e 06 81 3e 8e 50 97 3d
       -0.05615875 -0.13881756 0.25200266 0.073884115
0002b0 e8 d6 08 be 0e fe ad bd 6e e6 c2 3e e6 70 db bd
       -0.1336323 -0.08495723 0.3806643 -0.10714893
0002c0 de 62 ed 3d 48 b6 2b be 47 37 db 3e 8d 8d 4e be
       0.11591123 -0.16768754 0.4281561 -0.20171185
0002d0 c6 80 b7 be 7f 1a b4 bd 4a 63 b0 bd af e6 08 be
       -0.35840434 -0.08794116 -0.08612688 -0.13369249
0002e0 ea 01 96 3d 79 1d eb bd 70 86 e2 bc 25 7f 05 3d
       0.07324584 -0.11480231 -0.027651995 0.032591958
0002f0 d4 07 87 be b7 89 4a 3e b7 c7 a3 3e bd f6 8c 3d
       -0.2637316 0.19779097 0.31988308 0.06882999
000300 ce fd b6 bd cb 57 89 3e 0f 2e 07 bd 28 72 7a 3e
       -0.08935128 0.26824793 -0.03300291 0.2445761
000310 66 ad 35 be 25 b0 a0 be 3d 81 92 bd 28 55 22 3e
       -0.17741928 -0.31384388 -0.071535565 0.15852797
000320 87 5e a9 bd 4b 70 82 3c 94 6b 4d be 41 58 e9 bc
       -0.08269983 0.015922686 -0.20060569 -0.028484466
000330 87 5c b5 3d fd a9 15 3e 5c d0 db 3e f0 52 02 3c
       0.08855539 0.14615627 0.42932403 0.007954344
000340 eb 9d 40 3e 1e 27 11 3e dc 11 9e bd 9c c7 ac be
       0.18810241 0.14175078 -0.0771825 -0.3374604
000350 1c 83 e0 3c 5f ae 72 be 15 2c 5d 3c 30 fd 2f 3d
       0.027406268 -0.2369933 0.0134992795 0.042966068
000360 0e 3d 0a 3b d2 af 60 3e 30 58 b6 be 8c ee 2c 3e
       0.002109352 0.2194207 -0.35614157 0.16887873
000370 7f 3d 23 3e 93 1a 1b be c5 7c f1 3d d2 e4 a5 be
       0.15941428 -0.15146856 0.11791376 -0.3240114
000380 5f c8 1b 3d 7a 38 5c be ce fc 67 3d 1c d1 d0 3d
       0.038032886 -0.21505919 0.056637578 0.101961344
000390 40 ca 8e bd 1e ee 11 be fb 21 58 be 85 be d5 bd
       -0.0697217 -0.14250991 -0.21106713 -0.10436729
0003a0 ab 68 75 3d f0 36 00 be 3f e4 68 3d a1 da 84 3c
       0.059914272 -0.12520957 0.056858297 0.016217532
0003b0 5f cd 23 bd bd 17 3f be bb 8f 5c 3c 70 9e 3e 3d
       -0.03999078 -0.18661399 0.013462002 0.046537817
0003c0 d8 b2 e2 3d c5 f4 b7 bc 69 d9 cd bd e9 1f f5 3c
       0.11069268 -0.022455582 -0.10051233 0.029922443
0003d0 4f a0 8b 3e 2d 40 ce bd 0c 51 68 3d 9b 00 c8 3a
       0.27270743 -0.10070834 0.056717917 0.001525897
0003e0 c8 d6 2b be 2d 6d f5 3d 36 31 65 3e 2a 24 99 3b
       -0.16781151 0.11983714 0.22382054 0.0046735005
0003f0 06 fb 44 3e e5 3b 1a 3d 97 f8 2d be 92 84 b2 3d
       0.19236383 0.037654776 -0.16989361 0.08716692

encoder_layers.block_1.conv.bias f4 [112]
000000 d9 ec 6e 3e 59 ef c4 3d 34 f6 00 3f 13 d6 83 3e
       0.23332538 0.096159644 0.50375676 0.25749263
000010 34 3c 13 3d 79 fc 41 3e 9d 9b bb 3d f0 6b 98 bb
       0.035946086 0.18943967 0.0916054 -0.004651539
000020 e5 41 96 3d f3 76 60 bd 5e 3b c1 3e 16 6e ce bc
       0.07336787 -0.05480094 0.37740606 -0.025198977
000030 95 bb 34 3e e6 31 6c bc bb e6 c3 3d e9 ed e4 3c
       0.17649682 -0.014416194 0.09565493 0.027945476
000040 92 8e 8b 3d 68 18 b2 3d 75 ed 3a bd 7c 69 1a 3e
       0.068143025 0.086960614 -0.045636613 0.15079302
000050 66 18 04 3e 29 b5 09 3e e6 db 4b 3e 4d b8 49 3e
       0.12899932 0.13448013 0.19908103 0.19699211
000060 ff b2 8b 3d f9 db 18 3e 5e 81 91 bb 12 83 9e 3c
       0.0682125 0.14927663 -0.0044404706 0.019349609
000070 a0 94 1b 3d 90 3d 94 bd 25 a1 5a bd fb 20 b3 3d
       0.037983537 -0.072383046 -0.053376336 0.08746525
000080 26 6d c1 3d 4e a3 59 3d 27 53 0e 3d dd 78 8c 3c
       0.094446465 0.053134255 0.03474727 0.017147476
000090 5c 03 64 3e 47 41 b8 3b 3e 76 33 3e ee 95 c2 3d
       0.22266906 0.005623016 0.17525575 0.09501253
0000a0 ca 9b b3 3d 99 72 49 3e 19 c9 90 bc 5e 0f 1c 3e
       0.08769949 0.19672622 -0.017674016 0.15240237
0000b0 f8 5c e7 3d 47 c1 8d 3d de d8 01 bd c3 96 9c bd
       0.11297029 0.0692163 -0.03170096 -0.07645943
0000c0 78 38 99 3c 78 34 e3 3d e9 1d 63 3b 72 80 c2 3d
       0.018703684 0.11093992 0.003465528 0.09497155
0000d0 b1 a1 f2 3d b0 ea b5 bd c5 3e ca 3c 19 0a d5 3d
       0.118472464 -0.08882654 0.024688134 0.104023166
0000e0 6e d8 a5 3e 8c 8b a9 3e 6b df 0a 3f 3b 06 b6 3d
       0.32391685 0.33114278 0.5424716 0.08887907
0000f0 41 a0 1f 3e 3b 47 10 3e d0 f5 21 bd 08 84 d0 3d
       0.15588476 0.14089672 -0.039541066 0.10181433
000100 5d ab ab 3d 03 27 d5 3d 59 c9 34 3d dd 02 1b 3e
       0.08382294 0.104078315 0.044137333 0.15137811
000110 50 e5 58 3d 83 da 25 3e f1 ef 3a bc 00 f0 39 3d
       0.052953064 0.16196637 -0.011409746 0.045394897
000120 3c 77 82 3e ee 39 98 3e 98 d8 9c 3d bb 29 0a 3e
       0.25481594 0.29731697 0.076584995 0.13492481
000130 98 9d e2 3d 63 9d 9c 3d 96 8e 63 3e 63 f9 a7 3d
       0.11065215 0.07647207 0.22222361 0.082018636
000140 53 86 b0 3d e9 87 81 3a d2 a1 13 3e b9 f1 ad bc
       0.0861937 0.0009882423 0.14417198 -0.021233426
000150 68 c7 5d bd e5 4a a8 3d 5c 27 5d bd 21 dc 59 bd
       -0.054145247 0.0821741 -0.053992614 -0.053188447
000160 ed 3e 17 3e ff f0 22 3d 91 d5 3e 3c 14 4b 68 3c
       0.14770098 0.039780613 0.011647598 0.014178056
000170 eb 5a 31 3c 5b 1e 07 3d cd a5 a8 3c ba 07 ac 3d
       0.010824899 0.032987934 0.020586872 0.08399911
000180 f9 5f 2c 3e 55 4a 59 3d ed 3e e5 bc f4 64 e7 bd
       0.16833486 0.053049404 -0.027984107 -0.11298552
000190 3d d6 d4 bb 76 e7 28 3d 78 52 40 3b 71 b2 53 3c
       -0.0064952658 0.041236363 0.002934603 0.012920962
0001a0 10 9c 7c bd b1 69 a6 bd f2 7f 0b be ac ec 1f 3d
       -0.06167227 -0.08125628 -0.13623026 0.039044067
0001b0 d3 92 fc bd 8a 41 c0 bd 1c 06 87 3d d0 14 48 bd
       -0.12332692 -0.093875006 0.06592962 -0.048847973

decoder_layers.block_0.transition.weight f4 [28, 1, 3, 3]
000000 23 9e 3e bd 96 42 48 3d 53 b3 8f 3e 84 05 06 be
       -0.04653753 0.048891626 0.280665 -0.13088042
000010 36 39 44 be 92 f0 53 bd 8e 43 ee 3d 66 0a fa 3c
       -0.19162449 -0.051743098 0.11633979 0.030522536
000020 88 84 41 bd 58 6e 48 be 97 02 d9 bd db c8 ee bd
       -0.047245532 -0.19573343 -0.10596197 -0.11659404
000030 52 80 38 be 1e a1 ce bd 1a 12 d1 bc 0b c2 08 3d
       -0.180177 -0.100893244 -0.025521327 0.03338818
000040 7d ce 90 be 67 99 ae bd 63 87 b1 3c 15 a9 ad bc
       -0.28282538 -0.08525353 0.021671003 -0.021198789
000050 17 83 12 3e 7e c9 8c 3d 69 73 c1 bd ac c5 8f bc
       0.1430782 0.06874369 -0.09445841 -0.017550312
000060 94 65 56 3e 4f aa 43 3d 11 28 21 3e 4d 5a 1f be
       0.20937186 0.04776984 0.1573794 -0.15561791
000070 fe a1 06 be aa 9c 21 be 85 bd 5c 3d a4 5e c5 3d
       -0.13147733 -0.15782419 0.053891677 0.09637192
000080 19 55 4a be 0d e3 7e be d8 02 f2 bc 7d 91 aa be
       -0.19759025 -0.248913 -0.029542372 -0.33314124
000090 a4 ca 82 3e f3 7a 2f 3e 03 dd 7f 3e 80 c9 d2 3e
       0.25545228 0.17136745 0.24986653 0.41169357
0000a0 d7 f8 6b be 31 a2 2d be 1e ec 41 3e 24 13 26 3e
       -0.23044144 -0.16956402 0.18937728 0.16218239
0000b0 36 d7 1f 3e fd 4c 79 3d 80 ca 52 3e c3 09 67 3d
       0.1560944 0.060864437 0.2058506 0.056405794
0000c0 95 09 1d 3d de e2 9b bd 73 0d aa bc 85 ff 1d 3e
       0.038339216 -0.07611631 -0.020758366 0.15429504
0000d0 88 1d 2e 3e d0 09 17 3e 97 13 52 3c 65 1c 51 be
       0.17003453 0.14749837 0.012822053 -0.20420988
0000e0 04 92 15 3e c6 78 8a bc ed e9 17 bf 9d db a7 be
       0.14606482 -0.016903292 -0.5934132 -0.3278474
0000f0 46 a3 93 3d c4 b9 e4 be b6 ce 40 be 40 d7 a9 3d
       0.07208876 -0.44672978 -0.18828854 0.08293009
000100 dd 5a 60 be d0 f2 0a 3e 90 08 88 be bb b0 dd bd
       -0.21909662 0.13569188 -0.26569033 -0.10824724
000110 ea 5e 9a 3d 14 94 df 3d 65 4b 87 be 84 e8 b8 3b
       0.07537635 0.109169155 -0.2642471 0.0056429524
000120 84 f7 97 3e 21 c0 be 3e 3f 7e 8c bb 20 bf 24 3e
       0.29681027 0.37255958 -0.0042875106 0.16088533
000130 f7 aa ed bb f2 bb 01 be 3b cf ab bd 89 ef 85 3d
       -0.0072530466 -0.12669352 -0.083891355 0.06539828
000140 74 05 b6 3d 16 92 ea 3d 7e e5 36 3e 52 47 6f bd
       0.08887759 0.11453645 0.17860982 -0.058417626
000150 92 85 71 3e 5e 90 49 3e 19 fc 2f be 87 6c ae 3d
       0.2358611 0.19683978 -0.17186011 0.08516794
000160 5e fb 50 3e 0d 47 1e 3e 46 fa 30 bc 44 63 9a bd
       0.20408389 0.15456791 -0.010801857 -0.07538465
000170 0f 5e bf bc f1 90 aa be 88 69 45 3e 74 d1 1a 3d
       -0.02336028 -0.33313707 0.19278538 0.037797406
000180 bb 04 9b bd 64 44 3d 3e 55 36 15 3e 71 29 58 3d
       -0.07569262 0.1848312 0.14571507 0.052773897
000190 f9 22 4d 3d 5d 9c 7f be 31 32 22 be 58 c0 ac bd
       0.05008218 -0.24961992 -0.15839459 -0.08435124
0001a0 cd d3 86 be cb 9b c2 3d 14 7d 37 3e 6b f5 ed bc
       -0.26333466 0.095023714 0.17918807 -0.029047688
0001b0 8d 0d ea bc 03 e4 79 3d 89 99 40 3d f2 10 c3 3c
       -0.028570915 0.061008465 0.047021423 0.023811791
0001c0 43 31 5f be 17 02 ba be 8a e8 9a bc d1 ab 53 be
       -0.21796136 -0.3632972 -0.018909711 -0.20671012
0001d0 71 80 2b be 61 05 ae 3e bd d1 8e 3c d6 78 65 3e
       -0.16748215 0.3398848 0.017433995 0.22409377
0001e0 2f db 80 3e 83 9a b3 bd 21 34 23 3d ca 91 7d 3e
       0.25167224 -0.08769705 0.039844636 0.24762645
0001f0 90 6c 72 3e 2a 04 53 bd 43 85 12 3d ad b1 48 3e
       0.23674226 -0.051517643 0.03577162 0.19599028
000200 a1 90 25 3e c3 90 16 3e 5f 28 00 3e ec b4 0d be
       0.16168453 0.1470366 0.125154 -0.13838547
000210 c0 f8 6f 3d bd 75 69 3e 42 69 0d 3d 5f d9 6c 3e
       0.058586836 0.2279882 0.03452421 0.23129795
000220 dc 72 08 be 09 6d 0d 3e 23 17 84 3e 8a 60 f3 bd
       -0.13325065 0.13811125 0.25798902 -0.11883648
000230 5d 35 48 3e cd f5 5e 3e 16 7e fd bc 91 42 3a bd
       0.19551606 0.21773453 -0.030943912 -0.04547364
000240 d4 1b 9d bb 7b 1a 0e 3e 7b b8 98 bd 7d 1e cb 3d
       -0.004794577 0.13877289 -0.07457062 0.099179246
000250 97 19 6b 3f 6d c5 c0 be 2a b2 47 bd ec ea fd be
       0.9183592 -0.37650624 -0.048753895 -0.49593294
000260 b9 d2 f9 3b ad 37 a5 bd bd 1b ca be e8 ca 0a 3e
       0.007623997 -0.0806726 -0.39474288 0.13553965
000270 c9 cd 33 be c7 96 14 bf 32 83 06 3e 67 c5 57 3e
       -0.1755897 -0.5804257 0.13135985 0.21071397
000280 c7 e1 ce 3d ff 1e 95 3d 56 7a 3f 3e e0 27 81 3e
       0.10101657 0.07281303 0.18699011 0.25225735
000290 e8 02 92 3d e0 61 30 3e 4d 4c b3 be 24 e5 7a 3e
       0.071294606 0.17224836 -0.3501915 0.24501473
0002a0 1e 37 79 3c f8 b2 69 3e 4c b8 31 be 87 2e b0 3d
       0.015210895 0.22822177 -0.1735546 0.086026244
0002b0 6f 1f da be 18 2e 39 3e 4a 52 2f be d6 c8 e8 3d
       -0.42602107 0.1808399 -0.17121235 0.113664314
0002c0 ab 1d 41 bd b2 5f 52 3e 30 be 4c 3c 14 e7 52 3e
       -0.047147434 0.20544317 0.012496516 0.20595962
0002d0 dd db c5 bd 6a eb a4 3e 2e 57 ef bb 78 12 9d 3e
       -0.09661076 0.32210857 -0.007304094 0.30678153
0002e0 5f 0e 83 bf 5b ac b6 bd dc b6 89 3d 19 ed 09 bc
       -1.0238761 -0.08919593 0.06724331 -0.008418345
0002f0 d6 02 de 3d c4 19 77 3e ea b7 8c 3d 1e 76 83 3e
       0.10840385 0.24130923 0.06871016 0.25676054
000300 a0 b5 c1 3e 87 1a 8a 3e 84 e7 3b bd df 6c 82 3e
       0.3783388 0.26973364 -0.045875087 0.25473687
000310 96 6b 53 3e 0f 50 58 3d 39 aa 6e be 83 c8 8c be
       0.2064651 0.052810725 -0.23307122 -0.27496728
000320 b3 87 16 be 22 90 15 3e dd 10 4f 3e d6 f3 3a be
       -0.14700203 0.14605764 0.20221277 -0.18257079
000330 4d e9 33 be c0 cd a9 bd c5 d4 6e be 2e fe 10 3e
       -0.17569466 -0.08291197 -0.23323353 0.14159462
000340 0f 8f bd 3d e6 c1 55 3e 34 03 c1 3d e8 3e e8 be
       0.09255802 0.20874748 0.09424439 -0.45360494
000350 4d 19 d7 bd e2 21 16 3e 01 54 9d be c3 50 8c 3c
       -0.105028726 0.14661363 -0.30728152 0.017128354
000360 49 c5 4c bd 95 6c ea bd b1 68 52 be 86 77 95 3d
       -0.049992833 -0.11446492 -0.20547749 0.07298188
000370 99 fa 27 3e 99 89 db bc 5f 48 a7 bd de 6e 00 3e
       0.16404189 -0.02679901 -0.081681006 0.12542292
000380 2b 19 0d 3e fa 04 94 bd dd 0b 7e 3a 85 cc a7 3e
       0.13779132 -0.07227512 0.0009691099 0.32773224
000390 30 08 3b 3e 1e 90 2f 3e d5 53 a1 3e 14 69 9e 3e
       0.18264842 0.1714482 0.3150927 0.30939543
0003a0 8c 64 91 3e fa 91 4b 3e d0 a6 3c 3e 89 33 e7 3a
       0.28397024 0.19879904 0.18423009 0.001763926
0003b0 04 aa 1c bd b4 93 00 3e 68 05 5a 3e 4b 92 82 3e
       -0.038248077 0.12556344 0.21291125 0.25502238
0003c0 8d 3b 25 be f0 70 84 3e 77 0e 14 be 2d 14 19 3e
       -0.16135998 0.25867414 -0.14458643 0.14949103
0003d0 cc 2e 3a 3e ce 88 90 3e 63 20 c2 3d 96 13 89 bd
       0.18181914 0.28229374 0.094788335 -0.06693189
0003e0 fb 07 2b be 0c 19 ea 3d 6f ba 73 be 4b 86 07 be
       -0.16702263 0.114305586 -0.23801588 -0.13234822

decoder_layers.block_0.transition.bias f4 [28]
000000 29 62 2b 3e b2 31 62 3e f2 66 a4 3d 65 5e e4 3d
       0.16736664 0.2208927 0.08027448 0.11150817
000010 00 18 39 3e 08 9c 28 be af 52 41 3e a4 06 b7 bc
       0.18075562 -0.16465771 0.18879198 -0.022342034
000020 22 65 f6 3d 8f 61 4e be a4 d1 62 3e b3 ee 12 be
       0.12031008 -0.20154403 0.22150284 -0.14348869
000030 07 fe 2a 3e 2f 77 a7 3d cd 7e a0 bd fa 89 54 3e
       0.16698466 0.08177029 -0.07836685 0.20755759
000040 f7 25 f9 3d af b9 00 3e 13 e3 2e 3c d3 e5 2b be
       0.12165444 0.12570833 0.010674256 -0.1678689
000050 41 3f 37 3e 59 f3 cd bc 61 c9 5b be d4 e1 20 bd
       0.17895223 -0.025140451 -0.21463539 -0.039277866
000060 17 8f 3c 3e 61 59 0c bc a5 d1 02 bd ff 42 2c 3e
       0.1841396 -0.0085662315 -0.031938214 0.16822432
