trainedModels/wave/testSpike/lateral/1e-10/run2/model.pt (torch, 52969 bytes, 19 tensors)

init.weight f4 [12, 1, 1, 1]
00000000: 7cbc 623e 4314 a5be 875c b7bd a7c2 ee3e
00000010: 4b0d f8be d38a 043e 7f09 273f d404 233e
00000020: a42a 4cbd 8b0d 11bf 123d d03e dfc5 5bbd
0.22142214 -0.3224202 -0.08953195 0.46632883 -0.48447642 0.12943582 0.65248865 0.1591981
-0.049845353 -0.5666129 0.40671593 -0.0536555

init.bias f4 [12]
00000000: 03c7 e33e 1646 b93d a9ad 2dbe 5608 55bd
00000010: 37f1 103e f56c 85bc 1e92 2dbe 1b3f 0c3f
00000020: 1e26 093f 47ef 233f 4ad0 ad3e e5f0 5ebe
0.4448777 0.09046571 -0.16960777 -0.052009903 0.14154516 -0.016287306 -0.1695027 0.5478379
0.5357379 0.64036983 0.33947974 -0.21771581

encoder_layers.block_0.transition.weight f4 [12, 24, 3, 3]
00000000: b6a1 52bc 9936 a53c 6720 47bd 583a bfbc
00000010: 226b 223d 476b 9bbc 440d ec3c 2218 4bbd
00000020: 4a19 183d cfa8 283d 8f88 8e3c e37d eebc
00000030: 109e 30bd f8c4 283d c64c 31bd f809 ccbb
00000040: adad 34bd f79d 3e3d 97f6 38bd 1a9f 10bd
00000050: a394 2abd b770 f53c 1c54 483d 97d9 ab3c
00000060: fe26 9e3c 1915 3b3a 7393 433d ca2c 8d3c
00000070: 76e0 16bc 771d f0bc 2a4e 1c3d adfb 80bc
00000080: 5595 a53c fd7e 3bbc 047f 06bd f60f 943c
00000090: 24ee aebc 7727 57bc 37c8 173d d746 0bbd
000000a0: 93df fbba 7558 023d f2c0 49bd ca37 553c
000000b0: 9745 a0bc 6957 893b a87c 803c f95d dfbc
000000c0: 4c0d 3bbd 5275 383c 6b5c 8a3c 1114 dabb
000000d0: a7f5 3b3d 9620 2abd 4a02 2b3d 74a1 2bbc
000000e0: c950 00bd c9e1 78bc 97e1 f63c e156 34bd
000000f0: 816a d03c 3d61 9f3c 0a2f 3b3d 1245 24bd
00000100: cfad df3a 67a9 acbc 171a 853b b412 66bc
00000110: e0f9 7dbc dd71 233d b4e8 2a3c b7eb 1b3a
00000120: dbbf f2bc 279e b63c 98a7 36bc 68ff da3c
00000130: 05ad 063d b7e9 06bc fc3d 01bd 239c 31bd
00000140: a8c8 453d 3ea7 0ebd 5df5 313c 2725 91bc
00000150: 8bda 2fbd b905 de3c 4305 1abd 9419 b83b
00000160: 961d 2f3d 427d 403b ec43 41bc 2f86 b93c
00000170: 3ba8 18bd bb07 e23b 9e6a 063d 6abd 863c
00000180: 17f3 133d a2f0 08bd 667f ecbc 7c24 27bd
00000190: 5433 223d 1140 94bc 03fa 09bb dd36 b23b
000001a0: f782 e0bb a669 3d3d a352 d33c 8c3e c33b
000001b0: e4cc f2bc e91d 1fbd e54b afbc 69f4 163c
000001c0: 81dd f5bb 7c42 51bb 43dc a23c 07ad 27bd
000001d0: dda6 a53b 8f91 8b3c a6d6 333d 4383 323d
000001e0: bbb0 11bd 871f 183d e0e0 1f3c 9555 313d
000001f0: fd11 55bb 598e 31bd 20fa cebb 923f 9a3c
00000200: ad79 6c3c 2028 32bd f928 3fbd 5482 0c3d
00000210: 9169 2bbd d90c 2dbc 0a5f 0ebc da24 1d3d
00000220: 79a6 20bb c307 56bc 0fb2 b6b9 a28b 0fbd
00000230: f658 e7bc cf30 313d c225 a43c 3df5 753b
00000240: 4706 d8bc 6221 2ebd 2046 023d 70af 9a3c
00000250: f213 2dbd 2140 0fbc 5225 993b 6085 343d
00000260: a2b8 2e3d d6cb 413d 1ed2 8bbc 0856 20bd
00000270: 09be eebc d0fe 443d cf2c efbc 642a 3dbd
00000280: 48e4 283d e3bc e7ba ea16 8d3c 97ee 243d
00000290: b7c0 333d 1726 b03b cf5d fabc 0add 36bd
000002a0: 8233 c5bc e0b1 5cbc 8ade e03c 2ddd a53c
000002b0: 864a 313d ed51 383d b7b4 fa3a 7750 1cbd
000002c0: 29c9 ffbc 4b66 c5ba 3ded 273d 70ba 2abd
000002d0: 44ec 0cbd 8568 243c 0384 34bd 1762 05bd
000002e0: 4a0e 393d 778b 793a 9baa c93c 4eaf a63c
000002f0: 3a21 4fbc 9d29 32bd 331a 46bc 5a28 de3b
00000300: fcee 473d e178 2c3d a84a bd3c e9da b8bc
00000310: 8084 51bc e115 7c3b 2a59 04bd 13ff 3dbd
00000320: 1cdd 8e3c e518 34bd d05e 04bd 2716 b1b9
00000330: 1914 b9bb b1dc 79bc f1ed e2bc f873 043c
00000340: 35a7 563b b211 7ebc 763d 43bd a92f f13b
00000350: 3cfd 183d 15af 1c3d 1bc7 1e3c 5a7e cebc
00000360: 1954 263d 60e9 013d 03f9 5b3c 96ce f8bc
00000370: 4792 d6bc 1034 da3c c89c 3cbd 2aaa d03c
00000380: 517d b73a 8274 453c fc01 16bc adfc 7dbc
00000390: 1dd9 2bbc 07b7 933c 651b c23c dec8 673c
000003a0: eecb 5939 7211 cb3c a6e9 863c af71 b93b
000003b0: 5595 553b 699c 0fbb 7f36 3abd 255c 27bd
000003c0: 26b6 de3c 374f ae3c ad22 b5bc fc83 1b3b
000003d0: 18ab ed3c d0e5 943c 351a 2b3d b976 483d
000003e0: f83a 7bbc 38c8 a93b 919b 80bc 5837 0c3b
000003f0: 09d9 cabb 65a5 1d3d fbf5 e9bc 9bd7 173c
-0.012855938 0.020167636 -0.048614886 -0.02334325 0.03965295 -0.018972052 0.02881492 -0.04958356
0.037133493 0.041176613 0.0173991 -0.029112762 -0.04311949 0.04120347 -0.043286107 -0.0062267743
-0.044110943 0.046537366 -0.04515704 -0.03530798 -0.041645657 0.029960973 0.048908338 0.020977778
0.019305702 0.00071366277 0.04774804 0.017233271 -0.009208789 -0.029310925 0.03816048 -0.015745008
0.020212809 -0.011443851 -0.032835975 0.018074017 -0.021353789 -0.013131968 0.037056174 -0.034003105
-0.0019216411 0.03182264 -0.049256273 0.013013789 -0.019564433 0.0041913283 0.01568444 -0.02726649
-0.045666978 0.01125844 0.016889771 -0.006655224 0.04588857 -0.041534983 0.04175023 -0.010475505
-0.031327043 -0.01519055 0.030136866 -0.044028167 0.02544141 0.019455547 0.045699157 -0.040104933
0.0017065349 -0.021076871 0.004061948 -0.014042545 -0.015501469 0.03990351 0.010431457 0.0005947905
-0.0296325 0.02229221 -0.011148356 0.026733115 0.032879848 -0.008234433 -0.031553254 -0.043361794
0.048287064 -0.034827463 0.010861722 -0.01771791 -0.04293303 0.027102338 -0.037602674 0.0056182835
0.042752825 0.0029371534 -0.011795979 0.022646992 -0.037269812 0.006897894 0.03281652 0.016447742
0.0361205 -0.03343261 -0.028869342 -0.04080628 0.03959973 -0.018096955 -0.002105356 0.005438669
-0.0068515497 0.046243332 0.02579624 0.005958384 -0.029638715 -0.038846884 -0.021398494 0.009213545
-0.007503212 -0.0031930497 0.01988042 -0.040936496 0.005055292 0.017037181 0.043905877 0.043582212
-0.035568934 0.03713944 0.009758204 0.043294508 -0.0032511943 -0.043348644 -0.0063164383 0.01882914
0.014433307 -0.043495297 -0.046669934 0.034303978 -0.041848723 -0.010562145 -0.008689651 0.038365223
-0.0024513288 -0.013063374 -0.0003484641 -0.035045274 -0.028240662 0.043259438 0.020037536 0.0037530207
-0.02637018 -0.042512305 0.031805158 0.018882483 -0.04225535 -0.008743317 0.0046736384 0.04407251
0.04265655 0.047313534 -0.017067965 -0.039144546 -0.02914335 0.04809457 -0.029196171 -0.046183005
0.04123333 -0.0017680194 0.01722284 0.0402666 0.04388496 0.0053756344 -0.03056231 -0.044644393
-0.024072412 -0.013470143 0.027449865 0.020247066 0.04328396 0.045000006 0.0019127344 -0.038162675
-0.03122385 -0.0015060393 0.040997732 -0.041681707 -0.034405008 0.010034685 -0.04407121 -0.03256425
0.045179643 0.0009519378 0.024617484 0.020347264 -0.012642199 -0.043496717 -0.012091207 0.0067797126
0.048811898 0.042107467 0.023106888 -0.022565322 -0.012787938 0.003846519 -0.032311596 -0.046385836
0.017439418 -0.043969054 -0.032316983 -0.00033776576 -0.005648148 -0.015250371 -0.02770135 0.00808429
0.0032753472 -0.015507149 -0.047666036 0.007360418 0.037350878 0.03825291 0.009691025 -0.025206733
0.040607546 0.031716704 0.013426068 -0.030371945 -0.026192797 0.026636153 -0.046047956 0.025471766
0.0013999139 0.012051703 -0.009155747 -0.015502137 -0.010488776 0.01803161 0.023694703 0.014147012
0.00020770702 0.024788592 0.016468834 0.005659304 0.003259023 -0.0021913296 -0.045462128 -0.04085936
0.027186465 0.021278007 -0.022111261 0.0023729792 0.029012248 0.01817599 0.04177304 0.048941348
-0.015333883 0.0051813386 -0.01569918 0.0021395292 -0.0061904234 0.03848781 -0.028559675 0.009267713

encoder_layers.block_0.transition.bias f4 [12]
00000000: 6497 34bc ad4d 1f3d ef32 2e3d 7605 213d
00000010: 5843 6e3c 4674 023d a59f 15bc b130 13bc
00000020: 709c 3dbd 1216 0b3d 8840 00b9 e462 fc3c
-0.011022422 0.038892437 0.042529043 0.03931185 0.014542423 0.03184917 -0.0091323005 -0.008983777
-0.04629177 0.033956595 -0.00012231071 0.030808873

encoder_layers.block_0.conv.weight f4 [48, 12, 1, 1]
00000000: 4a6e a03d 7182 d73d b4ef 493e 4cd5 8b3d
00000010: c1ef 553d 0c9f 893b 2ffb 003e fa70 1abe
00000020: 9dbd 48ba ed50 bdbb eabe aabd 97ff 163e
00000030: d974 3c3e db78 ed3d 9de1 a2bd 5cfe 4ebe
00000040: ac97 e5bd 404d 45bb c922 d53d dfa7 04be
00000050: 82fb f53d 0627 283e a654 77bd 479f bbbd
00000060: 85f1 3ebb 9333 e8bd 878e 1c3e 8aa7 263e
00000070: 42c5 0ebe 855d afbd 1c87 f3bd 32e2 453e
00000080: f069 4e3e 5a16 14be 2b9a 02bc 5a7f 463e
00000090: 5ad7 46be ef9d 85bd 67e0 2f3e b335 0ebe
000000a0: c6ae d63b b521 c5bd 59ba 6c3d c5a1 453d
000000b0: ba8e 1cbd a532 ec3d 0cb8 f1bd 44ff 1abe
000000c0: 3a2b da3d 7e16 0ebe 0ed5 2dbe 87b9 abbd
000000d0: 5030 17be ee2f 203d 31c8 f2b7 e11b b2bd
000000e0: c285 17be 1ed4 9f3d b54b c93d 3be0 d3bc
000000f0: e59b 16be 54c2 ff3c 4986 9d3c dd75 3f3e
00000100: 25f3 253e 61e6 25be e2c8 223e d53b 51be
00000110: ed67 46be 2a9c 4d3d 1926 023e 1d4f 4ebe
00000120: 3731 19be 4061 953d 191e 24be 7ac9 4f3e
00000130: fa41 2c3e 6a2b 63bd 2a73 cebd 04d3 9c3d
00000140: ebca 053e 8682 08be 0be0 54bd 273f 383e
00000150: 9c69 473d 9bb0 d03d 829f 4ebe 38ac 0e3e
00000160: 79c4 b83d e690 833d f871 6bbc 2636 b73d
00000170: 439b d93d cc94 aabb df98 603d 034e 2d3c
00000180: 97fe f3bd 399a a93d 4e64 183d ecf8 ed3d
00000190: 84c4 2ebd b337 3cbd ce6e 01bd c61c 283d
000001a0: 141c 1ebd 1ada 103e dddb ad3b 55bb d6bd
000001b0: e6c7 e2bc 71e2 22bb dc4d 2e3d c0c4 32be
000001c0: 595e 273e 645b 373e fd11 a93b c7df cd3d
000001d0: a463 89bd 1b78 15be a78a 263e 8e40 e03d
000001e0: 7cee ffbd ac9c 87bd 60c2 babd 3c21 d5bd
000001f0: 346e 1c3d ebd9 34bb bb05 28be aef1 11bd
00000200: 745b f03d 9c9a 42bd a5f2 fa3d 563b 3dbe
00000210: 6932 49be f59d 26bd 5416 1ebe 8abf 533e
00000220: cd73 deb8 e75e 183e f8d6 023d 4e6b cfba
00000230: aabc 1f3e 2bf2 ddbd 0f30 a53c 157a 1f3d
00000240: 8140 44be 792f 6cbc 00fc 2abe 1244 ebbd
00000250: 0afd 053d df3f 043e f4be 293d 14a5 1f3e
00000260: 2079 8bbb 3eee 06bd 6d06 e4b9 a829 57be
00000270: 8523 143e c341 aabd 23dc 763d 8c03 d13d
00000280: bea1 5ebc 7e88 a83d bfeb 453d 6309 cabd
00000290: e322 c2bd 246a 143e cc93 753d 96cb 00be
000002a0: dff0 5cbd c397 bfbc 861b 82bd 9f58 4439
000002b0: dbe7 1d3e 95e8 c5bd ffd1 7ebd ffb3 54be
000002c0: 465d a63d 5b7d 383d 7ac0 e2bb 6249 13be
000002d0: 844f e63d bb0e 39bd 92ed 73bd 9685 41be
000002e0: 6c0d 0cbe 545b e8bd abf7 57be 96f7 1bbd
000002f0: c1fd e73d c44c 52be 7f5e 82bd 3d0b 16be
00000300: 4422 00be d64c 16be 67eb abbc 1ea7 95bd
00000310: c3c4 2f3e f845 e63d 1b0b 513d c574 debc
00000320: 083a 21be 3220 4ebe 6c0e 38bd 258a 83bd
00000330: fa10 a2bd eb29 003e f576 cc3d 0acc e23d
00000340: 9236 01be ce35 8bbb 84fb da3d 8557 a43d
00000350: eb89 523e faa7 d3bd 81fc 093e 1a4a 13be
00000360: ecf3 20bd 6815 793d d4bc 3b3d 47ce 713d
00000370: dea5 13bd 6062 bcbb e528 43be 0529 3a3e
00000380: 26ee 0dbd a858 28be 7020 7dbd 619f 21be
00000390: 1efc 19be 206f 87bd 4106 44bc 7a21 eabd
000003a0: b96c 983d 363d ef3d b1de ab3d 52aa 94bd
000003b0: 8af3 b9bc 12de 273e 516b 2a3e 7fff 90bd
000003c0: 35bf 1ebe d51b 183e 5d9f 543d d245 12bd
000003d0: 7774 4a3d acdf 4fbe 1b9c 893c 28d8 d43d
000003e0: 5b00 1c3e fad3 363e 0262 343e 5a45 dabd
000003f0: 4476 9d3d 9a2e 5dbd 4e00 03be bc2b 18bc
0.07833536 0.105229266 0.19720346 0.068277925 0.0522306 0.004199868 0.12595819 -0.1508216
-0.0007657649 -0.0057774694 -0.08337195 0.14745937 0.18403949 0.11595317 -0.079531886 -0.20214218
-0.1121057 -0.003010586 0.10407025 -0.12954663 0.12010862 0.16421136 -0.06038346 -0.09161239
-0.0029135656 -0.11337962 0.15288745 0.16274849 -0.13942435 -0.08562759 -0.118910044 0.19324568
0.201576 -0.14461651 -0.007971327 0.19384518 -0.19418088 -0.06524264 0.17175446 -0.13887672
0.0065515963 -0.0962557 0.057794902 0.04824998 -0.038222052 0.11533097 -0.11802682 -0.15136439
0.10652776 -0.13875768 -0.16975805 -0.08384996 -0.14764524 0.03910821 -2.894187e-05 -0.08696724
-0.14797118 0.0780413 0.09828893 -0.025863757 -0.14707907 0.031220593 0.019229071 0.18697305
0.16206034 -0.16201164 0.15896943 -0.2043298 -0.19375582 0.050197758 0.12709846 -0.20147367
-0.1496018 0.072939396 -0.16027106 0.20291701 0.16822043 -0.055461325 -0.100805596 0.076574355
0.13065688 -0.1333104 -0.051971477 0.1799284 0.0486847 0.10189935 -0.20178035 0.13932884
0.09021849 0.064241216 -0.014370434 0.08945875 0.10625317 -0.0052057263 0.05483329 0.0105776815
-0.119137935 0.08281369 0.037205033 0.11619744 -0.04266788 -0.045951556 -0.031599812 0.041043065
-0.038600996 0.14145699 0.0053057508 -0.104849495 -0.02768321 -0.0024854208 0.04255472 -0.17457867
0.16344585 0.17905957 0.005159615 0.10052448 -0.06708458 -0.14596598 0.16263829 0.10949813
-0.12496659 -0.0662168 -0.09119105 -0.104067296 0.038191035 -0.002759571 -0.16408436 -0.035630874
0.11736193 -0.04751073 0.12253312 -0.18479666 -0.19648136 -0.040677983 -0.15438205 0.20678535
-0.000106073545 0.14879952 0.03194329 -0.0015824826 0.15599313 -0.108372055 0.020164518 0.038934786
-0.19165231 -0.014415615 -0.16697693 -0.11487593 0.03271202 0.1291499 0.041441873 0.15590316
-0.0042563826 -0.03294205 -0.00043492336 -0.21011984 0.14466675 -0.08313324 0.060268532 0.10205755
-0.013588367 0.08229159 0.048320528 -0.098650716 -0.0947931 0.14493614 0.059955403 -0.12577662
-0.05394065 -0.023387795 -0.06352906 0.0001872503 0.15420477 -0.09663502 -0.062211987 -0.20771788
0.08123259 0.045041423 -0.0069199177 -0.14383462 0.11245635 -0.045180064 -0.059552737 -0.18898615
-0.13676995 -0.113455445 -0.21090572 -0.038077913 0.113276966 -0.20537096 -0.0636568 -0.14652725
-0.12513071 -0.14677748 -0.020986272 -0.07307266 0.17164902 0.11243814 0.05103598 -0.02715529
-0.15744793 -0.20129469 -0.04493563 -0.06422833 -0.07913394 0.1251599 0.09983627 0.110740736
-0.12618473 -0.0042483574 0.10692504 0.080245055 0.20560424 -0.10334773 0.13475229 -0.14383736
-0.039295122 0.06081143 0.045834377 0.059034612 -0.036046855 -0.005749032 -0.19058569 0.1817971
-0.034650944 -0.1644007 -0.061798513 -0.15783454 -0.15037581 -0.06612992 -0.011964382 -0.114321664
0.07442612 0.11681597 0.083920844 -0.072590485 -0.022699136 0.16393307 0.166425 -0.07079982
-0.15502627 0.14854367 0.051909793 -0.035711117 0.049427476 -0.20300168 0.01679807 0.10392791
0.1523451 0.178543 0.17615512 -0.10657759 0.07688573 -0.05399952 -0.12793085 -0.009287771

encoder_layers.block_0.conv.bias f4 [48]
00000000: a88e 4f3d f8db 1b3e 96a1 013e d199 3cbe
00000010: fbb1 aabd 15e8 1db8 b2cf 0abb 30ab 2c3e
00000020: d733 27bd be0c 2c3d 11d1 4e3e 16ae a93d
00000030: 6fb8 50be c6dc 463e 8052 19be 9ea6 cebd
00000040: 8cc3 bd3d bec6 e7bb dbef cd3d 1a61 ebbd
00000050: 0e25 3e3c 90ce 3cbe 9251 503e b0ab 123e
00000060: f8b0 0e3e 8c03 b53d dbf6 9c3d 555c 15be
00000070: 6581 0ebe 8693 5abd 6f87 6bbd 2d3f 57be
00000080: 979e 13be f8ed 00be 9d70 1abd a4cf 2b3e
00000090: 75ae 513e f4f9 913d 21db 4e3e b239 03be
000000a0: ffaa 4dbe 84fe f73d e605 bdbc 6511 853b
000000b0: 8486 e03d 01ee 4ebe 765e e13d 5a7d 8c3d
0.050673157 0.1522063 0.12659296 -0.18418051 -0.08334728 -3.764786e-05 -0.0021180925 0.16862178
-0.040820923 0.04200434 0.2019694 0.082851574 -0.20382856 0.19420156 -0.14972878 -0.100903735
0.09265813 -0.0070732525 0.100555144 -0.1149313 0.011605514 -0.18438172 0.20343617 0.14323306
0.13934696 0.08838567 0.076642714 -0.14586003 -0.13916548 -0.053363346 -0.057502206 -0.21020193
-0.14415966 -0.12590778 -0.037705053 0.16778427 0.20476706 0.07127753 0.20200779 -0.12814978
-0.20084761 0.12109092 -0.023074102 0.0040609115 0.10963157 -0.20207979 0.11004345 0.068598464

encoder_layers.block_1.transition.weight f4 [12, 24, 3, 3]
00000000: 0861 6bbc 2fcc da3c c539 ef3c 9947 22bd
00000010: 3e7e d8bc 24f6 2cbc ad9a 3e3d 3862 333b
00000020: bbc4 e7bc 9566 1d3d e018 b1bc a805 1a3d
00000030: afe7 f4bc bc62 eabb d447 b2bc 32ca d0bc
00000040: af5f 4b3d 9879 a1bc 2c7f 5fbc da4f 38bd
00000050: 6366 3ebd b3fd 26bd aa52 9f3c 3dd6 523c
00000060: cad1 243d d276 183d 1b69 08bd 3820 8bbc
00000070: d126 d93c 8c6a 3b3d c170 6a3c 410d 1e3d
00000080: 03e0 28bd 412d 343c dde3 a5bc 557e 4dbc
00000090: 3d4f 6dbc dc96 85bc a4c0 493d 3b07 0ebc
000000a0: 1725 17bd 86d8 82bb fa48 f1bc 2ace 103d
000000b0: 04b9 fd3b f2a1 fb3a 00c9 ea3c 86f6 2bbd
000000c0: 3e2f 413d 0403 a2bc 3a2c 073d 97e2 823b
000000d0: 8056 d83c f0fe acb9 8318 e1bc d772 a93c
000000e0: be7e 14bd 816f 4e3c 125f 33bd ed7c 4ebc
000000f0: 8ae3 cebc 412f 8abc 1c91 47bd 29bd 0d3d
00000100: d536 31bc 948e 923c 9dc2 7f3b 8acf f33c
00000110: f5b3 91bc 5815 863b d49a bf3c 7100 41bc
00000120: 53d2 323d 3a46 9f3c 4692 17bd 1fe6 a53c
00000130: 5b8f fb3c 9c46 883c 1831 a73c 5e48 cdbc
00000140: eae8 1abc 4871 8d3c d241 1bba 02ea 3ebd
00000150: 7654 e93c 853e 2dbd 92ab caba ac71 11bd
00000160: 2d35 45ba c68f a33b 4590 e339 cbe7 45bc
00000170: 093c a23c 34b8 35bd 2468 b7bc 07aa 09bd
00000180: 544c 083d eca0 cebc fd09 b8bb bebd 4d3c
00000190: 69a5 a8bc 6d1e 0bbc da56 b4bc 1202 4f3c
000001a0: d5e6 2e3b 2cce 94bc b039 d83c 4470 d93b
000001b0: c565 d5bc ce8c 05bc 42d4 28bd 8066 123c
000001c0: 955c 0bbd 5235 3a3c f649 23bc e393 42bd
000001d0: d232 9b3c 1b8c 9fbc 7917 473d 901a 613b
000001e0: 28e6 2cbd 3c5c ffbc 7dd2 fd3c 2f15 3abc
000001f0: 8122 e03c 5fea 0c3d 8592 aa3c a8b5 15bd
00000200: edaa 2e3a 7630 23bd f3d8 04bd e363 c9bc
00000210: 54ce ffbb 1d4b 1abd 796e cabb 11eb 38bd
00000220: dfba 20bd 69ea 35bd 31d4 253c e0f3 c93a
00000230: 6723 d33c 13a5 963c d636 18bc bf64 dabc
00000240: 6890 6d3c 4b75 463d 6eb8 cbbc 11d0 513c
00000250: c09f cfbc b294 c33c c2a2 213d 0e7b eb3c
00000260: 3030 33bb 2386 2fbd 2b90 1fbd 6755 4ebc
00000270: da03 ba3c b691 eebb 2925 e9bc ccb0 ac3c
00000280: b92f fc3b 003d 00bd 0d50 0bbd 5516 373c
00000290: 7a9f e53c 2e64 e7bc daf7 193d 3f0f e1bc
000002a0: ddcd da3a fd31 82bb e443 22bd 601d b8bc
000002b0: 7184 ce3b 9670 ca3b 59bd 033d 2f5d 10bb
000002c0: 905b 48bd 98a9 f5bc e538 313d 5e70 01bd
000002d0: cff9 263b 11aa 963b b082 25bd 0f01 3dbd
000002e0: 94b4 033d 47bc 90bb 52ee 103c 90c2 273d
000002f0: 0951 d0bc 9c11 313c ecdb aa3c 604e d5bb
00000300: 1594 1b3b f785 2ebc 7e45 253d ee9e 9abb
00000310: d53f 3a3d e7e7 ba3c e27d 993b 75cb 0e3d
00000320: 45f4 cc3c 263e 3ebd 5ddd 37bc 4a60 b0bc
00000330: 6c21 13bd ace6 fbbc d4e5 42bd 6b52 17bc
00000340: 7fe3 093c bd8c 0fbd 2b0b 3a3d d240 3fbd
00000350: 6ee1 e03c e623 183d b959 fabc 388b f03c
00000360: 4aad 61ba 4b5a cd3c 388f d23c c33a 43bd
00000370: 879e 983c 22bf 7f3c d3bd f13c 8db8 2cbc
00000380: a317 e1bc 9587 38bd ee01 39bd e5ba cd3b
00000390: f911 6abc 72b8 0fbd 4032 4e3c 1514 423b
000003a0: c2bb 9b3c 3794 183d 2a0a 2abd f103 95bc
000003b0: 652f 7cbc d737 243b e0f5 10bd fadd 263d
000003c0: c7f1 453d 8d69 57bc 24dc 75bc 9ac7 de3c
000003d0: 42e4 c73c c99c 18bc 0a49 00bd bdab 1cba
000003e0: 96e2 ef3c f299 2c3d 687d e03c b814 dbbc
000003f0: f88f afbc 66eb 043d d402 f53c fd74 f7bc
-0.014366396 0.02670869 0.029202351 -0.039619062 -0.026427384 -0.010556731 0.04653423 0.0027371775
-0.02829205 0.038427908 -0.021618307 0.03760305 -0.029895632 -0.0071528833 -0.021762766 -0.02548704
0.049651798 -0.0197113 -0.01364116 -0.044998027 -0.046484362 -0.04076929 0.019448597 0.012868461
0.040239133 0.03722269 -0.03330336 -0.016983137 0.026507767 0.045755908 0.014309109 0.03858686
-0.04122926 0.0109971175 -0.020250255 -0.012542327 -0.014484224 -0.016307287 0.049255982 -0.008668716
-0.036900606 -0.0039930968 -0.029453743 0.035352863 0.007743003 0.0019198044 0.028660297 -0.04198315
0.047164194 -0.019776829 0.033001162 0.003994297 0.026408434 -0.0003299634 -0.027477508 0.020684643
-0.036253683 0.012599827 -0.043791838 -0.012603027 -0.025254983 -0.016868236 -0.04872237 0.034604225
-0.010816296 0.017890252 0.003902591 0.029762048 -0.017786006 0.0040919 0.023389257 -0.01177989
0.043657612 0.019442666 -0.03700473 0.020251332 0.030708006 0.016635232 0.020409152 -0.025058921
-0.009454945 0.01726593 -0.0005922589 -0.046609886 0.028482657 -0.04229595 -0.0015462509 -0.035508797
-0.00075228774 0.0049915044 0.00043404303 -0.0120791895 0.019804018 -0.044365123 -0.022388525 -0.033609416
0.033275917 -0.025223218 -0.005616425 0.012557445 -0.020586686 -0.008491141 -0.02201407 0.012634771
0.002668788 -0.018164717 0.026394695 0.0066356976 -0.026049504 -0.008151246 -0.04121805 0.008935571
-0.03402384 0.011365252 -0.009966364 -0.047504317 0.018945131 -0.019475987 0.04860637 0.0034348108
-0.04221168 -0.03117191 0.030984158 -0.01135759 0.027360203 0.0344032 0.02082182 -0.036550194
0.0006663043 -0.039841138 -0.03243346 -0.024583763 -0.0078065787 -0.03766929 -0.00617772 -0.04514605
-0.039240714 -0.044413004 0.010121391 0.0015407763 0.025773717 0.01838926 -0.009290418 -0.026659368
0.014499761 0.048451703 -0.024868216 0.012805955 -0.02534473 0.023874614 0.03946186 0.0287452
-0.0027341954 -0.042852532 -0.03895585 -0.012593604 0.022706915 -0.0072805537 -0.028460102 0.021080397
0.0076961187 -0.031308174 -0.03401189 0.011174758 0.028030146 -0.028246012 0.037589885 -0.02747309
0.0016693432 -0.003973244 -0.039615527 -0.022474945 0.0063024093 0.006177972 0.032162998 -0.0022028198
-0.048915446 -0.029988095 0.04326715 -0.031601302 0.0025478487 0.00459791 -0.040407836 -0.046143588
0.032154635 -0.0044169757 0.0088458825 0.040957034 -0.025429266 0.010807421 0.02085682 -0.006509587
0.0023739387 -0.010652057 0.040349476 -0.004718653 0.04547103 0.022815658 0.004684196 0.034862
0.02501882 -0.046445988 -0.011222211 -0.02153029 -0.035920545 -0.030749641 -0.047582462 -0.009235959
0.008416056 -0.035046328 0.045420807 -0.046692677 0.027451243 0.03714361 -0.030560361 0.02936326
-0.0008608891 0.02506747 0.025703058 -0.04766346 0.01863028 0.015609534 0.02950946 -0.010542047
-0.027477091 -0.045051176 -0.045167856 0.006278383 -0.014286512 -0.03508801 0.012585223 0.002961402
0.019010428 0.037250724 -0.0415136 -0.018190356 -0.015392159 0.0025057697 -0.035390735 0.040739037
0.04832628 -0.013147724 -0.015006099 0.027194787 0.024400834 -0.009314724 -0.031319655 -0.0005976519
0.02928285 0.042139 0.027403548 -0.026743278 -0.021430954 0.032451056 0.029908575 -0.030207152

encoder_layers.block_1.transition.bias f4 [12]
00000000: 92e0 16bd a6bc cdbc a934 f0bc 8bd7 1f3d
00000010: 3cfe 06bd ae83 fabb 4bf6 6d3c 6f99 b4bc
00000020: fa2f 88bc 9953 35bb e774 8c3a c166 45bd
-0.03683526 -0.025114369 -0.029321985 0.039023917 -0.0329573 -0.007645092 0.014524053 -0.02204582
-0.01662444 -0.0027668236 0.0010715992 -0.048193697

encoder_layers.block_1.conv.weight f4 [48, 12, 1, 1]
00000000: 9a85 40be ce2d 8b3d e89f 323e 43ee 3ebe
00000010: 8540 063c f940 1fbe 7cd4 233e 70b4 47be
00000020: 40c5 113e c5fd 8ebb e908 eb3d cdc0 373e
00000030: 1533 d8bd 458b 9a3d 5112 8c3c 3d27 163e
00000040: 4347 47bd 6753 2e3e f83b f4bc ac46 3c3e
00000050: 7dcf 9cbd a95d b9bd 2bfb 3d3d ce4e fd3d
00000060: 272d 4c3e 59b8 80bd 49c7 e0bd 32af 403e
00000070: d7bd a9bc 3b61 113e 70e2 dd3d fc30 9ebd
00000080: f89d 88bd 8b33 4d3e e45e 0d3e cef5 453e
00000090: c5b8 14bc 0e6a 0fbc 37dd 85bc 8548 703b
000000a0: 2bb9 14be 7359 f03d d649 d3bd ee02 9c3c
000000b0: e622 173e f934 253e 56df 86bd 17ea 29be
000000c0: de70 dcba 8a3c d93d 39af 443e 436e 3d3e
000000d0: db4e c13d 4dfd 7d3d 4905 41bd 4eb2 18be
000000e0: d795 32be 234d 473e 3cbe 3cbe f383 893d
000000f0: 8b6b 0ebe 722d ab3d 4377 893d 9b8f 833d
00000100: 2fea 1dbe b9af 533d 7478 00be 7cad d9bd
00000110: 72c6 2b3e b703 4f3e 917b 5dbd d363 64bd
00000120: 966f 33be d816 193e d493 96bd 6b5f 133e
00000130: c5e3 11bd 237b b53d aace 2dbe 5960 363b
00000140: 5304 6d3d c067 f43d 3220 19be b8c1 14be
00000150: a8f1 d83b e2a1 5dbd 0acd de3d e0f1 043e
00000160: 15bf 06bd 7e81 443e 68f9 2f3e ba37 dfbd
00000170: f134 633a 45f3 9b3c 13a1 4ebe 6619 a0bd
00000180: f3df 28be 613a 27be b609 333e ea78 663c
00000190: b079 33be 63b5 02be 47a2 05be 4ca2 aa3d
000001a0: 010f 2b3e c3a1 0c3e 2907 2a3d 0800 1abe
000001b0: a353 203d ead3 273e 96f7 ec3c 3caa 493d
000001c0: 3fb3 45be bf24 20be 9acc 4d3d 00c4 ac3d
000001d0: 61e9 0d3d ccb6 e13c 41b1 123e 844c 8cbd
000001e0: 39fa 273c 2c76 51bd 45c5 aabc 1016 853c
000001f0: 5d14 743d 2438 4dbe 1c0a 203e 25a9 1bbd
00000200: 8b7c 26bd 6552 043d 5e04 75bd 18f4 853d
00000210: d599 cb3d 4ba0 d6bd 5d35 f03d 6dad 3abd
00000220: 9ab1 34be b3a9 b5bd b7ef f63d c9e0 b2bb
00000230: ee13 ebbd 8b01 57be 13c9 fcbb 88b8 f83c
00000240: c6e8 913d 3dd6 4b3e 793b 3bbe b343 e83c
00000250: a9bc 69bd 71bf 1dbe e469 d43d 38e8 bebd
00000260: 54ad d5bc 311e dabd ec5c 983d d8f6 4e3e
00000270: b0b4 56bd 8d67 a73d fec4 88bd 8e3e 1c3e
00000280: a9c4 a2bd 18d5 9ebd fb1e 38be 1559 2ebe
00000290: 5fd1 403e 070e 7dbb b1e2 bf3d 326b 5bbd
000002a0: 7165 853d ac6f 4cbe 6c62 bc3d a574 cfbd
000002b0: 8c21 1f3e 5163 c83d 2f3e 27be 50b4 4a3e
000002c0: d429 10be 53d2 fe3c 708d 1d3d 0417 593d
000002d0: fa5e 3abe f4d9 50be 715d 823c 7cbb 22bc
000002e0: 31a5 8abd 048c 04be bc4a 0cbe fa52 30be
000002f0: c453 513e b594 093d a5a8 073e 4858 52be
00000300: ad66 edbb bab1 823d 585a 02be 2bc4 7b3c
00000310: 3c7f 113e 4039 333a ab39 cabd 1623 003e
00000320: c72c b3bd 1b1c b53d 0a98 ebbd 11fd 0bbe
00000330: 524d 16be dd2a 143e 8d0f b53d ffa6 ce3d
00000340: dc05 3fbe 51d8 bcbc 9e67 5e3d 732e 3d3e
00000350: 20f2 3fbe 1bf3 0cbe d81e 04be 751f 093e
00000360: 5953 1c3e d67e 27bd 9cf3 473e de35 b0bc
00000370: fa43 cd3d 01b3 94bd 298c 45bd 5ed7 52bc
00000380: 7d1b f93d 517b 38be d614 7abd 0564 bf3d
00000390: 4043 d73d 6772 a33b 0c6f 15bc d9ca a7bd
000003a0: 0cbe 4b3e 15f2 f13d 391e e9bc c760 c0bd
000003b0: ad1f 103e efa5 113e c729 2ebe f185 9abd
000003c0: a14b 463e 97e9 f53c 69e2 13be 4ac5 953d
000003d0: 07f7 143e 6027 043e 7b59 113e 623d a23d
000003e0: a451 94bc ed32 c83c 81ea 85bd 28ad d9bd
000003f0: f574 c2bd c916 143e 7f88 7fbd 0d48 6e3d
-0.18800965 0.06795846 0.17443812 -0.18645577 0.008194094 -0.15552129 0.15999025 -0.19502425
0.14235401 -0.004363748 0.11476309 0.17944641 -0.10556618 0.07546095 0.017098578 0.14663406
-0.048651945 0.17024003 -0.029813752 0.18386334 -0.07656763 -0.090510674 0.04638211 0.123685464
0.19939099 -0.062851615 -0.109755106 0.18816832 -0.020720406 0.14197247 0.10834205 -0.07724187
-0.06670755 0.20039193 0.13805729 0.19332048 -0.009077256 -0.008753313 -0.016340835 0.0036664319
-0.14523761 0.11735811 -0.103168175 0.019044366 0.14759406 0.16133489 -0.06585567 -0.16593204
-0.0016818305 0.1060725 0.19207467 0.18499093 0.094388686 0.062009145 -0.04712418 -0.14911768
-0.17439972 0.19463019 -0.18431944 0.067146204 -0.13908212 0.083582774 0.067122005 0.06423875
-0.15421365 0.051681254 -0.12545949 -0.10628793 0.1677492 0.20216261 -0.05407292 -0.055759262
-0.17523035 0.1495012 -0.07352415 0.14391868 -0.03561761 0.08861377 -0.16973367 0.0027828424
0.057865452 0.11933851 -0.14953688 -0.14527023 0.0066206045 -0.05410946 0.10878952 0.12982893
-0.032897074 0.19190022 0.17184985 -0.10899301 0.00086672517 0.019036898 -0.20178632 -0.07817344
-0.1649168 -0.16330864 0.17484173 0.014066914 -0.17526889 -0.12764506 -0.13050185 0.08331737
0.16704942 0.13733582 0.041510735 -0.15039074 0.039142262 0.16389433 0.028926652 0.049234614
-0.19306658 -0.15639018 0.05024395 0.084358215 0.034646396 0.027552985 0.1432543 -0.06850532
0.010252529 -0.051138088 -0.020846019 0.016245872 0.059589732 -0.20040947 0.15628856 -0.038003106
-0.040646117 0.03230514 -0.059818618 0.06540698 0.099414505 -0.10479792 0.11728928 -0.045575548
-0.17645875 -0.08870258 0.12057441 -0.0054589254 -0.11478411 -0.20996682 -0.0077143996 0.030361429
0.07124476 0.19905944 -0.18284406 0.028352594 -0.057064686 -0.1540506 0.103717595 -0.09321636
-0.026083626 -0.1065029 0.074395984 0.20211351 -0.05241841 0.081740476 -0.06678198 0.15258238
-0.07947666 -0.07755488 -0.17980568 -0.1702617 0.18829869 -0.0038613097 0.0936941 -0.053569026
0.06513489 -0.19964474 0.0919846 -0.1012967 0.15540141 0.09784568 -0.16332315 0.19795346
-0.14078456 0.03110615 0.038464963 0.053000465 -0.18200293 -0.20395643 0.015913697 -0.009932395
-0.06769789 -0.12944037 -0.13700384 -0.17219153 0.2044211 0.033589084 0.13247927 -0.20541489
-0.007244906 0.06381555 -0.12729776 0.015366594 0.14208692 0.0006836839 -0.098742805 0.12513384
-0.08748775 0.08843251 -0.115036085 -0.13670756 -0.14677933 0.14469476 0.08840857 0.10090446
-0.18654579 -0.023052366 0.054298036 0.1847475 -0.18744707 -0.13764612 -0.12902391 0.13390906
0.1526617 -0.040892445 0.19526523 -0.02151006 0.10022731 -0.07260705 -0.04822937 -0.01286873
0.12163446 -0.18015791 -0.061055027 0.09345249 0.10510874 0.004988003 -0.009120714 -0.08192987
0.19896716 0.118137516 -0.028456794 -0.09393459 0.14074583 0.14223455 -0.17008124 -0.075450785
0.19364788 0.03001861 -0.14441837 0.073130205 0.14547358 0.12905645 0.1419429 0.07921864
-0.018105336 0.024438346 -0.06538869 -0.1062873 -0.09494964 0.14461817 -0.062386032 0.05817418

encoder_layers.block_1.conv.bias f4 [48]
00000000: 1f63 e2bb 22ed 113e 5c34 cd3c bf93 2bbe
00000010: 1e4d 22be dc39 e8bd b4b3 0a3e 5ede 06be
00000020: a90b 63bd 69ca f1bc 3162 38bd 17de 03be
00000030: 986f 1bbe ee34 843d dc9b 23be 4b98 25be
00000040: 1ffd 183e 7844 213e adc2 ddbc 1660 33be
00000050: f303 263d 3833 4e3e 19d9 353e 8ffd 473e
00000060: e684 963d 7291 7abd ddcc 2d3d 0a12 39be
00000070: 7e22 3d3e 1c5a 96bd 4ad6 11be fb7d 203e
00000080: d4b8 1ebe d9eb 953d ea63 06bc 6a6d 0c3e
00000090: 3bb1 173e 848f 8abd c081 a9bd c4df 193e
000000a0: f4a4 41be f450 a93d 066d 03be 6677 373e
000000b0: 334a 07bd f4fb f6bd 01ef 00be eb31 933d
-0.006908789 0.14250615 0.025049381 -0.1675558 -0.1584973 -0.11339161 0.13545114 -0.13170764
-0.055431042 -0.029515462 -0.045015518 -0.1287769 -0.15179288 0.06455408 -0.15977424 -0.16171376
0.14940308 0.15748775 -0.027070368 -0.17517123 0.04053111 0.20136726 0.17758597 0.19530319
0.07349567 -0.061173864 0.0424317 -0.18073288 0.18470189 -0.07341406 -0.14241901 0.15673058
-0.15500194 0.07320375 -0.008202532 0.13713613 0.14813702 -0.06765655 -0.08276701 0.15026766
-0.18910581 0.08267394 -0.12834558 0.1791664 -0.033029746 -0.12059775 -0.12591173 0.071872555

decoder_layers.block_0.transition.weight f4 [12, 12, 3, 3]
00000000: 628d 273d b6d6 2d3d 807d 683d 642c d83c
00000010: 886e bf3c 003b e5bc d3fe 1abc b777 8dbd
00000020: fae9 683d 8e74 6bbd 487f c8bc fbac 3c3d
00000030: 27d9 373d 2d82 96bb cd83 43bb a779 6dbd
00000040: c187 febc 530b 62bc 52b5 823d 8f74 733d
00000050: d698 223d 848d 87bd df57 50bd 66ec 8dbd
00000060: 4d50 a5bc 232f 15bd 4466 9d3c 0112 763c
00000070: 08df 3e3d 8877 493c f903 9ebb 8965 8bbd
00000080: 3013 673d e9a2 15bd b774 89bd 08d9 4f3c
00000090: ce12 2dbc f304 833d e21b 7c3d 7604 a1bb
000000a0: bff3 4ebd d558 d53c c0b0 e23c 81ef 6cbd
000000b0: ddf9 233c b255 35bd b05d a83b 7b48 05bd
000000c0: cefe a73a 0e2d 2ebd 6501 ff3c 8c31 8cbd
000000d0: 58c8 18bd e1a3 503c 0e8b 613c 1d5c 823d
000000e0: 1eac f13b a0ed 5cbd 7d0a 3e3d f634 17bd
000000f0: 8848 7f3c 45a6 babc 8232 dcbb 903b 1a3a
00000100: 657f 453d a6ae 043b 84b7 643d 8a1a 873d
00000110: 63bb 8abd 31ca 39bd 4921 4dbd d53f c93c
00000120: 83b5 09bc a3c6 40bc d517 8a3b 5792 4fbc
00000130: 888d b8bc 174b 3bbc e872 00bd d856 863d
00000140: fc74 a4bc 3690 353d 2031 163d 4859 173d
00000150: addd 08bc c768 9ebc c686 8a3d 62b2 4b3d
00000160: 6e17 c93c 23d1 09bd 9a72 d93c b30f d83c
00000170: 41c9 43bd 3647 bf3c 1f00 003d 2556 2fbd
00000180: 7a42 783d 7f16 d83a 4952 aebc 8990 16bc
00000190: 1b56 10bd b7d7 3d3d 0ec3 a53b 9fbc 2a3d
000001a0: d154 133d 9bba c7bb e94a 533d d176 823d
000001b0: 3365 a43c fe75 033d 5e05 f0bc 5421 59bc
000001c0: 356b bdbc 78f1 0c3c 02b0 a13c ac5d 0b3d
000001d0: 11a9 81bd f8c8 f6bc 4723 253d 88b1 3e3c
000001e0: 7a55 223d abed 4e3d b048 5c3d b9a3 053d
000001f0: 325c 67bd 8cac 613d a001 94bc d59f 41bd
00000200: 8ed5 733c 2310 14bd c5a7 833d ff82 c93c
00000210: 5f09 3bbd 655f eabb 11e8 14bd ca7c 033d
00000220: 83d2 40bd b2b2 593d 57cb 503d 9897 8d3d
00000230: d03c da3c d785 6d3d 8bd4 e0bc fbdd fe3c
00000240: 2a6f 2bbd 5011 20bc cca8 88bd be5a 803d
00000250: c73c c4bc b560 96bc 25b1 173d 8401 c23c
00000260: d35a 34bd 423f 133b b9be a13c 075f 913c
00000270: 7654 53bc 9f17 bc3c fbd2 803d 45a2 1f3d
00000280: 9f26 6d3c 1eda b13b 5a4c 833d 1bf4 5c3d
00000290: 89bd 003c 8c65 03bd 708a 4a3c a8bd 243a
000002a0: 5947 3d3d 98be f8bc 8d7b 21bd 7357 8a3d
000002b0: 9be6 9b3c 5185 813b 7c7e 0f3d 7519 5e3d
000002c0: cae2 3dbd 8c61 49ba 0151 083d 7060 8b3d
000002d0: 6a6d 4b3b d817 293d bfdc ddbb 3a5b 7ebd
000002e0: 1b46 3c3d b5f3 0bbd bd97 26bd 62bc 3bbd
000002f0: ea76 c3bc 59f7 043d c93a d63c 3c7d 363d
00000300: 2472 2a3d 13b6 2bbb 1ac0 1f3b 5c1c 9d3a
00000310: 8c7c 11bb fbea e5bb be79 90bb 3de5 64bd
00000320: 835f e33a 0186 343d 266f 293d a086 2cbd
00000330: 3ec7 5bbc 9ef0 8dbd 9f4e 023d e666 6cbc
00000340: b9cf 873c c00f 72bd e50d 8d3c df85 e9bc
00000350: 60c6 e8bc 9be7 8d3d 85d9 7ebb e64e e83b
00000360: c650 813d d292 dc3b 8653 7b3b 0b3c 863d
00000370: 9cf0 68bc 920f cc3c 6517 c6bc cf6f 9c3c
00000380: f70c 653d 26ad a13c 498f 333d 928c acbb
00000390: bb2e 243d b202 013a 553b 18bd ea5e dabc
000003a0: 3d8a d3bb 3423 4bbc e392 483d 69cf 1f3d
000003b0: 2061 0bbd 589e 8dbd 7e13 5b3d b6ca 033d
000003c0: 9256 fbbb 674c 27bc 21d9 683c 5acd 09bd
000003d0: d145 3b3d 99bc 1e3d cdd3 84bd 611e 71bd
000003e0: 0a7a 7b3d e5c3 373d 2157 fa3c 8ac3 b33c
000003f0: 7f21 2f3d 3a6a fe3b 3144 bc3b b60f 88bd
0.040906318 0.042441092 0.05676031 0.026388355 0.023368135 -0.027982235 -0.009460169 -0.069075994
0.056863762 -0.057484202 -0.024474755 0.046063405 0.044884827 -0.004593155 -0.0029833198 -0.057977345
-0.031070592 -0.013796645 0.0638224 0.05943733 0.039696537 -0.06618789 -0.05086505 -0.06929855
-0.020179892 -0.036421906 0.019213803 0.015018941 0.046599418 0.012296565 -0.004822251 -0.06806476
0.056414783 -0.036532316 -0.06711715 0.012686022 -0.010563565 0.06397428 0.06155003 -0.004913862
-0.050525423 0.026043335 0.027672172 -0.057845596 0.0100083025 -0.04427118 0.0051381215 -0.032539826
0.0012817027 -0.042523436 0.031128595 -0.06845388 -0.037300438 0.012734384 0.013766063 0.063652255
0.0073752543 -0.053937554 0.04639672 -0.03691574 0.015581258 -0.022784362 -0.006719888 0.00058835093
0.048217196 0.00202457 0.055839077 0.06596859 -0.067740224 -0.04535884 -0.05008057 0.02456657
-0.008405092 -0.011766109 0.004214267 -0.0126691675 -0.022528425 -0.011431477 -0.031359583 0.06559533
-0.020075314 0.044326983 0.036667943 0.03695038 -0.008353633 -0.019337071 0.06763987 0.049730666
0.024547305 -0.033646714 0.026543904 0.026374673 -0.047799353 0.023349386 0.031250115 -0.042806763
0.060610272 0.0016486197 -0.021279471 -0.009189733 -0.035238367 0.0463483 0.0050586527 0.04168379
0.03596956 -0.006095243 0.05158511 0.06370319 0.020067787 0.032094948 -0.029299434 -0.013252575
-0.02312241 0.0086024925 0.019737247 0.03402488 -0.06331075 -0.030125126 0.040316846 0.011639006
0.039632298 0.050519627 0.053780258 0.03262684 -0.05648441 0.055096194 -0.018067181 -0.04727157
0.014882458 -0.0361482 0.06428484 0.024598597 -0.045663234 -0.007152485 -0.03635413 0.03210143
-0.04707576 0.053148933 0.05097517 0.0691368 0.026640326 0.057988968 -0.027445098 0.031111708
-0.04185406 -0.009769753 -0.066728204 0.06267308 -0.023954762 -0.01835666 0.037034173 0.023682363
-0.04403193 0.0022468125 0.019744264 0.017745508 -0.012898555 0.022960482 0.06290241 0.03897311
0.01447454 0.005427613 0.06411047 0.053943735 0.007857689 -0.032079265 0.012362108 0.00062843645
0.04621062 -0.03036432 -0.039424468 0.06754961 0.01903086 0.00395266 0.035032734 0.054223496
-0.04635886 -0.0007682077 0.033280376 0.06805503 0.0031040558 0.041282505 -0.0067706998 -0.06209872
0.045965295 -0.034167964 -0.040672053 -0.045833953 -0.023860414 0.03246245 0.026151078 0.044553027
0.04161276 -0.0026201054 0.0024375976 0.0011986601 -0.002219948 -0.0070165372 -0.004409044 -0.05588268
0.001734719 0.04407311 0.041365765 -0.042120576 -0.013414202 -0.0693066 0.03181326 -0.01442883
0.016578542 -0.05909705 0.01721854 -0.028506218 -0.028414905 0.06928941 -0.0038886976 0.0070894836
0.063142344 0.0067313695 0.0038349344 0.06554421 -0.014217522 0.024909768 -0.024181077 0.019096283
0.055920567 0.019735884 0.04383782 -0.0052657807 0.04008363 0.0004921361 -0.03716596 -0.026656587
-0.0064556883 -0.01239853 0.048968207 0.03901616 -0.034028172 -0.06914967 0.053485386 0.032175742
-0.007670232 -0.010211087 0.014211924 -0.033643104 0.04572088 0.03875408 -0.0648571 -0.058866862
0.061395682 0.044864554 0.030559124 0.021943826 0.042756554 0.007764128 0.0057454337 -0.066436216

decoder_layers.block_0.transition.bias f4 [12]
00000000: 5f9c 6b3d 54a1 c7bc 4062 abbc 687b 53bd
00000010: 49fc 61bd 54c0 033c c801 53bd 5767 e5bc
00000020: cd63 4dbd 6eef a13b f7a7 cd3c 90ce 9abb
0.057522174 -0.02436892 -0.020920873 -0.05163136 -0.05517224 0.00804146 -0.05151537 -0.028003378
-0.050144006 0.0049418723 0.025104506 -0.004724331

decoder_layers.block_0.conv.weight f4 [48, 12, 1, 1]
00000000: d7a5 dbbd e01d 4c3c 186c 123e ac4f ed3c
00000010: f176 9d3a b3ef c63d 4d97 99bd f018 aa3d
00000020: bd45 3c3e fcba 293e b96f 3abe 9ee5 54be
00000030: b235 d3bd 2c43 ac3d 261e 82bc 6afc 09be
00000040: 973f 313e a93f 42be e8c4 2d3d 567a 313e
00000050: 6003 403e 97bd fdbd 8b19 e63d 8a4f 253e
00000060: f4cc 1e3e 0d46 883d 21cd d3bc c96f 26be
00000070: 1b7d 3b3e 8de4 14be 6027 e7bd 0b5f 753d
00000080: 303a f2bd d176 2cbe f205 803c 0f32 01be
00000090: 9c47 0bbe 8bcc 2bbe 2be7 2a3d 8dfd ba3d
000000a0: 66ff bbbd c06a a6bd e4f8 81bd 0109 3b3e
000000b0: 23f9 41ba 56e1 2b3e db63 373d 65d7 0b3e
000000c0: 1179 bcbd 0597 22be e4f8 d6bd e6cc 213e
000000d0: bc7c 5fbd 9242 07be 31ac 32be e087 e8bd
000000e0: 2615 8ebd 6773 4d3d acfc 00bd 541e dabd
000000f0: 39db fd3c b766 39bd 8609 323e 9a17 33be
00000100: 1259 4d3e 172d 183e 9249 c33d e55b e3bd
00000110: 23e2 313e 73e9 9c3d a44e 3cbe 4124 2e3e
00000120: 6791 e6bd fd41 78bd 1ea0 613d 2d8d 0ebe
00000130: 68e7 9ebd 2bf9 ae3d ddec 533e 37cc 24bd
00000140: 44ed 1dbe 2d62 31be 8fb6 c93d 8e48 e63c
00000150: 9517 a6bd 4b50 50be 6b54 413e ff27 8a3c
00000160: 20be 16be 6492 023e 433c 393e 1228 12be
00000170: a391 f2bc 312b 4b3e c29e 29be 7c8a 43be
00000180: 34f0 233e 7316 ce3a 45c9 893d fdfe bb3d
00000190: 6f35 c1bd 5754 dbbc a43a 9c3d ee05 4cbe
000001a0: d219 823d 5f19 173e 5130 07be 24dd d9bd
000001b0: 5792 edbd 46ee 3a3e 53a9 843c 5105 cfbd
000001c0: bfad 103e effb 16bd 1ebc 05bd 975b d3bc
000001d0: 8d1f b03d fbee d23b 416e cdbd 9ddc f1bd
000001e0: f7dc 0e3d ba6b 013e 91f0 f33d 56b7 ab3d
000001f0: 05e7 283d c5fa 0dbc 79a5 ddbd 8437 53be
00000200: e1a8 173e 71bb e0bd f310 483d bff6 ebbc
00000210: a9d8 ecbd 82a3 3bbe cf5c 4ebe c7b7 93bd
00000220: 1325 3f3e e504 27be 5349 1b3d 633a 51be
00000230: 224a 49be b35a 423e 9469 39be 0a1e cd3d
00000240: 8c25 c9bd f2bf 553e f07a 093d 95f3 d6bd
00000250: 49a0 0dbe 1465 0b3e 6457 453e 8e30 31be
00000260: f18b de3d eb71 023e 1544 813a efec aabd
00000270: e1d1 313e 8c6a d43d cd07 863c 548b 303e
00000280: 3ffe 183e 1732 473e a195 d2bd 9602 99bb
00000290: 8e6d dcbc 07c5 493e 9ef4 3a3e bb95 183e
000002a0: ed29 f33c 9085 3f3e c69b 88bd b0b9 57be
000002b0: 62fe 113d e5be 0dbe 62db 9abc 4afe 0d3e
000002c0: af05 263e 2eaa 293e a511 a03d 34e7 183d
000002d0: ffaf 443d 2df6 f3bd 083c 10be 3363 43be
000002e0: 3168 403e 3c98 b83c 784c 4c3e 3edb ec3d
000002f0: abbb 2b3e 3588 4d3e c82f 323e db4b 30be
00000300: 913e ca3d 12b9 10be f3a0 9a3d 2f43 0cbe
00000310: 09ed 4e3d 06db dcbc f90a ce3d d56f 1ebe
00000320: beaa 243e 5b4d 35be 1fd5 bcbd 41d8 42be
00000330: 59eb 39be c5e8 b7bd 9567 42bd 0a23 08be
00000340: 7358 63bd 58cd 453d 2673 523e 8875 2d3e
00000350: df76 c43d f822 edbd 378c 073e f128 013e
00000360: 6c14 46be 317e 36be e472 3e3e 7d56 0a3e
00000370: 551b d63d 730a 583e 8d5f 48be bba7 f9bd
00000380: 8e5b 503e 38b0 ff3d db53 c5bc 868a 05bd
00000390: ad46 823d 6b45 033e d6ff f83d 7147 21be
000003a0: 216d d3bd 5665 04be 9617 91bc 1d5b 383d
000003b0: 4030 1b3e 9f49 9a3d 2dbd d8bd e165 143e
000003c0: 27de 2e3d 7dfd f3bb 583b 4dbe a203 003e
000003d0: aeb4 04be 9e33 513e 5584 46be e09e f43c
000003e0: d9b5 1a3e ed00 bbbc ca25 20be 0f17 96bd
000003f0: 2b03 9e3d 84ba 413e 8464 07be 2ac2 943d
-0.10724991 0.012458295 0.14299047 0.028968655 0.0012013597 0.09713688 -0.074995615 0.08305538
0.18385978 0.16575235 -0.18206681 -0.20790717 -0.10312976 0.084112495 -0.015883517 -0.13475195
0.17309414 -0.18969597 0.042424113 0.17331824 0.18751287 -0.12389677 0.11235341 0.16143623
0.15507871 0.06653986 -0.025854649 -0.1625358 0.18309443 -0.1454031 -0.11286807 0.059905093
-0.11827505 -0.168422 0.015627835 -0.12616752 -0.13601536 -0.16777246 0.041724365 0.09130392
-0.09179573 -0.0812583 -0.063463 0.18265153 -0.000739949 0.16785178 0.044772964 0.13656385
-0.09202779 -0.15877922 -0.10496691 0.15800819 -0.054562315 -0.13208988 -0.17448498 -0.11354041
-0.069376275 0.050158884 -0.031490967 -0.10650316 0.030988323 -0.045263972 0.17386445 -0.17489472
0.20053509 0.1486095 0.09535517 -0.11101512 0.1737142 0.076617144 -0.18389374 0.17006017
-0.11258202 -0.060609806 0.05508434 -0.13921042 -0.07758981 0.08543619 0.20695825 -0.040233817
-0.15422541 -0.17322607 0.098492734 0.028110769 -0.08109967 -0.2034313 0.18879859 0.016864775
-0.14720964 0.12751156 0.18089394 -0.14273098 -0.02961046 0.19840695 -0.16564468 -0.19095796
0.16009599 0.0015723243 0.06727842 0.091794945 -0.0943402 -0.026773615 0.07628372 -0.19924137
0.06352581 0.14755772 -0.13202025 -0.10637882 -0.11600178 0.18254957 0.016194021 -0.10108436
0.14128779 -0.036861356 -0.032650106 -0.02580051 0.08599768 0.00643718 -0.10030795 -0.11809657
0.034878697 0.1263875 0.11911119 0.08384578 0.041235942 -0.008665745 -0.10822577 -0.20626646
0.14810516 -0.109732516 0.04884429 -0.028804181 -0.11564762 -0.18324092 -0.20152591 -0.07212787
0.18666486 -0.16310461 0.037911724 -0.20432429 -0.19657186 0.18979912 -0.18106681 0.10015495
-0.098216146 0.20874003 0.033564508 -0.10495678 -0.13830675 0.13612777 0.19271618 -0.17303678
0.108665355 0.12738769 0.0009862209 -0.08345973 0.17365219 0.10371885 0.016361142 0.1724065
0.14940737 0.19452702 -0.10282446 -0.0046694977 -0.026907708 0.19704066 0.18257377 0.14900868
0.029683078 0.18703294 -0.066703364 -0.21066928 0.03564299 -0.13842352 -0.018903438 0.13866535
0.16213106 0.16568825 0.078158654 0.037329867 0.048019405 -0.11912189 -0.140854 -0.1908081
0.18789746 0.022533529 0.19951046 0.11565255 0.16770808 0.2007149 0.1740104 -0.17216437
0.09875215 -0.14133099 0.0755023 -0.13697504 0.050519023 -0.026959907 0.100606866 -0.15472348
0.16080758 -0.1770529 -0.09220337 -0.19027807 -0.18156184 -0.08979944 -0.047462065 -0.13294616
-0.055504274 0.048291534 0.20551738 0.16939366 0.09592985 -0.115789354 0.13237081 0.12613274
-0.19343728 -0.17821576 0.18598515 0.13509555 0.10454432 0.21097736 -0.195677 -0.12190195
0.20347425 0.12484783 -0.024087837 -0.03260281 0.063611366 0.1281945 0.12158172 -0.15749909
-0.10323549 -0.12929282 -0.017711442 0.045008767 0.15155125 0.07533573 -0.105829574 0.14491989
0.04269233 -0.0074459896 -0.20042169 0.12501386 -0.12959549 0.20429847 -0.19386418 0.029860914
0.15108432 -0.02282759 -0.15639415 -0.07328617 0.07715448 0.18918806 -0.13221937 0.07263596

decoder_layers.block_0.conv.bias f4 [48]
00000000: 73e7 2ebe 1f0b 973d 76b4 2b3e 2fce 2abe
00000010: 1c1a 993d ec45 19be b741 e73d debf c13d
00000020: 6f54 4e3d d564 1fbe fa4d 00be bf7a 423d
00000030: d852 c53c 634f f93d cd5d 883d d8fb 12be
00000040: e03c ee3c 8c08 fc3d 209a 4dbe 7b95 45be
00000050: 45ff 913d 1366 32be 50e9 203e 5f0d b73d
00000060: a627 503d 34f5 fabc bb50 393e 9104 c5bd
00000070: 4656 ccbd 0e97 1bbe 487e 19be e52f b9bd
00000080: fcbf 0e3e 2599 1dbc 4e74 00be fc26 08be
00000090: 306e e83d 8bbf d33d 24e9 c8bd 1922 403e
000000a0: 4627 03be c488 05be c244 ce3d e93d 3abe
000000b0: c8f0 2b3e 335f 453d fc8c 113e 86f9 f3bc
-0.17080478 0.07375168 0.16768059 -0.16680215 0.07475683 -0.1496808 0.11291831 0.09460424
0.05037349 -0.15565808 -0.12529746 0.04748034 0.024087355 0.12173345 0.06658516 -0.14353883
0.029081762 0.12306318 -0.20078325 -0.19295304 0.07128767 -0.1742175 0.15714002 0.08938097
0.05081906 -0.0306345 0.18097202 -0.096200116 -0.09977393 -0.15194342 -0.14989579 -0.09042338
0.13940424 -0.009619032 -0.12544367 -0.13296121 0.113491416 0.10339268 -0.09810093 0.18763007
-0.1280795 -0.13040453 0.10071708 -0.1818768 0.1679107 0.048186492 0.14213938 -0.029782068

decoder_layers.block_1.transition.weight f4 [12, 24, 3, 3]
00000000: 3b42 3bbd f2e1 183c b24b d53a df37 07bd
00000010: ee3f 3e3d 7f89 a2bc a21c 28bd c84c 123d
00000020: ab20 74bc 3458 303d 85ad f63c 90eb 1c3d
00000030: 9368 483c c37b 553c b332 123d 2dc1 c83c
00000040: dbb1 4a3d b49a 2abd 57c7 aabc c9b1 c6bc
00000050: f520 1d3d 97f9 013b 2ba1 02bc 0012 4b3d
00000060: 477f 0d3d dea9 273d 7bab d23c 95a7 043d
00000070: e741 9a3b 0de8 883b b956 4a3d 434c 21bd
00000080: 9b42 cc3c 0520 39bd 4a07 bb3b 8853 3a3d
00000090: 9e55 be3b 2d00 87bc 9299 bdbc f4a2 da3b
000000a0: b038 ac3b d8f7 383d 418f 9bbb 7e13 a0bc
000000b0: bc6a 8cbb 0887 ac3b 4cbd a9bc 00c4 03bb
000000c0: d492 37bd aa04 19bc d0c6 1bbd cf4d de39
000000d0: 10df 143d 3d3e a7bc fad5 49bd cae8 a7bc
000000e0: 16bb cb3c e593 9e3c 3376 ddbc c076 d6bc
000000f0: ea61 3c3d ae10 2bbd eb7a 0e3c cdeb 26bc
00000100: e436 11bc 6c84 253d 2cb0 3fbd 3fb4 3b3d
00000110: 2095 cb3b 66dd dfbc 57ce 33bd b39f 173c
00000120: 3da5 223d 06c0 36bd c1ea 3fbc 8b1a da3c
00000130: dd6c 233d b210 163d 17db d7bc 1e23 87bc
00000140: 64db 45bd 0e66 b2bb 2afc 8f3c 132c 163c
00000150: bece 25bd 760c a6bb 5b22 873c f7bc 40bc
00000160: 36e9 30bd 680d 05bd e5fb 213d 0724 f8bc
00000170: fc90 35bd 0d6f c8bc 62a8 d6bc fec2 1bbd
00000180: 7a58 14bd 5b14 2dbd 9f1d 073c 3a1b 8d3b
00000190: 34fc 283c f429 353d 2002 3c3d 458b 87bc
000001a0: 4715 a13c 0c61 003d 03f1 12bd c923 6a3b
000001b0: 682d 12bc c663 31bd dec7 e83b 3fc9 10bd
000001c0: de8f 48bb 614d a73c a788 ec3b 1c3c a4bb
000001d0: 5b54 223d 210d 163d 79da 873c 4522 d9bc
000001e0: ae0f 43bd 4f5e 52bc 6b6d 643c 002b dfbc
000001f0: 84bb 39bd 46ef 3fbb 8c05 4c3d 11a9 133d
00000200: e3c3 9bbc 1d44 efbc 2947 41bd 374f b9bc
00000210: 3816 133d 03fc 2abd d404 183c 736b 6cbb
00000220: ab0b 0a3d cf20 eabc bfac 813c 9ffd 84bc
00000230: a800 25bd b805 cb3c 29e8 cf3c dbf1 a9bc
00000240: 1d4d 67bc 4f36 9b3c 1da3 22bd 281f dd3b
00000250: b719 7bbc 750e 61bc 9535 823c a2dc 043d
00000260: d9a0 f73a 0387 fc3c ecab 9bbc b92a 513c
00000270: 5b71 033d 439d 07bd a962 d53c 16ee 0e3d
00000280: c835 e13c 834c edbc 5468 b6bc 8bce d8bc
00000290: 6f85 1abb 64fd 43bc 9745 ef3b a63d 933c
000002a0: 12cd 2a3d 7c6b 4e3c 8cbf d6bc acef 2b3d
000002b0: 8d97 c6bc 462c 333d 9221 af3b 06b4 4f3c
000002c0: e231 05bd c7dd 2ebd d5ac 1c3d 305f f8bc
000002d0: 1b0f e73c ecca 4dbc e6fc 013b 0b92 2ebd
000002e0: 7106 22bd 1492 0d3d 8b7d babc f9fe c53c
000002f0: 8b54 babc 414a d5bc 256f 953c 6c23 073d
00000300: b983 d33c 8805 f1bb bc6d 743c b7e8 bbbb
00000310: c8f7 843c 9d81 053d 8a75 8b3c b0f6 3ebd
00000320: 7b82 01bc 74ec 0abd 6aa7 4fbc 1323 2ebd
00000330: bb7b 023d 8e4d 153d 4c45 0b3c a090 ab3c
00000340: 1e96 43bd ed94 3dbd bd43 17bd 8165 93bc
00000350: edce 073d 3a17 4f3b cece dd3c e8f0 923c
00000360: d6f3 ffbb 0964 acba f512 103d 9ffc 93ba
00000370: 5f3b aeba 622f adbc 1e45 96bc 431e 73bb
00000380: 0ff9 1cbd a951 2b3c e95a 893c ee24 3e3d
00000390: 6fd9 c1bc 7081 77bc 512f 8b3c b396 0ebd
000003a0: 52f9 d53c d728 07bd 276f f0ba 1b91 1ebd
000003b0: 1844 1d3d 8acf f23c bcfa 97bb 3cec 81bc
000003c0: 3192 0e3d 6104 a33c f2cb c9bc f699 45bd
000003d0: 70f4 6f39 8cea 053d 4395 203d 46b2 523c
000003e0: 983f 693c 0874 203d 6d6d 2fbc ffd0 93bc
000003f0: 125b b6bc 6df8 043c ca79 ba3c c4fd 423d
-0.04571746 0.009331213 0.0016273169 -0.033012267 0.046447687 -0.019840954 -0.04104293 0.035717756
-0.014900367 0.043052867 0.030112037 0.038310587 0.012231964 0.013029995 0.03569288 0.024506176
0.049486022 -0.041651443 -0.020847006 -0.024254696 0.03836151 0.0019832605 -0.007972996 0.049577713
0.03454521 0.040933482 0.025716534 0.03238638 0.004707563 0.0041780532 0.04939911 -0.03937937
0.024934104 -0.04519655 0.005707656 0.045489818 0.005808546 -0.016479576 -0.023144517 0.0066722576
0.005255781 0.045158237 -0.004747302 -0.019540545 -0.0042851847 0.0052651204 -0.020720147 -0.0020105839
-0.04481776 -0.009339491 -0.0380314 0.00042401112 0.03634554 -0.02041542 -0.04927633 -0.020496745
0.024869483 0.019357631 -0.0270339 -0.026179671 0.045991816 -0.041763954 0.008696298 -0.010188055
-0.008863185 0.04040949 -0.04679887 0.045826193 0.0062128454 -0.02732725 -0.043897953 0.009254384
0.039708365 -0.04461672 -0.011713685 0.026623985 0.039898742 0.036637016 -0.026349587 -0.016496237
-0.04830493 -0.005444295 0.017576296 0.009165782 -0.040480368 -0.0050674034 0.016495874 -0.011763803
-0.043191157 -0.03248349 0.039546866 -0.030290617 -0.04432772 -0.024467016 -0.026203338 -0.038027756
-0.03621719 -0.04225574 0.008246808 0.004306224 0.010314036 0.044229463 0.045900464 -0.016545901
0.019663466 0.03134255 -0.035874378 0.0035726896 -0.0089219585 -0.043308042 0.007103904 -0.035348173
-0.003060333 0.02042264 0.0072184387 -0.0050120484 0.03963123 0.036633614 0.016583668 -0.026505599
-0.047622375 -0.012839868 0.013942103 -0.027242184 -0.045344844 -0.0029286905 0.049809977 0.036049906
-0.019014305 -0.029207284 -0.047187004 -0.02262078 0.03590986 -0.041744243 0.009278495 -0.0036074787
0.033702534 -0.028580097 0.015829442 -0.016234217 -0.04028383 0.024783 0.025379257 -0.020745208
-0.014117506 0.018946795 -0.03970634 0.006748099 -0.015325955 -0.013736357 0.01589469 0.032436974
0.0018892541 0.030826097 -0.019002877 0.0127665335 0.032090526 -0.03310896 0.026048021 0.034895025
0.027491465 -0.028967148 -0.022266544 -0.026465675 -0.0023578068 -0.0119622685 0.007301997 0.017973732
0.041699477 0.012598868 -0.026214384 0.041976616 -0.024242187 0.043743394 0.005344578 0.012677198
-0.032518275 -0.042691972 0.038250763 -0.030318826 0.028205445 -0.012560587 0.0019834577 -0.042619746
-0.039556924 0.03456314 -0.022764942 0.024169432 -0.022745391 -0.026036384 0.018241474 0.032992765
0.025819646 -0.0073553957 0.014918741 -0.005734529 0.016231433 0.032594312 0.01702382 -0.04662198
-0.007904644 -0.033916906 -0.012674192 -0.042513918 0.03185628 0.036450915 0.008500408 0.020942986
-0.047750585 -0.046284605 -0.036929835 -0.017992737 0.033156324 0.0031599537 0.027076151 0.017937139
-0.00781105 -0.0013152371 0.03517433 -0.0011290497 -0.001329284 -0.021140758 -0.018343505 -0.0037096895
-0.03832346 0.010456481 0.016766982 0.046421938 -0.02366325 -0.015106544 0.016990336 -0.034811687
0.026119862 -0.032997932 -0.0018343673 -0.038712602 0.038395017 0.029639978 -0.004638044 -0.015859716
0.034807388 0.019899549 -0.024633382 -0.04824253 0.00022883876 0.032694384 0.039204847 0.0128598865
0.014236353 0.039173156 -0.0107072415 -0.018043993 -0.022260223 0.00811587 0.022763152 0.04760529

decoder_layers.block_1.transition.bias f4 [12]
00000000: a82a c5bc 9728 eebc 3aa8 803c 29c2 153d
00000010: 9805 50bc e3b8 c9bb a5fb f7bc 4a23 1bbd
00000020: 38d9 913c 6f1f e23c ebd0 aabb f419 ec3c
-0.024068192 -0.02907209 0.015705217 0.03656212 -0.012696646 -0.0061560734 -0.03027136 -0.03787545
0.017803773 0.02760288 -0.0052128932 0.02882097
