trainedModels/wave/batchSize/baseline/32/run1/model.pt (torch, 68993 bytes, 11 tensors)

init.weight f4 [8, 1, 1, 1]
000000 b0 c5 73 bf 41 7c 2d 3f 24 78 b9 3e c2 e6 8c bf
       -0.9522352 0.6776772 0.36224473 -1.1007922
000010 b3 48 20 3e 0c 99 8a bf 5b 13 94 bf fe 81 48 bf
       0.15652733 -1.0827956 -1.1568407 -0.7832335

init.bias f4 [8]
000000 20 d2 54 3e 5c c1 83 be 68 c6 17 3f d3 b8 c6 3e
       0.20783281 -0.2573346 0.5928712 0.38812885
000010 6b af 43 bf a0 af 73 be 2e 71 46 3c b4 0e 32 3f
       -0.7643954 -0.23797464 0.012111945 0.69553685

encoder_layers.block_0.conv.weight f4 [32, 16, 3, 3]
000000 28 10 10 bd 28 6e 8e bd 34 f3 06 3d 35 1a b9 3d
       -0.035171658 -0.069546044 0.03294678 0.09038202
000010 30 08 43 3b 56 f9 19 bc ee b4 7e 3d ea 83 62 bd
       0.0029759519 -0.009397825 0.062184267 -0.055301584
000020 48 0f 94 bc 9c 97 ac 3d 9b 4f bd ba b4 ce 93 bb
       -0.018073693 0.08427355 -0.001444328 -0.004510725
000030 ce 68 cf bc 55 7a c8 bc 3e 29 a5 3c a2 5c 32 3d
       -0.02531853 -0.024472395 0.020161267 0.043545373
000040 84 92 06 bd a1 d1 20 3d 94 05 04 bc e5 e9 6d bd
       -0.032854572 0.039262418 -0.008057971 -0.058084387
000050 87 65 70 bc 6b 01 4c bd 78 cc 98 bc 3d 27 2f bd
       -0.0146726435 -0.04980604 -0.018652186 -0.04276203
000060 16 86 84 bd fa c2 d8 3c 9e 1a 8c bd 04 23 bb bd
       -0.06470887 0.02646016 -0.06841014 -0.09137538
000070 e7 17 46 bd 4f 31 06 bc f6 b4 d0 3b 57 02 2f bc
       -0.04836264 -0.008190467 0.0063692285 -0.01068171
000080 9a 3c 92 bd ab 31 a2 3d fe 9c 03 bd 65 ba 96 3c
       -0.07140465 0.0791963 -0.03213214 0.018399427
000090 f7 11 00 bd 0e 8e aa 3d c2 fd 24 3d cf f4 53 3d
       -0.031267133 0.08327876 0.040281065 0.05174714
0000a0 b2 63 33 3d 9f 17 80 bb 27 ae 98 bb 56 6b 73 bc
       0.04379625 -0.003909066 -0.0046594325 -0.014857134
0000b0 8d 46 21 bc 0b 8e 05 3b c7 57 4f bd ec 49 70 3d
       -0.009843481 0.0020378854 -0.05062082 0.058664247
0000c0 c4 99 c6 3d 46 39 c6 3b 64 88 13 3d 1a 4e 1b 3d
       0.09697297 0.006049308 0.036018744 0.03791628
0000d0 9e 2a 9b 3b 80 3e 2c 3b dc 12 a4 3d e2 a7 63 3d
       0.004735305 0.002628237 0.0801141 0.055580027
0000e0 ea 21 d9 3d 12 7d b7 3e c9 ae 3f 3e 7d 80 10 3e
       0.10602172 0.3583761 0.18719019 0.14111514
0000f0 68 3b da 3e 0d 72 ea 3d 5b ce 16 3e 0e 86 ac bd
       0.42623448 0.11447535 0.14727156 -0.084240064
000100 98 9e c2 bc 93 65 4e 3d 92 36 14 bd a1 31 38 bc
       -0.023757264 0.050389837 -0.036184855 -0.011242301
000110 77 7b df 3c 03 98 45 3b 63 92 83 bd 7f 42 42 bd
       0.027280552 0.003015042 -0.064244054 -0.047426697
000120 66 3d d5 3d 35 ea 90 bd 88 7d 80 bd db 4f 82 3c
       0.104121014 -0.070759214 -0.06273943 0.015907219
000130 48 ad 05 3d b0 fa 63 be c0 0a 57 3c a3 ae 42 be
       0.032635957 -0.22263598 0.013125122 -0.19011931
000140 45 be 5c be 9c 91 2d 3d c2 b6 ee bc 79 63 69 3c
       -0.21556957 0.042375192 -0.02913988 0.014244908
000150 6a 12 21 3e ed 21 6f be 2d 13 af bd 10 a1 25 bd
       0.1572968 -0.23352785 -0.08548579 -0.040436804
000160 10 2c b9 bc 35 1e cd 3d 2e 79 bf 3c 5a 49 b3 bd
       -0.022604018 0.10015527 0.023373213 -0.08754225
000170 e7 99 30 be f3 0d 06 3d 5b 2d fd bd 7c 90 16 bb
       -0.17246209 0.032728147 -0.123621665 -0.0022974303
000180 7a fd 03 bd 50 31 93 3d bc d5 d2 bd c2 0e b0 3d
       -0.032224156 0.0718714 -0.10294673 0.08596565
000190 08 5b b5 39 a1 7a 23 3d b2 78 e0 bd 14 b4 3a 3d
       0.00034590834 0.03991187 -0.10960521 0.045581892
0001a0 38 ac 2a 3e 03 72 8a bc 1e 8f 4b 3d b7 74 ee 3b
       0.16667259 -0.016900068 0.049697034 0.007277097
0001b0 16 52 01 3d d9 94 ce bc 20 07 3e bc cb 5c 6b 3d
       0.031572424 -0.02521746 -0.011598378 0.05746154
0001c0 bf f1 23 3e b9 60 3c bd 46 31 fe bd 5f 49 04 bd
       0.16010188 -0.04599068 -0.12411742 -0.032296535
0001d0 f3 0e 88 3d 87 c4 ac 3c 40 79 71 3d f9 23 d3 3d
       0.06643476 0.021089805 0.058953524 0.103095956
0001e0 6c 41 f0 bc 56 41 0d 3e 11 bd 35 3e 06 a9 d7 bd
       -0.02932807 0.13794455 0.17747904 -0.105302855
0001f0 f7 8d 81 3d b3 ec 06 3e 93 f8 92 3d c2 c7 df 3d
       0.06325906 0.13176231 0.07176318 0.10926773
000200 b0 78 c3 bc 1e 3a 5b be 28 43 76 3c dd e1 8e be
       -0.02386126 -0.21408889 0.01503066 -0.27906695
000210 85 c2 07 3d 0d da bf 3d 6d 9e 07 be cb 95 68 bc
       0.033144493 0.09367762 -0.13244028 -0.01419587
000220 52 4c c4 3d 33 e9 f2 bd 24 6b 13 bc 31 ce 0b 3d
       0.095848694 -0.118608855 -0.008997712 0.034132186
000230 a5 8e 4a bd 4f aa 0d 3c b3 63 ac 3c ca 18 4e 3c
       -0.049452443 0.008646562 0.021043634 0.012579152
000240 e7 89 9a 3d 29 97 9c 3d eb 7f b6 bc 86 82 8d 3d
       0.07545834 0.07646019 -0.022277793 0.06909661
000250 ec 10 74 bd da 5d 88 3d 80 74 c9 3d 3a 5e d6 bd
       -0.05958645 0.06658526 0.09836674 -0.10467191
000260 5c d9 b0 bc 04 b6 94 bb c2 ef 49 bd 6e 16 34 3d
       -0.02158802 -0.0045382995 -0.049300916 0.043966703
000270 7f 64 ee 3c ce 44 8b bc d4 87 2d 3d 07 46 25 3c
       0.029100655 -0.017000582 0.042365864 0.010087497
000280 8e cb fd bc db db b5 bc 64 24 1e bd ae 50 47 bd
       -0.030980852 -0.022199562 -0.038608924 -0.048660927
000290 03 c6 5f 3d f7 12 4b 3d d5 04 27 bd 90 77 57 3d
       0.054632198 0.049578633 -0.040776093 0.052604258
0002a0 c8 14 7b 3d be 28 1f 3d bd 05 11 3d e7 db ae 3d
       0.061299115 0.038857214 0.035405863 0.08538037
0002b0 fa 43 f9 3d e1 43 af 3d 59 4d bc bc 9a 54 7b bb
       0.121711686 0.08557869 -0.022986101 -0.0038349987
0002c0 73 2a e1 3c b0 8b a0 bc f0 32 d1 3c b2 f3 f1 bc
       0.027486062 -0.019597858 0.025536984 -0.029535148
0002d0 ab 77 63 bc be 9b 18 3d e2 85 fe bc 94 22 04 3d
       -0.013883512 0.037257902 -0.0310697 0.03225954
0002e0 67 55 87 3d fe 3d 44 b8 36 19 82 bc 97 f6 ed 3b
       0.06608086 -4.6787776e-05 -0.015881162 0.007262062
0002f0 47 f8 49 3d ac ef ba 3d 21 ab 22 3d 20 e7 bf bc
       0.04930904 0.09127745 0.039713982 -0.023425639
000300 c5 17 8f 3a 36 c4 87 bd 4b dc a6 3d bf ee 1f bd
       0.0010917118 -0.06629221 0.08147486 -0.039046045
000310 a7 40 93 bd 46 b1 90 3d 60 59 86 3e ce 46 f7 3e
       -0.07190066 0.07065062 0.26240063 0.48296207
000320 33 1d 22 3e be bd 81 3d 77 ec 0b bf 5e 90 9e 3d
       0.15831451 0.063350186 -0.5465769 0.077423796
000330 2d f9 31 3d d2 c9 b0 be 9e d0 5c 3e e7 92 2c bd
       0.043450523 -0.34528977 0.21563956 -0.042132284
000340 24 86 b1 3c 2e 21 8c 3c 69 b2 7f bd cb a5 70 bd
       0.021670409 0.017105665 -0.062426005 -0.058751862
000350 8f 82 af 3d 68 75 ef 3c b2 54 56 bd 55 d0 e3 bb
       0.08569824 0.029230788 -0.052326865 -0.0069523253
000360 62 b9 e3 3d df 81 8d 3c d0 82 65 bc 8c b8 65 3e
       0.11119343 0.017273841 -0.014008239 0.2243368
000370 c9 8b 61 3c 23 1a fa bd 03 9f 17 3e 10 39 c0 3d
       0.013766238 -0.122120164 0.14806752 0.09385884
000380 21 6a 99 bc 85 01 10 bd cd 6e b8 bc e8 33 4f 3d
       -0.018727364 -0.0351577 -0.022513771 0.05058661
000390 40 be 00 3d 90 31 0b 3d ed 9d cc 3b 2f 80 4c bd
       0.031431437 0.033982813 0.006244412 -0.049926933
0003a0 6d cb c9 bd 89 b3 fa bc 69 f2 29 3a db 3f e8 3c
       -0.098532535 -0.030603187 0.00064829603 0.028350761
0003b0 db ee 70 3a ec 0f d1 3c 5a 2f 3f bc 38 33 af 3c
       0.00091908657 0.025520287 -0.011669004 0.021386728
0003c0 20 e8 86 bd eb c6 ff 39 ec 50 d7 3d 1c e8 f5 3c
       -0.06587243 0.00048785596 0.105134815 0.030017905
0003d0 7f f9 f7 bb 95 8c 96 3c 51 77 1b 3d f7 93 1a 3e
       -0.007567584 0.018377582 0.037955586 0.15095507
0003e0 42 29 81 3e c2 c2 ea bc 04 fb d9 3d fb cd a3 3d
       0.2522679 -0.02865732 0.106435806 0.07998272
0003f0 1d de a4 bd a3 01 63 3c d9 38 68 3d 84 2c 4d be
       -0.08050177 0.013855371 0.05669484 -0.20036513

encoder_layers.block_0.conv.bias f4 [32]
000000 a8 48 4a bb 30 2b 2e 3c cc 6a 02 bd ce 13 13 bd
       -0.003086606 0.010630414 -0.03184013 -0.03590756
000010 a2 88 20 3d fb e5 16 bd fb 92 67 3c 09 5f 6a bc
       0.039192803 -0.03684042 0.014134164 -0.014304885
000020 14 de 13 bd 5d 88 b8 3d 87 48 ab bd 4d 4a 80 b7
       -0.036100462 0.09010384 -0.08363443 -1.5293388e-05
000030 22 05 8c bd 96 46 1b bd a2 d4 6d 3c a8 23 1b 3d
       -0.068369165 -0.037909113 0.014516028 0.0378758
000040 4b 64 13 bd dc d5 6a 3c 2e 4b 6e bd 5e 34 70 bd
       -0.03598432 0.014333215 -0.058177166 -0.05864369
000050 92 25 fc bc 86 c7 ce 3c 6c d3 3f bb bf 78 2b 3d
       -0.030779634 0.025241625 -0.0029270304 0.0418632
000060 b1 30 bc bb 54 e7 80 bd 6c f7 95 bd 56 0e 85 bd
       -0.005743109 -0.06294122 -0.073225826 -0.06496875
000070 b2 75 c4 bd d9 1a 33 bd 46 16 99 bd ee 02 87 bd
       -0.09592761 -0.043726776 -0.074749514 -0.06592356

encoder_layers.block_1.conv.weight f4 [32, 16, 3, 3]
000000 d5 24 82 bc f8 b6 67 3d 7e 96 0b 3e c2 e3 c7 bd
       -0.015886704 0.056570977 0.13631627 -0.09760238
000010 fe 3d 87 3e 6d 15 34 3e f8 58 48 bd 96 6b f6 3c
       0.26414484 0.17586298 -0.048912972 0.030080598
000020 1a 79 cf 3d 57 c5 54 3d 1c e7 bb 3d d8 dd f1 bd
       0.1013052 0.05194601 0.0917494 -0.118098915
000030 4e f3 a4 bc 21 36 6a 3e f3 11 2c 3e 27 d9 7d bc
       -0.020135548 0.22872211 0.16803722 -0.015493668
000040 1e 9e 30 3d e4 35 c1 bc 05 bc 16 3e 30 95 cc 3d
       0.043119542 -0.023585267 0.14720161 0.09989393
000050 d4 f3 63 3e 5e 99 13 bd 56 ba 17 3c 7d 0a d2 3c
       0.22260982 -0.036034934 0.009260735 0.025639767
000060 71 df 8a 3d e8 25 8a 3c 99 da d6 bb 3d bf 2a 3e
       0.06780899 0.016863778 -0.0065568206 0.16674514
000070 7e ad 82 bc b7 4e f7 bc 54 15 7e 3c 8b 9c 61 bd
       -0.015951868 -0.030188901 0.015508015 -0.05508093
000080 66 11 21 3e 7a c2 06 3d 2a 32 39 3d 38 3d 2c 3e
       0.15729293 0.03290031 0.045213856 0.16820228
000090 af 3a 59 3c 47 a7 fd 3d 26 92 17 bd 89 2e 25 3d
       0.01325862 0.12385421 -0.037004612 0.040327583
0000a0 c9 b8 2c bd 2d 94 46 bd be db aa 3b 84 67 a1 bb
       -0.042168412 -0.048481155 0.0052141836 -0.00492567
0000b0 5b 5e e8 bd d6 82 71 bd 6d d5 e8 bd 79 5d 09 be
       -0.11346122 -0.058962665 -0.11368833 -0.13414563
0000c0 7e 4e 61 3d ca 72 b0 bd 40 8d 3e be d8 8c 65 bd
       0.055006497 -0.08615644 -0.1860857 -0.056042522
0000d0 dd 79 12 3c cb e5 c6 bd 1b f6 a7 bd 6b f6 84 3d
       0.008940187 -0.09711798 -0.08201238 0.06492313
0000e0 52 ed 05 3e ac ae 66 3d 05 15 10 3e eb ad bf 3d
       0.13078812 0.056318924 0.14070518 0.09359344
0000f0 5d 03 14 be e0 bd 7d bd f7 81 8c 3b 3c 89 dd bc
       -0.14454408 -0.061948657 0.004287954 -0.027042978
000100 46 b0 8c bc d4 42 60 bd 7b 80 40 bc e1 d1 ed bd
       -0.017173897 -0.054751232 -0.011749382 -0.11612297
000110 7d a8 88 bd f6 11 32 bd d7 15 e2 bd 36 ff f5 bb
       -0.066727616 -0.04347416 -0.11039322 -0.00750723
000120 94 ce 64 39 20 05 0a bd b1 ea 35 3c 4e b7 f0 bc
       0.00021820731 -0.033696294 0.011103318 -0.029384281
000130 01 96 27 bd c5 10 73 3d 07 92 35 3c 64 cf 27 bd
       -0.04091454 0.059342165 0.011082179 -0.040969267
000140 53 c0 f0 bd 72 48 19 3e 1c 31 28 3e 99 b0 7a 3d
       -0.11755433 0.14969042 0.16424984 0.061203573
000150 a8 1f 0e 3d 3c 74 df 3c ea 98 f6 bd ac 5c 6d 3c
       0.03469816 0.027277105 -0.12040885 0.014487427
000160 c5 8e 53 bd 68 2d a8 bc a7 ce 46 3c 7a 8d c5 3d
       -0.051649828 -0.020529464 0.012134231 0.09646125
000170 ea 1d 6b ba 6d 86 d0 3c 77 dd de 3c 68 d1 b1 bb
       -0.0008968996 0.025454724 0.027205212 -0.0054265745
000180 76 89 e8 bd 6e 58 7c bd 17 8b 61 bd 74 13 89 bb
       -0.113543436 -0.06160777 -0.055064287 -0.004183227
000190 82 5f ef bd f5 1f e1 bd 20 04 24 3c 60 60 dc ba
       -0.116881385 -0.109924234 0.010010749 -0.001681339
0001a0 db f1 12 3d 0a ec f1 bc e3 ff 8e bd 61 c5 40 bc
       0.035875183 -0.029531498 -0.069824 -0.011765809
0001b0 ba e7 f7 bd af 6c a1 bc 6b 31 8f 3d 3a 04 18 bd
       -0.12104745 -0.019705145 0.069918476 -0.037113406
0001c0 31 f5 71 3d 68 3b 03 3d c3 a3 bc bd 68 90 d6 bd
       0.059071723 0.032039076 -0.092109226 -0.10476762
0001d0 df ea 6b bc 9b 0c 9f bd b4 b1 a4 3d c8 16 1e bd
       -0.014399259 -0.07766076 0.08041707 -0.038595945
0001e0 82 5c f9 3c 13 ee 91 3d 99 37 96 bc 59 76 b4 3c
       0.030439619 0.07125487 -0.018337058 0.022029089
0001f0 a2 c2 a3 3c 21 50 93 bd e1 cb a8 3b 6f 87 aa 3c
       0.01999027 -0.07193018 0.0051512574 0.020816533
000200 66 dc 06 3d 29 e8 05 bd 89 f3 4d 3d fe fa eb bd
       0.032925032 -0.03269211 0.05028108 -0.11522482
000210 7c c4 7e bd 9b 81 05 bd 12 2f dd bc 58 6c 5e 3c
       -0.0621991 -0.032594305 -0.026999984 0.013575636
000220 ad bc 8d bb e5 57 fb bd bc f0 5c 3b 38 8f 7b 3d
       -0.0043254704 -0.12272624 0.0033712825 0.06141588
000230 6f af b1 bd f2 e5 03 3d 12 c8 b6 bd ff 3d 76 be
       -0.086760394 0.032201715 -0.08924879 -0.24047087
000240 e7 04 3c 3d 3a 68 4e 3d d4 b7 44 3b d7 44 7e 3d
       0.045903113 0.050392367 0.0030016797 0.06207737
000250 d1 b4 46 bd 83 cd 0e 3d fc 62 70 3c ca 39 b8 bd
       -0.048512284 0.03486396 0.014672037 -0.089953974
000260 e9 de 79 3c 90 ac af bc 15 0f 02 bd 5a d1 2e 3d
       0.0152509 -0.021444589 -0.031752665 0.042680122
000270 56 95 d0 bb 85 80 f8 bd f5 8f f0 bc 32 35 ac bd
       -0.0063654585 -0.12133888 -0.029365519 -0.08408584
000280 b0 9b 1d be 19 74 cc 3d 61 a4 1e be 69 0c 8c 3c
       -0.15391421 0.09983081 -0.15492393 0.017095761
000290 8a 84 82 bd 31 2f 97 bd 32 1c 8c bd 9a c6 ae 3d
       -0.06372936 -0.07382048 -0.06841315 0.08533974
0002a0 30 ed b3 be 5a e4 5b be ba 16 46 3d 1d cb e1 3b
       -0.35141897 -0.21473828 0.048361517 0.006890668
0002b0 78 6c fc ba 87 a4 4a bd 20 dd d2 bc 07 72 b0 bd
       -0.00192584 -0.04947331 -0.025740206 -0.08615499
0002c0 e2 1d 68 bd f1 b8 fb bc 54 ba 19 bc 6b 0d 52 3d
       -0.056669123 -0.030727835 -0.009382803 0.051282328
0002d0 e7 8f c1 3c da 95 15 3d cd 47 b1 3d a5 de 79 3d
       0.023628188 0.036519863 0.08656273 0.061003346
0002e0 cf 65 8e bc 0b 06 74 3d 13 f9 cc 3d 45 2a b2 bc
       -0.01738253 0.059576076 0.10008445 -0.021748671
0002f0 ba 3f 19 3d 4f a8 b4 bc a1 f4 ef bc 9e d3 55 3a
       0.03741429 -0.022052912 -0.029291453 0.00081568386
000300 9b 6f 27 bb b3 4a 4b bd b4 3d cf 3d e1 1b 15 3d
       -0.00255487 -0.049631786 0.10119191 0.03640354
000310 59 0d 22 3d 13 65 c7 3d 7e 1d 4e 3d f9 17 82 bd
       0.03956351 0.09736075 0.050321095 -0.06352229
000320 50 98 dd bd c4 e2 b8 bd ff 69 5f bd c0 ad 1a be
       -0.10820067 -0.09027627 -0.054544445 -0.15105343
000330 ee 03 d7 bd 63 4d 2e bd 66 67 eb bd 20 4a 70 3d
       -0.104987964 -0.04255427 -0.11494331 0.05866444
000340 87 20 a0 bc cd 0c be 3c 46 05 a9 bd c1 17 cb ba
       -0.01954676 0.023199463 -0.08252959 -0.001549475
000350 27 97 2a bb 12 d9 55 3d 00 e7 72 3d b6 1d 20 3e
       -0.0026030035 0.052208968 0.05930233 0.15636334
000360 d9 3e a4 3c 6e 0a f1 3c 19 71 05 bb 5a 98 8c 3b
       0.0200495 0.029423919 -0.00203616 0.0042906227
000370 97 59 d7 3c c8 81 38 3d a3 a6 81 3b ed dd f4 3b
       0.026287837 0.045045644 0.003956632 0.0074727447
000380 86 49 a8 bc 29 ce 03 be 67 d6 a5 3c ca d7 8b bd
       -0.020542871 -0.12871613 0.020243837 -0.06828268
000390 1c a8 81 3d 8a a8 18 3d a4 7d 83 bd 6a d3 10 bd
       0.063308924 0.037270106 -0.064204484 -0.03535787
0003a0 de cc 00 3e 00 e1 a3 3c 1d 60 ad bc 83 f2 92 bc
       0.1257815 0.02000475 -0.021163994 -0.017937904
0003b0 b9 90 ae bc fe 31 8a bb 87 cb 1b 3d 89 33 16 3d
       -0.021309244 -0.0042173853 0.038035896 0.03667024
0003c0 24 6d 38 bd bd f8 90 3d 51 cc 66 3c 94 6b a8 3d
       -0.04502596 0.07078693 0.014086799 0.08223644
0003d0 1b 91 bd 3b ad d4 7d 3c 8c 44 f2 3c 23 bf 88 bd
       0.00578512 0.0154926 0.029573701 -0.066770814
0003e0 b6 02 26 3d 57 b5 26 3d 49 ef 4c 3d 55 b0 c7 3d
       0.04052993 0.040700283 0.050032888 0.097504295
0003f0 aa 3e e1 3d 47 d3 a9 3d 71 d2 aa 3d 12 38 92 3d
       0.1099828 0.08292251 0.0834092 0.07139601

encoder_layers.block_1.conv.bias f4 [32]
000000 c5 15 50 3d af 36 b7 bc e7 13 65 3d c3 ca 88 bd
       0.05080201 -0.022364942 0.055927183 -0.06679299
000010 e7 2a b6 bc de c5 42 bb a6 4a 66 bd 2f 24 e9 bc
       -0.022237254 -0.0029719989 -0.056223534 -0.028459636
000020 94 29 84 3d e7 29 67 bd ba 0d 20 bd de f2 a2 3d
       0.06453243 -0.056436446 -0.03907559 0.079564795
000030 f8 7a 0c 3d 77 27 71 bd 74 41 13 3d 33 78 ac 3d
       0.03429696 -0.058875527 0.035951093 0.08421364
000040 23 2e 15 3d 52 0d 10 bd 90 7c 1e 3d d9 c2 7e 3d
       0.036420953 -0.035168953 0.03869301 0.06219754
000050 7f af 0c bd 01 76 6f 3d 67 d7 5d bd 6c 26 49 bc
       -0.034347054 0.058462147 -0.0541605 -0.012277227
000060 87 23 84 bc 83 08 70 bd 10 71 90 3b 37 70 8e bc
       -0.016130222 -0.058601867 0.0044080094 -0.017387493
000070 c4 81 e8 3c bc f6 1c bc 2f 38 a6 bc 90 3b 53 bd
       0.02838219 -0.00958031 -0.020290462 -0.051570475

decoder_layers.block_0.conv.weight f4 [32, 8, 3, 3]
000000 25 26 68 bd a6 a6 92 bd b3 49 2a bd 19 9c 2d be
       -0.056677002 -0.07160692 -0.04157419 -0.16954078
000010 77 11 75 bd 02 5f a0 bd 6a ea 2e be c0 ee 6d bd
       -0.05983111 -0.07830621 -0.1708161 -0.058089018
000020 67 1c 40 3d dc 7c 22 3c 2e c6 61 bd 56 fe 51 3d
       0.046902087 0.009917464 -0.05512064 0.051267944
000030 b5 51 9c 3d 98 76 d1 bd 91 3c ac bd e1 1c d1 bc
       0.07632772 -0.10227698 -0.084099896 -0.025526466
000040 44 08 73 3d fd 75 2b 3c 71 2d bc bd c9 10 68 bd
       0.059334055 0.010465142 -0.09188355 -0.056656633
000050 a7 5e 62 bd f3 d6 8a 3d 5b b9 73 bd d7 8a 35 3d
       -0.05526605 0.067792796 -0.05950294 0.04432186
000060 69 e5 4e bd 96 7c e9 bc f8 9a 54 bd f3 08 da 3d
       -0.05051175 -0.02850179 -0.051905602 0.10646238
000070 68 e8 47 3d fb 00 fa 3c e3 be 0a 3d e9 13 41 bd
       0.048805624 0.030518046 0.03387345 -0.04713813
000080 aa 89 b5 3c 36 21 a6 3d 8f 37 a4 3d 92 a0 46 bd
       0.02216037 0.08111803 0.080184095 -0.048492976
000090 8f 4a 81 3d 95 07 9e bd 52 73 f8 bd b5 48 ee bd
       0.06313049 -0.0771629 -0.121313706 -0.116349615
0000a0 5d 6c 72 bd 03 a7 37 be 0c 26 aa bc 32 53 20 3c
       -0.059185375 -0.17934804 -0.020770095 0.00978546
0000b0 ed dd 18 bd 3b af 3d 3d dd 03 ec 3c 56 b0 b5 3d
       -0.03732102 0.04630969 0.028810436 0.08871524
0000c0 80 5f 49 3d c9 d5 28 bd 4a 99 13 bc 16 5c bb bd
       0.04916334 -0.041219506 -0.009008715 -0.091484234
0000d0 3a fe 4b bd 09 0a fd 3d de e9 b4 bd 85 71 19 be
       -0.049802996 0.1235543 -0.08833669 -0.1498471
0000e0 ff 61 ec bd a4 cc a4 bc e6 70 5e 3d c6 f7 a9 be
       -0.11542129 -0.020117112 0.054306887 -0.3319685
0000f0 6c b5 ba 3d 00 36 07 bb 59 d7 83 bd 2e 3a 30 3d
       0.09116635 -0.0020631552 -0.06437559 0.043024234
000100 62 8f 00 bc d7 6e b1 3d 50 23 5a 3e ed 7d ae 3a
       -0.007846685 0.08663719 0.21302533 0.0013312675
000110 bf c3 99 bd a4 a6 9a 3c 08 43 16 3d d8 21 bf 3d
       -0.07508039 0.018878289 0.03668502 0.09332627
000120 4d 2e cd bd f0 41 f2 bc 89 4b bb 3d b5 af 15 3e
       -0.10018597 -0.029572457 0.091452666 0.14617808
000130 78 a8 c3 3c bd 1e a0 bc da 90 10 be 27 39 b3 3c
       0.023884043 -0.019545907 -0.14117756 0.021877838
000140 36 ea 8e 3d 7b 74 b6 3d 07 cc d9 3b 82 28 21 bd
       0.06978266 0.08908936 0.0066466364 -0.039345272
000150 fc e5 77 3d 73 23 d7 3d 56 b3 d2 bd c2 f0 1c 3d
       0.060522065 0.10504808 -0.10288112 0.038315542
000160 27 5c 8d bd d0 c1 5b bd 32 5e ea 3c 4b 1e 3c 3d
       -0.06902342 -0.05365163 0.028609369 0.045927327
000170 f0 5f 3d 3d 43 2b a3 bd ec 22 9c bd 96 e1 6d 3d
       0.04623407 -0.07967236 -0.07623848 0.058076464
000180 9d 09 3b 3d 60 ff 93 bd d4 1d bf 3d 77 b9 98 bc
       0.045663465 -0.07226443 0.09331861 -0.018643124
000190 76 42 bc 3b 22 f8 4d bd 11 0e b0 3c 96 5e c2 bb
       0.0057452274 -0.050285466 0.021491082 -0.0059316857
0001a0 3b 43 51 3d 4b 22 b8 bd b1 5e ae bd 0d bc 81 bd
       0.051089507 -0.08990916 -0.08514155 -0.06334696
0001b0 d0 ef 32 3b 9e ad 1f bd 66 62 ce 3d ad 78 e4 bc
       0.0027303584 -0.038983934 0.10077362 -0.027889574
0001c0 2d 99 92 bd 3c 14 8b 3d 81 4e a9 3c 9f 7d cb 3c
       -0.07158122 0.06790969 0.020667316 0.024840174
0001d0 31 be d0 3d 88 57 7b bd 2b d9 0a 3d 0a 0e b1 bd
       0.10192526 -0.061362773 0.033898514 -0.08645256
0001e0 d5 83 03 3e 2c ba 97 3a 54 bd c8 bd 17 7b 72 bd
       0.12843259 0.0011575869 -0.098017365 -0.05919942
0001f0 44 50 bd 3c 46 bc 97 3d 71 46 37 bc 69 90 c8 bd
       0.023109563 0.07408957 -0.011186228 -0.09793169
000200 ec 0c 3b bc 6f 3b 94 bd 0b a8 b1 bd 9c b6 44 3d
       -0.011416655 -0.072378986 -0.0867463 0.048025712
000210 80 13 6c 3d 3d 95 5e bc b3 31 a0 3d e0 17 1f bd
       0.057635784 -0.013585386 0.078219794 -0.03884113
000220 aa be c6 bd 7d 95 89 bd 4b 40 59 3d 3f ce 5c 3c
       -0.09704335 -0.06717966 0.05303983 0.013476907
000230 bb e4 6c bd 92 0a 8c 3c 40 fe 96 3c 8d 47 c0 3d
       -0.057835322 0.017094884 0.018431783 0.09388647
000240 f5 cb 7d 3d 1b 84 39 3d 0c 19 22 be cd 88 9c bd
       0.061962087 0.045292 -0.15829867 -0.0764328
000250 24 44 80 3e 49 05 36 be d5 00 8e bd f3 50 db bb
       0.25051987 -0.17775454 -0.069337524 -0.0066929995
000260 9b 76 ed bd d0 b3 12 bd 83 31 f4 bc 9e f4 30 bd
       -0.11594888 -0.035816014 -0.029808765 -0.043202035
000270 39 20 15 bd a7 aa a8 bd d8 d3 25 3d ac c4 7d bd
       -0.036407683 -0.08235674 0.040485233 -0.06195514
000280 c4 3a 20 bd fe 5d dc bd 34 84 91 3d 35 68 0c 3d
       -0.039118543 -0.10760115 0.07105294 0.034279067
000290 6d fc b2 bd 2b 74 af bd 08 a6 79 bc ff d5 32 3d
       -0.08739553 -0.08567079 -0.015237339 0.043661114
0002a0 5d 8b 37 3d 68 09 f8 bd d4 73 83 bd 32 ea b9 bd
       0.04481064 -0.12111169 -0.06418577 -0.09077872
0002b0 a8 b1 c4 bc f7 83 31 be 30 8c 00 be ca 57 e5 bd
       -0.024010494 -0.17335497 -0.12553477 -0.11198385
0002c0 74 8f 61 bd c4 60 30 3d e7 aa 2c be bf 41 ac 3d
       -0.05506845 0.043061033 -0.16862069 0.084109776
0002d0 c1 e1 8a 3d 2c 85 68 3d d7 05 97 bc b5 33 8d 3d
       0.067813404 0.056767628 -0.018435402 0.06894628
0002e0 25 21 35 3d ba 45 9e bb 07 de e4 3c ea 82 3d bd
       0.044221062 -0.0048300894 0.027937902 -0.046267428
0002f0 2e fb ad 3c 23 df bd bd 09 97 ea 3d af f4 92 3a
       0.021237936 -0.092710756 0.11454589 0.0011211837
000300 76 0e 9f bd 2b 20 7a 3d aa 11 14 bc 7a 0a 98 3c
       -0.0776643 0.061065834 -0.009037415 0.018559683
000310 ef 0e 63 3c 22 30 d3 bd 09 4e af bd 7b 22 28 be
       0.013858541 -0.10311915 -0.08559806 -0.16419403
000320 75 07 0c 3e 7a e2 77 3d 1c ae 17 be e2 2a cc 3d
       0.1367472 0.06051872 -0.14812511 0.09969117
000330 86 fe 7f 3c 45 36 92 3d 2e 31 aa bc a4 b2 cf bc
       0.015624648 0.07139257 -0.020775404 -0.025353737
000340 b8 dd ce 3d 67 88 d0 3c f2 a6 46 3d af 19 8b bd
       0.10100883 0.025455667 0.048499055 -0.06792008
000350 c8 48 45 3d 98 df 50 bc b7 a5 1b 3e 1c 1e d3 3d
       0.048165113 -0.012748621 0.15199934 0.10308477
000360 c7 95 38 bd 94 3f cb bd 18 fd 36 3d cb a9 ca 3a
       -0.045064714 -0.09924236 0.044674963 0.0015461979
000370 ef a1 29 bd 86 96 f6 3d eb ba 8f bd ca ed 0a 3e
       -0.041414198 0.12040429 -0.07018074 0.13567272
000380 ec ba eb 3d ae 2c 57 3d 52 17 d0 bc 55 7b 81 3d
       0.11510262 0.052532844 -0.025401745 0.06322352
000390 ff e1 b3 3a 3b b8 b4 bd c5 c9 41 3c 28 98 a8 3c
       0.0013723968 -0.08824202 0.011827891 0.020580366
0003a0 10 6f 13 3c d2 74 4e bd da 02 bf 3c 33 6e 9e bd
       0.008998647 -0.050404377 0.02331679 -0.077358626
0003b0 95 fd ef 3d 47 4e 41 bc 52 27 7c bd c4 1a b6 3d
       0.11718289 -0.011798448 -0.061560936 0.08891824
0003c0 58 2b a3 bd 59 09 b5 3d 02 31 c6 3d da 3b aa 3d
       -0.079672515 0.088396735 0.09677316 0.08312197
0003d0 f3 7e 52 bc e8 c7 63 3d c2 60 c3 3d 2e 91 df 3c
       -0.01284765 0.055610567 0.095399395 0.027290907
0003e0 27 51 e2 bd 2e 75 d0 3b 86 97 9c 3d 6b 83 57 3c
       -0.11050635 0.006361625 0.07646088 0.013153891
0003f0 25 42 5d 3d 33 42 8c 3d 73 6c 8f 3d f2 59 8a bc
       0.05401816 0.06848564 0.07003107 -0.016888592

decoder_layers.block_0.conv.bias f4 [32]
000000 72 ee 8c bd 61 13 2a 3c 6b d1 8c 3d f7 83 61 3d
       -0.06881417 0.010380597 0.06875881 0.055057492
000010 f5 30 a5 3d 29 10 a9 3d 64 72 12 b9 eb 9a 87 bd
       0.080659784 0.082550354 -0.00013966259 -0.06621345
000020 e1 c0 42 3d ef a3 d1 3d d3 fd 66 bd fb 13 01 3e
       0.047547225 0.10236346 -0.05639441 0.12605278
000030 82 47 02 be b4 31 e7 3d bb 79 81 3d 59 16 16 bd
       -0.1272259 0.11288777 0.06322046 -0.036642406
000040 67 22 01 bd d2 62 c3 bd cc e4 0e bb ce 45 d3 bd
       -0.03152695 -0.09540333 -0.0021803854 -0.103160486
000050 8c 1d a2 3c fe 7d 18 3c d4 18 8c bd ae cb b3 bd
       0.01978948 0.009307383 -0.06840673 -0.08779083
000060 71 fe 9a bc e1 a7 77 bc d6 b5 83 3d 05 8c 6e bd
       -0.018920155 -0.015115709 0.06431167 -0.058239
000070 59 79 75 3d 9a c3 56 bd 38 7b a4 bd 19 a5 41 3d
       0.05993018 -0.052432634 -0.080313146 0.04727659

decoder_layers.block_1.conv.weight f4 [32, 16, 3, 3]
000000 46 6e 90 bd 22 f8 b4 bd 0a 01 dd bc 62 24 1e be
       -0.07052283 -0.0883639 -0.026978035 -0.15443566
000010 0d f2 cc bd d2 ca 12 3d 59 58 c2 bc f1 b3 0b bd
       -0.10007105 0.035837956 -0.023723768 -0.034107152
000020 6f f1 fb bc 9d af 72 bc c5 17 3a ba 36 c2 76 bc
       -0.030754773 -0.014812377 -0.0007098879 -0.015060952
000030 cc ba 82 bc 6d 00 2a bc fb 1c 01 bd e6 69 44 bd
       -0.015958212 -0.010376078 -0.03152178 -0.047952555
000040 b0 30 91 3c e8 9c 9f bd 8a 2b 81 bd c1 72 94 bd
       0.017723411 -0.07793599 -0.063071325 -0.0724845
000050 97 b2 d4 bc 15 91 b6 bc 21 30 b0 ba 0f d4 b0 bd
       -0.025964065 -0.022285977 -0.0013442078 -0.08634197
000060 87 d9 1c bd ab a1 b2 bc f1 2b 23 bd 04 89 94 bd
       -0.038293388 -0.021805605 -0.039836828 -0.07252696
000070 ce 13 a5 3d cb 19 75 bd 4b 8a 26 bd 8f d0 e3 bc
       0.08060418 -0.05983905 -0.04065923 -0.02780941
000080 98 d2 63 3d 70 ca 59 3c 20 0d db 3d 7a bd e5 3d
       0.05562076 0.013292894 0.10695863 0.112177804
000090 92 ce 87 bb 00 b9 86 3d c3 aa f7 bb c2 9b 47 bd
       -0.004144498 0.06578255 -0.007558198 -0.048732527
0000a0 df 9e 5b bd 98 3d 11 3d e3 89 f9 3c e0 1b 8c 3b
       -0.05361831 0.03545913 0.030461257 0.004275784
0000b0 9c c8 f1 bd 80 f5 87 bd 54 69 10 be 27 c9 dc bd
       -0.11805841 -0.06638622 -0.1410268 -0.10780554
0000c0 cd 16 32 be c8 8c 1e be 54 71 6c be db 23 07 bd
       -0.1739151 -0.15483391 -0.23090106 -0.03299318
0000d0 40 b9 b6 bc 1f 7f 50 bb b6 5c d8 bb c1 ed 29 3d
       -0.022305131 -0.0031814051 -0.006602849 0.041486505
0000e0 e9 56 1c be 15 3f c9 3d c3 cc 2d bc 0b 33 f2 3c
       -0.15267529 0.09826485 -0.010607901 0.029565355
0000f0 e3 29 c7 3d 4b fc a2 3d e8 02 35 bd 92 74 76 bd
       0.09724786 0.07958277 -0.044192225 -0.060169764
000100 32 87 7e bd 93 c1 d9 3b 62 32 24 3d b4 0a de 3d
       -0.06214065 0.0066453903 0.04008711 0.10841885
000110 8a e2 82 3d 4a e0 24 bd 2d c6 76 3b 5a 7b 76 3c
       0.06390865 -0.04025296 0.0037654743 0.015044058
000120 ea f2 a0 bb bd ff 09 3c 4d 83 95 bd f9 78 1b 3d
       -0.00491177 0.008422789 -0.07300434 0.037957165
000130 b9 d1 9a bc 2f 15 b2 bd 72 10 26 bd f3 9c e0 bd
       -0.018898832 -0.08695447 -0.040543027 -0.10967436
000140 b6 88 69 bd ea 02 76 bd 7e 4d 2c bd c2 ec 8e bd
       -0.057015143 -0.060061373 -0.04206609 -0.06978752
000150 84 cf f8 3b 9c e4 9a bd a0 6f 98 bd be b3 89 3c
       0.007593097 -0.07563135 -0.07443166 0.01680934
000160 9f 3b 08 3c 71 0f bb bc 51 e5 6b bb 89 25 87 3d
       0.008314996 -0.022834511 -0.0035994838 0.06598956
000170 66 ec 39 3d 0b 02 e1 3c 8e bc 92 bd ed d3 28 3b
       0.045391463 0.027466794 -0.0716487 0.0025761083
000180 a8 3c 4f 3c 04 c9 45 3d 30 c7 2e bc b0 a8 b4 3c
       0.012648739 0.048287407 -0.010667607 0.022053093
000190 90 77 43 bd 85 8e 94 bc 25 ce c5 bd 8b 1c 7d bc
       -0.047721446 -0.018134365 -0.096584596 -0.0154487
0001a0 22 cd cf ba 3b 89 b7 bd c9 96 11 bb b9 4e 22 3d
       -0.0015853981 -0.089617215 -0.002221512 0.039625857
0001b0 0d 52 75 3d 0e 89 4e bd 6e 38 dd bd af b8 02 bd
       0.059892703 -0.050423674 -0.10801779 -0.03191441
0001c0 e6 b2 2d bd 3b 23 d3 bd 8a da a5 3b 04 03 cf 3c
       -0.04240694 -0.10309454 0.0050614523 0.025269993
0001d0 98 26 32 3d ce 91 0d bd f4 0b 85 3d eb 88 bf bb
       0.043493837 -0.03456288 0.064964205 -0.0058451793
0001e0 37 f1 3b 3d e3 89 f7 bc 74 80 fa 3a e0 dc 25 bd
       0.045884337 -0.030217117 0.0019111768 -0.040493846
0001f0 33 44 4b 3b 78 68 47 bd 03 08 40 bd b1 2a 58 bd
       0.0031015992 -0.048683614 -0.04688264 -0.05277509
000200 eb 3b 9f 3d 06 dc bf bd 02 8d aa 3b e0 4f 92 3b
       0.077751 -0.09368138 0.0052047977 0.0044650882
000210 4e 5c 6b bd 60 7a 21 3d bc f7 39 bd 88 c7 a6 3d
       -0.057461075 0.039423347 -0.045402274 0.08143526
000220 1b c9 8f bc 0c b6 14 3d 47 00 28 bb 52 a2 cd bd
       -0.01755195 0.036306426 -0.002563493 -0.10040726
000230 ec c6 2c 3c 1a 68 06 3b e6 b6 78 3d aa db b5 3d
       0.010545474 0.0020508827 0.0607213 0.08879788
000240 ec 49 cd 3d 0c 9e d8 3c bd 74 78 3d f0 1f 9a 3d
       0.10023865 0.02644255 0.060658205 0.07525623
000250 9a d9 19 be fc a6 0e bd 99 f0 0f 3d 5f 59 80 bd
       -0.15024415 -0.034827217 0.03514156 -0.06267046
000260 d8 75 88 3c ca 03 60 bd ad 96 84 bc 9d f9 c4 3d
       0.016657755 -0.054691114 -0.016185129 0.096179225
000270 ee 8a 81 bd cb 07 ae bd 17 56 11 3d f9 6c 00 bd
       -0.06325327 -0.0849758 0.035482492 -0.031353924
000280 f9 33 94 bc 95 a4 4f 3b 73 2a 53 bc 6c 3d 85 bc
       -0.018091189 0.0031683792 -0.012888539 -0.01626464
000290 ef 59 95 3a c5 46 cc bc a6 4e c0 3c 09 ec cb bc
       0.00113946 -0.02493609 0.023475002 -0.024892824
0002a0 79 b7 82 3d fc b1 c3 ba 06 c0 73 3d 81 23 6c 3d
       0.06382651 -0.0014930363 0.0595093 0.057651047
0002b0 7d d0 64 bd f2 5a 3a bc 23 74 e0 3c 4e 3e ff bb
       -0.055862892 -0.011374222 0.027399128 -0.0077894097
0002c0 78 72 2f bd b5 f1 98 bc 8f 19 36 bd a9 4a cb bc
       -0.042833775 -0.018669942 -0.04445797 -0.024815874
0002d0 32 7f 02 3d 40 a0 d9 3c d0 51 8b 3b a0 ab 49 3b
       0.031859584 0.026565671 0.004251696 0.0030772462
0002e0 73 38 be bd b7 42 02 bd 10 b6 91 bb 44 3c b9 3d
       -0.092881106 -0.031801905 -0.0044467524 0.09044698
0002f0 10 6c 26 bd 4b 01 a5 bb 52 90 77 bd 50 83 a3 bd
       -0.0406304 -0.0050355545 -0.06044037 -0.0798403
000300 3b 60 48 bd 3b ea 23 be 40 15 96 bd 2d 9d d6 bd
       -0.048919898 -0.1600732 -0.07328272 -0.10479198
000310 3e 83 21 be 06 c3 92 be b6 b0 17 3c b1 80 3a 3c
       -0.15772721 -0.28664416 0.00925844 0.0113832215
000320 bb f8 fb 3c 22 e0 d7 bd 0a f6 0a bd f7 18 55 be
       0.030758252 -0.10540797 -0.033926047 -0.20810305
000330 4a 52 56 3d 79 4f b0 3d 84 20 89 bd 3c 59 33 be
       0.05232457 0.08608908 -0.06695655 -0.17514509
000340 8a 4d 7c bd 72 43 f3 bd e8 12 e6 bd 98 f5 59 3c
       -0.061597385 -0.118780985 -0.11234075 0.013303183
000350 27 42 a7 bd b2 2f dd bd 38 4b 67 bd d0 2a 66 bb
       -0.081669144 -0.10800113 -0.05646822 -0.0035120733
000360 d1 5a 47 bd ad 3d 0f bd f3 29 48 3d e7 f4 0c bd
       -0.048670594 -0.034970928 0.04886813 -0.034413245
000370 32 b0 60 bd d7 9f c2 ba c8 70 86 3c 44 4e 35 bd
       -0.054855533 -0.0014848661 0.0164112 -0.044264093
000380 5f e1 93 3c d0 5d b6 3c 6a cb 60 bb da 5b 0d 3b
       0.018051801 0.02226153 -0.0034300932 0.002156964
000390 9a 45 c0 bc 9e 97 a1 bd df c8 3e 3d 2d e9 9d bd
       -0.023470689 -0.07890247 0.046578284 -0.077104904
0003a0 63 70 11 bd e0 f2 29 3c 25 6d 8d bd 0b 04 74 bd
       -0.03550757 0.010372847 -0.06905583 -0.05957417
0003b0 9e d7 d0 b9 34 d4 44 bd b2 6b 79 bb f5 fc 8a bd
       -0.000398335 -0.048053935 -0.0038058576 -0.06786529
0003c0 d3 b6 95 3d 85 2c 51 bd de 45 14 bd 12 8e 3e 3d
       0.073102616 -0.051067848 -0.036199443 0.046522208
0003d0 a8 30 12 bc 95 b5 94 3c bc 5b e1 bc ec ef 91 bd
       -0.008922733 0.018152991 -0.027509563 -0.071258396
0003e0 a6 95 47 3d ed ff 35 3d 3c 61 a6 3a 7a 1d d6 3d
       0.0487267 0.044433523 0.0012693773 0.10454841
0003f0 60 d2 f5 bc b8 f8 1d 3d 9c 1d 9e bd ef a1 5a bd
       -0.030007541 0.038567275 -0.07720491 -0.05337709

decoder_layers.block_1.conv.bias f4 [32]
000000 6c 60 1f bb fc 11 aa bb 81 84 16 bd 49 42 0a 3d
       -0.0024318947 -0.005190132 -0.03674746 0.03375462
000010 7f c3 0e bd 30 32 7c bd 9f 8e 30 3d de 04 78 3a
       -0.03485441 -0.0615713 0.043104764 0.00094611745
000020 be f8 c2 3b 48 e1 90 3d 92 86 50 bd 78 bd 9e 3d
       0.0059500625 0.07074219 -0.050909586 0.07750982
000030 ee 30 1e 3d 43 8e 33 bd f6 02 93 bc b3 23 41 3a
       0.03862088 -0.043836843 -0.017945748 0.00073676853
000040 a6 b0 0b bd 66 d7 37 3d 17 dd 2c bd 88 b6 43 3c
       -0.034104012 0.044883154 -0.042203035 0.011945374
000050 71 0a 31 3d 19 11 ea 3c 36 cb ae bb 61 b1 07 3d
       0.04322285 0.028572606 -0.005334283 0.033128146
000060 3d 51 b3 3c 13 1a 84 bd 3d 8e 0b 3c f9 a6 15 3d
       0.021889323 -0.06450286 0.008517799 0.03653619
000070 f5 fa 19 bd 75 d1 18 3c 82 00 05 3c 45 3a c0 3c
       -0.037592847 0.009327282 0.008117797 0.023465285

read.weight f4 [1, 8, 1, 1]
000000 e0 ae 2a be ca 71 78 be 39 3d 8b 3c 75 0f d1 3d
       -0.16668272 -0.24262157 0.016996967 0.10208026
000010 0d ac 84 3e 5a f0 f8 bd fe 7a d0 3d 98 80 eb bd
       0.25912514 -0.121552184 0.10179709 -0.11499137
