trainedModels/wave/t-test/baseline/run9/model.pt (torch, 68993 bytes, 11 tensors)

init.weight f4 [8, 1, 1, 1]
0	0x3f10fc03	0.5663454
1	0x3fb6f1ad	1.4292504
2	0xbfcb634d	-1.5889679
3	0xbf656e5e	-0.8962153
4	0xbfb537bb	-1.4157633
5	0xbf493b1b	-0.7860581
6	0xbf9d147a	-1.2271874
7	0x3c78c095	0.015182634

init.bias f4 [8]
0	0x3efcc47f	0.49368665
1	0xbeef7ec2	-0.46776396
2	0x3edf25fe	0.43583673
3	0x3de29f73	0.11065569
4	0x3d31a1b6	0.04336711
5	0x3e75331e	0.23945281
6	0x3f23353c	0.63753104
7	0xbf0dd2dd	-0.55399877

encoder_layers.block_0.conv.weight f4 [32, 16, 3, 3]
0	0x3da4e29b	0.08051034
1	0x3ba283a5	0.004959541
2	0x3d7b0f8b	0.06129412
3	0x3cc17484	0.02361513
4	0x3d8b4e00	0.06801987
5	0x3d85a675	0.0652589
6	0x3cb505a1	0.02209741
7	0x3d4c0ec0	0.049818754
8	0x3cdb21be	0.026749488
9	0x3d115070	0.0354771
10	0x3d5b14b5	0.053486545
11	0x3cec9e26	0.028884005
12	0x3d6af094	0.05735834
13	0x3ddc994d	0.10771427
14	0x3cbf9547	0.02338661
15	0xbd8db60d	-0.06919489
16	0xbcc4eff1	-0.024040194
17	0x3b160534	0.0022891285
18	0xbce886d6	-0.028384607
19	0xbda269c9	-0.07930333
20	0xbc68366e	-0.014173133
21	0x3d22320f	0.03959852
22	0xbcaf6e1a	-0.021414805
23	0xbd7d0fbc	-0.061782584
24	0x3c9d7741	0.019221904
25	0xbd3e962b	-0.04652993
26	0x3cbe710b	0.023247262
27	0xbcb867a6	-0.02251036
28	0xbd7bacbd	-0.061444033
29	0x3ca4be56	0.02011029
30	0xbd615855	-0.05501588
31	0xbdc87ab3	-0.09789028
32	0x3ca43780	0.020045996
33	0xbc0cea4f	-0.008600785
34	0x3c3d0b47	0.011538333
35	0x3c91f875	0.017818669
36	0xbe6303b7	-0.22169386
37	0xbead94dc	-0.33902633
38	0xbeb8fb83	-0.36129388
39	0xbedfb3c5	-0.4369184
40	0xbf1ae11c	-0.6049974
41	0xbec65e8d	-0.38744012
42	0xbd9126d5	-0.07087485
43	0xbeccdacd	-0.40010682
44	0xbe9f1944	-0.31073964
45	0x3ce8a1ba	0.02839743
46	0xbc23d0e7	-0.009998537
47	0x3cd4f08f	0.025993614
48	0xbd0ac457	-0.03387865
49	0xbcfda500	-0.030962467
50	0xbbe09651	-0.0068538566
51	0x3d4c706a	0.049911894
52	0x3cd05e70	0.025435656
53	0xbba07ce1	-0.004897699
54	0xbd4479f0	-0.04796785
55	0xbc8e0bb2	-0.017339561
56	0x3d5916c2	0.05300022
57	0xbd376297	-0.044771757
58	0xbd885022	-0.06655909
59	0x3d3fab0e	0.04679399
60	0x3d8c2bec	0.06844315
61	0xbd6d7878	-0.057976216
62	0x3cba40c5	0.022735963
63	0xbd194160	-0.037415862
64	0x3c382a8a	0.011240611
65	0xbb228f68	-0.0024804715
66	0x3d0ebc25	0.034847397
67	0x3cc71b9a	0.024305154
68	0x3c0f45cb	0.008744667
69	0xbd61742f	-0.055042442
70	0x3991d853	0.0002781773
71	0xbd8c42a5	-0.06848649
72	0xbcfdd1cc	-0.030983828
73	0xbcb3a7f8	-0.02193068
74	0x3d2404e3	0.040043723
75	0xbd45e5b1	-0.048314754
76	0xbcaf7b52	-0.021421108
77	0xbcdafb39	-0.02673112
78	0xbd88291b	-0.06648465
79	0xbd49b0f7	-0.049241032
80	0x3d1c4f85	0.038161773
81	0x3d39c62d	0.04535501
82	0x3cc8f893	0.024532592
83	0x3dd7bfaf	0.105346076
84	0xbcd636e2	-0.026149217
85	0x3ce102de	0.027467187
86	0x3d757406	0.0599251
87	0xbd60a69b	-0.054846387
88	0x3d4a51b2	0.049394317
89	0x3d1d2bbb	0.038371783
90	0x3d74d539	0.059773657
91	0x3cdf903a	0.027290452
92	0x3d8042ac	0.06262717
93	0xbd40976e	-0.047019415
94	0xbdedbfb8	-0.11608833
95	0x3cec03f9	0.028810488
96	0x3e107f0c	0.14110965
97	0xbccf72e4	-0.025323339
98	0x3df9a5df	0.121898405
99	0xbd13b4ea	-0.036061205
100	0xbc376c7d	-0.011195299
101	0xbd63b83e	-0.05559563
102	0xbd7e53ec	-0.062091753
103	0xbcd84414	-0.02639965
104	0xbd4198dd	-0.047264922
105	0xbda68b09	-0.081319876
106	0xbd0d2734	-0.034461215
107	0xbd61566f	-0.05501407
108	0x3cf725bd	0.030169362
109	0x3af47555	0.001865069
110	0xbba62a61	-0.00507097
111	0x3d1e12ec	0.038592264
112	0xbd82931d	-0.06375716
113	0xbc8a861c	-0.016909651
114	0x3dd1d35f	0.10245394
115	0x3d4c4d8b	0.04987864
116	0x3c5e113f	0.0135539165
117	0x3dc24384	0.09485534
118	0xbe1f4f0a	-0.15557495
119	0xbd75b2e6	-0.059985064
120	0x3c769dd7	0.01505228
121	0xbd651530	-0.05592841
122	0xbdca314c	-0.09872684
123	0x3dd9f736	0.10642855
124	0x3c57dad7	0.013174734
125	0x3d25d293	0.040484022
126	0xbd8af576	-0.06785099
127	0xbe0671e9	-0.13129391
128	0xbcc1e7ea	-0.023670156
129	0x3da48c26	0.08034544
130	0x3d24ee8c	0.04026656
131	0x3d260a4e	0.04053717
132	0xbd4d167f	-0.050070282
133	0x3d13f11b	0.036118608
134	0x3d0052f9	0.03132913
135	0x3b94c4b8	0.0045400523
136	0x3cd83615	0.026392976
137	0x3d9ac7d3	0.07557645
138	0x3dab005b	0.08349677
139	0xbb42d89f	-0.0029731167
140	0x3d283325	0.0410644
141	0x3cbe5c8e	0.023237493
142	0x3d02e510	0.031956732
143	0x3c63d326	0.013905322
144	0xbdaa2d92	-0.08309473
145	0xbd1a9879	-0.037743066
146	0xbd46cc27	-0.04853454
147	0xbc32f308	-0.010922201
148	0x3cb06b45	0.021535525
149	0xbc85b853	-0.016323244
150	0x3b075bfe	0.0020654197
151	0xbdd8a182	-0.1057768
152	0xbc9940e2	-0.018707696
153	0x3c62d0c5	0.01384372
154	0x3d97ddec	0.07415375
155	0xbb3698f5	-0.0027862166
156	0x3cb7e487	0.022447838
157	0x3d00dfca	0.031463422
158	0x3dd72f23	0.105070375
159	0x3d8472f3	0.06467237
160	0x3da56705	0.0807629
161	0x3da0a6e4	0.07844332
162	0xbc745d66	-0.014914846
163	0x3c912fc8	0.01772298
164	0xbdb653d9	-0.089027114
165	0x3caba049	0.020950453
166	0xbd6c31ed	-0.0576648
167	0xbdad1a76	-0.08452313
168	0xbdb4b8df	-0.08824324
169	0xbb93cfbf	-0.0045108492
170	0xbb0c61ce	-0.00214206
171	0xbdafcedb	-0.085843764
172	0x3bc94403	0.006142141
173	0xbda0386c	-0.078232616
174	0xbd16724a	-0.03673009
175	0x3cd6e052	0.026230011
176	0xbd080e15	-0.033216555
177	0xbdbe94ab	-0.093057
178	0xbdb4c808	-0.088272154
179	0xbcb82cd7	-0.022482319
180	0x3d64e855	0.05588563
181	0x3ce2469b	0.027621558
182	0xbb37dbf9	-0.0028054698
183	0x3edb1288	0.42787576
184	0x3effff19	0.49999312
185	0x3d15db5e	0.036586158
186	0x3e76fd16	0.24119982
187	0x3e92f1ef	0.28700206
188	0xbc675bdb	-0.014121021
189	0xbd5f3a21	-0.054498795
190	0xbb9019d7	-0.0043976116
191	0xbda4e494	-0.0805141
192	0xbd2ed6e2	-0.042685397
193	0xbd530e8a	-0.051527537
194	0xbdd7e6c4	-0.10542062
195	0xbd4ee13f	-0.05050778
196	0xbda4893d	-0.080339886
197	0xbd5a3f67	-0.05328312
198	0xbd979bd1	-0.074027665
199	0xbd5ee086	-0.05441334
200	0xbb891436	-0.0041833175
201	0x3c657c28	0.014006652
202	0xbd049b86	-0.03237488
203	0xbbb2ff7b	-0.0054625846
204	0xbd5c68d3	-0.053810906
205	0xbd992662	-0.07478024
206	0xb9e31ca7	-0.00043318162
207	0x3d51f32b	0.051257294
208	0x3d2f361f	0.042776223
209	0x3daa66e1	0.08320404
210	0x3c666b33	0.014063644
211	0x3d045914	0.032311514
212	0x3ce768a0	0.028248131
213	0x3d8ba142	0.06817867
214	0x3b4ee034	0.003156674
215	0x3d6bdcfc	0.057583794
216	0xbd56a307	-0.05240157
217	0x3a268eb1	0.000635366
218	0x3c5a5564	0.013326023
219	0xbdb44136	-0.088015005
220	0xbdc474a0	-0.09592557
221	0xbdba6454	-0.09101167
222	0x3cafdda2	0.021467987
223	0xbb9cab71	-0.0047811796
224	0x3b9f6ca8	0.0048652478
225	0xbd901417	-0.07035082
226	0x3d2da7fc	0.04239653
227	0xbc9be5c2	-0.019030455
228	0xbb9bb6dc	-0.004752023
229	0x3dd1f1e7	0.10251217
230	0xbd0792be	-0.03309893
231	0xbdaf23b5	-0.085517325
232	0x3c781ab6	0.015143087
233	0x3c0a7b82	0.008452298
234	0xbda2f61a	-0.079570964
235	0xbdd17324	-0.102270395
236	0xbc24cd93	-0.010058778
237	0x3d2fabfb	0.042888623
238	0x3daf0320	0.08545518
239	0x3c5e306f	0.013561352
240	0xbc391df8	-0.011298649
241	0x3d055e28	0.032560498
242	0xbc29daaa	-0.010367075
243	0x3d26ae5f	0.040693637
244	0x3d3822ec	0.04495518
245	0xbd70ad3f	-0.05875897
246	0xbdd3de3c	-0.10345122
247	0xbccd630d	-0.025071645
248	0x3bb2dcd7	0.005458455
249	0x3d87436b	0.06604656
250	0xbd8ee6c9	-0.069776125
251	0x3da66095	0.0812389
252	0x3ca6b521	0.02035004
253	0x3d0c08cc	0.034188077
254	0xbd487b3e	-0.048945658
255	0xba881c84	-0.0010384475

encoder_layers.block_0.conv.bias f4 [32]
0	0x3d621248	0.055193216
1	0xbd81d5d2	-0.06339611
2	0xbcca362e	-0.024684038
3	0x3bd8e122	0.006618635
4	0xbcb09a8a	-0.021558065
5	0x3da005b6	0.07813589
6	0x3c88a550	0.01668039
7	0xb9989a48	-0.00029106648
8	0xbd448937	-0.04798242
9	0x3daabf97	0.08337324
10	0x3d2d3557	0.042287197
11	0xbc2fa129	-0.010719576
12	0x3c17f3d7	0.009274445
13	0xbc267d62	-0.0101617295
14	0x3d81a48f	0.06330215
15	0x3c1b8f8b	0.0094946725
16	0xbc0204ca	-0.007935712
17	0xbacac2a0	-0.001546938
18	0x3d8f8ecc	0.07009658
19	0x3c2e1e76	0.01062738
20	0xbd6b0230	-0.057375133
21	0xbd1f21d2	-0.038850613
22	0x3d5b0a5b	0.053476673
23	0xbdc1e7d8	-0.09468049
24	0xbd305f1b	-0.04305945
25	0xbd19b7d9	-0.037528846
26	0xbcc761fb	-0.024338713
27	0xbc660d6f	-0.014041289
28	0xbd49de0e	-0.049284033
29	0xbc1fa76a	-0.0097445045
30	0xbd582d59	-0.052777622
31	0x3ca84d29	0.020544605

encoder_layers.block_1.conv.weight f4 [32, 16, 3, 3]
0	0xbc70e8d4	-0.014703948
1	0xbd3eb593	-0.04655988
2	0x3dfe6438	0.12421459
3	0xbbf7abdb	-0.0075583286
4	0xbd088e46	-0.033338808
5	0x3c88a4f0	0.01668021
6	0xbd020e90	-0.03175217
7	0x3c906585	0.017626533
8	0x3d60cb7c	0.054881558
9	0xbd201476	-0.039082013
10	0xbd207760	-0.039176345
11	0xbdf94df9	-0.12173075
12	0x3db2c28c	0.08728513
13	0x3db9afd4	0.0906674
14	0xbd6e6b7c	-0.058207974
15	0xbc1ddfe1	-0.009635896
16	0x3c7a4e1f	0.015277415
17	0x3c1b3af0	0.009474501
18	0xbe993062	-0.29919726
19	0xbe833eeb	-0.2563394
20	0xbec68aea	-0.38777858
21	0xbe88695e	-0.2664289
22	0xbe9f3b88	-0.31100106
23	0xbe936d59	-0.28794363
24	0xbe220879	-0.15823545
25	0xbe5b5fd4	-0.21423274
26	0xbec3c1e6	-0.3823387
27	0x3e47c3cf	0.19508289
28	0x3da7af64	0.0818775
29	0x3d5c1ba8	0.053737313
30	0xbe095b55	-0.13413747
31	0xbe1dff0a	-0.15429321
32	0xbe45cb05	-0.19315727
33	0x3d3a07a1	0.04541743
34	0xbdc8b043	-0.09799244
35	0xbdcd3860	-0.10020518
36	0xbdacb270	-0.08432472
37	0xbdaf5f30	-0.085630774
38	0xbe373e8c	-0.17894953
39	0xbe1f67cc	-0.15566939
40	0xbd70703b	-0.05870078
41	0xbe1125ed	-0.14174624
42	0xbe3bebdc	-0.18351692
43	0xbdb2a01a	-0.08721943
44	0xbe3ad0d5	-0.18243726
45	0xbcbacc90	-0.022802621
46	0xbce80ac4	-0.028325446
47	0x3e3c2927	0.18375073
48	0xbd0e58ea	-0.034752764
49	0x3c6d1be7	0.0144719845
50	0x3d8538f1	0.06505001
51	0x3c14ec07	0.009089476
52	0x3ddd2bfb	0.10799404
53	0x3da838da	0.082139686
54	0x3b793196	0.003802394
55	0xbdc430b7	-0.09579604
56	0xbe01c1c6	-0.12671575
57	0xbd781c9b	-0.060574155
58	0xbea62167	-0.3244736
59	0xbe551209	-0.20807661
60	0xbb14d28b	-0.0022708501
61	0x3db7c6ff	0.08973502
62	0xbd48dc74	-0.049038365
63	0xbdb8523e	-0.090000615
64	0xbb5a91cb	-0.003335106
65	0x3e439682	0.19100383
66	0xbdedea63	-0.11616971
67	0x3cfd7467	0.030939294
68	0xbd8d41f8	-0.06897348
69	0x3d8ac5e8	0.06776029
70	0x3d59614e	0.053071313
71	0x3b4d6b3c	0.0031344434
72	0x3d1b3058	0.0378879
73	0xbc6a0cae	-0.01428525
74	0xbdb8b015	-0.0901796
75	0x3d552472	0.05203671
76	0xbd2f91bb	-0.04286359
77	0x3a95ef6d	0.0011439152
78	0x3c25b172	0.010113107
79	0xbd335562	-0.0437826
80	0xbd0cebbf	-0.034404512
81	0xbe31213f	-0.17297839
82	0xbdeeaeed	-0.11654458
83	0xbc4cd762	-0.012502523
84	0xbe99f7a3	-0.30071744
85	0xbd5f7ae6	-0.054560564
86	0xbd988c2b	-0.0744861
87	0xbddb20a1	-0.10699583
88	0xbe0df33a	-0.13862315
89	0xbdef6da8	-0.11690837
90	0xbda40cd2	-0.08010258
91	0x3ce7299a	0.02821808
92	0xbdbd15c0	-0.09232664
93	0x3c41d681	0.011830927
94	0xbd3e6294	-0.04648073
95	0xbd20c2a2	-0.039248116
96	0xbc684a3c	-0.014177855
97	0xbd4f99ac	-0.050683662
98	0xbd7dc4e3	-0.061955344
99	0xbc12d334	-0.008961488
100	0xbe0b3b32	-0.135968
101	0x3d318ca6	0.043347023
102	0xbdfaeb35	-0.122518934
103	0xbdd251c1	-0.102694996
104	0x3d961279	0.07327742
105	0xbdc7b762	-0.09751774
106	0xbe228b37	-0.15873419
107	0xbd776c02	-0.06040574
108	0xbe374e82	-0.17901042
109	0xbe3003c0	-0.1718893
110	0xbe8c73dd	-0.27432147
111	0x3ded7d79	0.11596198
112	0x3d55058d	0.052007247
113	0x384e0169	4.911554e-05
114	0x3dba3aab	0.09093221
115	0x3e07e539	0.13271035
116	0xbc92b1ae	-0.01790699
117	0x3cd1cf90	0.025611669
118	0x3d6b19de	0.057397716
119	0x3d20795c	0.039178237
120	0xbd68f177	-0.056870904
121	0x3d7e143d	0.06203102
122	0x3dab42e2	0.08362366
123	0xbd590e3d	-0.052992094
124	0x3cd88c66	0.026434135
125	0xb9f6df20	-0.00047087017
126	0x3aa1f036	0.0012354914
127	0xbcfb16cf	-0.030650524
128	0xbd951247	-0.07278877
129	0x3d892483	0.06696417
130	0x3d9b30f8	0.075776994
131	0x3ce973ab	0.028497538
132	0xbd80b5b3	-0.062846564
133	0xbd04d34a	-0.032428063
134	0xbd9268b6	-0.07148878
135	0x3de4ac79	0.11165709
136	0x3e529b87	0.20567141
137	0x3d95117b	0.07278725
138	0xbd09dab1	-0.033655826
139	0xbe02826e	-0.12745067
140	0xbd506c26	-0.05088439
141	0xbd691de6	-0.05691328
142	0xbd6e3c14	-0.058162764
143	0xbdb191db	-0.08670398
144	0xbe092b91	-0.13395526
145	0xbe31dc0c	-0.17369097
146	0xbd105cb7	-0.03524467
147	0xbe6588f5	-0.22415526
148	0xbed4b5cc	-0.4154495
149	0xbe233aba	-0.15940371
150	0xbd5974cd	-0.053089906
151	0xbe4c7b92	-0.19969013
152	0xbe40ab9b	-0.18815462
153	0x3e22a597	0.1588348
154	0x3d16c91d	0.03681289
155	0xbdc7a632	-0.09748496
156	0x3dcad3e7	0.099036984
157	0xbe8b4d0c	-0.2720722
158	0xbec3b5f4	-0.38224757
159	0x3e2ee93d	0.17081161
160	0x3da761c7	0.081729464
161	0xbd6364cf	-0.05551606
162	0x3c8b05f9	0.016970621
163	0xbd481aac	-0.04885356
164	0xbdb64507	-0.08899885
165	0x3da38fd3	0.07986417
166	0x3e041963	0.1290031
167	0x3ab15c08	0.0013531456
168	0x3d4f54d2	0.050618
169	0x3dd97104	0.10617259
170	0xbd912286	-0.07086663
171	0x3e062719	0.13100852
172	0xbd2e5346	-0.042559884
173	0x3d964024	0.073364526
174	0x3c45c56f	0.012070998
175	0xbe2faae9	-0.17155041
176	0x3e72feef	0.23730062
177	0x3e9f4e50	0.31114435
178	0xbde9d31d	-0.1141722
179	0x3e8ca124	0.2746669
180	0x3c99a78f	0.018756656
181	0xbc08e053	-0.008354264
182	0x3d850505	0.06495098
183	0x3ce86672	0.028369162
184	0x3df6c8f2	0.12050046
185	0x3d8bf599	0.068339534
186	0x3d4e05e1	0.050298575
187	0x3df46100	0.11932564
188	0x3d9c8365	0.07642249
189	0xbd89f1b0	-0.06735551
190	0x3d1fbc6b	0.03899805
191	0xbded58a4	-0.115891725
192	0x3d83033a	0.063971
193	0xbe143b3e	-0.14475724
194	0x3e0c293e	0.13687608
195	0xbdb0c2de	-0.08630918
196	0xbe26ab87	-0.1627637
197	0x3e54b145	0.20770748
198	0x3d6cd6b1	0.057821933
199	0x3e21690b	0.15762727
200	0xbd81da0f	-0.063404195
201	0xbcb599f0	-0.02216813
202	0x3e34f5fe	0.17671964
203	0xbe34b84b	-0.17648427
204	0xbe49c3fe	-0.19703671
205	0x3dcfeaa9	0.1015218
206	0xbc9a358e	-0.018824365
207	0xbdd731a3	-0.10507514
208	0xbdbb337e	-0.09140681
209	0xbe6dcc71	-0.2322252
210	0xbe0daeb3	-0.13836174
211	0xbbc4fbd0	-0.0060114637
212	0xbca7cd2b	-0.020483574
213	0xbdbe431c	-0.09290144
214	0x3cb91a25	0.022595474
215	0xbe3e6f70	-0.18597198
216	0xbe6fdc22	-0.23423818
217	0xbd6d9134	-0.057999805
218	0xbdd55399	-0.104163356
219	0xbdeecfc0	-0.11660719
220	0xbbc25d7a	-0.0059315534
221	0xbd793fe8	-0.06085196
222	0xbe55aebf	-0.20867442
223	0xbd8ed49c	-0.06974146
224	0xbd9a5ce2	-0.07537247
225	0xbe6aa047	-0.22912703
226	0xbd97fd14	-0.07421318
227	0xbd10e90b	-0.035378497
228	0x3e2e153b	0.17000286
229	0x3e082120	0.13293886
230	0x3dcc8453	0.09986176
231	0xbc5168d9	-0.012781345
232	0x3d4398c8	0.047753125
233	0xbcd52699	-0.026019381
234	0xbda0b8c9	-0.07847745
235	0xbd88f435	-0.06687204
236	0xbdae3088	-0.0850535
237	0xbd83b621	-0.06431223
238	0xbc0ff811	-0.008787171
239	0xbca4d339	-0.02012025
240	0xbd4b8659	-0.04968867
241	0xbce3e42f	-0.027818767
242	0xbdeacd55	-0.11464945
243	0x3e60f435	0.21968158
244	0xbe28cd28	-0.16484511
245	0x3dba32cc	0.0909172
246	0xbe3e6ec2	-0.18596938
247	0xbf06585d	-0.5247858
248	0x3c9c131b	0.019052079
249	0x3d73dddc	0.059537753
250	0xbe3df660	-0.18551016
251	0xbd18a586	-0.03726723
252	0xbe7f0626	-0.24904689
253	0x3d166893	0.036720823
254	0xbd4d85d0	-0.05017644
255	0xbe8c93b6	-0.27456445

encoder_layers.block_1.conv.bias f4 [32]
0	0xbd965128	-0.07339698
1	0xbc45e340	-0.012078106
2	0x3cc4d1b2	0.024025772
3	0x3d716a59	0.05893931
4	0xbd02e8ec	-0.031960413
5	0x3cc44d90	0.023962766
6	0xbcc1fee3	-0.02368111
7	0xbe30a83f	-0.17251681
8	0x3d2233cf	0.03960019
9	0x3d4520d6	0.048127018
10	0x3d4a5833	0.04940052
11	0xbd515f09	-0.051116023
12	0xbc243a43	-0.010023656
13	0xbd16d715	-0.036826212
14	0x3dbee933	0.09321823
15	0xbd77674d	-0.06040125
16	0xbc020df4	-0.007937897
17	0xbd331176	-0.043717824
18	0x3d966b16	0.07344644
19	0x3de73770	0.11289871
20	0xbca5da7a	-0.02024578
21	0xbcc21063	-0.023689454
22	0xbbb867e4	-0.005627619
23	0x3dccbabc	0.09996554
24	0xb7e8db5f	-2.7758708e-05
25	0xbd90fd43	-0.07079556
26	0x3d8c0c3f	0.06838273
27	0xbde4a121	-0.111635454
28	0xbccdeeb2	-0.025138233
29	0x3d4988a3	0.049202573
30	0x3cc9142e	0.024545755
31	0x3d1fdd74	0.039029554

decoder_layers.block_0.conv.weight f4 [32, 8, 3, 3]
0	0x3bbccbdc	0.0057616066
1	0x3d916755	0.07099787
2	0x3da22440	0.079170704
3	0x3d2f091d	0.0427333
4	0x3d4107f5	0.04712673
5	0x3bfc27d3	0.007695177
6	0xbc9cd610	-0.019145042
7	0x3d18df8f	0.037322577
8	0x3dbde625	0.09272412
9	0xbcfb55a0	-0.030680478
10	0xbb286952	-0.0025697541
11	0x3d994d4c	0.07485446
12	0xbcc9da79	-0.024640309
13	0x3d2c3fac	0.04205291
14	0x3e0743ca	0.13209453
15	0xbd2d0697	-0.042242613
16	0x3c98314b	0.018578192
17	0xbd3eedb9	-0.04661343
18	0xbd6cda44	-0.05782534
19	0xbd78b4c9	-0.060719285
20	0xbd209b5a	-0.039210655
21	0xbcf1aed3	-0.029502308
22	0xbe5317a0	-0.20614481
23	0xbe1c8b1e	-0.15287444
24	0xbc00d00c	-0.007862102
25	0xbdc3f6b5	-0.0956854
26	0x3c8665f8	0.016406044
27	0xbddeda55	-0.10881487
28	0xbd926be9	-0.071494885
29	0xbd5005b5	-0.050786693
30	0x3c760025	0.015014683
31	0xbb451062	-0.003006958
32	0xbdfdbafc	-0.1238918
33	0xbe3ff0ca	-0.18744197
34	0xbdb89013	-0.09011855
35	0xbdaf1de4	-0.08550623
36	0xbd642be7	-0.05570593
37	0xbd20fc9a	-0.0393034
38	0x3d23e3ac	0.040012047
39	0xbdd77a81	-0.10521413
40	0xbe3055fa	-0.17220297
41	0xbdd2bdea	-0.102901295
42	0x3d9f48b6	0.077775404
43	0xbdb3a239	-0.08771176
44	0x3d96328c	0.0733386
45	0x3d7fdaa6	0.06246438
46	0xbce6847d	-0.028139347
47	0x3d872c07	0.066001944
48	0xbd6f7253	-0.058458637
49	0x3d138b26	0.036021374
50	0x3d7cebef	0.06174844
51	0x3dcba03b	0.09942671
52	0x3a88299c	0.0010388377
53	0xbcdf8694	-0.027285852
54	0xbe12301d	-0.14276166
55	0x3d749636	0.059713565
56	0x3d9de713	0.077100895
57	0xbdb97dc3	-0.0905719
58	0xbe02be2d	-0.12767859
59	0xbe0f54a8	-0.13997138
60	0xbdfdf1d8	-0.12399644
61	0xbc307619	-0.010770344
62	0xbd7817f7	-0.06056973
63	0x3d4d6a3b	0.050150137
64	0xbd0729f9	-0.032999013
65	0xbd05de01	-0.032682423
66	0xbd80013e	-0.06250237
67	0x3c55e246	0.013054436
68	0xbdd6735b	-0.10471221
69	0xbd2a5ebc	-0.041594252
70	0x3ccbd375	0.024881104
71	0x3c8fa673	0.017535424
72	0xbd425af3	-0.047450017
73	0xbd1c8fe9	-0.03822318
74	0xbdb9f35d	-0.09079621
75	0xbd8da847	-0.06916862
76	0xbdbdf0b7	-0.09274428
77	0xbcf7d68b	-0.03025367
78	0xbd4ed6d4	-0.050497845
79	0xbdfb12e4	-0.122594625
80	0xb9dcb238	-0.00042094453
81	0xbd8f3b1e	-0.069936976
82	0x3e3921a5	0.1807924
83	0x3c8b2e5d	0.016989881
84	0x3e2de1ac	0.16980618
85	0x3dcfa603	0.10139086
86	0x3e21c1a0	0.15796518
87	0x3ca40314	0.020020999
88	0x3dc30dc7	0.09524112
89	0x3d06c216	0.03289994
90	0xbd83a50a	-0.06427963
91	0x3da33e54	0.079708725
92	0xbd032187	-0.032014396
93	0x3c6289d2	0.013826804
94	0x3d433b02	0.047663696
95	0x3cec4c2e	0.028844919
96	0x3bcb68f9	0.006207582
97	0xbcd7a7ec	-0.026325189
98	0xbd9f6fbf	-0.07784986
99	0x3dcf0bb2	0.101096526
100	0x3d44e90e	0.04807382
101	0x3d7e8e2b	0.0621473
102	0x3e1caa21	0.15299274
103	0x3e3d1fdf	0.18469189
104	0x3e183ea3	0.14867644
105	0x3d3f6d08	0.04673484
106	0x3e194a70	0.14969802
107	0xbcec6831	-0.028858276
108	0x3d85e480	0.065377235
109	0x3d405fb0	0.046966255
110	0x3ccf62c5	0.025315652
111	0xbdc2c196	-0.0950958
112	0x3e3c5398	0.18391263
113	0x3dade542	0.08490993
114	0xbe1a5cf8	-0.15074527
115	0x3e807ff3	0.25097618
116	0x3dd0ecac	0.102013916
117	0xbde5b226	-0.1121562
118	0xbd0d8431	-0.034549896
119	0x3cd7da0a	0.026349086
120	0xbdc36727	-0.09541159
121	0xbdcd4749	-0.10023362
122	0x3a033c0d	0.00050062017
123	0xbd37652f	-0.04477423
124	0xbced4a8f	-0.028966216
125	0xbda2f93f	-0.07957696
126	0x3cde5461	0.027139844
127	0x3da7af4e	0.081877336
128	0xbe493649	-0.19649614
129	0x3d49afa4	0.04923977
130	0x3be76878	0.007062014
131	0x3a9d5d48	0.0012005949
132	0x3cacc8ec	0.0210919
133	0x3e019034	0.12652665
134	0x3c9b597f	0.018963574
135	0x3dd122ca	0.102117136
136	0xbc8119d6	-0.01575939
137	0x3dc056b0	0.09391534
138	0x3dd7b967	0.105334096
139	0xbe109b82	-0.14121822
140	0xbd95376f	-0.07285964
141	0x3e137eb2	0.14403799
142	0xbd8f9ed3	-0.07012715
143	0xb9adc314	-0.00033142476
144	0xbc97a3d3	-0.018510735
145	0xbd6e4e6e	-0.058180265
146	0xbd1690a7	-0.036759045
147	0xbc82207a	-0.015884627
148	0xbda1ebaa	-0.079062775
149	0x3ccac4a4	0.024751969
150	0xbd87167a	-0.06596084
151	0xbda04ddf	-0.07827353
152	0x3c8fc748	0.01755108
153	0xbd1a1615	-0.037618715
154	0x3c8b9663	0.017039483
155	0x3dcec70f	0.10096561
156	0x3dad853f	0.0847268
157	0xbc754b6f	-0.014971598
158	0x3d53040f	0.051517542
159	0xbc8eebff	-0.017446516
160	0x3d11adbf	0.035566088
161	0xbc9c3be9	-0.019071536
162	0xbd89bace	-0.06725083
163	0x3d32acf6	0.04362198
164	0xbdb3691d	-0.08760283
165	0xbdde7363	-0.10861852
166	0x3d67746f	0.056507524
167	0x3c967b24	0.018369265
168	0xbc6c81ce	-0.014435245
169	0xbcde63be	-0.02714717
170	0xbdb2b6cc	-0.08726272
171	0x3ca01d01	0.01954508
172	0x3c3fd3a7	0.011708177
173	0xbd1f3320	-0.038867116
174	0xbc1f3bc6	-0.009718841
175	0xbd1e1a27	-0.03859916
176	0xbdc595b7	-0.096476965
177	0x3cfb5e20	0.03068453
178	0x3d607a76	0.054804288
179	0xbc815d63	-0.0157916
180	0xbd98b4cc	-0.07456359
181	0x3dc5924c	0.096470445
182	0x3d89d4c8	0.06730038
183	0xbd85a66f	-0.06525885
184	0x3dbc4a0d	0.091938116
185	0x3da5b029	0.080902405
186	0x3cd65d48	0.026167527
187	0xbcbe6c63	-0.023245042
188	0x3c6064a8	0.013695873
189	0xbde17cd1	-0.11010135
190	0x3ca23a79	0.019803273
191	0x3c98d4f8	0.018656239
192	0x3c949521	0.018137516
193	0xbd6cee76	-0.0578446
194	0x3c0e7cb9	0.008696728
195	0x3ca9b133	0.020714378
196	0xbbd13995	-0.006385038
197	0x3cde34dd	0.027124817
198	0x3bede188	0.0072595514
199	0x3ddaf03d	0.10690353
200	0x3cfe7ab5	0.03106437
201	0xba8a30d1	-0.0010543113
202	0xbda35e81	-0.079770096
203	0x3d31bcaa	0.043392815
204	0xbdda1d0a	-0.1065007
205	0xbdf1679a	-0.117873386
206	0x3d99d6c2	0.07511665
207	0x3d937960	0.07200885
208	0xbd843872	-0.064560786
209	0xbc95ab74	-0.018270232
210	0x3cbd1f1e	0.023086127
211	0xbd0e254b	-0.034703534
212	0xbd387c06	-0.045040153
213	0xbc8ec2ec	-0.01742693
214	0x3d2397fa	0.039939858
215	0x3dad6dca	0.08468206
216	0x3c8d6bc5	0.017263303
217	0x3d2a5085	0.041580696
218	0xbd9580c1	-0.072999485
219	0xbd2cada6	-0.04215779
220	0xbe0871f4	-0.1332472
221	0xbd915d2d	-0.0709785
222	0x3d2687aa	0.040656723
223	0xba991016	-0.0011677768
224	0x3d042de1	0.032270316
225	0x3cb7a640	0.022418141
226	0x3c14a975	0.009073605
227	0x3dd28a9f	0.10280346
228	0x3d361e5e	0.044462554
229	0xbd89f0e5	-0.067354
230	0x3d1c02ad	0.03808849
231	0x3e0fe2df	0.14051388
232	0xbcad1fef	-0.021133391
233	0x3cfd0319	0.030885266
234	0x3d59a4b6	0.053135596
235	0x3d997ea0	0.07494855
236	0xbc288451	-0.010285453
237	0x3d93b99b	0.07213136
238	0x3db128eb	0.086503826
239	0x3d1f2310	0.038851798
240	0x3ba7c579	0.005119976
241	0xbcb2b193	-0.02181319
242	0xbce992b9	-0.028512346
243	0xbd2e4544	-0.042546526
244	0xbd3245e1	-0.043523673
245	0xbc972f31	-0.01845512
246	0xbc60aae6	-0.01371262
247	0x3d0da850	0.034584343
248	0x3cc94924	0.024571009
249	0x3da9eff0	0.082977176
250	0xbd24fdc5	-0.040281076
251	0xbb945f08	-0.00452793
252	0x3c916c26	0.017751765
253	0xbcacced6	-0.02109472
254	0x3de47617	0.11155336
255	0x3dadeb59	0.08492155

decoder_layers.block_0.conv.bias f4 [32]
0	0xbda7af34	-0.08187714
1	0xbd9894ef	-0.07450282
2	0xbd4a53be	-0.04939627
3	0xbb918afc	-0.004441617
4	0x3c92d856	0.017925423
5	0x3c503a06	0.012709146
6	0x3dcb0400	0.09912872
7	0xbd72e40a	-0.059299506
8	0x3ca4a386	0.020097505
9	0x3d3fc9d4	0.046823338
10	0x3dc0b8a0	0.094102144
11	0x3c589628	0.013219394
12	0x3c2d65a4	0.010583315
13	0x3d9388f8	0.07203859
14	0xbb9a40b2	-0.0047074193
15	0xbd7c118d	-0.061540175
16	0xbcbbdc31	-0.022932144
17	0xbd479381	-0.048724655
18	0xbd845eba	-0.0646338
19	0xbd453ecf	-0.048155602
20	0x3c0b76e5	0.008512233
21	0x3c7c1669	0.015386202
22	0xbd58f57b	-0.052968483
23	0xbd8e8898	-0.06959647
24	0xbd2d1008	-0.042251617
25	0x3bcbfba8	0.006225068
26	0x3c044385	0.008072739
27	0xbac19b4b	-0.0014771012
28	0xbd703f7e	-0.0586543
29	0xbd8771c1	-0.06613494
30	0xbe31d10b	-0.173649
31	0x3c4bbc63	0.012435052

decoder_layers.block_1.conv.weight f4 [32, 16, 3, 3]
0	0xbd817d2f	-0.06322705
1	0xbd8c4c91	-0.068505414
2	0x3d58ab68	0.05289784
3	0xbbf3d453	-0.0074410825
4	0xbdf23613	-0.1182672
5	0xbd63df6e	-0.055633
6	0x3cd7e949	0.026356356
7	0xbd254f96	-0.040359102
8	0xbb5f5b92	-0.003408168
9	0xbd2fc6ba	-0.04291413
10	0x3b35f109	0.0027762076
11	0xbd9c11f9	-0.076206155
12	0x3b6e2e9b	0.0036343697
13	0x3d9d91ea	0.076938465
14	0x3c05b504	0.008160833
15	0xbd91dabc	-0.071217984
16	0x3b468b43	0.0030295409
17	0xbda9be05	-0.082881965
18	0x3d449020	0.04798901
19	0x3dbdf023	0.09274318
20	0x3cabab68	0.020955756
21	0x3d4142ef	0.047182973
22	0x3de74799	0.11292953
23	0x3d4eb8c2	0.050469168
24	0x3d200946	0.039071344
25	0x3ceb40dc	0.02871745
26	0x3d884093	0.066529416
27	0x3d1c3131	0.03813285
28	0xbd40286b	-0.046913546
29	0xbd3724b4	-0.044712737
30	0x3c23b654	0.009992201
31	0xbc5c77e2	-0.013456317
32	0x3c473acb	0.012160013
33	0xbd858b90	-0.0652076
34	0xbd9d9501	-0.07694436
35	0xbd7f9ea8	-0.062407166
36	0x3b3114eb	0.0027020525
37	0x3e19b27f	0.15009497
38	0x3d10d5dd	0.035360206
39	0x3e068f1b	0.13140528
40	0x3e538e83	0.20659833
41	0x3d579b0c	0.0526381
42	0xbcd33f30	-0.025786966
43	0xbca3faab	-0.020016989
44	0xbc9646db	-0.018344333
45	0xbb5b7469	-0.0033486134
46	0xbb108e9a	-0.0022057653
47	0xbd52ef9d	-0.051498044
48	0xbd69377b	-0.056937676
49	0x3cd7f362	0.026361171
50	0x3be442b3	0.006965959
51	0xbce95376	-0.02848218
52	0xbc6db042	-0.014507355
53	0x3c1d45b5	0.009599139
54	0x3d4b2168	0.049592406
55	0xbc2547ea	-0.010087946
56	0xbcce8ac4	-0.025212653
57	0xbd1f0838	-0.038826197
58	0x3d1d967a	0.038473584
59	0x3d8f5168	0.06997949
60	0xbcdae9ba	-0.026722778
61	0x3d4e133a	0.050311305
62	0xbdb9fc72	-0.09081353
63	0x3d140fbd	0.03614782
64	0x3e910a31	0.28328088
65	0x3c320fab	0.010867993
66	0x3e3efdbe	0.18651482
67	0x3ebaec52	0.36508423
68	0x3e6292bd	0.22126289
69	0x3da0970e	0.078413114
70	0x3e1aaf77	0.15105997
71	0xbc9a1d09	-0.018812673
72	0xbc87786b	-0.016536912
73	0x3d33f4f5	0.04393478
74	0xbc8ca819	-0.017169999
75	0xbc5c1c97	-0.013434551
76	0x3d0b9e33	0.034086417
77	0xbd8c7d23	-0.068598054
78	0x3c31e13b	0.010856922
79	0xbd25b502	-0.040455826
80	0xbdddc500	-0.108285904
81	0x3df147c7	0.117812686
82	0x3d84637a	0.06464286
83	0x3e17d7ee	0.14828464
84	0x3d535315	0.051592905
85	0xbcb2bf7c	-0.021819822
86	0x3d882b65	0.06648902
87	0x3ad20fcd	0.0016026438
88	0xbb2fd313	-0.002682869
89	0x3ddcef61	0.107878454
90	0x3d37430d	0.04474168
91	0xbc5ba04f	-0.01340492
92	0x3bc42f41	0.0059870784
93	0x3d90ff46	0.070799395
94	0x3d7dcd36	0.061963283
95	0xbb76f284	-0.0037681172
96	0x3d226ee1	0.039656524
97	0x3d9b4839	0.07582135
98	0xbbe0d76a	-0.006861617
99	0xbc42a172	-0.011879312
100	0x3de22e63	0.11044004
101	0x3c967d14	0.018370189
102	0x3caf76e9	0.021419005
103	0x3e232f64	0.15936047
104	0x3eb0dd13	0.34543666
105	0x3cfa8d94	0.030585088
106	0x3d020e92	0.031752177
107	0x3d18ad4c	0.037274644
108	0x3e4919fb	0.19638817
109	0x3e3e6d1b	0.18596308
110	0x3d91e112	0.07123007
111	0x3e92fb12	0.28707176
112	0x3e12e674	0.14345723
113	0x3e04190d	0.12900181
114	0x3d6f6ccf	0.058453377
115	0x3d8a01f7	0.06738656
116	0x3d597125	0.05308642
117	0x3ced8cca	0.028997798
118	0xbbbe055c	-0.0057989787
119	0x3cde0cde	0.027105745
120	0xbd5d5024	-0.054031506
121	0xbd0c54ea	-0.034260668
122	0xbd2f01b8	-0.04272625
123	0x3c8057c5	0.015666852
124	0xbd82a464	-0.06379011
125	0xbb67e409	-0.0035383722
126	0x3c4caee4	0.012492869
127	0x3d3ed09d	0.046585668
128	0x3d3d4887	0.046211746
129	0x3d9c7686	0.07639794
130	0x3d9a2a27	0.07527571
131	0xbbd452d8	-0.0064796023
132	0xbd55012b	-0.052003067
133	0x3d5591e6	0.052141093
134	0x3c8555db	0.01627629
135	0xbca0f917	-0.019650025
136	0xbd3d11e3	-0.046159636
137	0x3dc5f34f	0.09665548
138	0x3ece22f9	0.40261057
139	0x3f0116e6	0.50425565
140	0x3f1a04bd	0.6016348
141	0x3e7a26d1	0.2442887
142	0x3ebc7621	0.36808875
143	0x3eedd69a	0.4645279
144	0x3cdcbf51	0.026946696
145	0x3cc64775	0.024203995
146	0x3d22440a	0.03961567
147	0xbc81dc1a	-0.015852023
148	0xbe02f207	-0.12787639
149	0xbd950d96	-0.07277982
150	0x3de20205	0.110355414
151	0x3d1e888e	0.038704447
152	0x3cb46be2	0.022024099
153	0x3d27f62e	0.04100626
154	0xbcc04c2a	-0.023473818
155	0xbca2c298	-0.01986818
156	0xbd5e1f6f	-0.054229196
157	0xbd5ae419	-0.053440187
158	0xbdccd3eb	-0.10001358
159	0x3d0641e6	0.03277769
160	0xbd706a96	-0.0586954
161	0xbe1c3b28	-0.15256941
162	0x3d0a1bfb	0.03371809
163	0xbcf34d1e	-0.029699858
164	0x3c5dc03b	0.013534601
165	0xbc9e57ee	-0.019329038
166	0xbcad91ab	-0.021187624
167	0x3cb551cc	0.02213373
168	0x3c2241bd	0.009903369
169	0x3d970bf3	0.07375326
170	0x3c5ed623	0.013600859
171	0xbc3ac4e3	-0.0113994805
172	0xbdfca776	-0.12336628
173	0xbd645c63	-0.05575217
174	0xbd861daa	-0.06548627
175	0xbddb158d	-0.1069747
176	0xbd979436	-0.07401316
177	0xbc713336	-0.014721682
178	0xbd22b55d	-0.039723743
179	0xbd60e4da	-0.05490575
180	0xbd232cdc	-0.039837703
181	0x3c0a4897	0.008440158
182	0x3cf6913b	0.030098548
183	0x3bce9e04	0.006305458
184	0x3d8f3701	0.06992913
185	0xbcb31e77	-0.021865113
186	0x3da0b993	0.078478955
187	0xbc619466	-0.013768291
188	0x3d4baaa5	0.049723286
189	0x3d97b3dc	0.07407352
190	0x3d639de0	0.055570483
191	0xbc8c880a	-0.017154712
192	0xbd7b8804	-0.06140901
193	0xbc812906	-0.015766632
194	0xbd76c7f8	-0.0602493
195	0x3d7cd114	0.06172283
196	0xbd30c429	-0.043155823
197	0xbb702307	-0.0036641972
198	0xbc812bc3	-0.015767938
199	0x3dc13736	0.09434359
200	0xbc46a2e1	-0.012123794
201	0xbdf599f4	-0.11992255
202	0xbe0efa1d	-0.13962598
203	0xbc88624c	-0.016648434
204	0xbd3fe589	-0.04684976
205	0xbe1517ff	-0.14559935
206	0xbd93008e	-0.0717784
207	0xbb49829e	-0.003074802
208	0xbd3f274d	-0.04666834
209	0x3dd4831f	0.10376572
210	0x3d93eb06	0.072225615
211	0xbe2ada7f	-0.16684912
212	0xbd472c8f	-0.04862648
213	0xbbd5bdb1	-0.006522857
214	0x3d54e456	0.05197557
215	0x3dcf7eca	0.10131605
216	0x3d17a3e7	0.037021544
217	0x3cbea66f	0.023272721
218	0xba183d29	-0.00058074534
219	0x3c23ded6	0.010001859
220	0x3c911802	0.017711643
221	0x3ca331ce	0.01992121
222	0x3d40b809	0.04705051
223	0xbbcf6671	-0.0063293506
224	0x3ddf96fc	0.1091747
225	0x3d500dc3	0.050794374
226	0x3e700ed2	0.23443154
227	0x3b8ebc8f	0.004355974
228	0x3e41e960	0.18936682
229	0xbd72e8cb	-0.05930404
230	0x3d128ad7	0.03577694
231	0xbcea37b9	-0.028591024
232	0xbd0ba277	-0.034090485
233	0xbdae3176	-0.08505528
234	0x3d85d477	0.06534665
235	0xbd49cada	-0.04926572
236	0xbcd5ff66	-0.02612276
237	0x3d060742	0.032721765
238	0x3c5487b7	0.01297181
239	0x3d0cb424	0.034351483
240	0x3d5882a6	0.05285897
241	0x3d8f335b	0.06992217
242	0x3d53ed84	0.051740184
243	0x3cd07927	0.025448395
244	0xbd6fa508	-0.058506995
245	0x3d12386f	0.03569835
246	0x3cedf370	0.029046744
247	0xbe605660	-0.2190795
248	0x3b917424	0.004438894
249	0xbd9607af	-0.07325684
250	0xbe7495d3	-0.23885278
251	0x3cdce22b	0.026963314
252	0xbe7321cd	-0.23743363
253	0xbc264684	-0.010148648
254	0x3e20f72b	0.15719287
255	0xbe03ae04	-0.1285935

decoder_layers.block_1.conv.bias f4 [32]
0	0x3db4f45b	0.088356696
1	0x3d146646	0.036230348
2	0x3d15e2db	0.0365933
3	0xbdfddfef	-0.123962276
4	0x3d662ae1	0.056193236
5	0x3d69632f	0.056979354
6	0x3ccc5038	0.024940595
7	0x3d35e8e6	0.044411562
8	0x3df7c06e	0.1209725
9	0xbcd0aca7	-0.025472952
10	0x3d8b6725	0.06806783
11	0x3d10e82d	0.03537767
12	0x3d719dba	0.05898831
13	0x3d245070	0.040115774
14	0xbcb5efde	-0.022209104
15	0x3d21cd2c	0.039502308
16	0xbd3b56cf	-0.045737084
17	0xbcf78bab	-0.030217966
18	0x3908c2a0	0.00013042474
19	0xbd24b844	-0.040214792
20	0x3d6f1a2b	0.058374565
21	0xbd14cb34	-0.036326602
22	0x3ced6929	0.028980808
23	0x3baf12f9	0.005342838
24	0x3d34fc15	0.044185717
25	0xbd32b6e5	-0.043631453
26	0xbceb989a	-0.02875929
27	0xbcc41288	-0.023934618
28	0xbcbecc39	-0.02329074
29	0xbcbb535e	-0.022866901
30	0xbd023c6f	-0.031795915
31	0xbdec5dfc	-0.115413636

read.weight f4 [1, 8, 1, 1]
0	0xbe492762	-0.1964393
1	0xbb88d2df	-0.0041755284
2	0x3e496f32	0.19671324
3	0xbd85b9a4	-0.06529549
4	0x3bf8d260	0.007593438
5	0xbd2b2566	-0.041783713
6	0x3e0cb004	0.1373902
7	0x3db3b860	0.08775401
