trainedModels/wave/horizon-20-70/twoLayer/1/2/run5/model.pt (torch, 113937 bytes, 27 tensors)

init.weight f4 [15, 1, 1, 1]
0.5584917 -0.61241555 0.50256383 -0.042225637 -0.55121 0.4995851 0.30659202 0.6326333
0.03312586 -0.43077075 -0.41814563 -0.54699475 0.06299165 0.33060318 0.4230802
00000000: 50f9 0e3f 44c7 1cbf 06a8 003f caf4 2cbd
00000010: 191c 0dbf 9ec9 ff3e a1f9 9c3e 42f4 213f
00000020: fbae 073d fc8d dcbe 2f17 d6be d907 0cbf
00000030: c401 813d d244 a93e f89d d83e

init.bias f4 [15]
0.29816276 0.14909719 0.49446988 0.015128972 0.118047856 0.24454391 0.0069414563 0.0100155175
0.40873837 -0.0042546308 0.08807666 0.046940144 -0.07603525 -0.41707096 0.46486747
00000000: caa8 983e efac 183e 282b fd3e 82df 773c
00000010: 13c3 f13d b869 7a3e 2875 e33b 2018 243c
00000020: 2846 d13e 6e6a 8bbb 8961 b43d 4f44 403d
00000030: 5fb8 9bbd 538a d5be 1c03 ee3e

encoder_layers.block_0.transition.weight f4 [15, 30, 3, 3]
0.010067716 -0.050004598 -0.051932223 0.00822204 -0.0012584109 -0.042579148 0.08758248 -0.08089441
0.069612086 -0.044547897 0.10231808 -0.013662175 0.034567192 0.029162206 0.017534971 -0.07601234
0.10338738 -0.11871053 0.005867515 -0.030998 -0.07562776 -0.035185084 0.048861425 0.009416023
0.02593675 -0.078477465 -0.00835985 -0.006024696 -0.00089444354 0.018705072 8.24905e-05 -0.035797328
0.006611023 0.0015112824 0.029535245 -0.010706785 -0.069818884 0.08066989 -0.055816837 0.012319632
0.03767684 -0.009387807 -0.1395537 0.14139435 -0.12878312 0.04522153 -0.029978918 -0.04604192
0.007909671 0.054591704 0.0024363769 0.04444741 -0.059755735 0.0401606 0.006627868 -0.035811376
0.056927122 -0.015310651 -0.016114498 0.0111451605 0.10515877 -0.062470257 0.102341756 0.06430333
-0.05511078 0.015937092 -0.04921695 0.024652675 -0.01813914 0.107838616 -0.109725595 0.13375443
-0.07993131 0.011355768 -0.09113128 0.025420686 0.09735283 -0.02337872 -0.07274676 -0.014766416
-0.100879975 -0.05520719 0.058048952 -0.04281531 -0.003187242 0.026578577 0.00847736 -0.1201531
0.106661394 -0.1001351 -0.065927096 0.10541236 -0.045603253 0.07332541 0.02622887 0.034009416
-0.13597335 0.13907343 -0.1114375 -0.07209634 0.05303032 -0.002635491 0.048212606 0.01996681
0.012056349 -0.13476163 0.11218786 -0.12780492 0.10115001 -0.05214957 0.05200259 -0.056870274
-0.11194039 -0.00784335 0.114990294 -0.10735957 0.096861936 0.0934206 -0.024681639 0.076524
-0.023252925 -0.09347789 -0.012341047 0.12276119 -0.07118106 0.13157918 0.017411081 -0.06071723
-0.06099255 -0.012390283 0.086748116 -0.043660525 0.033842467 -0.024287121 0.017117674 0.11764451
0.025581164 -0.037902433 0.18922293 0.21546413 0.14325294 -0.17331077 0.0511806 -0.19623172
-0.2056906 -0.1259965 -0.11628859 -0.036150992 -0.38860625 -0.0147549175 0.10311622 0.13683578
0.11622083 0.14367948 0.10612855 0.028505884 0.08249481 0.16482523 0.081176184 -0.05149459
0.0110249575 -0.08540396 -0.13164914 -0.108270034 -0.20825477 -0.120310105 -0.3441802 -0.09657876
-0.08760327 -0.026393645 -0.052858695 0.056965675 -0.0759463 0.025215678 0.061549656 0.12794599
0.10848124 -0.08150038 -4.5363777e-05 -0.0331436 -0.13776684 0.058524314 -0.12547725 0.12684114
0.03343606 -0.025067719 -0.27626133 -0.11588271 -0.17801823 -0.092328034 -0.08029594 0.06737859
0.07617532 0.074377045 0.12658283 0.028686777 0.07207059 0.112045504 -0.12318421 0.028290631
-0.030707844 0.13543682 0.24631293 -0.010798835 0.063538276 0.17989875 0.013614968 -0.044504292
0.26785818 0.029367054 0.04378416 0.14292412 0.06579265 -0.05446202 0.23086262 -0.19841842
0.002554705 0.17642678 -0.06467143 0.112907864 0.2174031 -0.0051799165 0.051604223 0.09133798
-0.10943476 -0.058483653 -0.0864506 0.15120763 -0.46932894 -0.1875352 -0.25982293 -0.032965466
0.09081569 -0.03582198 0.03945196 0.10706374 -0.011401217 0.0459182 -0.23069435 0.022866743
0.015434144 0.24503182 -0.011891572 -0.18293883 -0.1282014 -0.18144135 -0.020261107 -0.10390692
0.12182081 -0.16325217 -0.01806707 -0.16980772 -0.21750621 0.3090647 -0.11393051 -0.037073288
00000000: 10f3 243c 9fd1 4cbd e2b6 54bd bcb5 063c
00000010: 43f1 a4ba 7967 2ebd 715e b33d f8ab a5bd
00000020: c890 8e3d db77 36bd 248c d13d 51d7 5fbc
00000030: 5496 0d3d 94e5 ee3c 80a5 8f3c 5cac 9bbd
00000040: c3bc d33d 821e f3bd 4944 c03b 85ef fdbc
00000050: bae2 9abd 3c1e 10bd eb22 483d aa45 1a3c
00000060: 4f79 d43c cbb8 a0bd c1f7 08bc d06a c5bb
00000070: 1779 6aba 613b 993c c0fe ac38 38a0 12bd
00000080: 48a1 d83b 3916 c63a e6f3 f13c 836b 2fbc
00000090: 34fd 8ebd 4136 a53d 32a0 64bd 48d8 493c
000000a0: 0853 1a3d 51cf 19bc 2ae7 0ebe aec9 103e
000000b0: b9df 03be 363a 393d 5996 f5bc 7496 3cbd
000000c0: 9197 013c 8d9b 5f3d 9fab 1f3b 7d0e 363d
000000d0: 6ec2 74bd 717f 243d 962e d93b f3ae 12bd
000000e0: 6a2c 693d 86d9 7abc 8d02 84bc 319a 363c
000000f0: 7b5d d73d d0e0 7fbd 8e98 d13d 77b1 833d
00000100: d7bb 61bd 818e 823c b697 49bd 68f4 c93c
00000110: 8998 94bc 7eda dc3d d0b7 e0bd ecf6 083e
00000120: 07b3 a3bd 8b0d 3a3c 09a3 babd 0b3f d03c
00000130: ec60 c73d bb84 bfbc 41fc 94bd d6ee 71bc
00000140: 299a cebd ef20 62bd bdc4 6d3d 1b5f 2fbd
00000150: 0ce1 50bb 51bb d93c a0e4 0a3c d412 f6bd
00000160: 4a71 da3d a213 cdbd c904 87bd 6fe2 d73d
00000170: 7aca 3abd a22b 963d eddd d63c 754d 0b3d
00000180: 993c 0bbe 4469 0e3e 5839 e4bd 3fa7 93bd
00000190: 5236 593d 34b8 2cbb 957a 453d 6f91 a33c
000001a0: fe87 453c f4fe 09be c0c2 e53d 4bdf 02be
000001b0: bd27 cf3d ca9a 55bd ab00 553d cef0 68bd
000001c0: 0141 e5bd 6581 00bc 0880 eb3d 56df dbbd
000001d0: 8d5f c63d 4d53 bf3d 2631 cabc 9db8 9c3d
000001e0: eb7c bebc 5671 bfbd 1a32 4abc 386a fb3d
000001f0: 60c7 91bd b1bc 063e afa1 8e3c a1b2 78bd
00000200: 53d3 79bd 9d00 4bbc ffa8 b13d 61d5 32bd
00000210: 669e 0a3d c9f5 c6bc 5d3a 8c3c 9bef f03d
00000220: 978f d13c 953f 1bbd a8c3 413e a1a2 5c3e
00000230: e6b0 123e 6178 31be c0a2 513d f8f0 48be
00000240: 8fa0 52be 3a05 01be b628 eebd 1013 14bd
00000250: 66f7 c6be 9cbe 71bc 992e d33d ae1e 0c3e
00000260: 3005 ee3d b720 133e ed59 d93d 2c85 e93c
00000270: 0af3 a83d f2c7 283e b33f a63d feeb 52bd
00000280: 06a2 343c 45e8 aebd 08cf 06be aebc ddbd
00000290: bd40 55be 2565 f6bd 6338 b0be 16cb c5bd
000002a0: 5869 b3bd 7c37 d8bc 5c82 58bd d754 693d
000002b0: bc89 9bbd 1c91 ce3c 7e1b 7c3d 4604 033e
000002c0: 6a2b de3d ace9 a6bd fc44 3eb8 95c1 07bd
000002d0: c012 0dbe 31b7 6f3d 1c7d 00be a5e2 013e
000002e0: 40f4 083d d15a cdbc 2072 8dbe ea53 edbd
000002f0: 694a 36be 7b16 bdbd 3372 a4bd c9fd 893d
00000300: ce01 9c3d fe52 983d ee9e 013e 8800 eb3c
00000310: bf99 933d 1d78 e53d 0148 fcbd c1c1 e73c
00000320: 048f fbbc f3af 0a3e 7539 7c3e 99ed 30bc
00000330: 5b20 823d 6137 383e 5111 5f3c 224a 36bd
00000340: b524 893e 2d93 f03c 0557 333d b35a 123e
00000350: 4cbe 863d 9113 5fbd 4067 6c3e 332e 4bbe
00000360: d66c 273b 39a9 343e 7472 84bd 3d3c e73d
00000370: eb9e 5e3e 4abc a9bb f35e 533d 680f bb3d
00000380: 551f e0bd 8e8c 6fbd 030d b1bd 2cd6 1a3e
00000390: e24b f0be 3a09 40be 8307 85be cc06 07bd
000003a0: 94fd b93d 12ba 12bd 6198 213d 3c44 db3d
000003b0: 2ccc 3abc b914 3c3d 243b 6cbe 0953 bb3c
000003c0: 7edf 7c3c 9fe9 7a3e ded4 42bc 5154 3bbe
000003d0: 3a47 03be c3cb 39be 9ffa a5bc 27cd d4bd
000003e0: 307d f93d 942b 27be 6401 94bc 13e2 2dbe
000003f0: f3b9 5ebe ba3d 9e3e 6654 e9bd 29da 17bd

encoder_layers.block_0.transition.bias f4 [15]
0.1027798 0.17068501 -0.008544647 0.046740357 -0.017947871 -0.06615133 0.035362545 0.027387485
0.12797236 -0.033981934 -0.04417029 -0.029359266 -0.051215813 0.053437207 0.009186959
00000000: 377e d23d 0dc8 2e3e d9fe 0bbc d172 3f3d
00000010: 6a07 93bc 597a 87bd 51d8 103d b85b e03c
00000020: 300b 033e a430 0bbd e8eb 34bd d882 f0bc
00000030: acc7 51bd f9e0 5a3d e684 163c

encoder_layers.block_0.transition_deep.weight f4 [15, 15, 3, 3]
0.20476142 0.07860467 0.07645307 0.091164365 0.34273148 0.11006876 -0.06282976 0.2506043
0.0069745537 -0.03991481 0.004659974 0.048478723 -0.051233057 -0.14391725 -0.061200045 0.14966998
0.08706177 0.054235127 0.02868444 -0.12392012 0.08015083 0.024290742 0.009808718 0.019561555
-0.01626903 0.103209406 -0.025344662 0.14783336 -0.09904056 0.0049612904 -0.023029266 -0.24515702
-0.09422756 -0.0074477475 0.0015882072 -0.02545469 0.0402432 0.014126915 -0.07822668 0.070802905
0.4324028 0.09418177 0.06397617 0.0918177 -0.04027823 -0.13306504 -0.070294246 0.06761664
0.106939346 0.11526953 -0.07183214 -0.21814482 -0.009643093 -0.21139409 0.011691781 0.17005536
0.11191762 0.08626819 0.13837527 0.082549475 0.08879671 0.07912205 0.06439989 -0.16320601
-0.04856862 -0.16455725 0.09460891 -0.30232078 -0.24223474 -0.31086436 -0.051487196 0.14566413
0.19885474 0.099106304 0.16765748 -0.02326637 0.026748724 0.083516724 0.014696303 0.013979722
-0.046637792 0.032136414 0.08841243 -0.04158035 0.02682599 0.24123581 0.12391992 0.09512197
0.14316665 0.028334318 -0.07741828 -0.06938762 -0.00035843698 -0.23031054 -0.17765579 0.0023725964
0.007211228 -0.09362982 -0.111297965 -0.1566965 -0.026917815 -0.12518947 -0.06306375 -0.14246333
-0.079564266 -0.15896633 -0.12556839 -0.12782815 0.19256985 -0.14900348 0.071405604 -0.33834016
0.00860577 -0.18558113 0.048663277 -0.17421633 0.24094577 0.0005488836 0.152065 -0.023693034
0.02542908 0.31067643 0.0014075177 0.06230924 0.08598359 0.016089277 -0.060511723 -0.11569553
-0.07961707 -0.1498898 -0.26339993 -0.09989429 -0.051952194 -0.06567852 -0.07906258 -0.14862117
-0.022450563 0.23278722 -0.07230676 -0.06365159 -0.07591236 -0.2147661 -0.1884496 0.10514948
0.21066777 -0.047591656 0.08453928 -0.03282777 -0.06818608 -0.057373613 0.026478074 -0.06447971
0.06617743 -0.02635311 -0.11241153 -0.025576683 0.14606182 -0.009598028 -0.031131087 0.11677399
0.10571835 0.109897815 -0.03209282 0.008655629 0.24511829 -0.07159392 0.005829319 0.11817429
-0.100743264 0.017642256 0.1479217 0.018319005 0.05868819 -0.12836187 0.027680395 0.04653962
-0.05333075 -0.15752646 -0.15993565 -0.02324565 -0.001042956 0.16839291 -0.044607706 0.12781791
-0.060301136 -0.108022414 0.08334574 0.18343462 -0.12711594 0.2764167 0.0965163 0.15187609
-0.034981664 0.031857196 0.07551986 0.017505493 0.00011237103 0.06255272 -0.011294686 0.0137894815
0.023882767 0.17457357 -0.0031207015 0.022253485 0.07877499 -0.07600885 -0.064364314 -0.01842936
-0.051994544 -0.08901594 -0.0942115 -0.08739763 -0.03544926 -0.13415956 0.033424184 0.043385826
-0.21964031 -0.045646507 -0.05747567 0.024089774 0.12911771 0.07690365 0.009868179 0.1114318
-0.039293706 -0.08197546 0.08168875 -0.1360729 -0.050363645 0.08989061 0.02378579 -0.11479905
0.018573768 0.027492557 -0.121821284 -0.09119481 0.0112850545 -0.051897455 -0.06463906 0.008736771
0.098367415 0.060400367 -0.013908504 0.05521701 0.009187287 -0.050210636 0.07838429 0.21542448
-0.06501757 0.016636875 -0.03866462 -0.065670505 0.01719162 0.05091467 0.0047704014 0.072007775
00000000: faac 513e 7cfb a03d 6d93 9c3d 62b4 ba3d
00000010: 807a af3e bb6b e13d e4ac 80bd 354f 803e
00000020: cc8a e43b b67d 23bd b2b2 983b a091 463d
00000030: c1d9 51bd 0b5f 13be e6ac 7abd 1643 193e
00000040: 714d b23d a725 5e3d a1fb ea3c d5c9 fdbd
00000050: 1e26 a43d 61fd c63c bfb4 203c 8e3f a03c
00000060: a146 85bc 745f d33d 9c9f cfbc a161 173e
00000070: c7d5 cabd 5292 a23b dfa7 bcbc 710a 7bbe
00000080: 61fa c0bd 3c0c f4bb 642b d03a 5b86 d0bc
00000090: 0ed6 243d 9374 673c 4f35 a0bd 1d01 913d
000000a0: e663 dd3e 5fe2 c03d f005 833d eb0a bc3d
000000b0: c9fa 24bd 3442 08be 6ef6 8fbd 987a 8a3d
000000c0: 0403 db3d 6e12 ec3d bb1c 93bd 5b61 5fbe
000000d0: 10fe 1dbc b177 58be e28e 3f3c fe22 2e3e
000000e0: 1135 e53d 60ad b03d 3fb2 0d3e b30f a93d
000000f0: 0ddb b53d be0a a23d 17e4 833d 7a1f 27be
00000100: e4ef 46bd b281 28be 51c2 c13d cac9 9abe
00000110: 620c 78be 9d29 9fbe 3de4 52bd fa28 153e
00000120: 94a0 4b3e 3ff8 ca3d 67ae 2b3e 1d99 bebc
00000130: 2420 db3c d10a ab3d c3c8 703c 340b 653c
00000140: 4507 3fbd 79a1 033d 9311 b53d 2850 2abd
00000150: 2ec2 db3c 8506 773e bac9 fd3d 4fcf c23d
00000160: 479a 123e 5f1d e83c 7a8d 9ebd 191b 8ebd
00000170: 99ec bbb9 87d6 6bbe 66eb 35be 907d 1b3b
00000180: 2a4c ec3b fec0 bfbd 30f0 e3bd 0c75 20be
00000190: c082 dcbc ab31 00be 9127 81bd e8e1 11be
000001a0: 97f2 a2bd 12c8 22be 0095 00be 62e5 02be
000001b0: 0831 453e 5e94 18be 1a3d 923d ec3a adbe
000001c0: 37ff 0c3c fb08 3ebe 2553 473d c465 32be
000001d0: 7dba 763e f4e2 0f3a edb6 1b3e e517 c2bc
000001e0: a550 d03c fb10 9f3e 757c b83a f937 7f3d
000001f0: 2a18 b03d a9cd 833c 24db 77bd c7f1 ecbd
00000200: 460e a3bd b67c 19be 5bdc 86be 6195 ccbd
00000210: d3cb 54bd 7682 86bd 90eb a1bd 2630 18be
00000220: 3eea b7bc c65f 6e3e 9115 94bd c45b 82bd
00000230: f077 9bbd a5eb 5bbe eff8 40be 9c58 d73d
00000240: 4bb9 573e 78ef 42bd ee22 ad3d 6976 06bd
00000250: 25a5 8bbd 9800 6bbd 8ce8 d83c f00d 84bd
00000260: 0888 873d 7ae2 d7bc 0438 e6bd 3186 d1bc
00000270: 3b91 153e 0c41 1dbc 9f06 ffbc 3427 ef3d
00000280: dd82 d83d 1b12 e13d c373 03bd 57d0 0d3c
00000290: 4a00 7b3e d59f 92bd df03 bf3b 5d05 f23d
000002a0: 7c52 cebd 7e86 903c c978 173e bd11 963c
000002b0: 0763 703d 4b71 03be ffc1 e23c 54a0 3e3d
000002c0: 5871 5abd 9e4e 21be 2cc6 23be a96d bebc
000002d0: ccb3 88ba 316f 2c3e 92b6 36bd b3e2 023e
000002e0: 53fe 76bd db3a ddbd 2cb1 aa3d 49d6 3b3e
000002f0: ae2a 02be 7d86 8d3e 57aa c53d 6885 1b3e
00000300: ef48 0fbd b17c 023d 28aa 9a3d ae67 8f3c
00000310: bda8 eb38 a41b 803d 590d 39bc 47ed 613c
00000320: cba5 c33c 6ac3 323e af84 4cbb f14c b63c
00000330: c854 a13d 87aa 9bbd 70d1 83bd 2bf9 96bc
00000340: 3bf8 54bd fd4d b6bd f5f1 c0bd 87fd b2bd
00000350: 3e33 11bd 2061 09be cce7 083d 56b5 313d
00000360: 64e9 60be d5f7 3abd 9c6b 6bbd eb57 c53c
00000370: 6f37 043e a97f 9d3d 25ae 213c 5b36 e43d
00000380: 70f2 20bd c0e2 a7bd 6e4c a73d b256 0bbe
00000390: 1c4a 4ebd 9118 b83d 6bda c23c c41b ebbd
000003a0: 0428 983c 1238 e13c 707d f9bd 58c4 babd
000003b0: f3e4 383c 6d92 54bd 7c61 84bd ac24 0f3c
000003c0: db74 c93d 6066 773d 7ee0 63bc 3b2b 623d
000003d0: 4686 163c aba9 4dbd f187 a03d 3c98 5c3e
000003e0: ef27 85bd 0e4a 883c cb5e 1ebd 427e 86bd
000003f0: 71d5 8c3c e78b 503d 0751 9c3b d078 933d

encoder_layers.block_0.transition_deep.bias f4 [15]
0.03970927 -0.07923943 -0.047302425 -0.27125636 0.009208716 -0.23975205 -0.060636062 -0.025899846
-0.14657836 -0.01549881 -0.1764728 -0.0850092 -0.1886738 0.20317565 -0.23208234
00000000: 30a6 223d 4848 a2bd 30c0 41bd 1de2 8abe
00000010: 28e0 163c 9081 75be 855d 78bd ea2b d4bc
00000020: a318 16be b9ee 7dbc 49b5 34be 4e19 aebd
00000030: b433 41be 470d 503e fea6 6dbe

encoder_layers.block_0.conv.weight f4 [60, 15, 1, 1]
0.20356259 0.04958349 -0.033835743 -0.23592971 0.22130565 -0.083595045 -0.10710074 -0.2742899
0.017819893 -0.2941102 0.018055515 0.10667697 -0.1016008 -0.11188192 -0.016532313 -0.02374013
-0.14986661 -0.104101285 0.031308413 -0.0407595 -0.023852479 0.11096763 0.075689435 0.20498304
0.2339795 -0.11593051 0.10634344 -0.008620238 -0.0070469794 -0.16574934 0.15146716 0.24794538
0.17146528 -0.055178486 -0.1139297 -0.12688726 -0.03388884 0.10468552 0.00380013 -0.06348121
0.02503917 0.080256015 0.07190548 0.10916557 -0.23175493 -0.039783437 0.06723315 -0.08010371
-0.040735576 0.11641673 0.11019115 -0.16739476 0.03468626 0.13085182 -0.09648967 0.00716555
-0.07753726 0.17613545 -0.020335285 0.035915405 -0.057946924 0.3431054 0.16583951 -0.115813084
-0.02427763 0.0856233 0.084175125 0.04971473 -0.08825606 -0.08459294 -0.1454703 0.21600527
-0.055043273 0.1335882 -0.05542902 0.07313091 -0.21379755 0.031116238 0.2167167 0.18938303
0.049861137 -0.2534428 -0.21373764 -0.1383197 -0.22358076 -0.06430941 -0.1938229 -0.19382505
-0.09709061 0.038452294 0.1232864 0.050817214 -0.35686666 -0.11536074 0.045850348 0.030340515
0.047288205 0.038363073 -0.20098947 0.019563926 -0.10744329 0.27068934 -0.09630691 -0.09885345
0.10940379 -0.13887092 0.047270108 0.0727843 -0.44855535 0.034923006 -0.2850244 0.14148043
0.1813929 0.010201793 0.14651132 -0.15615842 -0.050499305 -0.11641055 0.10984186 0.21549247
-0.40940997 -0.06504167 -0.058232374 0.2300641 -0.10969779 -0.0026728597 0.0015430818 0.23261774
0.029314246 0.05181793 0.17497618 -0.08446015 0.11342933 -0.36441582 0.055146854 -0.019405935
0.23809835 -0.0016428402 -0.16136618 0.5346508 -0.047858663 -0.037653625 0.12745447 -0.04493383
-0.11445556 -0.13665687 0.17922622 0.16639693 0.22283475 0.03657722 -0.44922498 0.14441904
0.19948474 0.22248748 -0.26716217 0.012844754 0.10561762 0.18084164 0.07336264 0.122598246
0.12259798 0.021331524 0.00069037185 -0.017420013 -0.07536839 -0.1519047 -0.012260358 0.06737225
-0.07181358 -0.11919796 0.035561845 0.012372565 0.35155275 0.037298013 0.029413514 0.2404716
0.034666188 0.022708049 -0.14033552 -0.19463025 -0.1246661 0.15200774 0.33418685 0.108547345
0.14271481 -0.007136762 0.17290209 0.067382134 -0.00134733 -0.14574775 -0.1428479 -0.07514762
0.17038643 0.10831289 0.11501485 -0.12024259 0.19325073 0.035969637 0.10250721 0.040691797
0.17803957 -0.052872047 0.38219598 -0.024332952 0.0050530345 0.029931476 0.1032524 0.13028139
0.13908912 0.006089289 0.44085932 -0.24159913 -0.6857635 0.02501636 -0.007777337 0.26439762
0.10731777 -0.7596865 -0.048601374 -0.23827733 -0.5912904 -0.25435847 -0.4309789 -0.25086385
0.045002673 -0.105438225 -0.017755961 -0.11817993 0.06343356 0.13926259 -0.0060210335 0.08739367
-0.09447093 0.19578375 0.10452575 0.24942225 0.005999518 -0.019643573 -0.36248928 0.05712053
0.19677542 0.23365657 -0.19609182 0.0155722 -0.016549053 -0.10865644 -0.056389213 -0.29324165
0.13740896 -0.117133796 0.027341409 0.012853845 -0.043575287 -0.042113237 0.13541338 -0.18174882
00000000: b672 503e 0f18 4b3d 5997 0abd 8f97 71be
00000010: f39d 623e e133 abbd a257 dbbd ba6f 8cbe
00000020: 06fb 913c 9d95 96be 29e9 933c 7579 da3d
00000030: 1514 d0bd 5922 e5bd c66e 87bc a97a c2bc
00000040: a276 19be 0e33 d5bd 403d 003d 6ff3 26bd
00000050: 4666 c3bc ff42 e33d 1003 9b3d 13e7 513e
00000060: 5298 6f3e fa6c edbd 97ca d93d e63b 0dbc
00000070: 59ea e6bb 32ba 29be 351a 1b3e 65e5 7d3e
00000080: 9894 2f3e d602 62bd f953 e9bd bcee 01be
00000090: 06cf 0abd 5d65 d63d 9a0b 793b 7002 82bd
000000a0: f21e cd3c 445d a43d 2e43 933d 3392 df3d
000000b0: 2a51 6dbe f5f3 22bd 89b1 893d 6a0d a4bd
000000c0: 59da 26bd e56b ee3d e6ab e13d 8869 2bbe
000000d0: 2e13 0e3d 05fe 053e 609c c5bd fdcc ea3b
000000e0: dbcb 9ebd da5c 343e 2f96 a6bc 081c 133d
000000f0: c159 6dbd 83ab af3e d5d1 293e 692f edbd
00000100: e1e1 c6bc 455b af3d 0264 ac3d aca1 4b3d
00000110: 98bf b4bd 103f adbd 2bf6 14be 7c30 5d3e
00000120: 0e75 61bd 58cb 083e 8a09 63bd a9c5 953d
00000130: bfed 5abe 7be7 fe3c fcea 5d3e a0ed 413e
00000140: 313b 4c3d 41c3 81be 0ade 5abe aea3 0dbe
00000150: 5bf2 64be a7b4 83bd 8379 46be 137a 46be
00000160: 71d7 c6bd 2780 1d3d 957d fc3d b625 503d
00000170: 3ab7 b6be 4042 ecbd 93cd 3b3d ac8c f83c
00000180: 47b1 413d 9922 1d3d 2fd0 4dbe 8744 a03c
00000190: 3a0b dcbd cb97 8a3e 8f3c c5bd ad73 cabd
000001a0: 180f e03d 2e34 0ebe 4d9e 413d ef0f 953d
000001b0: 0ca9 e5be 6d0b 0f3d b8ee 91be 3fe0 103e
000001c0: 0fbf 393e 6c25 273c 1007 163e fee7 1fbe
000001d0: 5cd8 4ebd a868 eebd c5f4 e03d 0faa 5c3e
000001e0: 2f9e d1be 9134 85bd 1285 6ebd ec95 6b3e
000001f0: 3ca9 e0bd 252b 2fbb 3c41 ca3a 5833 6e3e
00000200: 6e24 f03c 0a3f 543d f52c 333e 71f9 acbd
00000210: a34d e83d b694 babe abe1 613d 32f9 9ebc
00000220: 0ed0 733e 9254 d7ba 2d3d 25be e0de 083f
00000230: 7207 44bd b03a 1abd 6d83 023e 890c 38bd
00000240: ad67 eabd c7ef 0bbe 1487 373e f563 2a3e
00000250: cb2e 643e ffd1 153d d100 e6be 96e2 133e
00000260: ba45 4c3e c2d3 633e 7bc9 88be ce72 523c
00000270: 0d4e d83d 8d2e 393e 273f 963d ca14 fb3d
00000280: a614 fb3d 73bf ae3c 12fa 343a 6ab4 8ebc
00000290: be5a 9abd e88c 1bbe abdf 48bc 76fa 893d
000002a0: 0013 93bd 0f1e f4bd 4ca9 113d 4db6 4a3c
000002b0: b9fe b33e cdc5 183d 9cf4 f03c 303e 763e
000002c0: 22fe 0d3d 3b06 ba3c 1db4 0fbe 274d 47be
000002d0: f150 ffbd eba7 1b3e 8a1a ab3e 124e de3d
000002e0: d523 123e 80db e9bb 3f0d 313e a5ff 893d
000002f0: e598 b0ba e63e 15be b846 12be ffe6 99bd
00000300: c879 2e3e 26d3 dd3d e88c eb3d bf41 f6bd
00000310: 85e3 453e e654 133d 4def d13d 71ac 263d
00000320: 0150 363e 5c90 58bd 31af c33e e655 c7bc
00000330: ed93 a53b db32 f53c ff75 d33d 7c68 053e
00000340: 616d 0e3e a988 c73b 50b8 e13e c365 77be
00000350: 328e 2fbf 1cef cc3c 08d9 febb 205f 873e
00000360: 6bc9 db3d d17a 42bf 3c12 47bd f9fe 73be
00000370: cf5e 17bf 463b 82be 44a9 dcbe 3a71 80be
00000380: b954 383d ffef d7bd f374 91bc 5208 f2bd
00000390: 74e9 813d da9a 0e3e 174c c5bb 74fb b23d
000003a0: fa79 c1bd 897b 483e 9911 d63d 8c68 7f3e
000003b0: 9b97 c43b 8feb a0bc 3298 b9be 38f7 693d
000003c0: 7f7f 493e ab43 6f3e 4bcc 48be 8a22 7f3c
000003d0: e191 87bc 4587 debd 60f8 66bd c523 96be
000003e0: efb4 0c3e d8e3 efbd 17fb df3c ef98 523c
000003f0: 007c 32bd ee7e 2cbd cea9 0a3e 5d1c 3abe

encoder_layers.block_0.conv.bias f4 [60]
0.21299823 0.11553494 0.18510175 0.053919505 -0.12714854 0.035997093 0.03475681 0.08126352
-0.018548332 0.045479227 -0.019027568 -0.049926385 0.08830701 -0.4935098 -0.39861324 0.2819491
-0.09006941 0.46412623 0.14186366 -0.15887253 0.33677894 -0.03499671 0.3746067 0.09890845
-0.48104656 0.52682924 -0.11040121 -0.035844956 -0.002654833 -0.30926606 0.18685158 -0.627713
0.11832211 0.014083475 0.07774578 -0.22635207 0.015045376 -0.059187226 -0.08467885 -0.13980941
-0.08630968 0.1161727 -0.2614375 -0.3535737 0.095144264 -0.10349035 -0.13403422 0.3018694
-0.1558796 -0.032117616 -0.010299015 0.08054747 0.14181638 -0.13957046 0.049356025 -0.023021212
-0.08469188 -0.035392523 0.031882748 0.10551011
00000000: 351c 5a3e 959d ec3d 508b 3d3e b3da 5c3d
00000010: 3a33 02be b071 133d 285d 0e3d 7d6d a63d
00000020: acf2 97bc 6d48 3a3d b4df 9bbc 9c7f 4cbd
00000030: 4eda b43d 51ad fcbe 0917 ccbe a25b 903e
00000040: 5076 b8bd f4a1 ed3e b544 113e 7baf 22be
00000050: 4a6e ac3e b658 0fbd 73cc bf3e 8390 ca3d
00000060: bc4b f6be 48de 063f 081a e2bd 29d2 12bd
00000070: b5fc 2dbb 1f58 9ebe 0556 3f3e cdb1 20bf
00000080: dd52 f23d 60be 663c 2e39 9f3d d6c8 67be
00000090: e180 763c 4e6e 72bd 1b6c adbd 332a 0fbe
000000a0: 21c3 b0bd f4eb ed3d 23db 85be 9d07 b5be
000000b0: ffda c23d c0f2 d3bd 4440 09be a08e 9a3e
000000c0: e79e 1fbe c38d 03bd 33bd 28bc 12f6 a43d
000000d0: 5038 113e 8feb 0ebe 8b29 4a3d fb96 bcbc
000000e0: f072 adbd c0f7 10bd 7c97 023d af15 d83d

encoder_layers.block_1.transition.weight f4 [15, 30, 3, 3]
0.020152772 -0.012370722 -0.014724332 0.028893832 -0.011872068 -0.046102628 -0.028808905 -0.06448584
-0.058308084 -0.050372247 -0.045209635 -0.17117946 -0.000825735 -0.020423505 -0.11128737 -0.1476649
0.003334034 -0.13543831 -0.10528712 -0.12298444 -0.048616692 -0.106934875 -0.32301244 -0.089742616
0.022660583 -0.1111848 0.011133555 -0.037126604 -0.018785222 -0.017217671 -0.05433128 0.092608586
-0.09298256 0.022871044 -0.07578679 -0.018522995 0.04976183 0.014507621 0.06573509 -0.0123467045
-0.03410996 0.00805659 0.05751717 0.05003233 0.05767609 0.025061022 0.010359758 0.059782904
-0.029013759 -0.03901769 0.020078816 0.0047514234 -0.011335841 0.04371356 -0.0057893116 0.045698017
0.0897797 -0.0010810385 -0.06517193 0.05997036 0.010997452 0.07270967 0.009878572 0.06963804
0.12163512 0.06200673 0.14485642 0.14561771 0.0425638 0.07262614 0.0721859 0.026375163
-0.01634408 -0.027658256 -0.09242737 0.06050703 -0.040084016 -0.03067622 0.050898504 -0.012580804
-0.028577462 -0.017236048 0.061211504 0.08260384 -0.030617138 -0.13686647 0.015712617 -0.029345755
-0.015314141 0.04431694 0.06203279 -0.006852935 0.064932406 -0.025490634 -0.1457016 -0.041974917
0.057395626 -0.010172026 0.19034962 -0.051128615 -0.05587063 -0.0011338769 -0.033565104 0.022467371
-0.0831309 0.0055682114 -0.09091284 0.04779921 0.008986883 0.042307746 0.027636576 0.0032515132
0.10436329 0.00788558 -0.082233526 0.00021953993 -0.06589889 -0.030459661 0.051727705 -0.02428349
0.09225129 0.12721133 0.09186742 -0.037225943 0.046712097 0.047639538 0.0045303935 0.040435735
0.050171766 0.00920901 0.06279023 0.13170402 0.02060441 0.07328233 -0.0016650773 -0.01685054
-0.0059483466 -0.01736436 -0.069153145 -0.067710675 -0.062051497 -0.053028937 -0.07772004 -0.04619585
0.04867356 0.3140029 0.15435447 0.07021222 0.35858202 0.3882465 0.19743562 0.14261745
0.13168961 0.102323964 -0.058743846 0.008568596 -0.04101423 0.0070101367 -0.07558876 0.03929157
-0.042612802 0.016369868 -0.009040095 -0.09512273 -0.1709676 -0.043882154 0.13598089 -0.08501785
-0.08506151 0.033957552 -0.08298966 -0.07675943 -0.15716979 -0.10258275 -0.13119553 -0.27666095
-0.07297517 -0.0676823 -0.051699996 -0.022137882 -0.11476998 -0.061426878 -0.081224 0.028850354
-0.17464767 -0.019776748 -0.108044535 -0.018301472 -0.104199685 -0.13180193 -2.530902e-05 -0.08315674
0.10895114 -0.029300615 0.084660806 -0.18485594 0.14419705 -0.0916421 -0.09093181 -0.04866916
-0.091953486 -0.066619605 -0.112556495 -0.13554223 -0.07560076 -0.06907716 -0.07192443 0.1367386
0.15588607 0.047244504 0.08498242 0.115792684 0.07124032 0.07577471 0.048472717 0.022219028
0.18963362 0.48688745 0.17321394 0.38635746 0.8290469 0.43556985 0.06804179 0.37187782
-0.05108758 -0.04937808 0.068313785 0.22152625 0.1060055 -0.025386266 0.010095112 0.11111046
0.0012659169 0.12595336 0.16834609 0.025620002 0.1135715 -0.064117074 -0.14520068 -0.055286255
0.1572315 0.00787462 0.14763764 0.0011741144 -0.07718695 0.04694828 -0.110988244 -0.17615795
-0.016754238 -0.019263037 -0.07382769 -0.070006706 0.06303425 -0.12413588 -0.030353842 -0.18149598
00000000: 6d17 a53c 92ae 4abc 533e 71bc c2b2 ec3c
00000010: 1083 42bc 1cd6 3cbd a700 ecbc 2711 84bd
00000020: 75d4 6ebd 2153 4ebd bd2d 39bd ab49 2fbe
00000030: 2376 58ba 324f a7bc a2ea e3bd 7835 17be
00000040: cf7f 5a3b 57b0 0abe c6a0 d7bd 44df fbbd
00000050: 4c22 47bd ac00 dbbd e361 a5be faca b7bd
00000060: b0a2 b93c dbb4 e3bd 8469 363c 1112 18bd
00000070: 77e3 99bc 130c 8dbc 7a8a 5ebd 92a9 bd3d
00000080: a46d bebd 0e5c bb3c 1b36 9bbd 89bd 97bc
00000090: 10d3 4b3d 5fb1 6d3c 1ea0 863d d549 4abc
000000a0: e3b6 0bbd caff 033c 2097 6b3d b3ee 4c3d
000000b0: c43d 6c3d c64c cd3c f9bb 293c ebde 743d
000000c0: 43ae edbc 03d1 1fbd 547c a43c d4b1 9b3b
000000d0: f7b9 39bc fd0c 333d 44b4 bdbb d82d 3b3d
000000e0: 6bde b73d a2b1 8dba dc78 85bd 7ba3 753d
000000f0: a82e 343c cfe8 943d bcd9 213c 649e 8e3d
00000100: d51b f93d c5fa 7d3d 3e55 143e cf1c 153e
00000110: 6157 2e3d 04bd 943d 33d6 933d ba10 d83c
00000120: 05e4 85bc 9193 e2bc 904a bdbd 38d6 773d
00000130: 232f 24bd b24c fbbc f37a 503d b71f 4ebc
00000140: 481b eabc 9d32 8dbc eab8 7a3d 342c a93d
00000150: cbd0 fabc b926 0cbe bfb7 803c 8266 f0bc
00000160: 2ae8 7abc ae85 353d 1816 7e3d 968e e0bb
00000170: 48fb 843d bcd1 d0bc cd32 15be e4ed 2bbd
00000180: ad17 6b3d 92a8 26bc 03eb 423e 3d6c 51bd
00000190: 9ad8 64bd 989e 94ba 907b 09bd 7e0d b83c
000001a0: 8940 aabd 8b75 b63b 8330 babd 1bc9 433d
000001b0: b83d 133c e34a 2d3d 1a66 e23c 5717 553b
000001c0: 6cbc d53d 8532 013c 0d6a a8bd 4d34 6639
000001d0: fff5 86bd 8a86 f9bc 6ee0 533d 2bee c6bc
000001e0: 3fee bc3d b043 023e fc24 bc3d 3b7a 18bd
000001f0: 2f55 3f3d ad21 433d b273 943b f19f 253d
00000200: e980 4d3d 63e1 163c 2a98 803d 6bdd 063e
00000210: 94ca a83c 0c15 963d b93e daba 250a 8abc
00000220: 59ea c2bb b43f 8ebc 2aa0 8dbd e5ab 8abd
00000230: b629 7ebd df34 59bd af2b 9fbd dc37 3dbd
00000240: ed5d 473d fdc4 a03e 190f 1e3e 6dcb 8f3d
00000250: 1098 b73e 3fc8 c63e 902c 4a3e 4f0a 123e
00000260: a4d9 063e 3a8f d13d 639d 70bd 4c63 0c3c
00000270: 8afe 27bd 4ab5 e53b 48ce 9abd 33f0 203d
00000280: c38a 2ebd 1a1a 863c e81c 14bc b5cf c2bd
00000290: 2112 2fbe c6bd 33bd 933e 0b3e d71d aebd
000002a0: bb34 aebd 1317 0b3d 7cf6 a9bd 0c34 9dbd
000002b0: 1ef1 20be e816 d2bd 1f58 06be 81a6 8dbe
000002c0: 0274 95bd 059d 8abd 60c3 53bd 815a b5bc
000002d0: 860c ebbd c09a 7bbd c558 a6bd 9457 ec3c
000002e0: d7d6 32be d902 a2bc 7446 ddbd f8ec 95bc
000002f0: a566 d5bd 16f7 06be b54e d4b7 154e aabd
00000300: c621 df3d d807 f0bc a562 ad3d e04a 3dbe
00000310: 64a8 133e daae bbbd 753a babd 5059 47bd
00000320: 1c52 bcbd dc6f 88bd 0584 e6bd 95cb 0abe
00000330: 92d4 9abd 5378 8dbd 1e4d 93bd 3405 0c3e
00000340: 99a0 1f3e 7483 413d 430b ae3d b724 ed3d
00000350: 72e6 913d c52f 9b3d 548b 463d ae04 b63c
00000360: 512f 423e 5049 f93e ff5e 313e a5d0 c53e
00000370: 6b3c 543f 0303 df3e 7e59 8b3d c566 be3e
00000380: 3641 51bd ab40 4abd 19e8 8b3d c7d7 623e
00000390: 6919 d93d dcf6 cfbc f865 253c e18d e33d
000003a0: 1fed a53a ebf9 003e eb62 2c3e 0ae1 d13c
000003b0: 2d98 e83d d04f 83bd 7daf 14be d773 62bd
000003c0: 4b01 213e 8d04 013c 522e 173e bee4 993a
000003d0: 3114 9ebd d74c 403d ce4d e3bd c062 34be
000003e0: 2f40 89bc 84cd 9dbc f932 97bd ad5f 8fbd
000003f0: 1a18 813d f43a febd 9fa8 f8bc 15da 39be

encoder_layers.block_1.transition.bias f4 [15]
-0.11443995 -0.030637417 -0.03871092 -0.015744597 -0.054958493 -0.03862812 -0.009006967 -0.039982874
-0.11254563 -0.0611381 -0.01376072 -0.031233316 0.011614983 -0.09335194 -0.007943433
00000000: 7e5f eabd 52fb fabc 578f 1ebd d0fa 80bc
00000010: 281c 61bd 8538 1ebd f591 13bc 15c5 23bd
00000020: 537e e6bd f26b 7abd a574 61bc 03dd ffbc
00000030: c54c 3e3c 4d2f bfbd 2c25 02bc

encoder_layers.block_1.transition_deep.weight f4 [15, 15, 3, 3]
0.023175633 0.09518606 -0.00081717083 0.02344135 0.08245096 0.10152042 0.077807896 0.025280714
-0.031710163 -0.04586119 0.038954202 0.014840209 0.15764172 0.23543921 0.16624609 0.112992845
-0.034472995 -0.018963574 -0.0791067 0.0597635 0.0033284323 0.042812955 0.28930256 0.020922689
0.0055659926 0.16497806 0.0040575294 0.09143646 0.018563142 0.07672174 -0.02772125 0.09174762
0.049590565 0.04489627 0.041449003 -0.040156364 -0.012626255 -0.36879095 0.10519723 -0.101687625
0.34065446 -0.30323172 -0.026156558 -0.16889045 -0.005487601 0.027459629 -0.05409912 0.112717785
-0.047459908 -0.09363184 -0.0062890286 0.034654617 -0.04441856 0.08321771 -0.016071647 -0.046872783
-0.03798406 0.029704766 -0.052406684 -0.120358646 0.085843585 -0.009418972 -0.017074205 -0.11929627
0.017099362 -0.25582615 0.0016726991 0.056159124 0.12614296 -0.054579195 0.079075985 -0.10543315
0.034192294 0.13093281 -0.045734353 -0.034622595 0.012316217 -0.019929891 -0.20040761 -0.011740341
-0.026028974 0.09199916 0.013188635 0.11254842 0.021032982 -0.4664309 0.18680169 0.07644993
0.17245294 0.12199923 -0.075361684 0.12628826 -0.16180415 0.10701045 -0.16508232 0.045449104
-0.18670937 0.025859186 -0.15457994 -0.062793136 -0.033779573 -0.070856154 0.05259321 -0.4475333
-0.009717174 -0.17770053 0.10971456 -0.05877832 0.06777054 0.07676329 -0.12164996 0.1514011
0.29824886 0.00058758835 0.050020065 -0.09076708 0.055005297 -0.08616047 0.24596511 -0.30279747
0.24782096 0.18424638 -0.014210653 -0.14811327 0.10920242 -0.32558087 -0.090982884 -0.2571135
-0.09421293 -0.4101276 0.16988838 -0.081559874 0.025619434 -0.089003496 0.11216966 -0.15959427
0.0593913 -0.14909403 0.0071791504 0.17180568 -0.012115207 -0.15635897 -0.033187553 -0.0968558
-0.10240694 -0.23176946 0.1272236 0.051371247 -0.009904303 0.13392632 -0.16397485 0.03046497
-0.00392897 0.13397723 0.03764611 -0.032096803 0.008666477 0.13247617 -0.17842054 -0.059388876
-0.13256592 0.05546469 0.08347711 0.13327606 0.024749098 0.04652564 0.06762614 -0.03134698
0.05499437 0.0952139 0.02002612 0.032841638 -0.03204885 -0.024946049 0.07492244 -0.00624274
-0.03516985 -0.01239584 0.12751834 -0.052755665 0.124338284 0.011009982 0.026546193 -0.0068010143
-0.048106767 -0.020078676 0.17208467 -0.051679194 0.044767488 0.09823734 -0.029265331 0.1502218
0.0014567154 -0.038081635 0.14304323 -0.08209369 0.06315719 0.07591618 0.04382264 0.014710515
0.14031643 0.007906217 -0.05124743 -0.059061132 -0.021504756 0.04910117 -0.22632766 -0.118579164
-0.4229858 0.027089356 -0.1427034 0.09291468 -0.24927549 0.100623906 -0.05690993 0.051055603
0.049605265 0.052662723 -0.032760072 0.16091374 -0.17654105 0.01928177 0.04471021 0.09172753
0.0063165813 0.20875679 -0.19409594 -0.112402424 -0.098950915 0.095191985 -0.19963841 0.007324274
-0.09523356 -0.047853816 -0.07751156 -0.070721395 0.031629406 -0.14210239 -0.053607315 -0.044325374
0.02824784 -0.099566795 0.09134788 0.09990936 -0.08177538 0.07016216 -0.23794998 -0.44994697
-0.13800743 -0.10556911 -0.17510194 0.23777772 -0.037642125 0.08562397 0.12530696 0.0054318225
00000000: d3da bd3c e9f0 c23d 6837 56ba 1308 c03c
00000010: 0ddc a83d f0e9 cf3d bf59 9f3d 8019 cf3c
00000020: 84e2 01bd f1d8 3bbd 718e 1f3d 5924 733c
00000030: d56c 213e fa16 713e 6a3c 2a3e cb68 e73d
00000040: 8e33 0dbd 7f59 9bbc b202 a2bd 92ca 743d
00000050: d421 5a3b a35c 2f3d 771f 943e 0f66 ab3c
00000060: ee62 b63b 02f0 283e 06f5 843b 0a43 bb3d
00000070: bb11 983c 4a20 9d3d ad17 e3bc 2de6 bb3d
00000080: 7a1f 4b3d 27e5 373d 6ec6 293d 007b 24bd
00000090: 5ade 4ebc 2bd2 bcbe a571 d73d 9a41 d0bd
000000a0: 436a ae3e 3041 9bbe 4746 d6bc 9ef1 2cbe
000000b0: 55d1 b3bb 04f3 e03c 0a97 5dbd 95d8 e63d
000000c0: 5265 42bd 0dc2 bfbd 3214 cebb 00f2 0d3d
000000d0: 3cf0 35bd 0c6e aa3d b0a8 83bc adfd 3fbd
000000e0: 2c95 1bbd 6957 f33c 64a8 56bd 987e f6bd
000000f0: c3ce af3d 0852 1abc 34df 8bbc 9a51 f4bd
00000100: f613 8c3c a5fb 82be 783e db3a 1c07 663d
00000110: 9f2b 013e 6f8e 5fbd 97f2 a13d 56ed d7bd
00000120: 380d 0c3d 4013 063e f253 3bbd 6cd0 0dbd
00000130: f5c9 493c 0344 a3bc a737 4dbe 8f5a 40bc
00000140: b73a d5bc 0e6a bc3d 2515 583c c97f e63d
00000150: 5c4d ac3c 08d0 eebe f148 3f3e c891 9c3d
00000160: 8197 303e bbda f93d 3a57 9abd b651 013e
00000170: fdaf 25be 4b28 db3d 570b 29be d728 3a3d
00000180: be30 3fbe a5d6 d33c 344a 1ebe b099 80bd
00000190: 735c 0abd 081d 91bd fa6b 573d 1623 e5be
000001a0: c834 1fbc 21f7 35be 07b2 e03d 89c1 70bd
000001b0: 48cb 8a3d 1236 9d3d 9d23 f9bd e408 1b3e
000001c0: 13b4 983e 6308 1a3a d7e1 4c3d 17e4 b9bd
000001d0: 3c4d 613d e774 b0bd 47de 7b3e 4508 9bbe
000001e0: c7c4 7d3e 15ab 3c3e ccd3 68bc 01ab 17be
000001f0: 85a5 df3d 89b2 a6be 3c55 babd 61a4 83be
00000200: b5f2 c0bd 3ffc d1be 38f7 2d3e dd08 a7bd
00000210: d9df d13c 7747 b6bd 35b9 e53d ae6c 23be
00000220: 4b44 733d 1bac 18be 143f eb3b d4ed 2f3e
00000230: dc7e 46bc 911c 20be acef 07bd 555c c6bd
00000240: bbba d1bd f954 6dbe e746 023e a86a 523d
00000250: a845 22bc fb23 093e 06e9 27be ac91 f93c
00000260: 97be 80bb 5431 093e cf32 1a3d f077 03bd
00000270: d7fd 0d3c d5a7 073e e0b3 36be c041 73bd
00000280: 5cbf 07be f12e 633d 0cf6 aa3d 8579 083e
00000290: 9fbe ca3c ab91 3e3d 937f 8a3d b165 00bd
000002a0: c741 613d 81ff c23d d10d a43c f484 063d
000002b0: a845 03bd a85b ccbc f070 993d e68f ccbb
000002c0: 430e 10bd ec17 4bbc 2b94 023e 5316 58bd
000002d0: 12a5 fe3d 3663 343c 6777 d93c 0bdb debb
000002e0: 9a0b 45bd 097c a4bc f736 303e 90ad 53bd
000002f0: 1d5e 373d a930 c93d d9bd efbc bed3 193e
00000300: 42ef be3a 7dfb 1bbd ed79 123e bd20 a8bd
00000310: 8f58 813d f179 9b3d 5e7f 333d 5f04 713c
00000320: 1caf 0f3e 1489 013c d3e8 51bd 16ea 71bd
00000330: be2a b0bc 4f1e 493d 70c2 67be a2d9 f2bd
00000340: 9891 d8be 7fea dd3c d720 12be 0d4a be3d
00000350: 1342 7fbe e813 ce3d 631a 69bd ae1f 513d
00000360: e42e 4b3d deb4 573d 6d2f 06bd 92c6 243e
00000370: 2dc7 34be cdf4 9d3c 0e22 373d a5db bb3d
00000380: 53fb ce3b 57c4 553e 16c1 46be 3e33 e6bd
00000390: c7a6 cabd 04f4 c23d 036e 4cbe 7700 f03b
000003a0: d009 c3bd 5d02 44bd 61be 9ebd 61d6 90bd
000003b0: d68d 013d 4a83 11be 5893 5bbd 868e 35bd
000003c0: 0468 e73c ade9 cbbd 9914 bb3d 479d cc3d
000003d0: da79 a7bd 2eb1 8f3d 29a9 73be 735f e6be
000003e0: d251 0dbe 9e34 d8bd ec4d 33be 017c 733e
000003f0: a12e 1abd 9f5b af3d 7850 003e 6efd b13b

encoder_layers.block_1.transition_deep.bias f4 [15]
-0.18233277 -0.060204633 0.2374055 -0.1539739 -0.14239103 -0.10800668 -0.1191944 -0.04686928
-0.16286072 0.032183312 0.011606965 -0.35005343 -0.05245373 -0.26161817 -0.011289205
00000000: 71b5 3abe 2299 76bd 6d1a 733e 56ab 1dbe
00000010: f4ce 11be 9b32 ddbd 321c f4bd 01fa 3fbd
00000020: f6c4 26be a6d2 033d 242b 3e3c 343a b3be
00000030: b9d9 56bd d1f2 85be 5cf6 38bc

encoder_layers.block_1.conv.weight f4 [60, 15, 1, 1]
-0.3491467 -0.7723909 0.046771556 -0.47959623 0.13346484 -0.51371 0.5521825 0.12762053
0.30509323 -0.26193064 -0.077455014 0.025737913 0.2882184 0.4778178 0.014537153 -0.1885865
-0.06823995 0.27927163 -0.15816341 -0.06357694 -0.07571193 -0.13042472 0.07219742 -0.3409231
0.07318301 0.07378966 -0.19887005 -0.102269985 -0.2532397 -0.0952659 0.685173 0.19736254
0.19441676 -0.15663499 -0.29671964 -0.318577 0.39411986 0.6102915 0.24409306 0.043340612
0.28055984 0.22694598 -0.24493691 0.594286 -0.27553576 -0.19335203 0.043092564 -0.2813118
0.35182527 0.07796464 -0.39365983 -0.21597181 0.28455076 0.35627025 -0.23524551 0.3238884
-0.082962595 0.4155398 0.21226388 -0.39942145 0.1489433 0.2567238 0.10364733 0.3655214
-0.13262714 -0.046643957 -0.5213334 -0.10194242 -0.542538 0.28944027 0.21218841 -0.35579598
0.07552551 -0.50214 0.13623156 -0.06581144 -0.44178644 0.22296737 -0.33158526 -0.05700836
0.34786406 0.21583746 0.6031304 0.21014865 -0.17788918 0.2239807 -0.20259489 0.2148926
0.16719455 -0.045955595 -0.20735566 -0.5860237 0.02099929 -0.06991167 -0.099269606 0.114902206
-0.31059453 0.14927311 0.14711116 -0.05561544 0.09803508 -0.32633138 0.745524 0.53043187
-0.110409684 0.27536523 -0.046161756 0.13054043 0.0566068 -0.23024102 -0.06187094 -0.14613238
0.012480822 -0.17702515 -0.06732855 0.44007364 -0.071981564 -0.35370553 -0.35670212 -0.032620553
0.06623087 0.0017302949 0.06055333 0.10103412 0.17052922 0.37692052 -0.044264007 0.092650905
0.04045256 -0.3104366 -0.314426 0.057424586 0.10239796 -0.013985764 -0.14905784 0.13759145
-0.057829835 0.274929 -0.13336763 -0.03465151 0.047442667 0.164954 -0.024292458 0.2042376
0.10226976 -0.10221353 0.14243136 -0.07692358 0.09916598 0.25203758 0.22973004 0.41871965
-0.09983961 -0.095867515 0.33218038 0.34475526 -0.011982756 -0.33851948 0.110697076 0.29705638
-0.21598902 0.10278267 -0.08807649 -0.023335058 -0.07133981 -0.30383968 -0.16014099 -0.030841563
-0.13688698 0.07093812 0.11178328 -0.16190185 0.18100363 0.022198938 -0.09930652 0.22342747
-0.1894039 -0.15529577 -0.043165468 0.23303999 -0.22671801 -0.056485835 -0.072681576 -0.5467207
0.1763038 -0.32947773 -0.14705405 0.23630625 -0.19194236 -0.42503777 0.044259116 -0.1022653
0.10722322 0.07715623 -0.2970706 -0.09948664 0.031267777 0.031736743 0.18267846 0.04545293
-0.31098777 0.20795164 -0.04586231 0.14569095 0.02213726 -0.09408417 0.25078243 0.082491115
0.2372554 -0.48048946 -0.3110402 0.040389054 0.24180652 0.5330367 -0.46148998 -0.5853355
0.10574943 0.106640026 -0.24993718 0.22947702 -0.2398038 -0.017259877 0.23269823 0.03830785
-0.28148738 -0.031584226 0.17377746 0.24347639 -0.07132051 -0.16657443 0.21107265 -0.17065872
-0.06173483 -0.035981875 -0.15657717 -0.124509536 0.030668553 -0.011491986 0.038463518 -0.102113046
0.1474148 0.08426249 -0.067334995 0.16269705 -0.12108128 -0.040658526 -0.02453893 -0.4293944
-0.09501399 0.19952944 -0.12082248 0.0064255027 0.0052843965 -0.20891795 -0.113576375 -0.023090292
00000000: 5bc3 b2be 69bb 45bf 8893 3f3d a38d f5be
00000010: 02ab 083e 8082 03bf d55b 0d3f f5ae 023e
00000020: 2e35 9c3e c61b 86be bca0 9ebd 51d8 d23c
00000030: 5d91 933e 89a4 f43e 3d2d 6e3c d21c 41be
00000040: 63c1 8bbd b1fc 8e3e 97f5 21be a034 82bd
00000050: db0e 9bbd 0f8e 05be 3edc 933d 798d aebe
00000060: f9e0 953d 091f 973d 97a4 4bbe ed72 d1bd
00000070: a2a8 81be c51a c3bd 7f67 2f3f 6819 4a3e
00000080: 3015 473e ec64 20be a3eb 97be 861c a3be
00000090: 14ca c93e 103c 1c3f 88f3 793e ed85 313d
000000a0: 8aa5 8f3e 8764 683e bed0 7abe 2123 183f
000000b0: 0613 8dbe 13fe 45be d481 303d 1a08 90be
000000c0: 7122 b43e edab 9f3d c88d c9be b727 5dbe
000000d0: a3b0 913e 0e69 b63e 33e4 70be b3d4 a53e
000000e0: 4be8 a9bd a2c1 d43e b45b 593e f880 ccbe
000000f0: 9884 183e 4d71 833e 0d45 d43d 9f25 bb3e
00000100: 69cf 07be bc0d 3fbd 1b76 05bf 30c7 d0bd
00000110: c5e3 0abf 8431 943e eb47 593e e42a b6be
00000120: 1ead 9a3d 3f8c 00bf 4980 0b3e 26c8 86bd
00000130: d531 e2be 8f51 643e 8bc5 a9be 9981 69bd
00000140: 3d1b b23e 7f04 5d3e c166 1a3f 3531 573e
00000150: 9528 36be 325b 653e 0975 4fbe ce0c 5c3e
00000160: 0c35 2b3e ef3b 3cbd 0b55 54be a605 16bf
00000170: b406 ac3c da2d 8fbd dd4d cbbd d951 eb3d
00000180: 3f06 9fbe 0ddb 183e 4fa4 163e 04cd 63bd
00000190: 9ec6 c83d e814 a7be a9da 3e3f 62ca 073f
000001a0: 791e e2bd acfc 8c3e 1c14 3dbd 64ac 053e
000001b0: 88dc 673d 4dc4 6bbe 626c 7dbd baa3 15be
000001c0: 5d7c 4c3c 1546 35be 8de3 89bd 5551 e13e
000001d0: 126b 93bd e418 b5be a9a1 b6be 219d 05bd
000001e0: 0da4 873d 10cb e23a c506 783d faea ce3d
000001f0: 369f 2e3e bafb c03e 2d4e 35bd c2bf bd3d
00000200: 95b1 253d 8cf1 9ebe 72fc a0be 0b36 6b3d
00000210: 06b6 d13d 8c24 65bc 9ea2 18be c6e4 0c3e
00000220: fade 6cbd 7ec3 8c3e 8691 08be beee 0dbd
00000230: 3e53 423d b4e9 283e fa00 c7bc a923 513e
00000240: cf72 d13d 5455 d1bd 87d9 113e 1c8a 9dbd
00000250: 8917 cb3d 120b 813e 5a3e 6b3e 6c62 d63e
00000260: b678 ccbd 3056 c4bd 8c13 aa3e c383 b03e
00000270: 5253 44bc 6d52 adbe 26b5 e23d c617 983e
00000280: 3a2c 5dbe b87f d23d 7261 b4bd 2a29 bfbc
00000290: 9b1a 92bd e090 9bbe 00fc 23be 72a7 fcbc
000002a0: 1a2c 0cbe 0148 913d a2ee e43d 99c9 25be
000002b0: 0459 393e 8cda b53c 3761 cbbd 2cca 643e
000002c0: 19f3 41be db05 1fbe 46ce 30bd 09a2 6e3e
000002d0: c428 68be b15d 67bd 14da 94bd e3f5 0bbf
000002e0: fc88 343e 4eb1 a8be 5695 16be 44fa 713e
000002f0: 8a8c 44be 8d9e d9be 0c49 353d 7870 d1bd
00000300: d997 db3d 1604 9e3d a319 98be a7bf cbbd
00000310: a412 003d 63fe 013d 1010 3b3e da2c 3a3d
00000320: ca39 9fbe 46f1 543e 1eda 3bbd 0230 153e
00000330: 3359 b53c 34af c0bd 8e66 803e 1af1 a83d
00000340: 14f3 723e b702 f6be a940 9fbe fe6e 253d
00000350: 219c 773e 1875 083f 6a48 ecbe 8cd8 15bf
00000360: 2893 d83d 1666 da3d 88ef 7fbe 06fc 6a3e
00000370: 218f 75be 9664 8dbc 7248 6e3e b1e8 1c3d
00000380: 1d1f 90be 765e 01bd b8f2 313e e051 793e
00000390: 7d10 92bd 7d92 2abe 6e23 583e 29c1 2ebe
000003a0: a9dd 7cbd bb61 13bd c455 20be dbfe febd
000003b0: 9e3c fb3c e248 3cbc ec8b 1d3d a520 d1bd
000003c0: e8f3 163e d091 ac3d eee6 89bd 0e9a 263e
000003d0: 76f9 f7bd 8e89 26bd de05 c9bc 95d9 dbbe
000003e0: b296 c2bd 7251 4c3e c771 f7bd 068d d23b
000003f0: bb28 ad3b 96ee 55be bb9a e8bd da27 bdbc

encoder_layers.block_1.conv.bias f4 [60]
-0.0077914135 0.13124269 -0.11207767 -0.21930397 -0.06325029 0.14954185 -0.11439529 0.31056657
-0.20062259 -0.10593015 -0.26247045 -0.027649693 0.03436756 0.118221834 -0.09692907 -0.049302723
0.15166777 0.44465977 -0.09015713 0.1254763 -0.10596856 0.5234994 0.16540714 -0.02776136
0.28965664 0.06518057 0.19006212 -0.27696723 0.11227175 -0.091402 0.41932276 -0.041374125
-0.084098354 0.07996671 0.09892564 0.16288397 0.35055268 0.12733208 -0.40423638 -0.016340144
0.20270602 -0.29631624 0.04410556 0.10811472 -0.06523231 0.0681846 0.20096454 0.07750404
0.011573222 -0.02262889 -0.1824898 -0.12782507 0.37223136 -0.22062582 -0.19941528 -0.40868658
-0.074261785 0.050454397 0.010463716 -0.21124904
00000000: 1d4f ffbb 7c64 063e fa88 e5bd 3891 60be
00000010: 5e89 81bd 8021 193e 1448 eabd 9502 9f3e
00000020: 0270 4dbe e8f1 d8bd 8762 86be 9c81 e2bc
00000030: 00c5 0c3d 4a1e f23d c082 c6bd a7f1 49bd
00000040: cc4e 1b3e 72aa e33e 4da4 b8bd dc7c 003e
00000050: 0b06 d9bd 0f04 063f 7d60 293e cb6b e3bc
00000060: e04d 943e 647d 853d a59f 423e a6ce 8dbe
00000070: bbee e53d f930 bbbd 79b1 d63e ea77 29bd
00000080: c23b acbd 96c5 a33d 8799 ca3d 0ecb 263e
00000090: a47b b33e 5763 023e 12f8 cebe c4db 85bc
000000a0: 2b92 4f3e c3b6 97be 08a8 343d 406b dd3d
000000b0: 8498 85bd 5ea4 8b3d a6c9 4d3e 70ba 9e3d
000000c0: 9c9d 3d3c 3960 b9bc 9bde 3abe 93e4 02be
000000d0: 1c95 be3e bceb 61be 8533 4cbe 5e3f d1be
000000e0: 9016 98bd 45a9 4e3d 0270 2b3c ab51 58be

decoder_layers.block_0.transition.weight f4 [15, 15, 3, 3]
0.110025354 0.030448176 -0.10804403 -0.017358642 0.058490757 0.007956989 -0.2228825 0.0038604713
0.08791298 -0.0774459 -0.04887546 -0.008750259 -0.07273807 -0.033315215 -0.036897037 0.1487057
-0.06829512 -0.10817863 0.11474438 -0.084843695 0.24491544 -0.07862621 0.0154530965 0.005974728
0.24331345 -0.11330243 0.054222666 -0.035417944 -0.062534004 0.014678176 -0.038819216 -0.079630695
-0.07191384 0.012843666 -0.077936284 0.026087757 -0.13456029 -0.0021896034 0.08393568 -0.058049094
0.061460815 -0.01800379 0.03453797 0.0013003821 -0.09013646 -0.03009398 -0.17565277 0.09383417
-0.15786092 -0.1100978 -0.055728383 0.113415435 -0.19813769 -0.07139355 0.060084824 -0.012261875
-0.016794529 0.007025958 -0.0026540963 0.03298087 0.05529199 0.06031189 0.03660268 0.018410422
-0.0952711 0.08292276 -0.033264745 -0.2576878 -0.10763862 0.015492254 -0.12521034 -0.030534305
0.005575919 -0.04615896 -0.01707274 -0.051661897 -0.14338537 0.00970612 0.07221412 -0.037646957
0.007450419 0.008683191 -0.02315826 -0.045928974 0.085612506 0.070762515 -0.02606127 -0.08461866
0.022236928 0.037505455 -0.06889159 -0.03724294 -0.05310605 0.018115496 -0.13583943 -0.026612097
0.008729716 -0.010950079 -0.025048075 0.0388886 -0.016419 -0.08719319 0.009770278 -0.14103511
0.009364161 -0.07094465 0.003912623 0.056701567 0.071092725 0.041164327 0.12874666 0.022353366
0.050158877 0.072673745 0.18247786 0.05872927 0.0648614 0.04211448 -0.11818849 0.10201612
-0.06307503 -0.22954197 -0.119600125 0.10214754 -0.062195376 0.036911003 0.0854338 -0.124088876
0.063347474 0.015156419 -0.14913504 0.009138675 0.13926469 -0.09183241 0.0018114464 -0.029578568
0.032319102 -0.06041199 0.08100511 0.077272385 0.06781513 0.035431083 0.17655477 0.10968624
-0.06604962 0.010831748 -0.03650964 -0.03835921 -0.10863015 -0.048537776 0.07700228 -0.16513172
0.07725358 -0.019448487 0.14702061 0.04872763 -0.0050475555 0.045755155 -0.07987794 -0.012521343
-0.27131853 -0.12875657 0.05198739 0.056310445 0.05713863 0.02561349 -0.014154226 0.087434284
0.0914687 0.02636761 0.03164654 -0.07390941 -0.14763996 0.000514575 -0.07689916 -0.1956748
-0.08228321 -0.029816302 0.10030948 0.10194134 0.048033923 0.047913708 0.10742239 0.070875704
-0.036474306 0.008784501 0.038929924 -0.05873132 -0.011809239 0.055346124 0.010268794 0.023604615
-0.022884227 -0.030527662 0.022788113 -0.003002982 0.08574491 0.13408671 0.031874273 0.17166393
-0.03346576 0.14001988 0.23235191 0.041251276 -0.029992418 0.10256645 -0.083963245 0.09411541
0.082783334 -0.026639638 0.03172323 0.03464263 0.14022088 -0.0400935 0.011648488 0.03233722
-0.05759533 -0.25606626 -0.20550849 -0.11962892 -0.02447524 -0.14556 -0.13768694 0.04837933
-0.06401845 -0.020935507 -0.017918764 0.010551348 -0.01744283 -0.07450299 -0.042258687 -0.017643401
-0.012241158 0.09367091 -0.025288558 0.0020098665 -0.048954364 -0.015375692 -0.008479389 0.035411466
-0.0818191 0.107208766 0.021363178 0.020119919 0.06450191 0.0035399718 -0.027659586 -0.02243917
-0.06846217 -0.043556213 -0.0877873 -0.004865592 0.074481875 0.18295234 0.1465758 0.05000951
00000000: f954 e13d 746e f93c 3046 ddbd b633 8ebc
00000010: 0194 6f3d 085e 023c 4f3b 64be f6ff 7c3b
00000020: b80b b43d f59b 9ebd a231 48bd 3f5d 0fbc
00000030: b2f7 94bd 8975 08bd 5921 17bd 4f46 183e
00000040: 50de 8bbd c28c ddbd 1aff ea3d 88c2 adbd
00000050: 1dcb 7a3e c706 a1bd fc2e 7d3c a7c7 c33b
00000060: 2927 793e 1b0b e8bd 9618 5e3d 6812 11bd
00000070: d411 80bd bb7c 703c e600 1fbd 6b15 a3bd
00000080: 9047 93bd 3d6e 523c 0f9d 9fbd feb5 d53c
00000090: 2cca 09be 737f 0fbb 78e6 ab3d e3c4 6dbd
000000a0: 56be 7b3d af7c 93bc b077 0d3d 9571 aa3a
000000b0: 7799 b8bd a687 f6bc 52de 33be 212c c03d
000000c0: 4ba6 21be f57a e1bd 7243 64bd 5a46 e83d
000000d0: 9be4 4abe c836 92bd 811b 763d 08e6 48bc
000000e0: ae94 89bc 023a e63b 59f0 2dbb f316 073d
000000f0: db79 623d 9a09 773d b1ec 153d 74d1 963c
00000100: 7f1d c3bd 68d3 a93d 9d40 08bd a8ef 83be
00000110: a371 dcbd 39d3 7d3c 2437 00be 1423 fabc
00000120: 33b6 b63b 2d11 3dbd 21dc 8bbc 6d9b 53bd
00000130: 9dd3 12be 6b06 1f3c ffe4 933d b233 1abd
00000140: a522 f43b f143 0e3c 64b6 bdbc 0520 3cbd
00000150: 9c55 af3d f0eb 903d 727e d5bc 8c4c adbd
00000160: 382a b63c 529f 193d 0917 8dbd 0e8c 18bd
00000170: bb85 59bd f366 943c 7e19 0bbe 9d01 dabc
00000180: 1507 0f3c f667 33bc 9f31 cdbc a749 1f3d
00000190: 2481 86bc 5892 b2bd 8413 203c 826b 10be
000001a0: 236c 193c 6e4b 91bd 7635 803b e73f 683d
000001b0: 1099 913d ed9b 283d 2ad6 033e 681e b73c
000001c0: 6573 4d3d f9d5 943d 7adb 3a3e 1a8e 703d
000001d0: 0ed6 843d 3c80 2c3d cf0c f2bd d4ed d03d
000001e0: 7b2d 81bd 0d0d 6bbe e9f0 f4bd bb32 d13d
000001f0: 94c0 7ebd fe2f 173d ebf7 ae3d 4f22 febd
00000200: 52bc 813d a152 783c dbb6 18be 62ba 153c
00000210: 679b 0e3e a112 bcbd 0e6e ed3a c14e f2bc
00000220: 0961 043d 9072 77bd 02e6 a53d fc40 9e3d
00000230: a9e2 8a3d 2f20 113d c6ca 343e 2ea3 e03d
00000240: 0645 87bd a577 313c 228b 15bd 8c1e 1dbd
00000250: 7c79 debd 8ccf 46bd 5fb3 9d3d 4a18 29be
00000260: 2037 9e3d 6f52 9fbc 928c 163e a096 473d
00000270: f765 a5bb c269 3b3d 0c97 a3bd 5226 4dbc
00000280: 43ea 8abe c3d8 03be bbf0 543d c8a5 663d
00000290: 320a 6a3d 62d3 d13c 20e7 67bc bf10 b33d
000002a0: f153 bb3d e300 d83c cd9f 013d d15d 97bd
000002b0: ee2e 17be 8be4 063a 4f7d 9dbd fa5e 48be
000002c0: 1984 a8bd 5141 f4bc 0f6f cd3d 9fc6 d03d
000002d0: 38bf 443d 2a41 443d 4500 dc3d 4827 913d
000002e0: 1566 15bd deec 0f3c fc74 1f3d 4190 70bd
000002f0: 8a7b 41bc 9eb2 623d 723e 283c 775e c13c
00000300: b477 bbbc 2615 fabc 23ae ba3c adcd 44bb
00000310: 079b af3d 074e 093e 998e 023d abc8 2f3e
00000320: 6513 09bd 5f61 0f3e a9ed 6d3e 19f7 283d
00000330: a9b2 f5bc 5c0e d23d ecf4 abbd 94bf c03d
00000340: 4f8a a93d 5f3b dabc 38f0 013d 6ee5 0d3d
00000350: 1096 0f3e 1539 24bd 4dd9 3e3c 0874 043d
00000360: 15e9 6bbd 1e1b 83be d170 52be 0200 f5bd
00000370: 4c80 c8bc ae0d 15be cefd 0cbe 6829 463d
00000380: 1b1c 83bd f180 abbc 5fca 92bc 90df 2c3c
00000390: 44e4 8ebc 0695 98bd 7217 2dbd e588 90bc
000003a0: 238f 48bc 89d6 bf3d f329 cfbc f7b7 033b
000003b0: 5f84 48bd 54ea 7bbc 23ed 0abc 9d0b 113d
000003c0: c690 a7bd 4590 db3d d501 af3c 87d2 a43c
000003d0: 9419 843d dffe 673b 5b96 e2bc 5ad2 b7bc
000003e0: e535 8cbd 0068 32bd d4c9 b3bd 8b6f 9fbb
000003f0: f489 983d dc57 3b3e f717 163e c6d6 4c3d

decoder_layers.block_0.transition.bias f4 [15]
-0.033827364 -0.040469717 0.042285122 -0.010435402 -0.010925896 0.037079427 -0.013350934 -0.042571865
-0.0074116355 0.11927894 0.04080174 0.0031409264 -0.056240488 0.055430073 -0.02599905
00000000: 908e 0abd 93c3 25bd 2a33 2d3d 40f9 2abc
00000010: 8702 33bc 99e0 173d e0bd 5abc d65f 2ebd
00000020: 4edd f2bb 8448 f43d ba1f 273d 00d8 4d3b
00000030: 6d5c 66bd a50a 633d f6fb d4bc
