trainedModels/wave/horizon-20-40/skip/1/1/run4/model.pt (torch, 25705 bytes, 19 tensors)

init.weight f4 [7, 1, 1, 1]
0	0xbea62192	-0.32447487
1	0xbeed1a56	-0.46309155
2	0x3f101801	0.5628663
3	0x3f0803ed	0.5313099
4	0x3f3dd0e3	0.7414686
5	0x3f39a6ab	0.7251994
6	0xbf2734a0	-0.65314674

init.bias f4 [7]
0	0x3e3e3c5c	0.18577713
1	0xbe1daa4b	-0.15396993
2	0xbecbec14	-0.3982855
3	0x3e4ae5e1	0.19814254
4	0xbdd9ef84	-0.10641387
5	0xbc713a67	-0.014723397
6	0xbe6dbb69	-0.23216023

encoder_layers.block_0.transition.weight f4 [7, 14, 3, 3]
0	0xbe0bf0a0	-0.1366601
1	0xbd956e6e	-0.072964534
2	0xbdd74680	-0.10511494
3	0xbdc3b439	-0.09555859
4	0xbe17d61a	-0.14827767
5	0xbc466ded	-0.012111169
6	0xbdca5258	-0.09878987
7	0xbdc4eb1e	-0.096151575
8	0xbdddc26a	-0.10828097
9	0xbd2df2bb	-0.042467814
10	0xbc8f8a3d	-0.017521972
11	0xbd6ade06	-0.057340644
12	0x398d18ac	0.00026911998
13	0xbc5e91a9	-0.013584533
14	0x3bafbf8a	0.0053634094
15	0xbda5f3b9	-0.08103127
16	0x3b9e8579	0.0048376885
17	0xbd999827	-0.07499724
18	0x3e3f647f	0.1869068
19	0x3d93b025	0.07211331
20	0x3df6b91c	0.120470256
21	0x3db36052	0.08758606
22	0x3e6256c3	0.2210341
23	0x3dfadbbc	0.12248942
24	0x3e063b0e	0.13108465
25	0x3e03d9c4	0.1287604
26	0x3e0d7dde	0.13817546
27	0x3d265e76	0.04061743
28	0x3ce79b49	0.028272288
29	0x3d9c4591	0.07630456
30	0x3d19327f	0.037401672
31	0xbcb342d7	-0.021882458
32	0xbbca5d4b	-0.006175672
33	0x3d93bbed	0.072135784
34	0x3d0213eb	0.031757277
35	0x3d9e871b	0.07740613
36	0x3dc17303	0.09445765
37	0x3dda13f0	0.10648334
38	0x3e1a7ccc	0.15086669
39	0x3e0306bc	0.12795538
40	0x3e054332	0.13013914
41	0x3debe021	0.115173586
42	0x3df9157b	0.121623
43	0x3dc6af92	0.09701456
44	0x3df7840b	0.12085732
45	0x3e17c082	0.1481953
46	0x3d915e2d	0.07098041
47	0x3df8cc72	0.1214837
48	0x3d186a40	0.037210703
49	0x3dab3f15	0.08361641
50	0x3db9cfe7	0.09072857
51	0x3e007040	0.1254282
52	0x3dac52d2	0.08414234
53	0x3e06fc47	0.13182174
54	0xbdbb228c	-0.09137449
55	0x3c762308	0.015023001
56	0xbda0445e	-0.0782554
57	0xbd3a2d81	-0.045453552
58	0x3baa7918	0.005202424
59	0xbd096eb0	-0.033552825
60	0xbda04137	-0.07824939
61	0xbb1f4e5b	-0.0024308178
62	0xbd9ac3d9	-0.07556886
63	0xbd10958a	-0.03529886
64	0x3d495c1a	0.0491601
65	0xbd705b78	-0.05868098
66	0x3d2fd606	0.042928718
67	0xbe81bfb5	-0.25341573
68	0x3d4574a9	0.04820696
69	0xbcc99614	-0.024607696
70	0x3d2e8d5d	0.042615283
71	0xbc9dd412	-0.019266162
72	0xbd12fac5	-0.035883684
73	0xbd5d93f5	-0.05409618
74	0xbd0a5e11	-0.033781115
75	0xbd42a8c4	-0.04752423
76	0xbe205c58	-0.15660226
77	0xbd48063d	-0.048834074
78	0xbd8607a9	-0.0654443
79	0xbd686dc0	-0.05674529
80	0xbc9401cf	-0.018067269
81	0x3e89381b	0.26800618
82	0x3e305e6d	0.1722352
83	0x3e7dfe8e	0.24804136
84	0x3e43a827	0.19107114
85	0x3ed605a6	0.41801184
86	0x3e312bb7	0.17301832
87	0x3e886975	0.26642957
88	0x3e29be1b	0.16576426
89	0x3e85cb54	0.2613169
90	0xbd4b4a6c	-0.04963152
91	0x3e8ab0de	0.27088064
92	0xbd72179b	-0.059104543
93	0x3ea093d7	0.31362793
94	0x3d554c48	0.0520747
95	0x3e9dd02b	0.30822882
96	0xbd9a84b0	-0.075448394
97	0x3ea5f855	0.32416025
98	0xbd353586	-0.044240497
99	0x3e29ec02	0.16593936
100	0x3cedf6a0	0.029048264
101	0x3e19dd78	0.1502589
102	0x3cd28f60	0.025703132
103	0x3e4f1192	0.20221546
104	0x3ae11003	0.001717091
105	0x3e23ee03	0.16008763
106	0x3bda1077	0.006654795
107	0x3e3ed63b	0.1863641
108	0x3e127e4e	0.14305994
109	0xbc8e6913	-0.017384088
110	0x3e072c1d	0.13200422
111	0xbb212ded	-0.0024594024
112	0xbdfe6aa1	-0.124226816
113	0xbbb78edd	-0.0056017474
114	0x3e15b7cc	0.14620894
115	0xbc10eb6e	-0.008845193
116	0x3e1d89b5	0.15384562
117	0x3d65e47e	0.05612611
118	0xbd791974	-0.06081529
119	0x3d482848	0.04886654
120	0xbda2c78e	-0.07948218
121	0xbdcad335	-0.09903566
122	0xbd9128fa	-0.07087894
123	0x3cd0756a	0.025446612
124	0xbd85d9ea	-0.065357044
125	0x3d065cc0	0.032803297
126	0x3e3acb85	0.18241699
127	0x3ddb0e48	0.10696083
128	0x3e387917	0.18014942
129	0x3d41f943	0.047356855
130	0x3c928ed1	0.017890366
131	0x3c7c023b	0.015381391
132	0x3e31611e	0.17322204
133	0x3d8662aa	0.065617874
134	0x3e50a355	0.20374806
135	0x3d9d269c	0.0767338
136	0xbc8b700c	-0.017021202
137	0x3e1bafde	0.15203807
138	0xbccec88d	-0.025242114
139	0xbdb74ef1	-0.08950604
140	0x3ce4a0af	0.027908651
141	0x3e116ebe	0.14202401
142	0xbd403168	-0.046922117
143	0x3da30cd9	0.07961435
144	0xbe493509	-0.19649138
145	0xbdd97157	-0.10617321
146	0xbe288e0d	-0.16460438
147	0xbdc2d888	-0.09513956
148	0xbd1c9745	-0.0382302
149	0xbd72d8a0	-0.05928862
150	0xbe4552ff	-0.19269942
151	0xbd8b9352	-0.068152085
152	0xbe08d9e6	-0.13364372
153	0xbe1d4218	-0.15357244
154	0x3c9d85a1	0.019228758
155	0xbdf750bd	-0.120759465
156	0xbc939420	-0.018014967
157	0x3d62d35a	0.05537734
158	0xbc0aba20	-0.008467227
159	0xbdfeff48	-0.12451035
160	0x3cb1773f	0.021663306
161	0xbe3afa63	-0.18259577
162	0xbe8b4301	-0.27199557
163	0xbdbdcd9c	-0.092677325
164	0xbe8c378c	-0.2738613
165	0xbc880276	-0.016602736
166	0xbd8d21f0	-0.06891239
167	0xbd5dceda	-0.054152347
168	0xbe890167	-0.26758882
169	0xbd904893	-0.070450924
170	0xbe7d6b0b	-0.24747865
171	0xbe6e8b71	-0.2329538
172	0xbcaa4d87	-0.020788921
173	0xbe6434ce	-0.22285768
174	0xbda549d9	-0.08070726
175	0xbdad56d0	-0.08463824
176	0xbdba7ecd	-0.091062166
177	0xbe5434d6	-0.2072328
178	0xbd5971ae	-0.05308693
179	0xbe91ebb7	-0.2850015
180	0x3e2be49f	0.16786431
181	0x3c856ac3	0.01628626
182	0x3e0700b3	0.1318386
183	0xbc1951e3	-0.009357902
184	0xbd9df969	-0.07713587
185	0x3c11a62e	0.008889718
186	0x3e049582	0.12947658
187	0x3d7f1a4a	0.06228093
188	0x3e18fcc4	0.14940172
189	0x3df994b4	0.12186566
190	0x3d8cf0a2	0.068818346
191	0x3e0aaa88	0.13541615
192	0x3d801568	0.06254083
193	0x3e96ce0c	0.29454076
194	0x3c93bb84	0.01803375
195	0x3db175a0	0.08665013
196	0x3d8c8806	0.06861882
197	0x3e25bbb4	0.16184884
198	0x3d28abfa	0.041179635
199	0x3cea0fd8	0.028572008
200	0x3dd57c17	0.10424059
201	0x3d82b247	0.0638166
202	0x3e8338bd	0.25629225
203	0x3cc85b8c	0.024457715
204	0x3d35c10f	0.04437357
205	0x3d10a39e	0.035312288
206	0x3de03df1	0.109493144
207	0x3dc097bc	0.09403941
208	0xbd1b226b	-0.03787462
209	0x3da6eb00	0.081502914
210	0xbc8e46ad	-0.017367685
211	0x3db407fe	0.08790587
212	0x3c02b038	0.007976584
213	0x3dfca68f	0.12336456
214	0xbcd20610	-0.025637656
215	0x3dd316d3	0.10307088
216	0xbe4a64ce	-0.19765016
217	0xbdf6b821	-0.120468386
218	0xbe21fe2a	-0.15819612
219	0xbe05711f	-0.13031434
220	0xbdd70066	-0.10498123
221	0xbe3098eb	-0.17245834
222	0xbe23be4a	-0.15990558
223	0xbdb721f6	-0.089420244
224	0xbe2c231c	-0.16810268
225	0xbca77067	-0.02043934
226	0x3d2571f5	0.04039188
227	0xbcba0d0f	-0.022711305
228	0x3d5f19e5	0.054468054
229	0xbd6d54e8	-0.0579423
230	0x3d7ad6f1	0.06124014
231	0xbd18af22	-0.037276395
232	0x3d37f174	0.044908002
233	0xbc8780b3	-0.01654086
234	0x3da8a0e4	0.082338125
235	0x3d96b0b1	0.0735792
236	0x3d89b5e2	0.067241445
237	0x3da6439e	0.08118366
238	0x3e04cfca	0.1296989
239	0x3c9854e0	0.018595159
240	0x3d7179ac	0.058953926
241	0x3d93d785	0.072188415
242	0x3d8ad1b9	0.06778283
243	0x3de172ab	0.11008199
244	0x3d868ea8	0.06570178
245	0x3dcc8749	0.09986741
246	0x3d3dfc7e	0.046383373
247	0x3e10a815	0.14126618
248	0x3daf9556	0.085734054
249	0x3d3558b1	0.044274036
250	0x3d3b0f1e	0.045668714
251	0x3d898a32	0.06715812
252	0x3c8c2895	0.017109195
253	0x3dba31d8	0.09091538
254	0x3ccfa09c	0.02534514
255	0x3c11a0bd	0.008888421

encoder_layers.block_0.transition.bias f4 [7]
0	0xbd7fa440	-0.0624125
1	0x3df997e6	0.121871755
2	0x3d21563a	0.039388873
3	0xbcd96378	-0.026536688
4	0xbe0a1a7c	-0.13486665
5	0x3c24961e	0.010045556
6	0x3cee77e0	0.029109895

encoder_layers.block_0.conv.weight f4 [28, 14, 1, 1]
0	0xbdb32466	-0.08747177
1	0x3dffa61c	0.12482855
2	0x3da4192b	0.08012613
3	0x3e5dfc33	0.21678238
4	0xbe11eb87	-0.14250003
5	0xbd57475f	-0.0525583
6	0x3c926efa	0.017875183
7	0x3d8ceb35	0.068808
8	0x3e5d5c01	0.21617128
9	0x3c8e22f3	0.01735065
10	0xbe8648f6	-0.2622754
11	0xbdd68dc5	-0.10476259
12	0xbdba11e0	-0.09085441
13	0xbda6109e	-0.08108638
14	0x3ca5323b	0.020165553
15	0x3d082f89	0.033248458
16	0x3e61386e	0.21994182
17	0xbc8fc11c	-0.017548136
18	0x3dd99736	0.10624544
19	0x3f473415	0.77813846
20	0xbcdb3e45	-0.02676309
21	0xbea1b49b	-0.31583104
22	0xbe29e4db	-0.16591208
23	0x3e6d93f7	0.23200975
24	0xbd15ba7a	-0.03655479
25	0x3e239ed5	0.15978558
26	0xbe1114af	-0.14168046
27	0xbcbf4e71	-0.023352833
28	0x3d85ba31	0.06529654
29	0xbc80f453	-0.015741503
30	0x3e0123dc	0.12611336
31	0xbdef001b	-0.11669942
32	0xbe051329	-0.1299559
33	0xbf1108d1	-0.5665408
34	0xbda887ea	-0.082290486
35	0xbd86b675	-0.0657777
36	0xbe090088	-0.13379109
37	0xbe85baa5	-0.2611896
38	0x3efd2623	0.49443159
39	0x3c3d8eb5	0.011569669
40	0xbacc59fe	-0.0015590785
41	0x39c17a28	0.00036902842
42	0xbe3005a4	-0.17189652
43	0xbd80e083	-0.06292822
44	0xbdcd0d3d	-0.100122906
45	0x3e2d20b8	0.16907012
46	0x3df17592	0.11790003
47	0xbe2f6b98	-0.17130888
48	0xbe259e88	-0.16173756
49	0x3de8054b	0.113291346
50	0x3e3e2d9e	0.18572089
51	0xbe849b60	-0.25899792
52	0xbe2e8fa5	-0.17046984
53	0xbd7fffd9	-0.062499855
54	0xbc8fefcc	-0.017570399
55	0x3d6df067	0.058090594
56	0xbe3c4d37	-0.1838883
57	0xbe0a88f5	-0.13528807
58	0x3ea6a110	0.32544756
59	0x3e1fae21	0.15593769
60	0x3ce34987	0.027745022
61	0xbeb5b990	-0.35493135
62	0xbcba37da	-0.02273171
63	0xbe2d45df	-0.16921185
64	0x3e616428	0.22010863
65	0xbe0378aa	-0.12838998
66	0xbe5a17c5	-0.2129813
67	0x3d37e386	0.044894718
68	0xbd92a9f2	-0.07161321
69	0xbcd1a219	-0.02558999
70	0xbda67ea2	-0.08129622
71	0x3ca5cc53	0.020239031
72	0xbde7d88f	-0.11320602
73	0xbeb1912f	-0.3468108
74	0xbee70742	-0.45122725
75	0xbe9c0a82	-0.30476767
76	0xbd02b03d	-0.031906355
77	0x3c2130d3	0.009838301
78	0xbb54c845	-0.0032468003
79	0x3d97220e	0.07379542
80	0x3d4dabcd	0.05021267
81	0x3e6c901a	0.23101845
82	0x3e07aff5	0.13250716
83	0x3db6b2cf	0.08920824
84	0xbd8a7c4d	-0.0676199
85	0xbe7ca187	-0.24670993
86	0x3f0dc306	0.5537571
87	0xbc9d3781	-0.019191505
88	0xbbe1cc4c	-0.006890809
89	0x3dc608b0	0.09669626
90	0xbd9f4f10	-0.07778752
91	0x3e88c2e5	0.26711193
92	0xbeb0f0f9	-0.34558848
93	0xbe2032cc	-0.15644377
94	0xbebbc4bc	-0.36673534
95	0xbc214e6e	-0.009845359
96	0xbe68145f	-0.22664021
97	0x3dcfdf87	0.10150056
98	0xbe7a102a	-0.24420229
99	0x3dc15709	0.09440429
100	0xbe2373b1	-0.15962102
101	0xbe8c9d19	-0.27463606
102	0xbec76fbe	-0.3895244
103	0xbe12c570	-0.14333129
104	0xbdbf5122	-0.09341647
105	0xbeb45f08	-0.35228753
106	0xbe1f1b1a	-0.15537682
107	0x3d882200	0.0664711
108	0xbeaf5839	-0.34246996
109	0x3dffac74	0.12484065
110	0x3def7690	0.11692536
111	0x3dd10bf1	0.10207356
112	0x3ee0c532	0.43900448
113	0xbda8f148	-0.08249146
114	0x3d0001b1	0.031251613
115	0xbe62f5db	-0.22164099
116	0x3e19e229	0.1502768
117	0x3ecd162e	0.40055984
118	0xbdbbc3c8	-0.09168202
119	0xbf073189	-0.5280996
120	0xbe03539f	-0.12824868
121	0x3f249f1f	0.643053
122	0xbe37bb84	-0.17942625
123	0x3e95ba1b	0.2924355
124	0xbe1f43f3	-0.15553264
125	0xbec3932f	-0.3819823
126	0x3ea1dbba	0.3161295
127	0x3e45538a	0.19270149
128	0xbcac6588	-0.021044508
129	0x3e84e9a0	0.25959492
130	0x3e6fd7e7	0.23422204
131	0x3e35e187	0.17761813
132	0xbe963899	-0.29340056
133	0x3eaaa0a6	0.3332569
134	0x3e52ef97	0.20599209
135	0x3e73fe5a	0.23827496
136	0xbf01a4df	-0.506422
137	0x3d6f9196	0.05848845
138	0xbdc0e237	-0.09418147
139	0xbd5b25ac	-0.053502724
140	0x3e901d9e	0.28147596
141	0xbe5d5c3b	-0.21617214
142	0xbbd350e9	-0.006448854
143	0xbd1dc1bc	-0.038514838
144	0x3e33be70	0.17553115
145	0x3d2f1c71	0.042751733
146	0x3d567674	0.05235906
147	0xbe37b005	-0.1793824
148	0xbe08c5f7	-0.13356768
149	0x3ddb9e0d	0.10723505
150	0xbee3644f	-0.44412467
151	0xbc8a6055	-0.016891638
152	0xbecf6304	-0.4050523
153	0xbe4ba3de	-0.19886729
154	0x3e8ba185	0.27271667
155	0xbe39a2f9	-0.18128575
156	0xbdf4c4ed	-0.11951623
157	0x3d54b050	0.051925957
158	0x3e30fa08	0.1728288
159	0xbde4f7b1	-0.11180056
160	0xbdfff2a8	-0.12497455
161	0x3c972514	0.018450297
162	0xbd8cee44	-0.06881383
163	0xbe3a6b1f	-0.18204926
164	0xbe7d6266	-0.24744567
165	0x3dd7f0c0	0.10543966
166	0xbc7a8df3	-0.015292632
167	0x3cf26d5f	0.029593168
168	0xbd1ef0c9	-0.03880385
169	0x3e7d3bf5	0.24729903
170	0xbe3ab500	-0.18233109
171	0x3e40277e	0.18765065
172	0xbe924a53	-0.2857233
173	0x3e66005c	0.22461075
174	0x3e2014cd	0.15632935
175	0x3e9acc3a	0.30233938
176	0x3e8dbe1c	0.27684104
177	0xbe97cfc9	-0.29650715
178	0x3f10d9e1	0.56582457
179	0x3e3ec047	0.18628035
180	0x3e151062	0.14557031
181	0x3e476528	0.19472182
182	0xbf2f2142	-0.6841012
183	0x3e04f292	0.12983158
184	0xbf25c812	-0.6475841
185	0x3d856f75	0.06515399
186	0xbeba2c64	-0.36361992
187	0x3dc57e3b	0.09643217
188	0x3f02c5af	0.5108289
189	0x3ef1c5e1	0.47221282
190	0x3e55653e	0.20839402
191	0xbdb353bb	-0.08756205
192	0xbe74ce19	-0.23906745
193	0xbf2c6550	-0.6734209
194	0xbe845dfa	-0.25852948
195	0xbd8aa05d	-0.06768868
196	0x3c6c7ff4	0.014434803
197	0x3d72f187	0.05931237
198	0x3e839557	0.25699875
199	0x3e8bb44d	0.27285996
200	0x3de578d4	0.11204687
201	0x3f87d2ca	1.0611203
202	0xbe02055a	-0.12697354
203	0xbd7be327	-0.061495926
204	0xbcc83f21	-0.024444165
205	0xbd1a0d5a	-0.03761039
206	0xbf41adb6	-0.75655687
207	0xbde6cd1f	-0.112695925
208	0xbdb2363d	-0.087017514
209	0xbd2ee0dd	-0.042694915
210	0xbce8c75d	-0.028415376
211	0xbec6b5da	-0.38810617
212	0xbd7f011c	-0.062256917
213	0xbda42de4	-0.080165654
214	0x3daf5451	0.08561004
215	0xbec76bd6	-0.3894946
216	0x3d6a0999	0.05713806
217	0xbe8431b9	-0.25819185
218	0xbc7c7460	-0.015408605
219	0xbe718b2f	-0.2358825
220	0x3e6200f3	0.22070675
221	0xbe5f1b07	-0.21787654
222	0x3d2a864d	0.041631985
223	0xbeb169d5	-0.34651056
224	0x3cb50c9a	0.022100735
225	0x3beb8e81	0.0071886186
226	0x3dfdec8c	0.12398633
227	0xbdd7b232	-0.10532035
228	0x3d92fc78	0.07177061
229	0xbebcf1d7	-0.3690326
230	0xbd39808d	-0.04528861
231	0xbea04c90	-0.31308413
232	0x3c2fb773	0.01072489
233	0x3f0e9dc5	0.5570949
234	0xbf06a803	-0.52600116
235	0xbd9cd806	-0.07658391
236	0xbdf0b8e1	-0.11754013
237	0xbe92238c	-0.28542745
238	0xbe261a43	-0.16220956
239	0x3de74773	0.11292925
240	0xbe8598a5	-0.2609302
241	0xbd3d04a5	-0.046147007
242	0x3d37fcad	0.044918705
243	0xbe5e1724	-0.21688515
244	0xbe6cd217	-0.23127018
245	0x3d9ba30c	0.07599458
246	0x3d8b3e0b	0.06798943
247	0xbe836983	-0.25666437
248	0xbe4b4feb	-0.19854705
249	0x3dc4b88d	0.09605513
250	0xbcb4ddc0	-0.022078395
251	0xbe0cab58	-0.13737237
252	0xbe1e8eed	-0.1548421
253	0x3ec4ea2f	0.38459918
254	0x3e7ea669	0.24868168
255	0x3e6a5606	0.22884378

encoder_layers.block_0.conv.bias f4 [28]
0	0xbe04970e	-0.12948248
1	0x3dadcf93	0.08486857
2	0x3c1c718d	0.009548557
3	0xbd30be1c	-0.043150052
4	0x3caa3362	0.020776454
5	0x3e26a1a9	0.16272606
6	0xbdb08838	-0.08619732
7	0x3e4159c5	0.188819
8	0xbe11f56e	-0.1425378
9	0xbc67262c	-0.014108222
10	0xbe77c7e2	-0.24197343
11	0xbdeda1d2	-0.116031304
12	0x3e3fff57	0.18749748
13	0x3dab61d4	0.083682686
14	0x3c5261d0	0.012840703
15	0xbe9771d0	-0.2957902
16	0xbe22fbfc	-0.15916437
17	0xbe2aa48b	-0.1666433
18	0x3e6b7a7d	0.22995944
19	0x3d970119	0.07373256
20	0xbe359d49	-0.17735781
21	0xbe17eb32	-0.14835814
22	0xbd959472	-0.07303704
23	0x3e25fe41	0.16210271
24	0xbdd281eb	-0.10278686
25	0x3e015637	0.12630545
26	0x3d241afe	0.040064804
27	0xbd3a61d5	-0.045503456

encoder_layers.block_1.transition.weight f4 [7, 14, 3, 3]
0	0xbdcd547b	-0.10025879
1	0x3b34fc1a	0.0027616085
2	0xbde138d9	-0.10997171
3	0x3a988447	0.0011636101
4	0xbd0316c8	-0.032004148
5	0x3b2e8379	0.0026628657
6	0xbdc9960c	-0.09843072
7	0xbb396d1f	-0.00282938
8	0xbdd00900	-0.101579666
9	0xbb1c9904	-0.0023894915
10	0xbc4219d4	-0.011846978
11	0xbc63ec36	-0.013911298
12	0xbd2fb4ab	-0.042896908
13	0xbdc62834	-0.09675637
14	0xbd117d78	-0.035520047
15	0xbc0f60ef	-0.008751138
16	0xbce6821c	-0.028138213
17	0xbc91090a	-0.017704505
18	0xbdd2a38d	-0.10285101
19	0x3cb1f07f	0.021721123
20	0xbddaaaa8	-0.10677081
21	0x3c5148c3	0.012773695
22	0x3e254f9f	0.16143654
23	0x3c2a3b70	0.010390148
24	0xbdd613ac	-0.10452971
25	0x3bd33207	0.0064451727
26	0xbdcf896c	-0.10133633
27	0xbd5dfd07	-0.054196384
28	0xbbc5f9ed	-0.0060417564
29	0xbd43101d	-0.04762279
30	0xbcf13aca	-0.029446978
31	0x3f0de7f2	0.55432045
32	0xbd038e92	-0.032118388
33	0xbd4f5f4e	-0.050628
34	0xbc959d89	-0.018263595
35	0xbd56fca5	-0.052487034
36	0xbc68b65a	-0.014203632
37	0x3dc2ab2d	0.095053054
38	0xbcb9a613	-0.022662198
39	0x3dbad6cd	0.09123001
40	0x3e9d9948	0.30781007
41	0x3db984ab	0.090585075
42	0xbcb7038f	-0.022340564
43	0x3db0fe1c	0.086422175
44	0xbcc8130f	-0.02442315
45	0x3d5d25ee	0.05399125
46	0x3d8baba8	0.0681985
47	0x3d72eed0	0.05930978
48	0x3d92f445	0.07175497
49	0x3e63dda2	0.22252515
50	0x3dabb9b6	0.08385031
51	0x3d7f3dae	0.06231468
52	0x3d8a8ba3	0.06764915
53	0x3d719c06	0.058986686
54	0x3c2cffb1	0.010559008
55	0x3c8b0467	0.016969873
56	0x3d295a50	0.041345894
57	0x3d31102a	0.043228306
58	0x3d8712ad	0.06595359
59	0x3d20c0f7	0.039246526
60	0x3d3d4d9d	0.046216596
61	0x3cece5e2	0.02891821
62	0x3ca0b948	0.019619599
63	0x3d624b4a	0.055247582
64	0x3d85e3e4	0.06537607
65	0x3d8703ab	0.065924965
66	0x3d684f77	0.05671641
67	0x3e16a7f9	0.14712514
68	0x3d5a3351	0.053271595
69	0x3da257e3	0.07926919
70	0x3d9c615d	0.07635758
71	0x3da4182c	0.08012423
72	0xbd987adf	-0.07445311
73	0xbde105c2	-0.10987426
74	0xbd68c6c4	-0.056830183
75	0xbdb708b0	-0.08937204
76	0xbd87d134	-0.06631699
77	0xbde0614a	-0.109560564
78	0xbd859c4b	-0.06523951
79	0xbe083904	-0.13303
80	0xbd890f1c	-0.06692335
81	0xbc1334bf	-0.008984744
82	0x3d9c875e	0.07643007
83	0xbbb03422	-0.0053773085
84	0x3d1bb842	0.03801752
85	0xbd2da5ff	-0.042394634
86	0x3d8179db	0.0632207
87	0x3c7c154b	0.015385936
88	0x3d524d85	0.05134346
89	0x3c82515b	0.015907934
90	0xbd4bfaf0	-0.04979986
91	0xbca892eb	-0.020577868
92	0xbd1f2345	-0.038851995
93	0xbcd530eb	-0.026024302
94	0xbbc9072d	-0.0061348886
95	0xbd218203	-0.03943063
96	0xbd429dd8	-0.047513813
97	0xbd2a5db2	-0.04159326
98	0xbd6ae0d1	-0.057343308
99	0x3e34c747	0.17654143
100	0x3e1a1a9d	0.15049215
101	0x3e33d6aa	0.17562357
102	0x3e17abc5	0.14811619
103	0x3d92c03e	0.071655735
104	0x3e175e31	0.14782025
105	0x3e2058e0	0.15658903
106	0x3e19ee9b	0.15032427
107	0x3e2371ed	0.15961428
108	0x3dfb51d9	0.122714706
109	0x3d96552e	0.073404655
110	0x3dfaf8d4	0.122544914
111	0x3db78e28	0.08962661
112	0x3e01bd4e	0.1266987
113	0x3dabe7c6	0.08393817
114	0x3dfb73d8	0.12277955
115	0x3da3fd8d	0.08007345
116	0x3dee601c	0.11639425
117	0xbcb48044	-0.022033818
118	0xbb7bdc23	-0.0038430772
119	0xbd12bc1f	-0.035823938
120	0x3c15d438	0.009144835
121	0x3d3872f6	0.04503151
122	0x3c65d1ac	0.01402704
123	0xbd22800d	-0.0396729
124	0xba7dae26	-0.0009677134
125	0xbc6d18cd	-0.014471245
126	0xbc9843af	-0.018586962
127	0x3d8cc711	0.068739064
128	0xbc3d5a2f	-0.011557146
129	0x3d36a22b	0.04458825
130	0xbe0f4de5	-0.13994558
131	0x3d8c7284	0.068577796
132	0xbc6c1d5b	-0.014411296
133	0x3d7e8c89	0.062145744
134	0xbc93e517	-0.018053574
135	0xbd856e72	-0.065152064
136	0xbcb0a2f4	-0.021562077
137	0xbd895ff2	-0.06707753
138	0xbbe87bef	-0.007094852
139	0xbe11feea	-0.14257398
140	0xbcc98516	-0.024599593
141	0xbd985d15	-0.07439629
142	0xbcd27c7e	-0.025694128
143	0xbc436631	-0.01192622
144	0xbe1bee3f	-0.15227602
145	0xbe637dff	-0.22216032
146	0xbdef533c	-0.116857976
147	0xbe6a9511	-0.22908427
148	0xbf3275cb	-0.6971099
149	0xbe778793	-0.24172811
150	0xbe056126	-0.1302534
151	0xbe79fdc7	-0.24413215
152	0xbdfcd978	-0.12346166
153	0x3dad7568	0.08469659
154	0x3e6e649c	0.23280567
155	0x3db6d331	0.08927
156	0x3e67819b	0.22608034
157	0x3e897453	0.2684656
158	0x3e5e76d6	0.2172502
159	0x3d6ba3bf	0.057529207
160	0x3e79f9d1	0.24411704
161	0x3da9cd7c	0.08291146
162	0xbdae6d18	-0.08516902
163	0xbd487f44	-0.048949495
164	0xbdb8dac6	-0.09026103
165	0xbcc01c08	-0.023450866
166	0x3cb9a22d	0.02266034
167	0xbc849037	-0.016182048
168	0xbdcdf083	-0.100556396
169	0xbd85ad3b	-0.06527182
170	0xbd678790	-0.056525767
171	0xbd87f564	-0.066386014
172	0x3e19793e	0.14987656
173	0xbda35399	-0.07974929
174	0x3e17a065	0.1480728
175	0xbdce2613	-0.10065856
176	0x3e125154	0.14288837
177	0xbd986ae2	-0.07442261
178	0x3e22dd43	0.15904717
179	0xbdc7cb94	-0.09755626
180	0x3df07ccf	0.11742555
181	0x3e05f948	0.13083375
182	0x3df60dfc	0.12014386
183	0x3e1002c7	0.1406356
184	0x3e1a8135	0.15088351
185	0x3de26c33	0.110557936
186	0x3dd7f80f	0.1054536
187	0x3d9d0b36	0.07668154
188	0x3e21f96e	0.15817806
189	0xbf138f78	-0.5764079
190	0xbe629bec	-0.22129792
191	0xbf14c0ea	-0.58106863
192	0xbe840359	-0.25783804
193	0xbed81045	-0.42199913
194	0xbe8f9770	-0.28045225
195	0xbf0da002	-0.5532228
196	0xbe7ba9a6	-0.24576434
197	0xbf11aec7	-0.56907314
198	0x3d0f6627	0.03500953
199	0xbe4587cf	-0.19290088
200	0x3c03854e	0.008027388
201	0xbe52cfae	-0.20587036
202	0xbe06a54f	-0.13148998
203	0xbe558e17	-0.20854984
204	0x3d3825ae	0.04495781
205	0xbe64d302	-0.22346118
206	0x3d2ae966	0.041726492
207	0xbdca67f1	-0.098831065
208	0x3d243f79	0.040099595
209	0xbdad7ab6	-0.08470671
210	0x3cfc21a4	0.03077776
211	0x3d98a52f	0.07453381
212	0x3b29f321	0.002593227
213	0xbd90911c	-0.070589274
214	0x3c70771b	0.014676834
215	0xbd71c59b	-0.059026342
216	0xbd8d78cd	-0.069078065
217	0x3d13a6e0	0.036047816
218	0xbd9598d4	-0.0730454
219	0x3caeb785	0.021327743
220	0x3e269696	0.16268381
221	0x3cd4d8fc	0.025982372
222	0xbd8b75bd	-0.06809566
223	0x3d27678e	0.04087024
224	0xbd99c9a2	-0.075091615
225	0x3d29f7cc	0.041496083
226	0xbdc14b15	-0.09438149
227	0x3db32516	0.08747308
228	0xbd997de8	-0.07494718
229	0x3d6064b2	0.05478353
230	0xbd667ac3	-0.05626942
231	0x3d1e25e9	0.038610373
232	0xbd99f9ba	-0.07518335
233	0x3d257d1c	0.040402517
234	0xbdf1fa00	-0.11815262
235	0x3dc29289	0.095006056
236	0xbd503a2c	-0.050836727
237	0x3e076624	0.13222557
238	0x3cab1b95	0.020887176
239	0x3e153df7	0.14574419
240	0xbd952ea2	-0.07284285
241	0x3dd589ea	0.10426696
242	0xbdd56225	-0.1041911
243	0x3d593d70	0.053037107
244	0x3cccf704	0.02502013
245	0x3cf442ab	0.029816946
246	0x3d71ee87	0.059065368
247	0xbd876071	-0.066101916
248	0x3d1454bc	0.03621362
249	0x3d0fa71e	0.035071485
250	0x3a8be0f3	0.0010671898
251	0x3d693035	0.05693074
252	0x3d8878a2	0.06663634
253	0x3e0d4771	0.13796784
254	0x3d7f44a7	0.06232133
255	0x3e0a4332	0.13502195

encoder_layers.block_1.transition.bias f4 [7]
0	0x3d9fad13	0.07796683
1	0xbd29a84f	-0.041420277
2	0x3cf10dab	0.029425463
3	0x3d89e7b1	0.06733645
4	0x3cc9f8fc	0.024654858
5	0xbdb03d94	-0.08605495
6	0x3d591639	0.05299971

encoder_layers.block_1.conv.weight f4 [28, 14, 1, 1]
0	0xbd749d55	-0.059720356
1	0x3c0637ba	0.008191997
2	0xbdfed9ea	-0.124439076
3	0xbe03c00b	-0.12866227
4	0x3e93359d	0.2875184
5	0x3db6e6b1	0.0893072
6	0xbce31ce9	-0.027723746
7	0xbcee7d73	-0.029112553
8	0x3e11482e	0.1418769
9	0x3d90c6cb	0.07069167
10	0xbcd6dd75	-0.026228646
11	0x3dae6e28	0.085171044
12	0x3eacf9d7	0.33784363
13	0xbcd72477	-0.026262505
14	0xbe3eaba2	-0.1862016
15	0xbcb01c9a	-0.021498013
16	0xbdd17b5e	-0.102286085
17	0x3d8970ed	0.06710992
18	0xbd690a0f	-0.05689436
19	0x3d76295a	0.06009803
20	0xbcb123b6	-0.021623474
21	0xbe101d02	-0.14073566
22	0xbc5b47cb	-0.013383816
23	0xbdd7122a	-0.105015114
24	0xbe1777e6	-0.14791831
25	0x3e445b79	0.19175519
26	0xbd62d8b2	-0.055382438
27	0xbd2b76dc	-0.0418614
28	0xbe5d4a12	-0.21610287
29	0xbe3c3f56	-0.18383536
30	0x3d2de7dd	0.04245745
31	0x3e8ab71b	0.27092823
32	0x3dd99666	0.10624389
33	0xbd1c097f	-0.038094994
34	0xbe3c9a1d	-0.18418165
35	0xbe63f584	-0.22261626
36	0xbdc22b4e	-0.09480916
37	0xbd4a4c34	-0.04938908
38	0xbd8908a0	-0.06691098
39	0xbde6881c	-0.112564296
40	0xbdf528ef	-0.11970698
41	0xbe20700b	-0.15667741
42	0xbe2c9b24	-0.16856056
43	0xbdba0fa0	-0.090850115
44	0x3ebd6bf3	0.3699642
45	0xbd4ea6c5	-0.050452013
46	0xbdea8b3f	-0.1145234
47	0x3e229aac	0.15879315
48	0x3da237fd	0.07920835
49	0xbdca425f	-0.098759405
50	0xbc906b77	-0.017629368
51	0x3e7a3a2f	0.24436258
52	0x3e8e4ff6	0.2779538
53	0xbe14a945	-0.14517696
54	0x3af073c3	0.0018345047
55	0x3e2f1743	0.17098717
56	0xbe491d25	-0.19640024
57	0xbda2cd77	-0.079493456
58	0x3e691233	0.22760849
59	0xbd0446b3	-0.032293987
60	0xbdd3e6fa	-0.1034679
61	0xbe0deea5	-0.13860567
62	0x3d03015f	0.03198373
63	0xbc9babbd	-0.01900279
64	0x3ea58dc7	0.3233473
65	0xbf0952f0	-0.5364218
66	0xbe42f021	-0.19036914
67	0x3e1a2a39	0.15055169
68	0xbc451f0c	-0.012031328
69	0xbe99530a	-0.29946166
70	0xbca7b1df	-0.020470558
71	0x3e05caa6	0.13065585
72	0xbe4bb328	-0.19892561
73	0x3d5a1ef7	0.053252187
74	0x3dda6813	0.10664382
75	0x3ea2b63f	0.31779668
76	0x3d5719b4	0.052514747
77	0x3e118861	0.1421218
78	0x3d430190	0.047608912
79	0x3d8305d2	0.063975945
80	0x37f3c047	2.9057393e-05
81	0xbe3a003c	-0.18164152
82	0x3e0b0c75	0.1357897
83	0x3b9f2787	0.004857007
84	0xbb27fad1	-0.0025631676
85	0x3df51429	0.11966736
86	0xbda46e95	-0.08028904
87	0xbe967a0b	-0.29389986
88	0xbe19bda6	-0.15013751
89	0x3ed5427e	0.41652292
90	0x3cada0a2	0.02119476
91	0xbe1fd40f	-0.15608238
92	0x3d7bda8c	0.06148772
93	0x3cdcd0de	0.026955064
94	0x3d9477ee	0.07249437
95	0x3e4d4aa6	0.20048007
96	0xbdaa3938	-0.08311695
97	0xbdc0d3d5	-0.09415404
98	0xbc31eb19	-0.010859274
99	0xbd0ed954	-0.03487523
100	0x3d762769	0.06009618
101	0x3e25f562	0.16206887
102	0x3dc11da9	0.09429485
103	0x3e259044	0.16168314
104	0x3cbac9e4	0.022801347
105	0x3ec84abf	0.39119527
106	0x3da9cea3	0.08291366
107	0x3d2637be	0.040580504
108	0x3dc46618	0.09589785
109	0xbeba741c	-0.3641671
110	0xbe3946f9	-0.1809348
111	0x3e0c9f9b	0.1373276
112	0xbd97795a	-0.07396193
113	0x3c301556	0.010747274
114	0x3d87f2c4	0.06638101
115	0xbd7533a3	-0.059863698
116	0x3dc783a6	0.09741907
117	0xbe9e23ff	-0.30886838
118	0x3cbbb0e1	0.02291149
119	0x3d4f6187	0.05063012
120	0x3e1ed192	0.15509632
121	0x3e0c3150	0.13690686
122	0xbc2f7ddc	-0.01071116
123	0xbdca66fa	-0.098829225
124	0x3dfe13f8	0.124061525
125	0x3e3c3eb9	0.18383302
126	0xbe15973b	-0.14608471
127	0xbe989989	-0.29804638
128	0xbde7e29c	-0.11322519
129	0x3d7ed47d	0.062214363
130	0xbe826ff4	-0.25476038
131	0xbcf31c64	-0.029676624
132	0xbe3ae7d3	-0.18252496
133	0x3c18eb0e	0.009333385
134	0x3d502f50	0.05082637
135	0xbd9da8cf	-0.07698213
136	0x3d4465d6	0.04794868
137	0xbe580aec	-0.21097916
138	0xbd8e8f1f	-0.06960892
139	0x3dd016ba	0.10160585
140	0x3e752846	0.23941144
141	0xbe9674e4	-0.29386055
142	0x3dd2df6a	0.10296519
143	0x3e072ced	0.13200732
144	0xbed3cb1c	-0.41365898
145	0xbd557d9c	-0.052121744
146	0x3d8cf50f	0.06882679
147	0x3f6f299f	0.93422884
148	0x3def7d48	0.116938174
149	0x3cc8bebb	0.02450501
150	0xbd18a2ec	-0.03726475
151	0x3e90e5be	0.2830028
152	0x3dd8041c	0.10547659
153	0x3e5e1dfc	0.21691126
154	0x3b239356	0.0024959645
155	0x3d8d1aa5	0.06889848
156	0x3ecf41a1	0.40479758
157	0xbda1de9b	-0.07903787
158	0x3d32fabc	0.04369615
159	0xbde18111	-0.110109456
160	0x3e1020af	0.14074968
161	0x3ed8592c	0.42255533
162	0x3bc320b6	0.005954827
163	0xbdda5749	-0.106611796
164	0x3e1e44cd	0.15455933
165	0xbdb5bfd7	-0.08874481
166	0x3de95e51	0.113949426
167	0x3ea4610c	0.3210529
168	0xbe052ced	-0.13005419
169	0xbde444ee	-0.1114596
170	0x3eb0a17d	0.34498206
171	0x3e6f4b92	0.23368672
172	0xbe7acef6	-0.24493012
173	0xbe156e7c	-0.14592928
174	0xbe036765	-0.1283241
175	0xbe4b9a9f	-0.19883202
176	0x3e7d80c8	0.24756157
177	0x3dd3bc73	0.10338678
178	0xbc93fe41	-0.018065574
179	0x3dcb2017	0.0991823
180	0x3cf49c98	0.029859826
181	0xbd904ba2	-0.07045676
182	0x3dbe6b47	0.09297805
183	0xbcb182fc	-0.021668904
184	0x3ed69931	0.4191375
185	0x39e5f6cd	0.00043862165
186	0x3ea5d314	0.32387602
187	0xbddc9b74	-0.10771838
188	0xbe0d777a	-0.13815108
189	0x3e5e2f3b	0.21697704
190	0xbc85b1e0	-0.016320169
191	0x3d9824ab	0.07428869
192	0x3d3ea149	0.046540532
193	0xbdd8ec67	-0.10591965
194	0xbfb19ca7	-1.3875932
195	0x3e6bee1d	0.23040052
196	0x3db25670	0.08707893
197	0x3deaf431	0.11472357
198	0x3e1a5bf8	0.15074146
199	0xbe4d116e	-0.2002618
200	0xbeb4219a	-0.35181886
201	0xbd68c166	-0.056825064
202	0x3ad5fa10	0.0016325135
203	0x3d3556f0	0.044272363
204	0x3d746742	0.059668787
205	0x3e013702	0.1261864
206	0xbdd3d569	-0.10343439
207	0x3d5e5f5e	0.054290168
208	0x3e20625c	0.15662521
209	0x3ea036b4	0.31291735
210	0xbdedea95	-0.116170086
211	0xbf26096d	-0.6485813
212	0x3e080be5	0.13285787
213	0xbef03b32	-0.46920162
214	0xbc98ddc9	-0.018660443
215	0x3eaae855	0.3338038
216	0xbdbb436b	-0.09143718
217	0x3ec6816f	0.38770625
218	0x3ecf94b5	0.40543142
219	0xbe71561c	-0.23568004
220	0xbec8ba14	-0.39204466
221	0x3cc2c030	0.023773283
222	0x3e92b6a8	0.2865498
223	0xbe27daf1	-0.16392113
224	0xbec5e5ac	-0.38651788
225	0xbebe9aca	-0.3722747
226	0xbeedc2d3	-0.46437702
227	0x3e71b3af	0.236037
228	0xbdaa4528	-0.08313972
229	0xbe9d4786	-0.3071863
230	0xbe319028	-0.17340147
231	0xbe4300c2	-0.19043258
232	0x3d6a3216	0.057176672
233	0x3f42e549	0.7613111
234	0x3e3af3c4	0.18257052
235	0xbf16f925	-0.58973914
236	0xbaf0284d	-0.0018322557
237	0xbe365501	-0.17805864
238	0xbdd80832	-0.10548438
239	0x3a8027c0	0.0009777471
240	0xbdbcc706	-0.09217648
241	0x3c84cc4a	0.016210694
242	0xbc0f2cc8	-0.008738704
243	0x3e8a9684	0.2706796
244	0xbda5335f	-0.08066439
245	0x3e441be9	0.19151272
246	0xbe7ea84c	-0.24868888
247	0x3d849007	0.064727835
248	0x3e776dd3	0.24162988
249	0xbebcbbbf	-0.3686199
250	0x3d32b28d	0.04362731
251	0x3e6e4de1	0.23271896
252	0xbe917a55	-0.28413644
253	0x3e4070e7	0.18793069
254	0xbe9b09e8	-0.30280995
255	0x3e9f102c	0.31067026

encoder_layers.block_1.conv.bias f4 [28]
0	0xbe654a25	-0.22391565
1	0xbd7badd2	-0.061445065
2	0xbdb03c18	-0.08605212
3	0xbcbdc8f3	-0.02316711
4	0x3ab260b5	0.0013609143
5	0xbe39220f	-0.18079399
6	0x3cb6e005	0.022323618
7	0xbd9a3a24	-0.07530621
8	0x3ddfab49	0.10921342
9	0xbd97647d	-0.073922135
10	0x3e32d070	0.17462325
11	0x3d2292ad	0.039690662
12	0xbc67cd54	-0.014148075
13	0x3d9dcab6	0.0770468
14	0xbe024511	-0.12721659
15	0xbe98dfe0	-0.29858303
16	0xbe9df1b6	-0.30848473
17	0xbc8b972e	-0.017039862
18	0x3dca71db	0.098849975
19	0xbe3dad24	-0.18523079
20	0xbce28d87	-0.027655376
21	0x3b2b78ec	0.0026164604
22	0xbdc2c288	-0.0950976
23	0x3ce22c7f	0.027609108
24	0xbd330840	-0.04370904
25	0xbe139954	-0.14413959
26	0xbe8246d0	-0.2544465
27	0x3d9977d8	0.074935615

decoder_layers.block_0.transition.weight f4 [7, 7, 3, 3]
0	0x3cbedebc	0.023299567
1	0xbd21e754	-0.039527252
2	0x3d768537	0.060185637
3	0xbce99111	-0.028511556
4	0xbd83819f	-0.06421208
5	0xbd065d97	-0.032804098
6	0x3d94892a	0.072527245
7	0xbd7cbb38	-0.061701983
8	0x3d32bb2e	0.04363554
9	0x3e5c8bd5	0.21537717
10	0x3c5457ad	0.012960357
11	0x3e77740e	0.24165365
12	0x3d53d3bf	0.05171561
13	0xbd35bed0	-0.044371426
14	0x3d2dcd61	0.042432193
15	0x3e5d8a0d	0.21634693
16	0x3d0f4932	0.034981914
17	0x3e54a10d	0.20764561
18	0xbea8a094	-0.3293501
19	0xbdfd331c	-0.12363264
20	0xbe9e6df9	-0.30943277
21	0xbdff3ef1	-0.12463177
22	0x3ea3c9c0	0.3198986
23	0xbe182d87	-0.14861117
24	0xbe8ff18b	-0.2811397
25	0xbe194fb7	-0.14971815
26	0xbe923a7e	-0.2856025
27	0xbc795fa2	-0.015220555
28	0xbd8a210c	-0.067445844
29	0x3c897531	0.016779514
30	0xbce8fdc8	-0.028441325
31	0xbe0f0cd7	-0.13969742
32	0xbd8f8f18	-0.07009715
33	0x3c899093	0.016792571
34	0xbd8adc87	-0.067803435
35	0x3cd02403	0.025407797
36	0x3e3d4668	0.18483889
37	0x3cd4cb80	0.025975943
38	0x3e35d933	0.17758636
39	0x3cd53681	0.026026966
40	0xbd30d21b	-0.043169122
41	0x3dbda24e	0.09259473
42	0x3e43a0d6	0.19104323
43	0x3d960749	0.07325608
44	0x3dfaff88	0.1225577
45	0x3cb4b490	0.022058755
46	0x3d4f4e50	0.050611794
47	0x3d757b8c	0.059932277
48	0x3d9014f5	0.07035247
49	0xbde9a94c	-0.11409244
50	0x3cc892bf	0.024484036
51	0x3d547f2e	0.0518791
52	0x3cb363b8	0.021898136
53	0x3d85f3f0	0.06540668
54	0x3e21ff18	0.15819967
55	0x3d3300c3	0.0437019
56	0x3df54913	0.119768284
57	0xbcdbf980	-0.02685237
58	0xbe28055a	-0.16408291
59	0x3d3a19eb	0.045434874
60	0x3e10ec44	0.14152628
61	0x3d5db8c2	0.054131277
62	0x3db3adf8	0.08773416
63	0x3c5fe33c	0.013665017
64	0x3ced3ef2	0.028960679
65	0x3d77b29a	0.060473062
66	0x3d0e236a	0.034701742
67	0x3d8a27bc	0.0674586
68	0x3d7bbfff	0.0614624
69	0x3d8846ef	0.066541545
70	0x3d5ea7d7	0.054359283
71	0x3d87ef09	0.06637389
72	0xbce23b80	-0.027616262
73	0x3d9e7c5f	0.07738566
74	0x3c4a0d1d	0.012332228
75	0x3ccfe62a	0.025378305
76	0x3e098c3f	0.13432406
77	0x3d51e647	0.051245
78	0x3c351d0d	0.0110542895
79	0x3caf2f27	0.021384789
80	0xbc8d4b69	-0.017247872
81	0x3e121d8e	0.14269087
82	0x3de94011	0.11389173
83	0x3e1d9a9d	0.15391012
84	0x3e1fdc6e	0.15611431
85	0x3e401a2f	0.18759988
86	0x3dda28ff	0.10652351
87	0x3e2fe486	0.17177019
88	0x3dcf45d0	0.101207376
89	0x3e477651	0.19478728
90	0x3d822d78	0.06356329
91	0x3e201a3b	0.15635006
92	0x3d0faba3	0.035075795
93	0x3de07d40	0.109613895
94	0x3d552847	0.052040365
95	0x3e38658f	0.18007492
96	0x3e0b4a0f	0.1360247
97	0x3df28bde	0.11843084
98	0x3e007737	0.12545477
99	0xbd4489b2	-0.04798288
100	0x3dbe9d54	0.09307352
101	0x3d117bbc	0.035518393
102	0x3daa89bf	0.08327054
103	0x3d4e0004	0.050292984
104	0x3c125a86	0.008932715
105	0x3c241485	0.010014658
106	0x3d5407a8	0.051765114
107	0xbc5a284d	-0.0133152725
108	0x3d918a9a	0.07106514
109	0x3d45cf74	0.048293546
110	0x3d9b3ab1	0.07579554
111	0x3e02ebde	0.12785289
112	0x3d216a73	0.03940816
113	0x3e070e1d	0.13188978
114	0x3dac86a8	0.08424121
115	0x3d9fec2b	0.07808717
116	0x3d29f6b0	0.041495025
117	0xbc984ab8	-0.018590316
118	0x3d7a0b6c	0.06104605
119	0xbb5c909f	-0.0033655537
120	0x3d4540c9	0.048157487
121	0x3e07a04c	0.13244742
122	0x3df959df	0.12175345
123	0xbbd44204	-0.0064775962
124	0x3d2e8596	0.042607866
125	0xbbb63c6b	-0.0055614016
126	0xbd9332d4	-0.07187429
127	0x3d16cbb8	0.036815375
128	0xbd654bbe	-0.055980437
129	0x3c8ff235	0.017571548
130	0x3e3c67a1	0.18398906
131	0x3c80e4c7	0.01573409
132	0xbd1b0aa8	-0.03785196
133	0xbc8d64ab	-0.017259916
134	0xbc570baa	-0.0131253395
135	0xbe0563a1	-0.13026287
136	0x3c9da7fc	0.01924514
137	0xbe012c20	-0.12614489
138	0x3d14b309	0.036303554
139	0x3d6888b4	0.056770995
140	0x3d9eae60	0.07748103
141	0xbdea8f57	-0.11453121
142	0x3d02541d	0.031818498
143	0xbe166892	-0.14688328
144	0x3d8f2aed	0.06990609
145	0x3d5a3a0c	0.053278014
146	0x3d826ffe	0.06369017
147	0x3c2518ec	0.010076743
148	0xbe80918c	-0.25111043
149	0x3bd63330	0.0065368637
150	0x3db7a8ae	0.0896772
151	0x3b361708	0.0027784724
152	0x3dbf18d5	0.09330908
153	0x3e25c80d	0.16189595
154	0x3e46b1f1	0.19403817
155	0x3e126f99	0.14300384
156	0x3e422397	0.18958889
157	0x3dbb5126	0.09146337
158	0x3e43a708	0.19106686
159	0x3e00c5cb	0.12575452
160	0x3e4db37e	0.20088002
161	0x3e074bba	0.13212481
162	0x3c73e023	0.014884981
163	0x3d7c0c69	0.061535273
164	0x3c375f1a	0.011192108
165	0x3d84a181	0.06476117
166	0xbd3d4b45	-0.04621436
167	0x3d9dcc0e	0.07704936
168	0x3d782241	0.060579542
169	0x3d09ec23	0.033672463
170	0x3d1084b8	0.03528282
171	0xbe1d4790	-0.1535933
172	0xbd9b5346	-0.075842425
173	0xbe358bf1	-0.17729165
174	0xbd920f6c	-0.07131848
175	0xbdd9e925	-0.10640172
176	0xbda2b6b6	-0.079450056
177	0xbe2936cf	-0.16524814
178	0xbe191377	-0.14948831
179	0xbdde7d5c	-0.10863754
180	0x3d9f35d7	0.07773941
181	0x3d907484	0.070534736
182	0x3da23ce2	0.07921769
183	0x3cd0d742	0.025493268
184	0x3dfc301a	0.12313862
185	0x3de20766	0.110365674
186	0x3d700035	0.058593947
187	0x3dc12d4b	0.09432467
188	0x3c7c5027	0.015399969
189	0x3d058ffd	0.03260802
190	0xbc306fac	-0.010768812
191	0x3d7273f8	0.059192628
192	0x3c956548	0.018236771
193	0x3d7a6ce0	0.061138988
194	0x3c8a1ad4	0.016858496
195	0x3cc3307f	0.023826836
196	0x3d5b6a38	0.053568095
197	0x3cc7b4ad	0.024378145
198	0xbd1d591b	-0.038415056
199	0xbd873763	-0.06602361
200	0xbd217773	-0.039420556
201	0xbcfdca91	-0.03098038
202	0xbde71ded	-0.11285005
203	0xbd536ebd	-0.05161928
204	0xbd268072	-0.04064984
205	0xbc3ad15b	-0.011402453
206	0xbd4a3fb6	-0.049377166
207	0x3e3fabf7	0.18717943
208	0x3dce0a16	0.100605175
209	0x3e3730f1	0.17889763
210	0x3e2e862b	0.17043369
211	0xbce8e1db	-0.028428009
212	0x3ddde97d	0.1083555
213	0x3e1ee131	0.15515591
214	0x3e3de64c	0.18544883
215	0x3e569b6e	0.20957729
216	0x3df6fc3d	0.120598294
217	0x3dc0cfa1	0.09414602
218	0x3e0e7e6a	0.1391541
219	0x3dcab107	0.098970465
220	0x3db49b23	0.088186525
221	0x3d090265	0.03344955
222	0x3de0e69e	0.10981487
223	0x3da87c3e	0.08226822
224	0x3e09fb61	0.134748
225	0xbd17899d	-0.036996473
226	0xbe02d819	-0.12777747
227	0xbd2b6c55	-0.04185136
228	0xbdf20865	-0.118180074
229	0xbe010e0c	-0.12603015
230	0xbdc2ff3d	-0.09521339
231	0xbd6c037e	-0.057620518
232	0xbd8d5010	-0.06900036
233	0xbd53f822	-0.05175031
234	0x3d0dc681	0.034613136
235	0x3dba2e6d	0.09090886
236	0x3daaddae	0.08343063
237	0x3d29a027	0.0414125
238	0x3d5c7db0	0.053830802
239	0x3d1c3c79	0.03814361
240	0x3d1adcb5	0.03780814
241	0x3d6e7585	0.058217544
242	0x3d21838b	0.03943209
243	0x3da293cc	0.07938346
244	0xbd03ec83	-0.032207977
245	0x3d77fc4b	0.06054334
246	0xbcdcf461	-0.026971998
247	0xbe35b3bc	-0.17744344
248	0x3abcf5ed	0.0014416553
249	0x3d5e73fb	0.054309826
250	0x3bf51c4d	0.0074801804
251	0x3c974aec	0.018468343
252	0xbe56a3ae	-0.20960876
253	0xbdce7e5d	-0.10082696
254	0xbe1c1672	-0.15242937
255	0xbd361edd	-0.044463027

decoder_layers.block_0.transition.bias f4 [7]
0	0xbc3410fc	-0.0109903775
1	0x3cb9a7a2	0.022662941
2	0x3da6da68	0.081471264
3	0xbc0d19e0	-0.008612126
4	0xbd4e499e	-0.050363176
5	0xbd4acad0	-0.049509823
6	0x3d87a86d	0.066239215

decoder_layers.block_0.conv.weight f4 [28, 14, 1, 1]
0	0xbd9f8c7d	-0.07790468
1	0xbcbf0dfa	-0.023322094
2	0xbc7bf21e	-0.015377549
3	0xbda8a1a4	-0.082339555
4	0xbd8f49d1	-0.06996501
5	0x3d9b888a	0.07594402
6	0x3dc872f9	0.09787554
7	0xbdbefa15	-0.09325043
8	0xbe223340	-0.15839863
9	0x3bbd4bd6	0.0057768626
10	0xbd1b7674	-0.037954763
11	0x3b3e11ef	0.0029002388
12	0x3e33f58a	0.17574134
13	0xbe861fae	-0.26196045
14	0x3e8fc9a9	0.28083542
15	0x3dc73463	0.09726789
16	0xbe6fb0ba	-0.2340726
17	0xbd0dde63	-0.034635913
18	0xbd8bb390	-0.06821358
19	0xbe4b09d5	-0.1982797
20	0x3db5399a	0.08848877
21	0x3decac3e	0.1155629
22	0x3ea034e0	0.3129034
23	0xbc113999	-0.00886383
24	0x3d8f9f27	0.07012778
25	0x3c0789ab	0.008272569
26	0x3e589025	0.21148737
27	0x3b2cb6d4	0.0026354091
28	0xbd6975a8	-0.05699697
29	0xbe3384d2	-0.17531136
30	0xbda99c43	-0.08281758
31	0xbe16c4ab	-0.1472346
32	0x3caeb977	0.02132867
33	0x3dc73113	0.09726157
34	0xbd625ec9	-0.055266175
35	0xbea7b24b	-0.32753214
36	0xba104fa8	-0.0005505034
37	0xbdc2d6a1	-0.095135935
38	0x3db5c88e	0.088761434
39	0xbe840ae0	-0.25789547
40	0xbdd7f8b2	-0.10545482
41	0x3e7755d2	0.24153832
42	0x3e11e94d	0.14249153
43	0xbe13a5fa	-0.14418784
44	0x3e420b46	0.18949613
45	0xbd3edfbc	-0.04660009
46	0xba9060e8	-0.0011015208
47	0xbb4fbec7	-0.0031699406
48	0x3d44ffe5	0.048095603
49	0x3ba841d4	0.0051348004
50	0x3e8ae882	0.27130514
51	0xbe6d2985	-0.2316037
52	0xbbf3dda8	-0.007442195
53	0x3d867a2c	0.06566271
54	0xbe52883c	-0.20559782
55	0xbcbb34e8	-0.022852376
56	0x3ddca80d	0.10774241
57	0x3dab3ddf	0.0836141
58	0x3dc4bfbd	0.09606884
59	0xbd80a932	-0.062822714
60	0x3e7524cc	0.23939818
61	0x3e2e897e	0.17044637
62	0x3e054ef8	0.13018405
63	0xbe1b4b39	-0.15165414
64	0x3e25e32f	0.16199945
65	0xbcfa47f3	-0.030551886
66	0x3cab8f74	0.020942427
67	0xbd9e5b80	-0.07732296
68	0xbe3f26e2	-0.18667176
69	0x3e827dd0	0.25486612
70	0xbd955f09	-0.07293517
71	0x3c662f0b	0.014049302
72	0x3dddcd70	0.108302
73	0xbda51860	-0.0806129
74	0x3c328b89	0.010897526
75	0xbd0e8a03	-0.034799587
76	0x3e8c66a1	0.2742205
77	0xbcc575e4	-0.024104066
78	0x3bcae421	0.006191746
79	0xbd1ad3ca	-0.037799634
80	0x3d1b34cc	0.037892148
81	0xbdf2967e	-0.1184511
82	0x3e3686c1	0.17824842
83	0xbe3c33bb	-0.18379109
84	0x3b36121c	0.002778179
85	0xbcd5f914	-0.026119746
86	0x3e961211	0.2931066
87	0x3c9254db	0.017862728
88	0x3e334813	0.17507963
89	0x3e0cb18e	0.13739607
90	0xbe2168f8	-0.15762699
91	0xbdca1d2f	-0.098688476
92	0xbd815a0e	-0.06316005
93	0x3e0c6073	0.13708667
94	0xbe426616	-0.18984255
95	0xbcaf032f	-0.021363823
96	0xbe16d21f	-0.14728592
97	0x3e8eabab	0.27865347
98	0x3e861e8d	0.26195183
99	0xbe359457	-0.17732368
100	0xbdfdb6c0	-0.123883724
101	0x3d22277d	0.03958844
102	0xbe23fd80	-0.16014671
103	0xbdb81cfb	-0.089899026
104	0x3e2210c3	0.15826707
105	0x3da851e2	0.08218743
106	0xbe86b2a8	-0.2630818
107	0x3d8a56d5	0.06754843
108	0x3cafda01	0.021466257
109	0x3c9a9658	0.018870518
110	0x3de17192	0.1100799
111	0xbdc24097	-0.09484976
112	0x3ed63f9a	0.418454
113	0x3e9680bc	0.29395092
114	0xbeac77ba	-0.33685094
115	0xbcde6754	-0.02714888
116	0xbe24c26a	-0.16089788
117	0x3ec64748	0.38726258
118	0xbc28daed	-0.010306102
119	0x3c4f16a8	0.012639679
120	0x3ed7fdfe	0.42185968
121	0x3f1c6172	0.6108619
122	0x3d8ae54a	0.06782015
123	0x3f425941	0.7591744
124	0x3e3051af	0.1721866
125	0xba075204	-0.00051620626
126	0xbd6d5aef	-0.05794805
127	0x3e0ed190	0.13947129
128	0xbed7cf97	-0.42150566
129	0x3d76cc41	0.060253385
130	0xbea6aff8	-0.32556129
131	0xbeeaf28a	-0.45888168
132	0x3d919c6b	0.071099125
133	0x3ddd8f6f	0.108183734
134	0x3ed3cc6f	0.41366908
135	0xbdad47a6	-0.084609315
136	0x3e1d4acb	0.15360563
137	0xbe153316	-0.14570269
138	0x3d8f7bae	0.07006012
139	0xbe38638d	-0.18006726
140	0xbdd89c10	-0.105766416
141	0x3c62dfc5	0.013847296
142	0xbdb02a51	-0.08601821
143	0x3be4199f	0.006961062
144	0x3e2061dc	0.1566233
145	0x3e5d0555	0.21584065
146	0x3bc3e56c	0.005978277
147	0xbe3ecfcc	-0.18633956
148	0xbf0fb058	-0.56128454
149	0xbeb8f148	-0.36121583
150	0x3ef5917b	0.47962555
151	0xbe7f8357	-0.24952446
152	0xbcb8929a	-0.022530843
153	0xbee4d876	-0.44696397
154	0xbe7a0e27	-0.24419461
155	0x3ac08ab4	0.0014689774
156	0xbe745714	-0.23861343
157	0x3df33634	0.11875573
158	0xbc3ce860	-0.011530012
159	0xbe03ce3f	-0.12871645
160	0x3deb9d9e	0.115046725
161	0x3d4eb954	0.05046971
162	0x3dc10621	0.09424997
163	0xbdb1c27f	-0.08679675
164	0x3d31f116	0.043442808
165	0x3e1b88d7	0.15188919
166	0x3d9bec86	0.07613473
167	0x3c05419d	0.008133319
168	0xbd09e1ca	-0.033662595
169	0xbd5ce825	-0.053932328
170	0xbe181b80	-0.1485424
171	0x3e840af9	0.2578962
172	0xbdc2121a	-0.09476109
173	0xbe8798a8	-0.26483655
174	0x3d6dd068	0.05806008
175	0xbdec2320	-0.11530137
176	0xbdbbc57d	-0.09168527
177	0x3f0633b9	0.5242267
178	0x3d9a34b8	0.075295866
179	0xbe00573d	-0.12533279
180	0x3dc4a490	0.096017
181	0xbe72a391	-0.23695208
182	0x3e7722df	0.24134396
183	0x3de9ca75	0.11415569
184	0xbd0c660f	-0.03427702
185	0xbd0fedcc	-0.03513889
186	0x3ba6094d	0.0050670267
187	0xbd0562d6	-0.03256496
188	0x3e8636ee	0.26213783
189	0x3e079632	0.13240889
190	0xbe4af129	-0.19818558
191	0x3e874685	0.2642099
192	0x3d5f89a5	0.054574627
193	0xbd11cecb	-0.035597604
194	0x3bce340b	0.006292825
195	0xbe1b60a8	-0.1517359
196	0x3dc49a89	0.09599788
197	0xbe5bb742	-0.21456626
198	0xbe379935	-0.17929538
199	0xbe2f92bf	-0.17145823
200	0x3dfad782	0.12248136
201	0xbcc7da08	-0.024395958
202	0x3eed58c4	0.46356785
203	0xbde3563c	-0.11100432
204	0x3cf7d04b	0.030250689
205	0x3dcbcea2	0.099515215
206	0xbebafb35	-0.3651978
207	0x3dbb4f02	0.09145929
208	0xbe21da8e	-0.15806028
209	0xbdd9f8c7	-0.10643154
210	0x3e1141ad	0.1418521
211	0x3ccf1c78	0.02528213
212	0x3e177f13	0.14794569
213	0xbd95d64f	-0.07316267
214	0xbe10eae8	-0.1415211
215	0x3cb9bdb4	0.022673465
216	0xbd2b88b6	-0.041878425
217	0x3daba1b9	0.083804555
218	0xbd75d224	-0.06001486
219	0xbcb7910d	-0.022408033
220	0x3ea70d2a	0.3262723
221	0x3c459222	0.012058767
222	0xbce8d581	-0.02842212
223	0x3d2969b9	0.04136059
224	0xbe04f8e6	-0.12985572
225	0xbd4a00d9	-0.049317215
226	0xbe72c608	-0.23708355
227	0x3e44838a	0.19190803
228	0xbdc77d75	-0.09740726
229	0x3cdd2500	0.026995182
230	0xbc0bbafc	-0.008528467
231	0xbcd43aca	-0.025906939
232	0xbe979199	-0.2960327
233	0x3f8b7112	1.0893881
234	0xbe5281fb	-0.20557396
235	0xbdf2e5ea	-0.11860259
236	0xbdfccd9c	-0.123439044
237	0xbe07bda9	-0.13255943
238	0x3e49b7c7	0.19699012
239	0xbe3a94d6	-0.18220839
240	0x3e9bf496	0.30460042
241	0xbe8ac016	-0.27099675
242	0x3e2b9fad	0.1676013
243	0x3d975bb4	0.07390538
244	0x3deb91a3	0.115023874
245	0x3e43243b	0.1905679
246	0x3e0a2274	0.13489705
247	0xbf1749c9	-0.5909696
248	0x3ea2dff0	0.31811476
249	0x3e174496	0.14772257
250	0xbd83f784	-0.06443694
251	0xbe191085	-0.14947708
252	0xbe784a41	-0.24247076
253	0x3defe87e	0.11714266
254	0xbdee22bf	-0.11627721
255	0x3d778f86	0.06043961

decoder_layers.block_0.conv.bias f4 [28]
0	0x3dd67fb8	0.10473579
1	0x3cb096f5	0.021556357
2	0xbcd49f58	-0.025954887
3	0xbd829214	-0.063755184
4	0xbe34e238	-0.1766442
5	0xbc014d5f	-0.007891982
6	0xbd82a0d9	-0.063783355
7	0x3ddbc15c	0.1073024
8	0x3e12fd4f	0.14354442
9	0x3daa3c24	0.08312252
10	0xbdff3a4a	-0.1246229
11	0xbdc4f11e	-0.09616302
12	0xbe0d9f9f	-0.13830422
13	0x3e63eb8c	0.22257823
14	0xbd204e58	-0.039137214
15	0xbaec0593	-0.0018007032
16	0xbe449ab5	-0.19199641
17	0x3e015fbe	0.12634179
18	0x3e42ff8b	0.19042794
19	0xbe860da2	-0.26182276
20	0x3d5faaa8	0.05460611
21	0x3d833dec	0.06408295
22	0xbe93cb30	-0.28865957
23	0x3d93585b	0.07194587
24	0xbdd41835	-0.103561796
25	0x3bb92880	0.00565058
26	0x3d851ea9	0.064999886
27	0xbdca9be8	-0.09893018
