trainedModels/wave/speed-adapted/skip/16/run4/model.pt (torch, 105257 bytes, 19 tensors)

init.weight f4 [16, 1, 1, 1]
0	0x3cb200d2	0.021728907
1	0xbe3ddcd2	-0.18541268
2	0xbe7b06bb	-0.24514286
3	0xbe5317dd	-0.20614572
4	0xbf0b61d3	-0.5444614
5	0xbeb3b390	-0.35097933
6	0x3e1e056e	0.15431759
7	0x3f034beb	0.51287717
8	0xbef5a6cd	-0.4797882
9	0x3e3336e1	0.17501403
10	0xbef136fc	-0.47112262
11	0x3f0a9093	0.5412685
12	0xbf245763	-0.6419584
13	0xbebb05f5	-0.36527982
14	0xbe7cce1b	-0.24687998
15	0xbe8dd408	-0.2770083

init.bias f4 [16]
0	0xbe451d33	-0.1924942
1	0xbe9f0c42	-0.3106404
2	0xbdc7b9c5	-0.097522296
3	0xbe6a7a10	-0.22898126
4	0xbe3af3e0	-0.18257093
5	0xbe11c6f5	-0.14236052
6	0xbd197613	-0.03746612
7	0xbdf353b7	-0.11881202
8	0xbda20a74	-0.0791215
9	0xbdffcb29	-0.124899216
10	0x3e4f4339	0.20240487
11	0xbe8182ff	-0.25295255
12	0xbe54b899	-0.20773543
13	0xbdbe4825	-0.09291104
14	0x3ca3c3a7	0.019990755
15	0x3d152b70	0.03641838

encoder_layers.block_0.transition.weight f4 [16, 32, 3, 3]
0	0xbc84e551	-0.016222628
1	0x3c7537b2	0.014966892
2	0xbbd0ed7f	-0.006375968
3	0xbcdef651	-0.027217062
4	0x3b10c4f8	0.0022090059
5	0x3cc8dbd7	0.02451889
6	0x3baa3eee	0.00519549
7	0x3cbb3bdc	0.022855692
8	0xbae79160	-0.0017667226
9	0xbb76999f	-0.0037628186
10	0x397a63b8	0.00023879006
11	0xbbe29c46	-0.006915602
12	0xbcd591a3	-0.026070422
13	0xbd4cb4bd	-0.049977053
14	0x3c1d2791	0.009591953
15	0x391f21ac	0.00015175965
16	0xbd10b119	-0.035325143
17	0xbd4de5e0	-0.050268054
18	0xba3f41f1	-0.0007295898
19	0x3ae5dd2d	0.0017537229
20	0x3b6d04d7	0.0036166215
21	0xbabddbbb	-0.001448504
22	0xbd29e736	-0.041480266
23	0xbd5b1188	-0.053483516
24	0x370adebc	8.2773e-06
25	0xbc72bbd9	-0.014815294
26	0xbd51e699	-0.051245306
27	0xbd070dd9	-0.03297219
28	0xbb694785	-0.0035595607
29	0xbd13837c	-0.036014065
30	0x3c748111	0.01492335
31	0xbc845532	-0.016153906
32	0xbc5b619e	-0.013389973
33	0xbc2a8b22	-0.010409148
34	0xbc497295	-0.012295385
35	0xbd1efd8f	-0.03881603
36	0xbca49c6f	-0.020094125
37	0xbd373ec9	-0.04473761
38	0x3ac026ad	0.0014659964
39	0xbd6b5d40	-0.057461977
40	0xbd5c26d0	-0.053747952
41	0xbd35aaa7	-0.0443522
42	0xbd09a435	-0.033603866
43	0xbcb1999a	-0.021679688
44	0xbd06d419	-0.032917116
45	0xbc0863d4	-0.008324582
46	0xbd544857	-0.0518268
47	0xbcc7836c	-0.024354659
48	0xbd680eca	-0.05665473
49	0xbd5989de	-0.053109996
50	0xbd5a6fe6	-0.05332937
51	0xbcaba5ec	-0.020953141
52	0xbd2453e4	-0.040119067
53	0xbd363638	-0.0444853
54	0xbb615229	-0.0034381247
55	0x3bbfd2d4	0.00585399
56	0xbb5fb5ef	-0.003413554
57	0x3b77662a	0.0037750104
58	0x3c505432	0.012715386
59	0x3d5f510a	0.054520644
60	0xbada0af8	-0.0016635349
61	0x3d1bfa51	0.038080517
62	0xbb309dba	-0.002694948
63	0x3c5311e9	0.012882688
64	0x3d2951d2	0.041337796
65	0xbc2fdc98	-0.010733746
66	0x3d79bcb8	0.06097099
67	0x3cc2f9f7	0.023800833
68	0x3c6ee48a	0.014580855
69	0x3cb83bce	0.022489455
70	0x3d0c73ac	0.03429
71	0x3c9933d8	0.018701479
72	0xbc3d95f0	-0.011571392
73	0xbc404844	-0.0117359795
74	0x3b89570c	0.004191285
75	0xbcb8e686	-0.02257086
76	0xbd3574cf	-0.04430085
77	0xbce76421	-0.028245987
78	0xbd2be175	-0.04196306
79	0xbd361ba0	-0.04445994
80	0xbcbde3c7	-0.023179902
81	0x3c3dfac8	0.011595435
82	0xbc36de3a	-0.011161381
83	0x3c7fa281	0.015602709
84	0xbb97bc08	-0.0046305694
85	0xbbea3438	-0.0071473382
86	0x3b7e1ca2	0.003877439
87	0xbcd8adf0	-0.026450127
88	0x39e51fb2	0.00043701899
89	0x3c1a3074	0.009410966
90	0x3a88ba2f	0.0010431464
91	0xbcce3b9c	-0.025174908
92	0xbcc27728	-0.023738459
93	0xbce3a195	-0.02778701
94	0xbd7fd3d2	-0.062457867
95	0xbc761752	-0.015020208
96	0xbb3139b2	-0.0027042446
97	0x3adabeb2	0.0016688912
98	0xbc722865	-0.014780139
99	0xbc27121b	-0.010197188
100	0x3d4ba2c0	0.049715757
101	0x3b019df4	0.0019777985
102	0x3d225b52	0.03963787
103	0x3d879edc	0.06622097
104	0x3d6828fb	0.056679707
105	0xbc73b704	-0.014875177
106	0x3d21cb68	0.039500624
107	0x3b8f7ca5	0.0043788725
108	0xbc88c15b	-0.016693762
109	0xbd3e2551	-0.046422306
110	0xbd23ba68	-0.039972693
111	0xbd20dff1	-0.039276067
112	0xbd167204	-0.036729828
113	0xbb6b1ad7	-0.0035874152
114	0xbc83e007	-0.016098035
115	0xbc86000a	-0.01635744
116	0xbb82160d	-0.003969914
117	0xbc848f0a	-0.016181488
118	0xbc7afcbc	-0.015319046
119	0xbd36ec61	-0.044659022
120	0xbd8bc921	-0.06825472
121	0xbd0f8425	-0.035038132
122	0xbcc9605a	-0.024582077
123	0xbcc2ebc8	-0.02379407
124	0xbd599286	-0.05311825
125	0xbb15a196	-0.0022831908
126	0xbd0824d2	-0.03323824
127	0xbd6a1348	-0.057147294
128	0xbae4061c	-0.001739684
129	0xbd5d02fd	-0.053957928
130	0xbd85e98f	-0.065386884
131	0xbd49c871	-0.04926342
132	0xbcebbafa	-0.02877568
133	0xbcc35a92	-0.023846898
134	0x3cd40a9a	0.025883961
135	0xbd1dce2a	-0.03852669
136	0xbc8ccc62	-0.017187301
137	0xbcb2518b	-0.021767398
138	0xbd535a5a	-0.051599838
139	0xbd01bd97	-0.031674948
140	0xbd66e4ca	-0.056370534
141	0xbc1f1bdb	-0.009711231
142	0xbd28f534	-0.04124947
143	0x3c2fbf41	0.010726751
144	0xbd6c3605	-0.057668705
145	0x3c830100	0.015991688
146	0xbd40d6d6	-0.047079884
147	0xbc0e79ef	-0.008696063
148	0x3cda9873	0.026684022
149	0xbc8832c9	-0.016625779
150	0xbd996bf3	-0.07491293
151	0xbc9ab5bf	-0.018885491
152	0xbd62e1f4	-0.055391267
153	0x3d5c9c50	0.05386001
154	0x3b38012d	0.0028076873
155	0x3c9d2ebf	0.01918733
156	0xbb7a4a57	-0.0038191283
157	0xbd71068d	-0.058844138
158	0xbd18c4d4	-0.037297085
159	0xbbfcc833	-0.0077142953
160	0x3ac6c5c8	0.0015165145
161	0x3ba620ea	0.0050698416
162	0xbd119c69	-0.035549555
163	0xbd6720d8	-0.056427807
164	0xbd607972	-0.05480332
165	0xbd9d17bf	-0.07670545
166	0xbe516c03	-0.2045136
167	0xbdce1500	-0.10062599
168	0xbda39add	-0.07988522
169	0xbdae004e	-0.08496152
170	0xbda71dba	-0.08159967
171	0xbdd7b590	-0.10532677
172	0xbde98f91	-0.11404336
173	0xbe24b95f	-0.16086338
174	0xbdf62401	-0.12018586
175	0xbe10285b	-0.14077894
176	0xbdb01f5a	-0.0859973
177	0xbde044df	-0.10950636
178	0xbdee3415	-0.116310276
179	0xbde764ab	-0.11298498
180	0x3cc923f0	0.02455327
181	0xbc2c6796	-0.010522744
182	0x3ba0af05	0.0049036765
183	0xbcdbce15	-0.026831666
184	0xbe05acd6	-0.13054213
185	0xbd082cf6	-0.033246003
186	0x3cf973f2	0.030450795
187	0xbccd21b1	-0.02504048
188	0x3d91890c	0.07106218
189	0x3de42b78	0.111411035
190	0x3d37a182	0.04483176
191	0x3df5a38a	0.11994083
192	0x3cedd9b7	0.029034479
193	0x3cfe9d39	0.031080829
194	0x3d13cf9f	0.036086675
195	0x3e098d53	0.13432817
196	0x3d28ba9c	0.04119359
197	0x3e076088	0.13220417
198	0xbbeb8796	-0.007187794
199	0xbd8fad78	-0.070155084
200	0x3d453e2d	0.048155
201	0xbd634650	-0.055486977
202	0xbe17fe33	-0.14843063
203	0xbd1de386	-0.03854706
204	0x3c8ede44	0.017439969
205	0xbd36f024	-0.04466261
206	0x3ce9eb92	0.028554711
207	0x3d0f0e4a	0.034925736
208	0xbc882ad6	-0.016621988
209	0xbc3a4c19	-0.011370682
210	0xba71ba6d	-0.00092212
211	0xbd9bca7f	-0.076069824
212	0xbbe7e08e	-0.0070763296
213	0x3c0764ea	0.008263806
214	0xbc801a86	-0.015637647
215	0x3cb2dc2e	0.021833505
216	0x3cfd9d7b	0.030958882
217	0xbda070fc	-0.0783405
218	0x3d9555aa	0.0729173
219	0xbd651b90	-0.05593449
220	0xbde80e96	-0.11330907
221	0xbd631f93	-0.055450033
222	0x3d42310c	0.047410056
223	0xbd5a7f1f	-0.05334389
224	0x3cfec5ef	0.031100241
225	0xbddcf88b	-0.10789593
226	0xbbcf68d6	-0.006329636
227	0xbdce5a02	-0.100757614
228	0x3c74079d	0.014894393
229	0x3ec5329f	0.38515183
230	0xbb829526	-0.003985065
231	0xbda08ae8	-0.07838994
232	0x3bc32a1b	0.005955947
233	0xbdbfa6ce	-0.09357987
234	0x3db15ea2	0.08660628
235	0x3ce0f365	0.02745981
236	0x3cf9b14b	0.030480048
237	0x3d041031	0.032242004
238	0x3ddcca86	0.10780816
239	0x3d3597d5	0.04433425
240	0x3d6adf76	0.057342015
241	0x3d5a4d09	0.053296123
242	0x3d8fc831	0.07020605
243	0x3e1bae6d	0.15203257
244	0x3d984145	0.07434324
245	0x3e240ae8	0.16019785
246	0x3df8b042	0.121429935
247	0x3e808009	0.25097683
248	0x3de6eb0e	0.11275302
249	0x3e3fbae5	0.18723638
250	0x3dbcfcca	0.09227903
251	0x3e1e4c90	0.15458894
252	0x3d398e21	0.04530156
253	0xbd5ddcc6	-0.054165624
254	0x3d3adaae	0.045618705
255	0xbd1a3919	-0.03765211

encoder_layers.block_0.transition.bias f4 [16]
0	0x3c8fb14c	0.017540596
1	0xbaa4ace1	-0.0012563729
2	0xbd914b7b	-0.07094475
3	0xbc1cdea0	-0.009574562
4	0x3daa4c92	0.08315386
5	0x3d0bb062	0.03410376
6	0xbd233078	-0.039841145
7	0xbdbb4cfc	-0.09145543
8	0xbdd1aaae	-0.10237633
9	0xbc5fedd5	-0.013667543
10	0x3d2f5d28	0.04281345
11	0xbd03b058	-0.032150596
12	0xbd608a49	-0.05481938
13	0x3b7ced4c	0.0038593588
14	0x3d7ff194	0.062486246
15	0x3c02ec37	0.007990888

encoder_layers.block_0.conv.weight f4 [64, 32, 1, 1]
0	0x3d76a18a	0.06021265
1	0x3d043bf5	0.032283742
2	0x3d8abb78	0.06774038
3	0x3cd614dd	0.026132995
4	0x3f10c593	0.56551474
5	0x3c595938	0.0132659
6	0xbe37c621	-0.17946674
7	0xbdfec0be	-0.124391064
8	0xbbb30913	-0.005463728
9	0x3da62d64	0.08114126
10	0xbde3baa3	-0.111195825
11	0xbdca4e4f	-0.098782174
12	0x3d75de5e	0.06002652
13	0x3d290d1e	0.041272275
14	0xbd01bea1	-0.03167594
15	0x3d9eff86	0.07763581
16	0x3da6d562	0.08146168
17	0x3d1b5e64	0.037931815
18	0x3dd3c1b8	0.10339683
19	0xbd8920a0	-0.06695676
20	0xbe3ea494	-0.18617469
21	0x3e33fc30	0.1757667
22	0x3dd0359f	0.101664774
23	0xbd9d5178	-0.076815546
24	0xbe289c60	-0.16465902
25	0x3e59e1fe	0.21277615
26	0x3daaf68b	0.083478056
27	0x3bf622fd	0.007511495
28	0xbe0549fa	-0.13016501
29	0xbd9fc054	-0.078003556
30	0x3d422ccf	0.047406014
31	0xbe51c868	-0.20486605
32	0x3d6d5464	0.05794181
33	0x3d7336c2	0.059378393
34	0xbe137c0a	-0.14402786
35	0xbdece138	-0.115663946
36	0x3e6184c9	0.2202331
37	0xbd156d2f	-0.03648108
38	0xbe15dce8	-0.1463505
39	0xbd8ae65c	-0.06782219
40	0x3e0f4dab	0.13994472
41	0x3e009b6a	0.12559286
42	0x3d9554aa	0.07291539
43	0x3c616de2	0.013759108
44	0xbc1ee7b4	-0.009698797
45	0xbdb59261	-0.0886581
46	0x3d93bdfe	0.072139725
47	0xbde79129	-0.11306984
48	0x3dfd5c06	0.12371068
49	0x3caf7601	0.021418573
50	0xbe07251a	-0.13197747
51	0xbeb8af9d	-0.36071482
52	0x3e270b12	0.16312817
53	0x3daec07b	0.085328065
54	0xbd43f33b	-0.047839385
55	0xbd01211e	-0.031525724
56	0xbd3a5042	-0.045486696
57	0x3e0ac9fe	0.13553616
58	0xbc0b830e	-0.008515133
59	0xbcd2d3a1	-0.025735678
60	0xbc660f79	-0.014041775
61	0xbd8987ff	-0.06715392
62	0x3c3ac41a	0.011399293
63	0x3e1b9545	0.1519366
64	0x3cab3451	0.02089897
65	0x3db9b38f	0.09067451
66	0xbdb48ad8	-0.08815545
67	0xbdd78567	-0.10523491
68	0xbd5508a9	-0.052010212
69	0x3cbcbe4b	0.023039958
70	0xbe0ef108	-0.13959134
71	0xbd0181a8	-0.03161779
72	0x3d3ebea6	0.046568535
73	0x39fa89b3	0.0004778631
74	0xbdb60455	-0.08887545
75	0xbd910a9a	-0.070821
76	0xbd4a6495	-0.04941233
77	0xbce424c5	-0.027849564
78	0xbba90f40	-0.0051592886
79	0x3cafd5b4	0.021464206
80	0x3d517604	0.05113794
81	0x3e173a5f	0.1476836
82	0x3d41df20	0.04733193
83	0xbdec29ac	-0.11531386
84	0x3e547876	0.20749077
85	0x3d6b797e	0.05748891
86	0x3da22b3a	0.07918401
87	0x3de8a4d3	0.11359563
88	0xbccf87bb	-0.025333276
89	0x3d23ba5e	0.039972655
90	0x3d8bf6a3	0.068341516
91	0x3d23ff23	0.04003824
92	0x3c4f1ee6	0.012641644
93	0xbe4a832b	-0.19776599
94	0x3bcc892a	0.006241937
95	0x3ea9898a	0.33112746
96	0xbd99bf95	-0.075072445
97	0xbc789c11	-0.015173928
98	0x3c5a123e	0.013310013
99	0x3e3750c1	0.17901899
100	0x3e546b6a	0.207441
101	0x3db38bbf	0.08766889
102	0x3c7c6a84	0.015406255
103	0x3d73a453	0.059482884
104	0x3dc08b1a	0.094015315
105	0xbcf21a10	-0.029553443
106	0x3c0f12d8	0.00873252
107	0x3da2e1e2	0.0795324
108	0xbde8c6f2	-0.11366071
109	0x3d02a870	0.031898916
110	0xbddaa632	-0.106762305
111	0xbd230825	-0.03980269
112	0x3d00e206	0.031465553
113	0xbda4037a	-0.080084756
114	0x3dd4bc92	0.103875294
115	0xbcc65dbb	-0.024214616
116	0xbd56a896	-0.05240687
117	0xbd408444	-0.04700114
118	0xbdf742e8	-0.12073308
119	0x3d787f62	0.060668357
120	0xbdda27c5	-0.10652117
121	0xbe4ab9bd	-0.19797416
122	0xbd305f20	-0.04305947
123	0xbe67115d	-0.22565217
124	0x3d443cb9	0.047909472
125	0x3d94efe7	0.0727232
126	0xbe121d68	-0.1426903
127	0x3d89e70d	0.067335226
128	0x3e315eca	0.17321315
129	0x3c9975da	0.018732954
130	0xbcb7c6de	-0.022433694
131	0xbdd5a93e	-0.10432671
132	0x3d9cc3f4	0.076545626
133	0x3da3c1ab	0.079959236
134	0xbe1654cc	-0.14680785
135	0x3e35f939	0.17770852
136	0xbe169a5e	-0.14707324
137	0x3e0d6aba	0.13810244
138	0x3e67cbed	0.22636385
139	0xbd15d184	-0.036576763
140	0x3d8f4ab9	0.06996674
141	0xbe061976	-0.1309565
142	0x3d0b92fb	0.03407572
143	0x3c77af8e	0.015117539
144	0x3e0be3ac	0.13661069
145	0xbd486d14	-0.04893215
146	0xbd31305d	-0.043259013
147	0xbdbcc2ee	-0.092168674
148	0x3ab04022	0.0013446847
149	0x3d32609c	0.043549165
150	0xbd897286	-0.06711297
151	0xbdc96457	-0.098335914
152	0x3adca2fe	0.0016833243
153	0x3d3a74a8	0.04552141
154	0x3c94dd8f	0.018172054
155	0xbd4cc4e2	-0.04999245
156	0xbc86d1ee	-0.016457524
157	0xbd179b60	-0.03701341
158	0x3d18a068	0.03726235
159	0xbbb463c9	-0.0055050594
160	0xbdb4a961	-0.08821369
161	0x3d9cd1e8	0.07657224
162	0xbd1a4c74	-0.037670568
163	0x3cbc405c	0.022979908
164	0x3e38c4b2	0.18043783
165	0xbd4cea04	-0.050027862
166	0xbe3476e7	-0.17623483
167	0xbdd7551f	-0.105142824
168	0xbd5c07f0	-0.053718507
169	0xbc859b72	-0.016309474
170	0xbc5ec063	-0.013595673
171	0xbbc413d4	-0.005983809
172	0xbde95433	-0.11393013
173	0xbd3710e7	-0.044693854
174	0x3cb080b2	0.021545742
175	0x3e0a2f06	0.134945
176	0x3e38b2a9	0.18036903
177	0x3c94af6b	0.018150052
178	0xbca75e78	-0.020430788
179	0xbdd22a3a	-0.1026196
180	0x3d744774	0.059638456
181	0x3e71bf5e	0.23608157
182	0x3db3bf92	0.087767735
183	0x3da98ae3	0.08278444
184	0xbda78fc5	-0.08181719
185	0xbe143cc2	-0.14476302
186	0xbda2b456	-0.079445526
187	0xbe47889c	-0.19485706
188	0x3d287101	0.041123394
189	0x3d23e9d9	0.040017936
190	0xbda39f0f	-0.079893224
191	0x3d0d0d3f	0.03443646
192	0xbc65d2bf	-0.014027297
193	0x3d5fec18	0.054668516
194	0xbdab0425	-0.083504
195	0xbb2ea4b4	-0.0026648464
196	0xbdebec64	-0.11519697
197	0x3c73af52	0.014873343
198	0x3e263d7b	0.1623439
199	0x3e297b5d	0.16550966
200	0x3e9648de	0.29352468
201	0x3b0f27ed	0.0021843866
202	0xbbb1517c	-0.005411325
203	0x3e0e7101	0.13910295
204	0xbd374d15	-0.044751246
205	0x3e5458a0	0.20736933
206	0x3d9b6b04	0.07588771
207	0x3e1909c4	0.14945132
208	0xbe0a624a	-0.13514057
209	0x3dc97231	0.098362334
210	0xbc866430	-0.016405195
211	0xbd28cf68	-0.041213423
212	0x3e02fe55	0.12792332
213	0x3d07bbff	0.03313827
214	0x3df40ad8	0.11916131
215	0xbb051cf9	-0.0020311459
216	0x3cff623b	0.03117477
217	0x3c5d1d65	0.013495778
218	0x3cb78f85	0.022407303
219	0x3e06427b	0.13111298
220	0x3db92b95	0.09041516
221	0x3e4b505d	0.19854875
222	0x3d9bed65	0.07613639
223	0xbd23cbb5	-0.039989192
224	0x3c089f6b	0.008338789
225	0x3d7892ab	0.06068675
226	0x3db9ba11	0.090686925
227	0x3df2c390	0.11853707
228	0xbd108384	-0.035281673
229	0x3d9064f4	0.07050505
230	0x3cd640d6	0.026153963
231	0x3e01be78	0.12670314
232	0xbc639ca1	-0.013892324
233	0xbd23ddc6	-0.04000642
234	0xbd0c767e	-0.03429269
235	0x3d74d42d	0.05977266
236	0xbd600116	-0.054688536
237	0xbb17f9ec	-0.0023189737
238	0xbe217813	-0.15768461
239	0xbd0ddebf	-0.034636255
240	0x3de4f02b	0.11178621
241	0x3d05747f	0.032581802
242	0x3ce1d9b6	0.027569633
243	0xbe2d3789	-0.16915716
244	0x3e2eae06	0.17058572
245	0x3dd4d383	0.10391905
246	0xbce36177	-0.027756436
247	0x3ccf6a16	0.02531914
248	0xbd0c758e	-0.034291796
249	0xbcbd1c33	-0.023084735
250	0xbdbca546	-0.09211211
251	0xbdce6926	-0.10078649
252	0x3e1b2c47	0.15153609
253	0x3d0ccec5	0.03437688
254	0xbdd7bd32	-0.10534133
255	0x3dbddd1f	0.09270691

encoder_layers.block_0.conv.bias f4 [64]
0	0xbd233a9d	-0.03985082
1	0x3d0b1c3d	0.033962477
2	0x3da4ce80	0.08047199
3	0x3c9e2e0e	0.01930907
4	0xbd16e267	-0.036837008
5	0xbd674bf5	-0.056468923
6	0x3cafdb51	0.021466883
7	0xbd3004b4	-0.042973235
8	0xbdc48382	-0.095953956
9	0x3db24a92	0.087056294
10	0x3d1904e9	0.0373582
11	0xbd739025	-0.05946364
12	0x3d4a0cde	0.049328677
13	0xbc55ee7b	-0.013057346
14	0x3c696f47	0.014247722
15	0xbb38c9da	-0.0028196485
16	0x3dbf97f4	0.09355155
17	0x3d69ee4e	0.05711203
18	0xbc989466	-0.01862545
19	0x3d0807bc	0.0332105
20	0xbe28838a	-0.16456428
21	0x3e3436fd	0.17599101
22	0x3e25553e	0.16145799
23	0xbc9cdfbc	-0.019149654
24	0x3d77a4a0	0.060459733
25	0x3d8fba9b	0.07018014
26	0x3cb399df	0.021923957
27	0xbde43ece	-0.111447915
28	0x3d952ee7	0.072843365
29	0xbdbe0a79	-0.09279341
30	0xbd3b1fdc	-0.04568468
31	0xbd07351a	-0.033009626
32	0xbda1c93c	-0.078997105
33	0xbd269af6	-0.040675126
34	0xbe278297	-0.1635841
35	0xbde98f11	-0.11404241
36	0x3d9b72fc	0.07590291
37	0xbdb02bd1	-0.08602107
38	0x3ba57b32	0.0050500864
39	0xbce90a71	-0.028447362
40	0x3bed78f7	0.007247086
41	0xbc9aa605	-0.018877992
42	0xbe397f55	-0.1811498
43	0x3b676fe1	0.0035314488
44	0xbdd1c0b3	-0.102418326
45	0xbc87ec85	-0.016592273
46	0xbe416194	-0.1888488
47	0xbcd48daa	-0.025946457
48	0x3c760f75	0.015018334
49	0xbc4af386	-0.012387162
50	0x3ceec3d6	0.029146116
51	0x3ce00853	0.02734772
52	0xbc5920a0	-0.013252407
53	0x3c88cde9	0.016699748
54	0xbd97f6b6	-0.07420103
55	0xbcfab24b	-0.030602595
56	0xbc158616	-0.009126207
57	0x3d9fb3b0	0.077979445
58	0xbd95f00d	-0.07321177
59	0xbdaafc1a	-0.08348866
60	0xbcaa6591	-0.020800384
61	0xbd5b2690	-0.053503573
62	0x3caa94e3	0.020822948
63	0x3d768f23	0.0601951

encoder_layers.block_1.transition.weight f4 [16, 32, 3, 3]
0	0xbb615deb	-0.0034388255
1	0x3d72619d	0.059175123
2	0xbc93930b	-0.018014451
3	0x3d2d7593	0.042348456
4	0x3e474bc6	0.19462499
5	0x3d3549f4	0.04425998
6	0x3c32ae96	0.010905882
7	0x3d2747e8	0.04084006
8	0xbcb05355	-0.02152411
9	0xbd5d07a6	-0.053962372
10	0x3c1e53d2	0.009663539
11	0xbd81b30c	-0.063329786
12	0xbc3270a3	-0.0108911125
13	0xbde09d92	-0.10967554
14	0xbd3d38a7	-0.046196606
15	0xbd6ec3a3	-0.058292042
16	0xbacbf641	-0.001556106
17	0xbd2a9c03	-0.04165269
18	0xbc7cc2f7	-0.015427343
19	0xbd1102be	-0.035403006
20	0x3c1c15b3	0.009526658
21	0xbd28b8a5	-0.041191716
22	0xba811998	-0.0009849546
23	0xbd040dfb	-0.032239895
24	0x3c22898c	0.009920489
25	0xbcb1c160	-0.021698654
26	0xbc6b807e	-0.014373897
27	0x3e0f822d	0.14014502
28	0x3c9b90c5	0.01898993
29	0x3e239bfd	0.15977474
30	0xbd0c79a2	-0.034295686
31	0xbe283a8c	-0.16428584
32	0x3c8468fd	0.016163344
33	0x3e2e70c0	0.17035198
34	0xbc845040	-0.016151547
35	0x3e12faea	0.14353529
36	0x3c0528f5	0.008127441
37	0x3d9dbed8	0.07702416
38	0xbb5b2db5	-0.0033443992
39	0x3d7d43a8	0.0618321
40	0x3d02e566	0.031957053
41	0x3d335594	0.043782786
42	0xbceec250	-0.02914539
43	0x3d83b98b	0.06431874
44	0x3c897690	0.016780168
45	0xbd4f982a	-0.050682224
46	0x3c9d6d3c	0.019217126
47	0xbd167623	-0.036733758
48	0x3ccf4f00	0.025306225
49	0x3e45f0dd	0.19330163
50	0x3c84da04	0.01621724
51	0xbce5e8e4	-0.028065152
52	0x3c355cef	0.01106952
53	0xbd8dbee6	-0.069211766
54	0x3c29f135	0.01037245
55	0x3c94fc7a	0.018186796
56	0x3c06e249	0.0082326615
57	0x3c6b0bfd	0.01434612
58	0x3d27b002	0.04093934
59	0x3b2b9e78	0.0026186984
60	0xbc24553b	-0.010030086
61	0x3a8774c9	0.0010334487
62	0xbade7e91	-0.0016974976
63	0xbb01d0a7	-0.0019808204
64	0xbbf59fb5	-0.007495845
65	0x3c98acde	0.018637117
66	0xbc7a396a	-0.015272478
67	0xba8678dd	-0.0010259409
68	0xba17d76b	-0.00057922926
69	0x3c9db7ce	0.019252684
70	0x3bfc47b1	0.007698976
71	0x3c37b4ba	0.011212522
72	0x3d97db47	0.07414871
73	0x3ca546ac	0.0201753
74	0x3d8ebb44	0.06969312
75	0x3cd8aaf1	0.026448699
76	0x3d676db2	0.056501098
77	0x3c89e11f	0.016830979
78	0x3d7b40d9	0.06134114
79	0x3c8b78f5	0.01702545
80	0x3d783a74	0.06060262
81	0x3b38b7a6	0.0028185635
82	0x3cf172b4	0.02947364
83	0xbd30b5e6	-0.043142222
84	0x3cac60a6	0.02104218
85	0xbdd7e8ac	-0.105424255
86	0x3d085545	0.033284444
87	0xbce3110b	-0.027718088
88	0x3d4cffb4	0.050048545
89	0xbc466464	-0.012108896
90	0x3d0c8e13	0.03431518
91	0x3d50e0d9	0.05099568
92	0x3d177d4b	0.036984723
93	0x3d18b4c5	0.03728177
94	0xbdde16bc	-0.1084418
95	0x3d8782ae	0.06616722
96	0xbc37e140	-0.011223137
97	0x3d94d436	0.072670385
98	0x3d27e244	0.040987268
99	0x3d95fab6	0.0732321
100	0xbc8d4d08	-0.017248645
101	0x3ca5362f	0.020167438
102	0x3b94cdda	0.004541141
103	0xbdcf3301	-0.1011715
104	0xbd640c85	-0.055676002
105	0x3d6c3ad3	0.057673287
106	0xbad58112	-0.0016289076
107	0x3d849786	0.06474213
108	0x3d2d2400	0.04227066
109	0x3d428d95	0.047498304
110	0x3c649dfd	0.013953683
111	0x3cb50b60	0.02210015
112	0xbdb38cca	-0.08767088
113	0x3d39dbe5	0.045375723
114	0x3d2fc24b	0.0429099
115	0x3d0b0d9b	0.033948522
116	0x3b98e710	0.0046662167
117	0x3b21b0ea	0.00246721
118	0x3dacc382	0.08435728
119	0xbca596c6	-0.020213496
120	0x3dd0ddba	0.10198541
121	0xbd4b9fc3	-0.049712908
122	0x3d89bea1	0.06725813
123	0xbd0da679	-0.03458259
124	0x3d9cb061	0.07650829
125	0xbc3ce7dc	-0.011529889
126	0x3caf05a8	0.021365002
127	0x3c94f240	0.01818192
128	0x3b5ce2d7	0.0033704543
129	0x3bada9a4	0.0052997638
130	0x3d5eeb76	0.05442377
131	0xbc9e48da	-0.019321848
132	0x3ccc3188	0.024925962
133	0xbc8ea67c	-0.01741337
134	0x3aea8325	0.0017891867
135	0xbcc8f4a8	-0.024530724
136	0x3d209160	0.03920114
137	0x3a307d72	0.000673256
138	0x3d142db9	0.036176417
139	0x3cf52c0e	0.029928233
140	0x3cc704c5	0.024294266
141	0x3c3f99a7	0.011694348
142	0x3cf0bc03	0.029386526
143	0xbd786dea	-0.060651697
144	0x3d3f6caf	0.046734508
145	0xbd880085	-0.06640724
146	0x3cc10203	0.02356053
147	0xbcccb123	-0.02498681
148	0xbd4fdde1	-0.05074871
149	0xbd111c03	-0.035427105
150	0x3ce952ad	0.028481806
151	0xbca6b0ac	-0.020347916
152	0x3d394ed9	0.04524121
153	0xbca8bbac	-0.020597301
154	0x3b401304	0.002930821
155	0xbb901548	-0.004397068
156	0xb997ae67	-0.00028930904
157	0xbdc977e1	-0.09837318
158	0xbc440499	-0.011963987
159	0xbc8cd7d2	-0.017192755
160	0x3d1856b6	0.03719207
161	0xbca26483	-0.019823318
162	0xbe1330b3	-0.14374046
163	0xbd3382a4	-0.04382576
164	0xbe1bedda	-0.15227452
165	0xbd46dfc3	-0.04855324
166	0x3dbdb591	0.09263147
167	0xbd46a87d	-0.048500527
168	0xbe121783	-0.14266782
169	0xbd26c379	-0.04071376
170	0xbdf80afc	-0.1211147
171	0xbbbfb940	-0.005850941
172	0x3c02facc	0.007994365
173	0x3bf5a327	0.007496256
174	0x3b6f7496	0.0036537996
175	0xbddbc020	-0.10730004
176	0x3ccab37c	0.024743788
177	0xbd2d3b38	-0.042292804
178	0x3c60f020	0.013729125
179	0xbc5d9856	-0.013525089
180	0xbbe920c6	-0.0071145026
181	0xbd200805	-0.039070148
182	0xbd9dd69d	-0.0770695
183	0xbd4c5e97	-0.049894895
184	0x3e23efbb	0.16009419
185	0xbd4a1ab6	-0.04934188
186	0xbd58f038	-0.052963465
187	0xbd3a7e49	-0.04553059
188	0xbc86c282	-0.01645017
189	0xbcb74ffc	-0.022377007
190	0xbcb1a2c9	-0.021684067
191	0xbcbb0b3a	-0.022832502
192	0xbcf83996	-0.030300897
193	0x3dd77131	0.105196364
194	0x3b5ef607	0.0034021155
195	0xbd11f101	-0.03563023
196	0xbd0aa2d2	-0.033846684
197	0xbd3238c3	-0.043511163
198	0x3ca955da	0.02067082
199	0x3cef26a8	0.029193237
200	0x3d82c73f	0.063856594
201	0x3d6131ad	0.054979015
202	0x3aa0b1a4	0.0012259972
203	0x3c93172c	0.017955385
204	0x3cc6a689	0.024249332
205	0x3d2d6792	0.0423351
206	0xbc0b4eff	-0.008502721
207	0xbd4b6eea	-0.049666323
208	0x3b347c60	0.0027539954
209	0xbce4ec17	-0.027944608
210	0x3c4a437c	0.012345191
211	0xbc688c70	-0.014193639
212	0x3b50206a	0.0031757602
213	0xbd33284a	-0.043739595
214	0xbc0463dd	-0.00808045
215	0xbda0a8f7	-0.078447275
216	0xbd80361f	-0.06260323
217	0xbdf58af9	-0.119893976
218	0xbdae5968	-0.08513147
219	0xbd96fcdd	-0.073724486
220	0xbdd5a349	-0.10431535
221	0xbdf9933a	-0.12186284
222	0xbdbc9e94	-0.09209934
223	0xbdf2594c	-0.11833438
224	0xbd94cfce	-0.07266198
225	0xbbad90bf	-0.005296796
226	0x3d164baf	0.03669327
227	0xbbbe84e8	-0.0058141835
228	0x3d128118	0.035767645
229	0x3c9f6e60	0.01946181
230	0x3d3318d3	0.043724846
231	0xbc414c00	-0.011797905
232	0x3bfa5720	0.0076397806
233	0xbd080fee	-0.033218317
234	0x3d8a4a67	0.06752472
235	0x3d0e41df	0.03473079
236	0x3c444e64	0.01198158
237	0x3d9a203c	0.075256795
238	0x3d1d0bb7	0.03834125
239	0x3d425049	0.047439847
240	0x3cea3961	0.028591814
241	0x3d44a2f0	0.04800695
242	0x3db4fa7a	0.08836837
243	0xbde23cc5	-0.11046747
244	0xbd5f3e09	-0.05450252
245	0xbd49d4eb	-0.04927532
246	0xbd748b15	-0.05970295
247	0x3e84a130	0.25904226
248	0xbccf842e	-0.025331583
249	0xbd167e38	-0.036741465
250	0xbd4c0102	-0.04980565
251	0xbd68a691	-0.056799475
252	0xbc865627	-0.016398503
253	0xbcb03339	-0.0215088
254	0xbc516eb0	-0.012782738
255	0xbcec6942	-0.028858785

encoder_layers.block_1.transition.bias f4 [16]
0	0x3d92ac5e	0.07161783
1	0x3c5a0bbc	0.013308462
2	0xbcb5ef06	-0.022208702
3	0x3cdc36c9	0.026881592
4	0x3d4802a9	0.048830662
5	0x3da7a27b	0.081852876
6	0x3bc90c35	0.0061354884
7	0x3d7b96f7	0.06142327
8	0xbd9a6cc0	-0.07540274
9	0x3d504651	0.05084831
10	0x3d13d4a4	0.03609146
11	0x3d171811	0.036888186
12	0xbd82b52a	-0.063822106
13	0xbd45362e	-0.048147373
14	0xbd0b759d	-0.03404771
15	0xbd1ebc6a	-0.038753904

encoder_layers.block_1.conv.weight f4 [64, 32, 1, 1]
0	0x3e1ea6d9	0.15493335
1	0xb83c8c99	-4.4953635e-05
2	0xbd10f824	-0.035392895
3	0x3dab292b	0.083574615
4	0x3df08963	0.117449544
5	0xbc83517e	-0.01603007
6	0xbd74b784	-0.059745327
7	0xbc486701	-0.012231589
8	0x3e07c8bf	0.13260172
9	0x3e2bc3a3	0.16773848
10	0xbd1c0f87	-0.038100746
11	0x3cdcc02f	0.026947109
12	0xbd40eb92	-0.047099657
13	0xbc4d496c	-0.012529712
14	0xbb9e26ec	-0.004826417
15	0xbe2830f3	-0.16424923
16	0xbd27f030	-0.041000545
17	0x3de1ca32	0.11024894
18	0x3cc78d71	0.024359437
19	0x3da5689c	0.08076593
20	0x3d149cfa	0.036282517
21	0x3c0492eb	0.008091669
22	0x3da2d84d	0.07951412
23	0x3ceb4d80	0.028723478
24	0xbe0d9509	-0.13826384
25	0xbdfa2107	-0.12213331
26	0xbb983853	-0.0046453862
27	0xbc841e9e	-0.01612788
28	0xbd85e2d8	-0.06537408
29	0x3dc68707	0.09693723
30	0xbd46343f	-0.04838967
31	0xbd846107	-0.06463819
32	0xbd8ef3c8	-0.06980091
33	0xbcd51503	-0.026010996
34	0x3d8a6822	0.06758143
35	0xbe6748b6	-0.22586331
36	0x3db6fea1	0.08935285
37	0x3d46b2a8	0.048510224
38	0xbe19082e	-0.14944527
39	0x3ccc942d	0.024973
40	0xbc2baf80	-0.010478854
41	0x3e9fc6e7	0.31206438
42	0xbdb7ffd6	-0.08984344
43	0xbe48f1c7	-0.1962348
44	0x3d988ad1	0.07448352
45	0xbcd245e7	-0.025668098
46	0xbe929454	-0.2862879
47	0xbdaabd89	-0.08336932
48	0xbd38ce78	-0.04511878
49	0x3d093da5	0.033506054
50	0x3db54ee7	0.0885294
51	0x3db57c12	0.08861555
52	0x3e04eb56	0.12980399
53	0x3d925563	0.071451925
54	0x3cac883b	0.021061053
55	0x3d9f0bae	0.077658996
56	0xbd6997fb	-0.057029705
57	0x3ded3110	0.115816236
58	0x3dea39c3	0.114367984
59	0xbdec3b0a	-0.11534698
60	0x3def754c	0.116922945
61	0xbbe1f4a4	-0.0068956185
62	0xbdaca642	-0.08430149
63	0x3d4eea57	0.050516453
64	0xbdbcf41b	-0.09226247
65	0xbdbf3251	-0.09335769
66	0x3d21bd73	0.039487313
67	0xbea09124	-0.31360734
68	0x3ca3550d	0.019938016
69	0x3d2262a0	0.039644837
70	0xbd4e0073	-0.050293397
71	0xbd138076	-0.03601118
72	0xbdab7424	-0.083717614
73	0x3c45f232	0.01208167
74	0x3c570328	0.013123311
75	0xbca4e65a	-0.020129371
76	0xbadbbf07	-0.0016765305
77	0x3dbd52c9	0.09244306
78	0xbdc2bdf1	-0.09508885
79	0xbcbdc255	-0.023163954
80	0xbdfc679f	-0.12324452
81	0x3e06d667	0.13167726
82	0xbc2d5667	-0.010579682
83	0x3d810848	0.06300408
84	0x3df01d5c	0.1172435
85	0x3ba8b9c8	0.0051491
86	0xbdd31965	-0.10307578
87	0xbd815545	-0.06315092
88	0xbd324098	-0.043518633
89	0xbd08584c	-0.03328733
90	0xbd3062e7	-0.04306307
91	0xbc93f594	-0.018061437
92	0xbbecb4b1	-0.0072236885
93	0xbda934e9	-0.08262045
94	0xbe14a6b3	-0.14516716
95	0xbd9b8723	-0.07594135
96	0xbbbd0840	-0.0057688057
97	0xbd3e4a7a	-0.046457745
98	0xbde181dc	-0.11011097
99	0xbe1299a9	-0.14316429
100	0x3e9e756a	0.30948955
101	0x3a96fc00	0.0011519194
102	0xbd04748e	-0.032337718
103	0x3e16f720	0.14742708
104	0xbc07b5f1	-0.008283124
105	0x3e2834fb	0.1642646
106	0xbbe937d2	-0.00711725
107	0xbea4c58e	-0.32181972
108	0x3ca75bf7	0.020429594
109	0xbe3a66da	-0.18203297
110	0xbe323630	-0.17403483
111	0xbe4052e2	-0.18781617
112	0xbe35dea7	-0.17760716
113	0xbd13b9b7	-0.036065783
114	0x3d6483f3	0.0557899
115	0xbdba2413	-0.09088912
116	0x3e5698ca	0.20956722
117	0x3865c09b	5.4777232e-05
118	0x3db1b613	0.08677306
119	0xbd1772bf	-0.036974665
120	0xbd0ae931	-0.033913795
121	0xbdcea253	-0.10089555
122	0xbd9a1c07	-0.07524877
123	0xbd04c994	-0.032418802
124	0xbdf2cbd2	-0.11855282
125	0xbe4f5a22	-0.20249227
126	0xbd4f134b	-0.05055551
127	0xbac71d5b	-0.0015191244
128	0xbd85f7c3	-0.065413974
129	0x3c34edf0	0.011043057
130	0x3c834f29	0.016028957
131	0x3c2462ec	0.01003335
132	0xbd8c4890	-0.06849778
133	0x3bdd1e6f	0.0067480127
134	0xbd490251	-0.049074475
135	0xbcdd1192	-0.026985917
136	0x3e42b841	0.190156
137	0xbde7c776	-0.11317341
138	0xbd9139b8	-0.07091087
139	0x3d9d285f	0.07673716
140	0x3d2c1b79	0.042018387
141	0x3e0bbea5	0.13646944
142	0x3e5cc4b2	0.21559408
143	0x3de2e8ec	0.110795826
144	0xbd98a021	-0.07452417
145	0xbe00426e	-0.12525341
146	0x3defa04f	0.11700498
147	0xbd6781d7	-0.05652031
148	0x3db69e4b	0.08916911
149	0xbd99c8a2	-0.07508971
150	0x3dc4be5f	0.09606623
151	0x3dc5162e	0.09623371
152	0xbca38b10	-0.019963771
153	0xbafdadc4	-0.0019354154
154	0xbd0484d2	-0.03235323
155	0xbae13ca2	-0.0017184208
156	0xbd2a0cc4	-0.04151608
157	0xbd5d8763	-0.054084193
158	0x3d788019	0.06066904
159	0xbd6777b9	-0.05651066
160	0xbdeec3ce	-0.116584405
161	0x3da92a41	0.082600124
162	0xbb8985c7	-0.0041968557
163	0x3dd2110a	0.10257156
164	0xbd208131	-0.039185707
165	0xbe07b965	-0.13254316
166	0x3dc0c946	0.0941339
167	0xbdd87974	-0.1057004
168	0x3db42988	0.08796984
169	0xbe11ec7d	-0.1425037
170	0x39b011ba	0.00033582543
171	0x3daca8cf	0.08430635
172	0xbd95551d	-0.07291625
173	0x3cef7f45	0.029235492
174	0x3def9c20	0.116997
175	0xbdb3d557	-0.08780926
176	0xbd10ce21	-0.03535283
177	0xbcb9f9a8	-0.022702053
178	0x3c5c7f07	0.01345802
179	0xbe65c2e9	-0.22437634
180	0xbe058e14	-0.1304248
181	0xbd04cbc8	-0.032420903
182	0x3cb59696	0.022166532
183	0xbd345705	-0.0440283
184	0xbde8ed53	-0.11373391
185	0xbdcccd7f	-0.10000133
186	0xbdac36b8	-0.08408874
187	0xbd1d93ea	-0.03847114
188	0x3beddb9e	0.0072588464
189	0xbdf26cf6	-0.11837189
190	0xbd3f6b97	-0.046733465
191	0x3d8ab72d	0.06773219
192	0xbd56b279	-0.0524163
193	0xbd5dead4	-0.054179028
194	0x3de22077	0.110413484
195	0x3d77ab3a	0.06046603
196	0x3de12e54	0.109951645
197	0x39a1cca8	0.00030860794
198	0x3bb92d14	0.0056511257
199	0x3e806d93	0.25083598
200	0xbd09b8c6	-0.03362348
201	0x3e5a559c	0.2132172
202	0x3dee5c77	0.1163873
203	0xbca3fa88	-0.020016924
204	0x3d36a2cb	0.044588845
205	0xbe06fbd2	-0.13182
206	0x3e45e4ef	0.19325612
207	0xbe1a30a8	-0.15057623
208	0x3d236888	0.03989461
209	0xbd556590	-0.05209881
210	0x3dd64aa3	0.104634546
211	0xbe070601	-0.13185884
212	0xbda5efcb	-0.081023775
213	0xbe7c7b37	-0.24656378
214	0x3e1090a6	0.14117679
215	0xbe6315b5	-0.2217625
216	0x3e3fca7d	0.18729587
217	0xbe06f04a	-0.131776
218	0xbe2125ba	-0.15737048
219	0xbdd5dd21	-0.104425676
220	0xbd33102f	-0.043716606
221	0x3d043c8b	0.0322843
222	0xbd60b330	-0.054858387
223	0xbc984324	-0.018586703
224	0xbd003b20	-0.031306386
225	0x3dd2db36	0.102957174
226	0x3ce17ce5	0.027525375
227	0x3e24bdf3	0.16088085
228	0xbe3ab7e5	-0.18234213
229	0xbe0aa8dd	-0.13540979
230	0xbd31ebf9	-0.04343793
231	0xbd60c55e	-0.054875724
232	0x3da81d5a	0.08208723
233	0xbe34aced	-0.17644091
234	0x3da2dcaf	0.07952248
235	0x3debe51f	0.11518311
236	0xbe349c51	-0.17637755
237	0x3d2fcbc5	0.04291894
238	0x3de412c0	0.11136389
239	0xbbc55498	-0.0060220473
240	0x3d20f587	0.039296653
241	0x3db97260	0.090550184
242	0xbb2aba2b	-0.0026050906
243	0xbddf4824	-0.109024316
244	0xbd3d5215	-0.046220858
245	0x3d73e523	0.059544694
246	0x3cf56860	0.029956996
247	0xbd379514	-0.044819906
248	0xbd8d1834	-0.06889382
249	0x3ba4ba78	0.0050271116
250	0x3c864991	0.016392501
251	0xbdc0434e	-0.09387837
252	0x3ccb75f6	0.024836522
253	0x3dc4d961	0.09611774
254	0x3dd3ff9d	0.10351489
255	0x3d4dd085	0.050247688

encoder_layers.block_1.conv.bias f4 [64]
0	0xbdbdff14	-0.09277168
1	0x3d251703	0.04030515
2	0x3ca5e9c3	0.020253068
3	0x3d215af6	0.039393388
4	0x3d5e1bd6	0.054225765
5	0x3ce620d9	0.028091835
6	0xbdefc237	-0.117069654
7	0xbcdd6ac5	-0.02702845
8	0xbd2e87c0	-0.04260993
9	0x3dcae992	0.09907831
10	0xbc1de644	-0.009637419
11	0xbce5e505	-0.028063307
12	0xbdc58d36	-0.096460745
13	0xbae8d9eb	-0.001776514
14	0xbe17c834	-0.14822465
15	0xbce454ae	-0.02787241
16	0xbc6c2007	-0.014411933
17	0x3cc6eb51	0.02428213
18	0xbd5000e2	-0.050782092
19	0x3d39d89f	0.0453726
20	0x3d518a9b	0.051157575
21	0x3e0dd66b	0.13851325
22	0x3b6ae8f3	0.0035844415
23	0xbca13e50	-0.019683033
24	0x3d3a5888	0.045494586
25	0x3d488876	0.048958264
26	0x3e0d0f0d	0.13775273
27	0x3d1d6062	0.038421996
28	0x3d04b9f6	0.03240391
29	0x3dda7e82	0.10668661
30	0xbdabe076	-0.08392422
31	0x3dadca89	0.08485896
32	0xbdd882df	-0.10571837
33	0xbde790f0	-0.113069415
34	0xbdca3860	-0.09874034
35	0x3d3975d6	0.045278393
36	0xbc37b472	-0.011212455
37	0xbdf7a1a3	-0.12091377
38	0xbc9f6149	-0.019455569
39	0xbda6dadb	-0.08147212
40	0xbcb9cec5	-0.022681603
41	0x3c7586e8	0.014985777
42	0xbe0584eb	-0.13038985
43	0xbd9235dc	-0.07139179
44	0xbc9b5498	-0.018961236
45	0xbd78de71	-0.06075901
46	0xbd2a86fe	-0.041632645
47	0x3d4ef2f0	0.050524652
48	0xbd651ad7	-0.0559338
49	0x3db0df50	0.086363435
50	0xbe09e566	-0.13466415
51	0xbd094fea	-0.033523478
52	0xbcbb02b5	-0.02282844
53	0x3da92020	0.082580805
54	0xbdeb58d7	-0.11491554
55	0x3d16b216	0.03679093
56	0xbd4e1aa7	-0.050318386
57	0x3d8727c3	0.06599381
58	0xbd2a77e1	-0.04161823
59	0xbd9b2e70	-0.075772166
60	0x3ded0de0	0.11574912
61	0x3d4de0f7	0.05026337
62	0xbcb1e404	-0.021715172
63	0xbdb282ef	-0.0871638

decoder_layers.block_0.transition.weight f4 [16, 16, 3, 3]
0	0x3cac57c3	0.021037942
1	0xbcb581f4	-0.022156693
2	0x3b6c9e03	0.0036104925
3	0x3cc8ef23	0.024528092
4	0xbc1dd5b4	-0.00963347
5	0x3bd9bbcd	0.006644702
6	0xbd4072d1	-0.046984497
7	0xbce460b1	-0.027878137
8	0xbd4a8462	-0.049442656
9	0xbd7304a6	-0.059330605
10	0xbce043a8	-0.027376011
11	0xbd41253e	-0.047154658
12	0xbcc627f8	-0.02418898
13	0x3d855c9b	0.06511804
14	0xbd6f9eab	-0.058500927
15	0xbd3c29be	-0.045938246
16	0xbcbf9194	-0.023384847
17	0xbce686be	-0.028140422
18	0xbd425adb	-0.047449928
19	0xbd54ff59	-0.05200133
20	0xbd3fba94	-0.046808794
21	0x3cfa980d	0.030590082
22	0x3d803e37	0.062618665
23	0xbd98bc65	-0.074578084
24	0xbca8bb01	-0.020596983
25	0xbcbe1a37	-0.02320586
26	0xbd43dbee	-0.047817163
27	0xbc903799	-0.017604636
28	0xbd0b57ce	-0.034019284
29	0xbd9794f8	-0.074014604
30	0x3ce0a7cf	0.027423767
31	0x3d7ded72	0.061994024
32	0xbd2a8442	-0.041630037
33	0xbccf3d5b	-0.025297811
34	0xbc8187a0	-0.015811741
35	0x3c32a69d	0.0109039815
36	0xbe19fc6d	-0.15037699
37	0xbd035fe6	-0.032073878
38	0xbd34f573	-0.04417939
39	0xbdda7257	-0.1066634
40	0xbce76b21	-0.028249325
41	0xbd7a3374	-0.061084226
42	0xbd98016f	-0.074221484
43	0xbdebfc08	-0.115226805
44	0xbe21d92b	-0.158055
45	0xbc8fc0d0	-0.017547995
46	0xbd4a3686	-0.049368404
47	0xbe0072bf	-0.12543772
48	0x3ce85cf7	0.028364642
49	0x3dcad821	0.099045046
50	0x3d4a3f04	0.049376503
51	0xbdc092e9	-0.09403021
52	0x3d5effff	0.054443356
53	0xbc9b5748	-0.018962517
54	0x3c00df26	0.007865703
55	0xbd475ed7	-0.04867443
56	0x3d655346	0.05598762
57	0xbc5eaa19	-0.013590359
58	0xbde89187	-0.11355882
59	0x3c5ae2a6	0.013359701
60	0x3d1d4cb8	0.038403243
61	0x3d3a5d9f	0.04549944
62	0x3d58d4d9	0.052937362
63	0x3d7cd394	0.061725214
64	0x3d80d330	0.06290281
65	0x3c8a8658	0.016909763
66	0x3beac48b	0.007164543
67	0xbca9a1ac	-0.020706974
68	0x3c644525	0.013932501
69	0xbc9cffa5	-0.01916487
70	0x3c161995	0.009161373
71	0x3d02bda5	0.03191914
72	0xbcff79cf	-0.031186013
73	0x3d08becb	0.03338508
74	0xbc44f30c	-0.0120208375
75	0xbc87744b	-0.016534945
76	0xbd165c1f	-0.036708947
77	0xbc426ab9	-0.011866265
78	0xbc64ec16	-0.013972303
79	0xbc905aeb	-0.017621478
80	0xbd7122d1	-0.058871094
81	0xbc41ff67	-0.011840678
82	0x3cffd1ca	0.031227965
83	0x3d20583b	0.039146643
84	0x3be67884	0.0070334096
85	0xbd5efa09	-0.05443767
86	0x3d11c252	0.03558571
87	0x3c965df2	0.018355343
88	0x3d5fe80d	0.05466466
89	0x3d2b1c6c	0.041775152
90	0x3d782530	0.06058234
91	0x3c9c874f	0.019107489
92	0x3e0ccd8d	0.13750286
93	0xbb3649c8	-0.0027814973
94	0xbc8f9a04	-0.017529495
95	0x3c6361c6	0.0138782915
96	0x3da752e1	0.08170105
97	0x3b687d70	0.0035475157
98	0xbc1b5f3b	-0.009483154
99	0x3da2a0d8	0.07940835
100	0xbdd1005c	-0.10205147
101	0xbc56e0b8	-0.013115101
102	0xbdf572a4	-0.119847566
103	0x3c367dc6	0.011138385
104	0x3db3261f	0.087475054
105	0xbd87bd6f	-0.066279285
106	0x3d2db36e	0.042407446
107	0x3db07380	0.0861578
108	0xbd8b4590	-0.06800377
109	0xbd0ac606	-0.033880256
110	0xbd64724b	-0.05577306
111	0xbcd437a0	-0.02590543
112	0x3d4a54ff	0.049397465
113	0xbd1a52c7	-0.0376766
114	0xbd7c5d9d	-0.061612714
115	0xbd1984e8	-0.037480265
116	0xbb491f90	-0.0030688979
117	0x3de50010	0.111816525
118	0x3dd4950b	0.1037999
119	0x3e8371e2	0.25672823
120	0x3c84a42f	0.01619157
121	0xbdef7589	-0.1169234
122	0x3d830b47	0.06398635
123	0x3e40b9fe	0.1882095
124	0x3dbcd70b	0.09220704
125	0x3e08b9b2	0.13352087
126	0x3d1ffbad	0.039058376
127	0xbd027ab3	-0.031855296
128	0xbc957c5a	-0.018247772
129	0x3c32789f	0.010893016
130	0x3d1207dd	0.03565203
131	0x3d480405	0.04883196
132	0x3d414e98	0.047194093
133	0x3c5cdd33	0.013480472
134	0x3d1adb32	0.037806697
135	0xbd6cfa7a	-0.05785606
136	0xbc426724	-0.011865411
137	0xbd3043b9	-0.043033335
138	0xbd27ab76	-0.040935002
139	0x3cc8ab41	0.024495723
140	0xbd21376d	-0.0393595
141	0xbc5fa7ec	-0.013650876
142	0xbd5113fc	-0.05104445
143	0xbd38985f	-0.045067187
144	0xbd2b0813	-0.041755747
145	0x3d8a5e82	0.06756307
146	0xbc7bb60c	-0.015363228
147	0x3c8aeeb4	0.016959526
148	0x3ddc0fa6	0.10745172
149	0x3ca9c2d3	0.020722782
150	0x3bf92e5c	0.0076044034
151	0x3d9e6bd5	0.07735411
152	0xbd2e5822	-0.04256452
153	0x3d85d4ad	0.06534705
154	0x3ab7bc34	0.0014017881
155	0x3d5932e8	0.053027064
156	0x3d3d4665	0.04620971
157	0x3ddc3c65	0.10753707
158	0x3e11aea5	0.14226778
159	0x3ad4b25b	0.001622747
160	0x3de4f86f	0.111801974
161	0xbb2054e5	-0.0024464664
162	0xbe091ea8	-0.133906
163	0xbe0fdb3b	-0.14048474
164	0xbd89f3c6	-0.06735949
165	0xbd2264d8	-0.039646953
166	0x3e01bd26	0.1266981
167	0x3d8b1068	0.067902386
168	0x3c727120	0.014797479
169	0x3df35e77	0.11883252
170	0xbd5c4ce9	-0.053784285
171	0xbe3618f1	-0.17782952
172	0xbe37f293	-0.17963628
173	0xbda7c5a4	-0.08191994
174	0xbdfaafa4	-0.12240532
175	0x3e82333c	0.25429714
176	0x3dc2685d	0.09492562
177	0x3b402aa5	0.0029322293
178	0x3dbfdc57	0.09368198
179	0xbd879573	-0.06620302
180	0x3d292201	0.041292194
181	0x3d899dc4	0.067195445
182	0x3a329781	0.0006812737
183	0xbb251ce6	-0.0025194227
184	0x3cfaa4a9	0.030596094
185	0xbd9a5cc7	-0.07537227
186	0xbd4ac17d	-0.04950093
187	0xbdc87370	-0.09787643
188	0x3d0d7f7a	0.0345454
189	0x3d5721a4	0.052522317
190	0xbd94e260	-0.0726974
191	0xbd26815e	-0.040650718
192	0x3d7f0d8b	0.062268775
193	0x3de98968	0.11403161
194	0x3dd300a1	0.10302854
195	0x3d5f75de	0.054555766
196	0x3dd835d6	0.105571434
197	0x3ccef267	0.02526207
198	0x3da0488c	0.07826337
199	0x3dc0d120	0.094148874
200	0xbd4dd460	-0.050251365
201	0x3dfd893d	0.12379692
202	0x3d8f368a	0.069928244
203	0xba99ef8d	-0.0011744365
204	0x3d1f1958	0.03884253
205	0x3c074da2	0.008258255
206	0x3e554c23	0.20829825
207	0xbce66879	-0.028125988
208	0x3d8f5ea4	0.07000473
209	0x3c494089	0.012283453
210	0x3b9fd349	0.004877482
211	0xbc90d59d	-0.017679984
212	0x3d20d149	0.03926209
213	0xbb6b06ce	-0.003586221
214	0x3d3c1329	0.04591671
215	0x3c9ee4e7	0.019396259
216	0x3d0551a9	0.03254858
217	0x3d42de17	0.047575083
218	0x3dcb1bd0	0.09917414
219	0x3daebe72	0.08532418
220	0x3d953b5f	0.07286715
221	0x3d859ce8	0.06524068
222	0x3d9f49da	0.07777758
223	0x3d8f419b	0.06994935
224	0x3d11f7e8	0.035636812
225	0x3de28e02	0.11062242
226	0x3d44d225	0.048051972
227	0x3d2f3038	0.042770594
228	0x3d60db36	0.054896556
229	0x3c8c7261	0.017144384
230	0x3c87019c	0.01648026
231	0x3d5cb0dc	0.053879604
232	0x3d17ae0c	0.03703122
233	0x3dd3aeca	0.10336073
234	0x3cf42cca	0.029806513
235	0x3e23550b	0.1595041
236	0x3e139da5	0.14415605
237	0x3cff8961	0.031193437
238	0xbcd27881	-0.025692226
239	0xbda9c51f	-0.08289551
240	0x3dbbc3e9	0.09168226
241	0xbd14d8d0	-0.03633958
242	0x3dd037f7	0.101669244
243	0x3d88ceea	0.06680091
244	0xbddcf827	-0.10789519
245	0xbd84bd20	-0.06481385
246	0xbce75d12	-0.028242622
247	0x3e90663d	0.28203002
248	0x3d7c1807	0.06154635
249	0xbdcd5da7	-0.100276284
250	0x3d72f3bd	0.05931448
251	0x3d51c86f	0.05121654
252	0xbbfc3f5c	-0.0076979827
253	0x3c46ddc8	0.012137838
254	0x3c531566	0.01288352
255	0x3d875c9e	0.06609462

decoder_layers.block_0.transition.bias f4 [16]
0	0x3beb3981	0.007178486
1	0x3e0b9d1b	0.1363415
2	0xbd22ae97	-0.039717283
3	0x3d5a7a80	0.05333948
4	0xbd328e31	-0.043592636
5	0x3bb72b83	0.005589904
6	0xbb0f913f	-0.0021906642
7	0x3d371cc9	0.044705186
8	0x3c1717db	0.009221996
9	0xbc3b4692	-0.0114303995
10	0xbb0e1933	-0.00216825
11	0xbd3084d2	-0.043095417
12	0xbc208a74	-0.009798635
13	0xbd724655	-0.059149105
14	0x3d97eb8e	0.07417975
15	0xbd605469	-0.054768

decoder_layers.block_0.conv.weight f4 [64, 32, 1, 1]
0	0xbcd2c2d3	-0.025727665
1	0xbde5c903	-0.112199806
2	0x3d3fd6f5	0.04683586
3	0x3cc0c2c8	0.023530379
4	0x3cf73527	0.030176712
5	0x3daeedb0	0.08541429
6	0x3cafad2e	0.021444883
7	0xbdb12802	-0.08650209
8	0xbdd7def6	-0.10540573
9	0xbdb315ba	-0.087443784
10	0x3d359e9d	0.04434072
11	0xbd894139	-0.06701893
12	0xbc651f7c	-0.013984557
13	0x3d15bbce	0.036556058
14	0xbdd36ec8	-0.10323864
15	0x3de93b3a	0.1138825
16	0x3c5c57b2	0.013448643
17	0x3e0bfc86	0.13670549
18	0xbd47bd42	-0.048764475
19	0xbdc7829f	-0.09741711
20	0xbd799e31	-0.06094188
21	0xbd459652	-0.04823906
22	0x3d255362	0.040362723
23	0xbc7b2d11	-0.015330569
24	0x3da7b2d2	0.08188404
25	0xbd28744e	-0.04112654
26	0x3cf14b70	0.029454917
27	0xbd8467b8	-0.06465095
28	0x3dcd31c3	0.10019257
29	0x3d390e61	0.04517973
30	0x3d85cd5b	0.06533309
31	0xbdd33185	-0.103121795
32	0x3d6624e5	0.05618753
33	0x3d27caf0	0.04096502
34	0x3ceca5fb	0.02888774
35	0x3c332480	0.010933995
36	0x3bc3cd43	0.005975397
37	0x3d98c556	0.07459514
38	0xbd833a6c	-0.064076275
39	0x3dde02a2	0.10840346
40	0xbb49f62a	-0.0030816891
41	0x3aecf513	0.0018078409
42	0xbd0b284e	-0.033973984
43	0x3cd98877	0.02655433
44	0xbc59b5a2	-0.013287934
45	0x3ddf71a4	0.10910347
46	0x3ca1705e	0.019706901
47	0x3d4517a7	0.04811826
48	0x3db4fb04	0.0883694
49	0xbc95e4ce	-0.01829758
50	0xbd99fb0a	-0.07518585
51	0xbe075350	-0.13215375
52	0x3d3c83c7	0.04602411
53	0xbcfb6188	-0.030686155
54	0x3c90b2c6	0.01766337
55	0xbcdc2571	-0.026873322
56	0x3dd1e49e	0.102486834
57	0x3c8ffa93	0.017575538
58	0xbd82d5dd	-0.063884474
59	0xbe0ad91c	-0.13559383
60	0x3cf69a29	0.030102806
61	0x3d0d7f62	0.03454531
62	0x3d61f8ac	0.055168793
63	0x3e2d4e0c	0.16924304
64	0x3e4a395a	0.1974844
65	0x3d0556d8	0.032553524
66	0x3dd59efb	0.10430714
67	0xbd3e0873	-0.046394777
68	0xbda8eeaf	-0.0824865
69	0xbd6a6020	-0.05722058
70	0x3d0b2d83	0.03397895
71	0xbd8597cc	-0.065230936
72	0x3db3f3f2	0.08786763
73	0xbd434895	-0.04767664
74	0xbd7458bd	-0.05965494
75	0x3dc7aef4	0.097501665
76	0xbdc5c388	-0.09656435
77	0x3d377fa8	0.044799477
78	0x3d1c3c2a	0.038143314
79	0xbd876bac	-0.06612334
80	0xbdce2025	-0.10064725
81	0x3cac7159	0.021050142
82	0xbcdf0981	-0.027226212
83	0xbc1f533d	-0.009724435
84	0xbd9e6433	-0.07733955
85	0x3d776075	0.060394723
86	0xbe5c9fcb	-0.21545331
87	0x3d05f4df	0.03270423
88	0xbdb9598d	-0.090502836
89	0xbe45a3f8	-0.1930083
90	0xbad96eb8	-0.0016588783
91	0xbd6c3622	-0.057668813
92	0xbd16ab3a	-0.036784388
93	0xbd9ae82e	-0.07563816
94	0xbdd6ebc0	-0.104941845
95	0xbda78cdb	-0.08181163
96	0x3ce48ba0	0.02789861
97	0xbccbde1e	-0.024886187
98	0x3d5a5c42	0.05331064
99	0xbc6fcb89	-0.014635929
100	0xbd94d321	-0.07266832
101	0x3dc83e20	0.097774744
102	0x3dca59cd	0.098804094
103	0xbdc71ae7	-0.09721928
104	0x3d92dd82	0.071711555
105	0x3dc55bae	0.09636627
106	0xbd0f67a3	-0.035010945
107	0xbdda7571	-0.106669314
108	0xbda9c002	-0.08288576
109	0x3e261688	0.16219532
110	0x3dd34e25	0.10317639
111	0x3df63ae0	0.12022948
112	0xbd22b4c6	-0.03972318
113	0x3ca4d0b0	0.020119041
114	0xbc97d940	-0.01853621
115	0x3de9f7a8	0.1142419
116	0x3d18ec69	0.037334833
117	0x3c581abe	0.01318997
118	0x3bd4ef83	0.0064982786
119	0xbdda7838	-0.10667461
120	0xbe7b22b0	-0.24524951
121	0xbe98679a	-0.29766542
122	0x3d15f2e2	0.036608584
123	0x3d14c3c9	0.036319528
124	0x3cf96ef2	0.03044841
125	0x3cea6789	0.028613823
126	0xbd803540	-0.06260157
127	0xbd41ab77	-0.047282662
128	0xbe14a854	-0.14517337
129	0x3cf84f3d	0.030311221
130	0x3d5aef3b	0.053450804
131	0xbc7a027d	-0.015259382
132	0xba1a509c	-0.00058866455
133	0xbd135d43	-0.035977613
134	0xbd51e12e	-0.05124014
135	0xbde57f4e	-0.11205922
136	0x3be225eb	0.006901493
137	0xbbc218fa	-0.0059233876
138	0x3cbce065	0.023056218
139	0x3dfecdca	0.12441595
140	0x3d501ab1	0.050806705
141	0xbdf5bdc0	-0.119990826
142	0xbcbe2d25	-0.023214886
143	0xbde98132	-0.11401595
144	0xbbf08110	-0.007339604
145	0xbd6d6910	-0.057961524
146	0xbb28ecaa	-0.0025775828
147	0xbcc679b3	-0.024227953
148	0x3e216f33	0.15765075
149	0xbcd7e416	-0.026353877
150	0x3ce25aa6	0.027631115
151	0x3cbc1e4a	0.022963662
152	0xbd877259	-0.06613607
153	0xbd19047c	-0.037357792
154	0xbc741f7a	-0.014900083
155	0x3cf5e745	0.030017504
156	0x3db96e94	0.09054294
157	0x3dee6478	0.11640257
158	0xbc558d33	-0.013034153
159	0xbca5f5a6	-0.020258736
160	0x3d2f6afd	0.04282664
161	0x3d679815	0.05654152
162	0x3d6177f7	0.055046048
163	0x3e27506d	0.16339274
164	0xbdbd31c1	-0.092380054
165	0xbd046b07	-0.03232863
166	0xbcee94fb	-0.029123774
167	0x3dc20318	0.09473246
168	0xbcec3e20	-0.028838217
169	0xbcc21ffb	-0.02369689
170	0x3c8c8b78	0.017156348
171	0x3def7ceb	0.11693748
172	0x3d8e1c2c	0.06938967
173	0x3ddfc3ba	0.10926004
174	0x3d0a3ae0	0.033747554
175	0xbd4d8c93	-0.05018289
176	0x3d36980c	0.044578597
177	0x3dc18662	0.094494596
178	0x3d8ebdb5	0.069697775
179	0xbd69bc4d	-0.057064343
180	0x3d34d5a8	0.04414907
181	0x3d876c44	0.06612447
182	0xbe1479ff	-0.14499663
183	0xbdf6f5f4	-0.120586306
184	0xbdaf221c	-0.08551428
185	0xbe01149f	-0.12605523
186	0x3d0de689	0.034643684
187	0x3ca9a32a	0.020707686
188	0xbd500de3	-0.050794493
189	0xbd46521c	-0.04841815
190	0x3d319fbd	0.04336523
191	0xbda0b27d	-0.07846544
192	0xbb3d3ca7	-0.0028875263
193	0xbdcf90d3	-0.10135045
194	0xbb746dfa	-0.0037296996
195	0xbc74d671	-0.014943705
196	0x3d5e0210	0.054201186
197	0xbcd271ba	-0.025688995
198	0xbd4b1505	-0.049580593
199	0x3d337142	0.043809183
200	0x3d287dc7	0.041135576
201	0x3c3a5fd2	0.011375384
202	0xbd47298d	-0.04862361
203	0x3d687370	0.056750715
204	0xbd277a1a	-0.04088793
205	0x3d9ab95b	0.07554885
206	0xbc625243	-0.013813558
207	0xbd310127	-0.04321399
208	0xbe05288a	-0.13003746
209	0xbdbc48ac	-0.091935486
210	0xbde573bf	-0.112037174
211	0xbe333c15	-0.17503388
212	0x3c0af771	0.008481846
213	0xbd7919d6	-0.060815655
214	0x3da0283a	0.078201726
215	0x3d96344e	0.07334195
216	0xbd4f9426	-0.050678395
217	0x3d03f917	0.032219972
218	0x3d9f1a79	0.07768721
219	0xbd8f5444	-0.06998494
220	0xbd5f183e	-0.05446648
221	0x3dd71ac1	0.1050315
222	0xbde2b8ec	-0.11070427
223	0x3d46866e	0.048468046
224	0x3d78607b	0.060638886
225	0xbd4b64f3	-0.04965682
226	0x3de1fbf6	0.11034386
227	0x3d6a330b	0.057177585
228	0x3d105f30	0.035247028
229	0x3de59c00	0.11211395
230	0xbda050ea	-0.07827933
231	0xbdb5b78f	-0.08872902
232	0xbd3f5ab1	-0.04671735
233	0xbd8e571e	-0.0695021
234	0xbbd99b06	-0.0066407947
235	0x3dcf239f	0.10114216
236	0xbd9bea6d	-0.076130725
237	0x3c046505	0.008080726
238	0xbda10b7d	-0.07863519
239	0xbc97b644	-0.018519528
240	0xbda9ee00	-0.08297348
241	0xbcd1efab	-0.025626978
242	0x3d72ca66	0.059275053
243	0xbd89a3d8	-0.06720704
244	0xbd89b5cc	-0.06724128
245	0xbc6ae750	-0.014337376
246	0xbdd8dcaf	-0.10588967
247	0xbdd0a0c5	-0.10186914
248	0x3ddc69c9	0.107623644
249	0xbd4e95c9	-0.050435815
250	0xbdc46e12	-0.09591307
251	0xbdf37adb	-0.11888667
252	0x3da87b35	0.08226625
253	0x3c819fd1	0.015823277
254	0x3cc3b4df	0.023889957
255	0xbdabc262	-0.08386685

decoder_layers.block_0.conv.bias f4 [64]
0	0xbcea7b4d	-0.028623248
1	0x3d5e65b1	0.0542962
2	0xbda9c517	-0.08289545
3	0xbd2898ec	-0.041161463
4	0x3d651ed6	0.05593761
5	0x3c2a7240	0.010403216
6	0xbdd7f573	-0.105448626
7	0xbd538fe6	-0.051650904
8	0x3ccde5b4	0.025133945
9	0x3b06bba7	0.0020558627
10	0xbb1c9e20	-0.002389796
11	0xbca254b8	-0.019815788
12	0xbcdd55b1	-0.0270184
13	0xbd58ff45	-0.05297782
14	0xbdd0c86d	-0.10194478
15	0x3d47e3e6	0.048801325
16	0xbd85b96b	-0.06529506
17	0x3e4d92a2	0.20075467
18	0x3d52eac0	0.051493406
19	0x3d3b2ed5	0.04569896
20	0x3da9591d	0.0826895
21	0x3d9c3445	0.07627157
22	0x3d6efea7	0.058348324
23	0x3d81af98	0.0633232
24	0xbca97430	-0.020685285
25	0x3d21b14e	0.03947573
26	0xbb31ea73	-0.00271478
27	0x3d8771bf	0.06613492
28	0xbd0a7661	-0.0338043
29	0x3dc53c83	0.09630682
30	0x3c6c3eb1	0.014419244
31	0x3e23b7e9	0.15988125
32	0xbe3985f6	-0.18117508
33	0xbe20754c	-0.15669745
34	0xbd646f02	-0.055769928
35	0x3befb7ed	0.007315627
36	0xbd8f1e07	-0.06988149
37	0xbe0e6302	-0.13904956
38	0x3c7309ca	0.014833877
39	0x3cf763f4	0.030199029
40	0x3cc8077e	0.024417635
41	0xbd10121a	-0.035173513
42	0xbd5b3ac2	-0.053522833
43	0xbd6f1da8	-0.05837789
44	0xbd92181d	-0.071335055
45	0x3b5d185d	0.0033736445
46	0xbd898f14	-0.06716743
47	0xbd2b72e4	-0.041857615
48	0x3d0adb92	0.033900805
49	0x3b9283a4	0.004471259
50	0xbc6f6ce2	-0.014613362
51	0xbd4fb14c	-0.050706193
52	0xbdf4924f	-0.11941969
53	0xbbff824d	-0.0077975155
54	0x3b55062c	0.00325049
55	0xbdc218b4	-0.09477368
56	0xbd924338	-0.07141727
57	0xbc95c7e6	-0.018283796
58	0x3d405b4b	0.046962064
59	0xbdb4dfa3	-0.08831718
60	0xbd1c8a32	-0.03821773
61	0xbde3239d	-0.11090777
62	0xbc876b06	-0.016530525
63	0xbcd28586	-0.025698435
