trainedModels/bias/False/lateral/1.0/2/run1/model.pt (torch, 110633 bytes, 19 tensors)

init.weight f4 [18, 1, 1, 1]
0	0xbf011b75	-0.5043252
1	0xbf4cdade	-0.80021465
2	0xbec06327	-0.37575647
3	0xbf67aa6f	-0.90494436
4	0x3f3cdd14	0.7377484
5	0x3fafc2b4	1.3731294
6	0x3f9c785e	1.2224233
7	0xbf109560	-0.5647793
8	0x3f5e8fb5	0.8693803
9	0xbf91c7b0	-1.1389065
10	0x3f8a8f74	1.0825028
11	0x3f34a015	0.70556766
12	0x3ec6ce3e	0.38829225
13	0x3f477a5c	0.7792108
14	0xbf611989	-0.8792959
15	0x3f3dbd61	0.74117094
16	0x3f30d5e1	0.69076353
17	0xbf9731cc	-1.1812072

init.bias f4 [18]
0	0x3eef7d03	0.46775064
1	0x3d0354fe	0.032063477
2	0xbf191c71	-0.59809023
3	0x3f0c793b	0.54872483
4	0x3f106b24	0.56413484
5	0x3e78a075	0.2427996
6	0xbef15509	-0.4713519
7	0xbf137aae	-0.5760907
8	0xbe51ab4e	-0.20475504
9	0x3f09a229	0.5376306
10	0xbf2206ec	-0.6329181
11	0x3e8a84ac	0.27054346
12	0xbe39800a	-0.1811525
13	0x3e835b5d	0.25655642
14	0xbea98c03	-0.33114633
15	0xbe85651d	-0.26053706
16	0xbdb9611b	-0.090517245
17	0x3e5965db	0.21230261

encoder_layers.block_0.transition.weight f4 [18, 36, 3, 3]
0	0xbc0e238a	-0.008675465
1	0xbd06d0db	-0.032914024
2	0xbb0c5add	-0.0021416463
3	0xbd395db0	-0.045255363
4	0xbd2931b9	-0.041307185
5	0xbb903a2c	-0.004401466
6	0x3c96ea7d	0.01842236
7	0xbd6fcd4c	-0.058545396
8	0x3ca003c0	0.019533038
9	0xbe0bcabc	-0.13651556
10	0xbe417ec1	-0.18896009
11	0xbe4fef69	-0.20306171
12	0xbe6d49ec	-0.2317273
13	0xbe754130	-0.23950648
14	0xbe537dcb	-0.20653455
15	0xbe128929	-0.14310135
16	0xbe811d46	-0.25217646
17	0xbe73d426	-0.23811397
18	0xbd10ca25	-0.03534903
19	0xbc8558fb	-0.01627778
20	0x3cd1ea0c	0.025624298
21	0x3d1f7d85	0.038938064
22	0x3ce8c13e	0.028412458
23	0xbb1ce9cc	-0.0023943065
24	0x3cb11d15	0.021620313
25	0x3d0b7c04	0.034053817
26	0x3cec0d56	0.028814953
27	0xbc7e470b	-0.015519868
28	0xbd187520	-0.037221074
29	0xbcb27d5a	-0.021788288
30	0xbc3a4c99	-0.011370801
31	0xbda158a3	-0.07878234
32	0x3b5a6042	0.0033321534
33	0x3b72c400	0.0037043095
34	0xbd793ce0	-0.06084907
35	0xbd380721	-0.044928674
36	0x3abebe29	0.0014552522
37	0x3cfa3d8c	0.030546926
38	0x3d214cd8	0.039379925
39	0xbc86f955	-0.016476313
40	0xbca9ef64	-0.020744033
41	0x3a24cb12	0.00062863634
42	0x3d75f07d	0.0600438
43	0xbcd86d81	-0.026419403
44	0xbcb30a1d	-0.021855408
45	0x3d807507	0.06272321
46	0x3d679e7c	0.056547627
47	0x3d0a6ece	0.033797078
48	0x3d418dac	0.04725425
49	0x3d385f5a	0.04501281
50	0x3db3fdb6	0.08788626
51	0x3d633cb8	0.055477828
52	0x3d0fe561	0.035130862
53	0x3dd98298	0.10620612
54	0x3d485a91	0.048914496
55	0x3d0dd8a5	0.034630436
56	0x3cbc1d30	0.022963136
57	0x3daabb29	0.08336479
58	0x3dc2ecd4	0.09517828
59	0x3d867f96	0.06567304
60	0x3d3d5185	0.04622032
61	0x3cc4a902	0.02400637
62	0x3d8c79dc	0.0685918
63	0x3cb2cae6	0.021825265
64	0x3cc2b48a	0.023767728
65	0xbd037d4a	-0.032101907
66	0x3d214d08	0.039380103
67	0x3c160282	0.009155871
68	0xbc5931cd	-0.013256502
69	0xbd520f0c	-0.05128388
70	0x3c9d589e	0.019207295
71	0xbad683d3	-0.0016366191
72	0x3cbf3c0f	0.023344068
73	0x3ca68930	0.020329088
74	0x3c017bac	0.007903021
75	0x3d5cb07d	0.05387925
76	0x3e017a18	0.12644231
77	0x3d6f9f7e	0.058501713
78	0x3d40fa7b	0.047113877
79	0x3dc771f7	0.09738534
80	0x3b4d4857	0.0031323635
81	0xbc205302	-0.009785416
82	0xbd6a3435	-0.057178695
83	0xbca0f5cd	-0.019648457
84	0xbda876bf	-0.08225774
85	0xbd856382	-0.0651312
86	0xbd033277	-0.03203055
87	0xbc2c484c	-0.010515284
88	0xbd292ee6	-0.04130449
89	0x3a8f5778	0.0010936102
90	0x3d525ef0	0.05136007
91	0x3d80839e	0.06275104
92	0x3c8f5c6c	0.017500125
93	0x3b5bd7fe	0.003354549
94	0x3dd519bb	0.10405298
95	0x3d3a7442	0.04552103
96	0xbd1158a6	-0.035484932
97	0x3d4eda11	0.050500933
98	0xbca7002e	-0.020385828
99	0x3d31dc58	0.043423027
100	0x3d1fd0ce	0.03901749
101	0x3cc49ef7	0.024001582
102	0x3d0e8cda	0.034802295
103	0xbcfe2c74	-0.031027056
104	0xbc55cca0	-0.013049275
105	0x3d8254f7	0.06363862
106	0x3d1f9edb	0.038969856
107	0x3c9be269	0.01902886
108	0xbc864886	-0.016392004
109	0x3c215506	0.009846931
110	0xbd17bd2e	-0.03704565
111	0x3ccaa7c5	0.024738202
112	0x3d64527f	0.055742737
113	0x3d38dde0	0.04513347
114	0xba53c77a	-0.00080787356
115	0xbb800c03	-0.003907682
116	0x3ba786c1	0.0051124995
117	0x3cc48e2d	0.023993576
118	0xbc7f2634	-0.015573073
119	0x3cc5b590	0.024134427
120	0x3d051ce1	0.032498244
121	0xbd04401a	-0.032287695
122	0x3be47a7b	0.0069726086
123	0x3d8478c2	0.06468345
124	0x3cb2dd28	0.021833971
125	0x3d88cc7b	0.066796266
126	0x3c03db03	0.008047822
127	0xbd2c24a1	-0.04202712
128	0xbd252c01	-0.04032517
129	0x3c66bc3a	0.014082963
130	0x3c48bfa4	0.012252722
131	0xbb147f82	-0.0022659008
132	0xbd28d9f6	-0.04122349
133	0xbd52dc54	-0.051479653
134	0xbd6816ea	-0.056662478
135	0x3d47846f	0.048710283
136	0x3d9ab24d	0.075535394
137	0x3c333a50	0.010939196
138	0x3d9329dd	0.07185719
139	0x3db8a3fb	0.09015652
140	0x3cf0dd38	0.02940236
141	0xbcf0b62c	-0.029383741
142	0x3d9e53ee	0.07730852
143	0xbc021844	-0.007940356
144	0x3d97e153	0.07416024
145	0x3d2cf69f	0.042227384
146	0x3da2ada9	0.07943279
147	0x3dda0c7f	0.10646915
148	0x3e256b8b	0.16154306
149	0x3df8e717	0.12153452
150	0x3d0e9394	0.03480871
151	0x3dbf6b23	0.093466066
152	0x3d936bea	0.07198317
153	0xbd8dbec3	-0.069211505
154	0xbd78b7d9	-0.060722206
155	0xbd9ac784	-0.07557586
156	0xbdf9ffbe	-0.12206982
157	0xbe26a0da	-0.16272298
158	0xbdeb85f2	-0.115001574
159	0xbd36b8c8	-0.044609815
160	0xbe027c00	-0.12742615
161	0xbdc30f36	-0.09524386
162	0x3da1109b	0.07864495
163	0x3d61bfea	0.055114664
164	0x3d651920	0.055932164
165	0xbc345a4d	-0.0110078575
166	0x3d43dd4d	0.04781847
167	0x3d054e36	0.03254529
168	0x3d94d70b	0.07267579
169	0x3d0e64db	0.034764152
170	0x3d068a4e	0.03284674
171	0xbcabb57c	-0.020960562
172	0xbb0cc4a1	-0.0021479505
173	0xbd41a7c6	-0.04727914
174	0xbc8845bc	-0.016634814
175	0xbc07135c	-0.008244362
176	0xbb66e8df	-0.0035234017
177	0xbd8e87f6	-0.06959526
178	0x39351253	0.00017268331
179	0xbd7195bc	-0.05898069
180	0x3c92b8fd	0.017910475
181	0xbc6a2ade	-0.014292447
182	0xbd03cafa	-0.032175995
183	0x3d32258b	0.043492835
184	0xbd4a0aa9	-0.049326573
185	0xbd6c4dba	-0.057691313
186	0x3ddedd16	0.108820125
187	0x3dd1dc10	0.10247052
188	0x3d3c4cc5	0.04597165
189	0xbd5c572f	-0.053794082
190	0xbd2a3591	-0.04155499
191	0xbd328660	-0.04358518
192	0x3b07b805	0.002070905
193	0xbcae6300	-0.021287441
194	0xbd19a209	-0.037508044
195	0xbda43138	-0.080172
196	0xbc1c4380	-0.009537578
197	0xbd1cfba2	-0.038325913
198	0x3d3193c2	0.043353803
199	0x3cb0598e	0.021527078
200	0x3ce6e451	0.028185042
201	0x3cf0aa92	0.02937821
202	0x3d3fd297	0.046831694
203	0x3cbf48ab	0.02335008
204	0xbc576caf	-0.013148471
205	0x3bd51f6e	0.006503991
206	0xbc9be6c1	-0.01903093
207	0xbcc21920	-0.023693621
208	0xbd649736	-0.05580827
209	0xbcc7afc9	-0.024375813
210	0xbcf7aab8	-0.030232772
211	0xbcc817f7	-0.02442549
212	0xbcb4a855	-0.022052923
213	0xbd40558d	-0.046956588
214	0xbd20cdb8	-0.03925869
215	0xbcac57bc	-0.021037929
216	0xbcf1fe08	-0.029540077
217	0xbb651832	-0.0034957048
218	0xbd3a14b4	-0.0454299
219	0xbd4fa9be	-0.05069899
220	0x3d228b69	0.039683733
221	0x3ca7e467	0.020494653
222	0xbccf1887	-0.02528025
223	0x3d7bf3ee	0.061511926
224	0x3d093086	0.03349354
225	0x3da8ea2e	0.08247791
226	0x3d9443d8	0.07239503
227	0x3db82fc5	0.08993486
228	0x3dd6ad4b	0.10482272
229	0x3dba04d0	0.09082949
230	0x3dc245a6	0.09485941
231	0x3da4f27a	0.08054061
232	0x3dd6e815	0.10493485
233	0x3dd05c3b	0.101738416
234	0xbdb3c391	-0.08777536
235	0x3dba2410	0.090889096
236	0x3da9519a	0.082675174
237	0x3d26cbde	0.040721767
238	0x3e4202fe	0.18946454
239	0x3dbdb53d	0.09263084
240	0xbd0833af	-0.033252414
241	0x3d221f66	0.039580725
242	0x3d1e4f4b	0.03864984
243	0xbcbcd11b	-0.023048928
244	0xbc5d8dda	-0.01352259
245	0xbd3c97d7	-0.046043243
246	0xbd91f125	-0.07126073
247	0xbd013d5f	-0.03155267
248	0x3d0a958b	0.03383402
249	0xbdd1729b	-0.102269374
250	0xbd8ad3f8	-0.06778711
251	0xbcba8cc7	-0.022772206
252	0x3c925f19	0.017867612
253	0x3ca2e4a4	0.019884415
254	0xbc4e12d0	-0.012577727
255	0xbc413e92	-0.011794703

encoder_layers.block_0.transition.bias f4 [18]
0	0xbcf0521b	-0.029336026
1	0xbd27e480	-0.0409894
2	0xbca285b0	-0.019839138
3	0xbd1ed62b	-0.038778465
4	0xbc3a8c51	-0.011385993
5	0xbd16ca21	-0.03681386
6	0xbe28632a	-0.16444078
7	0x3d0d08cb	0.034432214
8	0x3cf76a13	0.030201947
9	0xbcaf9d0b	-0.021437189
10	0x3cdbedd6	0.026846807
11	0x3c4ae0c4	0.01238269
12	0xbc951e85	-0.01820303
13	0xbcd948cc	-0.02652397
14	0xbcc50072	-0.024048064
15	0xbc1f8056	-0.0097351875
16	0x3c324b9c	0.0108822845
17	0xbd70feec	-0.058836862

encoder_layers.block_0.conv.weight f4 [72, 18, 1, 1]
0	0xbe6cb15b	-0.2311453
1	0xbc7932b7	-0.015209845
2	0xbe6101a1	-0.21973278
3	0x3e44074b	0.19143407
4	0xbe73459a	-0.2375702
5	0x3d0d9cc3	0.034573328
6	0xbe5f16a2	-0.21785977
7	0x3d98f33b	0.074682675
8	0x3dcf82c9	0.10132367
9	0xbcdfb02b	-0.027305683
10	0x3dd1c6d4	0.102430016
11	0x3c052083	0.008125427
12	0xbdba0692	-0.090832844
13	0x3dd1e3c4	0.10248521
14	0x3d3d56fa	0.046225525
15	0x3c9f2f0e	0.019431617
16	0xbdb9819a	-0.09057923
17	0xbd124e36	-0.03571912
18	0xbce3316d	-0.027733529
19	0x3e577076	0.21038994
20	0xbeed40fb	-0.4633864
21	0x3d91a8b7	0.07112258
22	0xbe37da19	-0.17954291
23	0xbe08f368	-0.13374102
24	0xbe3ae7e1	-0.18252517
25	0xbd8fb9af	-0.07017838
26	0xbe40ef3b	-0.18841259
27	0x3e4926d6	0.19643721
28	0xbd87bda5	-0.06627969
29	0xbe178237	-0.14795767
30	0x3b850562	0.0040594796
31	0xbe467ec2	-0.19384292
32	0xbe37b66d	-0.17940684
33	0xbd70150e	-0.05861383
34	0xbc58e6dc	-0.013238635
35	0x3d84b56d	0.06479917
36	0x3de035ef	0.10947787
37	0xbcd956fb	-0.026530733
38	0xbdf3dd00	-0.11907387
39	0x3db1421c	0.086551875
40	0x3df98acb	0.12184676
41	0x3e4f362e	0.20235512
42	0xbbfbe59f	-0.007687285
43	0x3d26a835	0.04068776
44	0xbe3f0564	-0.186544
45	0xbdb3d249	-0.08780343
46	0xbd32331b	-0.04350577
47	0x3da7c869	0.08192522
48	0x3e09b7c0	0.13449001
49	0x3af6598a	0.0018794995
50	0xbde5d4cd	-0.11222229
51	0x3e149403	0.14509587
52	0x3e305696	0.1722053
53	0x3d67050d	0.0564013
54	0x3da864ff	0.082223885
55	0x3e27b4ed	0.16377611
56	0xbdab6edd	-0.08370755
57	0x3e695d72	0.22789553
58	0x3e39c66c	0.18142098
59	0xbd23ed08	-0.040020972
60	0x3e23099c	0.15921634
61	0x3cc8ad06	0.024496567
62	0x3e9e770f	0.3095021
63	0x3d6d2074	0.057892278
64	0x3e091f6c	0.13390893
65	0xbe0cf97a	-0.13767043
66	0xbdb2f644	-0.08738378
67	0x3e0f0dd8	0.13970125
68	0x3d00848f	0.031376418
69	0xbdc6bfac	-0.09704527
70	0x3e1bb5fb	0.15206139
71	0xbe552a99	-0.20817031
72	0x3e2ce548	0.16884339
73	0xbe66c9e7	-0.22537957
74	0xbe5c84a4	-0.21534973
75	0x3d6deb58	0.05808577
76	0xbdd92f53	-0.106047295
77	0x3dd9f476	0.1064233
78	0x3e19c48c	0.15016383
79	0x3d9985cb	0.07496222
80	0xbc9ea82f	-0.019367306
81	0x3dd16c36	0.10225718
82	0x3e03ad85	0.12859161
83	0xbe2d6c7a	-0.16935912
84	0xbd8a19ff	-0.067432396
85	0x3e0c4da4	0.13701493
86	0xbd03323e	-0.032030337
87	0x3d97b1f0	0.07406986
88	0xbe45eff2	-0.19329813
89	0x3d75ea79	0.060038064
90	0xbd10c287	-0.035341766
91	0x3db03241	0.08603335
92	0x3cecb8df	0.028896747
93	0xbd9ee151	-0.077578194
94	0x3d5d0536	0.053960048
95	0x3dba1d36	0.09087603
96	0x3e34e0f3	0.17663936
97	0x3c1b7bcc	0.009489965
98	0x3e77777d	0.24166675
99	0x3dd162d5	0.10223929
100	0x3ea524db	0.3225468
101	0xbe89ddc2	-0.26927
102	0x3d7e081c	0.062019452
103	0x3e17a878	0.1481036
104	0x3e013f95	0.12621911
105	0xbcea64df	-0.028612552
106	0x3d96f75b	0.07371398
107	0x3d8b2618	0.06794375
108	0x3defe062	0.117127195
109	0xbe1bd38e	-0.1521742
110	0xbd4f2c89	-0.05057958
111	0xbc1e263e	-0.009652672
112	0x3d9943f6	0.07483666
113	0xbe0c5664	-0.1370483
114	0xbd2c7583	-0.042104255
115	0x3d38e422	0.04513944
116	0x3ec76060	0.38940716
117	0x3e063424	0.13105828
118	0xbdca5f8e	-0.09881507
119	0xbe94a940	-0.29035378
120	0x3df95a91	0.12175477
121	0xbb3722e2	-0.0027944376
122	0xbdd79fe7	-0.10528546
123	0xbe597198	-0.21234739
124	0x3e14d8d8	0.14535844
125	0x3d61ef60	0.055159926
126	0xbb270587	-0.0025485472
127	0xbe000a05	-0.12503822
128	0xbe0e1007	-0.13873301
129	0x3dbd28d2	0.092363015
130	0x3e0c17b7	0.13680921
131	0xbe1c1080	-0.15240669
132	0x3e062e3f	0.13103579
133	0x3ebe934a	0.37221748
134	0x3d41f9bf	0.047357317
135	0x3d06c2cf	0.032900628
136	0x3d538980	0.051644802
137	0xbdac1937	-0.08403247
138	0x3dbc1b08	0.09184843
139	0xbe82a129	-0.2551358
140	0xbd4e6d23	-0.05039705
141	0x3da0a190	0.078433156
142	0x3e4011e4	0.18756825
143	0xbe2081a6	-0.15674457
144	0xbe8a3eb3	-0.2700096
145	0x3d68395f	0.05669534
146	0xbdd4bfa8	-0.10388118
147	0x3e0c7855	0.13717778
148	0xbe4bdbc1	-0.19908048
149	0xbed61ad2	-0.41817337
150	0xbe836229	-0.25660828
151	0x3d8c9109	0.06863601
152	0x3dfd584b	0.12370356
153	0xbe2ef437	-0.17085348
154	0x3e058e60	0.13042593
155	0xbe537cbe	-0.20653054
156	0x3d843ae2	0.064565435
157	0xbea18667	-0.31547853
158	0x3c6661b3	0.014061379
159	0xbe987ca3	-0.2978259
160	0x3dabf36d	0.08396039
161	0xbe5094bf	-0.20369242
162	0xbdd2c2b8	-0.10291046
163	0xbe2a18de	-0.16611049
164	0x3dadb558	0.08481854
165	0x3cca4bca	0.024694342
166	0xbd1d021a	-0.038332082
167	0xbe14081d	-0.1445622
168	0xbe35af05	-0.17742546
169	0x3e20eeef	0.15716146
170	0xbd8043fc	-0.06262967
171	0x3dd3dc34	0.10344735
172	0x3bca3fa9	0.0061721397
173	0x3e8ba579	0.27274683
174	0x3da0ed68	0.07857782
175	0xbe0d4d98	-0.13799131
176	0xbd412339	-0.04715273
177	0xbddb947e	-0.10721682
178	0x3bb3fac7	0.0054925415
179	0x3e2547a0	0.16140604
180	0xbd140c5a	-0.036144592
181	0xbde41dee	-0.11138521
182	0xbe8e37f8	-0.27777076
183	0xbddf6d71	-0.10909546
184	0xbd83b4d0	-0.064309716
185	0x3da28e8b	0.07937344
186	0x3d8555f7	0.06510537
187	0x3e6c1e95	0.23058541
188	0x3bf68007	0.0075225863
189	0xbb22d5bc	-0.0024846634
190	0x3e701459	0.23445262
191	0x3deed53f	0.11661767
192	0x3e22e0a7	0.1590601
193	0xbd0fcdd2	-0.035108395
194	0x3dbcace1	0.092126615
195	0x3d4df7fb	0.05028532
196	0xbc8be84b	-0.01707854
197	0x3e13885f	0.1440749
198	0xbdc78b94	-0.09743419
199	0x3c3c9f20	0.011512548
200	0xbe1fde00	-0.1561203
201	0x3cbdf967	0.023190213
202	0xbdb64dbd	-0.08901546
203	0x3e08ea56	0.13370642
204	0xbe3e59c7	-0.18588935
205	0x3de34b22	0.11098315
206	0xbd2eadd6	-0.04264625
207	0x3e6eff41	0.23339559
208	0x3dba3ac7	0.09093242
209	0xbe0832b4	-0.13300592
210	0xbe585d70	-0.21129394
211	0x3de82d8a	0.11336811
212	0xbe1da3cb	-0.15394513
213	0x3da5d045	0.08096365
214	0x3e04db93	0.12974386
215	0x3e250991	0.1611693
216	0xbc6ba5ee	-0.014382822
217	0x3e3a4fd1	0.1819451
218	0x3a10b9a7	0.00055208284
219	0x3e61131f	0.2197995
220	0x3d7b8096	0.061401926
221	0xbe52399e	-0.20529792
222	0xbddee0b0	-0.108826995
223	0x3db8c77d	0.09022424
224	0x3e7aefc2	0.24505523
225	0x3e5dce5d	0.21660753
226	0x3ecf2e92	0.40465218
227	0xbd4bfbe9	-0.049800787
228	0xbd6a5247	-0.057207372
229	0xbd0d4fca	-0.03449992
230	0x3e005dd9	0.125358
231	0xbd9c224f	-0.07623731
232	0x3e98eeb6	0.29869622
233	0xbe0f9d16	-0.14024767
234	0x3e8d7c23	0.2763377
235	0x3dc069b8	0.09395164
236	0x3d9b42ad	0.07581077
237	0x3dfa8bc7	0.12233692
238	0x3de6ffb3	0.112792395
239	0x3e45134c	0.19245642
240	0x3dca28c0	0.09871054
241	0x3e382644	0.17983347
242	0xbe8ce8cd	-0.27521363
243	0xbe0c1ed1	-0.1368363
244	0x3cfb2d3b	0.030661216
245	0x3dbe2d0b	0.09285935
246	0xbdcca090	-0.09991562
247	0x3e7a9907	0.24472438
248	0x3e310395	0.17286523
249	0x3ddf071f	0.1089003
250	0x3dafafe4	0.0857847
251	0x3dd876da	0.10569544
252	0xbdc715e6	-0.09720974
253	0xbc36fad2	-0.011168199
254	0xbd9f340b	-0.07773598
255	0x3b99557b	0.0046793795

encoder_layers.block_0.conv.bias f4 [72]
0	0x3e5f7ab1	0.21824147
1	0x3ded4424	0.115852624
2	0x3c80e38f	0.015733508
3	0x3e500291	0.20313479
4	0x3cbe4ad1	0.023229035
5	0xbc85ff24	-0.016357012
6	0xbd940786	-0.072279975
7	0x3e963156	0.29334515
8	0x3e4e1d12	0.20128277
9	0xbdaee75f	-0.08540224
10	0x3d573fd2	0.0525511
11	0xbdb69f7c	-0.08917138
12	0x3e41448e	0.18873808
13	0x3ddc8d4d	0.107691385
14	0x3d03b9c9	0.0321596
15	0xbd9e290b	-0.07722672
16	0x3e1a3005	0.1505738
17	0x3e1f2bd8	0.15544069
18	0x3d7f96f7	0.06239983
19	0xbe306b5e	-0.17228457
20	0x3d159a5c	0.03652416
21	0x3e44dfc3	0.19225983
22	0xbc57818d	-0.013153446
23	0x3db75829	0.08952362
24	0x3e1b8e29	0.15190949
25	0x3e2b8136	0.16748509
26	0xbcf5cb95	-0.030004302
27	0x3dc83016	0.09774797
28	0x3e808fea	0.25109798
29	0x3c27b588	0.0102361515
30	0x3e3749e0	0.17899275
31	0xbd875660	-0.066082716
32	0xbd19ddd0	-0.037565053
33	0xbd13ea46	-0.036112092
34	0xbd8f402f	-0.06994664
35	0xbdbe0461	-0.09278179
36	0xbda173f9	-0.07883448
37	0x3bb740c1	0.005592436
38	0xbc86fd58	-0.016478226
39	0x3dad685d	0.08467171
40	0xbdb9caab	-0.09071859
41	0xbc75d597	-0.015004537
42	0xbddf28ca	-0.10896452
43	0xbcc9d92e	-0.024639692
44	0x3e0c01a9	0.13672508
45	0xbdaf707a	-0.08566375
46	0x3c77b2f2	0.0151183475
47	0xbdbcaaaa	-0.09212239
48	0x3e604b47	0.21903716
49	0xbda26f57	-0.07931393
50	0xbc99c3ad	-0.018770063
51	0xbd7b3261	-0.061327342
52	0x3e0f8ccd	0.14018555
53	0x3db9c7fb	0.09071346
54	0x3d8bd9a0	0.06828618
55	0x3d63625b	0.05551372
56	0xbdda8891	-0.10670579
57	0xbd45ad72	-0.048261113
58	0xbe39655e	-0.18105075
59	0x3df06959	0.117388435
60	0xbd5cc404	-0.053897873
61	0x3dcbfb88	0.09960085
62	0xbcf9d319	-0.030496167
63	0x3e094d8d	0.1340849
64	0xbd924f56	-0.071440384
65	0x3ba5bbce	0.0050577885
66	0x3dfbb4b0	0.12290323
67	0x3db1abea	0.08675368
68	0x3d20154a	0.039082803
69	0xbd9703d6	-0.073737785
70	0xbdbfb874	-0.093613535
71	0x3daa3a3c	0.083118886

encoder_layers.block_1.transition.weight f4 [18, 36, 3, 3]
0	0xbc6db68f	-0.014508857
1	0xbdb66c7b	-0.0890741
2	0xbc3a0e36	-0.011355927
3	0xbc70da60	-0.014700502
4	0xbcdd2ba6	-0.026998352
5	0xbd876f65	-0.06613044
6	0xbd685b2e	-0.05672758
7	0xbcf499d8	-0.029858515
8	0xbd1dd207	-0.038530376
9	0xbdda7fd3	-0.10668912
10	0x3cf0f251	0.02941242
11	0xbcd2ba57	-0.02572362
12	0xbd923d9e	-0.07140659
13	0xbdb58c2f	-0.088646285
14	0xbd8e1aa9	-0.06938679
15	0xbd4ec1bd	-0.050477732
16	0xbdcfed91	-0.10152734
17	0xbd8edf64	-0.06976202
18	0xbd9acd35	-0.075586714
19	0xbe0e9d07	-0.13927089
20	0xbde6e3ca	-0.11273916
21	0xbda32c1d	-0.07967398
22	0xbe10aa62	-0.14127496
23	0xbe0407cc	-0.128936
24	0xbda42164	-0.08014181
25	0xbd928fef	-0.071563594
26	0xbded0e7d	-0.11575029
27	0x3c584f28	0.013202466
28	0x3d8f8d72	0.070094004
29	0x3e24065f	0.16018055
30	0x3d023634	0.031789973
31	0x3d849ffc	0.06475827
32	0x3c9d4d70	0.019201964
33	0x3dce1357	0.100622825
34	0xbca55521	-0.020182194
35	0x3d89d4ab	0.06730016
36	0x3ca2e05d	0.019882375
37	0xbcde230b	-0.02711632
38	0x3d41f0f9	0.04734895
39	0x3d7f668c	0.062353656
40	0x3d9d1f9d	0.076720454
41	0xbc41e1c2	-0.01183361
42	0x3c821aa2	0.01588184
43	0x3d8c703e	0.06857346
44	0x3d08cd90	0.033399165
45	0xbdb3d21d	-0.0878031
46	0x3d41bfb7	0.047301974
47	0xba87e0cd	-0.0010366678
48	0xbd71ccb4	-0.05903311
49	0xbcf6cc14	-0.030126609
50	0xbd6eb02d	-0.058273483
51	0x3d40cc5a	0.047069885
52	0xbcc9ad86	-0.024618875
53	0x3d1518a9	0.03640047
54	0x3d131a70	0.035913885
55	0xbc5f5617	-0.013631365
56	0xbcedab28	-0.029012278
57	0x3d19e3b2	0.037570663
58	0x3daba1f5	0.083805
59	0x3d556605	0.052099247
60	0x3d3056ce	0.043051533
61	0xbb9d31ee	-0.004797212
62	0xbcc405eb	-0.023928603
63	0x3d2b195c	0.04177223
64	0x3d9d9385	0.07694153
65	0xbb57e71a	-0.0032944144
66	0xbc9d4a8b	-0.019200584
67	0x3c703e61	0.01466331
68	0x3a3db658	0.0007236949
69	0x3d8d560c	0.06901178
70	0x3d6ca791	0.05777699
71	0xbb568221	-0.0032731371
72	0x3da151fc	0.078769654
73	0x3d51e5d0	0.051244557
74	0x3e32e34c	0.1746952
75	0x3dc995ff	0.098430626
76	0x3e3523e2	0.1768947
77	0x3b1da1b0	0.0024052672
78	0x3e003704	0.12520987
79	0x3de1c676	0.110241815
80	0x3d9a2c11	0.07527936
81	0xbde16723	-0.11006
82	0xbd00f44d	-0.031482983
83	0xbd7487a9	-0.059699688
84	0xbcbc00ea	-0.022949655
85	0xbdb9fb81	-0.09081174
86	0x3d067e75	0.032835443
87	0xbe309000	-0.17242432
88	0xbd371562	-0.044698127
89	0x3c5b9ba9	0.0134038115
90	0x3c204b88	0.009783633
91	0x3d9bbef5	0.076047815
92	0x3ca2bc0e	0.019865062
93	0xbbbdf9af	-0.005797587
94	0x3bc979f0	0.0061485693
95	0x3d9e6c90	0.077355504
96	0xbd555ea7	-0.05209222
97	0xbd68afcb	-0.056808274
98	0x3d35e0b2	0.04440374
99	0xbdd330c8	-0.10312039
100	0xbd233909	-0.039849315
101	0xbbdbaa36	-0.0067036403
102	0x3c92cc5c	0.017919712
103	0xbc906d3f	-0.017630218
104	0xbd733c8c	-0.059383914
105	0xbc5edcaa	-0.013602415
106	0xbda13aa2	-0.078725114
107	0xbcae5b1d	-0.02128368
108	0x3d558714	0.052130774
109	0x3d880955	0.06642405
110	0x3d2a5920	0.041588902
111	0x3df00df4	0.11721411
112	0x3daa093a	0.08302541
113	0x3c12f51f	0.008969574
114	0x3dd7444b	0.10511073
115	0x3b9f07b3	0.0048532127
116	0x3cbc525e	0.022988494
117	0xbc14f92e	-0.009092612
118	0x3d57cb35	0.052684028
119	0xbc2569cd	-0.010096026
120	0xbdf5d1f3	-0.12002935
121	0xbdf8fd84	-0.12157729
122	0xbe0eb072	-0.13934496
123	0xbd1ee0f3	-0.038788747
124	0xbdafa46c	-0.08576283
125	0x3c9c69c8	0.01909341
126	0x3da7217e	0.08160685
127	0x3e08d895	0.1336387
128	0x3d93fe69	0.07226259
129	0x3dd1b773	0.10240068
130	0x3dd556a1	0.10416914
131	0x3dcfff2c	0.10156092
132	0x3dd4a36f	0.10382735
133	0x3d41fbee	0.0473594
134	0x3df8e5ce	0.12153207
135	0xbcd2e95f	-0.025746046
136	0x3d3965d0	0.04526311
137	0x3cf22536	0.02955876
138	0x3d86abb2	0.06575717
139	0x3dbeeb1d	0.09322188
140	0x3ca6cb40	0.020360589
141	0xbc3029a5	-0.010752116
142	0x3db936df	0.09043669
143	0x3dd02ac9	0.101644106
144	0x3dcdf140	0.100557804
145	0x3e0b0e57	0.13579689
146	0x3d89455c	0.067026824
147	0x3d8a33b9	0.067481466
148	0x3e158df0	0.14604926
149	0x3df12a91	0.11775697
150	0xbc118065	-0.008880709
151	0x3d5370e8	0.051621348
152	0x3d47520a	0.048662223
153	0x3d3fc98c	0.04682307
154	0x3db2d336	0.087316915
155	0x3e120d11	0.14262797
156	0x3dd2ec28	0.102989495
157	0xbd37854a	-0.04480485
158	0x3d5f73f4	0.05455394
159	0x3da8ab50	0.082358
160	0x3cba2d05	0.022726545
161	0x3da81389	0.08206851
162	0xbd94dda3	-0.07268836
163	0x3d3db208	0.046312362
164	0x3d786508	0.060643226
165	0x3ded141f	0.115761034
166	0x3dbb97ab	0.09159788
167	0x3cf9a169	0.030472474
168	0x3e2c6792	0.16836384
169	0x3e2ef702	0.17086414
170	0x3d0dcd83	0.03461982
171	0x3e3b2970	0.18277526
172	0x3c7813cb	0.015141438
173	0x3e159d1d	0.14610715
174	0x3da28c44	0.0793691
175	0xbddd38af	-0.10801827
176	0x3d5a0286	0.053225063
177	0x3dd5077b	0.104018174
178	0xbced15c8	-0.02894105
179	0x3d8c46a7	0.06849413
180	0xbbb11c8c	-0.0054050144
181	0x3e9555fd	0.29167166
182	0x3c2b92bd	0.010471997
183	0xbbf40d49	-0.007447873
184	0x3dbe8f89	0.09304721
185	0x3d8e171d	0.06938002
186	0xbb6d78c0	-0.0036235303
187	0xbce16e35	-0.027518371
188	0x3dbea999	0.09309692
189	0x3d937318	0.07199687
190	0xbe189e9c	-0.14904255
191	0x3d66647e	0.05624818
192	0x3cc8f460	0.02453059
193	0x3e18611c	0.14880794
194	0x3daa0709	0.08302123
195	0xbe13313c	-0.1437425
196	0xbdd81a55	-0.105518974
197	0x3c7d77b9	0.015470439
198	0xbe39f243	-0.18158822
199	0xbdc0f95f	-0.09422564
200	0xbe0eebae	-0.13957092
201	0xbd9fc886	-0.07801919
202	0xbde033a8	-0.10947353
203	0xbc9f020c	-0.019410156
204	0xbdcf2552	-0.1011454
205	0xbd6d4136	-0.057923518
206	0xbdcdb0fe	-0.10043524
207	0x3d3e117e	0.0464034
208	0xbcd31c13	-0.025770223
209	0xbd8cc8d4	-0.068742424
210	0xbd41208b	-0.047150176
211	0x3cf5dc75	0.030012349
212	0xbdeed2e9	-0.11661322
213	0x3b8e28e4	0.0043383706
214	0x3c1219c7	0.008917279
215	0xbcffb2dd	-0.031213218
216	0x3dc49a5e	0.09599756
217	0x3d2e5bc4	0.042567983
218	0x3dc99366	0.09842567
219	0x3de2538f	0.11051094
220	0x3d880474	0.06641474
221	0x3b44fc47	0.0030057596
222	0x3dad3a6c	0.08458409
223	0x3dc2cf94	0.09512249
224	0x3d785fe0	0.06063831
225	0x3b99eefd	0.004697679
226	0xbe2c8eb0	-0.16851306
227	0xbe6e930e	-0.23298284
228	0xbe9ea29e	-0.30983442
229	0xbe9f43a5	-0.31106296
230	0xbe998ca3	-0.2999011
231	0xbe9f175e	-0.31072515
232	0xbe8ed2f1	-0.2789531
233	0xbda6b40d	-0.08139811
234	0x3d837d01	0.06420327
235	0xbe54f099	-0.20794906
236	0xbe154e17	-0.1458057
237	0xbd2068d3	-0.03916247
238	0xbdc04ef8	-0.09390062
239	0xbe08e842	-0.1336985
240	0x3d89b31f	0.06723618
241	0xbda9b679	-0.08286757
242	0x3de916a5	0.11381272
243	0xbdccec4c	-0.100060076
244	0xbcda8bad	-0.02667793
245	0xbe15f03b	-0.14642422
246	0x3d5be242	0.053682573
247	0x3dd59982	0.1042967
248	0x3cc3911b	0.023872903
249	0xbc76cbb9	-0.01506322
250	0x3c5e9f13	0.013587731
251	0xbd1582e2	-0.036501773
252	0xbe084c27	-0.133103
253	0x3a37b122	0.0007007291
254	0x3bff6b23	0.007794754
255	0xbd0074d8	-0.03136143

encoder_layers.block_1.transition.bias f4 [18]
0	0xbe0c9cbe	-0.13731667
1	0xbd5a9bc3	-0.053371202
2	0xbd2ac461	-0.041691188
3	0xbd668f77	-0.056289162
4	0xbe0da17b	-0.13831131
5	0x3af4fd3b	0.0018691191
6	0x3bbde227	0.0057947817
7	0xbc9c1aa5	-0.019055674
8	0xbc0c7f01	-0.008575202
9	0xbd900995	-0.070330776
10	0x3dc52d3c	0.096277684
11	0xbdbabd68	-0.091181576
12	0x3dd519cc	0.10405311
13	0x3d831aa8	0.06401569
14	0xbde9fe95	-0.11425511
15	0xbc36a42b	-0.011147539
16	0xbd592f99	-0.05302391
17	0xbd5e8959	-0.054330204

encoder_layers.block_1.conv.weight f4 [72, 18, 1, 1]
0	0x3cbcbfd8	0.023040697
1	0x3d0a9902	0.033837326
2	0xbeaaf36e	-0.33388847
3	0x3e7ff6d0	0.24996495
4	0xbe25b73f	-0.16183184
5	0xbe6b59e9	-0.22983517
6	0x3e60a951	0.21939589
7	0x3df1cb60	0.11806369
8	0xbe31bc75	-0.17357047
9	0x3dbfffe7	0.093749814
10	0x3e08e609	0.13369001
11	0x3e3434a4	0.17598206
12	0x3db16bb5	0.086631216
13	0xbc560c54	-0.013064463
14	0xbd827edf	-0.06371855
15	0x3eb6af86	0.3568079
16	0xbe407056	-0.18792853
17	0x3e1b6682	0.15175822
18	0xbd004631	-0.03131694
19	0x3d263aa9	0.040583286
20	0x3e8e1575	0.27750745
21	0x3e0be906	0.1366311
22	0xbe76b44a	-0.24092212
23	0x3e749e3e	0.2388849
24	0x3c2eb3d1	0.010662989
25	0x3e511801	0.20419313
26	0xbe1517f6	-0.14559922
27	0x3d0fdc9f	0.03512251
28	0x3e9260fd	0.2858962
29	0x3cbe41e1	0.023224773
30	0xbb8766e5	-0.004132139
31	0x3dca905f	0.09890818
32	0xbea86227	-0.32887384
33	0xbe939ea8	-0.28831983
34	0xbeaea7d3	-0.34112415
35	0x3e391c6f	0.18077253
36	0xbe000281	-0.12500955
37	0x3db25ec0	0.087094784
38	0xbe73fdfd	-0.23827358
39	0xbe139ae3	-0.14414553
40	0xbe0476ba	-0.12935916
41	0xbdd8ffa5	-0.10595635
42	0xbd840149	-0.064455576
43	0xbe675b58	-0.22593439
44	0xbe4fd9bf	-0.20297907
45	0xbf038235	-0.51370555
46	0x3e107c3f	0.14109896
47	0x3d1d28a9	0.038368855
48	0x3ecd8479	0.4014013
49	0xbd7beb2b	-0.06150357
50	0xbd9db1c3	-0.07699921
51	0x3dedbe1c	0.11608526
52	0x3e1b5fcb	0.15173261
53	0x3e0bbce6	0.13646278
54	0xbe20d5a1	-0.15706493
55	0x3e883836	0.26605386
56	0xbe90a0f6	-0.28247803
57	0xbdc9d028	-0.09854156
58	0xbe141f89	-0.14465155
59	0x3e6b4488	0.22975361
60	0xbe04bbf6	-0.12962326
61	0xbdd108fd	-0.102067925
62	0x3e1baebd	0.15203376
63	0xbe1e3ed2	-0.15453652
64	0x3d1fc936	0.03901025
65	0xbe1dea05	-0.15421303
66	0xbe2db94f	-0.16965221
67	0x3dd40fe0	0.103545904
68	0xbe8d04eb	-0.27542815
69	0xbc6c0b95	-0.014407058
70	0xbdb26c80	-0.08712101
71	0xbcc3dd33	-0.023909187
72	0x3da374f0	0.079812884
73	0x3e831738	0.25603652
74	0xbe7ded49	-0.24797548
75	0x3de30781	0.11085416
76	0xbd89ebff	-0.06734466
77	0xbe43737d	-0.19087024
78	0x3e681d09	0.22667326
79	0x3e974609	0.2954562
80	0xbd88553e	-0.06656884
81	0xbefc3ed7	-0.49266693
82	0x3d854b65	0.06508521
83	0xbeab9b45	-0.335169
84	0x3d5101af	0.051026996
85	0xbd505647	-0.05086353
86	0x3ef0eada	0.47054178
87	0x3e975869	0.2955964
88	0x3e657f14	0.22411758
89	0x3d2cc9d3	0.042184662
90	0x3d9d043c	0.07666823
91	0xbe51273c	-0.20425123
92	0x3bc62f4e	0.0060481196
93	0xbe7e648e	-0.24843046
94	0xbda8e8c3	-0.08247521
95	0x3c8b5549	0.01700844
96	0x3e45c296	0.1931251
97	0x3dac85f4	0.08423987
98	0x3e365448	0.17805588
99	0x3e4f19df	0.20224713
100	0x3c9eeab1	0.019399019
101	0xbe46b17c	-0.19403642
102	0xbd85a403	-0.065254234
103	0x3da42352	0.08014549
104	0xbd177039	-0.03697226
105	0x3c984e70	0.01859209
106	0xbebc270d	-0.36748543
107	0x3e96a66a	0.2942384
108	0xbeaa93ea	-0.33315974
109	0x3e49d784	0.19711119
110	0x3db98673	0.09058847
111	0x3c8168b3	0.015796995
112	0xbe21f7db	-0.15817206
113	0x3c940ea4	0.018073387
114	0x3caadcf9	0.020857321
115	0x3e8df4a3	0.27725706
116	0x3e89657b	0.26835236
117	0xbe57724c	-0.21039695
118	0x3d2036e5	0.03911485
119	0x3e05f63f	0.13082217
120	0x3e4aea49	0.19815935
121	0xbe8412a5	-0.25795475
122	0xbe55250d	-0.20814915
123	0x3bbb0b5f	0.0057081426
124	0x3cbf8280	0.023377657
125	0xbe88e5a7	-0.2673771
126	0xbe621b63	-0.2208076
127	0xbbb82f9c	-0.00562091
128	0x3dad3fde	0.08459447
129	0x3e79f37b	0.24409287
130	0x3deb03f6	0.11475365
131	0xbdc4c9e7	-0.09608822
132	0x3e8acd5c	0.27109802
133	0x3d66a6d1	0.056311432
134	0x3e005d2e	0.12535545
135	0x3eac1ad4	0.33614218
136	0x3ee3e2c5	0.4450895
137	0xbdcf5b72	-0.10124864
138	0x3de70488	0.11280161
139	0x3e9befdd	0.3045644
140	0x3dfd5148	0.12369019
141	0xbdbc7235	-0.09201471
142	0xbe8e3f98	-0.27782893
143	0xbef1aef3	-0.47203788
144	0x3eb9e208	0.3630526
145	0x3e0920a9	0.13391365
146	0x3e604fea	0.21905485
147	0x3e15d4d4	0.14631969
148	0xbf0b6a00	-0.5445862
149	0xbdc436d2	-0.09580769
150	0x3dd86ff3	0.105682276
151	0xbe1b522a	-0.15168062
152	0x3d6db6ba	0.05803559
153	0x3f32db72	0.69866097
154	0x3ecfe4ec	0.4060434
155	0xbec72bbb	-0.3890055
156	0x3dfb6a45	0.12276129
157	0x3e9184a2	0.28421503
158	0xbe72ff65	-0.23730238
159	0xbe9984b3	-0.29984054
160	0xbf05ad69	-0.5221773
161	0xbe82ed9b	-0.25571904
162	0xbd2a71bf	-0.041612383
163	0x3de51d06	0.111871764
164	0x3d1f4bc0	0.0388906
165	0xbcba6e75	-0.022757748
166	0xbdb435ca	-0.08799322
167	0xbe5d0fa6	-0.21588
168	0x3cc05d6b	0.023482045
169	0xbe01977b	-0.12655441
170	0xbd7db510	-0.061940253
171	0x3eb958ba	0.36200505
172	0x3d76051f	0.060063478
173	0xbe122a1f	-0.1427388
174	0x3df59312	0.11990942
175	0xbe0352ca	-0.1282455
176	0xbe4683b2	-0.19386175
177	0x3e801980	0.25019455
178	0xbe733f07	-0.23754512
179	0xbe96274f	-0.29326865
180	0xbefe48ed	-0.49665013
181	0x3e026cfe	0.1273689
182	0x3ce353cc	0.027749918
183	0x3e72855b	0.23683684
184	0x3e4f98f3	0.20273189
185	0xbeda6676	-0.42656296
186	0xbc2e61f9	-0.010643476
187	0xbde711bd	-0.1128268
188	0xbe0f4045	-0.1398936
189	0xbdf5e666	-0.12006836
190	0x3d37e747	0.044898298
191	0xbe9096fe	-0.28240198
192	0x3de19b47	0.11015945
193	0x3e9d4743	0.3071843
194	0x3e164647	0.14675246
195	0xbebf45c4	-0.37357914
196	0xbbc797cf	-0.006091095
197	0xbe8d4008	-0.27587914
198	0xbea7739f	-0.327054
199	0x3bbb2fcd	0.0057124854
200	0x3e4336ff	0.19063948
201	0x3edc6867	0.43048403
202	0xbdbe5bc3	-0.09294846
203	0x3e260b98	0.1621536
204	0x3e41c168	0.18921435
205	0x3c5a89d9	0.0133385295
206	0xbe838e22	-0.25694376
207	0xbdb4b83a	-0.08824201
208	0xbc343435	-0.010998775
209	0x3db89f81	0.09014798
210	0x3ebb0d9a	0.36533815
211	0x3c917ea5	0.017760584
212	0x3e761f87	0.24035464
213	0x3d02d44a	0.031940736
214	0x3e795427	0.24348508
215	0xbeb2cdd8	-0.3492267
216	0xbec2c477	-0.38040516
217	0xbe3f3d9b	-0.18675844
218	0xbec71c35	-0.38888708
219	0x3e86513a	0.26233846
220	0x3e831176	0.2559926
221	0xbe8432d8	-0.2582004
222	0x3dbda246	0.09259467
223	0x3d3cfee2	0.046141513
224	0xbe026732	-0.12734678
225	0x3f060762	0.52355015
226	0xbdfd40da	-0.12365885
227	0xbe458b6c	-0.19291466
228	0x3dfadab6	0.12248747
229	0x3e8eff0f	0.2792897
230	0xbd43fc0c	-0.047847793
231	0xbe8669c1	-0.2625256
232	0xbd9d07e3	-0.0766752
233	0xbe44ee3c	-0.19231504
234	0xbeb64bf0	-0.3560481
235	0xbed92490	-0.42410707
236	0xbe6e8287	-0.2329198
237	0x3eb4f22c	0.35341012
238	0xbb5c0822	-0.0033574183
239	0xbe7857e4	-0.24252278
240	0xbdef6825	-0.11689786
241	0xbd0c8816	-0.03430947
242	0x3e56f829	0.20993103
243	0x3c6141fe	0.013748644
244	0x3d945ec8	0.072446406
245	0x3d893997	0.067004375
246	0x3f2e3a24	0.68057466
247	0xbd613335	-0.054980475
248	0xbd603857	-0.05474123
249	0xbd3d2ba5	-0.0461842
250	0xbe726166	-0.23669967
251	0xbeaecbb4	-0.34139788
252	0x3d1431e6	0.0361804
253	0x3dbeeb0f	0.093221776
254	0xbdf6d9b8	-0.12053245
255	0x3e39dafa	0.18149939

encoder_layers.block_1.conv.bias f4 [72]
0	0x3e0b6b9f	0.13615273
1	0x3d9cb373	0.07651415
2	0x3d6864fa	0.056736924
3	0x3df4d716	0.11955087
4	0x3de7a342	0.11310436
5	0x3e157bd9	0.14598025
6	0xbd477eb1	-0.048704807
7	0x3dc6d9e4	0.09709528
8	0xbd15b255	-0.036547024
9	0xbd0db98d	-0.034600783
10	0xbd578dc0	-0.052625418
11	0x3e516754	0.20449573
12	0xbdbdb3a1	-0.09262777
13	0x3e89e53f	0.26932713
14	0x3e1c7d96	0.15282282
15	0x3d15e258	0.03659281
16	0x3e758486	0.23976335
17	0x3e87735c	0.264552
18	0x3e0e9e08	0.13927472
19	0x3d17bfe9	0.037048254
20	0x3e069e9c	0.13146442
21	0x3e4a581c	0.19760174
22	0x3e7ac791	0.24490191
23	0x3e8c64ba	0.27420598
24	0x3d84d457	0.06485813
25	0x3d2fe68e	0.042944483
26	0x3e2d7f0a	0.16942993
27	0x3e2a46dc	0.16628593
28	0x3e61133e	0.21979997
29	0x3d8ae8ee	0.06782709
30	0xbc8cd849	-0.017192977
31	0x3c0f300a	0.008739481
32	0x3e011d13	0.12608747
33	0x3e8dbb27	0.27681848
34	0xbcde2477	-0.027116997
35	0x3e409aac	0.18809003
36	0xbc216d42	-0.009852709
37	0x3dd422af	0.10358178
38	0x3e8fc65b	0.2808102
39	0x3e896b73	0.2683979
40	0x3d8bb393	0.068213604
41	0x3e1873f6	0.14887986
42	0xbab35ebf	-0.0013684853
43	0x3d302bc9	0.043010507
44	0xbd5e7bae	-0.05431717
45	0x3cca2663	0.024676507
46	0x3e0981ef	0.13428472
47	0x3e18e8df	0.14932583
48	0xbcd89d2e	-0.026442137
49	0x3dd71372	0.10501756
50	0xbc453e2d	-0.01203875
51	0xbd818931	-0.06324995
52	0x3e8122f6	0.25221986
53	0x3ee1b362	0.4408217
54	0xbd235c84	-0.03988315
55	0x3dcb6cb8	0.09932846
56	0xbe2cbc2e	-0.1686866
57	0xbe16c232	-0.14722517
58	0x3d6e2aaf	0.058146175
59	0xbdcc8022	-0.09985377
60	0xbddaf074	-0.10690394
61	0xbdc75e4b	-0.09734782
62	0xbd218abe	-0.039438955
63	0xbe234ac2	-0.15946487
64	0x3d2135e4	0.039358035
65	0xbd22618d	-0.039643813
66	0x3daf6ccb	0.085656725
67	0xbd100173	-0.035157632
68	0xbd94a16b	-0.072573505
69	0x3e234fee	0.1594846
70	0xbe0fc0a4	-0.1403833
71	0xbcf8d6f0	-0.030375928

decoder_layers.block_0.transition.weight f4 [18, 18, 3, 3]
0	0xbc77db85	-0.015128021
1	0xbdf1d48c	-0.11808118
2	0x3d2ee687	0.042700317
3	0xbc01060b	-0.007874976
4	0xbe03704c	-0.12835807
5	0xbe0b5af9	-0.13608922
6	0x3ddccc16	0.10781114
7	0xbc986c16	-0.018606227
8	0xbca55f55	-0.02018706
9	0xbc664cb8	-0.014056377
10	0xbd20791f	-0.03917801
11	0xbc8e853a	-0.017397512
12	0xbbd99187	-0.0066396627
13	0x3dd21849	0.10258538
14	0x3d1d16f9	0.038351987
15	0xbc0d4d29	-0.008624353
16	0x3d875182	0.06607343
17	0xbbe24a11	-0.006905802
18	0x3c9052f0	0.017617673
19	0xbd4e518b	-0.050370734
20	0xbc54af66	-0.012981271
21	0x3d26d82f	0.040733512
22	0xbd64a918	-0.055825323
23	0x3d82279e	0.06355213
24	0x3d784637	0.060613837
25	0x3d9ced65	0.07662467
26	0x3db9690b	0.090532385
27	0x3d9ae1d1	0.07562602
28	0x3d2195f0	0.039449632
29	0x3d9150db	0.070955
30	0x3d7ffcab	0.062496822
31	0x3de3d513	0.11124625
32	0x3dae3713	0.08506598
33	0xbbce6835	-0.0062990435
34	0x3dbacc56	0.09121005
35	0xbc9c8f7d	-0.01911139
36	0x3db8debe	0.0902686
37	0x3e420d2c	0.18950337
38	0x3dc06fcc	0.093963236
39	0xbd2b0a38	-0.041757792
40	0x3c3532fc	0.011059519
41	0xbcf4c511	-0.029879125
42	0xbd2da2ab	-0.04239146
43	0xbdc50ba0	-0.09621358
44	0xbb573e75	-0.0032843624
45	0x3b0dcdb7	0.0021637508
46	0x3c601d8b	0.013678919
47	0x3b5ed78d	0.003400299
48	0x3d9c7cd1	0.07640994
49	0x3dd47b60	0.103750944
50	0x3de3d6c4	0.11124948
51	0x3c00a845	0.007852619
52	0x3dd77c84	0.10521796
53	0x3db321f5	0.08746711
54	0x3dbab2c0	0.09116125
55	0xbc61a686	-0.013772612
56	0xbcf60e45	-0.030036101
57	0x3e24fe79	0.16112699
58	0xbd0889b4	-0.03333445
59	0xbe0a6673	-0.13515644
60	0xbd12f334	-0.035876468
61	0xbe20c080	-0.15698433
62	0x3ba2c4eb	0.004967322
63	0xbda18d43	-0.07888272
64	0xbd8bfff0	-0.068359256
65	0xbdc0fd8d	-0.09423361
66	0xbcecaa51	-0.028889807
67	0xbe366c0d	-0.17814656
68	0xbdb43b52	-0.08800377
69	0xbdc27911	-0.09495748
70	0xbdea7112	-0.11447348
71	0xbdabb9ad	-0.08385024
72	0xbce1ded7	-0.027572079
73	0xbc0c1f46	-0.008552378
74	0xbd1a13c3	-0.037616502
75	0xbafc7be5	-0.0019262998
76	0xbcf03f4b	-0.029327055
77	0x3ca4dd10	0.020124942
78	0xbd5858b2	-0.05281896
79	0xbc9ff5ec	-0.019526444
80	0x3c98b36d	0.018640244
81	0x3d70ae90	0.058760226
82	0x3d6147e1	0.05500019
83	0x3bc20943	0.0059215142
84	0xbc000a6f	-0.007814988
85	0x3da838bb	0.082139455
86	0x3ca21082	0.019783262
87	0x3baeed92	0.005338379
88	0x3d9dadaa	0.076991394
89	0xbcb8be31	-0.022551628
90	0xbdd75654	-0.10514513
91	0xbe6d699c	-0.23184818
92	0xbe09abee	-0.13444492
93	0x3d2ceabb	0.042216044
94	0x3d5e03a5	0.054202694
95	0xbd79d0d2	-0.060990162
96	0xbaeb0b0d	-0.001793237
97	0x3cab7f6a	0.02093478
98	0xbca06e03	-0.019583708
99	0x3d134248	0.035951883
100	0x3db711b4	0.089389235
101	0xbccd0f9f	-0.025031863
102	0xbb6d5ec7	-0.0036219822
103	0x3dd26638	0.10273403
104	0x3d2c18a8	0.0420157
105	0xbce0afe1	-0.027427616
106	0xbd60f043	-0.05491663
107	0xbdcafb19	-0.09911174
108	0xbd868378	-0.065680444
109	0xbd1890f9	-0.03724763
110	0xbd77fb71	-0.060542528
111	0x3d0c25a5	0.034215588
112	0xbd0b77b2	-0.034049697
113	0xbd6ff415	-0.058582384
114	0xbd13c630	-0.03607768
115	0xba6c456e	-0.00090130314
116	0xbc937ae8	-0.018002942
117	0xb9de06b2	-0.00042348128
118	0x3bb2309b	0.005437923
119	0x3b4612f3	0.0030223697
120	0x3d783168	0.060593992
121	0x3c14ab05	0.009073977
122	0xbd646914	-0.055764273
123	0x3d8762f8	0.06610674
124	0x3dcc61c8	0.09979588
125	0xbbc99f07	-0.0061529907
126	0x3c233d08	0.009963281
127	0x3cc9898c	0.02460172
128	0x3baacb1e	0.0052122017
129	0xbd240071	-0.040039483
130	0xbc50930d	-0.012730372
131	0xbd3a6d91	-0.045514647
132	0x3c02be6c	0.00797997
133	0x3cf1d9e6	0.029522847
134	0xbd166284	-0.036715046
135	0xbdb0ccda	-0.08632822
136	0xbd94e17d	-0.07269571
137	0xbda336c3	-0.07969429
138	0xbcb8253f	-0.022478698
139	0xbd09287f	-0.033485886
140	0xbd16ac84	-0.036785617
141	0xbdc75826	-0.0973361
142	0xbd9d61a3	-0.07684638
143	0xbd9d9972	-0.07695283
144	0xbc85d013	-0.01633457
145	0x3cd88fba	0.026435722
146	0xbc433fe4	-0.011917088
147	0x3dcf130f	0.10111057
148	0x3d0e9055	0.034805615
149	0xbdb52188	-0.08844286
150	0x3bfbea3a	0.007687834
151	0xbd4d44ac	-0.05011432
152	0xbd71ccd9	-0.05903325
153	0x3b95c603	0.004570724
154	0x3c10f944	0.008848492
155	0xbd226696	-0.039648615
156	0x3dd1f51d	0.1025183
157	0x3c2009b6	0.00976794
158	0x3d4d8088	0.050171405
159	0x3d91a3a1	0.07111288
160	0x3d93f6eb	0.0722483
161	0x3d180a16	0.037118994
162	0xbd8b573e	-0.068037495
163	0x3d7160c3	0.05893017
164	0x3c937986	0.018002283
165	0xba77643e	-0.00094372395
166	0x3cfa7c21	0.030576767
167	0xbd944a7e	-0.07240771
168	0xbdba88b3	-0.091081046
169	0xbc87375a	-0.016505886
170	0xbc03ab32	-0.008036422
171	0x3d61a353	0.0550874
172	0x3d721f51	0.059111897
173	0x3dcb6f40	0.09933329
174	0xbd126b48	-0.035746843
175	0xbd9da87e	-0.07698153
176	0x3d285b7e	0.04110288
177	0xbc332fb7	-0.010936669
178	0xbd8afc5f	-0.06786417
179	0xbbdc385e	-0.0067205867
180	0xbdc4fee6	-0.096189305
181	0x3c6e47f2	0.01454352
182	0xbd292e37	-0.04130384
183	0xbd83e62f	-0.064403884
184	0x3d93cbf8	0.07216638
185	0x3cc4e2fd	0.024034018
186	0xbcf85167	-0.030312253
187	0x3c2367db	0.009973492
188	0xbb6260af	-0.0034542491
189	0x3b849f20	0.0040472895
190	0xbd5b817d	-0.053590287
191	0xbd3998bc	-0.045311674
192	0xbccb6f10	-0.024833232
193	0xbda322b3	-0.07965603
194	0xbd0237ef	-0.031791624
195	0xbcce4815	-0.025180856
196	0xbd8d322b	-0.068943344
197	0xbd749886	-0.05971577
198	0xbd2eab72	-0.04264397
199	0xbe5187aa	-0.20461908
200	0xbbd95c7e	-0.0066333404
201	0x3dafaa14	0.08577362
202	0xbc09022a	-0.008362332
203	0x3caeac2e	0.021322336
204	0x3d811b9a	0.06304093
205	0x3e09dea4	0.13463837
206	0x3d9f13b1	0.07767428
207	0xbba41373	-0.0050072013
208	0x3d01ebd0	0.03171903
209	0x3af130a0	0.0018401332
210	0xbcbd925d	-0.02314108
211	0xbcd53666	-0.026026916
212	0xbca001ed	-0.019532168
213	0xbd825e27	-0.063656144
214	0xbcb7ba3b	-0.022427669
215	0xbbd87f7b	-0.0066069937
216	0xbd98e781	-0.07466031
217	0xbd8ea083	-0.06964209
218	0x3d5d2c79	0.05399749
219	0xbeaf3cbe	-0.3422603
220	0x3db86e62	0.09005429
221	0x3e6312bc	0.22175115
222	0xbc839ca0	-0.016065896
223	0x3daa7458	0.08322972
224	0x3dcbb1ee	0.09946047
225	0x3d39f790	0.04540211
226	0x3debbac2	0.115102306
227	0x3da5268b	0.08063992
228	0x3d99250a	0.07477768
229	0x3c9f36e0	0.019435346
230	0x3cc6129c	0.024178796
231	0x3c9785d0	0.018496424
232	0xba7e0d50	-0.0009691315
233	0x3d967307	0.073461585
234	0xbc45ff1b	-0.012084748
235	0x3b3ed3de	0.0029117982
236	0xbd499c75	-0.049221475
237	0xbc8f26ea	-0.01747461
238	0xbda4e409	-0.08051307
239	0x3c1d5454	0.009602625
240	0xbbe1c7c7	-0.0068902704
241	0xbc1b6664	-0.009484861
242	0xbc2f735c	-0.010708656
243	0xbd29176f	-0.041282114
244	0xbbaf8a78	-0.005357083
245	0x3c492201	0.012276174
246	0xbd7597ed	-0.05995934
247	0x3a0dfe87	0.00054166507
248	0xbd023cef	-0.031796392
249	0xbcf567bc	-0.029956691
250	0x3cca598c	0.024700902
251	0xbd6e91c6	-0.05824449
252	0x3e0de77d	0.13857837
253	0x3dfd4bf1	0.12368
254	0x3b4d2579	0.0031302853
255	0x3d839366	0.064245984

decoder_layers.block_0.transition.bias f4 [18]
0	0xbd2b8e40	-0.041883707
1	0x3ad452a6	0.0016198948
2	0xbcbeedab	-0.023306688
3	0xbccc1e5e	-0.024916824
4	0xbd824151	-0.06360114
5	0x3cadc349	0.021211283
6	0x3d13e6de	0.036108844
7	0x3dfec93b	0.124407254
8	0x3d1f4b01	0.03888989
9	0x3b0969b2	0.002096754
10	0x3d5d6b83	0.05405761
11	0xbc8bfa0d	-0.017087007
12	0xbbac83e7	-0.0052647474
13	0xbd290c59	-0.04127154
14	0xbd3d8663	-0.04627074
15	0x3d399e5e	0.045317046
16	0x3d8a6f6f	0.067595355
17	0xbcb601eb	-0.022217711

decoder_layers.block_0.conv.weight f4 [72, 18, 1, 1]
0	0x3de83337	0.113378935
1	0xbe2950d7	-0.16534744
2	0x3a45a3a3	0.00075393374
3	0x3d3ae276	0.045626126
4	0x3dcf7d7c	0.10131356
5	0x3b8960d9	0.0041924533
6	0x3d928db2	0.071559325
7	0x3cd1e01f	0.025619565
8	0xbe13999f	-0.1441407
9	0x3dfba509	0.12287337
10	0xbd767d2a	-0.06017796
11	0x3dcf57ff	0.10124206
12	0x3d4d6860	0.050148368
13	0x3e4b265e	0.19838855
14	0xbd9ed16e	-0.07754789
15	0xbdcc3a76	-0.09972088
16	0x3b64d863	0.0034919016
17	0xbe53279f	-0.20620583
18	0x3db85538	0.09000629
19	0xbd5c94eb	-0.053852957
20	0x3d4d8613	0.05017669
21	0x3e13538d	0.14387341
22	0xbda583cb	-0.08081778
23	0x3defa4d6	0.11701362
24	0x3e32178c	0.17391795
25	0xbce2c7fa	-0.027683247
26	0x3d65342e	0.055957966
27	0xbe17b1a7	-0.14813863
28	0x3e6270ee	0.22113392
29	0x3d08cde2	0.03339947
30	0x3d52d7db	0.051475387
31	0xbe0562d3	-0.1302598
32	0xbd55c04e	-0.05218535
33	0xbe57e6bc	-0.21084112
34	0xbe0fe867	-0.14053498
35	0x3d9b6417	0.0758745
36	0x3d7293aa	0.059222855
37	0x3d882266	0.06647186
38	0x3d84c67e	0.06483172
39	0xbe1dbb0f	-0.15403388
40	0xbe176190	-0.14783311
41	0xbe08df20	-0.13366365
42	0xbe352dfa	-0.1769332
43	0xbe8093f8	-0.2511289
44	0x3dc7cebf	0.097562306
45	0xbda0c5c1	-0.078502186
46	0xbca7d16f	-0.020485608
47	0xbe05cdee	-0.13066837
48	0xbe0ba985	-0.13638885
49	0x3e6af716	0.22945818
50	0x3e33fa17	0.1757587
51	0x3d4ff524	0.050770894
52	0xbe1c134b	-0.15241735
53	0x3d202e96	0.039106928
54	0xbce54de5	-0.027991245
55	0xbe0962c6	-0.13416585
56	0x3e47688a	0.19473472
57	0xbe4b4972	-0.19852236
58	0x3da64dce	0.08120309
59	0xbd6c2af7	-0.057658162
60	0xbdbeff43	-0.09326031
61	0xbdb47c43	-0.088127635
62	0xbdc4a567	-0.096018605
63	0xbd151039	-0.036392424
64	0xbe4b20bd	-0.19836707
65	0xbdbc8a23	-0.09206035
66	0xbdc54566	-0.09632377
67	0x3d6879a5	0.056756634
68	0x3ce695bd	0.028147573
69	0x3e04300d	0.12908955
70	0xbe45b9f2	-0.19309214
71	0x3dffabbf	0.1248393
72	0x3df9f521	0.12204958
73	0xbe4049cc	-0.18778151
74	0xbe5a5c0d	-0.21324177
75	0xbde830d3	-0.113374375
76	0xbc2c2d27	-0.010508812
77	0xbd7e9f90	-0.06216389
78	0x3d38f11a	0.045151807
79	0x3e8e2f62	0.27770525
80	0xbf1233a2	-0.57110035
81	0xbe59dc21	-0.21275379
82	0x3e88e7db	0.26739392
83	0xbdba75ba	-0.09104486
84	0x3e8ec445	0.27884117
85	0x3e879eb1	0.2648826
86	0xbe0451bc	-0.12921804
87	0xbd96e568	-0.073679745
88	0x3e52c85e	0.20584247
89	0xbec25709	-0.37957028
90	0x3e34ed55	0.1766866
91	0xbe351bf6	-0.17686448
92	0x3d7de759	0.06198821
93	0xbdca32a4	-0.0987294
94	0x3e201e9b	0.15636675
95	0xbe844897	-0.25836632
96	0xbe18105a	-0.14849988
97	0xbdac223e	-0.08404969
98	0x3e55786f	0.20846723
99	0xbc497536	-0.012296012
100	0x3d3152c1	0.04329181
101	0x3d8fb10f	0.07016193
102	0xbde0a7d2	-0.10969509
103	0x3db73a6e	0.089466915
104	0x3e1bb988	0.15207493
105	0x3dd84c9f	0.10561489
106	0xbe2a608b	-0.1663839
107	0xbd5dc773	-0.054145288
108	0x3e085a5c	0.1331572
109	0xbe51d9b2	-0.204932
110	0xbd937afb	-0.07201191
111	0xbe81f5ff	-0.25382993
112	0xbe62ef3f	-0.22161578
113	0x3d7a789f	0.06115019
114	0xbca47ff5	-0.020080546
115	0x3f26a4a7	0.6509499
116	0xbefa2de2	-0.4886313
117	0xbe975e72	-0.29564244
118	0x3e5d335c	0.21601623
119	0xbe5c7248	-0.2152797
120	0x3e99d275	0.30043378
121	0x3ea978af	0.33099887
122	0xbe821b12	-0.25411278
123	0xbd5f9435	-0.0545847
124	0x3ef8d70d	0.4860157
125	0xbeb75e66	-0.35814208
126	0x3c6a450b	0.014298688
127	0xbe73324a	-0.23749653
128	0xbe6071e9	-0.21918453
129	0xbdd20986	-0.10255723
130	0xbe0f5c4a	-0.14000049
131	0xbc628433	-0.013825464
132	0xbe3e9ed4	-0.18615276
133	0x3ddf6f46	0.109098956
134	0x3e0ea3e8	0.13929713
135	0x3d6dbcad	0.058041263
136	0xbe54e86e	-0.2079179
137	0xbcfe4766	-0.031039905
138	0x3e1f0010	0.15527368
139	0x3e85bd53	0.26121005
140	0x3d3df43e	0.046375506
141	0x3e4d0798	0.20022428
142	0x3e580e6d	0.21099253
143	0xbdf8b1c0	-0.12143278
144	0x3dfefcb2	0.124505416
145	0x3b2feea5	0.0026845124
146	0xbe1d4470	-0.15358138
147	0xbe2f361d	-0.17110486
148	0xbd4f59bc	-0.050622687
149	0xbd364132	-0.04449577
150	0xbe5e6a9a	-0.21720353
151	0xbe1ceea6	-0.15325412
152	0xbcec5d00	-0.02885294
153	0x3de20c97	0.110375576
154	0xbd5baced	-0.05363171
155	0xbb3ea887	-0.002909215
156	0xbc2762c4	-0.010216419
157	0x3def739e	0.11691974
158	0xbe32fd1b	-0.17479365
159	0x3dd6f470	0.104958415
160	0xbd412470	-0.04715389
161	0x3e05ceaf	0.13067125
162	0xbe10ec2b	-0.14152591
163	0xbe236a2a	-0.15958467
164	0xbda07353	-0.07834496
165	0xbcad533a	-0.02115785
166	0x3c701160	0.01465258
167	0xbdfdd089	-0.123932905
168	0xbe3fe5e2	-0.18740037
169	0xbd727369	-0.059192095
170	0x3dd7bc06	0.105339095
171	0x3d11606e	0.035492353
172	0x3d89a2c8	0.06720501
173	0x3db812ae	0.08987938
174	0x3d0414cf	0.032246407
175	0x3e34df05	0.176632
176	0x3dabd5b1	0.08390368
177	0xbd82f32a	-0.06394036
178	0x3df2136a	0.11820109
179	0x3ca7a008	0.020462051
180	0x3e130a95	0.14359505
181	0xbd1c5a7e	-0.038172238
182	0xbde4f74c	-0.11179981
183	0x3d1d1cc0	0.038357496
184	0xbeb5c3ba	-0.3550089
185	0xbcb1160f	-0.021616964
186	0xbdaed7fb	-0.08537289
187	0x3eb842c7	0.35988447
188	0x3dd086ff	0.101819985
189	0xbd2ccfac	-0.04219024
190	0xbdb9af12	-0.09066595
191	0xba98facf	-0.0011671426
192	0x3bd689f6	0.006547208
193	0x3db97774	0.09055987
194	0x3d27659e	0.040868394
195	0xbdb6c6a0	-0.089246035
196	0x3e354c67	0.17704926
197	0x3d3c8cf9	0.04603288
198	0xbd096614	-0.033544615
199	0x3e3a834d	0.1821415
200	0x3dd57228	0.10422164
201	0xbe0918bd	-0.13388343
202	0xbe90c981	-0.28278735
203	0x3e436d84	0.19084746
204	0x3e56b244	0.2096644
205	0x3e265a3f	0.16245364
206	0xbe273a5a	-0.16330853
207	0x3c8d350b	0.017237207
208	0x3bab9b3f	0.0052370126
209	0xbe331d2b	-0.17491595
210	0xbd111d34	-0.03542824
211	0x3db05384	0.08609679
212	0xbd9c1a19	-0.07622165
213	0xbdf99028	-0.12185699
214	0xbd8f66f4	-0.070020586
215	0x3d3a8432	0.045536228
216	0x3d90f6aa	0.070782974
217	0xbc488b53	-0.012240249
218	0xbe2421ec	-0.16028565
219	0x3c71c950	0.014757469
220	0xba8416c8	-0.001007759
221	0x3dd2628b	0.10272702
222	0x3e0fdcf7	0.14049135
223	0xbdabb1d8	-0.083835304
224	0xbc93ad68	-0.018027022
225	0xbda44ea3	-0.08022811
226	0x3e34b219	0.17646064
227	0x3e2b7f8d	0.16747876
228	0xbd0bb250	-0.0341056
229	0x3e0c323c	0.13691038
230	0xbceebf53	-0.029143965
231	0x3dc66a07	0.09688192
232	0xbe220f88	-0.15826237
233	0x3daa75b0	0.08323228
234	0xbd6b992b	-0.05751912
235	0xbe6944fa	-0.22780219
236	0x3d55300b	0.05204777
237	0x3e259528	0.1617018
238	0xbdfb4afc	-0.122701615
239	0x3ccbd3a8	0.024881199
240	0xbbff2b8b	-0.007787173
241	0x3cbc50c5	0.022987733
242	0x3df8679b	0.12129136
243	0xbde2463a	-0.11048551
244	0x3d2e3626	0.04253211
245	0xbdb84002	-0.089965835
246	0x3dd9266d	0.10603032
247	0x3d36b4df	0.044606086
248	0x3df282cc	0.11841354
249	0x3d7b2786	0.06131699
250	0x3e3cd558	0.18440759
251	0xbe0b6a29	-0.13614716
252	0x3defedca	0.117152765
253	0x3d6baf4a	0.057540216
254	0x3d1633ec	0.03667061
255	0x3bdc771b	0.0067280657

decoder_layers.block_0.conv.bias f4 [72]
0	0x3e0ff781	0.14059259
1	0xbd82097d	-0.06349466
2	0x3b9805e3	0.0046393736
3	0xbdd51b83	-0.10405638
4	0x3e8f556d	0.27994862
5	0xbe3f8b38	-0.18705451
6	0x3e4bf403	0.19917302
7	0x3d294a94	0.04133089
8	0xbdb71812	-0.08940138
9	0x3e2300eb	0.15918319
10	0x3e728083	0.23681836
11	0x3e2a43e9	0.16627468
12	0x3db90cef	0.0903567
13	0xbc7e701a	-0.015529657
14	0xbd51aa05	-0.051187534
15	0xbcbf5a24	-0.023358412
16	0xbd4a82a5	-0.049441
17	0x3c7d1d5a	0.0154488925
18	0x3d1080da	0.035279132
19	0xbdb0d030	-0.086334586
20	0x3cae8949	0.021305697
21	0x3d962f70	0.07333267
22	0x3e55f0c3	0.20892625
23	0xbd28ffa7	-0.041259434
24	0x3eaa763e	0.33293337
25	0x3e627dfb	0.2211837
26	0x3e0c3fa8	0.13696158
27	0xbe0d8601	-0.1382065
28	0x3dd8f459	0.105934806
29	0x3e54848d	0.20753689
30	0xbe1ed7c9	-0.15512003
31	0x3e04c11e	0.12964293
32	0xbcbac434	-0.022798635
33	0x3dfd682f	0.12373387
34	0x3e1247ee	0.14285251
35	0xbcb24459	-0.021761106
36	0x3dcfaffd	0.10140989
37	0xbdaa058f	-0.083018415
38	0xbe00b0d1	-0.1256745
39	0x3d688822	0.05677045
40	0x3e58a50f	0.21156715
41	0x3d15fd41	0.036618475
42	0x3eaf8f7c	0.34289157
43	0x3dd9d93c	0.10637137
44	0xbdd2a730	-0.10285795
45	0x3e114436	0.14186177
46	0x3d8276f8	0.06370348
47	0x3e471a37	0.19443594
48	0x3d63cb9e	0.055614106
49	0xbded4685	-0.11585716
50	0x3cc60fd3	0.024177467
51	0x3d4449b2	0.047921844
52	0x3dafb119	0.085787006
53	0x3e55ef50	0.20892072
54	0x3d8133d6	0.06308715
55	0xbd9b5bf4	-0.07585898
56	0x3d097e16	0.03356751
57	0x3dbb9b48	0.09160477
58	0xbe128bdb	-0.14311163
59	0x3cc89ea9	0.024489718
60	0xbe09bb21	-0.1345029
61	0xbd9cabf0	-0.07649982
62	0x3e2cc35b	0.16871397
63	0xbde36bf4	-0.11104575
64	0x3d935aac	0.07195029
65	0xbb68d17b	-0.003552525
66	0xbdfb7e49	-0.12279946
67	0x3cfad2a0	0.030618012
68	0xbdaa1650	-0.08305037
69	0xbde6a987	-0.112628035
70	0x3d28f032	0.041244693
71	0xbe004fc0	-0.12530422
