trainedModels/wave/bigProblem/baseline/1.0/1/run3/model.pt (torch, 20353 bytes, 11 tensors)

init.weight f4 [4, 1, 1, 1]
-0.43044773 -0.19587222 -0.011254294 -0.29124382
00000000: a563 dcbe ba92 48be ee63 38bc e91d 95be

init.bias f4 [4]
0.17905915 0.3750196 -0.51929766 0.28985938
00000000: 485b 373e 9202 c03e b1f0 04bf 7368 943e

encoder_layers.block_0.conv.weight f4 [16, 8, 3, 3]
-0.03901122 -0.036248572 0.006027346 -0.049425587 0.039342385 -0.061953507 -0.019417772 -0.061635498
-0.046405774 0.067413405 -0.020041265 0.10317977 0.0024048972 0.19327016 0.022052601 0.033578616
0.010476812 0.095461175 0.05811795 -0.023306336 0.027655788 -0.036867034 -0.10046946 -0.07652515
-0.04446615 -0.011690568 -0.07834066 0.045160208 -0.005289877 0.048627097 -0.06524389 0.032901764
-0.047673937 0.023712082 -0.05974268 0.08115414 -0.0983167 -0.14615804 -0.10449806 -0.07435933
-0.099677004 -0.09394187 0.018916717 -0.11637792 -0.118891776 -0.022148928 -0.080434866 -0.04969728
0.04416274 -0.11680141 -0.020397112 -0.017319255 0.01612255 0.02909757 -0.07313548 -0.24455933
-0.20760226 -0.25544745 -0.24777327 -0.27144778 -0.107045144 -0.17940113 -0.15110207 0.020589747
-0.16136974 -0.030135103 -0.11480314 -0.24927047 -0.14286658 -0.029118426 -0.07943262 -0.04039879
-0.11407297 -0.06601586 -0.04996368 -0.136914 0.20690644 -0.09743834 -0.11615641 -0.11551789
-0.05226132 0.0645339 -0.092192814 0.017900031 -0.07754591 0.31310242 -0.17415224 -0.025371535
0.0016084148 -0.056399427 -0.11285559 -0.061271954 -0.20132168 -0.11853564 -0.027367631 -0.112989426
-0.16797286 -0.05270264 -0.076251015 -0.03628151 -0.11034474 -0.02981782 -0.06212704 0.2333374
-0.066496775 0.040788636 -0.14352602 -0.09006997 0.20923442 -0.079509124 0.1593628 -0.11817387
-0.25213218 -0.08026589 -0.0011770623 -0.13261908 0.12774055 -0.061296325 0.05508855 -0.06130985
0.07285819 0.034856386 0.100762196 -0.091667056 0.082527265 -0.078338824 0.64110404 -0.16202031
0.28952938 -0.3206878 -0.65319246 -0.13254204 0.5884425 -0.35535187 0.57947123 -0.03001657
0.075740136 -0.043782163 0.11048684 0.2249231 0.15710036 -0.12209795 0.08874202 0.009186676
-0.49872527 -0.3190357 -0.3595248 -0.3616507 -0.13447848 -0.27752024 -0.3188946 -0.44602948
-0.4689087 0.020194205 -0.07486544 -0.026375908 -0.13270514 0.028846122 -0.048367918 0.036210246
-0.120264806 -0.1140069 -0.23049776 -0.22655119 -0.19583124 -0.15151425 -0.12744626 -0.16491856
-0.14970681 -0.13121274 -0.2645638 -0.12599438 -0.28076297 -0.21719305 -0.16358384 -0.07757355
-0.16313797 -0.1557931 -0.27078682 -0.2072487 0.02203511 0.21218605 0.23030546 0.3354308
0.30598226 0.23798089 0.08105951 0.31418476 0.08438432 -0.58736265 -0.9421221 -0.5025409
-1.1089594 -1.8779243 -0.88075453 -0.52458024 -1.0383003 -0.5827357 -0.068149894 -0.13936147
-0.16234359 0.044470128 -0.02755759 0.0208341 -0.105277054 0.040451165 -0.11552232 0.10251029
0.14077656 0.050610986 0.13595645 0.066083424 0.08766975 0.19275464 0.12302572 0.062526286
0.032283034 0.014315242 0.034774363 0.06776068 -0.08064963 -0.011180516 -0.026281951 0.07129663
0.043764204 0.010103117 -0.031807855 -0.018546358 0.060596928 -0.035990424 0.04438711 0.016761394
0.053412974 -0.018484335 -0.00556031 0.03417227 -0.039748207 -0.009689799 -0.054653227 0.07041847
-0.050517593 0.05462206 0.027807482 0.0049173795 0.0992696 0.007813539 0.017659236 -0.029952409
0.08002646 0.023063961 0.020863045 0.0055383705 -0.17418198 -0.08029225 -0.11700574 -0.16315949
00000000: 3bca 1fbd 6279 14bd 0b81 c53b 7c72 4abd
00000010: 7b25 213d f6c2 7dbd 0512 9fbc 8175 7cbd
00000020: fb13 3ebd 0a10 8a3d 942d a4bc ea4f d33d
00000030: 7b9b 1d3b 9de8 453e a8a7 b43c bb89 093d
00000040: efa6 2b3c 2681 c33d 160d 6e3d eeec bebc
00000050: 648e e23c e301 17bd efc2 cdbd 38b9 9cbd
00000060: 2322 36bd cc89 3fbc 1171 a0bd e9f9 383d
00000070: b456 adbb 352d 473d 979e 85bd 00c4 063d
00000080: bf45 43bd d73f c23c beb4 74bd 2434 a63d
00000090: 445a c9bd 74aa 15be 1403 d6bd b449 98bd
000000a0: 7523 ccbd 9864 c0bd 3bf7 9a3c 8c57 eebd
000000b0: 887d f3bd ab71 b5bc 09bb a4bd 608f 4bbd
000000c0: fde3 343d 9435 efbd d817 a7bc 1ce1 8dbc
000000d0: 7013 843c 075e ee3c 0ec8 95bd c36d 7abe
000000e0: b095 54be 02ca 82be 47b8 7dbe 34fb 8abe
000000f0: 7c3a dbbd eeb4 37be 80ba 1abe d4ab a83c
00000100: 1c3e 25be e4dd f6bc e91d ebbd c240 7fbe
00000110: 9e4b 12be c489 eebc 92ad a2bd 3479 25bd
00000120: 179f e9bd 5333 87bd b7a6 4cbd 2f33 0cbe
00000130: 48df 533e c18d c7bd 69e3 edbd a594 ecbd
00000140: f70f 56bd 592a 843d 96cf bcbd 16a3 923c
00000150: 64d0 9ebd f64e a03e f754 32be f7d7 cfbc
00000160: 72d1 d23a 1603 67bd d520 e7bd 4df8 7abd
00000170: 4527 4ebe d0c2 f2bd 1532 e0bc 0067 e7bd
00000180: 1401 2cbe b9de 57bd 7e29 9cbd ec9b 14bd
00000190: 6cfc e1bd 8044 f4bc ec78 7ebd 00f0 6e3e
000001a0: 762f 88bd fc11 273d 7cf8 12be 9b76 b8bd
000001b0: 8c41 563e aed5 a2bd 0030 233e 2405 f2bd
000001c0: 7817 81be 7162 a4bd a847 9aba 4ccd 07be
000001d0: 6bce 023e db11 7bbd 88a4 613d 0a20 7bbd
000001e0: ad36 953d 92c5 0e3d 695c ce3d f0bb bbbd
000001f0: 0e04 a93d 1b70 a0bd 651f 243f a7e8 25be
00000200: 323d 943e 3131 a4be 9f37 27bf 1ab9 07be
00000210: 2ba4 163f aef0 b5be 3a58 143f 4fe5 f5bc
00000220: a51d 9b3d ed54 33bd ed46 e23d 3e52 663e
00000230: ebde 203e 7d0e fabd 60be b53d b683 163c
00000240: eb58 ffbe a658 a3be a213 b8be 482a b9be
00000250: bab4 09be 2217 8ebe 2746 a3be fa5d e4be
00000260: cd14 f0be 516e a53c 0d53 99bd 4a12 d8bc
00000270: dbe3 07be b44e ec3c 701d 46bd 3251 143d
00000280: 654d f6bd 737c e9bd 9b07 6cbe 09fd 67be
00000290: fc87 48be 8d26 1bbe 4681 02be 69e0 28be
000002a0: be4c 19be a25c 06be e874 87be ac04 01be
000002b0: 2ac0 8fbe db67 5ebe 8682 27be e2de 9ebd
000002c0: a40d 27be 3a88 1fbe 92a4 8abe 0139 54be
000002d0: fa82 b43c 4d47 593e 32d5 6b3e 96bd ab3e
000002e0: b5a9 9c3e 43b1 733e 8702 a63d d3dc a03e
000002f0: b0d1 ac3d 665d 16bf ea2e 71bf 85a6 00bf
00000300: 62f2 8dbf d35f f0bf 2179 61bf e44a 06bf
00000310: 06e7 84bf 2b2e 15bf 2c92 8bbd c6b4 0ebe
00000320: 663d 26be 4f26 363d 74c0 e1bc 46ac aa3c
00000330: 7f9b d7bd 1fb0 253d f796 ecbd eaf0 d13d
00000340: bb27 103e 774d 4f3d 2b38 0b3e bf56 873d
00000350: 338c b33d 7961 453e e9f4 fb3d c80d 803d
00000360: 373b 043d 7a8a 6a3c 906f 0e3d 1dc6 8a3d
00000370: a22b a5bd 7c2e 37bc 3f4d d7bc f803 923d
00000380: 1842 333d 8b87 253c f448 02bd 88ee 97bc
00000390: 7c34 783d b26a 13bd 42cf 353d 314f 893c
000003a0: 90c7 5a3d 766c 97bc 4333 b6bb 39f8 0b3d
000003b0: 04cf 22bd f6c1 1ebc 10dc 5fbd 8f37 903d
000003c0: 89eb 4ebd 62bb 5f3d 84cc e33c f821 a13b
000003d0: dc4d cb3d 5c04 003c 1aaa 903c c15e f5bc
000003e0: eae4 a33d a2f0 bc3c fae8 aa3c 387b b53b
000003f0: c35c 32be 4370 a4bd b5a0 efbd 4813 27be

encoder_layers.block_0.conv.bias f4 [16]
0.07078988 -0.013286986 0.15369812 -0.011926427 0.12652831 0.09116315 0.15135054 0.16942918
0.23016566 0.08909397 0.47949037 0.07600149 -0.013009404 -0.0041908906 -0.035847608 0.047601104
00000000: 49fa 903d a9b1 59bc 0a63 1d3e 0f67 43bc
00000010: a390 013e bfb3 ba3d a3fb 1a3e d87e 2d3e
00000020: 8cb0 6b3e e676 b63d c37f f53e aba6 9b3d
00000030: 6525 55bc bd53 89bb f1d4 12bd 60f9 423d

encoder_layers.block_1.conv.weight f4 [16, 8, 3, 3]
-0.09606216 0.15213302 -0.23306888 0.2125441 0.49599805 0.2458311 -0.08989802 0.2136662
-0.111407 0.17901255 -0.22372851 0.19628237 0.0026958333 -0.48197898 -0.285269 0.25165692
0.028930912 0.2859145 -0.3830261 0.018590659 -0.16553429 0.053797986 -0.010548573 0.10652557
-0.2995097 0.04050592 -0.33743894 0.21647722 0.08755874 -0.0060794814 0.09061021 0.22048609
0.12732792 0.011930859 0.05637372 0.2594726 -0.5343169 -0.25818142 -0.41680205 -0.16195388
-0.09286403 -0.22927722 -0.3070614 -0.3189981 -0.5654417 0.04020083 -0.122824796 -0.19168818
-0.024290126 -0.3968999 -0.13678616 -0.38909596 -0.026674625 0.07139654 -0.30319297 0.31454453
0.45169887 0.46347877 0.62782806 0.39645696 0.27249125 0.4158815 -0.34367916 0.037496235
0.19708745 0.00670534 0.24882896 0.38971463 0.23994398 0.043438572 0.26150504 0.013107397
0.20735587 -0.2112793 0.01129848 -0.1349388 -0.7960381 -0.23444232 0.30490917 -0.25044894
0.20109819 -0.21358632 -0.4153465 -0.05212061 -0.716695 -0.7576147 -0.5565043 -0.59214383
-0.6993792 -0.3496107 -0.5406674 -0.31036165 -0.23454274 0.101939954 -0.06752282 -0.37508255
-0.55362827 0.11843129 -0.53038776 0.48391163 0.020630395 0.8137387 -0.32454935 0.86277944
-0.10210493 0.55789465 -0.081353806 0.14922048 0.61723316 -0.38134617 -0.21946852 -0.16258352
-0.7894899 -0.5436816 -0.66815805 -0.18635756 0.5921932 0.6719845 0.24558516 0.5066237
0.35657665 -0.09930549 0.33203387 0.2180874 0.44213617 0.62101436 0.6686019 0.61006373
0.9624827 0.5900133 -1.5094415 0.41672817 1.3280466 0.4151179 0.73171765 0.10515555
-0.2014119 -0.2707814 -0.038804963 0.18724479 -0.2785941 -0.22233538 0.009722624 0.24908742
-0.75247854 0.20585865 -0.6082197 -0.12543748 -0.24278489 -0.018701192 -0.19468781 -0.31243265
-0.7278032 -0.5348185 -0.63285995 -0.9679208 -0.9758532 -2.9754803 -0.11819807 -0.5587963
-1.0632635 -0.5645504 1.1721052 0.8170108 1.3377745 0.6415544 1.1950108 0.8581789
0.732535 0.37523356 0.99274564 1.0723863 0.86037725 1.251344 0.51449347 -0.13221543
0.58475584 0.62052035 0.6103078 0.89197046 -0.007551349 0.059296537 -0.5981894 0.41832986
0.3020186 0.34997642 -0.039379016 0.25403562 0.08191125 0.10606163 -0.19855013 0.75565135
0.090676725 0.15162526 -0.2016586 0.62431073 0.013703202 -0.22316219 0.08174018 0.15106227
-0.44246864 0.5558221 1.7009923 0.06497345 -0.3518702 0.63439554 -0.48218864 -0.37352344
0.4323693 -0.16657752 -0.07007114 0.35911265 0.23937142 -0.19854997 0.021525739 -0.52398884
-0.39427462 -0.540647 -0.59628683 -0.33544114 -0.30302328 -0.44302276 -0.5378934 -0.2828851
-0.42086145 0.0019548119 -0.22497581 0.01770858 -0.17940919 -0.40663058 -0.31199637 -0.034394298
-0.17118077 -0.11922825 0.3897529 0.14512423 0.33394212 0.07626652 -0.09023087 0.008530199
0.4537444 0.08169998 0.46704856 -0.14503384 0.31596184 -0.06557895 0.0955765 0.91446936
0.18674222 -0.25030485 0.15392423 -0.17595917 0.048216093 -0.44332498 -0.10772894 -0.18725489
00000000: 3dbc c4bd c2c8 1b3e 9ca9 6ebe 29a5 593e
00000010: 75f3 fd3e 26bb 7b3e 741c b8bd 50cb 5a3e
00000020: 5a29 e4bd 114f 373e 1619 65be 3ffe 483e
00000030: 94ac 303b f3c5 f6be c70e 92be 2dd9 803e
00000040: 8500 ed3c 6363 923e ff1b c4be 704b 983c
00000050: d281 29be 475b 5c3d ecd3 2cbc 142a da3d
00000060: 5659 99be 89e9 253d ccc4 acbe 34ac 5d3e
00000070: ff51 b33d 6336 c7bb d991 b93d 1bc7 613e
00000080: 4062 023e a679 433c 21e8 663d 98d9 843e
00000090: fec8 08bf 5b30 84be 1467 d5be 3dd7 25be
000000a0: 7f2f bebd a6c7 6abe 2737 9dbe b853 a3be
000000b0: cac0 10bf a0a9 243d 918b fbbd e849 44be
000000c0: 16fc c6bc 7736 cbbe ac11 0cbe 9637 c7be
000000d0: be84 dabc 5938 923d 1c3c 9bbe fb0b a13e
000000e0: 1345 e73e 174d ed3e 57b9 203f 68fc ca3e
000000f0: f983 8b3e 6cee d43e b7f6 afbe a795 193d
00000100: 4bd1 493e 78b8 db3b 05cd 7e3e ad88 c73e
00000110: e0b3 753e a5ec 313d fde3 853e 68c0 563c
00000120: 1955 543e 9a59 58be 431d 393c 662d 0abe
00000130: 27c9 4bbf a611 70be 0e1d 9c3e d83a 80be
00000140: afec 4d3e 5fb6 5abe 4ca8 d4be 6c7c 55bd
00000150: 5379 37bf 09f3 41bf 1177 0ebf bd96 17bf
00000160: 840a 33bf 2c00 b3be 2e69 0abf b9e7 9ebe
00000170: f92b 70be e5c5 d03d 6749 8abd d20a c0be
00000180: 95ba 0dbf 1b8c f23d 7ec7 07bf 44c3 f73e
00000190: 1301 a93c 2e51 503f 552b a6be 1ddf 5c3f
000001a0: 641c d1bd 2fd2 0e3f d39c a6bd 41cd 183e
000001b0: fe02 1e3f ce3f c3be 5bbc 60be 4b7c 26be
000001c0: 031c 4abf b82e 0bbf 680c 2bbf 84d4 3ebe
000001d0: f999 173f 2d07 2c3f ad7a 7b3e 17b2 013f
000001e0: 3791 b63e ad60 cbbd 5800 aa3e 4e52 5f3e
000001f0: ac5f e23e ccfa 1e3f 7e29 2b3f 232d 1c3f
00000200: 4465 763f 1d0b 173f 6135 c1bf 655d d53e
00000210: 6efd a93f 558a d43e d951 3b3f cb5b d73d
00000220: ec3e 4ebe dca3 8abe f4f1 1ebd 19bd 3f3e
00000230: e3a3 8ebe e3ab 63be a44b 1f3c c610 7f3e
00000240: 6fa2 40bf 9ccc 523e 49b4 1bbf af72 00be
00000250: 9a9c 78be 3e33 99bc 3e5c 47be 2cf7 9fbe
00000260: 4f51 3abf dde9 08bf 1c03 22bf a8c9 77bf
00000270: 84d1 79bf 456e 3ec0 d411 f2bd 460d 0fbf
00000280: 0519 88bf 6086 10bf 8b07 963f 9f27 513f
00000290: 323c ab3f e93c 243f 1df6 983f 9db1 5b3f
000002a0: 6a87 3b3f 9d1e c03e 9424 7e3f f443 893f
000002b0: af41 5c3f 0a2c a03f d8b5 033f 7b63 07be
000002c0: 8fb2 153f 6cda 1e3f 223d 1c3f 2d58 643f
000002d0: 4e71 f7bb ede0 723d f122 19bf 552f d63e
000002e0: 2fa2 9a3e 1c30 b33e e44b 21bd f510 823e
000002f0: 16c1 a73d d736 d93d ba50 4bbe 5e72 413f
00000300: b8b4 b93d a743 1b3e 987f 4ebe d4d2 1f3f
00000310: 6583 603c a184 64be 6567 a73d 11b0 1a3e
00000320: 408b e2be 5b4a 0e3f 1eba d93f cd10 853d
00000330: 5528 b4be bf67 223f 6ee1 f6be 773e bfbe
00000340: 825f dd3e 4c93 2abe 7581 8fbd 9ddd b73e
00000350: c81d 753e af50 4bbe bf56 b03c 2224 06bf
00000360: 5dde c9be d767 0abf 41a6 18bf f1be abbe
00000370: de25 9bbe e1d3 e2be 62b3 09bf 51d6 90be
00000380: 277b d7be 4d1c 003b 0f60 66be 9511 913c
00000390: 0bb7 37be e231 d0be fdbd 9fbe 09e1 0cbd
000003a0: 034a 2fbe f12d f4bd b18d c73e 729b 143e
000003b0: 76fa aa3e 9f31 9c3d f6ca b8bd 3fc2 0b3c
000003c0: 3051 e83e 5252 a73d fd20 ef3e c083 14be
000003d0: c0c5 a13e 424e 86bd 9dbd c33d aa1a 6a3f
000003e0: 5a39 3f3e f527 80be 509e 1d3e a42e 34be
000003f0: 3d7e 453d 7efb e2be fea0 dcbd bfbf 3fbe

encoder_layers.block_1.conv.bias f4 [16]
0.18889314 -0.16426012 -0.044565406 -0.10783914 -0.034761503 -0.15604329 0.3438341 0.012614899
0.102654345 0.040491708 0.1511446 -0.01205079 -0.3714509 0.08973584 0.18771859 -0.08423396
00000000: 346d 413e ce33 28be 378a 36bd c4da dcbd
00000010: 1462 0ebd d0c9 1fbe 060b b03e b9ae 4e3c
00000020: 713c d23d a2da 253d a6c5 1a3e ad70 45bc
00000030: d02e bebe 6dc7 b73d 4d39 403e db82 acbd

decoder_layers.block_0.conv.weight f4 [16, 4, 3, 3]
-0.052065216 -0.16780019 -0.049967974 -0.070360996 -0.003334008 -0.067866236 -0.1229272 -0.06438908
-0.07182592 -0.020461537 -0.02724497 -0.04477373 -0.13710096 0.0045106024 -0.08710602 -0.083363906
-0.12880595 -0.0072288243 0.07690314 -0.045251854 0.0013321955 0.016178673 -0.057876002 -0.021124609
-0.0048943763 -0.067931294 0.12762156 -0.25491074 0.027641468 -0.15366805 -0.1427868 -0.27611437
-0.15515636 -0.18041062 -0.11397812 -0.17497946 0.03942451 0.064316556 0.03167914 0.06655185
0.060717218 0.032007195 -0.0013573458 0.038714718 -0.069312446 -0.25648814 -0.1591371 -0.18693815
-0.24015976 -0.045571692 -0.21926288 -0.1619208 -0.15803269 -0.12954788 0.086266436 -0.07539782
0.040121563 -0.103576615 -0.035052154 -0.02716465 0.010406788 0.015861724 0.087131865 0.13464701
-0.10959746 0.0558996 0.05977059 0.05496568 -0.041494496 0.1196154 0.016536798 0.119393155
-0.21627092 -0.22625941 -0.27420732 -0.1709921 -0.07945516 -0.11253705 -0.12722896 -0.16663976
-0.07504368 -0.21544446 -0.108462565 -0.23164712 -0.20902798 -0.23522642 -0.22606082 -0.14076017
-0.13499717 -0.19582337 0.0517771 0.042807426 0.08189099 0.017264776 0.14821522 0.08111912
0.033569533 0.04823476 -0.07057967 -0.09414364 -0.10019281 0.026905466 -0.027905758 -0.13180956
-0.005048493 0.07013374 -0.070560046 0.046537295 0.024702944 0.2251694 0.07733401 0.22743785
0.11000018 0.1105867 0.13870017 0.19812572 0.037684284 0.13755295 0.21593784 0.1475045
0.2206643 0.1595389 0.16951686 0.18047474 0.15073362 0.083037294 -0.18333028 -0.046204936
-0.10827746 0.05357795 0.19521977 -0.06639225 -0.19514497 0.061245 -0.14960268 0.22240739
-0.19562402 0.15917905 -0.026895707 -0.15099311 -0.16586575 0.18556286 -0.01726088 0.22715685
-0.15523842 -0.13489386 -0.0999001 -0.15673175 0.01919395 -0.17811623 -0.047629647 -0.08401872
-0.08991831 0.021727934 0.119941786 0.047356788 0.032251604 0.094910584 0.11370164 0.074600264
0.069462806 -0.006450067 0.041374076 0.024711657 -0.053102177 -0.04291101 -0.0036171097 0.04581737
-0.00963665 0.02466607 0.123013675 0.030555183 0.06408636 -0.060941115 0.020213872 -0.07907157
0.07204686 0.052819304 0.013734546 0.021946466 0.12047857 0.024719758 0.04126067 0.033444628
0.08192312 -0.0071197357 0.057608873 0.14996518 0.055755913 -0.09086901 -0.09246103 -0.0042367796
-0.14081377 -0.09193247 -0.097486496 -0.09266398 -0.0042606345 -0.10292131 0.0131557975 -0.03404269
0.042605203 0.027748305 -0.16172788 0.021754295 0.093882106 -0.04034315 0.00936475 0.2049523
0.23425551 0.23919687 0.24277751 0.19080639 0.29848388 0.2163266 0.183123 0.21562202
0.1369368 0.0987037 0.11128815 0.08449032 -0.01890263 0.036355466 0.112849444 0.11434185
-0.024630018 0.13204011 0.03700908 0.068635635 0.07087201 -0.077654794 0.120480776 0.042357657
-0.041088562 0.0072518 -0.014510084 0.013378538 -0.07525898 -0.08856439 -0.066173285 -0.10761502
-0.073345326 0.008642871 0.033249017 0.07336233 -0.3513403 0.20315671 -0.24651365 -0.7253984
-0.33379245 0.4053356 -0.20182063 0.3741819 0.027565585 0.21950302 0.26734266 0.2973417
00000000: 5642 55bd d0d3 2bbe 38ab 4cbd 6d19 90bd
00000010: 5f7f 5abb 74fd 8abd 41c1 fbbd 6cde 83bd
00000020: 7819 93bd f49e a7bc d830 dfbc a964 37bd
00000030: 3264 0cbe adcd 933b a464 b2bd b2ba aabd
00000040: b5e5 03be c6df ecbb 657f 9d3d 025a 39bd
00000050: 109d ae3a 2389 843c 630f 6dbd 840d adbc
00000060: 0161 a0bb 901f 8bbd 3aaf 023e a983 82be
00000070: 5c70 e23c 285b 1dbe b436 12be dd5e 8dbe
00000080: 4fe1 1ebe 90bd 38be 5c6d e9bd d12d 33be
00000090: 987b 213d 66b8 833d fcc1 013d 564c 883d
000000a0: 9eb2 783d fa19 033d f8e8 b1ba 5393 1e3d
000000b0: aff3 8dbd 6a52 83be d6f4 22be b76c 3fbe
000000c0: 71ec 75be 62a9 3abd 7386 60be 91ce 25be
000000d0: 52d3 21be 33a8 04be 75ac b03d 2c6a 9abd
000000e0: 8256 243d fa1f d4bd d992 0fbd 6688 debc
000000f0: 3c81 2a3c 72f0 813c 3172 b23d e8e0 093e
00000100: a274 e0bd fbf6 643d 02d2 743d b123 613d
00000110: 22f6 29bd ebf8 f43d 2e78 873c 6684 f43d
00000120: 2076 5dbe 8cb0 67be e764 8cbe 8e18 2fbe
00000130: 63b9 a2bd d379 e6bd 4f48 02be 9da3 2abe
00000140: 80b0 99bd 799d 5cbe 9f21 debd e734 6dbe
00000150: 6e0b 56be 32df 70be 7d7c 67be 6f23 10be
00000160: b33c 0abe ec85 48be 3914 543d d756 2f3d
00000170: 77b6 a73d dc6e 8d3c bbc5 173e c821 a63d
00000180: 3580 093d d091 453d 138c 90bd 61ce c0bd
00000190: e331 cdbd da68 dc3c 9e9a e4bc 16f9 06be
000001a0: d46d a5bb 47a2 8f3d c981 90bd e49d 3e3d
000001b0: d45d ca3c cf92 663e 4b61 9e3d 78e5 683e
000001c0: c647 e13d 487b e23d 6b07 0e3e 78e1 4a3e
000001d0: d65a 1a3d aeda 0c3e cf1e 5d3e 6b0b 173e
000001e0: d2f5 613e 2a5e 233e d495 2d3e 5fce 383e
000001f0: ea59 1a3e 750f aa3d efba 3bbe 6341 3dbd
00000200: 93c0 ddbd 8d74 5b3d b1e7 473e a9f8 87bd
00000210: 15d4 47be 0adc 7a3d 7231 19be c3be 633e
00000220: aa51 48be d5ff 223e 6354 dcbc f09d 1abe
00000230: b6d8 29be 3104 3e3e b066 8dbc ce9b 683e
00000240: d2f6 1ebe 9e21 0abe 6c98 ccbd 4a7e 20be
00000250: a13c 9d3c 1a64 36be 4e17 43bd 0212 acbd
00000260: 1727 b8bd c8fe b13c 0aa4 f53d 31f9 413d
00000270: 421a 043d 7b60 c23d 68dc e83d 06c8 983d
00000280: 8442 8e3d 155b d3bb dd77 293d 1a70 ca3c
00000290: ab81 59bd 75c3 2fbd 080d 6dbb ffaa 3b3d
000002a0: 0ae3 1dbc 7f10 ca3c 98ee fb3d dd4e fa3c
000002b0: b63f 833d 649d 79bd 9097 a53c 46f0 a1bd
000002c0: 4e8d 933d 0e59 583d dc06 613c 13c9 b33c
000002d0: 78bd f63d 1781 ca3c f300 293d 3cfd 083d
000002e0: 4fc7 a73d ac4c e9bb 48f7 6b3d 7990 193e
000002f0: 5060 643d 8819 babd 355c bdbd afd4 8abb
00000300: 7c31 10be 1747 bcbd 00a7 c7bd 9dc6 bdbd
00000310: cb9c 8bbb 68c8 d2bd 6a8b 573c 5970 0bbd
00000320: cb82 2e3d 6a50 e33c fe9b 25be 1036 b23c
00000330: 4345 c03d dc3e 25bd 9c6e 193c 04df 513e
00000340: ade0 6f3e 06f0 743e ab9a 783e c062 433e
00000350: e1d2 983e b884 5d3e 9984 3b3e 05cc 5c3e
00000360: 2939 0c3e 2a25 ca3d 0beb e33d 4309 ad3d
00000370: b0d9 9abc 78e9 143d 9c1d e73d 0f2c ea3d
00000380: e4c4 c9bc 8635 073e d596 173d d790 8c3d
00000390: 5825 913d 7a09 9fbd a0be f63d 397f 2d3d
000003a0: 7b4c 28bd 82a0 ed3b b4bb 6dbc a831 5b3c
000003b0: 6121 9abd 3f61 b5bd dc85 87bd 4365 dcbd
000003c0: 1336 96bd d49a 0d3c 1f30 083d fd3e 963d
000003d0: e0e2 b3be 5008 503e 136e 7cbe b6b3 39bf
000003e0: d8e6 aabe 2688 cf3e 11aa 4ebe c594 bf3e
000003f0: 39d1 e13c 66c5 603e 23e1 883e 2c3d 983e

decoder_layers.block_0.conv.bias f4 [16]
0.09826407 0.2473938 0.49328557 -0.013654844 -0.080369055 0.12223459 0.27838093 0.018062
0.074618004 0.13891834 0.27921307 0.05875681 0.056272704 -0.080108054 0.06950556 -0.23521769
00000000: ac3e c93d cd54 7d3e ed8f fc3e 91b8 5fbc
00000010: 8898 a4bd 2156 fa3d f287 8e3e c2f6 933c
00000020: 53d1 983d 9c40 0e3e 04f5 8e3e fbaa 703d
00000030: 357e 663d b10f a4bd ee58 8e3d e8dc 70be

decoder_layers.block_1.conv.weight f4 [16, 8, 3, 3]
0.06593352 -0.54571486 -0.36586732 -0.4480505 0.20784713 -0.4246579 -0.3254834 -0.12596866
0.015512531 -0.25324658 -0.33314285 -0.30555925 -0.460389 -0.51132804 -0.3381361 -0.115818396
-0.46373168 -0.21356007 -0.31092516 0.15322687 -0.19289723 0.29395306 0.5939426 0.2113264
-0.22696932 0.26259446 -0.39254978 -0.68738604 -0.47943738 -0.63889533 -0.31454673 -0.6111071
-0.61404365 -0.61025 -0.39834508 -0.5831754 -0.2813162 0.5659083 -0.14634244 0.3034995
-2.4678223 0.63660765 0.112568766 0.3307912 -0.33680773 -0.40336946 -0.20343621 -0.15074652
-0.2388828 -0.3577926 -0.19532035 -0.3308582 -0.34516388 -0.52851444 1.1557714 0.88659424
1.1066937 1.0017463 1.8013344 0.9827246 0.95624405 1.1108097 1.1499745 0.76516813
0.49464044 0.39060834 0.41820642 0.81346554 0.49965099 0.32509077 0.4312214 0.7990744
0.08448623 0.10256527 -0.0013929299 0.073352575 0.44831526 -0.026329638 -0.16157714 0.018745903
0.024255035 -0.37067667 -0.2363378 -0.16605647 -0.32870874 -0.20111658 -0.1663248 -0.18695682
-0.20293583 -0.35004133 -0.25398734 -0.2783281 -0.27862164 -0.3825479 -0.79382294 -0.32274827
-0.42306742 -0.38880253 -0.2407066 -0.27459323 -0.049956013 -0.2305587 -0.14000635 -0.21886636
-0.05631538 -0.37406892 -0.16470191 -0.28517586 0.18131152 0.35970238 0.13800348 0.41115543
0.20013571 0.3503933 0.08886124 0.4078543 0.14152642 0.1062328 0.40134534 -0.41765577
0.4082716 0.40138164 0.42844674 -0.48719916 0.32519513 0.11250773 0.29896215 0.23877674
0.104108155 0.3389236 0.66371346 0.24511783 0.08169784 0.31548312 0.30251983 0.24838023
-0.22602981 -0.12994607 -0.20347004 -0.13798027 -0.240563 -0.14896742 -0.22819714 0.15252261
-0.08016899 0.20581876 0.034629617 0.21530284 0.28752443 0.20056517 0.04131993 0.18231486
-0.11789729 -0.42071566 -0.38114905 -0.40393674 -0.3716814 -0.2514622 -0.28817216 -0.36765155
-0.3337624 -0.44208497 -0.046784107 -0.1259382 -0.07343034 -0.15262319 -0.09224943 -0.03240394
-0.08245581 -0.07834286 -0.09538417 -0.37467694 -0.8876696 0.022405265 -0.7510124 -1.683033
-0.8681249 -0.16614439 -0.6559245 -0.4438605 0.23394509 -0.3309823 0.2737051 -0.31883126
-0.10556119 -0.39762524 0.29907104 -0.41411412 0.2322302 -0.19482219 -0.19628273 -0.009781063
-0.14264962 -0.1855173 -0.16033027 -0.05108727 -0.15945375 -0.1780078 0.27012578 1.1872298
-0.024306672 1.148331 0.9025984 1.1527184 -0.09864873 1.1067415 0.297316 0.1937745
0.12008881 0.25316495 0.045221247 -0.071469896 0.061862413 0.18946402 0.0017732541 0.30886054
-0.18100132 0.012580799 -0.30763692 -0.19175708 0.67906094 -0.16448277 -0.35726082 -0.1755053
-0.25887528 -0.22228312 -0.52483964 -0.19592513 -0.41288006 -0.7530655 -0.4777571 -0.31671682
-0.35460567 -0.26448467 0.16667578 -0.15003903 0.04888529 -0.32117578 -0.67878664 -0.21826023
-0.23001617 -0.34316206 0.0021253675 0.041908193 0.24412426 0.07575653 0.048871394 -0.1536115
0.16069037 -0.009837743 -0.044768266 -0.024254592 -0.28945214 -0.24384965 -0.30056044 -0.2555692
00000000: 2708 873d f8b3 0bbf f652 bbbe e066 e5be
00000010: e1d5 543e c36c d9be c3a5 a6be eefd 00be
00000020: 4528 7e3c 89a9 81be b391 aabe 4372 9cbe
00000030: 1bb8 ebbe 65e6 02bf 2d20 adbe 3232 edbd
00000040: 3d6e edbe 7eaf 5abe 9531 9fbe 81e7 1c3e
00000050: da86 45be 0481 963e 9f0c 183f f365 583e
00000060: a56a 68be c872 863e 49fc c8be 88f8 2fbf
00000070: d178 f5be a58e 23bf 450c a1be 8471 1cbf
00000080: f731 1dbf 5839 1cbf e3f3 cbbe fc4a 15bf
00000090: ad08 90be 5edf 103f cbda 15be 4964 9b3e
000000a0: cdf0 1dc0 b8f8 223f 748a e63d 775d a93e
000000b0: 1072 acbe 7186 cebe 9551 50be 4c5d 1abe
000000c0: b19d 74be 9730 b7be 0f02 48be 3f66 a9be
000000d0: 52b9 b0be b94c 07bf 51f0 933f d7f7 623f
000000e0: 24a8 8d3f 3939 803f 2092 e63f d793 7b3f
000000f0: 69cc 743f 032f 8e3f 5d32 933f 0fe2 433f
00000100: 8341 fd3e d1fd c73e 271f d63e 473f 503f
00000110: 41d2 ff3e 4c72 a63e 0dc9 dc3e 2490 4c3f
00000120: 1e07 ad3d be0d d23d f992 b6ba e039 963d
00000130: 9489 e53e 41b1 d7bc 7a74 25be 0291 993c
00000140: 7fb2 c63c 55c9 bdbe 8902 72be b50a 2abe
00000150: 834c a8be 81f1 4dbe 0c51 2abe 9c71 3fbe
00000160: 69ce 4fbe 9e38 b3be a10a 82be 0581 8ebe
00000170: 7fa7 8ebe 51dd c3be fb37 4bbf 433f a5be
00000180: 4b9c d8be 2011 c7be ca7b 76be 7c97 8cbe
00000190: ad9e 4cbd 9417 6cbe d35d 0fbe 811e 60be
000001a0: f5aa 66bd f685 bfbe 9ea7 28be 9202 92be
000001b0: baa9 393e e92a b83e c950 0d3e f782 d23e
000001c0: 60f0 4c3e c066 b33e e2fc b53d 47d2 d03e
000001d0: 4dec 103e 9590 d93d 237d cd3e fad6 d5be
000001e0: fa08 d13e e581 cd3e 5f5d db3e 2b72 f9be
000001f0: fa7f a63e 746a e63d 9111 993e e481 743e
00000200: a836 d53d 6587 ad3e 20e9 293f 2b00 7b3e
00000210: 3251 a73d 0187 a13e e1e3 9a3e 6357 7e3e
00000220: 5c74 67be 9510 05be 735a 50be b34a 0dbe
00000230: 2656 76be ea8a 18be 83ac 69be e32e 1c3e
00000240: a42f a4bd 27c2 523e c9d7 0d3d 5978 5c3e
00000250: 6736 933e f560 4d3e 163f 293d bfb0 3a3e
00000260: 2274 f1bd 0b68 d7be f825 c3be ccd0 cebe
00000270: 064d bebe a7bf 80be 4d8b 93be d33c bcbe
00000280: e8e2 aabe f658 e2be b1a0 3fbd f2f5 00be
00000290: a562 96bd 4149 1cbe 45ed bcbd feb9 04bd
000002a0: 97de a8bd 3972 a0bd c758 c3bd a8d5 bfbe
000002b0: 513e 63bf 3f8b b73c 5942 40bf a06d d7bf
000002c0: 6f3d 5ebf c121 2abe abea 27bf af41 e3be
000002d0: 4d8f 6f3e 8376 a9be 1323 8c3e da3d a3be
000002e0: 7730 d8bd 8995 cbbe d71f 993e c406 d4be
000002f0: c1cd 6d3e 787f 47be 57fe 48be c040 20bc
00000300: be12 12be 3ff8 3dbe 9e2d 24be e340 51bd
00000310: d847 23be ad47 36be ed4d 8a3e 25f7 973f
00000320: c91e c7bc 83fc 923f b010 673f 478c 933f
00000330: 5808 cabd b5a9 8d3f ce39 983e d36c 463e
00000340: 1ff1 f53d d69e 813e ea39 393d cf5e 92bd
00000350: 7163 7d3d db02 423e 896c e83a f822 9e3e
00000360: 6958 39be b21f 4e3c 9682 9dbe f85b 44be
00000370: f0d6 2d3f 2c6e 28be e4ea b6be a9b7 33be
00000380: 4d8b 84be 309e 63be e45b 06bf 99a0 48be
00000390: 0465 d3be e7c8 40bf 949c f4be b528 a2be
000003a0: e08e b5be 896a 87be 0ead 2a3e d5a3 19be
000003b0: f13b 483d 2771 a4be f6c4 2dbf 9c7f 5fbe
000003c0: 5c89 6bbe f0b2 afbe c049 0b3b eda7 2b3d
000003d0: b6fb 793e 3d26 9b3d 5f2d 483d 554c 1dbe
000003e0: 048c 243e 7c2e 21bc ee5e 37bd 91b1 c6bc
000003f0: 1233 94be b9b3 79be 0fe3 99be f7d9 82be

decoder_layers.block_1.conv.bias f4 [16]
0.26820767 0.4792166 -0.106677264 0.30987915 0.21640891 0.13823855 0.4066459 0.2594617
0.030678563 0.30890286 -0.09668045 0.15248404 -0.23416102 0.1740337 -0.071640156 0.0428906
00000000: 8452 893e e15b f53e 9c79 dabd 7ba8 9e3e
00000010: 4c9a 5d3e 688e 0d3e e433 d03e 2ad8 843e
00000020: 9c51 fb3c 8428 9e3e 6600 c6bd c724 1c3e
00000030: e8c7 6fbe e435 323e 13b8 92bd 0eae 2f3d

read.weight f4 [1, 4, 1, 1]
3.9044702 -3.3939297 -3.6334784 -1.4111978
00000000: d7e2 7940 2536 59c0 e98a 68c0 21a2 b4bf
