trainedModels/wave/horizon-20-70/lateral/1.0/3/run3/model.pt (torch, 206377 bytes, 19 tensors)

init.weight f4 [25, 1, 1, 1]
0	0x3f76ca68	0.964026
1	0x3f5f7152	0.8728229
2	0xbe82d41d	-0.25552455
3	0x3f0dab93	0.55339926
4	0xbf09017f	-0.5351791
5	0x3f0de0a3	0.55420893
6	0xbda8cf03	-0.08242609
7	0xbe12752d	-0.14302512
8	0xbf34d400	-0.70635986
9	0x3f1d8880	0.6153641
10	0xbf60506e	-0.87622726
11	0xbed1daa4	-0.40987122
12	0x3c501826	0.01270107
13	0xbf196acf	-0.599286
14	0x3f54204e	0.82861793
15	0xbf6f81e8	-0.93557596
16	0x3f04cb14	0.5187237
17	0xbeb80316	-0.35939854
18	0xbef5b9da	-0.47993356
19	0x3f55eeb6	0.8356737
20	0x3eefce84	0.46837246
21	0xbf306c1a	-0.6891495
22	0x3f4e61ac	0.80617785
23	0xbee1b05a	-0.44079858
24	0xbe9027a6	-0.2815525

init.bias f4 [25]
0	0x3d5913d0	0.05299741
1	0xbe699956	-0.228124
2	0x3ee4567f	0.4459724
3	0x3e373889	0.1789266
4	0x3ea92ef7	0.33043644
5	0x3d59f7f1	0.05321497
6	0xbe970780	-0.2949791
7	0x3eaca0a3	0.33716306
8	0xbddd4e88	-0.10805994
9	0x3eb30d7c	0.34971225
10	0x3e3868e0	0.18008757
11	0x3def995f	0.11699175
12	0x3e04abbb	0.12956135
13	0xbea19f1e	-0.3156671
14	0x3daba3b3	0.083808325
15	0x3e2cfbf9	0.16892995
16	0x3d029db7	0.03188869
17	0x3d688eea	0.05677692
18	0xbeea8033	-0.45800933
19	0x3e96f1b8	0.29481292
20	0x3e6480d9	0.22314776
21	0xbd913036	-0.07089274
22	0xbc8875d3	-0.016657745
23	0x3da6080e	0.08107005
24	0xbebd23ff	-0.36941525

encoder_layers.block_0.transition.weight f4 [25, 50, 3, 3]
0	0x3c9d3ec1	0.019194962
1	0x3dd8823b	0.105717145
2	0x3caee0b5	0.021347383
3	0x3e10a468	0.14125216
4	0xbcad56a9	-0.021159487
5	0x3df924ff	0.121652596
6	0x3d4b116d	0.049577165
7	0x3e0bc080	0.13647652
8	0x3c2ce47c	0.010552522
9	0xbc08eb7b	-0.008356924
10	0x3da8467b	0.08216568
11	0xbb9339ca	-0.004492973
12	0x3d69d454	0.057087258
13	0xbc9dbcd1	-0.019255074
14	0x3d75950b	0.05995659
15	0xbcba02d2	-0.022706423
16	0x3dce7628	0.1008113
17	0xbbaeeaab	-0.005338033
18	0xbcb3e13c	-0.021957986
19	0xbd6f7762	-0.05846346
20	0xbb9786db	-0.0046242303
21	0xbd8ee6ae	-0.069775924
22	0xbc547370	-0.012966976
23	0xbd70dcd7	-0.05880436
24	0xbcb833e3	-0.022485679
25	0xbd47171d	-0.048606027
26	0xbd03a233	-0.032137107
27	0xbd8a158e	-0.067423925
28	0x3d82a9d8	0.063800514
29	0xbd2fcc53	-0.042919468
30	0x3d69a65f	0.05704343
31	0xbdb26ddc	-0.0871236
32	0x3d23a4ea	0.039952196
33	0xbc8bdfd0	-0.017074496
34	0x3ca9373a	0.020656217
35	0xbd8b1dc4	-0.06792787
36	0xb9ecf721	-0.00045197553
37	0xbd78348d	-0.06059699
38	0xba47de3f	-0.0007624365
39	0xbd4b7fd7	-0.049682464
40	0x3ae94050	0.0017795656
41	0xbd80d9b2	-0.06291522
42	0x3cb5b28f	0.02217987
43	0xbd49b789	-0.0492473
44	0x3cf71d2d	0.03016528
45	0xbd237057	-0.039902057
46	0x3db5356e	0.088480815
47	0xba938783	-0.0011255596
48	0x3d96b027	0.07357817
49	0xbd5e50c9	-0.05427626
50	0x3da3f043	0.08004811
51	0xbce63fe3	-0.028106635
52	0x3d5c0122	0.053712018
53	0xbd41ff9d	-0.047362912
54	0x3ce6e8f3	0.02818725
55	0x3c9ca599	0.019121932
56	0x3d16c126	0.036805294
57	0x3cdc40b2	0.026886318
58	0x3d8a85a2	0.0676377
59	0x3cc45469	0.023966031
60	0x3d225cdb	0.039639335
61	0x3d74de60	0.059782386
62	0x3d2d7132	0.04234428
63	0xbc32b9f2	-0.010908591
64	0xbd8f2501	-0.0698948
65	0xbc4beb88	-0.012446292
66	0xbd38f71f	-0.045157548
67	0xbd77bcf1	-0.060482923
68	0xbd8f5e88	-0.07000452
69	0xbcb108a8	-0.021610573
70	0xbd0eb991	-0.03484494
71	0x3bae2c65	0.005315351
72	0xbcb55652	-0.022135887
73	0xbdd94371	-0.106085666
74	0xbd3d2e94	-0.046187
75	0xbe1a8b28	-0.15092146
76	0xbc04e6a5	-0.008111631
77	0xbdf0ad06	-0.117517516
78	0xbd4e8167	-0.050416376
79	0xbdfbd270	-0.12295997
80	0xbcc6ae65	-0.02425308
81	0xbd145801	-0.03621674
82	0x3bc268d5	0.005932907
83	0xbd255676	-0.04036566
84	0x3d2209ce	0.03956013
85	0xbdbd254f	-0.09235632
86	0x3be915e2	0.0071132043
87	0xbd012215	-0.031526644
88	0x3c9eec49	0.019399779
89	0xbd06480b	-0.03278355
90	0x3adff20e	0.0017085688
91	0xbd85dad0	-0.06535876
92	0x3bc92f04	0.006139638
93	0xbd972278	-0.07379621
94	0x3b5de70a	0.0033859634
95	0xbdb5f5b1	-0.088847525
96	0x3c2280eb	0.009918432
97	0xbdc96c06	-0.09835057
98	0x3d1d49d6	0.038400494
99	0x3cf2f255	0.029656569
100	0xbd97680b	-0.073928915
101	0xba70fe61	-0.0009193179
102	0xbd9d9564	-0.076945096
103	0xbc8012dd	-0.015633995
104	0xbd82fc6b	-0.06395801
105	0xbc3ffa15	-0.011717339
106	0xbda079d0	-0.07835734
107	0x3d33a425	0.043857712
108	0xbd187a00	-0.037225723
109	0xbd6b60e5	-0.057465453
110	0xbd87db42	-0.06633617
111	0xbd408bdd	-0.047008384
112	0xbd63fd4a	-0.055661477
113	0xbd4e2739	-0.050330374
114	0xbc9b2c5d	-0.018942052
115	0xbd6af13f	-0.057358976
116	0xbc5256b6	-0.012838056
117	0x3d5890b2	0.052872367
118	0xbcc56c4b	-0.02409949
119	0x3d198e38	0.037489146
120	0xbb0f9ffb	-0.0021915424
121	0x3d6d4284	0.057924762
122	0xbc5d1e2d	-0.013495964
123	0x3d3a0cd5	0.045422394
124	0xbc00ec90	-0.007868901
125	0x3d0c8600	0.03430748
126	0x3d16c8d4	0.03681262
127	0x3e315069	0.1731583
128	0x3da03b5a	0.078238204
129	0x3e3b1966	0.18271407
130	0x3c91b3e8	0.017785981
131	0x3e0da7af	0.13833497
132	0x3d69f89d	0.05712186
133	0x3e1981d3	0.1499093
134	0x3d908a8f	0.07057678
135	0x3d0338c8	0.032036573
136	0xbdba402b	-0.0909427
137	0x3c0c0fb9	0.00854867
138	0xbddbd008	-0.10733038
139	0x3c8f5062	0.017494384
140	0xbdd1b365	-0.10239295
141	0x377e5105	1.5158444e-05
142	0xbdd87c36	-0.10570566
143	0x3c3e1536	0.011601737
144	0xbb0aeec6	-0.002119945
145	0x3ddfcfd0	0.10928309
146	0x3d29c1ce	0.041444592
147	0x3dec7bd4	0.11547056
148	0xbbefeee0	-0.0073221773
149	0x3e2111dc	0.15729469
150	0x3cd67a64	0.026181407
151	0x3e050c40	0.12992954
152	0x3c29e336	0.010369113
153	0x3ca272d9	0.019830154
154	0xbd7ad916	-0.061242186
155	0xbc52a4f3	-0.01285671
156	0xbd93b88e	-0.072129354
157	0x3c8c180b	0.017101308
158	0xbd8edcfc	-0.06975743
159	0x3ac01e65	0.0014657496
160	0xbda15e7e	-0.07879351
161	0x3d4f4606	0.05060389
162	0x3d27224a	0.040804185
163	0xbc221dba	-0.009894783
164	0x3caff83c	0.021480672
165	0x3cee5824	0.029094763
166	0x3db1fba0	0.08690572
167	0x3c034f01	0.0080144415
168	0x3d6d945a	0.058002807
169	0x3a9391a6	0.0011258617
170	0x3ce055ad	0.027384603
171	0xbd7422e1	-0.059603576
172	0x3d50c09f	0.050964948
173	0xbc667b26	-0.014067447
174	0x3d02e897	0.031960096
175	0xbd4bb5cc	-0.049733922
176	0x3d440544	0.047856584
177	0xbbe21986	-0.0069000153
178	0x3d683e26	0.056699894
179	0xbd211e24	-0.039335385
180	0xbd859871	-0.065232165
181	0x3c975d97	0.018477244
182	0xbd0b8f60	-0.03407228
183	0x3c735f3e	0.0148542505
184	0xbd55be57	-0.052183475
185	0x3c335965	0.010946606
186	0xbd239802	-0.039939888
187	0x3b3fe17c	0.0029278686
188	0xbd9b7c63	-0.07592084
189	0xbd922533	-0.071360014
190	0xbe3928e1	-0.18082
191	0xbdcabcb4	-0.098992735
192	0xbe28ca26	-0.16483364
193	0xbcdbec27	-0.026846005
194	0xbe41c5fb	-0.1892318
195	0xbdcd0163	-0.1001003
196	0xbe314e26	-0.17314968
197	0xbd2120a0	-0.039337754
198	0xbd0c3418	-0.034229368
199	0x3dfab26d	0.12241063
200	0xbb1ebcaa	-0.002422134
201	0x3deee24c	0.116642565
202	0xbca1b82d	-0.019741142
203	0x3df1802b	0.11792024
204	0xbbe0308c	-0.0068417247
205	0x3de683ad	0.11255584
206	0x3ba730b6	0.0051022423
207	0x3c9491ee	0.018135991
208	0xbd7c88d5	-0.06165393
209	0xba8c7a95	-0.0010717685
210	0xbdae48e7	-0.08509999
211	0x3ca8d5d9	0.020609783
212	0xbd870cd7	-0.06594246
213	0xbc4d04f7	-0.012513391
214	0xbd7f913d	-0.06239437
215	0x3d14bb6f	0.036311563
216	0x3d12e606	0.0358639
217	0xbc099708	-0.008397825
218	0x3d89ae37	0.06722682
219	0x3cf13093	0.029442107
220	0x3d96f7a7	0.07371455
221	0x3c67d4d3	0.014149862
222	0x3d571b85	0.05251648
223	0x3c730146	0.014831847
224	0x3d78f951	0.06078464
225	0xbd6b8e97	-0.05750903
226	0x3e14dfe1	0.14538528
227	0x3db0c6e5	0.08631686
228	0x3e48763e	0.19576356
229	0x3e95d1c4	0.292616
230	0x3e0ada22	0.13559774
231	0x3d676093	0.056488585
232	0x3e7252f9	0.23664464
233	0xbdf31496	-0.11869161
234	0xbed60348	-0.41799378
235	0xbd9c0ecf	-0.07620012
236	0xbee5d666	-0.44890136
237	0xbda3f777	-0.080061845
238	0x3e0d2be5	0.13786276
239	0xbdae05a4	-0.084971696
240	0xbec30fc1	-0.38097957
241	0xbd966d6a	-0.07345088
242	0xbec91faf	-0.39281985
243	0xbdfb1e39	-0.12261624
244	0xbe08b0e5	-0.1334873
245	0xbe30f0ed	-0.17279406
246	0xbe1e4088	-0.15454304
247	0xbe864d82	-0.2623101
248	0xbe337c0d	-0.1752779
249	0xbe12f19e	-0.14349982
250	0xbe091455	-0.13386662
251	0xbe21aa03	-0.1578751
252	0xbe396911	-0.18106486
253	0xbdc9c277	-0.09851544
254	0xbdb2a282	-0.08722402
255	0xbd7e23cf	-0.06204587

encoder_layers.block_0.transition.bias f4 [25]
0	0xbd980841	-0.07423449
1	0xbd0a5b65	-0.033778567
2	0x3d86f301	0.06589318
3	0xbd481ebd	-0.04885744
4	0xbe85791c	-0.26068962
5	0xbbf623d7	-0.0075115967
6	0xbb14825f	-0.0022660715
7	0x3cf1e8eb	0.02953001
8	0xbc2e1693	-0.010625499
9	0xbd32488a	-0.04352621
10	0x3d57e171	0.052705232
11	0xbe3c984f	-0.18417476
12	0x3d97e77e	0.074172005
13	0x3d893f4d	0.06701527
14	0xbde96021	-0.11395288
15	0x3d10566f	0.03523868
16	0xbd5a3e63	-0.053282153
17	0xbdad8c34	-0.08474007
18	0x3c947c27	0.018125607
19	0xbbd16fab	-0.0063914857
20	0x3ddf02f4	0.10889235
21	0xbd4b8360	-0.049685836
22	0xbceaef4b	-0.028678557
23	0xbdd2067f	-0.10255145
24	0xbdabf8c1	-0.083970554

encoder_layers.block_0.conv.weight f4 [100, 25, 1, 1]
0	0x3e0a1ebd	0.13488288
1	0xbb890aeb	-0.0041822097
2	0x3dc31c78	0.09526914
3	0xbf004cec	-0.50117373
4	0xbd9543d0	-0.07288325
5	0x3c064118	0.0081942305
6	0xbde74105	-0.11291698
7	0xbdc417ca	-0.0957485
8	0x3d246da9	0.040143643
9	0x3e7c4f8d	0.24639721
10	0x3ddee278	0.10883039
11	0xba570db0	-0.0008203639
12	0x3d8b51a2	0.068026796
13	0x3d1e2c88	0.038616687
14	0xbd0752f6	-0.033038102
15	0x3df94873	0.12172022
16	0xbda181f7	-0.07886117
17	0xbe387e39	-0.180169
18	0xbe8b31c6	-0.27186412
19	0xbe9df14a	-0.3084815
20	0x3c8dc985	0.017308006
21	0xbe6cfdc0	-0.23143673
22	0xbca934cb	-0.020655056
23	0xbebb4602	-0.3657685
24	0xbdf72a6e	-0.1206864
25	0x3e2f1869	0.17099155
26	0x3d402bd5	0.0469168
27	0xbe3e6d27	-0.18596326
28	0xbe2e47f7	-0.1701964
29	0xbc1ec997	-0.009691617
30	0xbed3c3df	-0.41360375
31	0xbe6ff445	-0.23433025
32	0xbdff0df7	-0.124538355
33	0x3e191247	0.14948379
34	0x3e38a441	0.18031408
35	0x3d9e63b0	0.07733858
36	0xbd6c88ae	-0.057747535
37	0xbcfe73c1	-0.031061055
38	0x3daf62a7	0.08563738
39	0xbdfd3152	-0.12362923
40	0xbd376248	-0.044771463
41	0x3db619a1	0.08891607
42	0xbdf67a10	-0.12035
43	0xbe0e32ae	-0.1388652
44	0xbf051221	-0.5198079
45	0x3deab99c	0.114611834
46	0x3c7eef90	0.015560046
47	0xbdb0ca62	-0.086323515
48	0xbdd5969e	-0.104291186
49	0x3c8bf5a7	0.01708491
50	0xbd8c63ff	-0.0685501
51	0xbebb80f1	-0.36621812
52	0xbd1365de	-0.03598582
53	0xbcc30684	-0.023806818
54	0x3d4c03ea	0.04980842
55	0xbcf84a21	-0.030308785
56	0xbdecbd02	-0.11559488
57	0xbd9ffe62	-0.078121915
58	0x3e1e443d	0.15455718
59	0x3ccb9606	0.02485181
60	0xbde31f3c	-0.11089942
61	0x3e177fe2	0.14794877
62	0xbe2ab31b	-0.16669886
63	0x3e1fc32b	0.15601794
64	0x3e2ef182	0.17084315
65	0xbcae1ba7	-0.02125342
66	0x3e59af20	0.21258211
67	0xbb80e950	-0.003934063
68	0x3d43c72b	0.047797363
69	0xbd3d826c	-0.046266958
70	0xbe1927bb	-0.14956562
71	0x3d1bf311	0.038073603
72	0x3d7dd918	0.061974615
73	0xbd11a522	-0.035557874
74	0xbd9565c4	-0.07294801
75	0x3cd38f92	0.025825296
76	0xbd0dd8d6	-0.03463062
77	0x3e3dea33	0.18546371
78	0xbe360a2e	-0.1777732
79	0xbdf93d2a	-0.12169869
80	0x3db11351	0.086462624
81	0xbe24b7c8	-0.16085732
82	0xbdb4863b	-0.08814665
83	0xbd41b332	-0.047290035
84	0x3e58ea60	0.21183157
85	0xbdfee79c	-0.1244652
86	0x3d852c4a	0.06502588
87	0xbe0677d3	-0.13131647
88	0x3e724e82	0.23662761
89	0x3e83df5c	0.25756347
90	0x3e05207c	0.13000673
91	0xbd267617	-0.040639963
92	0xbe2279df	-0.15866803
93	0xbd2a62b0	-0.041598022
94	0xbe1fbcd5	-0.15599377
95	0xbe01defb	-0.12682717
96	0xbd91cbb2	-0.0711893
97	0x3e57325f	0.21015309
98	0xbdff11de	-0.1245458
99	0xbea583fe	-0.32327265
100	0x3c573100	0.013134241
101	0x3c1431b6	0.009045055
102	0xbe07c8da	-0.13260213
103	0x3e7291cd	0.23688431
104	0x3dffb782	0.12486173
105	0xbc45137a	-0.012028569
106	0xbc2417fd	-0.010015485
107	0x3e5042a5	0.20337923
108	0x3dafc8e9	0.085832424
109	0xbe494381	-0.19654657
110	0xbdae44ee	-0.08509241
111	0xbd84bc92	-0.064812794
112	0xbd0f4f3f	-0.034987684
113	0xbe16dfd3	-0.1473382
114	0xbd82ec8c	-0.06392774
115	0xbdcc1c71	-0.09966362
116	0x3e2871d5	0.16449673
117	0x3e96768a	0.29387313
118	0x3e409d8f	0.18810104
119	0x3dd3ccf2	0.103418246
120	0x3d09ee22	0.033674367
121	0xbe973365	-0.29531398
122	0xbe66bcf3	-0.22533016
123	0x3c800807	0.015628828
124	0x3de9846a	0.11402209
125	0xbbdf656c	-0.0068175104
126	0xbe29a894	-0.16568214
127	0x3e165a8c	0.14682978
128	0xbe74ecc9	-0.23918451
129	0x3e2e9f4e	0.17052957
130	0xbda14f20	-0.0787642
131	0xbe3c2534	-0.18373567
132	0xbe1917be	-0.14950463
133	0x3ca81f40	0.020522714
134	0x3c055ce9	0.008139827
135	0x3d7cb397	0.061694708
136	0x3d943b10	0.07237828
137	0xbec5b95e	-0.38617986
138	0x3e68757f	0.22701071
139	0x3cf5ab19	0.029988812
140	0xbe02a534	-0.12758332
141	0x3e8c95ff	0.27458188
142	0xbe56a911	-0.20962931
143	0xbdf1730b	-0.11789521
144	0xbe0853a7	-0.13313161
145	0xbe401817	-0.1875919
146	0x3f30efbc	0.69115806
147	0x3d9be8ec	0.07612786
148	0xbaca50d6	-0.0015435468
149	0xbe1d8826	-0.15383968
150	0x3c8b6e9f	0.017020522
151	0x3f2d12dd	0.6760691
152	0xbeb37cda	-0.35056192
153	0x3ca408db	0.020023754
154	0x3ecdf746	0.40227717
155	0x3da5ede0	0.08102012
156	0x3e41792b	0.18893878
157	0x3e7ba950	0.24576306
158	0xbd510706	-0.05103209
159	0xbe14f25f	-0.14545582
160	0x3e076efb	0.1322593
161	0x3c6e5c01	0.014548303
162	0x3d700edc	0.05860792
163	0xbea3d25e	-0.31996435
164	0xbe1584f3	-0.14601497
165	0xbf1d97e4	-0.6155989
166	0xba953cf9	-0.0011385969
167	0x3eb5c485	0.35501495
168	0x3e01f12c	0.12689656
169	0x3cdae40d	0.026720071
170	0xbea7e70c	-0.32793462
171	0x3db87f29	0.09008629
172	0xbe2af5e5	-0.16695364
173	0x3d11e989	0.035623107
174	0x3e6b6614	0.22988158
175	0xbdf21c7c	-0.11821839
176	0x3d9675fb	0.07346722
177	0x3c14d98e	0.009085072
178	0x3cc9f62c	0.024653517
179	0xbdc45bc5	-0.09587816
180	0xbd91c981	-0.07118512
181	0xbdb5b90f	-0.08873188
182	0xbc9afc68	-0.018919185
183	0xbe40710e	-0.18793127
184	0xbdfacff6	-0.12246697
185	0x3d4a1aa3	0.04934181
186	0xbe0e7d0e	-0.13914892
187	0x3d276658	0.040869087
188	0xbe111526	-0.14168224
189	0xbea4bec3	-0.3217679
190	0xbe1c9e62	-0.15294793
191	0xbc4f904e	-0.012668682
192	0x3d30ea37	0.043192115
193	0x3e70cb3d	0.23515029
194	0xbd900ca1	-0.07033659
195	0x3da6d05a	0.08145209
196	0x3e2a9baf	0.16660951
197	0xbdec47d4	-0.11537138
198	0x3e255ae3	0.16147952
199	0x3d963f05	0.07336239
200	0x3cd26b8f	0.025686054
201	0xbe1c8929	-0.15286697
202	0x3e044c0f	0.12919639
203	0xbc846727	-0.016162468
204	0x3d6ee5a0	0.058324456
205	0xbb439533	-0.0029843568
206	0x3cb2f6e7	0.021846248
207	0x3e938aaf	0.28816745
208	0x3e803b81	0.25045398
209	0xbd6a7c45	-0.05724742
210	0xbdee840b	-0.11646279
211	0x3c3c9401	0.011509896
212	0x3da61fc3	0.08111527
213	0x3d95d64f	0.07316267
214	0x3e4f62bc	0.20252508
215	0x3ef9dbbb	0.48800454
216	0xbe18f121	-0.14935733
217	0xbee05c74	-0.43820536
218	0xbd2d30d8	-0.04228291
219	0x3e75f2c4	0.24018389
220	0xbdbd0f7b	-0.09231468
221	0xbed5e8b5	-0.41779104
222	0x3de85ed2	0.113462105
223	0xbdc0044c	-0.093758196
224	0xbdffbddf	-0.12487387
225	0xbd344e92	-0.044020243
226	0xbe2f7b13	-0.17136793
227	0xbdc6d93c	-0.09709403
228	0x3c870e72	0.01648638
229	0x3ea99d2b	0.33127722
230	0xbdf4bcfa	-0.11950107
231	0xbca20ff2	-0.019782994
232	0x3b889ea3	0.0041693016
233	0x3f165591	0.58724314
234	0xbe0d7c2c	-0.13816899
235	0xbdfa4dd8	-0.12221879
236	0x3de07e6f	0.10961615
237	0x3c0930d4	0.008373458
238	0x3dc36c34	0.095421225
239	0x3e11fa75	0.14255698
240	0x3e4d6dde	0.20061442
241	0xba13e8af	-0.00056422775
242	0xbd1bc785	-0.038032074
243	0x3bb6cc58	0.005578559
244	0x3da46dd6	0.08028762
245	0xbe23bc91	-0.15989901
246	0xbe3b1cbb	-0.18272679
247	0x3d604496	0.05475291
248	0x3dd6930c	0.10477266
249	0xbc6f0697	-0.0145889735
250	0x3d52992c	0.051415607
251	0xbe24853a	-0.16066447
252	0x3dc1172a	0.09428246
253	0xbeba6ab5	-0.36409536
254	0xbd7ddf36	-0.06198045
255	0xbdb2ce18	-0.087307155

encoder_layers.block_0.conv.bias f4 [100]
0	0x3dc71bf7	0.09722131
1	0x3cd8a042	0.026443604
2	0xbdd8c199	-0.10583801
3	0xbd432670	-0.04764408
4	0xbd860995	-0.065447964
5	0xbd8c9d8f	-0.068659894
6	0xbe803ef3	-0.25048026
7	0x3e045d2c	0.12926167
8	0xbe307a5f	-0.17234181
9	0xbdeb3fcb	-0.11486777
10	0xbcb5ba56	-0.022183578
11	0xbe5b2563	-0.2140098
12	0x3d593cb5	0.05303641
13	0x3d633f32	0.05548019
14	0x3c7677e5	0.0150432335
15	0x39b2e17a	0.000341188
16	0xbe7eaba4	-0.24870163
17	0x3d7bac7a	0.061443783
18	0x3e28a6fa	0.16469947
19	0xbd9928a8	-0.07478458
20	0xbd8f882b	-0.07008394
21	0xbe303ecf	-0.1721146
22	0x3d600ae4	0.054697886
23	0x3df848a5	0.12123231
24	0xbe69a9d8	-0.22818696
25	0x3d813ebd	0.063107945
26	0xbe49c023	-0.197022
27	0xbd95267c	-0.07282731
28	0x3d2f7c39	0.042843077
29	0x3c406256	0.011742195
30	0x3df6c96e	0.120501384
31	0xbd4ddad7	-0.05025753
32	0x3e016c14	0.12638885
33	0x3d5cdb86	0.05392029
34	0xbe217067	-0.15765534
35	0x3d099bd5	0.03359588
36	0x3d7f3b08	0.062312156
37	0x3c0dc52c	0.0086529665
38	0xbe19bceb	-0.15013473
39	0xbe91549a	-0.28384858
40	0x3d20cc08	0.03925708
41	0xbc4338b8	-0.011915378
42	0xbc87dfc2	-0.016586188
43	0x3de7b138	0.11313099
44	0x3d0bba93	0.034113478
45	0xbe4246ca	-0.18972316
46	0xbe922aaf	-0.2854819
47	0x3d5f9f70	0.05459541
48	0xbd692a88	-0.056925327
49	0x3df06529	0.11738045
50	0x3ddfa7ad	0.109206535
51	0x3e2d1358	0.1690191
52	0x3d2df912	0.04247386
53	0xbd0e65ba	-0.034764983
54	0xbdc5b8b2	-0.096543685
55	0xbda1d4c1	-0.07901908
56	0xbd91f3ea	-0.07126601
57	0xbe463158	-0.1935476
58	0x3dfc2fbf	0.12313794
59	0x3e144560	0.1447959
60	0xbc93297c	-0.017964117
61	0xbb7f2de1	-0.0038937258
62	0xba9355c5	-0.0011240771
63	0x3d3e4c00	0.046459198
64	0x3de36abd	0.11104343
65	0xbdbe6011	-0.09295667
66	0xbe3276a8	-0.17428076
67	0x3c88df6f	0.016708104
68	0x3dea63ab	0.114447914
69	0xbdc7151e	-0.09720825
70	0x3d6c7c68	0.05773583
71	0xbd0005a4	-0.03125538
72	0x3ce55cdb	0.027998379
73	0x3dce56f3	0.10075178
74	0x3c709349	0.014683553
75	0xbdd84373	-0.1055974
76	0x3e363202	0.17792514
77	0x3c0a5afb	0.008444543
78	0x3e75e431	0.2401283
79	0xbe0401ad	-0.12891264
80	0xbd8ba41b	-0.0681841
81	0xbe5fa4ea	-0.21840253
82	0x3d95788e	0.072983846
83	0x3cce7ba5	0.025205443
84	0x3e94f32a	0.2909177
85	0xbc87c12c	-0.016571604
86	0xbb9fbe8c	-0.00487501
87	0x3e958c85	0.2920877
88	0xbe1cfad1	-0.15330054
89	0x3e5b5805	0.21420296
90	0x3d49f3b8	0.049304694
91	0xbd01f9f4	-0.031732515
92	0x3d3d1e81	0.04617167
93	0x3e380904	0.17972189
94	0xbcf1de37	-0.029524906
95	0x3e219c6b	0.15782325
96	0xbed219b2	-0.4103523
97	0x3e167ca8	0.1469599
98	0x3e08193c	0.13290876
99	0xbe6c93ae	-0.2310321

encoder_layers.block_1.transition.weight f4 [25, 50, 3, 3]
0	0xbd4b5026	-0.049636982
1	0x3c356264	0.011070821
2	0x3c2730a9	0.010204473
3	0x3cb42428	0.021989897
4	0x3d1c3c71	0.03814358
5	0xbbf803ca	-0.007568811
6	0x3c64da49	0.013968059
7	0xbc3f1a58	-0.011663996
8	0xbd881f91	-0.06646646
9	0xbdd924cb	-0.10602721
10	0xbd42d87a	-0.04756973
11	0xbdda2e23	-0.10653331
12	0xbd9c1780	-0.0762167
13	0xbd98cbcf	-0.074607484
14	0xbd6c5acc	-0.05770378
15	0xbdf3b316	-0.11899392
16	0xbd7b820f	-0.06140333
17	0xbdb27177	-0.08713048
18	0x3b21ec2f	0.0024707427
19	0xbc4feb75	-0.012690415
20	0xbc6b7c42	-0.014372887
21	0xbbd8677b	-0.0066041327
22	0xbed0665f	-0.40703103
23	0x39ba1c4f	0.00035497776
24	0xba901548	-0.001099267
25	0x3c812141	0.015762927
26	0xbc6932b4	-0.01423328
27	0xbdae8bd3	-0.08522763
28	0xbdc6ebae	-0.09712921
29	0xbd9e93f2	-0.07743062
30	0xbdbd73fe	-0.092506394
31	0xbe074149	-0.13208498
32	0xbda9ca66	-0.082905576
33	0xbd5c23d7	-0.053745117
34	0xbd927ab9	-0.07152314
35	0xbd71914d	-0.05897646
36	0xbc1f0a71	-0.009707079
37	0x3d3e71ec	0.046495363
38	0xbbb26d5f	-0.005445167
39	0x3d1e3df6	0.03863331
40	0x3db49d33	0.08819046
41	0x3d3f618a	0.04672388
42	0xbbd72809	-0.006566052
43	0x3d256986	0.040383838
44	0xbb812bb4	-0.0039419774
45	0xbdfd2cf5	-0.123620905
46	0xbdca6605	-0.0988274
47	0xbe13b77f	-0.14425467
48	0xbdd3014f	-0.10302984
49	0x3b221747	0.0024733113
50	0xbdb74b65	-0.08949927
51	0xbe21af79	-0.15789594
52	0xbdb188d7	-0.08668678
53	0xbe2d6cd3	-0.16936044
54	0x3db6d86c	0.08927998
55	0x3cf5b12d	0.02999171
56	0x3d97151f	0.073770754
57	0x3d173f37	0.03692552
58	0xbd7c2f0c	-0.061568305
59	0x3d291aa3	0.04128517
60	0x3db3733b	0.08762213
61	0x3d3370a4	0.043808594
62	0x3db4774e	0.08811818
63	0x3d39a43e	0.04532265
64	0x3db5c8e9	0.08876211
65	0x3dc50436	0.09619944
66	0x3dbb53bb	0.0914683
67	0xbddbfc15	-0.1074144
68	0x3d9802ed	0.07422433
69	0x3dc93849	0.09825189
70	0x3d59beeb	0.05316059
71	0x3d668b8d	0.05628543
72	0xbc5a2790	-0.0133150965
73	0x3ccec47f	0.025240181
74	0x3ccfbac5	0.025357613
75	0x3c657f0a	0.014007339
76	0x3c23576c	0.0099695735
77	0x3c588b8e	0.013216866
78	0x3d49bae3	0.049250495
79	0x3c6102cd	0.013733578
80	0x3cb135fb	0.021632185
81	0xbdc5ff33	-0.09667816
82	0xbdbc9189	-0.09207446
83	0xbdabba02	-0.083850875
84	0xbddea585	-0.10871414
85	0xbde19a4f	-0.1101576
86	0xbdcaec45	-0.09908346
87	0xbdc0824f	-0.093998544
88	0xbdd9f73b	-0.106428586
89	0xbd81478b	-0.06312474
90	0x3cb6f43c	0.022333257
91	0xbd1b058d	-0.03784709
92	0x3bd8a0f6	0.006610985
93	0xbcea36f7	-0.028590662
94	0x3a0f9990	0.00054778997
95	0xbcfe8373	-0.03106854
96	0xb9e45e9d	-0.0004355804
97	0xbcbe47a8	-0.023227528
98	0x3ca1da37	0.019757373
99	0x3c6f3a61	0.014601321
100	0x3d2e227f	0.042513367
101	0x3b2de3e5	0.002653354
102	0x3d0815b2	0.033223815
103	0x3d22f557	0.039784756
104	0x3d678886	0.056526683
105	0xbce2f980	-0.027706861
106	0x3ceb0a55	0.02869145
107	0x3c960f22	0.018317763
108	0xbc8e20f6	-0.017349701
109	0xbd4f62e5	-0.050631423
110	0xbd963854	-0.073349625
111	0xbd2344bd	-0.039860476
112	0x3d58035d	0.052737582
113	0xbd803965	-0.06260947
114	0xbd3dc448	-0.046329767
115	0xbd22f749	-0.03978661
116	0xbce6b017	-0.028160138
117	0xbbcca2d6	-0.0062449975
118	0xbd74e9d9	-0.059793327
119	0xbd6582cb	-0.056032937
120	0xbd5aa839	-0.053383086
121	0xbe3c01dc	-0.18360084
122	0xbcff690f	-0.031178026
123	0xbbe75b73	-0.007060462
124	0xbd417485	-0.047230262
125	0xbcd0082c	-0.025394522
126	0xbd61ede7	-0.055158522
127	0xbc65fa7a	-0.014036769
128	0xbd309013	-0.04310615
129	0xbd4950b4	-0.04914923
130	0x3db08a53	0.08620133
131	0xbd43e847	-0.04782894
132	0xbce619a9	-0.028088408
133	0xbd36fb47	-0.04467323
134	0xbd474944	-0.048653856
135	0x3cf869d8	0.030323908
136	0x3cdd9a4a	0.02705111
137	0x3c594cbf	0.013262927
138	0x3c45a280	0.012062669
139	0xbc809dca	-0.01570024
140	0x3cf11a93	0.029431617
141	0x3bde937e	0.006792485
142	0x39b2197f	0.00033969802
143	0x3d3b69a7	0.045755055
144	0x3da3d2f1	0.07999218
145	0xbc677f99	-0.014129543
146	0x3d614ead	0.05500667
147	0x3c66e60e	0.014092935
148	0x3d56e24d	0.05246191
149	0xbcbcbc58	-0.023039028
150	0x3d6ccd6d	0.057813097
151	0xbbb588f1	-0.0055400063
152	0x3d5008f1	0.050789777
153	0xbd4fbf2a	-0.050719418
154	0xbd8c68a5	-0.06855897
155	0xbd9a47ff	-0.075332634
156	0xbd569820	-0.05239117
157	0xbe134a4d	-0.14383812
158	0xbd99a4a7	-0.07502108
159	0xbd6677ed	-0.056266714
160	0xbd457bc1	-0.048213724
161	0xbcab6b96	-0.020925324
162	0xbd3ede1d	-0.046598542
163	0xbd0854c9	-0.033283982
164	0xbbfc1203	-0.007692577
165	0xbd16e95e	-0.03684365
166	0xbdd087ec	-0.10182175
167	0xbc971408	-0.018442169
168	0xb9665a24	-0.0002196809
169	0xbcd718e4	-0.026256986
170	0xbd39da12	-0.045373984
171	0xbcbb6db5	-0.02287946
172	0xbd435805	-0.047691364
173	0xbcf5250a	-0.029924888
174	0xbd3b28ca	-0.045693196
175	0xbd2742f2	-0.04083533
176	0xbd710b8f	-0.058848914
177	0xbd08ecb8	-0.033428878
178	0xbd8f28bf	-0.069901936
179	0xbc81ffa0	-0.015868962
180	0xbce7f4c6	-0.02831496
181	0xbd5a93de	-0.053363673
182	0xbd84ea63	-0.06490018
183	0xbd47f053	-0.048813175
184	0xbe3da41b	-0.18519633
185	0xbd8079ca	-0.062732294
186	0xbd887ced	-0.06664453
187	0xbda6098b	-0.08107289
188	0xbd0da959	-0.03458533
189	0x3d8dd162	0.06924702
190	0xbde09c9f	-0.10967373
191	0x3cfc61af	0.030808298
192	0xbe0ec600	-0.13942719
193	0x3c989a9d	0.018628413
194	0xbdf7212f	-0.12066876
195	0x3c6b9cce	0.014380647
196	0xbe069228	-0.13141692
197	0x3d8fda69	0.0702408
198	0x3ba294d5	0.00496159
199	0x3d56900f	0.05238348
200	0x3c24d9c2	0.010061683
201	0x3d2dd9b7	0.042443957
202	0x3c3018dd	0.010748115
203	0x3cb8cbad	0.022558058
204	0x3ca82b8e	0.020528581
205	0x3d44aa7e	0.048014157
206	0x3cd27278	0.025689349
207	0xbdbef9d8	-0.09324998
208	0xbdae7875	-0.08519069
209	0xbced121b	-0.028939297
210	0xbdd964ed	-0.10614953
211	0x3e963a19	0.293412
212	0xbdaedd89	-0.08538348
213	0xbd2b6462	-0.04184378
214	0xbdc13639	-0.0943417
215	0xbdd5e543	-0.10444119
216	0xbcc4c569	-0.024019914
217	0x3d4a8455	0.049442608
218	0x3c672ded	0.014110071
219	0x3d44813a	0.047974803
220	0xbdc8bed9	-0.09802026
221	0x3d12ca99	0.035837743
222	0x3c711941	0.014715494
223	0x3d020daf	0.03175133
224	0xbd0b88dc	-0.034066066
225	0x3c4ec8bd	0.012621102
226	0xbe369b97	-0.1783279
227	0x3cf290de	0.029610094
228	0xbe1872be	-0.1488752
229	0xbe9b6e29	-0.30357483
230	0xbe1b8f5c	-0.15191406
231	0x3d4fd522	0.05074037
232	0xbe1415ef	-0.14461492
233	0x3bfadb22	0.007655517
234	0x3c48c461	0.012253852
235	0x3b9bf4ce	0.0047594076
236	0xbb49ae74	-0.0030774148
237	0x3c387dd9	0.011260473
238	0x3d6a7cd4	0.05724795
239	0x3ceb4923	0.028721398
240	0x3c9d4cb2	0.01920161
241	0x3bf0e12b	0.007351061
242	0x3cd05473	0.025430894
243	0xbdeaa58a	-0.11457355
244	0xbd5ad9df	-0.053430434
245	0xbe07a348	-0.1324588
246	0xbd2660d4	-0.040619686
247	0x3e1e9ddd	0.15489908
248	0xbd35800d	-0.044311572
249	0xbdb6318b	-0.08896168
250	0xbd590d3b	-0.052991133
251	0xbdfe589b	-0.12419244
252	0xbe5f416a	-0.21802297
253	0xbeb7cc9c	-0.35898292
254	0xbe9e2067	-0.30884096
255	0xbec1a174	-0.3781849

encoder_layers.block_1.transition.bias f4 [25]
0	0xbd0845e0	-0.033269763
1	0xbc68b51b	-0.014203335
2	0x3bb78c34	0.0056014303
3	0x3cbaab9f	0.022786913
4	0xbd4c6a72	-0.0499062
5	0x3c4968a3	0.012293014
6	0xbd9d1e3e	-0.07671784
7	0x3dd47552	0.103739396
8	0xbbc051f3	-0.005869144
9	0x3c66ae93	0.014079708
10	0xbd2a90e6	-0.041642092
11	0x3c6eac44	0.0145674385
12	0xbc84b8e3	-0.016201442
13	0x3d02b691	0.03191239
14	0xbd6a1cef	-0.0571565
15	0xbd97c4ae	-0.074105605
16	0x3cae6aee	0.021291222
17	0xbd62c92c	-0.055367634
18	0xbd52cffe	-0.051467888
19	0x3dd0bb95	0.101920284
20	0x3b4e5c54	0.0031488137
21	0x3db7c2ab	0.08972677
22	0x3cebe3d3	0.028795158
23	0x3cc62bf9	0.02419089
24	0xbcdf0329	-0.027223187

encoder_layers.block_1.conv.weight f4 [100, 25, 1, 1]
0	0xbda68db3	-0.08132496
1	0xbc457f95	-0.012054344
2	0x3c449fcc	0.012000989
3	0xbd3da44d	-0.046299268
4	0x3dfb8b60	0.12282443
5	0xbe2db3c7	-0.16963111
6	0x3e42e12e	0.19031212
7	0x3c8f25cf	0.017474083
8	0xbd992378	-0.07477468
9	0xbc20691d	-0.009790686
10	0xbc9e25e4	-0.019305177
11	0xbd1f10e2	-0.03883446
12	0x3c68e11d	0.014213827
13	0x3c1efed8	0.009704314
14	0xbd6b642d	-0.057468582
15	0xbe17438d	-0.14771862
16	0x3e0707f8	0.13186634
17	0x3d978d73	0.07400026
18	0x3e6d15a5	0.23152788
19	0x3ccd6c74	0.025076129
20	0x3cc8aa8a	0.024495382
21	0x3d9c8d81	0.07644177
22	0x3e764730	0.24050593
23	0x3e16fc3f	0.14744662
24	0x3e020840	0.1269846
25	0xbe6d32b9	-0.2316388
26	0x3e0f6ad2	0.14005592
27	0x3d95c3b4	0.07312718
28	0x3f90447b	1.1270899
29	0x3e1259bc	0.14292043
30	0xbd5a508e	-0.05329948
31	0x3e24b457	0.16084419
32	0xbe41b28b	-0.18915765
33	0x3cf2f4d0	0.029657751
34	0xbc478c41	-0.012179435
35	0xbed23dd6	-0.41062802
36	0xbdbde7c1	-0.09272719
37	0xbcade777	-0.021228535
38	0xbe59f54f	-0.21284984
39	0xbe3b3bd1	-0.18284537
40	0x3db3ffaa	0.087889984
41	0xbdc8608f	-0.09784042
42	0xbce0c75c	-0.027438812
43	0x3e3f564a	0.1868526
44	0x3e48ab2f	0.19596551
45	0xbde8eab8	-0.11372894
46	0x3db543e5	0.088508405
47	0x3d7404ee	0.059575014
48	0xbec23ebd	-0.3793849
49	0xbe26deb3	-0.1629589
50	0xbdb05f5a	-0.08611937
51	0x3cda27cb	0.026630303
52	0x3e54dae6	0.20786628
53	0xbe4a53b5	-0.19758494
54	0xbe2bee3f	-0.16790102
55	0xbc9a5217	-0.018837972
56	0xbda8ebb3	-0.08248081
57	0x3ebaf7d2	0.36517197
58	0xbce2d952	-0.027691517
59	0xbc9c70a3	-0.019096678
60	0xbee14880	-0.44000626
61	0xbdeaa788	-0.11457735
62	0xbe965bcd	-0.29366913
63	0xbe009889	-0.12558188
64	0xbd625723	-0.05525888
65	0x3d45236d	0.048129488
66	0xbe2f8d39	-0.17143716
67	0x3e04e6d2	0.12978676
68	0x3c9b645b	0.018968752
69	0xbcc8e4ac	-0.024523102
70	0xbe531885	-0.20614822
71	0x3f5512ee	0.8323201
72	0xbee98e09	-0.45616177
73	0xbdcafbad	-0.099112846
74	0xbd97009a	-0.073731616
75	0x3e6fbda4	0.23412186
76	0x3e6434ab	0.22285716
77	0xbe884acf	-0.26619574
78	0x3e8e0238	0.27736068
79	0x3e9265c5	0.2859327
80	0xbe5fe8ef	-0.21866201
81	0xbe276f82	-0.1635113
82	0xbe55d54f	-0.20882152
83	0x3cfd293f	0.030903457
84	0x3db1e70b	0.08686646
85	0x3e182c6a	0.14860693
86	0xbf038fc4	-0.51391244
87	0xbcefd22d	-0.029275024
88	0x3f0767ac	0.52892566
89	0xbce7a038	-0.02827464
90	0x3e14ba1d	0.14524122
91	0xbf04b853	-0.51843756
92	0xbe3d2809	-0.18472303
93	0xbd428c4a	-0.04749707
94	0xbd049482	-0.03236819
95	0x3ea8d2ef	0.3297343
96	0xbe2ee614	-0.17079955
97	0xbf072603	-0.52792376
98	0x3f16e348	0.58940554
99	0x3de5f4f1	0.112283595
100	0xbd1ddc49	-0.03854016
101	0x3dbafcbe	0.09130238
102	0x3e068127	0.13135205
103	0xbe6ca00c	-0.23107928
104	0x3d91be26	0.07116346
105	0xbe10cd1e	-0.14140746
106	0x3ed71803	0.42010507
107	0x3d65d6a9	0.05611292
108	0xbb4fbc62	-0.0031697978
109	0x3d947d5a	0.072504714
110	0x3df61af0	0.12016857
111	0x3dd05fb9	0.10174508
112	0x3e0a82d8	0.13526475
113	0xbdfd9651	-0.12382186
114	0x3e5fea81	0.218668
115	0xbdbd44a5	-0.092416085
116	0xbf687d9f	-0.9081668
117	0xbe39067e	-0.18068883
118	0xbd0958fd	-0.03353213
119	0x3d4f1e3f	0.050565954
120	0xbd85b564	-0.06528738
121	0xbe5be659	-0.2147459
122	0x3cd0547e	0.025430914
123	0xbe35c582	-0.17751125
124	0x3dc2c994	0.09511104
125	0x3dcccdd2	0.100001946
126	0x3c599b3d	0.013281641
127	0x3e794456	0.24342474
128	0x3d68be22	0.05682195
129	0x3e96b690	0.2943616
130	0x3d97bdfb	0.07409283
131	0xbea39112	-0.31946617
132	0x3c72c635	0.014817764
133	0x3e2439d5	0.16037686
134	0xbd617a2b	-0.05504815
135	0x3dc8d1f6	0.09805672
136	0xbd581fa1	-0.05276454
137	0x3d4a9a9d	0.049463857
138	0xbe14e42c	-0.14540166
139	0x3da8a59f	0.08234715
140	0x3e45a910	0.19302773
141	0xbc81ffda	-0.01586907
142	0xbb4a8c28	-0.0030906294
143	0x3e4642fc	0.1936149
144	0xbe4dca56	-0.20096716
145	0xbe7cd93d	-0.24692245
146	0x3f0ba866	0.5455383
147	0x3cd0359b	0.025416186
148	0xbec4a5b1	-0.38407663
149	0x3e960d38	0.2930696
150	0x3eb21430	0.34781027
151	0x3d262bd4	0.04056914
152	0xbe967cfb	-0.29392228
153	0x3f1e548b	0.6184775
154	0xbdc1c394	-0.09461132
155	0x3cd8497e	0.026402231
156	0x3cf3a127	0.02973993
157	0x3ed87e0f	0.42283675
158	0xbdde612f	-0.1085838
159	0x3d4d541a	0.050129034
160	0x3d95214e	0.07281743
161	0xbd358e0a	-0.044324912
162	0x3d84af92	0.064788
163	0x3e30cad0	0.17264867
164	0xbe6a6d8b	-0.2289335
165	0xbe0be11c	-0.13660091
166	0xbdde4752	-0.10853447
167	0xbd9c876e	-0.07643019
168	0x3c0e4f78	0.008685939
169	0xbe4b4b9c	-0.19853061
170	0x3e8aa1af	0.2707648
171	0xbe0b35cb	-0.13594739
172	0xbd8f376c	-0.06992993
173	0x3dbaeb97	0.091269664
174	0x3eea471d	0.4575738
175	0x3eb44940	0.35212135
176	0x3dded2b0	0.10880029
177	0xbcb8cc31	-0.022558304
178	0x3de0a0ee	0.10968195
179	0x3e51f280	0.20502663
180	0xbe2a5473	-0.16633777
181	0xbd83be5b	-0.06432792
182	0xbd578078	-0.05261275
183	0x3d375248	0.044756204
184	0x3e17bc2e	0.14817879
185	0x3ce045d2	0.027377043
186	0xbe558f8d	-0.20855542
187	0x3d3902ce	0.04516869
188	0x3d784913	0.060616564
189	0x3d0d0b88	0.034434825
190	0xbc9ec5f4	-0.0193815
191	0xbc94aaa1	-0.018147768
192	0xbda237b8	-0.07920784
193	0xbebc1437	-0.36734173
194	0xbe67ac7b	-0.2262439
195	0xbc1f8557	-0.009736381
196	0x3e92b516	0.28653783
197	0x3d65f750	0.05614406
198	0xbe77750a	-0.2416574
199	0xbdd9db28	-0.10637504
200	0x3e46fdea	0.19432798
201	0xbdde103e	-0.10842942
202	0x3f0224eb	0.5083758
203	0x3ee85d0e	0.45383495
204	0x3ea40fd1	0.32043317
205	0xbeb9014e	-0.36133808
206	0x3d8c2484	0.06842902
207	0x3f52524b	0.8215682
208	0xbd37f268	-0.04490891
209	0xbe0beab2	-0.13663748
210	0xbe7a4260	-0.24439383
211	0xbd6598cf	-0.056053933
212	0xbf0de46c	-0.5542667
213	0xbd632646	-0.055456422
214	0xbea7f6e2	-0.32805544
215	0xbdd434a4	-0.10361603
216	0xbde2df98	-0.110778034
217	0xbe219535	-0.15779574
218	0xbdfb5423	-0.12271907
219	0x3f1327fe	0.574829
220	0x3ec52ea0	0.38512135
221	0x3e05cee8	0.1306721
222	0x3d8a49d0	0.0675236
223	0xbeed51a3	-0.46351346
224	0xbf3385b3	-0.70125884
225	0xbe33dcc7	-0.17564689
226	0x3ceba540	0.02876532
227	0x3e0f3276	0.13984093
228	0x3f816df5	1.0111681
229	0xbe75655c	-0.23964447
230	0xbc7d996c	-0.015478473
231	0x3d5fc02f	0.05462664
232	0x3e0d2b18	0.1378597
233	0x3ca65199	0.02030258
234	0xbe8aee88	-0.2713511
235	0xbe8a2bdd	-0.2698659
236	0xbe326413	-0.17420988
237	0xbf39353c	-0.72346854
238	0xbe13114c	-0.14362067
239	0x3d4235d7	0.047414627
240	0x3ca89e2c	0.020583235
241	0xbd72964b	-0.05922536
242	0xbe6a603b	-0.22888272
243	0x3e19330f	0.14960884
244	0x3e9ec1d7	0.31007263
245	0x3da14622	0.07874705
246	0x3ca69b25	0.02033765
247	0xbe13a4da	-0.14418355
248	0xbdfaa4d8	-0.12238473
249	0xbc9a407b	-0.018829575
250	0xbd4e56bb	-0.05037568
251	0xbd22ce08	-0.039747268
252	0x3d0297bf	0.031882998
253	0xbdd6a829	-0.10481293
254	0xbc84333a	-0.016137708
255	0x3de94e1d	0.11391852

encoder_layers.block_1.conv.bias f4 [100]
0	0x3df9b828	0.12193328
1	0x3d088e97	0.03333911
2	0x3d91f9d9	0.07127733
3	0xbe3f5f57	-0.18688713
4	0xbcb14787	-0.021640552
5	0xbe13600a	-0.14392105
6	0xbcb9de19	-0.022688912
7	0xbe1d0137	-0.15332495
8	0x3ba6217d	0.00506991
9	0x3d94d21e	0.07266639
10	0xbdac05e7	-0.08399563
11	0x3e2d5e41	0.16930486
12	0x3d217e14	0.039426878
13	0x3df3cb6b	0.11904033
14	0x3dcf1a78	0.101124704
15	0xbe8756b6	-0.26433343
16	0xbd595926	-0.053063534
17	0x3d0381a0	0.032106042
18	0xbd8239f0	-0.06358707
19	0x3dfd9866	0.12382583
20	0x3d81cbb1	0.06337679
21	0x3dbc8b42	0.09206249
22	0xbb63aa19	-0.0034738837
23	0xbe5a9546	-0.21346006
24	0x3d2ad032	0.041702457
25	0x3c935378	0.017984137
26	0xbc9f9435	-0.01947985
27	0xbe592d20	-0.2120862
28	0x3d8d781a	0.06907673
29	0x3cc228eb	0.023701152
30	0x3e0b45ba	0.13600817
31	0x3cc55f66	0.024093341
32	0x3dd33102	0.10312082
33	0x3e046792	0.12930134
34	0xbe166a37	-0.14688955
35	0xbde1b2ab	-0.11020406
36	0x3de5dd10	0.11223805
37	0x3d773908	0.060357124
38	0xbdb33a59	-0.08751363
39	0x3c076e2a	0.008266011
40	0xbcf5155f	-0.029917417
41	0xbc7f6e30	-0.015590236
42	0xbe030a2c	-0.12796849
43	0xbc93908d	-0.018013263
44	0xbe024c64	-0.12724453
45	0xbbd6a6df	-0.0065506543
46	0x3d603c75	0.054745156
47	0x3e11315b	0.14178984
48	0xbeb3edbb	-0.3514231
49	0x3c41fde7	0.01184032
50	0x3e07b1f1	0.13251473
51	0x3d91abd3	0.07112851
52	0x3e487cb6	0.19578823
53	0x3dcc3441	0.09970904
54	0xbe17524e	-0.1477749
55	0x3df2c271	0.11853493
56	0xbca584a6	-0.020204853
57	0xbe88c3eb	-0.26711974
58	0xbd538e3f	-0.05164933
59	0x3d2cf039	0.04222128
60	0x3e6bf9ba	0.23044482
61	0xbe072ef8	-0.13201511
62	0x3e139151	0.14410903
63	0x3df95a47	0.12175422
64	0xbe01c8a8	-0.126742
65	0xbe18c93d	-0.14920516
66	0x3d2a2db8	0.041547507
67	0xbd854457	-0.065071754
68	0x3dd38a46	0.10329108
69	0x3d0a87de	0.03382098
70	0xbe9a96e0	-0.30193233
71	0x3cd2781a	0.025692035
72	0x3e1959f2	0.14975718
73	0xbe40bf58	-0.18822992
74	0xbd4cb9fe	-0.049982063
75	0xbe0089f7	-0.1255263
76	0xbce67536	-0.028132062
77	0xbcee9b0a	-0.029126663
78	0x3cf16dd6	0.02947132
79	0xbdd6ddee	-0.104915485
80	0xbcb072b3	-0.021539068
81	0xbd1e5b5e	-0.038661353
82	0xbdc1023f	-0.094242565
83	0x3daa4cc2	0.08315422
84	0xbdd179cf	-0.10228311
85	0x3dfd44aa	0.12366612
86	0x3ca300f3	0.019897914
87	0xbe2ef64d	-0.17086144
88	0x3c9cf0f7	0.01915787
89	0xbaddfa20	-0.0016935505
90	0xbd634b11	-0.05549151
91	0xbe2a0a1e	-0.16605422
92	0x3d0ccfb4	0.03437777
93	0xbd26a90f	-0.04068857
94	0xbb5c470f	-0.003361169
95	0x3d80ed63	0.06295278
96	0x3ba51d82	0.005038918
97	0xbe031bbd	-0.1280355
98	0x3da0e394	0.07855907
99	0xbd67355f	-0.056447383

decoder_layers.block_0.transition.weight f4 [25, 25, 3, 3]
0	0x3e051f84	0.13000304
1	0x3e13c1e5	0.14429434
2	0x3e0025fb	0.12514488
3	0x3e1602d6	0.1464952
4	0x3e2b8693	0.16750555
5	0x3e24e276	0.16102013
6	0x3e068592	0.1313689
7	0x3e286ac5	0.1644698
8	0x3e0f1d41	0.13976003
9	0x3c49a93c	0.012308415
10	0x3c0800a6	0.008300936
11	0x3d0b2b5d	0.0339769
12	0x3bad3106	0.005285385
13	0xbdb204b5	-0.08692304
14	0x3cb9cc09	0.0226803
15	0xbce9543d	-0.02848255
16	0xbbe1efad	-0.0068950267
17	0x3d81c6cd	0.06336746
18	0x3d30f1e2	0.043199427
19	0xbc6562eb	-0.014000635
20	0x3b930f18	0.0044878833
21	0xbc83fa97	-0.016110701
22	0x3e7c307d	0.24627872
23	0xbc005349	-0.007832357
24	0x3c6cad3a	0.014445597
25	0x3c46a371	0.012123928
26	0xbbb53b93	-0.0055307834
27	0xbdd90c50	-0.105980515
28	0x3be51d66	0.00699203
29	0xbdc45dea	-0.09588225
30	0xbb0f33de	-0.0021850984
31	0xbd0f61f6	-0.035005532
32	0x3bbeb894	0.0058203433
33	0xbd77d411	-0.060504977
34	0xbc4626e8	-0.012094237
35	0xbd64ebae	-0.055888824
36	0xbdaa057a	-0.08301826
37	0xbd3a8422	-0.045536168
38	0xbd305dcf	-0.043058213
39	0xbd9a9e7c	-0.0754976
40	0xbe04a50e	-0.12953588
41	0xbd87c76e	-0.06629835
42	0xbd0966a2	-0.033545144
43	0xbd87526c	-0.066075176
44	0xbd8b8c9e	-0.0681393
45	0xbd33b535	-0.043873984
46	0xbe409ac8	-0.18809044
47	0xbd3c79c2	-0.046014555
48	0xbe190b40	-0.14945698
49	0x3ca36c64	0.019949146
50	0xbe07f5b1	-0.13277318
51	0xbd7ef3c7	-0.062244203
52	0xbe258e71	-0.16167618
53	0xbda335ae	-0.07969223
54	0x3d3e3681	0.046438698
55	0x3c479eef	0.012183889
56	0x3d26c244	0.04071261
57	0x3c1767a5	0.009241019
58	0xbc42ad49	-0.011882135
59	0x3d0ec1f2	0.03485293
60	0x3d141729	0.0361549
61	0x3d16a0c8	0.036774427
62	0x3c86781a	0.01641469
63	0xbd9143f7	-0.070930414
64	0xbdcdc2bc	-0.10046908
65	0xbe0d517e	-0.13800618
66	0xbdd03784	-0.10166839
67	0x3bfb12ac	0.007662138
68	0xbdee91f3	-0.11648931
69	0xbda5e7f7	-0.081008844
70	0xbdb86708	-0.09004027
71	0xbdcf536f	-0.101233356
72	0xbd938089	-0.072022505
73	0xbd1b709f	-0.0379492
74	0xbd8caf54	-0.06869379
75	0xbda80a5a	-0.082050994
76	0xbc5534ec	-0.013013106
77	0xbdd4ee6e	-0.10397039
78	0xbd7910b4	-0.060806945
79	0xbd34897e	-0.044076435
80	0xbd9d4ddd	-0.07680867
81	0x3c67c37d	0.014145729
82	0x3cd1b7f0	0.025600404
83	0x3cc978fa	0.024593819
84	0x3ca26c00	0.019826889
85	0xbca624d2	-0.02028123
86	0x3cd2f2e6	0.025750589
87	0x3ce978b2	0.028499935
88	0x3ce79249	0.028267996
89	0x3d661e88	0.05618146
90	0xbd8c54f6	-0.068521425
91	0xbd4218a1	-0.04738677
92	0xbd8c92b2	-0.068639174
93	0xbd870985	-0.065936126
94	0xbd9b5529	-0.075846024
95	0xbcde3ec9	-0.027129548
96	0xbdb4d697	-0.08829992
97	0xbd851f35	-0.06500093
98	0xbdc49b1c	-0.09599897
99	0x3d3c7f62	0.04601992
100	0x3df6ccb3	0.12050762
101	0x3d562cca	0.052288808
102	0x3df74ff7	0.12075799
103	0x3d714bb4	0.058910087
104	0x3de3b37c	0.11118218
105	0x3d441412	0.047870703
106	0x3dfe1def	0.12408053
107	0x3d2de80a	0.042457618
108	0xbd2e6250	-0.042574227
109	0x3cd5e89a	0.02611189
110	0xbd0ec941	-0.0348599
111	0x3d8d8522	0.06910159
112	0xbdd72797	-0.10505598
113	0x3d2f8c39	0.042858336
114	0xbdb25574	-0.08707705
115	0x3ca22338	0.019792184
116	0xbd7f69f4	-0.062356904
117	0x3e28c597	0.16481625
118	0x3e06e5e1	0.1317363
119	0x3e1f8262	0.15577081
120	0x3e01caf6	0.1267508
121	0x3dfc4314	0.12317482
122	0x3e08a077	0.13342462
123	0x3e12931e	0.14313933
124	0x3e1204b9	0.14259614
125	0x3e2b68e0	0.16739225
126	0x3db40a02	0.08790971
127	0xbe15ba3c	-0.14621824
128	0x3d0baee6	0.034102343
129	0xbe2c6783	-0.16836362
130	0x3b72099b	0.0036931995
131	0xbe2e33de	-0.17011973
132	0x3d8d077b	0.068861924
133	0xbe16f1cf	-0.1474068
134	0x3d4f5a34	0.050623134
135	0x3cb58805	0.022159586
136	0xbe004fea	-0.12530485
137	0x3d1ce181	0.038300995
138	0xbe0030dd	-0.1251864
139	0x3e2d961a	0.1695179
140	0xbe0447d0	-0.1291802
141	0x3c63dd58	0.013907753
142	0xbdf60615	-0.12012879
143	0x3d4bc5c9	0.04974917
144	0x3e4d1a32	0.20029524
145	0x3da04010	0.07824719
146	0x3e1dc6ba	0.1540784
147	0x3e1099e4	0.14121205
148	0x3d6d4f45	0.057936925
149	0x3df1dd08	0.118097365
150	0x3e0bf523	0.13667731
151	0x3de97a28	0.114002526
152	0x3e4db6d2	0.20089272
153	0xbd8f2916	-0.069902584
154	0xbe0328b5	-0.12808497
155	0xbd85ed7c	-0.06539437
156	0xbe2386b4	-0.15969354
157	0xbca36e97	-0.019950194
158	0xbe16a598	-0.14711607
159	0xbd99f96e	-0.07518278
160	0xbe2e909d	-0.17047353
161	0xbdd376d8	-0.10325402
162	0xbdf8a596	-0.12140958
163	0xbd3b2374	-0.045688108
164	0xbe02971a	-0.12752953
165	0xbd90bfe2	-0.07067849
166	0xbcc6d120	-0.02426964
167	0xbd8c8c23	-0.068626665
168	0xbdfd8beb	-0.12380203
169	0xbd39c79f	-0.04535639
170	0xbe15180e	-0.14559957
171	0xbc86e689	-0.01646735
172	0x3ca29061	0.019844236
173	0x3be397f8	0.0069456063
174	0x3d1556dc	0.03645979
175	0x3d72e6d3	0.059302162
176	0x3ba33966	0.0049812077
177	0xbc02125d	-0.007938948
178	0xbc5a918b	-0.013340364
179	0xbcdcf03d	-0.026970023
180	0xbdb8de0b	-0.09026726
181	0xbdce39db	-0.10069629
182	0xbd56d03e	-0.05244469
183	0xbda8fe95	-0.08251683
184	0xbdc48974	-0.095965296
185	0xbdaf36d6	-0.08555381
186	0xbd81ad38	-0.06331867
187	0xbd646fa3	-0.055770528
188	0xbda991f2	-0.0827979
189	0xbdea327d	-0.11435411
190	0xbdb1529c	-0.086583346
191	0xbe0b5900	-0.1360817
192	0xbdaaa184	-0.08331588
193	0xbdf00965	-0.11720542
194	0xbd920d62	-0.07131459
195	0xbe100861	-0.14065696
196	0xbd867d2c	-0.065668434
197	0xbdebd09e	-0.115144
198	0x3e0542f8	0.13013828
199	0x3dce6eca	0.10079725
200	0x3e19667e	0.14980504
201	0x3db42c67	0.087975316
202	0x3dd03f43	0.10168316
203	0x3e07b01d	0.13250776
204	0x3dcde90d	0.100542165
205	0x3dc627ee	0.09675585
206	0x3e15724f	0.14594387
207	0xbde40fc1	-0.11135817
208	0xbe8155da	-0.25260812
209	0xbdd43359	-0.10361356
210	0xbe6f7a04	-0.23386389
211	0xbe5e15d4	-0.21688014
212	0xbe56a04e	-0.20959589
213	0xbdf50f88	-0.11965853
214	0xbe62e254	-0.2215665
215	0xbe0dce52	-0.13848236
216	0x3dbd0e72	0.09231271
217	0x3d10cccd	0.035351563
218	0x3d8f6f81	0.070036896
219	0x3ca224d8	0.01979296
220	0x3d83fba3	0.0644448
221	0x3d1c2b30	0.038127124
222	0x3d636356	0.055514656
223	0x3c9bf0d3	0.019035732
224	0x3df1ac34	0.11800423
225	0xbdcd4b16	-0.10024087
226	0xbe2ae494	-0.16688758
227	0xbdc7d8f0	-0.097581744
228	0xbe3931f5	-0.18085463
229	0xbe8f7466	-0.28018492
230	0xbe184398	-0.14869535
231	0xbdd213f1	-0.1025771
232	0xbe1c52ac	-0.15265912
233	0xbd75fe8a	-0.0600572
234	0xbd686cae	-0.05674427
235	0x3b9d764a	0.004805361
236	0xbd0c2a1e	-0.034219854
237	0x3cd4280f	0.025898008
238	0xbd3b645b	-0.045750003
239	0x3b5e2457	0.0033896172
240	0xbdaef8ec	-0.08543572
241	0x3d07dddb	0.033170562
242	0xbdb1dee4	-0.08685091
243	0x3af8daed	0.0018986143
244	0xbdb98278	-0.09058088
245	0x3a65239b	0.00087409624
246	0xbe15289f	-0.14566277
247	0xbe06e979	-0.13175
248	0xbdf8028a	-0.12109859
249	0xbbe43e7f	-0.006965458
250	0xbdec23b8	-0.1153025
251	0x3cb38b43	0.021916991
252	0x3deed3da	0.11661501
253	0x3e1ccc29	0.15312256
254	0x3e19ddc6	0.15026006
255	0x3dedef3a	0.116178945

decoder_layers.block_0.transition.bias f4 [25]
0	0x3d8d6894	0.06904712
1	0x3cf553d3	0.029947197
2	0x3d10cecb	0.035353463
3	0xbb0ce1d5	-0.002149691
4	0x3d86bd4d	0.06579075
5	0x3bb7d084	0.005609574
6	0x3ca3743a	0.019952882
7	0xbd58fa05	-0.052972812
8	0x3cb6d3a2	0.022317711
9	0x3bbb8980	0.0057231784
10	0x3da7f5c2	0.082011715
11	0x3b0186a2	0.0019764085
12	0xbccb9499	-0.02485113
13	0x3b100c5e	0.0021980028
14	0x3db42e26	0.087978646
15	0x3d4d5c42	0.050136812
16	0x3d0750f9	0.033036206
17	0xbd906493	-0.07050433
18	0x3da0b2c5	0.078465976
19	0xbdad1fb2	-0.08453311
20	0x3d40d0ea	0.047074236
21	0xbd77d2e6	-0.060503863
22	0xbc1aefb0	-0.00945656
23	0x3c54737c	0.012966987
24	0x3d5a56fb	0.053305607

decoder_layers.block_0.conv.weight f4 [100, 25, 1, 1]
0	0x3d0b62a3	0.034029614
1	0x3c58d4da	0.0132343415
2	0x3e002792	0.12515095
3	0x3c8bd3d7	0.017068787
4	0x3d0c8b79	0.0343127
5	0xbe3745e0	-0.17897749
6	0xbde58593	-0.11207118
7	0xbc20a4b3	-0.009804892
8	0xbe1001e8	-0.14063227
9	0xbde16fc4	-0.11007646
10	0x3e68e523	0.22743659
11	0x3d9a8e65	0.07546691
12	0x3e50238f	0.20326065
13	0x3dd87eec	0.105710834
14	0x3dd366dd	0.10322354
15	0xbd5921df	-0.053010818
16	0x3d4e7f9d	0.05041467
17	0xbdcc6b03	-0.09981348
18	0xbbd72aa7	-0.006566364
19	0x3d9c98b0	0.0764631
20	0xba9db2cc	-0.0012031435
21	0xbd6ebf86	-0.05828812
22	0xbe2e94a9	-0.17048897
23	0xbdef38ba	-0.116807416
24	0x3d9141b5	0.07092611
25	0x3e208929	0.15677322
26	0xbe46223a	-0.19348994
27	0x3d284d34	0.04108925
28	0xbd704f84	-0.058669582
29	0x3dc35eb1	0.09539545
30	0x3b7e748d	0.0038826794
31	0xbc158013	-0.009124774
32	0x3e30f764	0.17281872
33	0x3d77ca88	0.060495883
34	0xbcc5a4ba	-0.0241264
35	0xbb6869b9	-0.0035463406
36	0x3e6b863b	0.23000424
37	0x3d41ba3a	0.04729674
38	0x3e0387d6	0.12844786
39	0x3e3de29e	0.18543479
40	0xbdb3baba	-0.0877585
41	0x3e236966	0.15958175
42	0x3cfee55d	0.031115228
43	0x3de442c9	0.11145551
44	0x3deea8d9	0.11653299
45	0x3d865aef	0.06560313
46	0x3c51e8fc	0.012811895
47	0x3a421fd4	0.00074052555
48	0xbce67296	-0.02813081
49	0xbeaac0c9	-0.33350208
50	0xbb5b1090	-0.003342662
51	0xbd81d4b8	-0.06339401
52	0x3d8bd9bf	0.06828641
53	0xbc258a6a	-0.010103801
54	0x3e411664	0.18856198
55	0x3e31ddfa	0.17369834
56	0x3e053d92	0.13011768
57	0xbc63ba4f	-0.0138994
58	0x3e5f1f1a	0.21789208
59	0xbe81b303	-0.25331888
60	0xbcea8a05	-0.028630266
61	0xbd3e5e9c	-0.046476945
62	0x3e3df9e8	0.18552363
63	0xbdc4d25d	-0.09610436
64	0xbe287509	-0.16450895
65	0xbdb05566	-0.086100385
66	0xbe0cf69f	-0.13765953
67	0xbd148771	-0.03626198
68	0x3e241863	0.16024928
69	0x3d1b286c	0.037880346
70	0xbd0f9bd3	-0.035060715
71	0x3da1a507	0.078928046
72	0xbdc07e2c	-0.093990654
73	0x3ea49400	0.32144165
74	0xbe848ba7	-0.25887796
75	0xbd63ba28	-0.055597454
76	0x3e360f05	0.17779167
77	0x3d79c0f2	0.060975023
78	0xbcda92e5	-0.026681373
79	0xbe70bf35	-0.2351044
80	0x3d97c704	0.07411006
81	0xbe7f87e5	-0.24954183
82	0xba726d25	-0.0009247831
83	0x3cedf60a	0.029047985
84	0xbd8171a3	-0.063205026
85	0x3d41d351	0.047320668
86	0x3e258441	0.16163732
87	0x3d9d4982	0.07680036
88	0xbdbca9eb	-0.09212097
89	0xbd354fe3	-0.04426564
90	0xbca0c9af	-0.01962742
91	0x3d9f760e	0.07786189
92	0xbdab8978	-0.083758295
93	0x3e5e535b	0.21711485
94	0xbcd3e603	-0.025866514
95	0x3c34cba8	0.011034884
96	0xbcfa5754	-0.03055922
97	0x3db57031	0.088592894
98	0xbe043aa7	-0.12912999
99	0xbd907bd6	-0.0705487
100	0x3e1cecfd	0.15324779
101	0xbd1bfbdc	-0.03808199
102	0x3e18a3e4	0.1490627
103	0x3e2cc7b2	0.16873053
104	0x3e431983	0.190527
105	0x3c3f6676	0.011682143
106	0x3d1aa059	0.037750576
107	0xbe49d662	-0.19710687
108	0xbe2dd433	-0.16975479
109	0x3d61ca3a	0.0551245
110	0xbdc8936a	-0.09793742
111	0xbdc933f3	-0.09824362
112	0xbde34429	-0.11096985
113	0x3dbd1171	0.09231842
114	0xbe16f8bd	-0.14743324
115	0xbce7823c	-0.028260343
116	0x3d7737f3	0.06035609
117	0xbd951d3a	-0.07280965
118	0x3d6520e6	0.055939578
119	0xbde9e498	-0.11420554
120	0x3b6f5f5c	0.0036525344
121	0x3d590751	0.052985493
122	0x3d43e84b	0.047828954
123	0xbd190749	-0.037360463
124	0x3de86435	0.11347238
125	0xbda2eba6	-0.079551026
126	0x3d53bba8	0.051692635
127	0xbe8e20c7	-0.27759382
128	0xbda1ed59	-0.079065986
129	0x3d046d60	0.03233087
130	0xbc8bb813	-0.017055547
131	0xbd3f4693	-0.046698164
132	0x3dcea6bb	0.10090395
133	0x3e2524df	0.16127346
134	0xbe8196d6	-0.2531039
135	0x3da94342	0.082647815
136	0x3e1686b7	0.14699827
137	0x3e60b03a	0.21942225
138	0xbb0b6f75	-0.002127615
139	0x3e18f206	0.14936075
140	0xbe3ea8df	-0.18619107
141	0xbca3aca1	-0.019979777
142	0xbd945644	-0.07243016
143	0x3d5d6b8d	0.054057647
144	0x3e69bf1e	0.22826812
145	0xbd11bf99	-0.035583112
146	0xbc989021	-0.018623414
147	0xbe6a9513	-0.2290843
148	0x3e08e1fc	0.13367456
149	0x3e9fe391	0.31228307
150	0x3daf28cd	0.08552704
151	0xbccc029d	-0.02490359
152	0x3cba6baa	0.022756416
153	0x3db130ca	0.08651884
154	0x3d35b357	0.044360485
155	0x3dc2f956	0.09520213
156	0x3db82f50	0.08993399
157	0xbd74127a	-0.059587933
158	0xbcf63f71	-0.030059548
159	0x3bb022a8	0.005375225
160	0x3d5e2705	0.05423643
161	0x3dfe8c7b	0.12429138
162	0xbceadf03	-0.028670793
163	0xbe29e6fd	-0.16592021
164	0x3e0bba2e	0.1364524
165	0x3dea341a	0.11435719
166	0x3db91095	0.09036366
167	0xbd5bc903	-0.053658497
168	0xbb25b51e	-0.0025284956
169	0xbd2f524d	-0.042803098
170	0xbcadaa54	-0.021199383
171	0x3be71fad	0.0070533366
172	0x3e1f7818	0.15573156
173	0x3c9c60bd	0.019089097
174	0xbd60301a	-0.054733373
175	0x3d65c185	0.056092758
176	0xbd0f8313	-0.03503711
177	0xbd420627	-0.04736915
178	0x3cac91dd	0.021065647
179	0x3e05dbd7	0.13072143
180	0xbe0029d4	-0.12515956
181	0xbdd3e5ff	-0.10346603
182	0xbd529b93	-0.0514179
183	0x3d93bfd2	0.07214321
184	0xbd09b1b3	-0.033616733
185	0x3d3751e8	0.044755846
186	0x3da5b1f7	0.08090585
187	0xbc7d5599	-0.015462303
188	0x3cb4735a	0.02202766
189	0x3dc9867b	0.09840103
190	0xbd094277	-0.03351065
191	0x3d6966c6	0.056982778
192	0xbd004966	-0.03132
193	0xbcebf2a3	-0.028802222
194	0xbd972e8e	-0.073819265
195	0xbd33577b	-0.0437846
196	0xbddb3309	-0.107030936
197	0xbd8d28b8	-0.06892532
198	0xbdc057d3	-0.09391751
199	0xbddefe6b	-0.1088837
200	0xbc04c352	-0.008103209
201	0xbd3b91ea	-0.04579345
202	0x3e1b8afd	0.15189739
203	0x3d8881fe	0.06665419
204	0xbde461d1	-0.111514695
205	0x3cd7a265	0.026322553
206	0xbdb605b3	-0.08887806
207	0x3ddf3e81	0.109005935
208	0xbc88f998	-0.016720578
209	0x3de212a3	0.11038711
210	0x3d872ea0	0.0660069
211	0x3d696609	0.056982074
212	0x3d6caef5	0.05778404
213	0xbe199220	-0.14997149
214	0x3e6b2bd6	0.22965941
215	0x3dfbe985	0.123004
216	0x3d8729f9	0.065998025
217	0x3e454dfc	0.1926803
218	0x3e1dbf9b	0.15405123
219	0xbd3514fa	-0.044209458
220	0xbe6318e6	-0.22177467
221	0xbe283454	-0.16426212
222	0x3ca1056c	0.019655906
223	0xbd3c1c49	-0.045925412
224	0xbe0fd44c	-0.14045829
225	0xbc4fb163	-0.01267657
226	0xbd6daee4	-0.058028117
227	0xbd3a3f16	-0.04547032
228	0xbcd3f6bb	-0.025874486
229	0x3be721f7	0.0070536095
230	0xbe2394cf	-0.15974735
231	0x3cdf12a3	0.027230566
232	0xbe0873c0	-0.13325405
233	0x3dec6ee2	0.11544587
234	0xbdb1fe44	-0.086910754
235	0xbcd05fc6	-0.025436293
236	0xbd0eed67	-0.034894373
237	0xbd7a816c	-0.061158583
238	0x3cf3f99f	0.029782115
239	0x3d5f216a	0.054475226
240	0x3d03f031	0.032211486
241	0x3e257a14	0.1615985
242	0x3e573f4e	0.21020243
243	0x3d7e24d2	0.062046833
244	0x3c2180f0	0.009857401
245	0xbd5e6bf6	-0.05430218
246	0xbd26593d	-0.040612448
247	0xbdada147	-0.08478027
248	0xbd63483c	-0.05548881
249	0xbe2b23a1	-0.1671281
250	0x3e26b43f	0.16279696
251	0xbde7a380	-0.11310482
252	0x3d7572d2	0.059923954
253	0x3e8864c0	0.26639366
254	0x3e0089bc	0.12552541
255	0xbce3fee5	-0.027831504
