trainedModels/wave/batchSize/baseline/128/run4/model.pt (torch, 68993 bytes, 11 tensors)

init.weight f4 [8, 1, 1, 1]
-0.3651178 -1.1963319 0.32303095 0.27299395 -0.58530164 0.83364123 1.0696231 1.270183
00000000: b8f0 babe 6721 99bf 5064 a53e ddc5 8b3e
00000010: 54d6 15bf 8369 553f 69e9 883f 5b95 a23f

init.bias f4 [8]
0.12401974 0.044739466 -0.26295057 0.056103628 0.732362 0.4968335 0.5267676 0.28907114
00000000: 10fe fd3d bb40 373d 75a1 86be ebcc 653d
00000010: 137c 3b3f f660 fe3e 3eda 063f 2201 943e

encoder_layers.block_0.conv.weight f4 [32, 16, 3, 3]
-0.085707605 0.042029604 -0.04293724 -0.09868032 0.01097689 -0.037365768 -0.0029311848 -0.014327599
-0.0390929 -0.1130292 -0.04454675 -0.14645132 -0.19740145 -0.08933157 -0.18520558 -0.26808664
-0.20945212 -0.24305232 0.023975559 -0.022266343 -0.027683327 -0.04589978 0.07249956 -0.008706124
0.011029141 -0.06854218 0.015331146 0.08523904 -0.012497501 0.03995213 0.005559021 -0.029833747
0.034854222 0.02469108 0.0036673641 -0.04729216 -0.009400685 0.04678513 0.0014839676 -0.02393587
0.0059925374 -0.02065482 -0.04166522 0.072192825 -0.07337837 -0.031740386 0.016124958 -0.0048305946
-0.007001205 0.032267716 -0.081835456 -0.025183102 0.04781624 0.05692442 -0.031095782 -0.06811395
0.045464594 0.038269762 0.02397908 0.0043346835 0.023851221 -0.07838766 0.081047684 0.080868214
0.007507162 0.07755864 -0.004071843 0.051566955 0.07509127 -0.05835342 -0.038787864 -0.021611078
-0.100886896 0.07973794 -0.07798221 -0.06403996 0.03631252 0.04223321 -0.07241058 0.11002048
0.10310489 0.069531664 0.06343314 0.0040319967 -0.05006525 0.033479325 -0.06240898 -0.034978636
0.015439894 -0.057038695 -0.020115644 0.047228653 0.057781305 -0.02364026 0.048745383 -0.031693824
0.0012843682 -0.085805126 0.058723528 0.0074629323 -0.022991814 -0.013295071 -0.034585275 -0.011549021
0.041297838 0.026426723 0.0023304562 -0.010524239 0.025462082 -0.106422395 -0.10306534 0.044790093
-0.088331655 -0.04484686 -0.011974079 -0.04877219 -0.017404504 -0.048539754 0.04276949 -0.020360153
-0.022706473 0.023831341 -0.044113997 0.03804237 -0.033756945 -0.11716091 0.028505951 0.05052059
0.044133496 -0.101357944 -0.014966429 -0.07300425 -0.068268105 0.0693797 0.016097713 -0.007947773
0.033510026 0.095604 0.0123574585 -0.12802131 -0.026815236 0.01486562 -0.06820097 -0.019749852
-0.06803679 -0.008357478 0.0003251844 0.074962325 -0.052517064 0.020873735 0.00954459 -0.05852283
0.08057145 0.029203976 0.1848014 0.15757231 0.19304189 0.13852575 0.20189795 0.23004195
0.11379055 0.142875 -0.051090933 0.009761264 0.020245876 -0.06444551 -0.06558162 -0.02303922
0.0137607595 0.08224009 -0.0016600149 -0.08636575 0.06409954 0.024070123 -0.06324077 -0.058246136
-0.06874692 -0.024342425 0.047638796 0.05557103 0.0037402378 0.01764232 -0.01591367 -0.0067141047
0.06951279 0.030542774 0.059753623 0.049626008 -0.06805503 -0.08036552 -0.07829676 0.04078407
-0.022625206 0.027912173 0.0048563974 -0.09005822 0.0036013892 -0.056881525 0.04497844 -0.025027093
0.010166258 -0.08229385 0.04382048 -0.08166898 0.012474454 -0.026464967 -0.06542974 -0.015469717
0.0048061586 0.0612322 0.03136351 -0.056318305 -0.05871192 -0.012624531 0.0499514 -0.008351823
0.04159433 -0.069503926 0.024171704 0.06265394 0.010918553 -0.05830393 0.010832269 -0.056558702
-0.006940979 -0.039834574 -0.0027431245 0.07731735 0.040980347 0.050238747 0.05087319 -0.005806313
-0.020533161 0.056215852 -0.04734637 0.052824363 -0.033881497 -0.012628219 0.110833526 0.0058404617
0.03679095 0.052216984 -0.053277563 -0.05573979 -0.08277624 -0.09138384 -0.10120889 -0.06650419
-0.11169211 -0.07907028 -0.11858786 0.01269984 -0.051542584 0.08481918 0.036930405 0.0672224
00000000: 7887 afbd 3c27 2c3d f6de 2fbd e818 cabd
00000010: 6ad8 333c d90c 19bd 1f19 40bb 4ebe 6abc
00000020: e01f 20bd da7b e7bd a776 36bd 56f7 15be
00000030: 9b23 4abe 78f3 b6bd 88a6 3dbe a742 89be
00000040: 9e7a 56be b5e2 78be 6468 c43c e867 b6bc
00000050: 25c8 e2bc 6801 3cbd a67a 943d 21a4 0ebc
00000060: 92b3 343c d85f 8cbd 7d2f 7b3c ce91 ae3d
00000070: 52c2 4cbc d8a4 233d 7328 b63b e765 f4bc
00000080: 4dc3 0e3d f344 ca3c 2958 703b 6db5 41bd
00000090: 5505 1abc c4a1 3f3d b181 c23a 2815 c4bc
000000a0: 0c5d c43b 4c34 a9bc 26a9 2abd d5d9 933d
000000b0: 6647 96bd 3502 02bd 7d18 843c f749 9ebb
000000c0: 5d6a e5bb 272b 043d 5999 a7bd cb4c cebc
000000d0: f6da 433d 9529 693d 95bc febc 547f 8bbd
000000e0: 1539 3a3d c1c0 1c3d c76f c43c f609 8e3b
000000f0: a363 c33c b689 a0bd 54fc a53d 3c9e a53d
00000100: a4fe f53b 10d7 9e3d 186d 85bb df37 533d
00000110: 74c9 993d ff03 6fbd 06e0 1ebd b709 b1bc
00000120: ca9d cebd a54d a33d 23b5 9fbd 6227 83bd
00000130: 70bc 143d bbfc 2c3d 004c 94bd 6b52 e13d
00000140: a828 d33d 9e66 8e3d 3ce9 813d d71e 843b
00000150: 3811 4dbd 9e21 093d 8fa0 7fbd c245 0fbd
00000160: 9cf7 7c3c 68a1 69bd 90c9 a4bc d572 413d
00000170: 17ac 6c3d 38a9 c1bc 3da9 473d 62d1 01bd
00000180: 3f58 a83a 99ba afbd 1588 703d 9d8b f43b
00000190: 5459 bcbc 92d3 59bc 4aa9 0dbd 1b38 3dbc
000001a0: ec27 293d db7c d83c 91ba 183b dc6d 2cbc
000001b0: db95 d03c fcf3 d9bd ec13 d3bd d175 373d
000001c0: 3ae7 b4bd 57b1 37bd ed2e 44bc 59c5 47bd
000001d0: e493 8ebc 9fd1 46bd 102f 2f3d 56ca a6bc
000001e0: ed02 babc f239 c33c e1b0 34bd 51d2 1b3d
000001f0: b944 0abd 0ff2 efbd 5085 e93c aeee 4e3d
00000200: 53c5 343d c194 cfbd c135 75bc 4183 95bd
00000210: 26d0 8bbd f216 8e3d 5adf 833c 6037 02bc
00000220: cf41 093d 08cc c33d f076 4a3c 0518 03be
00000230: a0ab dbbc ee8e 733c f3ac 8bbd 71ca a1bc
00000240: df56 8bbd ceed 08bc 837d aa39 d985 993d
00000250: 221c 57bd 65ff aa3c e960 1c3c a3b5 6fbd
00000260: a502 a53d 2d3d ef3c 943c 3d3e a35a 213e
00000270: c6ac 453e b2d9 0d3e 56be 4e3e 1e90 6b3e
00000280: 050b e93d d34d 123e ba44 51bd b5ed 1f3c
00000290: aeda a53c 02fc 83bd a84f 86bd bfbc bcbc
000002a0: cf74 613c 7e6d a83d db94 d9ba 87e0 b0bd
000002b0: 9f46 833d b52e c53c 6084 81bd 8093 6ebd
000002c0: 2fcb 8cbd c469 c7bc e620 433d 739e 633d
000002d0: c71e 753b a086 903c 635d 82bc fe01 dcbb
000002e0: b95c 8e3d d734 fa3c 37c0 743d a444 4b3d
000002f0: 7060 8bbd ae96 a4bd 0d5a a0bd 320d 273d
00000300: 7f58 b9bc 12a8 e43c 6a22 9f3b 7270 b8bd
00000310: 4905 6c3b 9afc 68bd 503b 383d 9e05 cdbc
00000320: 6090 263c ae89 a8bd 1b7d 333d 1142 a7bd
00000330: a761 4c3c 0fcd d8bc 0700 86bd b274 7dbc
00000340: fb7c 9d3b 9ece 7a3d 0677 003d 06ae 66bd
00000350: e97b 70bd 1fd7 4ebc d799 4c3d 16d6 08bc
00000360: d15e 2a3d 1358 8ebd bd03 c63c b550 803d
00000370: bbe3 323c 1ad0 6ebd d479 313c 19aa 67bd
00000380: 2771 e3bb 9429 23bd fec5 33bb 8f58 9e3d
00000390: 02db 273d 25c7 4d3d 6860 503d e242 bebb
000003a0: 2935 a8bc 9842 663d 44ee 41bd 5c5e 583d
000003b0: 53c7 0abd 97e6 4ebc b0fc e23d 5861 bf3b
000003c0: 1bb2 163d 7ae1 553d 9339 5abd 684f 64bd
000003d0: 9786 a9bd 7327 bbbd 9b46 cfbd 5933 88bd
000003e0: d5be e4bd 99ef a1bd 31de f2bd fd12 503c
000003f0: 511e 53bd aeb5 ad3d 5644 173d e6ab 893d

encoder_layers.block_0.conv.bias f4 [32]
-0.034857552 0.055476516 0.057846166 -0.04079238 -0.0697593 0.018441197 -0.06679223 -0.053606812
-0.01109663 0.053521033 -0.018976795 -0.037105795 0.0045356653 0.112539455 -0.038206086 0.045545757
0.03857265 -0.10381329 0.054461364 0.044471603 0.03050955 0.028881373 -0.07427646 0.08212469
-0.03396579 0.003101958 0.07497871 0.027272528 0.043442544 -0.06851595 -0.09499075 -0.08480261
00000000: cbc6 0ebd 583b 633d 1af0 6c3d e915 27bd
00000010: f7dd 8ebd fe11 973c 5dca 88bd d192 5bbd
00000020: a4ce 35bc df38 5b3d 3975 9bbc 3ffc 17bd
00000030: eb9f 943b 167b e63d fc7d 1cbd 308e 3a3d
00000040: 5bfe 1d3d 109c d4bd e112 5f3d db27 363d
00000050: 2aef f93c a198 ec3c 421e 98bd fd30 a83d
00000060: b61f 0bbd 384a 4b3b 708e 993d a36a df3c
00000070: cff0 313d 1752 8cbd 838a c2bd feac adbd

encoder_layers.block_1.conv.weight f4 [32, 16, 3, 3]
-0.05240444 -0.027397372 0.010623569 -0.03367209 0.021426728 -0.0946869 -0.04421901 -0.00082056364
-0.009549885 -0.035461742 0.032087967 -0.061478116 -0.07450699 -0.06323142 -0.057357296 0.008805328
-0.014913313 0.07480339 -0.061825678 0.004442578 -0.03469815 0.07778902 -0.06631138 -0.009371448
-0.0771251 0.033976905 0.020398295 0.042169806 0.0074115456 0.06455619 -0.0352608 -0.04893807
0.05792689 0.027081426 0.004036283 0.005404213 -0.045966323 -0.060125194 -0.025123375 0.023367794
-0.049874593 -0.03225511 -0.0060594347 0.016458603 0.06716591 0.029144112 -0.029716343 -0.03227638
-0.05796078 -0.029166903 -0.0111822 0.027287109 -0.0151991 0.044963755 0.0012420698 0.010182731
0.028270276 0.05285995 0.034013726 -0.02148452 0.07549127 0.032394793 -0.073421195 0.06062815
0.012270728 -0.05975668 0.07512252 0.05554249 0.042235784 0.010682137 0.05793892 0.065906845
0.063451804 -0.06401468 -0.072736636 0.024737908 0.045575004 -0.04139882 -0.05566648 -0.06928828
0.02683135 -0.048654906 0.035764337 0.07469872 -0.06710135 -0.022957016 0.03560062 0.009576628
-0.03181835 -0.05439405 0.05050291 0.039889675 -0.009319343 0.07436498 -0.061395094 0.006498354
0.061807714 -0.019365858 0.013422642 -0.08364404 0.059210043 0.035695255 -0.039298743 -0.045674346
-0.011733006 0.018360283 0.0070857815 -0.013095467 0.052218415 -0.000108572814 -0.0056951256 0.06734011
-0.032462638 -0.009858022 0.008873977 0.05133973 -0.013243549 -0.03417697 0.04793278 -0.035907887
-0.017443698 -0.075048395 -0.023223592 -0.00096088706 -0.034196522 -0.030525068 -0.051805176 0.04796465
0.047013424 -0.01444264 -0.07769964 -0.004589334 -0.066708185 0.061491717 0.027696827 -0.035977826
0.013249612 0.041896187 -0.08236855 0.0025655231 0.04495533 -0.01669233 0.0051786704 -0.04783841
-0.0564851 -0.08185393 -0.03960025 0.032132514 -0.041148752 -0.0014302583 -0.022837477 -0.0464467
-0.07363973 0.0015435615 0.03086513 0.040850144 -0.035180014 0.012409848 0.05208014 -0.067968324
0.04046538 0.043306928 0.01713986 0.01482989 0.053093974 -0.036869705 -0.06693055 -0.06035048
-0.013097905 -0.06299825 0.03057747 -0.006563389 -0.061257668 0.03019875 0.09650622 0.023796702
-0.051706336 0.061911467 -0.023042921 0.07928754 0.0036648288 0.0018163628 0.025027167 0.054527506
-0.03646768 0.07592964 0.07536263 -0.014932186 0.07101718 0.028973002 0.062415842 -0.057065107
0.08260197 0.10810635 -0.031589795 -0.027453836 0.08168889 0.013909997 -0.038963184 0.011397726
0.031644564 0.0077980924 0.00976184 -0.013536169 -0.006060159 0.009449811 -0.06961315 -0.053389344
0.07181509 0.14321062 -0.056437206 0.018395493 0.06384744 0.006263689 -0.08781612 -0.07836355
0.03651038 -0.06131754 0.029612402 0.052929603 -0.06329656 -0.004522676 0.048169296 -0.005458025
-0.051112264 0.026572712 -0.08654987 -0.09581917 -0.00308219 0.031159313 0.024955405 0.073220834
-0.015546846 0.06559368 0.08791451 -0.035548106 0.10849802 0.092928216 0.07833147 -0.028887773
0.162022 -0.030966945 -0.0029771426 -0.07482037 0.006069552 -0.029068787 0.06174501 0.016975936
-0.076506056 -0.05740651 -0.02999253 0.0009858207 0.010275722 -0.0011962737 -0.040279604 -0.020302208
00000000: 0aa6 56bd 7470 e0bc 7a0e 2e3c bfeb 09bd
00000010: 1b87 af3c 35eb c1bd fe1e 35bd 181b 57ba
00000020: 1f77 1cbc 5540 11bd ac6e 033d 7ad0 7bbd
00000030: 1f97 98bd 7a7f 81bd 7cef 6abd 3944 103c
00000040: f856 74bc 8532 993d ec3c 7dbd 0c93 913b
00000050: a61f 0ebd da4f 9f3d 43ce 87bd b48a 19bc
00000060: c4f3 9dbd 5e2b 0b3d 531a a73c 3fba 2c3d
00000070: 8ddc f23b 0936 843d a16d 10bd 4973 48bd
00000080: bf44 6d3d ded9 dd3c cc42 843b d315 b13b
00000090: 2f47 3cbd d645 76bd 89cf cdbc d16d bf3c
000000a0: 4d49 4cbd ef1d 04bd 398e c6bb 31d4 863c
000000b0: 488e 893d a2bf ee3c b06f f3bc 3d34 04bd
000000c0: 4868 6dbd 6eef eebc 8c35 37bc 3789 df3c
000000d0: a505 79bc ea2b 383d f2cc a23a 78d5 263c
000000e0: 1197 e73c ad83 583d fa51 0b3d 4e00 b0bc
000000f0: 2b9b 9a3d 67b0 043d da5d 96bd 3955 783d
00000100: 2a0b 493c 6cc3 74bd d6d9 993d 8680 633d
00000110: 6eff 2c3d 2104 2f3c 5c51 6d3d 2bfa 863d
00000120: 05f3 813d 211a 83bd f2f6 94bd 27a7 ca3c
00000130: dbac 3a3d cf91 29bd 8902 64bd 04e7 8dbd
00000140: 6bcd db3c 5e4a 47bd a07d 123d a4fb 983d
00000150: 6f6c 89bd 5a10 bcbc f5d1 113d 4ae7 1c3c
00000160: f553 02bd 4ccc 5ebd 24dc 4e3d 5b63 233d
00000170: 28b0 18bc ab4c 983d 6c79 7bbd 25f0 d43b
00000180: 162a 7d3d 26a5 9ebc a4ea 5b3c 914d abbd
00000190: 3b86 723d 3035 123d b8f7 20bd 0615 3bbd
000001a0: cb3b 40bc 4e68 963c d82f e83b 5f8e 56bc
000001b0: fae2 553d 96b1 e3b8 2d9e babb 9de9 893d
000001c0: 8bf7 04bd 8b83 21bc 2864 113c 9c49 523d
000001d0: 78fb 58bc 27fd 0bbd 2a55 443d 2614 13bd
000001e0: 16e6 8ebc f9b2 99bd 673f bebc 0ae4 7bba
000001f0: a711 0cbd b50f fabc aa31 54bd 9576 443d
00000200: 2691 403d d3a0 6cbc fd20 9fbd 2062 96bb
00000210: 4d9e 88bd bdde 7b3d 75e4 e23c 7c5d 13bd
00000220: e714 593c 569b 2b3d d8b0 a8bd 5622 283b
00000230: 1523 383d 5abe 88bc d6b1 a93b 35f2 43bd
00000240: ec5c 67bd 09a3 a7bd df33 22bd 629d 033d
00000250: 988b 28bd 8177 bbba a915 bbbc e53e 3ebd
00000260: 6dd0 96bd 5451 ca3a ded8 fc3c 7b52 273d
00000270: eb18 10bd ad52 4b3c fc51 553d fa32 8bbd
00000280: 07bf 253d 9b62 313d e468 8c3c 11f9 723c
00000290: 1179 593d b004 17bd e212 89bd 1132 77bd
000002a0: 9898 56bc 3a05 81bd 9a7d fa3c b311 d7bb
000002b0: 52e9 7abd 5e63 f73c 0ea5 c53d 4df1 c23c
000002c0: 06ca 53bd e196 7d3d 82c4 bcbc 8161 a23d
000002d0: a02d 703b 0613 ee3a c605 cd3c 3c58 5f3d
000002e0: 225f 15bd 0081 9b3d b957 9a3d 21a6 74bc
000002f0: 7571 913d ca58 ed3c c1a7 7f3d 1abd 69bd
00000300: 392b a93d dd66 dd3d 4d64 01bd dee6 e0bc
00000310: 814c a73d c2e6 633c dc97 1fbd 87bd 3a3c
00000320: bb9d 013d 2487 ff3b 20f0 1f3c cfc6 5dbc
00000330: 4c94 c6bb 61d3 1a3c 5791 8ebd c9ae 5abd
00000340: ca13 933d cea5 123e b32a 67bd 25b2 963c
00000350: 72c2 823d a23f cd3b f0d8 b3bd 127d a0bd
00000360: e98b 153d 1a28 7bbd b595 f23c b6cc 583d
00000370: a0a1 81bd f532 94bb 2b4d 453d 3bd9 b2bb
00000380: 185b 51bd 04af d93c 0f41 b1bd d73c c4bd
00000390: 91fe 49bb d141 ff3c 476f cc3c cef4 953d
000003a0: 33b8 7ebc fb55 863d 860c b43d e49a 11bd
000003b0: 3634 de3d 2651 be3d 406c a03d 0da6 ecbc
000003c0: 18e9 253e 64ae fdbc 2a1c 43bb 6c3b 99bd
000003d0: 18e3 c63b aa21 eebc 56e8 7c3d 1e11 8b3c
000003e0: 35af 9cbd 1723 6bbd e5b2 f5bc a736 813a
000003f0: 805b 283c 49cc 9cba 3afc 24bd d150 a6bc

encoder_layers.block_1.conv.bias f4 [32]
0.004361004 0.05171735 -0.0032967553 0.06360829 -0.068940625 0.020801531 -0.05238928 -0.057747055
0.041254006 0.036232483 0.0064812247 -0.0067889756 0.015836917 -0.056319736 0.0258782 -0.028324706
0.0021803179 -0.012061527 -0.019328732 0.03312377 0.059316736 0.0081661185 -0.026780168 0.014655086
-0.015015413 0.024316013 0.020647883 -0.05162862 0.011413485 0.008793949 -0.039551664 0.024119386
00000000: c1e6 8e3b 92d5 533d 600e 58bb 1045 823d
00000010: be30 8dbd f967 aa3c 2496 56bd 2d88 6cbd
00000020: f6f9 283d 8368 143d 7460 d43b 0e76 debb
00000030: 6cbc 813c 86af 66bd 85fe d33c 3709 e8bc
00000040: aae3 0e3b b69d 45bc 4a57 9ebc caac 073d
00000050: 1bf6 723d 2fcb 053c 1562 dbbc e31b 703c
00000060: 3503 76bc 6032 c73c c025 a93c 8878 53bd
00000070: a0ff 3a3c 7f14 103c ed00 22bd 0596 c53c

decoder_layers.block_0.conv.weight f4 [32, 8, 3, 3]
0.07534628 0.07792702 -0.11159945 0.027308745 -0.12819925 -0.046259195 0.043121506 -0.10239337
0.047833826 -0.115605325 0.068499185 0.11532011 -0.08386549 0.07786661 -0.03318103 0.05850164
0.011208823 0.009671765 -0.080708936 -0.13603769 -0.10118348 -0.072745934 0.04344195 -0.06908426
0.096124515 -0.07548585 0.09267816 0.020029595 0.055677243 -0.023106517 0.0030592093 0.027233958
0.086199984 0.08928186 0.09279335 -0.09385362 0.07976671 -0.017414128 -0.009135341 -0.05091984
-0.028987452 0.1063292 -0.057153575 -0.09601094 0.04865004 0.07322017 -0.09626938 -0.0436566
0.11788325 0.004191413 -0.07373035 0.013289537 -0.04186642 0.0066066436 0.03494405 0.035978634
0.019278072 -0.008378105 -0.052757826 0.0022861527 -0.06674056 0.07156484 0.13002963 0.04477334
0.08697247 -0.07609725 -0.075505115 -0.12437507 0.055167027 -0.09372166 0.07612497 0.019011112
-0.012862482 -0.067035116 0.059085086 -0.016977122 0.07094607 0.0015078236 0.14376688 -0.077969305
-0.06569595 -0.0077304016 -0.1551818 -0.14042132 -0.079851165 0.07507834 0.08569509 0.041167308
0.078153245 -0.07083151 0.23301065 0.17235497 -0.021827169 0.25545177 0.16481161 0.029005097
-0.039333887 -0.016284117 0.031838413 -0.055976152 -0.052971862 -0.023243612 0.10885821 -0.065369196
-0.1138951 0.04900957 -0.06884457 0.034016833 0.056228485 0.010022899 -0.0054312204 -0.06483526
0.0034096965 -0.07258777 0.013456937 -0.10959058 -0.04500775 -0.06687771 -0.080620304 0.045712832
0.034608092 -0.0014083376 -0.051614165 0.030823633 0.07876314 -0.04441728 -0.07338621 0.04489748
-0.019518234 0.098450825 0.10424113 0.10509437 -0.039134752 -0.033855814 0.02176095 0.014456598
-0.12585166 -0.031107444 -0.13662627 0.104168445 -0.018558307 0.1006746 0.08217279 0.04004083
0.020311765 -0.105907686 0.08137833 0.004676026 -0.017881045 0.07898159 -0.011255164 -0.04397189
-0.021584013 0.03161028 0.037720073 -0.0075690546 0.07507079 -0.09205318 0.08212266 0.006964932
0.020027004 -0.10130598 0.10377704 -0.019444285 0.082305096 -0.030040452 0.00821663 0.02721051
0.15347983 0.05828394 0.13687423 0.011419696 0.02265964 -0.06955071 -0.053248595 0.06963844
-0.031457722 -0.024573449 0.06853623 -0.061949402 -0.105101325 0.057809763 0.009648093 -0.095662035
0.0032084961 -0.011322529 0.0045435117 -0.0062298947 -0.05706624 0.012183875 0.028469348 -0.050554793
-0.04045722 -0.09923922 -0.10947895 -0.040162068 0.073576726 -0.08547856 -0.077381805 0.023157941
-0.06692904 -0.043430425 -0.004347182 -0.031544458 0.047567718 -0.04530111 -0.09810414 -0.101814836
0.0013610062 0.003174092 0.019561647 0.09310489 -0.04613046 0.010687868 -0.037000142 -0.10674947
0.0909893 -0.029148916 0.11406188 -0.013380141 0.16925317 0.058830433 -0.0805833 0.07606936
0.04722142 -0.037412155 0.09276919 0.1202623 0.010978518 0.06214233 -0.0044166865 -0.067414075
-0.0037281597 0.05847902 0.03036165 0.06462495 0.046654116 0.002709476 0.09313235 -0.08091182
0.086192675 0.05556694 0.17337628 -0.13672318 -0.03832603 -0.14404531 -0.03344916 -0.08927326
0.10219242 0.11850941 -0.0072527337 0.09332895 -0.003522738 0.008835307 0.0042668567 0.013165898
00000000: 274f 9a3d 3498 9f3d 418e e4bd 97b6 df3c
00000010: aa46 03be 487a 3dbd 2da0 303d 9db3 d1bd
00000020: 67ed 433d 7cc2 ecbd 4d49 8c3d f32c ec3d
00000030: acc1 abbd 8778 9f3d d5e8 07bd 6a9f 6f3d
00000040: 36a5 373c 5376 1e3c ba4a a5bd 774d 0bbe
00000050: 4939 cfbd d2fb 94bd 30f0 313d 0c7c 8dbd
00000060: eedc c43d 5398 9abd 0cce bd3d 1b15 a43c
00000070: d20d 643d e149 bdbc 047d 483b c019 df3c
00000080: 9e89 b03d 68d9 b63d 710a be3d 5436 c0bd
00000090: bb5c a33d 13a8 8ebc 66ac 15bc 5291 50bd
000000a0: 1877 edbc 20c3 d93d de19 6abd 62a1 c4bd
000000b0: 4445 473d 75f4 953d e128 c5bd 43d1 32bd
000000c0: c66c f13d 1f58 893b f0ff 96bd 5cbc 593c
000000d0: 207c 2bbd 8b7c d83b 7e21 0f3d 555e 133d
000000e0: 0ced 9d3c 5244 09bc 9718 58bd 47d3 153b
000000f0: 46af 88bd 9690 923d 7d26 053e 4064 373d
00000100: 9f1e b23d e0d8 9bbd 6da2 9abd 5bb8 febd
00000110: d2f6 613d 24f1 bfbd 69e7 9b3d 31bd 9b3c
00000120: 29bd 52bc b549 89bd 3403 723d 9b13 8bbc
00000130: 2c4c 913d 2aa2 c53a a037 133e 5fae 9fbd
00000140: 998b 86bd 4f4f fdbb fae7 1ebe 9bca 0fbe
00000150: 0289 a3bd acc2 993d e880 af3d 0d9f 283d
00000160: cf0e a03d 1c10 91bd 589a 6e3e d27d 303e
00000170: e4ce b2bc 93ca 823e 60c4 283e 199c ed3c
00000180: 921c 21bd 4566 85bc ff68 023d 4047 65bd
00000190: 06f9 58bd 6369 bebc 0ef1 de3d 49e0 85bd
000001a0: d641 e9bd 42be 483d 62fe 8cbd 3c55 0b3d
000001b0: d74f 663d 1637 243c 61f8 b1bb 59c8 84bd
000001c0: 3775 5f3b e6a8 94bd 7c7a 5c3c 0771 e0bd
000001d0: 0c5a 38bd 2ef7 88bd 421c a5bd 613d 3b3d
000001e0: 37c1 0d3d f897 b8ba 6069 53bd d881 fc3c
000001f0: 924e a13d e5ee 35bd 824b 96bd 6ce6 373d
00000200: b4e4 9fbc 96a0 c93d 607c d53d b83b d73d
00000210: c34b 20bd 65ac 0abd 0544 b23c 5edb 6c3c
00000220: 42df 00be 0ad5 febc c2e7 0bbe 4456 d53d
00000230: 9707 98bc 7c2e ce3d 354a a83d da01 243d
00000240: dc64 a63c 21e6 d8bd afa9 a63d 5939 993b
00000250: 457b 92bc 1ac1 a13d 9467 38bc de1b 34bd
00000260: f5d0 b0bc c879 013d 5d80 1a3d d505 f8bb
00000270: b7be 993d 6186 bcbd ed2f a83d 163a e43b
00000280: ac0f a43c 8279 cfbd 0f89 d43d 9f49 9fbc
00000290: 938f a83d 6517 f6bc 0b9f 063c 93e8 de3c
000002a0: d129 1d3e 24bb 6e3d c228 0c3e ad19 3b3c
000002b0: b6a0 b93c 9a70 8ebd 331b 5abd 999e 8e3d
000002c0: d0d9 00bd 424e c9bc b95c 8c3d a8be 7dbd
000002d0: 5d3f d7bd eec9 6c3d 0913 1e3c 75ea c3bd
000002e0: a245 523b 2182 39bc bde1 943b 2524 ccbb
000002f0: 4abe 69bd e09e 473c 8d38 e93c 8b12 4fbd
00000300: 78b6 25bd ef3d cbbd 8036 e0bd fb80 24bd
00000310: 65af 963d 620f afbd 5a7a 9ebd b9b5 bd3c
00000320: 1812 89bd 1ae4 31bd ce72 8ebb c334 01bd
00000330: 5ed6 423d a88d 39bd d3ea c8bd 4c84 d0bd
00000340: ca63 b23a 6d04 503b bf3f a03c c7ad be3d
00000350: 4bf3 3cbd 2b1c 2f3c 768d 17bd 779f dabd
00000360: 9958 ba3d b5c9 eebc 4699 e93d 6138 5bbc
00000370: b450 2d3e 2ef8 703d db08 a5bd 41ca 9b3d
00000380: 3f6b 413d 7d3d 19bd c6fd bd3d 154c f63d
00000390: 3edf 333c f588 7e3d dab9 90bb 6410 8abd
000003a0: 2454 74bb b287 6f3d ffb8 f83c 165a 843d
000003b0: 6318 3f3d 7791 313b 2cbc be3d 19b5 a5bd
000003c0: c985 b03d 299a 633d 8d89 313e 2901 0cbe
000003d0: c1fb 1cbd 9d80 13be fd01 09bd e6d4 b6bd
000003e0: 424a d13d 10b5 f23d 57a8 edbb 4023 bf3d
000003f0: bddd 66bb f7c1 103c fdd0 8b3b c7b5 573c

decoder_layers.block_0.conv.bias f4 [32]
-0.079866044 -0.088352 -0.0067521976 -0.037031952 0.111540034 -0.0993436 -0.07019665 -0.037356675
-0.08682136 0.13372414 0.035385787 0.04701786 0.012077989 0.08872474 0.025054142 -0.06429966
0.056352038 -0.027894035 0.059631016 0.055942476 0.018941266 0.08882665 0.054707326 0.06498108
-0.07532569 0.06944127 0.025948904 0.06835881 -0.097991854 -0.09919839 -0.032167256 -0.032135468
00000000: cf90 a3bd e5f1 b4bd 8a41 ddbb d1ae 17bd
00000010: 1a6f e43d a874 cbbd 43c3 8fbd 5003 19bd
00000020: 66cf b1bd fbee 083e b0f0 103d cd95 403d
00000030: c2e2 453c 51b5 b53d 583e cd3c 8aaf 83bd
00000040: 65d1 663d 0882 e4bc a73f 743d f023 653d
00000050: b72a 9b3c bfea b53d ca14 603d cd14 853d
00000060: 5b44 9abd 3937 8e3d cc92 d43c b4ff 8b3d
00000070: f4af c8bd 8728 cbbd d0c1 03bd 7ba0 03bd

decoder_layers.block_1.conv.weight f4 [32, 16, 3, 3]
-0.09002224 0.013137688 -0.0686538 -0.022776963 -0.06828211 0.06661644 0.015296307 0.023478054
0.04002234 -0.04008582 -0.04957467 0.0007451217 0.03264039 0.0067787785 0.017187435 -0.040000275
0.04538813 -0.0595878 -0.06630856 0.052311353 -0.0036202173 0.030861955 0.01701114 0.047433604
0.04228202 0.090204574 0.026769483 0.029891063 -0.08423401 -0.006502169 -0.075410515 -0.018005297
0.0675047 -0.032612048 -0.03324216 -0.024167417 0.025983699 0.038205825 -0.09817016 -0.07085435
0.001971592 -0.041072797 0.06270488 -0.06645646 0.020279108 0.017573014 -0.025531698 -0.035721615
-0.02349941 0.005576155 0.0028228047 0.01220974 -0.012745805 0.047217246 -0.023228798 0.051713992
-0.03963806 0.05408289 -0.09173648 -0.07777533 0.027121216 -0.033756316 0.00022278802 0.04204051
0.05430233 -0.01797637 0.03142728 0.00500348 0.024256762 -0.028699882 0.060743373 -0.019590486
0.010150678 0.047954064 -0.081407286 0.04576408 -0.07390414 -0.016226975 -0.086210236 -0.050296545
-0.09223106 0.0656525 -0.05756697 -0.026804186 0.03630437 0.052064598 -0.051549714 -0.051416513
-0.07570263 0.023525912 -0.0556807 0.01626583 -0.030103387 0.048770424 0.065628506 0.05077602
-0.027137168 -0.035811234 -0.015652899 -0.031265263 -0.016356792 -0.0060481383 0.01475594 -0.08232745
0.006464388 -0.059041176 -0.076060325 -0.03406661 -0.035784077 -0.07069489 0.060395002 -0.02084747
-0.016940596 -0.0031519243 0.077112034 0.017493423 0.011044786 0.04505053 -0.034021888 0.024447722
0.027522841 -0.018667065 0.036582414 0.042714607 -0.025911933 -0.045670733 -0.05218281 -0.028621575
0.017632103 -0.035066888 0.026283232 -0.026414555 0.042746402 -0.051439803 -0.041216608 0.052066036
-0.0070958096 0.0433071 0.06919763 0.037497673 -0.013438784 -0.030612413 -0.013302407 0.028976168
0.071104534 0.068902135 0.06984289 0.005301002 0.011184356 -0.063269734 -0.07220717 0.031282254
0.076994605 -0.065539666 -0.03618312 0.010930802 0.009296995 0.007429792 0.004313285 -0.021111667
0.034240257 0.06048578 -0.038090143 -0.053230505 -0.035153154 -0.04324563 -0.085072376 -0.043467626
0.015400089 0.030263606 0.029713718 -0.0673823 -0.009297093 0.07906736 -0.05417572 -0.059581436
0.03773922 0.01956906 -0.0630518 0.05004426 -0.019770518 0.049580146 0.041019678 -0.0690048
0.0789611 -0.022056978 -0.0570659 0.041625004 -0.018237542 0.051901784 -0.05760993 -0.047196675
0.02314339 0.0853373 0.065179065 -0.020298181 -0.011766736 -0.05925961 -0.024381327 -0.011178289
0.04494925 0.007440811 -0.052812092 0.01940617 0.06343056 0.028972263 -0.024123902 -0.021713018
-0.010293429 -0.019582413 -0.029940326 -0.05706472 0.07901744 -0.001983175 0.01651272 -0.036789365
0.036364745 -0.05686679 -0.06560231 0.027444841 -0.018015403 -0.08888711 -0.042719536 0.022003174
-0.073827885 -0.054862086 0.033599634 0.07648681 -0.019764308 0.0017158167 -0.07138035 -0.07961152
0.04251706 -0.037401404 0.08098579 0.013687095 -0.0020259228 0.04731152 -0.07008116 0.010012249
0.048968714 -0.028955419 -0.04220774 0.009005654 0.06999458 0.002465289 0.08022053 0.061715458
0.051491026 -0.07008225 -0.014847817 0.029054055 -0.014190777 0.028016858 0.06212236 0.03405482
00000000: 955d b8bd 753f 573c 5d9a 8cbd c196 babc
00000010: 7ed7 8bbd 336e 883d 5d9d 7a3c 0c55 c03c
00000020: 77ee 233d 0731 24bd cf0e 4bbd 4554 433a
00000030: eeb1 053d 8420 de3b aacc 8c3c 54d7 23bd
00000040: e7e8 393d 5612 74bd c8cc 87bd 6e44 563d
00000050: 2b41 6dbb 36d2 fc3c f25a 8b3c bd49 423d
00000060: e92f 2d3d 2dbd b83d ad4b db3c 1ade f43c
00000070: e182 acbd 2610 d5bb d470 9abd d87f 93bc
00000080: e73f 8a3d 3694 05bd ee28 08bd bffa c5bc
00000090: c4db d43c b67d 1c3d 700d c9bd 161c 91bd
000000a0: d335 013b f33b 28bd 6b6b 803d 531a 88bd
000000b0: 5f20 a63c 48f5 8f3c da27 d1bc d450 12bd
000000c0: d681 c0bc 2eb8 b63b cefe 383b 5c0b 483c
000000d0: c8d3 50bc df66 413d 524a bebc 0dd2 533d
000000e0: 855b 22bd 0586 5d3d 56e0 bbbd ac48 9fbd
000000f0: 502d de3c 1044 0abd 349c 6939 ab32 2c3d
00000100: 1f6c 5e3d 2e43 93bc e4b9 003d 3bf4 a33b
00000110: 1eb6 c63c 041c ebbc 0bce 783d 3a7c a0bc
00000120: 084f 263c 7b6b 443d ddb8 a6bd 1e73 3b3d
00000130: 0e5b 97bd 6fee 84bc fe8e b0bd c003 4ebd
00000140: a3e3 bcbd d174 863d 58cb 6bbd 7494 dbbc
00000150: e4b3 143d b041 553d cb25 53bd 1f9a 52bd
00000160: fb09 9bbd 6ab9 c03c 7211 64bd eb3f 853c
00000170: 619b f6bc 7fc3 473d 3d68 863d 84fa 4f3d
00000180: c44e debc cdae 12bd 823a 80bc 0110 00bd
00000190: aefe 85bc 762f c6bb e6c2 713c 4b9b a8bd
000001a0: 38d3 d33b 29d5 71bd 84c5 9bbd 6e89 0bbd
000001b0: 5392 12bd 7cc8 90bd c060 773d 50c8 aabc
000001c0: 01c7 8abc 8490 4ebb eaec 9d3d 5e4e 8f3c
000001d0: 31f5 343c e886 383d 895a 0bbd 9746 c83c
000001e0: 9577 e13c aceb 98bc 71d7 153d 83f5 2e3d
000001f0: 4345 d4bc 3c11 3bbd a4bd 55bd cb77 eabc
00000200: 3371 903c 4ca2 0fbd ef4f d73c 5663 d8bc
00000210: da16 2f3d 8bb2 52bd bfd2 28bd 3243 553d
00000220: f783 e8bb c962 313d 7db7 8d3d 2997 193d
00000230: 582e 5cbc e2c6 fabc 57f2 59bc 6e5f ed3c
00000240: 419f 913d 901c 8d3d ca09 8f3d 07b4 ad3b
00000250: 973e 373c 9093 81bd 5ae1 93bd d221 003d
00000260: 59af 9d3d a939 86bd c034 14bd 1b17 333c
00000270: 6c52 183c 9d75 f33b 7556 8d3b 60f2 acbc
00000280: 833f 0c3d f0bf 773d 6904 1cbd 3b08 5abd
00000290: c1fc 0fbd 5422 31bd 6d3a aebd 1c0b 32bd
000002a0: a850 7c3c 62eb f73c 2f6a f33c bbff 89bd
000002b0: d652 18bc 11ee a13d 5ce7 5dbd aa0b 74bd
000002c0: 7194 1a3d 4b4f a03c 4d21 81bd 36fb 4c3d
000002d0: c8f5 a1bc 8d14 4b3d 4004 283d 6352 8dbd
000002e0: 5bb6 a13d d6b0 b4bc efbd 69bd fb7e 2a3d
000002f0: e666 95bc f796 543d 64f8 6bbd 4d51 41bd
00000300: 3597 bd3c 53c5 ae3d 9a7c 853d 5f48 a6bc
00000310: 45c9 40bc 34ba 72bd 59bb c7bc 2425 37bc
00000320: b41c 383d 0cd2 f33b 7e51 58bd b0f9 9e3c
00000330: e2e7 813d 3d57 ed3c 7d9f c5bc 80df b1bc
00000340: c5a5 28bc 4c6b a0bc 6a45 f5bc b2bc 69bd
00000350: e5d3 a13d 28f8 01bb af45 873c 72b0 16bd
00000360: 33f3 143d 27ed 68bd 815a 86bd 01d4 e03c
00000370: 0a95 93bc 720a b6bd aefa 2ebd 0040 b43c
00000380: 1333 97bd 11b7 60bd c59f 093d 1ea5 9c3d
00000390: c2e8 a1bc 41e5 e03a dc2f 92bd 5d0b a3bd
000003a0: 5e26 2e3d 3732 19bd e1db a53d d63f 603c
000003b0: 58c5 04bb b9c9 413d b686 8fbd 6b0a 243c
000003c0: 6b93 483d ea33 edbc 06e2 2cbd 738c 133c
000003d0: 5159 8f3d b090 213b a94a a43d 59c9 7c3d
000003e0: 41e8 523d 4887 8fbd 4244 73bc c502 ee3c
000003f0: 6f80 68bc 9c83 e53c 0474 7e3d 117d 0b3d

decoder_layers.block_1.conv.bias f4 [32]
-0.0020969615 0.01854678 0.058752976 0.057575963 0.045842312 -0.045898024 0.028559355 -0.039539997
-0.06341561 -0.06135232 -0.056901876 0.07007353 -0.062944956 -0.027770277 -0.036917053 -0.070471734
-0.08265972 -0.028310701 0.0068345824 -0.015609494 0.060605403 0.018400464 -0.04595913 0.059028834
-0.0869991 0.0031252357 0.04526312 -0.050412476 -0.03153366 0.0033771393 0.026223306 0.07830301
00000000: 2d6d 09bb 6bef 973c f6a6 703d c6d4 6b3d
00000010: 26c5 3b3d 91ff 3bbd 4ff5 e93c b1f4 21bd
00000020: 0be0 81bd 924c 7bbd f111 69bd b682 8f3d
00000030: 49e9 80bd 7e7e e3bc 5636 17bd 7c53 90bd
00000040: 8049 a9bd d8eb e7bc a2f4 df3b f7be 7fbc
00000050: 5f3d 783d 92bc 963c a43f 3cbd 38c8 713d
00000060: 962c b2bd c1d0 4c3b d265 393d 507d 4ebd
00000070: 7029 01bd ff52 5d3b 42d2 d63c 545d a03d

read.weight f4 [1, 8, 1, 1]
0.1150898 0.27863485 -0.20900027 -0.30344263 0.19840913 0.2817978 0.060826212 -0.033723053
00000000: 33b4 eb3d 3aa9 8e3e 2b04 56be d55c 9bbe
00000010: c32b 4b3e cd47 903e e824 793d 2f21 0abd
