trainedModels/speed/border/skip/16/run4/model.pt (torch, 105257 bytes, 19 tensors)

init.weight f4 [16, 1, 1, 1]
000000 0c 83 a6 be 28 80 f3 be f3 c9 fa 3e 27 60 a2 bf
       -0.32521856 -0.47558713 0.489822 -1.2685593
000010 43 18 4c bf 2b d9 2d 3f f3 ce 80 bf a1 9b 88 3f
       -0.7972452 0.679095 -1.0063156 1.0672494
000020 f3 37 e6 bc 47 d9 1e bf 19 65 74 3f 86 97 68 3f
       -0.02810285 -0.6205029 0.9546676 0.90856206
000030 1f d6 8c bf c7 5c 91 3b 6a 43 66 bf 91 1c 60 bf
       -1.1002845 0.0044361087 -0.89946616 -0.8754359

init.bias f4 [16]
000000 47 9b 43 be 22 5f 9e be 80 af 0d 3f 92 82 4a be
       -0.19102202 -0.30931956 0.55345917 -0.19776371
000010 4c 9c c1 3e a6 7e 17 3e b2 3d 08 3f 47 84 87 3e
       0.37814558 0.14794406 0.5321914 0.26468107
000020 d7 fe 91 be 4c 4f d5 3e d6 13 60 bd e7 b1 ed be
       -0.2851474 0.4166206 -0.054706417 -0.4642479
000030 d5 b8 02 3f 7e d6 b5 3d dd a7 d8 bd b7 b9 be 3e
       0.5106328 0.08878802 -0.105788924 0.37251064

encoder_layers.block_0.transition.weight f4 [16, 32, 3, 3]
000000 7a 86 90 3c 19 7e 69 bc 19 e8 19 bd c3 4c 59 3d
       0.017642248 -0.014251255 -0.03757486 0.05305172
000010 17 1b bd 3c 31 92 cc 3b f4 8f db 3a 10 f4 3c 3d
       0.023084207 0.0062430133 0.0016751275 0.046131194
000020 54 f0 76 bc d4 ff f2 bc 8e 69 41 3d f2 68 0b bd
       -0.015071947 -0.029663004 0.047219805 -0.03403563
000030 b8 32 6a 3c 53 f3 44 3d d3 4f f1 bc 0c 1d b4 bb
       0.014294319 0.048083615 -0.029457008 -0.0054966267
000040 e0 3b 25 3d d3 51 ac bc d5 1b ae 3c 15 19 36 bc
       0.040340304 -0.02103511 0.021253506 -0.011114378
000050 d7 e4 53 3d 4e 4c 7a bd ed 9b 17 bd 40 66 19 3d
       0.05173191 -0.061107926 -0.037013937 0.03745103
000060 e6 97 a6 3c 5a 36 17 bc d1 6f aa 3c b8 3b 7e bc
       0.020336103 -0.009229267 0.020805271 -0.015517168
000070 a0 e1 78 3d f5 fb 8e 3c dd 09 13 3d bd 37 ac 3c
       0.060762048 0.017454127 0.03589808 0.021022672
000080 05 40 bb 3b c2 f6 58 3d 8f ca 12 3d 81 c5 07 3d
       0.005714419 0.0529697 0.035837706 0.03314734
000090 59 71 10 bd 57 77 a2 bc 79 fc f6 3c bc a4 c4 bb
       -0.035264347 -0.019832296 0.030149685 -0.006001083
0000a0 66 a1 c3 bc 82 0c f2 3c 40 fb c2 bc 28 b5 78 bc
       -0.023880672 0.02954698 -0.023801446 -0.01517991
0000b0 2d 6c c5 bb e4 eb 55 bc 94 31 54 bd 3f 1f 1a 3b
       -0.0060248584 -0.013056729 -0.051805094 0.002351716
0000c0 30 28 40 bc 92 4a 24 3d 41 f6 13 3c d3 78 fb bc
       -0.011728331 0.04011018 0.0090308795 -0.030697262
0000d0 21 98 73 bb 0d 79 c2 bc ac 80 05 bc 87 a0 be 3c
       -0.0037169533 -0.023739362 -0.008148354 0.023269905
0000e0 fe 44 7a 3b 06 d1 d3 3c de 18 33 bd 8a a6 d9 bc
       0.0038188095 0.025856506 -0.043724887 -0.02656867
0000f0 9d 19 df 3c f2 86 4c bd f7 18 59 3d 2c 15 0c bb
       0.027233893 -0.04993338 0.053002324 -0.0021374924
000100 72 53 66 bd 93 75 04 3d af 06 a5 bd 95 a3 08 3d
       -0.056231923 0.03233869 -0.080579154 0.03335913
000110 79 4e 93 3c 0d 28 43 bd e3 6c a3 bc c0 4f d7 bc
       0.017981755 -0.047645617 -0.019949382 -0.026283145
000120 61 55 19 3d 4a 0b ae 3c 09 56 4b bd fc 8b 14 bb
       0.03743494 0.021245617 -0.049642596 -0.0022666445
000130 99 af ae 3c b7 c0 fd bc a6 c4 11 bd 4d 7b e9 bc
       0.021323966 -0.030975683 -0.03558793 -0.028501177
000140 9d 1e eb 3b f8 b5 12 bd 9d a9 4c bd 4a e0 cf b9
       0.0071752802 -0.03581807 -0.049966443 -0.00039649225
000150 d8 fb cf bc aa f1 3b bd b9 8f af bb d9 7a d5 3c
       -0.025388643 -0.045884766 -0.0053577092 0.026059555
000160 52 25 14 bd 67 0f 58 3d 23 af 6b bc 31 89 91 3c
       -0.036168404 0.052749064 -0.014385018 0.017765613
000170 1e e3 5e bd bb c8 17 be 06 9f e7 3d 2b f5 eb 3c
       -0.054415815 -0.14822666 0.11309628 0.028803429
000180 60 6e cf bd 4a 8b f0 3b 82 b7 40 bd a0 5e 3a bd
       -0.10128474 0.0073408233 -0.047050007 -0.045500398
000190 a1 8a cb bc 9f cd 44 bc 56 ca 60 bc 20 d2 ee 3c
       -0.024846377 -0.0120119145 -0.013720116 0.02915293
0001a0 79 ca 11 bd a1 9a 0c bd e9 e8 0b 3d a7 81 22 3c
       -0.035593484 -0.034327153 0.034157667 0.009918607
0001b0 af af a4 bc e2 ba 25 bc 75 13 c8 3c 87 cf a8 bc
       -0.020103304 -0.010115357 0.02442334 -0.02060677
0001c0 3e 1b 17 bd 95 10 e5 3b 94 31 d2 3c 73 b7 c4 3c
       -0.036891215 0.006990502 0.025658406 0.024013257
0001d0 e1 7f a6 bc 49 20 de 3c 12 cf c3 3c 4e 5f 64 3d
       -0.02032465 0.027115004 0.02390245 0.055754952
0001e0 9c bf 50 3c df 9f 7c bd 33 1d 03 3c b5 bc fb 3b
       0.012740996 -0.061675902 0.008002567 0.0076824077
0001f0 64 e0 fc bb f9 ac 39 bc 0a 14 82 3d 38 70 7d 3d
       -0.007717179 -0.011332744 0.063514784 0.0618746
000200 ab d8 c4 3a bc 12 12 3d 2f a9 2d 3c f1 93 0c bd
       0.0015018185 0.035662398 0.010599419 -0.034320775
000210 77 b0 fd 3b c4 fb 37 3d 78 98 2b bd b9 2e 47 3d
       0.0077419835 0.044917837 -0.041893452 0.048628543
000220 78 1d 27 bb ec dd 7d 3d 55 ba 24 3d 91 6c d6 bc
       -0.0025499742 0.06197922 0.040216763 -0.026174815
000230 dd a1 a9 bc 0a 8b e8 bb b5 b6 0b bd e2 65 88 b9
       -0.020707065 -0.007096653 -0.03410979 -0.0002601585
000240 ba fb ea 3d db 11 c3 3d 1e c4 d4 3d 3e d2 a0 3d
       0.11473794 0.0952489 0.10388969 0.078526005
000250 bc f4 b1 3d 07 8f b4 3d 7e 5f bc 3d 81 3b 86 3d
       0.086892575 0.08816343 0.09197901 0.06554318
000260 01 c1 bf 3d 8f bd 04 be 49 a5 69 bd 2d 73 48 bd
       0.093629844 -0.12962936 -0.057042394 -0.048937965
000270 95 66 dc bd 3f 4d 9c bd a3 b3 84 bc de ad 0c be
       -0.107617535 -0.07631921 -0.016198939 -0.137382
000280 6c 91 a0 bd 9c dd 04 bc 7b 72 14 bd eb dc 35 bc
       -0.07840237 -0.008109476 -0.03624199 -0.011100034
000290 4e 7f 93 3c df 73 a2 3c 88 60 77 bd 2b b1 37 bb
       0.01800504 0.019830642 -0.060394794 -0.0028029184
0002a0 22 48 a9 bd 40 d4 87 bd 73 df 5b bd 9c 19 7f 3d
       -0.08265711 -0.0663228 -0.053679895 0.062280282
0002b0 48 93 d4 3c 35 b1 aa 3d 29 af 64 3c 6e 25 f0 bb
       0.025949135 0.08334581 0.013957777 -0.0073286807
0002c0 6b c5 5c 3d 63 bc 62 bc 44 1f 16 3c 23 55 f3 3d
       0.05389921 -0.01383886 0.009162728 0.11881473
0002d0 ee e2 70 bc 95 0d 7c bd 34 7b 08 bd 87 66 f6 bc
       -0.014702542 -0.06153639 -0.03332062 -0.030078186
0002e0 a1 e4 5e bd e0 59 94 bc 47 d5 25 3d 76 91 c6 bc
       -0.054417256 -0.018109262 0.0404866 -0.024239283
0002f0 cf 90 95 3c c8 60 e2 3c 9b 3e ba 3d c0 2f 80 3d
       0.018257527 0.02763404 0.09093972 0.062591076
000300 7a 5d d4 3d 31 9c ff 3d b0 3d 13 3d 59 30 88 3d
       0.10369392 0.12480963 0.0359475 0.066498466
000310 88 56 90 3d 19 91 3c 3d 28 f5 54 bd db 38 9c bd
       0.070477545 0.046036813 -0.05199161 -0.07628032
000320 30 89 2a 3c b3 1a 9a bc a9 30 23 bd 0f 33 52 bd
       0.010408685 -0.01881156 -0.039841328 -0.051318225
000330 03 89 9a bc 60 d4 2a bd 4f 90 28 bd 1a 97 78 3d
       -0.01886416 -0.041706443 -0.04115325 0.060690977
000340 23 00 96 3c 0b 43 99 3d 3b 65 f9 3c b1 56 06 3d
       0.018310612 0.074834906 0.030443778 0.03279752
000350 95 74 bf bb 81 c0 a9 3d 68 6f 9f 3d d3 8b bd 3c
       -0.005842755 0.0828867 0.07784921 0.023137962
000360 03 a9 0a 3e 16 5b 73 3d 5f 6e c5 3c c3 4b 0c 3e
       0.13541035 0.05941304 0.02410048 0.13700776
000370 77 75 ee bc d5 9f 3e 3d 91 86 88 3c 8e 8b 53 3a
       -0.029108746 0.046539146 0.016665729 0.00080698065
000380 60 ce e4 3d ec 03 b4 3d 71 21 43 3d 0d de 62 3c
       0.111721754 0.087898105 0.047639314 0.013846886
000390 95 65 9b 3d 28 b8 3c bd da 03 87 bd 4b 6f 78 3c
       0.075877346 -0.046074063 -0.065925315 0.015163253
0003a0 d9 7d 9d 3d 4d b9 0b 3d 4b 9d 1b 3e 49 b9 0f 3e
       0.07690019 0.034112263 0.15196721 0.14035524
0003b0 3c 41 0c 3e 5d dd 84 3e 64 94 55 3e b7 44 dc 3d
       0.1369676 0.25950137 0.20857388 0.10755294
0003c0 08 a7 14 3e 9b cd 69 3e 52 06 bf 3d 07 42 cf bc
       0.14516842 0.22832339 0.093273774 -0.025300039
0003d0 92 80 0b 3d 08 71 76 3d cd af 79 3d 9f 14 89 3d
       0.03405816 0.06016639 0.060958672 0.06693386
0003e0 42 6d 2b 3d 6c ac cd 3c 6a a4 99 3d 7a 80 50 3d
       0.041852243 0.025106631 0.075020626 0.050903775
0003f0 cc 33 93 bd fc 8f 74 3c ef f8 8c bd cd 5a 89 bd
       -0.07187614 0.014926907 -0.06883418 -0.06706772

encoder_layers.block_0.transition.bias f4 [16]
000000 5b b0 87 bc 01 0d b8 3c 2f 01 3f bd 2b 24 b0 bd
       -0.016563585 0.022467138 -0.04663199 -0.086006485
000010 59 8e 3e bd 86 5d 0b bd 42 a6 99 bd 84 70 22 bd
       -0.046522472 -0.034024738 -0.07502414 -0.039658085
000020 06 27 f5 3d 0f 49 f8 3d c5 44 86 bd 18 25 06 3c
       0.11970334 0.1212331 -0.065560855 0.008187555
000030 7e b1 cf 3c a7 fe 00 3b 72 9c 78 bd fb 75 36 bd
       0.02535319 0.0019683035 -0.060696073 -0.04454611

encoder_layers.block_0.conv.weight f4 [64, 32, 1, 1]
000000 a6 28 09 3e 5d b6 a0 3c ff 8d 10 bd 3f d8 82 3c
       0.13394412 0.019618208 -0.035291668 0.015972255
000010 bd 80 96 3d 88 25 9a 3a 79 e2 24 3d 3e 7d dc 3d
       0.07348774 0.0011760453 0.040255044 0.107660756
000020 97 7d 8e bd 68 f3 8b bd a8 96 05 3b f9 16 b5 bd
       -0.06957548 -0.068335354 0.0020383988 -0.08842272
000030 01 33 05 3c 95 62 6e bd 00 75 5b 3d 3c d5 68 bd
       0.008129836 -0.058199484 0.053578377 -0.05684398
000040 ac e8 9f 3d 49 d1 81 3e 74 eb fc bd ca bb e0 3c
       0.078080505 0.25354984 -0.123495966 0.027433295
000050 bc e8 50 be fd d6 49 be 3f 32 86 3d e3 91 3a be
       -0.20401281 -0.19710918 0.065525524 -0.18219714
000060 9b 9e b5 bd 6e e5 21 bd d6 38 3e 3c a5 32 b7 bc
       -0.08868142 -0.03952544 0.01161023 -0.022363016
000070 d3 2e 1d be dc 07 9e 3d bd 49 d1 bc 1f c6 c8 bd
       -0.15349893 0.07716343 -0.025547856 -0.098034136
000080 ad 23 95 bc 2f f3 55 3d 5f 23 54 bd 07 c4 3c 3c
       -0.018205488 0.05223387 -0.051791545 0.011521346
000090 ad 06 0e be bd 1e a4 be b3 01 86 3d 7f 6b 90 3d
       -0.13869734 -0.320547 0.06543293 0.07051753
0000a0 15 a8 cc bd 86 c1 b7 bd 5a 5e d3 bd c9 18 15 be
       -0.099929966 -0.089724585 -0.103207305 -0.14560236
0000b0 ff 3c 1f bc dc 2b 1c 3e f2 8c fa 3c 6b 1d 4e 3e
       -0.009719132 0.15251106 0.030584786 0.2012841
0000c0 be c6 48 3d 6b e2 2f bd 95 3d ea bc 9c 27 c8 3b
       0.04901766 -0.04294054 -0.028593818 0.0061082374
0000d0 81 33 57 3e 49 0b df bd 6b 6e 2d be 5c 54 88 bd
       0.21015741 -0.10890824 -0.16936652 -0.06656715
0000e0 0b c2 02 be a3 f3 48 be 15 2d 19 3e dc 52 5d bd
       -0.12769334 -0.1962419 0.14958604 -0.0540341
0000f0 d2 1c 11 3e bc d9 a6 bd 3f aa 0e 3e 5d 3f 0f bd
       0.1417115 -0.08146998 0.13932131 -0.034972537
000100 19 f3 ac bb 22 87 11 3e e0 fe da 3b 09 f1 87 bc
       -0.005278003 0.14211705 0.0066832155 -0.016594427
000110 5e 24 cc 3c 6b b2 86 3e 94 e7 2e 3d d1 ee 15 3d
       0.024919685 0.26307997 0.04270132 0.036604706
000120 50 75 fc 3d f8 73 09 bd 3d 19 7c bc 2f ca 01 bc
       0.12327063 -0.033557862 -0.015386877 -0.0079217395
000130 7b e4 10 3e 7d f2 a0 bd ce 99 33 bd 15 de ea 3d
       0.14149658 -0.07858751 -0.04384785 0.1146814
000140 3d f1 cc bd 2b 4b e6 3d 5c 72 11 3e 7e b1 2f 3e
       -0.1000695 0.11244806 0.14203781 0.17157552
000150 aa 44 34 bd d1 67 c6 bd 6d 55 b5 3d 68 e8 89 3d
       -0.044010796 -0.0968777 0.08854184 0.06733781
000160 b6 0a 04 be b8 eb 5c be ac e7 5c 3c 4d 5b 0e bd
       -0.12894711 -0.21574295 0.013482969 -0.03475504
000170 8a f8 cf bd ba e1 fe bd d6 a5 56 3e 65 0f 1a 3d
       -0.10154827 -0.12445398 0.20961699 0.037612338
000180 0b 90 fb bd 1c 92 af 3d 3f ae 32 bd 3a c5 41 3d
       -0.122833334 0.0857279 -0.043623205 0.04730723
000190 f5 6f b3 bc e5 d4 7c be 3c 9b 82 bd 74 7d 8f bc
       -0.021903971 -0.24690588 -0.06377265 -0.017515875
0001a0 92 29 6a 3c 47 c9 90 bc ac 1c 27 bd f9 2e da bc
       0.014292138 -0.017674102 -0.040798828 -0.026633726
0001b0 34 25 1d bd 7a f0 11 bd 41 8c e5 3c 9e 03 c9 bd
       -0.038365558 -0.035629727 0.02802098 -0.09815143
0001c0 ca fe 0b 3e 93 72 d6 3c 7f 8c bd bc 5f 2a 11 be
       0.13671413 0.02617768 -0.023138283 -0.1417632
0001d0 0a 56 3c 3c a9 88 c1 3c 38 54 ab 3d b4 c5 fd bd
       0.011495123 0.023624735 0.08365673 -0.123912245
0001e0 89 9b 02 3d 4c 1f be 3d 2e d4 26 be d5 74 fe bd
       0.03188661 0.09283313 -0.16291878 -0.12424628
0001f0 c3 48 55 bd 93 5f d9 3d b9 5b df bd fc d7 86 bd
       -0.052071344 0.106139325 -0.109061666 -0.065841645
000200 60 e8 01 be f2 d3 d3 bd c5 ec d3 3d bb c6 5b 3d
       -0.126863 -0.1034316 0.103478946 0.05365632
000210 d6 4d ad bd 18 c6 cc 3d 54 c9 26 bc 9f c2 fe bd
       -0.08462112 0.09998721 -0.010179836 -0.12439465
000220 29 bd b2 3d c2 5d 8f 3c 78 3b e0 bd 13 14 8e bd
       0.08727486 0.017500762 -0.10948843 -0.069374226
000230 dc 73 c7 3d b0 4e 3c bc 03 11 3c be 1b 14 41 3d
       0.09738895 -0.01149337 -0.18365864 0.047138315
000240 86 29 05 3e 6c 2d ab 3d d5 27 1a bd b0 38 e7 3d
       0.13004121 0.08358273 -0.037635643 0.11290109
000250 96 b8 11 3e 27 c8 2e be 3b bc cc 3d 59 47 67 be
       0.1423057 -0.1706854 0.099968396 -0.2258581
000260 12 4b 01 3d 62 92 96 be b4 4b 56 3e ac 76 25 3d
       0.031565733 -0.29408556 0.20927316 0.040396377
000270 70 b0 26 3d 97 6d 7e bd a4 46 c0 bd f2 c7 46 bd
       0.040695608 -0.06211623 -0.09388474 -0.048530526
000280 6a 87 c0 3d 5b 6f 2b be fd f6 a8 be f8 29 ac be
       0.09400828 -0.16741697 -0.33000937 -0.3362577
000290 a1 53 0b bf 4e 9e a9 bc 84 36 a4 bd ce ce 4a be
       -0.5442448 -0.020705368 -0.080182105 -0.19805452
0002a0 9c 68 db 3e 0d 20 ea 3e a6 42 9b be 71 ab a6 3e
       0.42853248 0.45727578 -0.30324286 0.32552674
0002b0 7e 91 e9 3e bf f4 be be 0c 7c 52 bd f6 ff 8f 3c
       0.45618814 -0.372961 -0.05138783 0.017578106
0002c0 46 f5 52 3e 86 ab 52 3a 73 85 15 3e 37 dc 38 3e
       0.20601377 0.0008036423 0.14601688 0.18052755
0002d0 0c ed f5 3e 7a 36 fd bb 72 b8 ae 3e c3 31 85 3e
       0.48032415 -0.0077274414 0.34125096 0.26014528
0002e0 c3 08 1d 3e 7b c7 85 be 0e 9e 0e 3e de 02 bf be
       0.15335374 -0.26128754 0.1392748 -0.37306875
0002f0 d9 f5 7b 3c 8c 9b ab 3d 94 d7 17 3f 29 84 42 3e
       0.015378439 0.083792776 0.5931332 0.18995728
000300 cb f2 8d bd e2 3a d0 bd b6 93 26 3e ab f2 07 3d
       -0.06931075 -0.10167481 0.16267285 0.03319041
000310 db 3b 40 3e 8d dc 3b 3c 9d c4 a2 3c 9e 44 98 3d
       0.18772833 0.011466158 0.019869143 0.07434963
000320 b5 ca 10 be 87 4a 33 bd b4 4e 0e 3e 52 7e 0c be
       -0.14139827 -0.043772247 0.1389721 -0.13720062
000330 a4 98 ba bd 0b 10 22 3d 76 00 6d bd 9f 90 b4 bb
       -0.09111145 0.03956608 -0.057861768 -0.0055104042
000340 ba 28 a5 bd ff db 05 3e 32 18 13 bc 96 f4 33 be
       -0.080644086 0.13072203 -0.008977937 -0.17573771
000350 7d 7a 8d 3d 01 46 a4 3d 56 2d b4 3c ac e7 55 be
       0.069081284 0.08021165 0.021994274 -0.20889157
000360 2b 08 03 be 9e 62 50 bd 74 21 16 bc fd 04 c6 bb
       -0.12796085 -0.0508753 -0.009163249 -0.006043075
000370 56 dd e8 bc 52 f4 33 3b a8 4f dc bc 2b 60 12 be
       -0.028425854 0.0027458859 -0.026893452 -0.14294498
000380 bd dc 11 3c 65 a8 10 3d be 30 11 3e 87 bf a0 bc
       0.008902726 0.035316844 0.1417875 -0.019622577
000390 b6 78 7d 3c d8 ac 2b 3e aa 01 09 be 3e a3 13 3e
       0.015470674 0.16765153 -0.13379541 0.1441774
0003a0 a8 ba ba 3d 6f 4c 4e bd 0b 93 a6 3d 26 ec 8d bd
       0.09117633 -0.05036586 0.08133515 -0.06929807
0003b0 8a b7 ec bd 9e 3e 16 bc 60 4f 09 be 33 1c 97 bd
       -0.11558445 -0.009170203 -0.13409185 -0.073784254
0003c0 56 38 6c be c8 41 ae 3c 2c 40 c5 3d 72 cf 7c bd
       -0.23068365 0.021271601 0.096313804 -0.061721273
0003d0 3e f2 3b be 98 3d 15 3e d3 21 2a bd 13 4f 72 bd
       -0.18354127 0.14574277 -0.041536164 -0.059157442
0003e0 41 66 0e be bf 37 18 3e 92 a9 9f bb 6b 1c fa 3c
       -0.13906194 0.14865015 -0.0048725093 0.030531129
0003f0 b5 e9 85 bc 5c 3c 72 be e1 61 1b be 6b cd 3c be
       -0.016346792 -0.23655838 -0.15174057 -0.18437736

encoder_layers.block_0.conv.bias f4 [64]
000000 51 93 61 3d 84 49 89 3c 52 a1 fe 3c 14 75 59 bd
       0.055072132 0.016758688 0.031082783 -0.05309017
000010 c0 eb 01 bc ac 95 08 3f 82 3c d7 bd c5 22 0a be
       -0.007929742 0.5335338 -0.10509588 -0.13489826
000020 0f 17 3f 3e e2 32 1f 3d 8b 54 10 3f 98 39 a5 bd
       0.1866114 0.038866885 0.56379 -0.08067626
000030 7e 8b 31 bd bf 75 ed bd f4 d4 9b bd b8 e0 0d 3e
       -0.04334592 -0.11594724 -0.07608977 0.13855255
000040 b7 2d b9 bd 4c 89 8d bd 98 21 6b 3e fc 3f aa 3d
       -0.090419225 -0.06910953 0.22962034 0.08312985
000050 df 3b 83 3e 4d c3 06 be a3 63 b1 3c 2c 0a 90 3d
       0.25631616 -0.13160439 0.021653956 0.0703319
000060 3e fb 4f bd 74 04 0f 3e 5c 6a b3 3d 38 6e 02 3e
       -0.050776713 0.13966542 0.08760521 0.12737358
000070 12 25 b1 3d bb 4d 39 3e 0d 32 57 3e a9 7b fb bd
       0.08649649 0.18096058 0.21015187 -0.12279446
000080 d2 1c ff 3d b1 f6 05 3e cc aa 5a 3e ab 32 33 3e
       0.12456669 0.13082387 0.21354216 0.17499797
000090 00 32 75 3b 1d 8d af 3e f2 33 08 3e 40 4f cb 3d
       0.0037413836 0.34287348 0.13301066 0.09927225
0000a0 6a bf b5 3e 90 a4 49 3e 33 c7 9b 3e ee 15 1d 3d
       0.354976 0.19691682 0.30425414 0.038350992
0000b0 54 f5 49 bc 0d 81 1f 3e b0 e6 b9 3c 8a 1b 07 3d
       -0.012326557 0.15576573 0.022693008 0.032985248
0000c0 99 1b 8b bd a2 e8 3c bc 46 02 f0 3d da 38 cb bd
       -0.06792373 -0.011530073 0.117191836 -0.09922953
0000d0 0e 12 e8 3b b0 7d b3 bd 92 59 32 3e 06 72 d2 3d
       0.0070822304 -0.08764207 0.17416981 0.102756545
0000e0 e0 2e cf bc 02 10 dd bd 6f a6 8b bc 61 7f 65 bd
       -0.025290906 -0.10794069 -0.017047135 -0.05602968
0000f0 cc 69 88 bd 4f 3e 8d bd 78 88 92 3d af bf 95 bd
       -0.06660804 -0.0689665 0.071549356 -0.07311951

encoder_layers.block_1.transition.weight f4 [16, 32, 3, 3]
000000 c8 b7 c8 3c f0 60 0b bd 55 33 b5 3c 44 cc 3a 3d
       0.024501696 -0.034027994 0.022119204 0.04560496
000010 16 34 04 3d 26 fa 47 3d e9 85 96 3c 99 f9 d2 3c
       0.032276236 0.048822545 0.0183744 0.025753783
000020 a3 97 9b 3b ff 90 ee bd 38 7f 70 bd b2 9e 0c be
       0.004748301 -0.116487496 -0.058715075 -0.13732412
000030 69 87 9b 3d 3a 76 11 bd 8e 70 95 bd b5 fd ab bd
       0.07594187 -0.03551314 -0.07296859 -0.08398
000040 5a 20 64 bc af ea 05 be 50 7b 5b 3d 97 a4 38 3c
       -0.013923729 -0.13077806 0.053584397 0.01126971
000050 3e ee bd bd 42 0e 7f 3d b4 5b 11 be dd b0 54 bd
       -0.09273957 0.062269457 -0.14195138 -0.051926482
000060 3d b9 7d 3d a5 f9 27 3d 6e 95 c2 bd 61 8b 6c 3d
       0.061944235 0.041009564 -0.09501158 0.05775011
000070 5c 7b a9 3d e5 7a 13 3d 5e 11 99 3d b8 d6 98 3d
       0.08275482 0.036005873 0.07474016 0.07462829
000080 14 0a 6a 3c 2c f5 e3 3b 7b 26 90 3c 68 21 ab 3b
       0.014284629 0.006956717 0.017596474 0.005222488
000090 1e 5e 17 3d a2 7e e0 3a f0 c6 d0 bb 19 07 60 bd
       0.03695499 0.0017127583 -0.0063713714 -0.05469427
0000a0 67 74 3a bd 1e 8d dd 3b 17 43 a5 3c 42 50 21 bd
       -0.045521166 0.0067612072 0.020173592 -0.03938318
0000b0 a8 5d 14 bd f1 09 34 bb 8b 3b 11 bd 2c a2 19 3d
       -0.03622213 -0.0027471746 -0.035457175 0.037508175
0000c0 b9 95 25 3c 47 1e e5 bd 1d d2 c9 bd 6c d0 a1 3c
       0.010106497 -0.111874156 -0.09854529 0.019752704
0000d0 e0 c2 e2 bc 8c eb 72 bd d3 f9 88 3d 6c 60 51 bc
       -0.027680814 -0.059306666 0.06688275 -0.012779336
0000e0 6f 2e 1e 3d 5d 1e c9 3c b0 ec 36 be 4e f1 8b bc
       0.0386185 0.024550611 -0.17863727 -0.017082836
0000f0 69 90 82 3d 78 86 a9 bd fd 44 4a 3c bb fc 50 3c
       0.063752 -0.08277601 0.01234555 0.012755568
000100 75 80 03 bd ba 80 c7 3b 40 f1 84 bd 09 5a e7 bd
       -0.032104928 0.0060883434 -0.06491327 -0.1129647
000110 d4 56 10 bd 9c e8 fb 3b 86 95 9a bd d3 33 09 bc
       -0.035239056 0.0076876413 -0.075480506 -0.008374172
000120 fd 7b 28 bc 39 3d b4 bd b8 ed e1 bd 3f 5e 14 bd
       -0.010283467 -0.0880074 -0.110316694 -0.036222693
000130 37 34 89 3c 77 9a 20 be 55 3e 02 3d e0 57 d2 3d
       0.01674853 -0.15683924 0.031797726 0.10270667
000140 2a 1c b1 3c a4 be db bd 60 ba 86 3b 17 1a e4 bd
       0.021619875 -0.10729721 0.004111573 -0.11137789
000150 8b 11 2d bc 77 ca f2 3e 9f b6 01 be 3a 6d 90 bc
       -0.010563265 0.47420093 -0.1266732 -0.017630208
000160 7c 57 eb 3c 9b 85 0a bd 81 55 6a bd a8 e8 65 bd
       0.02872824 -0.033818822 -0.05721045 -0.05613008
000170 b4 21 95 3d d9 b9 05 be 63 20 7d be 57 df 66 3c
       0.07281819 -0.13059177 -0.24719386 0.014091334
000180 c5 8c e4 bc 43 fd f1 bd 72 a3 19 bd 3e 8f 9d bd
       -0.027899155 -0.11815884 -0.03750939 -0.07693337
000190 e7 a4 02 3d 42 2e 3b 3c e8 da cb bc 08 22 6a bd
       0.031895544 0.011424603 -0.024884656 -0.05716136
0001a0 79 15 f3 bc 7c 9b 03 bc e1 94 12 bd 61 c4 b2 bd
       -0.029673325 -0.008032676 -0.035786513 -0.087288626
0001b0 78 be 28 3e dd 57 28 3b 10 2e ea 3c e8 37 1e 3e
       0.16478908 0.0025687136 0.028586417 0.15451014
0001c0 89 57 73 bd ad 85 34 3e 13 7a e8 3d 82 f8 1a 3e
       -0.059409652 0.17629118 0.11351409 0.1513386
0001d0 a3 e5 e1 3d aa c7 ba 3c 8c 42 c0 3c d5 2f 2e 3d
       0.11030128 0.022800285 0.023469232 0.042526085
0001e0 45 f3 44 3d c0 a3 ca 3d 9e 32 4c 3d 31 cb fc 3c
       0.048083562 0.09894514 0.04985296 0.030858608
0001f0 60 4a 47 3d 70 0b 9e 3d 40 63 bd 3c ba fc 7e bb
       0.048654914 0.07717025 0.023118615 -0.003890796
000200 2b 2c bd 3d 1c 37 f3 39 94 3c 5c bd ec 4e 1e 3d
       0.0923694 0.00046389631 -0.05376871 0.038649485
000210 58 51 46 3d 1f c5 06 3d 31 1b f4 bb 44 b8 5e 3d
       0.04841742 0.032902833 -0.0074495305 0.05437495
000220 28 b3 89 bc 45 81 a5 3c 25 1d 79 3d 28 b2 a0 3d
       -0.016809061 0.020203242 0.06081881 0.078464806
000230 38 f0 84 3d 62 67 4d 3d 14 b0 d4 3c bc cd fa 3b
       0.064911306 0.05014742 0.025962867 0.00765392
000240 43 1d 97 bc 51 d5 39 3d 57 95 f2 bc 6c e6 cf 3b
       -0.01844657 0.04536945 -0.029612226 0.006344607
000250 b8 f9 9a 3d d1 06 b2 3c 65 0e 73 3d 4d 9b 94 3d
       0.07567161 0.021731766 0.0593399 0.07256184
000260 48 de 66 bd 6d 64 13 be dc 84 ad 3c 9a 2c 96 3e
       -0.056364328 -0.14393778 0.021181516 0.29330903
000270 fd 99 2a bd ce fa 6d be c4 2f d1 3c a4 5f 4a 3e
       -0.04165076 -0.23240206 0.025535472 0.19763047
000280 fc 4c 59 3d 17 29 1c bd 4b ee 0d bd 63 be cc 3b
       0.053051934 -0.038125124 -0.034651082 0.006248282
000290 4b 58 9b bc 60 9c 62 bc 74 85 de 3c ae 25 cd 3b
       -0.018963 -0.013831228 0.027163245 0.0062605953
0002a0 a8 f9 7e bc 3b 12 ce bc 7a 2d e0 bc 8e fe 7b 3d
       -0.015562452 -0.025155177 -0.027365435 0.06152206
0002b0 f8 10 ab 3d a2 93 0a bd 06 ea 5b 3d 95 83 9c bc
       0.08352846 -0.0338322 0.05368998 -0.019105712
0002c0 32 87 12 3e 3a 42 51 bc e7 d1 21 3e 5b fb 23 3e
       0.14309385 -0.012772137 0.15802728 0.16013853
0002d0 9a 3a 49 3d 53 8f d4 3d 74 f5 60 3d cf ca 90 3d
       0.049128152 0.103788994 0.054921582 0.07069933
0002e0 1b c1 6b 3e 35 c5 73 3a 6e 1f 79 3d 3c 1d 65 3d
       0.23022883 0.00092991005 0.06082099 0.055936083
0002f0 0b 2e c3 3d ac 7f ae bd a7 78 f7 bd d1 2d 98 be
       0.095302664 -0.08520445 -0.120835595 -0.29722455
000300 45 b6 77 bd a8 e8 53 be 71 d1 11 be b9 c3 22 be
       -0.06047656 -0.2069422 -0.14240052 -0.15894975
000310 7c fd 0f be be e7 17 be 57 a8 02 be fe d5 d0 bb
       -0.1406154 -0.14834496 -0.12759529 -0.006373166
000320 5b 38 1f 3a 7a b0 18 be a1 c2 92 3e e2 e0 fa bc
       0.0006073766 -0.1491107 0.28664115 -0.03062481
000330 18 6f 87 bd 05 6c c2 bd fe 06 f2 bd 07 92 16 3d
       -0.06612986 -0.09493259 -0.1181774 0.036760356
000340 e4 d0 8c 3d 4a f8 33 3e 43 5f c0 3c 2b a2 8e 3d
       0.0687578 0.17575184 0.023482924 0.06964525
000350 69 57 a2 3d 14 85 e7 3d 02 51 98 3b 7c 67 3d 3d
       0.079268284 0.113046795 0.0046483288 0.04624127
000360 9f 1b 9d 3d 09 5a 02 3e 51 31 bb bc 61 61 65 3d
       0.07671284 0.12729658 -0.022850664 0.05600107
000370 6d 36 2a 3e f4 29 30 3d 34 38 1d 3d 09 f4 2c bc
       0.16622324 0.04300876 0.038383678 -0.010556229
000380 43 d8 5e 3d 44 81 42 bd 15 64 11 3c 1e 4c 52 bc
       0.054405462 -0.04748656 0.008873959 -0.012835531
000390 a6 b7 0f bd 75 87 9a 3d ec d4 f7 3b 5d d3 70 3b
       -0.03508725 0.07545368 0.007563224 0.0036747076
0003a0 71 e9 87 3d 02 47 95 3c 84 74 75 be ae 6a 16 3d
       0.06636322 0.018222336 -0.23970228 0.03672283
0003b0 28 19 c9 3d e0 d4 13 bd 34 59 e7 3c 66 8b e4 3d
       0.09819251 -0.036091685 0.028240778 0.11159401
0003c0 d4 76 c0 3d 77 4b 52 3b d2 93 a9 be e6 52 a1 3d
       0.09397665 0.0032088438 -0.3312059 0.0787714
0003d0 77 78 33 bd 91 78 91 3d b4 96 ab bc a1 ac 26 3e
       -0.043816056 0.07103074 -0.020945884 0.1627679
0003e0 25 da e8 b8 3f f5 f8 3d 7d 52 df 3d 93 db 5b 3d
       -0.00011103255 0.12156152 0.10904405 0.0536762
0003f0 e1 5c 45 3d 30 d0 44 3d d2 af 61 3d d5 90 4f bd
       0.04818428 0.048050106 0.055099316 -0.050675232

encoder_layers.block_1.transition.bias f4 [16]
000000 86 e7 02 bc eb 3d 9e bd 19 24 30 3c 7e af 32 bb
       -0.00798977 -0.07726654 0.010750794 -0.0027265246
000010 9a 54 d7 3d c3 5a 86 3d 3b bd d5 3c 86 52 f0 bd
       0.10514183 0.0656028 0.026091209 -0.1173449
000020 8d 39 ca bd 92 70 b4 3d 97 ce 81 3d 60 58 94 bd
       -0.09874258 0.088105336 0.06338232 -0.07243419
000030 d3 25 97 3d c5 a1 8c bb 1e 6e b7 bd 0e 81 c7 bd
       0.07380261 -0.0042917454 -0.0895655 -0.09741412

encoder_layers.block_1.conv.weight f4 [64, 32, 1, 1]
000000 de a2 d2 3d 9e 6e fa 3d e6 da a5 3d 0d f9 ed 3c
       0.10284971 0.1222813 0.08098392 0.02904942
000010 35 79 92 bd bd 4a e4 bc cd a2 e6 bd 5c e0 c4 bd
       -0.07152025 -0.02786767 -0.112615205 -0.09613106
000020 26 4e 0f 3c 52 cd 3a 3d f6 0d 27 bb 92 a6 87 bd
       0.008746659 0.045605965 -0.00254905 -0.06623568
000030 c3 1b 7f 3c 77 84 fe 3c 7c 36 09 3d 5c a7 a3 3d
       0.015570584 0.031069024 0.033499226 0.07990906
000040 b2 9f f7 3a ca 57 2d 3c a2 6e 5a bb 0a 0c ea 3d
       0.0018892197 0.010580013 -0.0033330102 0.114280775
000050 dd a0 ad 3c c1 b9 2b 3e 87 a9 32 3e 47 59 b2 3d
       0.02119487 0.16770078 0.17447482 0.087084346
000060 7b 79 40 be 4f f8 d4 3d 89 36 f1 bd 86 12 3b 3e
       -0.18796341 0.103989236 -0.1177798 0.18268785
000070 86 ac 53 3e 31 54 19 be 51 d5 11 3e 83 77 a5 bd
       0.20671281 -0.14973523 0.1424153 -0.08079436
000080 c9 7d f3 bc fa 98 09 be e2 17 85 3e d4 32 80 3d
       -0.029723065 -0.13437262 0.25994784 0.06259695
000090 94 05 8b 3d 81 28 20 3e 3f 4d b8 be 96 51 00 be
       0.06788173 0.15640451 -0.35996434 -0.12531123
0000a0 cc 5b 1a be 9c aa 26 be 89 9d 16 bd 4e 52 24 3e
       -0.1507408 -0.1627602 -0.03677133 0.16047022
0000b0 ad c3 1b be 6a cd 4a 3e 38 48 3f be 78 9b b0 bd
       -0.15211363 0.19804922 -0.18679893 -0.08623403
0000c0 e5 3d 4d be 42 22 cd bd 23 22 d1 3c ce 3b 33 ba
       -0.20043142 -0.100163 0.025528973 -0.00068372197
0000d0 ff 75 98 be 4e ba 64 be c9 b7 fb 3e f5 fd 54 3e
       -0.29777524 -0.22336695 0.49163654 0.20800002
0000e0 4e 6e 75 bd a0 c1 91 bd 44 d4 20 3d c9 65 bd be
       -0.059919648 -0.07117009 0.039264932 -0.36991718
0000f0 94 e4 1b 3f 81 52 02 bf 44 04 e6 3d 6d 8a 3c 3e
       0.6089566 -0.5090714 0.11231282 0.1841218
000100 79 86 5e 3d 5a 76 54 bd 13 3b bc bd 58 9b d6 3c
       0.054327462 -0.05187068 -0.09190955 0.02619712
000110 5e 7e ef bc 5e ec e9 3d 44 4a 82 3c 43 60 db bd
       -0.029235061 0.114220366 0.015904553 -0.1071172
000120 13 8c 9e bd 8f 9d 5d 3d ef 25 e2 bd 05 7e 57 3d
       -0.07741561 0.054105338 -0.110423915 0.052610416
000130 e2 f8 a4 bc f2 72 04 bd a9 a9 19 be ec 07 9d 3d
       -0.020138208 -0.032336183 -0.15006126 0.076675266
000140 d5 24 e9 3c 22 e0 1b bb db ea 85 3c 3e b3 b2 bc
       0.028459946 -0.0023784717 0.01634734 -0.021813985
000150 20 e1 89 3d c3 ef d0 bd 89 a9 a4 3e fe 8c f9 bd
       0.06732392 -0.10201981 0.32160595 -0.12185095
000160 48 4b 89 bc 3d e4 a7 bd eb 39 fc bc c1 7d 4f 3e
       -0.01675953 -0.0819783 -0.030789336 0.20262815
000170 5f 71 ad bb 61 72 67 be b4 7f db bd 93 a9 f6 bd
       -0.005293056 -0.22602226 -0.10717717 -0.120440625
000180 5a 2a f7 3d ab e4 d7 be 8a 67 9d 3e 27 6b 8e bd
       0.12068625 -0.42166647 0.30743057 -0.069540314
000190 ca c9 18 be b4 1c 83 bb 23 9f d1 3c 4b c6 91 bc
       -0.14920726 -0.0040012244 0.025588578 -0.017794749
0001a0 17 7b 55 3d 1f 7e d3 3b 3f bf 59 3d ba cf 84 3d
       0.05211934 0.006454244 0.053160902 0.06484933
0001b0 cf 80 5d 3d 7f 2e 3e bd cc 05 b3 bd e3 a1 03 3e
       0.05407792 -0.04643106 -0.0874134 0.12854724
0001c0 87 a1 90 bc 04 34 a4 3d 8a db 85 bc 27 38 08 3e
       -0.017655147 0.08017734 -0.016340036 0.1330267
0001d0 8d 3a f1 3d 47 c7 3d 3e f1 24 39 3e 32 ce 82 3d
       0.11778746 0.1853305 0.18080498 0.06386985
0001e0 ef 69 81 be 36 d8 46 bc ad 64 57 3d 7b 7b b2 bd
       -0.25276133 -0.01213651 0.052586246 -0.08714958
0001f0 ce d4 80 be 84 a6 20 3c 05 77 f9 bd cd 82 6a 3e
       -0.25162357 0.009805325 -0.12180904 0.22901459
000200 4e c1 17 3e 6f e6 30 3e 49 be 2a bd bb aa 0b 3c
       0.14819834 0.17275403 -0.041685376 0.008524592
000210 d9 15 00 3c 2e 28 0a 3e de 17 6b bd e5 e2 73 bd
       0.007817709 0.1349189 -0.05739581 -0.059542555
000220 77 2e 71 bd 6a 72 22 3b b4 46 34 be 0c 27 8a bd
       -0.058882203 0.0024787434 -0.17605096 -0.06745729
000230 f7 b5 be bd bf ba 29 bd f1 8d 03 be 48 f5 25 3d
       -0.09312051 -0.04143786 -0.12847115 0.04051712
000240 ee eb 75 3d 97 76 4f bd 04 d1 31 bc 4d 5c 01 3f
       0.060039453 -0.050650205 -0.010853056 0.50531465
000250 9b 12 7b bd ab cb 2f 3e 7f 25 96 3d 23 81 3c 3e
       -0.06129704 0.17167537 0.073313706 0.18408637
000260 61 47 15 be 94 d4 e9 3d bf a5 48 3d 20 ec 52 be
       -0.1457801 0.11417499 0.048986193 -0.20597887
000270 c8 a3 c2 3e 47 fc 4d be 74 fa a3 3d 35 93 32 3e
       0.3801558 -0.20115767 0.080067545 0.17438968
000280 81 41 92 3e 0a a1 3b 3d 30 3f d3 be 15 46 8d be
       0.285656 0.045807876 -0.41259146 -0.2759253
000290 47 a2 89 be 15 1f b5 bd fa 9e f2 3d 62 54 01 3d
       -0.2688162 -0.08843819 0.118467286 0.031574614
0002a0 76 8a 27 3e ac ac 58 3d 79 6e 16 3d 3b 8e 55 be
       0.16361412 0.052899048 0.03672645 -0.20855038
0002b0 5e f1 43 3e 85 9d f1 bd 5e 4f e3 3d 30 ff 84 3d
       0.19135043 -0.117976226 0.110991225 0.06493986
0002c0 56 e5 7d 3e 59 32 46 bf d9 cf 53 be 1a 57 78 ba
       0.24794516 -0.77420574 -0.20684756 -0.00094734284
0002d0 08 55 5a bd 0f 37 99 3e 66 50 84 be 4f d9 63 3d
       -0.05330375 0.2992482 -0.2584259 0.055627163
0002e0 54 60 f1 be e2 78 9c 3d 6c 0c bf 3e 40 6c 13 bd
       -0.47143805 0.07640244 0.37314165 -0.035991907
0002f0 87 bd 2c bd 63 18 11 be 29 18 5b bc 8f f5 92 be
       -0.042172935 -0.14169459 -0.013372459 -0.2870297
000300 6a 88 f8 3d e3 6f c7 be ea f9 e5 3d ea c9 c5 bd
       0.12135394 -0.3895255 0.11229308 -0.09657653
000310 d0 94 57 3e 7d db 89 3e ac fe 9b be 35 8c 9b bd
       0.21052861 0.2692527 -0.30467737 -0.07595102
000320 ac 86 39 be 7d f2 3d bd 7b 76 56 3e 62 0d 26 be
       -0.1811778 -0.046373833 0.20943634 -0.16216043
000330 67 82 8a bd 94 3d 98 3e 1c f0 83 be e6 f7 38 3e
       -0.067631535 0.2973448 -0.25769126 0.18063316
000340 6c bc 43 bd 3b 6b 47 bd 22 4f 28 3e 27 02 2b bd
       -0.047787115 -0.048686247 0.16436437 -0.0417501
000350 19 41 1c 3e 83 f2 c7 3e 22 bc 22 3e e4 9b 5f 3e
       0.15259208 0.3905221 0.1589208 0.21836811
000360 1b ae 86 3d cc 15 88 bd b6 0e f8 bd f0 2a df 3e
       0.06576177 -0.066447824 -0.12112181 0.43587446
000370 d4 96 4a 3f 3c f6 3f be 46 ec c0 3e 8b 89 f0 3e
       0.79136395 -0.18746275 0.37680262 0.46979937
000380 8a 5a 76 3d cd 4c 70 3e eb af 8c 3e 35 fa ba bd
       0.06014494 0.23466797 0.27477965 -0.091297545
000390 89 d6 cd bd 60 1b 0a bd d9 87 ec bd a3 90 41 ba
       -0.10050685 -0.033717513 -0.115493484 -0.0007383918
0003a0 15 78 47 3e 1f 6a 76 be ea 67 4e 3e ab 5a 9e bd
       0.19479401 -0.2406392 0.20156828 -0.07732137
0003b0 f2 39 a8 3d 71 de 2f be 6f 98 f3 bd 4f 67 42 3e
       0.08214177 -0.17174698 -0.11894309 0.18984722
0003c0 ca 14 b3 bc a0 13 41 3f 0d c5 04 bd 42 51 1b bd
       -0.021860499 0.7542057 -0.032414485 -0.03791929
0003d0 1b 48 60 be 6a 5d 3c be 61 d5 e0 bd ad 2d ef 3d
       -0.21902506 -0.1839501 -0.10978199 0.11678634
0003e0 a3 a2 18 3e 69 87 21 be 61 fa bb 3e 78 e4 65 bf
       0.14905791 -0.15774311 0.3671446 -0.8980174
0003f0 94 b0 e8 bd dc e1 58 3e aa 3c 6e bd 52 7d 0f bc
       -0.113618046 0.21179909 -0.058163323 -0.008757906

encoder_layers.block_1.conv.bias f4 [64]
000000 0a d6 ea 3d 51 8c 89 3e 8c cb 8c 3c e3 b5 38 3d
       0.11466606 0.26864865 0.017186902 0.045095336
000010 55 90 3c 3d be ef 83 be 36 79 64 3e 2b d0 dd 3d
       0.046036083 -0.25768846 0.22311863 0.108307205
000020 4d 91 d7 3e 69 81 dc 3d a2 c7 78 3e 63 9d f8 bc
       0.42103043 0.107668705 0.24294904 -0.030348485
000030 04 3b 3e bd 67 3b 80 3e 00 8b 22 bc 4d 23 16 3e
       -0.046443 0.2504532 -0.0099208355 0.14661904
000040 82 95 c7 3c 67 04 ca 3e 46 9b ba 3d 89 93 86 3d
       0.024363283 0.39456484 0.09111647 0.06571109
000050 48 39 e2 3d bf 00 43 bc 9b 86 8e 3d 1e 9e e7 3d
       0.11046082 -0.011902033 0.06959268 0.11309455
000060 1d 2d 20 3e 13 b0 f6 bb 9d 46 b6 bc d9 ea ad 3e
       0.1564221 -0.007528314 -0.022250468 0.33968237
000070 1a 2c cf bd e5 78 14 bd e4 85 17 3e 66 78 70 3d
       -0.101158336 -0.036248107 0.14797169 0.05870857
000080 54 9f 09 3d a4 4d 02 3f cf ff 2e be 4e ec df bd
       0.033599213 0.5089972 -0.1708977 -0.109337434
000090 0c 24 29 3d c5 29 12 3e fc 6c f0 3e 72 72 af 3e
       0.041294143 0.14273746 0.46958148 0.34267002
0000a0 73 92 42 3e 75 10 15 3d 21 17 b0 3e 1f 07 9e 3e
       0.19001178 0.036392648 0.34392646 0.30864808
0000b0 e4 fe 0e bc 70 d0 3d 3e c1 96 c0 3c 00 2c 98 3d
       -0.008727763 0.18536544 0.023509385 0.07430267
0000c0 b4 38 07 bd 10 31 6b bd bd 0d 1b 3e 73 3b d7 3d
       -0.03301306 -0.057419837 0.1514196 0.10509386
0000d0 af 66 2b bd 8b 89 d3 3b 00 df 95 3d a6 40 1b 3e
       -0.041845974 0.0064556054 0.073179245 0.1516138
0000e0 dc ee be bc ed b2 fb ba 17 12 8f bd 7f 31 99 3c
       -0.023307256 -0.0019203104 -0.06985872 0.01870036
0000f0 45 42 40 bb d1 7d d5 bd df 1e fe 3d 0f f3 e4 3c
       -0.0029336375 -0.10424388 0.12408232 0.02794793

decoder_layers.block_0.transition.weight f4 [16, 16, 3, 3]
000000 6c 2e 4a 3d 30 00 22 bd 1f ec 0b 3d 70 59 cd bc
       0.049360678 -0.03955096 0.03416073 -0.025067061
000010 3a 92 e1 bb fd 45 27 3d 69 7e a7 bc 2f 4c 3d bc
       -0.0068838866 0.04083823 -0.02044602 -0.011553808
000020 01 d1 7d 3d 87 78 53 3d a1 21 b3 3d f1 1f f6 3d
       0.0619669 0.051628616 0.087466486 0.12017811
000030 f2 ff 41 bd ac 6d ac bd 16 b5 a1 3b f5 c6 b9 3c
       -0.04736323 -0.08419356 0.004934917 0.022677878
000040 89 fe d5 bd 1f 7e a8 bc d8 c3 ac 3d f3 c5 9b bb
       -0.10448939 -0.020567952 0.08435792 -0.004753822
000050 df 03 0e bc fa 71 ba bc 9b f1 1a bd 95 4d 0f bd
       -0.008667915 -0.022759426 -0.03782807 -0.034986097
000060 5b b2 97 3c d4 50 27 3d 84 d5 32 3c e7 b5 34 bd
       0.018517664 0.040848568 0.010915164 -0.044118788
000070 37 ca a4 3c 53 27 5c 3c 72 9e d8 bd d7 b3 ba 3d
       0.020115955 0.01343711 -0.10577096 0.09116333
000080 99 53 78 3d a8 b6 05 bd 81 1a d2 3d 97 05 25 3e
       0.0606266 -0.032644898 0.102589615 0.16115414
000090 fd 26 bc bc 20 99 ef 3c 17 f7 d3 bb b1 7a d6 bc
       -0.02296781 0.02924782 -0.0064686644 -0.02618155
0000a0 a6 20 a8 bd 4d c4 a6 bb 40 6c 23 3d 12 a4 83 bb
       -0.08209352 -0.005089319 0.039898157 -0.0040173614
0000b0 11 b3 b2 bc 67 a0 96 bd 80 ed 99 bd c1 2d 87 bd
       -0.021813901 -0.07354813 -0.07516003 -0.06600524
0000c0 6f 6d a6 3c d1 0a 04 bb 62 17 88 3d 38 31 c3 3b
       0.020315854 -0.0020148049 0.06645085 0.005956795
0000d0 2e aa 30 3c d9 9b f0 3c 5a bc 7f bc c3 eb 9f 3c
       0.0107827615 0.029371189 -0.015608871 0.0195216
0000e0 74 01 da 3c ee 4a 81 3c ed d1 87 bc 21 30 06 bd
       0.026612021 0.0157828 -0.016579593 -0.032760743
0000f0 08 df 93 3d 84 aa 2a 3d 23 1e b9 3c 2e af 10 bd
       0.07220274 0.041666523 0.022597378 -0.035323314
000100 ef b5 7c bd 67 84 7a bd c5 88 fa 3a 39 b9 cf 3d
       -0.061696943 -0.061161425 0.0019114247 0.1014275
000110 87 79 26 3d 1f c2 55 bd 19 e7 d1 3d 42 46 8c 3b
       0.04064324 -0.05218708 0.102491565 0.0042808363
000120 02 98 13 3c df b4 b6 bc d1 56 3a 3d d9 1c 75 3c
       0.009008409 -0.022303043 0.04549295 0.014960491
000130 23 57 d3 bc 22 de a1 3d c3 b3 64 bd 1f e4 dd 3c
       -0.025798386 0.079036966 -0.055835497 0.027086316
000140 58 8c 3c bc 4f ad 57 3c dc 68 7a bd 73 8f 9b 3c
       -0.01150807 0.013163879 -0.061135158 0.0189893
000150 54 3b 14 bd dd 8c a9 bd 34 40 59 bd d0 58 46 bd
       -0.036189392 -0.08278821 -0.053039744 -0.048424542
000160 5e 01 94 bd 19 b6 bb bb c7 8f 21 bd 1b b6 90 bd
       -0.07226823 -0.005728495 -0.039443757 -0.07065984
000170 e4 28 a1 bd 16 ce 70 3c 62 1a 5f bd 20 e0 a7 bc
       -0.078691274 0.014697572 -0.05446852 -0.020492613
000180 56 e2 05 bd 1d 2e 39 bd ed 59 91 bd e9 f3 29 3d
       -0.032686554 -0.045209993 -0.0709723 0.041492376
000190 0f c8 90 bd 0c 76 74 bd 9f 21 d5 bc 82 fe 91 3c
       -0.07069408 -0.05968289 -0.026017008 0.017821554
0001a0 37 d8 6d bd 54 30 13 3c 8a eb 8b 3d 9d 67 37 3a
       -0.058067527 0.00898369 0.06832035 0.00069963356
0001b0 de 83 d4 bd dc c0 02 bd f9 16 ba 3c 80 b1 22 3c
       -0.10376714 -0.031922206 0.022716032 0.009930015
0001c0 1a 84 89 bc d9 5a 5e 3d 31 78 03 bc 82 87 1f 3d
       -0.016786624 0.054285858 -0.008024261 0.03894759
0001d0 4f 5b c1 3d fa 6e e6 3c 71 ed 8e 3d 0e 64 b1 3d
       0.09441244 0.02812909 0.06978882 0.08661662
0001e0 af 83 7d 3d 35 47 d2 bc 8d 9e 28 3d 64 6b 39 3d
       0.06189316 -0.02566872 0.04116683 0.04526843
0001f0 40 98 ea bc fb 10 66 bd 70 7b b7 bb 78 04 70 3b
       -0.028637052 -0.056168538 -0.0055994317 0.0036623757
000200 d8 34 6a 3c 6b cc 51 3c 5f 40 da 3c 32 54 90 bc
       0.0142948255 0.012805085 0.026642023 -0.017618272
000210 f3 e5 75 3c 31 1b af 3c 27 13 df bc 92 0e ae 3d
       0.015008437 0.02137527 -0.027230812 0.08498873
000220 0a 5b d3 3d ad 9e f9 3d 87 ac 88 3d 09 3d 88 3d
       0.10320099 0.12188468 0.06673532 0.066522665
000230 0b 8c a4 3d 16 39 e9 3d f2 80 5b 3d 08 a1 7f 3d
       0.080345236 0.113878414 0.05358977 0.06240943
000240 44 cc 78 3c 8f 31 0f bd 17 48 7d 3d f3 72 c4 bd
       0.0151854195 -0.034959372 0.06183633 -0.09592237
000250 7b 67 a3 bd 8e 0c 24 3d 35 15 9c 3d b2 16 75 bd
       -0.07978722 0.040051036 0.076212324 -0.059836097
000260 27 10 50 3d b4 70 08 bc 80 bf d8 3c 84 9f c6 3d
       0.050796654 -0.008327652 0.026458502 0.09698394
000270 f5 cf 1b bd a7 bb 52 bd 46 d3 80 3d 41 36 c2 3b
       -0.03804012 -0.05144849 0.06290297 0.0059268777
000280 3b a0 1d 3d fb 2a f3 3c cf 87 0f 3d 77 cf 2f bb
       0.038482886 0.02968358 0.035041627 -0.002682654
000290 80 ec 83 ba 3c 3f 64 bd 93 de 71 bd fd 0c 72 bd
       -0.0010064989 -0.055724367 -0.059050154 -0.059094418
0002a0 31 12 30 bd f2 eb 04 3e 68 3f 0e 3d d9 69 c4 bd
       -0.0429861 0.12980631 0.034728438 -0.09590501
0002b0 5b 09 71 bd e2 24 13 3d b5 db 13 bd a1 12 c2 3d
       -0.058846813 0.035923846 -0.0360982 0.094762094
0002c0 0a e1 22 3d 1d db 07 bc 14 0d c5 3a 9d 1b c4 3c
       0.039765395 -0.008291987 0.0015033805 0.023938948
0002d0 0d 80 10 3c 37 15 a0 bd c6 8f 60 b9 ef b4 28 bd
       0.008819592 -0.078165464 -0.00021415864 -0.041188177
0002e0 02 bc cc bd 67 d9 52 bd 18 78 35 3a 5c be 32 bd
       -0.09996797 -0.051476862 0.00069224974 -0.043638572
0002f0 f3 ba 4c bd 59 58 a3 bd 3f ad 95 bd 14 f7 5c bd
       -0.049982976 -0.07975835 -0.07308435 -0.05394657
000300 0d 97 c9 3c 4c a2 7b bc de bf b3 3c e1 e1 c7 bc
       0.02460816 -0.015358519 0.021942075 -0.0243997
000310 a6 9c 48 3d 76 ba d1 3c 54 aa e7 3a f6 17 34 3d
       0.048977517 0.025601607 0.0017674663 0.043968163
000320 b5 c4 cc bc a6 4b 4b 3d e0 8f 0e bd c7 84 93 bd
       -0.024996141 0.04963269 -0.03480518 -0.0720306
000330 24 43 6d 3c 09 9b 0a 3d af 09 18 bd a2 64 da bd
       0.01448134 0.03383926 -0.03711861 -0.106637254
000340 7f 00 51 3c d5 f7 cb 3c 01 0c 62 3c 1c 1b cc 3c
       0.012756466 0.024898449 0.013796807 0.02491527
000350 87 e8 17 bd 2b 84 20 bd 3d dc 2a bb 3a 26 c6 bd
       -0.03708699 -0.039188545 -0.0026071214 -0.0967526
000360 86 e7 99 bd 7b 46 6d bc 64 c8 33 bd 8f 8e 7e bd
       -0.07514863 -0.014482136 -0.04389228 -0.062147673
000370 23 dd b4 3c ed 27 86 ba c4 b9 8e bd b9 db e4 bc
       0.022078102 -0.0010235287 -0.06969026 -0.027936803
000380 81 d5 1d bd 51 84 e5 3c 16 3d eb bc 8c b5 81 3d
       -0.03853369 0.028017195 -0.028715651 0.063334554
000390 f5 50 95 bd e2 06 91 bd 47 e7 f5 bc 42 a7 ac bc
       -0.07290832 -0.07081391 -0.030017508 -0.021075848
0003a0 b7 8f 52 bd 08 6c 5f bd 5c 8f 27 3b 6c 3b 89 bd
       -0.05140659 -0.054546386 0.0025567627 -0.06700787
0003b0 ac fc e0 b9 eb 91 be bd 66 bd a7 3c 26 bf 5a bd
       -0.00042912865 -0.093051754 0.020476054 -0.05340495
0003c0 84 4a 88 bd 33 eb 69 bd 19 62 c3 3c 7b 47 b5 3c
       -0.06654838 -0.05710907 0.023850488 0.022128811
0003d0 92 54 90 bd 27 3e f8 bd 68 56 a4 3c aa 92 64 bd
       -0.070473805 -0.121212296 0.020060733 -0.055803932
0003e0 bf 00 c7 bb 87 bd 8d 3d b7 6b aa 3d ff 61 be 3d
       -0.006073087 0.06920915 0.08321326 0.09296035
0003f0 99 38 91 bd f7 e7 92 bd e5 3f 1a 3d bc 30 fd b9
       -0.07090873 -0.0717315 0.03765859 -0.0004829223

decoder_layers.block_0.transition.bias f4 [16]
000000 f7 ea 24 3d cf ab 96 bc 38 63 4b 3c e7 24 52 3d
       0.040263142 -0.018392472 0.012413792 0.051304724
000010 e8 f0 83 bc a3 0e 0d bc 56 61 16 bd 97 e8 5f 3d
       -0.016106084 -0.008609447 -0.03671392 0.054665174
000020 93 4e 1b bd 68 87 47 3b c8 fc 72 bd 68 e5 af 3c
       -0.03791673 0.0030445699 -0.059323102 0.021471694
000030 61 58 1d 3c 6b dd 36 bd 90 bb 93 bb 5b 55 fa 3c
       0.009603591 -0.044644754 -0.004508443 0.030558279

decoder_layers.block_0.conv.weight f4 [64, 32, 1, 1]
000000 29 a6 9c bc ce a1 55 bd 01 fc a1 bd ee 2e a3 bc
       -0.0191222 -0.052156262 -0.07909394 -0.019919839
000010 7d 14 0f 3e 57 ec 1e 3d c3 0e 8e bd b0 e9 f0 3d
       0.1397266 0.03879961 -0.06936409 0.11763322
000020 2c 38 07 3e d0 b5 1b be 83 47 83 bc 8a b1 dc bd
       0.13205022 -0.15206075 -0.01602531 -0.107760504
000030 25 03 58 3e 10 af d6 3c 83 1e dc 3d 58 39 04 bd
       0.2109495 0.026206523 0.10748007 -0.03228125
000040 4e 31 af bd cc 67 39 3e 2d 1c 8e bd 14 38 ff bd
       -0.08554326 0.18106002 -0.06938968 -0.12461868
000050 96 75 f4 3d 42 ad f9 3d 07 83 09 3e 4f 50 16 3d
       0.1193649 0.121912494 0.13428889 0.036697682
000060 3f 40 57 be 7e 04 39 bd 0b 40 19 bd f5 a8 9a 3d
       -0.21020602 -0.0451703 -0.03741459 0.07551757
000070 0b 4d e3 bd 29 0b 0a 3e b6 55 cd bd ea 52 dc bd
       -0.11098679 0.1348082 -0.10026114 -0.10758002
000080 82 76 09 be ef 0f 7c 3d 56 0d b4 3d b6 7a 0c bd
       -0.13424113 0.061538633 0.08791606 -0.034296714
000090 f1 bf 18 3d 7c 7b e5 bd 8f d7 69 be 8b 58 3f bc
       0.037292425 -0.112051934 -0.22836135 -0.011678825
0000a0 21 84 56 bd 2c 3a 02 3e 7f 04 d0 bd 8e bc 56 3e
       -0.0523721 0.12717503 -0.101571076 0.20970365
0000b0 8e 3b 15 3e bb ee f0 3d 2e 36 0c 3e 41 ed ae 3d
       0.145735 0.11764284 0.13692543 0.08541346
0000c0 72 d2 43 bd ef dc 88 3d bf ab 05 be 1c 70 e0 3b
       -0.04780812 0.06682765 -0.13053797 0.006849302
0000d0 dd 2c 69 be 62 d5 54 3e 91 66 ec bd d7 ee b5 bd
       -0.2277102 0.20784524 -0.115430005 -0.08883446
0000e0 af 86 02 be d6 c0 54 3e b0 25 b5 3b c7 e6 5d bd
       -0.1274669 0.20776686 0.0055281743 -0.054175165
0000f0 d5 64 db bd 3b 48 11 bd 46 aa 6c be 5b af a0 3c
       -0.107125916 -0.035469275 -0.23111829 0.019614866
000100 4f 59 3c be 5c 39 d5 bd e7 a7 01 bd c6 cc eb 3d
       -0.18393444 -0.10411331 -0.031654265 0.11513667
000110 0d e7 16 3e 02 1c 9d bd ca 81 97 bd 67 6c 83 3e
       0.14736576 -0.07671358 -0.07397802 0.25668642
000120 2d e0 a6 3d 50 85 86 3d a0 28 1b be 2e 4c 53 3e
       0.08148227 0.06568396 -0.15152216 0.20634529
000130 d8 94 08 3e 7f ba d8 bd 44 cb 1e be 33 8c 8c bd
       0.1333803 -0.10582446 -0.15507227 -0.068626784
000140 50 eb 19 3e 95 6e 28 3e 63 60 97 bd df 40 3d bc
       0.15031171 0.16448434 -0.07391431 -0.011551111
000150 7c 7a 31 3d 75 ad 49 3e 25 99 0c 3d 38 5f 8a bb
       0.0433297 0.19695075 0.034325738 -0.0042227767
000160 8f 47 b1 3d 19 e2 c8 3c 48 77 5e be eb e3 2a 3e
       0.08656227 0.024521874 -0.2172519 0.16688506
000170 94 dc 37 be 25 3a ca bc 17 3d 7b be c1 1a 56 be
       -0.17955238 -0.024685929 -0.24535023 -0.20908643
000180 00 1d ce 3c 43 ee aa 3d c8 16 8a bd 77 ce 80 3d
       0.025160313 0.08346226 -0.067426264 0.0628938
000190 5b 86 f2 bd f7 d2 47 be fe b8 24 be 6f 09 a7 3e
       -0.118420325 -0.1951407 -0.16086194 0.32624385
0001a0 93 c5 11 3d be 6a 8f bd 96 d2 1e be d6 f1 fd 3d
       0.035588812 -0.07002781 -0.1551002 0.12399642
0001b0 86 8a 2a bc 0a 00 a0 3b 84 c3 26 bd 18 26 fb bd
       -0.010409003 0.004882817 -0.040713802 -0.12263125
0001c0 71 98 ce 3d b9 8c a0 3c 1d 91 76 be b2 61 94 3d
       0.1008767 0.019598352 -0.24078794 0.072451964
0001d0 b0 52 fd bd 1d 93 01 3e 34 7b 09 bd 2a a9 4a be
       -0.12369287 0.12653776 -0.03356476 -0.19791093
0001e0 55 2e 2a be 0a 78 85 bd 28 dc 7c bd c0 0f 4c 3d
       -0.16619237 -0.06517036 -0.061733395 0.049819708
0001f0 10 f9 b4 bd 02 c9 49 bd 32 cc 5a be d0 b4 a9 3d
       -0.088365674 -0.04926396 -0.21366957 0.0828644
000200 e6 d7 02 3d c1 8a 08 3e e0 18 d3 3d 70 5d bd 3d
       0.031944178 0.1333418 0.10307479 0.092463374
000210 f9 03 62 3d 83 be 1a bd d7 52 9c bd 29 81 d6 3d
       0.05517957 -0.037779342 -0.07632988 0.10473854
000220 6c 58 0a be 76 2a c9 3d 70 bd 6a bd c8 b1 0f bd
       -0.13510293 0.09822552 -0.057309568 -0.035081655
000230 b0 6a b2 bd ef 09 40 be ac 4b 8d 3d 73 17 d7 bd
       -0.08711755 -0.1875379 0.06899199 -0.105025195
000240 52 64 e6 bb 17 42 eb 3d 44 6c 80 3d ca 81 fb bc
       -0.007031002 0.11487215 0.0627065 -0.030701537
000250 da 68 98 3d 90 2e ac 3d 25 16 a4 bc af 9c 32 3d
       0.07441874 0.084073186 -0.02003009 0.043606456
000260 91 02 2d 3d 2e 8f 17 be a7 45 39 3b a0 44 c0 bd
       0.042238776 -0.14800712 0.0028270276 -0.09388089
000270 3a 37 a6 bc 9e 64 94 bd a3 1f d8 3d 57 27 bf 3c
       -0.020290006 -0.07245754 0.10552909 0.023334188
000280 e9 b9 77 3c d6 79 69 bd 9b d0 af bd e6 c1 2d bd
       0.015120008 -0.057000957 -0.0858471 -0.042421244
000290 e3 04 2d 3e 2b bb c8 bd da 8f ba 3d ba 9e 9d 3c
       0.16896395 -0.098013245 0.09109469 0.019240726
0002a0 91 03 ae 3d c1 1a 05 3e 9a 56 b9 3d f3 ae ab bd
       0.08496774 0.12998487 0.09049721 -0.08382978
0002b0 a1 97 93 3d e3 8c 8f 3c 1f 8e 57 3d 32 ae 94 3c
       0.07206655 0.017523235 0.05262577 0.018149469
0002c0 30 3a a6 bc 35 d4 83 3d de 5b 35 3e d2 53 9f bc
       -0.020291418 0.0643696 0.17710826 -0.019449148
0002d0 59 fa a9 3d 5a dc 22 3d 4e 23 8a 3d 56 b1 43 3d
       0.08299703 0.039760925 0.06745015 0.047776543
0002e0 32 48 49 3e 0d a4 1c bc 7a 72 2d 3e 14 6e d2 bd
       0.19656447 -0.009560597 0.169382 -0.10274902
0002f0 6e 2d 8a be 92 94 9c 3d 6f a5 86 3e 88 c6 cb 3c
       -0.26987785 0.07645525 0.2629809 0.02487494
000300 4f 4a 2a be 3b 3d 1c 3c ca eb c7 3d b5 a1 83 bd
       -0.16629909 0.009536083 0.0976177 -0.064273275
000310 8f 74 38 3e d2 49 dd bc 25 b7 e4 bd 5c 59 8c 3d
       0.18013214 -0.02701274 -0.111677445 0.068529814
000320 bb 57 5c bd 75 9d 74 bd 49 a8 01 bd 50 fe be 3d
       -0.053794604 -0.059720475 -0.03165463 0.0932585
000330 17 43 be 3d 03 ef c0 bd 73 6a 59 bd 35 04 e2 3d
       0.0929014 -0.09420588 -0.053080034 0.11035959
000340 16 9b 78 bc 94 4b d4 bd 96 f6 73 3c bc 8b 4d bd
       -0.015173694 -0.10365978 0.014890334 -0.05018209
000350 56 dc e8 3d 6f c8 fa 3d 04 64 b5 3c 05 76 ee bd
       0.11370151 0.12245261 0.022142418 -0.11643604
000360 8f 30 d6 bd 63 98 15 3e 06 c3 f6 bd ed 01 ec bc
       -0.104584806 0.14608912 -0.120489165 -0.028809512
000370 04 cc 07 bd 72 5a 9b bd ed b9 14 be 8d 0f a6 bd
       -0.03315355 -0.075856104 -0.1452405 -0.08108435
000380 fc 26 aa bb 90 76 8d 3d 66 57 11 be fb c7 12 3d
       -0.0051926356 0.069073796 -0.14193496 0.035835247
000390 f2 bf 05 3e d5 a6 b0 be 48 f4 bc be 59 c1 48 3e
       0.13061503 -0.34502283 -0.36905122 0.19605006
0003a0 ab f5 d0 3c 31 55 65 3d 81 68 14 be 53 bd 70 3d
       0.025507769 0.055989448 -0.1449299 0.058774304
0003b0 d3 96 a3 3e 01 77 0e be ae b0 b2 3a fa ac 97 bd
       0.31951007 -0.13912584 0.0013632977 -0.074060395
0003c0 c5 63 c9 bd d9 24 23 3e 01 f6 34 bd 53 70 68 be
       -0.09833483 0.15932025 -0.04417992 -0.22699098
0003d0 3b 1c eb bd a0 e1 43 3e 0c ad 0f 3e 5f d6 04 be
       -0.11479994 0.19129038 0.14030856 -0.12972401
0003e0 b3 68 cb be e3 71 a8 3d ac 8a 48 be dd 8e dc 3d
       -0.39728317 0.08224847 -0.19584149 0.107694365
0003f0 02 10 05 be 4a 71 6c bd 8c e9 d9 be 14 41 13 3e
       -0.12994388 -0.05772523 -0.42560995 0.14380294

decoder_layers.block_0.conv.bias f4 [64]
000000 49 a5 eb bc 52 a1 ad 3d 9a bf 92 3e 68 63 24 3b
       -0.028765338 0.08478035 0.28661805 0.0025083665
000010 59 a1 fa 3d 9c 7a 2d 3d 4b 79 29 bb 08 04 d3 3d
       0.12237806 0.042353258 -0.002585965 0.10303503
000020 e4 33 39 be 81 4b 8e 3d 7f 2a 46 3c 0e b5 c3 bd
       -0.18086201 0.06947995 0.012095093 -0.09556018
000030 e2 cf c6 3d 70 6d 17 3d 8d 45 db 3d ba 4f 92 3d
       0.09707619 0.036969602 0.10706625 0.07144113
000040 0d 39 d8 3d 6c 6e 8a 3c 8a 75 8f 3e 9b e7 06 3e
       0.105577566 0.016898356 0.28019363 0.13174288
000050 f8 f1 bc bb f9 b5 05 3e 28 67 53 bd 38 71 7b 3e
       -0.0057661496 0.13057698 -0.05161205 0.24554908
000060 48 d1 2b 3d 1c 0e 51 bd 21 a9 4f bd 01 70 a8 bd
       0.041947633 -0.051038846 -0.050698403 -0.08224488
000070 0d d8 21 bd 22 6c 42 3e 1a d4 e9 3d 81 6a a2 3d
       -0.039512683 0.18986562 0.11417408 0.0793047
000080 7d 2b b0 bc 5e fa 99 bd a2 08 f7 3d b2 ef 12 3c
       -0.021505112 -0.07518457 0.120621935 0.008968281
000090 ca 33 bf 3d 84 8b 18 3e 64 58 98 bd 42 c3 eb 3d
       0.0933605 0.14896971 -0.07438734 0.11511852
0000a0 67 fa 25 be dd 7d 21 3e 89 77 a6 bd 3b 0b 0a 3e
       -0.16208802 0.1577067 -0.08128268 0.13480847
0000b0 6e 0f a7 bd 9a 70 29 3e ea 8a 7e bc 0e b8 4b 3e
       -0.0815724 0.1654686 -0.015536049 0.1989443
0000c0 6b 36 fc 3b 69 fd 0a 3d 94 1a a3 3b 94 8b f3 bc
       0.007696917 0.033933077 0.0049775336 -0.029729642
0000d0 5b 17 d1 bc ab b3 30 3d a8 92 00 3d 1f 99 96 bd
       -0.025523832 0.043140095 0.031389862 -0.07353424
0000e0 dc a4 11 bc 78 e1 0d 3d d9 05 a4 bd 5e ec 1c bc
       -0.008889403 0.034638852 -0.08008928 -0.009577839
0000f0 8c 55 1c bc f7 d6 65 bb 62 9e e6 bd 68 ea 1a bd
       -0.00954188 -0.0035070756 -0.11260678 -0.037821203
