trainedModels/wave/horizon-20-70/skip/0.5/1/run1/model.pt (torch, 29545 bytes, 19 tensors)

init.weight f4 [10, 1, 1, 1]
000000 b4 c2 0b 3f 32 21 38 3f 79 cf 2c bf a1 a6 2b bf
       0.5459397 0.7192565 -0.6750408 -0.6705113
000010 5f 48 d5 3e 8f 43 65 be e5 d9 b6 3e ac c2 5e 3e
       0.41656777 -0.22389053 0.35713115 0.21753949
000020 af c4 fe be 50 fe a7 be
       -0.49759433 -0.32811213

init.bias f4 [10]
000000 af 22 cd bc ef 4f db be 71 2d aa bc ad 9c 3c bc
       -0.025040952 -0.42834422 -0.020773621 -0.011511964
000010 f4 cb 01 be 96 bb 86 bc d7 86 90 3e fc 6a 1f bd
       -0.12675458 -0.01644687 0.28227875 -0.038920388
000020 a4 9d d5 3e 8e bc b1 be
       0.41721833 -0.34714168

encoder_layers.block_0.transition.weight f4 [5, 20, 3, 3]
000000 69 a0 66 be db 94 28 be 83 b3 7c be 0c 47 0d be
       -0.22522129 -0.16463034 -0.24677853 -0.13796633
000010 5a d2 ea bb 0e de 17 be c4 07 58 be 42 28 f7 bd
       -0.007166189 -0.14830801 -0.21096712 -0.120682254
000020 f1 c1 53 be 0f 05 19 be 2b 74 d9 bd 24 ea fb bd
       -0.20679452 -0.14943336 -0.106178604 -0.12300518
000030 e7 e2 ce bd ce 3b 16 bd 92 90 0a be 7f 73 34 be
       -0.10101872 -0.036678128 -0.13531712 -0.17622183
000040 df 6f e9 bd 1f d7 03 be f7 c4 73 3e 06 51 07 3e
       -0.11398291 -0.12875031 0.23805605 0.13214502
000050 dd 06 81 3e aa b6 16 3e d6 1e 37 3d 7b 24 d3 3d
       0.2520055 0.14718118 0.04470714 0.103096925
000060 56 6a 75 3e 46 11 2c 3e 09 c7 52 3e 1c dd 55 3e
       0.23966345 0.16803464 0.20583738 0.20885128
000070 1b 9b 1e 3e d1 13 64 3e c8 26 2c 3e 01 0f 86 bc
       0.15488856 0.22273184 0.16811669 -0.016364576
000080 c7 33 d9 3d 83 50 58 3e 24 c1 1a 3e 89 8c 88 3e
       0.10605579 0.21124463 0.1511274 0.2666972
000090 62 68 4b be 4b af 0a be e8 6c 13 be 65 1c d2 bd
       -0.19864038 -0.13543431 -0.14397013 -0.10259322
0000a0 33 fe 62 bc 51 d8 f6 bd 2a c1 15 be 56 85 e5 bd
       -0.013854551 -0.12052978 -0.14624467 -0.112070724
0000b0 5e 45 41 be 97 bf ea 3d ef 8c 26 3d 07 ea 9f 3d
       -0.18874118 0.11462324 0.04066175 0.07808309
0000c0 c4 fc 28 3d c0 ed dc bd b1 9f 8f 3d 8c ea 05 3e
       0.04125668 -0.10787535 0.070128806 0.13077754
0000d0 8e 46 47 3d 6f 15 df 3d 03 0c de bc 4d 46 4c bd
       0.04865127 0.1089276 -0.027105337 -0.04987173
0000e0 ed 1b 08 bd 3f 34 97 bd f2 1d f7 3d 34 be 8a bd
       -0.033229757 -0.07383012 0.120662585 -0.067745596
0000f0 0f d8 f9 bc 2f 7c 17 bc b3 2a 11 bd 39 d3 e8 bc
       -0.030498533 -0.009245916 -0.03544111 -0.028421031
000100 b3 64 fa 39 3c 9f 8a bd f7 d7 dd 3b 7a d3 03 3e
       0.00047758743 -0.06768653 0.00677013 0.1287364
000110 27 0b 2d bd d7 8f 8b bd 5a e1 e3 bc bc ed 75 bd
       -0.042246964 -0.06814545 -0.027817417 -0.060041174
000120 79 a9 20 3e 6d 62 73 3d 0f 82 31 3e db 33 bf 3d
       0.15689649 0.059420038 0.1733477 0.093360625
000130 30 9e e0 bc 8d 72 d5 3d ca 49 23 3e b4 c8 77 3d
       -0.02741918 0.104222395 0.15946117 0.06049414
000140 26 cf 13 3e ad 75 00 3d 7b 12 ef 3c 00 8b 5a 3d
       0.1443449 0.031362224 0.029183617 0.053355217
000150 7c f8 55 3c cd 91 0d be 60 65 aa 3c 62 d7 aa 3c
       0.013059732 -0.1382515 0.020800292 0.020854656
000160 3b 38 7e 3c e3 94 81 3c 48 75 e9 bd da d0 36 3d
       0.015516336 0.015818065 -0.11399323 0.04463277
000170 87 0c 1f be d2 f5 a3 3c 53 a5 34 3e 01 6b 2a 3d
       -0.15532123 0.020014677 0.17641191 0.041605953
000180 93 5a 0d be 8c 37 a0 3c ed f6 e6 bd d1 3e 21 be
       -0.13804083 0.019557737 -0.11277566 -0.15746619
000190 2e 97 01 3e 80 6d 2e be d4 d1 fc 3d b2 9d 62 3d
       0.12655327 -0.17033958 0.12344709 0.05532617
0001a0 dd bf e2 3d bd f5 25 be 84 e9 dd 3d 4c b0 19 be
       0.11071751 -0.16207023 0.10835555 -0.15008658
0001b0 15 f1 b3 bc 1d 5d 23 3e 9a 02 17 3c 51 94 1a 3e
       -0.021965543 0.15953489 0.009216929 0.1509564
0001c0 a1 f7 5b 3e 14 6c 0f 3e 11 13 6c 3c 62 94 18 3e
       0.21481182 0.14006072 0.014408843 0.14900354
0001d0 34 a6 ce bc 49 08 4d 3d 46 6c f3 bd c9 43 8a 3d
       -0.025225736 0.05005673 -0.11885886 0.0675121
0001e0 3c 41 fb bd fb ae 03 3c aa 1f 00 be 78 e2 88 3d
       -0.12268302 0.008037324 -0.12512079 0.066838205
0001f0 9e 04 13 be 6c 6f 22 3d 1e 93 08 3e c5 60 69 bd
       -0.1435723 0.03965704 0.13337371 -0.056977052
000200 53 bb eb 3d 9a 94 a1 bd e1 ea ae 3d 4d 3c 51 bd
       0.11510339 -0.078896716 0.08540893 -0.051082898
000210 ce 90 ec 3d a9 1d eb bc b2 03 18 3e c5 da f6 bc
       0.11551057 -0.028700667 0.1484516 -0.030133614
000220 71 ad 10 bd a5 33 14 bc bd ef 53 bd 6d 39 49 3d
       -0.035321657 -0.009045516 -0.051742304 0.04912703
000230 0a 78 5d bd 3b 26 11 3d f6 b2 81 bd f2 04 9f bb
       -0.054069556 0.03543685 -0.06332962 -0.0048528844
000240 9c e4 e7 bd 3b 78 be 3c 5b fb ff bd b0 68 d4 3c
       -0.11322901 0.02325069 -0.12499114 0.025928825
000250 85 6b 6e 3d 29 d8 39 3d e1 96 f8 bd cb b5 8a 3d
       0.058208007 0.045372162 -0.12138153 0.067729555
000260 d6 f2 d3 bd 76 11 81 3e f3 42 b0 bb 4d c1 5e 3e
       -0.10349052 0.25208634 -0.0053790747 0.21753426
000270 89 8b e7 bc a2 11 a9 ba 68 0d 7c 3b d3 a7 7d 3e
       -0.028264778 -0.0012898932 0.003846014 0.24771051
000280 0c 2a 25 bd 19 00 6e 3e 0c e0 67 bd 6c 3a 9a 3e
       -0.040323302 0.23242225 -0.056610152 0.30122697
000290 f3 82 87 bd 92 e3 91 3e 22 16 93 3e 9f ff a2 3e
       -0.066167735 0.28493935 0.28727823 0.31835648
0002a0 3e 49 b0 bc 4c 0d 8b 3e 47 d0 a4 bd 9e a2 63 bc
       -0.0215193 0.27158582 -0.08047538 -0.013893751
0002b0 ef 8e b4 bc 4d a3 98 3b 5d 8c ad bc 7e 02 54 bc
       -0.022040812 0.004658139 -0.021185094 -0.012940047
0002c0 58 17 ee bc b6 31 0e bd bd 9a 15 bd 11 18 04 bd
       -0.029063866 -0.034715377 -0.036524523 -0.032249514
0002d0 29 01 64 bc d7 de 00 be 29 31 6b bd ea fb 80 bd
       -0.013916292 -0.12585007 -0.05741993 -0.06298049
0002e0 aa f8 cd be 2d 59 b2 bd 16 f7 c4 bb be e2 17 be
       -0.40228778 -0.08708415 -0.0060109003 -0.14832589
0002f0 3e bd 1f ba 0c 22 53 3d 1d 19 71 bd 0c 2e 5d 3d
       -0.0006093568 0.05154614 -0.05886184 0.05399899
000300 03 1a 75 bd 2c b5 6a be 59 fc 54 bd af cf c4 3b
       -0.05983926 -0.22920674 -0.05199847 0.006006203
000310 44 e7 ae bd 98 51 59 ba 07 94 91 3d f2 bc eb 3d
       -0.08540204 -0.00082900515 0.07108312 0.11510648
000320 4f 76 ad 3d 16 62 08 3e 10 80 c4 3e 81 d2 d3 3d
       0.08469831 0.13318667 0.38378954 0.10342885
000330 8c 1b a9 3c 4c 81 bd 3d c9 5f 89 3d b1 26 b3 3d
       0.020643018 0.09253177 0.06707723 0.08747614
000340 db 23 98 3d 31 f9 36 3d d7 f8 fd 3d e8 e4 b3 3e
       0.07428714 0.04467124 0.12400978 0.3513558
000350 a6 6d ca 3d 69 c5 9d 3d 5c f5 d6 3d a3 78 37 3d
       0.09884195 0.077036686 0.10496017 0.044792783
000360 fc b9 8d 3b 45 f6 8a bd fa 62 54 3d 46 6c a2 bd
       0.0043251496 -0.067852534 0.051852204 -0.07930808
000370 06 4a b0 be f2 e9 66 bd 6d e3 94 3c b4 39 95 bd
       -0.34431475 -0.05637545 0.018174851 -0.072863966
000380 39 62 bf 3c 3b ef 77 bd a8 d9 66 3d b7 87 27 bc
       0.023362266 -0.060530882 0.056359917 -0.010225228
000390 7e 39 81 3b ca 2d 61 3e 43 de 96 3d 02 4a 08 3c
       0.003943621 0.21990123 0.07366612 0.008318426
0003a0 ee d2 32 3d 81 c5 d9 bc 7c 94 f7 3c b0 57 83 bc
       0.04365819 -0.026583435 0.03022217 -0.016033024
0003b0 b7 90 7c 3c 71 38 80 bd 8b 42 20 be 3a 28 77 bb
       0.015415362 -0.06260765 -0.15650384 -0.0037713186
0003c0 85 55 6d 3c a5 bd 28 bd a9 3c 14 3d bd d1 67 3d
       0.0144857215 -0.041196484 0.036190663 0.056596506
0003d0 46 50 b8 bc cf 94 84 3d ca d2 a4 bb 9b fd dd bd
       -0.022499215 0.064736955 -0.005030011 -0.10839387
0003e0 bf ea c9 bc 7e d9 7e 3d df 8f ea bb cf fb a0 3c
       -0.024648068 0.062219135 -0.007158264 0.019651322
0003f0 4c 34 0c bd 5f 85 3d 3d ca 2d 84 3c 01 38 f0 3c
       -0.03422956 0.04626977 0.016135115 0.02932358

encoder_layers.block_0.transition.bias f4 [5]
000000 ab 45 2d 3e 37 3b 05 bd e0 df 5a 3d db 5e a0 bd
       0.16921107 -0.032527175 0.05343616 -0.07830592
000010 48 5c 5a 3c
       0.013327666

encoder_layers.block_0.conv.weight f4 [40, 15, 1, 1]
000000 55 ab 82 3d 47 29 88 3d 91 81 95 3d 25 61 f5 bd
       0.06380335 0.06648498 0.073001035 -0.119814195
000010 f8 3b 46 3e 30 e7 45 3d 36 e3 b9 3d f9 67 02 bf
       0.19358814 0.04831618 0.0907654 -0.509399
000020 1d 1a c0 3c 2c 6b 42 bd 0c cc 1d bc d4 53 cf be
       0.023449952 -0.04746549 -0.009631168 -0.40493643
000030 86 74 a1 be 0b a0 6e 3c 49 c5 9a bd 37 73 23 3e
       -0.31534213 0.014564524 -0.075571604 0.1596192
000040 ce 69 03 bd fa 9f 84 3e 21 56 9b 3d 35 39 9f 3e
       -0.032083325 0.25903302 0.07584787 0.31098333
000050 53 d5 ff bc 4b d7 1c 3e 37 f0 af bc da d7 03 be
       -0.03122965 0.15316503 -0.021476848 -0.1287531
000060 14 8b d2 3c 4b aa c5 bd c2 87 39 3e 9e cf 26 bd
       0.025701083 -0.096516214 0.18118194 -0.040725343
000070 2e 84 0b 3e 4b c9 a4 3d e0 21 66 be c4 4d 70 be
       0.13624641 0.08046206 -0.2247386 -0.23467165
000080 4e 04 76 bd cc 6a 6c bd 32 7c 3d 3e da 01 17 bc
       -0.0600627 -0.057719037 0.18504408 -0.00921675
000090 18 ce 93 be ca 70 6f 3b c7 72 1d bd 46 0c b1 3d
       -0.28868175 0.0036535733 -0.03843954 0.08644919
0000a0 be db 2f bd 1c 6a 0f bf a1 01 18 3e 14 22 56 b9
       -0.04293417 -0.56021285 0.14844371 -0.00020421325
0000b0 56 a9 49 bd 58 9e 42 3f c0 10 ba 3e e0 51 3c 3e
       -0.049233757 0.76022863 0.36340904 0.18390608
0000c0 1c e5 0e 3e e6 70 10 3e 57 bc ca 3d 64 51 c7 3e
       0.13954586 0.14105567 0.09899204 0.38929284
0000d0 02 6d ff bd e6 d5 c2 bd 01 e8 07 3d fd 9d 4d bd
       -0.124719635 -0.09513454 0.03318024 -0.050199497
0000e0 f8 04 67 3f 00 19 d7 be 6c 01 12 3f 1e 2a 20 3e
       0.90241957 -0.4201126 0.5703342 0.15641066
0000f0 8c 3f a2 bd 27 41 fd bc 2f 72 e3 3d e2 59 70 3b
       -0.07922277 -0.030914856 0.11105763 0.0036674668
000100 bf ed 31 3d 05 4d 97 3d ce 81 8a 3e dc 81 05 bd
       0.043439623 0.07387737 0.27052158 -0.032594547
000110 8c 4c 8a bd f4 e0 32 be 86 1f 0e 3e c0 58 40 3e
       -0.067528814 -0.17468625 0.13879213 0.18783855
000120 59 a6 fd 3d b0 67 ca bc 7f d7 ed bd 13 4e fc bb
       0.12385244 -0.024707645 -0.11613368 -0.007699737
000130 81 ad cb 3c 4c 7f db be ba 5e e3 3d 08 9a b8 be
       0.024863007 -0.42870557 0.11102052 -0.36055017
000140 43 b9 5f be 4c 18 05 3e af 89 b6 bd 1b 08 2a 3e
       -0.21848015 0.1299755 -0.0891298 0.16604654
000150 8d fb 15 be af 91 d4 3d ef a9 9a 3e 43 23 8f bd
       -0.1464674 0.103793494 0.30207774 -0.069891475
000160 07 83 0b bd 61 2d bf 3d 43 b9 38 3e be 7e 1f bd
       -0.034060504 0.09334827 0.18039422 -0.03893923
000170 0e 45 0d bc c8 a7 1a 3d 9d 02 c2 3d 63 4f 3f bd
       -0.008622421 0.037757665 0.09473155 -0.04670657
000180 57 a9 0b bd 80 b8 f2 bd e8 ea 68 3c 14 b8 29 be
       -0.034097042 -0.11851597 0.014216162 -0.16574126
000190 c7 31 ff bd 63 d4 8c bd c2 05 3f be 1e 1c 84 bc
       -0.12460666 -0.06876447 -0.1865454 -0.016126689
0001a0 55 bc 89 be df 34 bb bd f3 73 81 3d a1 cf 4d bd
       -0.26901498 -0.09140944 0.06320944 -0.05024684
0001b0 e6 3b 96 be a5 e8 1f bf 0a 2b 75 3e be ed 21 3e
       -0.29342574 -0.6246436 0.239422 0.15813348
0001c0 9c b5 55 bf 34 76 d9 bb 3a 5c 84 bd 12 b2 01 3e
       -0.8348024 -0.0066364054 -0.06462903 0.12665585
0001d0 52 f4 ea 3d ec 58 49 be 61 d8 3e 3e c7 a3 c2 bd
       0.11472382 -0.19662827 0.1863723 -0.09503894
0001e0 fb 29 37 3e 81 9b 1f be 23 f5 62 bd f4 98 55 be
       0.17887108 -0.15586664 -0.05540956 -0.20859128
0001f0 32 55 e1 bb d7 36 1b 3f 44 ed ec bd c4 31 c3 3e
       -0.006876611 0.60630554 -0.11568692 0.38123906
000200 56 f5 ef be 0a 5a 59 be 5a 1e 98 bd f0 82 57 bd
       -0.46866864 -0.21225753 -0.07427664 -0.052615106
000210 23 e8 9c bd 77 cf 56 3e c0 b4 b8 bd 69 0f 9f be
       -0.07661464 0.20977579 -0.0901885 -0.31066445
000220 b9 24 4d 3e f9 d4 4f bd 5f 5a 82 3d 55 d1 f8 3c
       0.2003354 -0.050740216 0.06364893 0.030373255
000230 4c 83 28 be a1 28 47 bd c4 3a 21 bf b3 47 81 3e
       -0.16456336 -0.04862273 -0.62980294 0.25250015
000240 c5 ac 5a 3c af 0c 80 3d 08 5b 9a 3f b2 50 f7 3d
       0.0133468555 0.06252419 1.205903 0.12075938
000250 81 cb 4b be e3 12 4d 3d dd b3 96 bd eb a4 c7 bd
       -0.1990185 0.05006684 -0.07358525 -0.097482525
000260 cd 07 7a bd 80 ff 2e be a2 ca 82 3d 24 cd 65 3d
       -0.061042596 -0.17089653 0.063863054 0.05610384
000270 75 e1 05 be d7 ff 77 be bf a4 30 3e ae 3f e5 3d
       -0.13074286 -0.24218689 0.17250346 0.111937866
000280 f7 e3 2e be f5 df 1c bd 6e e6 02 be 45 cb fc 3e
       -0.17079149 -0.03829952 -0.12783214 0.49373832
000290 48 a6 27 bd 99 e5 0e 3e 7d 14 ca 3d 34 ef 84 3e
       -0.040930063 0.13954772 0.09867189 0.25963748
0002a0 ce 2f ab bd 51 bb 89 3e 48 c2 2f bd ef 23 79 3d
       -0.083587274 0.26900724 -0.04290989 0.060825285
0002b0 42 4c 00 be 06 1d d6 bd 0c ac 82 3c 1b 1f a5 bd
       -0.1252909 -0.104547545 0.015951179 -0.080625735
0002c0 b1 cf 63 3e cf 6b b8 3e 9a f2 24 bd 3c a2 06 be
       0.22247197 0.3601975 -0.040270425 -0.13147825
0002d0 62 3f 52 3e 22 09 48 bc 30 40 cf bd 83 e5 34 3d
       0.20531991 -0.012209209 -0.10119665 0.044164192
0002e0 de 14 d4 be c1 39 fd 3c 6e 14 68 3d 38 c5 91 3d
       -0.4142217 0.030911328 0.05666011 0.071176946
0002f0 44 cf 23 3c cf 6f bb bc e2 77 f4 3c 55 9c 6d 3e
       0.009998146 -0.022880463 0.02984232 0.23204167
000300 a8 60 8f bd d4 7e a6 3c 93 9c e3 3d 61 df cc bc
       -0.070008576 0.020324148 0.111138485 -0.02500886
000310 ce 7b 18 bd 5d 3d 77 be 25 a2 f0 bd 30 3e 42 be
       -0.037227444 -0.24144502 -0.117496766 -0.18969035
000320 38 d0 80 3e 18 9b 81 3e 33 15 97 3d f9 5c 01 bd
       0.25158858 0.2531364 0.0737709 -0.031582806
000330 83 e3 f9 bc 86 82 b0 3d 69 ce 02 3c 13 e7 42 be
       -0.030503994 0.08618645 0.007983782 -0.1903346
000340 25 30 c7 3e 12 3d ac 3c 56 5f 64 be 40 fc a7 3e
       0.3890392 0.021025214 -0.22301993 0.3280964
000350 dc 1f 27 3e d9 a7 30 be 9c c7 d7 bd 9b 5c 7d be
       0.16320747 -0.17251529 -0.10536119 -0.24742357
000360 34 84 ff 3d 9a 4f 06 bf 01 de 0b be 66 e7 a2 3d
       0.124763876 -0.5246521 -0.13658907 0.07954292
000370 0d e5 c4 3d a3 ea d6 3d 54 9b 94 3d ad 1c 3a be
       0.096140005 0.10493972 0.07256189 -0.18175001
000380 68 e5 1e be bf 38 83 3e f4 74 52 3e ef b3 00 3f
       -0.15517199 0.2562923 0.20552427 0.50274557
000390 42 80 40 3e 27 90 93 3d bb c3 37 be cf 57 ce 3d
       0.18798926 0.07205229 -0.17945759 0.10075342
0003a0 bb 56 f5 bd 40 d4 b6 3d 4c 64 2d bd 8c c5 2e be
       -0.11979433 0.08927202 -0.04233198 -0.17067546
0003b0 82 94 d9 bd f3 21 2e 3d 62 e6 a6 3d e5 38 b6 bc
       -0.10624029 0.042512845 0.08149411 -0.022243926
0003c0 0b 58 bb bd 6e 8f f0 bd 9d 6b 1a 3e d7 c7 19 3e
       -0.09147652 -0.11746107 0.15080114 0.15017639
0003d0 2a a7 61 bd 08 04 49 3d 98 b3 89 be 4f 1b 09 3e
       -0.05509106 0.04907611 -0.26894832 0.13389324
0003e0 61 6f b7 3d 62 25 a6 3e d0 0f 07 3e 80 3f 05 3e
       0.08956791 0.32450396 0.13189626 0.13012505
0003f0 1f 41 37 3e bb f1 d2 bd 3e 05 50 3e ca 5f 62 be
       0.17895935 -0.10300013 0.203145 -0.22106853

encoder_layers.block_0.conv.bias f4 [40]
000000 ee 59 92 bd 19 0a 7a bd 08 42 1d be 88 f7 2c 3e
       -0.07146059 -0.061044786 -0.1535722 0.168913
000010 10 dd 0a be 61 63 6d bd c0 01 05 be 9d 39 31 3e
       -0.13560891 -0.057956103 -0.12988949 0.17307134
000020 07 07 8c be 40 ae 0e be 50 77 4b 3d 43 ee a9 bd
       -0.2734911 -0.13933659 0.049674332 -0.08297398
000030 77 1f 09 3e 22 34 6f 3e 8d 01 93 3d 21 49 c3 bd
       0.13390909 0.23359731 0.0717803 -0.095354326
000040 3f c9 c5 3d 58 74 13 bd 07 30 b9 3d 95 44 85 be
       0.09657525 -0.035999626 0.090423636 -0.26028886
000050 c8 1a 51 be 9f 74 00 be 97 fe 9d 3d 98 51 9d be
       -0.20420372 -0.12544487 0.07714575 -0.30726314
000060 6b 03 1b 3e cf a4 4b be e3 21 d1 bd 46 3a 4f be
       0.15138023 -0.19887088 -0.102115415 -0.20237073
000070 27 8c 9c bb 25 b1 95 be 44 bf fe bd 00 ba da bd
       -0.0047774496 -0.29236713 -0.12438825 -0.10680008
000080 e5 39 d7 bd 60 84 cb bd 2e fb 2d 3c b9 52 e8 bd
       -0.105090894 -0.09937358 0.010618968 -0.11343903
000090 a9 6c 0d ba 4e cc 86 3d 6b 12 13 be f1 36 34 3e
       -0.0005394915 0.06581937 -0.14362495 0.17599083

encoder_layers.block_1.transition.weight f4 [5, 20, 3, 3]
000000 5b 96 0d bc ae 44 df 3c 40 d2 91 bc 29 b2 f2 3c
       -0.008641805 0.027254429 -0.01780045 0.029625969
000010 f3 ec 69 3c e0 73 ed 3c 56 73 4d bc f5 36 cb 3c
       0.0142776845 0.028985918 -0.012539705 0.024806479
000020 89 d8 b8 bb fb 21 9a 3c a9 fb 1e 3d 25 ca 99 3c
       -0.0056410474 0.018815031 0.03881422 0.018773148
000030 a6 ab 21 3d a2 b4 2e be 72 de 1e 3d 48 f7 96 3b
       0.039470337 -0.17061093 0.03878636 0.004607115
000040 17 4e 3d 3d 64 89 5e 3c c7 58 ba 3d a6 34 30 3e
       0.04621705 0.013582561 0.09098964 0.17207584
000050 57 dc b5 3d 6c 85 3a 3e 1b bb 07 3e 3e 5b 31 3e
       0.08879917 0.18214959 0.13254969 0.17319962
000060 e6 28 b1 3d 4e 0d 36 3e 2b 37 af 3d 4f bd 8e bd
       0.08650379 0.17778513 0.08555444 -0.069697015
000070 53 bd ea bd e6 b9 bb bd b7 a9 eb bd c9 21 a4 3d
       -0.11461892 -0.09166317 -0.1150698 0.080142565
000080 a8 69 e9 bd 8c 98 b0 bd 6c ee ea bd ac 54 9a bd
       -0.113971055 -0.08622846 -0.114712566 -0.07535681
000090 92 6c 45 bd a0 0a 46 bc 41 59 20 bd 91 e5 d4 bb
       -0.048199244 -0.012087494 -0.03914762 -0.006497093
0000a0 26 44 6c be ce 93 3a bc e1 49 f5 bc e5 50 0b bc
       -0.23072872 -0.011387778 -0.029942455 -0.0085031735
0000b0 3b 1b 18 bd 12 ca ef bd 72 f4 1b 3b aa d0 c8 bd
       -0.037135344 -0.11708464 0.0023796824 -0.098054245
0000c0 9c d9 5e 3c 4a 2e c4 3d 95 e4 8e 3c a6 8c c8 bd
       0.013601687 0.095791414 0.01744298 -0.097924516
0000d0 87 dc 87 3c a1 00 ea bd eb 7f c7 3d 6d e6 c8 ba
       0.016584648 -0.11425901 0.09741195 -0.0015327461
0000e0 ca 79 c5 3d 0f 07 35 3b 9a ce c6 bb 02 07 c2 3b
       0.0964237 0.0027622615 -0.0060671093 0.0059212456
0000f0 ae 14 d3 3d ca 37 85 3a 3c cb c5 3d 16 64 82 3c
       0.10306679 0.0010163721 0.096579045 0.015916865
000100 17 f7 93 3d 12 17 67 3c ba a4 8b 3d 06 f4 87 3e
       0.07224863 0.0141046215 0.068185285 0.26553363
000110 18 31 8f 3d 2d 6f 60 3a 4b bf 9e 3d 7b d1 28 3c
       0.06991786 0.00085614884 0.0775133 0.01030385
000120 df 2a b0 bd b0 75 56 3e e3 8d aa bd e6 3c 53 3e
       -0.08601927 0.20943332 -0.08327844 0.206287
000130 47 0c a4 3e ce c9 5b 3e 54 07 95 bd c3 0f 58 3e
       0.32040617 0.21463701 -0.07276788 0.21099763
000140 bf 05 b9 bd 8c c7 c4 bc 89 a9 fb 3d 60 fe d2 bc
       -0.09034299 -0.024020933 0.12288196 -0.025756061
000150 e8 27 f2 3d 0e d6 c3 3e d1 8a eb 3d e2 19 93 bc
       0.11824018 0.38249248 0.115010865 -0.017956678
000160 0e 75 e9 3d ff 57 8a bc 06 5d 8a 3d 64 a3 2e 3e
       0.113992795 -0.016887663 0.06756024 0.17054516
000170 0f d9 b1 3d 77 3d 3b 3e 46 31 a0 be 1d c5 39 3e
       0.08683979 0.18285166 -0.31287593 0.18141599
000180 32 ea 9a 3d 63 4a 35 3e 76 1f 7f 3d 2b 7e 2b be
       0.075642005 0.17704158 0.062285863 -0.16747348
000190 b8 9b 7f bd fa c3 2f be 1d a3 7b bd cc 16 1a 3d
       -0.062404364 -0.17164603 -0.061434854 0.037619397
0001a0 48 7d 9a bd 87 80 34 be 9b 03 91 bd 48 9f 1a be
       -0.07543427 -0.17627154 -0.07080766 -0.15099823
0001b0 05 bc 8b 3d e7 28 80 3d 1b 58 ad 3d 36 07 5b 3d
       0.06822971 0.062578015 0.084640704 0.053473674
0001c0 2c 61 ba 3d cf 5c 1e 3d ef c8 ad 3d 84 98 40 3d
       0.09100565 0.038662728 0.08485591 0.04702045
0001d0 c5 30 78 3d dd e9 51 bd 8f 80 0f bd 18 65 78 bd
       0.060593385 -0.05124842 -0.035034712 -0.060643286
0001e0 e4 c9 29 bd 76 5e 9a 3c ee b9 2c bd 02 3f 5b bd
       -0.041452304 0.01884387 -0.042169504 -0.053526886
0001f0 00 89 08 bd 88 1b 68 bd bd 3d c5 bd a7 e8 a7 3d
       -0.03333378 -0.05666688 -0.09630916 0.08198672
000200 45 41 a1 bd 24 79 8e 3d fd 13 5c 3e 0b bd 93 3d
       -0.07873777 0.069566995 0.21492 0.072137915
000210 46 f8 ab bd c5 ed 9f 3d db c4 be bd f4 35 cb bc
       -0.08396964 0.07809023 -0.09314891 -0.024806
000220 06 9a a5 be a0 27 d3 bb ad 0c a3 be fb 4f 72 be
       -0.32344073 -0.0064439327 -0.31845608 -0.23663323
000230 9f c3 ac be aa 79 33 bc 7a 02 a3 be 41 5f a3 bc
       -0.33742997 -0.0109543 -0.31837827 -0.019942882
000240 d9 e0 b7 bd 31 ad 81 3d 29 1b 9f bd b6 0e 5b 3d
       -0.08978433 0.06331862 -0.07768852 0.053480826
000250 bf 06 04 3e 1d 69 3f 3d 1b c1 af bd 97 60 77 3d
       0.12893198 0.046731103 -0.08581754 0.06039485
000260 dd 27 8e bd f8 e9 06 be 38 89 1c 3d 32 ca 0c be
       -0.06941197 -0.1317519 0.0382168 -0.13749006
000270 01 96 45 3d 06 c5 1b bc b3 a6 07 3d f4 39 13 be
       0.048238758 -0.009507423 0.03311796 -0.14377576
000280 20 5d 21 3d c5 c6 05 be eb d6 c6 bb 59 77 0e 3e
       0.03939545 -0.13064106 -0.0060681007 0.13912715
000290 2f 9b b0 bc 89 17 19 3e b0 72 cf 3c ab 30 10 3e
       -0.021558372 0.14950384 0.025323242 0.14081065
0002a0 f6 43 60 bc 93 e3 06 3e 4f d7 65 bc 04 0f 20 3c
       -0.013688078 0.1317275 -0.014028384 0.009769205
0002b0 62 ce 40 3e c4 86 8f 3c 52 c5 48 3e 62 e7 5e bd
       0.18828729 0.017520316 0.19606522 -0.054419883
0002c0 b9 ec 4b 3e 99 86 a9 3c 1c 75 41 3e 7a 24 0c 3c
       0.19914521 0.020694064 0.1889233 0.008553619
0002d0 9a 6c 8d bd 4c 4c 80 3d bb 28 91 bd ba e2 75 3d
       -0.0690548 0.062645525 -0.07087847 0.060030676
0002e0 e9 de 2a 3d cc 5d 78 3d 2d e2 90 bd a6 d7 7b 3d
       0.04171649 0.060636327 -0.070743896 0.061484955
0002f0 83 e3 86 bd 81 a6 47 bd b4 1d 94 3d e0 b1 33 bd
       -0.06586363 -0.048742775 0.07232228 -0.043870807
000300 92 81 8f 3d d0 26 19 bd fb a5 96 3d 69 50 40 bd
       0.070071355 -0.03739053 0.07355877 -0.046951685
000310 31 75 93 3d 00 c9 53 bd 05 c9 76 3d c4 33 28 bc
       0.07200087 -0.05170536 0.0602503 -0.010266248
000320 1a c5 7e 3d 48 76 86 bc 82 99 95 3c a2 97 94 bc
       0.06219969 -0.016413823 0.018261675 -0.01813871
000330 26 ec 88 3d be 25 a4 bc bd 39 8c 3d 98 12 26 3d
       0.06685667 -0.020037528 0.0684695 0.040545076
000340 ee 17 17 3e 0b 57 0c 3d 07 3b 1a 3e 8c 68 cd bb
       0.14755222 0.0342627 0.1506158 -0.0062685665
000350 df 78 10 3e 28 ce 08 3d 0f 6d 12 3e 6d 3e 27 3d
       0.14108609 0.03339973 0.14299415 0.04083102
000360 13 4c 45 be ef 12 85 be db c5 53 be 36 d5 81 be
       -0.19267301 -0.25991008 -0.20680945 -0.2535798
000370 94 36 97 bd 19 ee 81 be a2 80 56 be 92 9d 7f be
       -0.07383457 -0.25376967 -0.20947507 -0.24962452
000380 e6 50 49 be a2 49 17 3d 88 ac c8 3b 87 33 6d 3d
       -0.19659767 0.036935456 0.006124083 0.05791047
000390 e4 ed 18 3b fa 88 4e 3e dd 74 cf 3a 31 a8 53 3d
       0.0023335153 0.2016944 0.0015827675 0.05167407
0003a0 35 d3 fc 3b 73 60 0b 3d 49 31 2a bc 47 57 e4 bd
       0.0077156075 0.034027528 -0.010387727 -0.11149459
0003b0 68 d9 92 bb 46 e7 e8 bd 67 f9 37 be 17 a6 e8 bd
       -0.0044814833 -0.11372237 -0.17966233 -0.11359804
0003c0 eb ce 42 bb 3b 7b e4 bd d7 1f 14 bc 7b 5f 0d 3c
       -0.0029725384 -0.11156317 -0.009040794 0.008628721
0003d0 03 5c 34 bc 0a 5a b8 3b 0d e0 08 bc 5d 85 03 3d
       -0.011008265 0.005625968 -0.008354199 0.032109607
0003e0 be 14 77 bc 11 ac b6 3a 54 5e 34 bc 52 ad 1d 3c
       -0.015080629 0.0013936778 -0.011008818 0.009623842
0003f0 5c 35 4a bb 59 83 e6 3d fb 85 38 bb 0e 03 e7 3d
       -0.0030854559 0.11255521 -0.002815603 0.112798795

encoder_layers.block_1.transition.bias f4 [5]
000000 b4 dd a0 ba 6c 43 89 bd d6 2c 2c 3e 11 05 0a 3d
       -0.0012273104 -0.06702313 0.16813979 0.033696238
000010 0e 87 a7 bd
       -0.081800565

encoder_layers.block_1.conv.weight f4 [40, 15, 1, 1]
000000 98 52 5a bd ec 48 09 bd 40 a7 a7 3e 27 78 1c be
       -0.053301424 -0.03351681 0.3274479 -0.1528021
000010 7f e0 51 3e 0d 71 e7 3d 5c af 7f 3e e3 5f 14 bc
       0.20495795 0.113008596 0.24969238 -0.009056064
000020 d0 e7 87 be bc 50 ab be 2e 2a d9 bd 66 4e d1 3d
       -0.26544046 -0.33460033 -0.10603748 0.102200314
000030 25 31 38 be 6c 7e a9 3e ca be 7d be 77 26 10 bf
       -0.17987497 0.33104265 -0.24779812 -0.5630869
000040 9d 82 39 be 83 3a 2e bf aa 70 2c 3e 62 1e af 3e
       -0.18116231 -0.6805803 0.16839853 0.34202868
000050 b8 64 51 3e ba 5d 0f be d4 a5 3e bd 14 3a 76 3e
       0.20448577 -0.14000598 -0.046544865 0.24045593
000060 30 a9 de bd 26 91 72 be 00 9e c8 3d 4b 88 89 3c
       -0.10872114 -0.23688182 0.09795761 0.016788622
000070 b7 d0 ea 3d ed 2a ba 3d 8e 9f 35 3d 05 bf 2a 3d
       0.114655904 0.09090219 0.044341616 0.041686077
000080 0f c5 f3 bd b5 c9 5e 3e 70 15 b0 bd c6 25 07 3f
       -0.1190282 0.21756633 -0.08597839 0.5279201
000090 64 07 a4 bd ea 09 e3 3d 95 3d 64 3d 50 7e 1d bd
       -0.08009222 0.11085875 0.05572279 -0.03845054
0000a0 37 c6 e3 bc 9f 1e 19 3e 6c 9d 49 be ba 5c 89 3e
       -0.027804477 0.14953087 -0.19688958 0.26828557
0000b0 9a 37 30 3e c5 b8 cb be 02 c3 0d 3d 15 c4 de bd
       0.1720871 -0.39789405 0.034609802 -0.108772434
0000c0 c3 73 e7 3d af 18 b4 3e bb 06 c1 be 7c ad a4 bd
       0.11301377 0.35175082 -0.37700447 -0.08040902
0000d0 65 c1 c5 bd a7 be a2 3e 25 39 09 bf 6d f9 6b be
       -0.09656028 0.3178608 -0.5360282 -0.23044367
0000e0 f6 cb 32 be c8 2b 15 bc c7 c6 6b be 68 17 3a be
       -0.17460617 -0.009104677 -0.23025046 -0.18172991
0000f0 ee 89 96 3e 60 9e 25 be 5d 68 d6 be 8d 91 19 bd
       0.29402107 -0.16173697 -0.41876498 -0.037492324
000100 e5 42 9a 3d 75 8c 82 be fa f0 b0 3d 36 07 aa bd
       0.0753229 -0.25497785 0.08639713 -0.083021566
000110 02 5d 84 be a2 58 e8 be 5f ac cb bd bf dd 25 bf
       -0.2585221 -0.4538012 -0.099449866 -0.6479148
000120 18 cb 02 be 85 5e 9c be f5 34 1d be 04 8e 00 be
       -0.12772787 -0.30540863 -0.15352233 -0.12554175
000130 84 7c 61 bc 11 2c 58 3e 26 2b 0f bd 3d 1a 58 3e
       -0.013762597 0.2111056 -0.03495326 0.21103759
000140 1b 3d 36 3c 23 62 53 bd 27 c7 de bd da 2b 95 3e
       0.011122967 -0.051607262 -0.10877829 0.2913502
000150 3b 05 46 3e 02 01 bd 3e a9 9e 98 bc 3f b8 ee 3d
       0.19337933 0.3691483 -0.018630343 0.11656236
000160 df 64 37 be 3d b9 85 3d f6 7e 3c be 9b 3a 51 3d
       -0.17909573 0.06529472 -0.18407807 0.05108128
000170 92 67 09 bd 8f 6a 40 3e 76 a1 f9 bc bc 7f c7 bb
       -0.033546038 0.18790649 -0.030472498 -0.006088225
000180 a1 63 63 3c 95 9f 19 3d 5f 0c 0f 3e 0a 25 ae 3e
       0.013878734 0.037505705 0.13969563 0.34012634
000190 8e d6 fa be 00 6d 3a 3e df 64 40 be 90 95 79 3e
       -0.48991817 0.18205643 -0.1878848 0.2437346
0001a0 1c 1a 88 be 9f 87 b0 bd c8 06 fd 3d ef ad 11 be
       -0.2658242 -0.08619618 0.12354809 -0.14226507
0001b0 b4 96 bc 3e 01 9e 57 3d 4f 78 bf be 7e 22 4a 3e
       0.36833727 0.05264092 -0.37396476 0.1973972
0001c0 83 2d 8f 3c 81 2c 42 3d 23 20 07 bf 99 7b 3b 3e
       0.017477756 0.047405723 -0.5278341 0.18308868
0001d0 2f e2 4b be 2b c6 27 bd bd d3 9d be 58 9f 73 3c
       -0.19910501 -0.040960472 -0.30825606 0.0148695335
0001e0 5e fd 23 be 1d 8a 1b bf e4 d8 a9 3f 4f 5d 93 be
       -0.1601462 -0.6075762 1.3269315 -0.28782126
0001f0 2a 88 dc 3d 25 d0 31 3f 30 b8 9c 3c 53 0a 26 be
       0.10768159 0.6945823 0.019130796 -0.16214876
000200 10 b0 14 3f f3 15 b0 3e b2 ac 7f 3f 73 bf 6c bd
       0.5808115 0.34391746 0.9987289 -0.057799768
000210 2f 47 2a 3e b8 87 bd 3c d3 09 c4 3d 2a c1 a4 bd
       0.16628717 0.023136005 0.09572186 -0.080446556
000220 85 ee dd bd 06 4a 4a bf 3e e2 4a 3e f1 63 36 3e
       -0.108365096 -0.790192 0.19812867 0.17811562
000230 a5 b3 44 3e ce 88 ba 3c 3a 12 11 be ae f6 b1 bd
       0.19209154 0.022770312 -0.14167109 -0.086896285
000240 ab 65 04 3e 2a 02 7f bd 02 b2 db be 96 6c 1c be
       0.12929408 -0.062257923 -0.42909247 -0.15275797
000250 7f 30 af bd ea 22 85 be 0b 33 11 3e 21 5f ac 3d
       -0.08554172 -0.260032 0.14179628 0.08416582
000260 47 03 e5 be 72 bc 2c bd dd 39 94 bd 6b c0 58 3e
       -0.44729063 -0.042171903 -0.07237599 0.21167152
000270 12 bf 8b be 78 82 9f 3c 52 bf ae 3e 1f 42 6e 3e
       -0.27294213 0.019471392 0.3413034 0.2326741
000280 d4 0d fc 3e 93 79 0a 3e b1 27 57 3e ce 44 02 be
       0.492293 0.1352294 0.21011235 -0.1272156
000290 1e 14 c4 3d 76 39 76 be 64 9a e1 3c 42 9c 61 3e
       0.095741495 -0.24045357 0.02753944 0.22032264
0002a0 f6 17 2a be 67 68 91 be d5 ac 2e 3f 17 80 40 3c
       -0.16610703 -0.28399965 0.6823247 0.011749289
0002b0 ad 0f 0c 3e 89 3d b3 bc fa 6b c4 3d 65 78 7b 3d
       0.13677855 -0.021879928 0.095909074 0.061394114
0002c0 c9 91 4a 3d 32 e5 64 3e 7f c1 d2 3e b6 67 0c bd
       0.049455438 0.22353056 0.4116325 -0.034278594
0002d0 26 26 1a 3e 72 4f 20 3d 9e 1e 95 3c eb f5 d4 bd
       0.15053615 0.039138265 0.018203076 -0.10398468
0002e0 3a 2d fb 3e 13 3d f9 be a7 e3 ba 3d ac f8 ff 3b
       0.49057943 -0.48679408 0.091254525 0.0078116264
0002f0 84 5d 0e be 50 33 e0 3d 52 fe 14 3e 90 7e 90 bd
       -0.13902861 0.10947287 0.1455014 -0.0705539
000300 26 eb ab 3e 89 8c c1 3d 39 08 d8 bc 11 29 12 3e
       0.33577842 0.09450633 -0.026371108 0.14273478
000310 9f b6 14 3d 47 8f ae bc df 26 42 be 89 1c 80 be
       0.036306974 -0.021308554 -0.1896014 -0.2502177
000320 e8 52 e0 3c 76 67 d9 3d f9 af f4 3d 39 82 81 be
       0.027383283 0.10615437 0.119476266 -0.25294665
000330 81 4f 09 3f 4b 97 51 3d 95 fa af 3d 1d 61 28 3e
       0.5363694 0.051169675 0.085927166 0.16443296
000340 ab 47 73 be e8 ab b2 3e 19 b9 39 3d 92 38 b1 3d
       -0.23757808 0.3489678 0.04534254 0.08653368
000350 93 c2 0a bf 3e d4 8d 3e 5f 44 58 3e 78 ef 8b bf
       -0.54203147 0.2770099 0.21119832 -1.0932455
000360 ba 07 98 be 8f 47 38 be 6d 57 f4 3b 5f 34 bb be
       -0.29693395 -0.17996047 0.007456711 -0.36563393
000370 06 a4 7b be 2c 81 2b 3f 95 71 6d be 54 c8 24 be
       -0.24574289 0.66993976 -0.2318786 -0.16092044
000380 f7 0b 36 bf b1 37 46 3e f9 53 1f 3e 85 ac 12 be
       -0.71112007 0.19357182 0.15559377 -0.14323623
000390 7f 6f b4 bc a1 92 53 3e 0e f0 85 3e ea fa 08 be
       -0.022025822 0.20661403 0.2615971 -0.13376966
0003a0 21 05 3e bd 80 c6 27 3f c6 15 d9 be 6f ec 72 be
       -0.04639161 0.6553726 -0.42399424 -0.23723005
0003b0 e0 ee 86 3e 45 3f 6d be ac b5 d4 3d 31 37 90 3e
       0.26354122 -0.23168667 0.10386214 0.28167108
0003c0 6e 47 51 3e 3e 36 dd bd c9 5a 52 be aa c7 89 3e
       0.20437405 -0.108013615 -0.20542444 0.26910144
0003d0 bf c8 3a be f4 2b 93 be 28 0e 33 3e 5b 3d eb 3c
       -0.18240641 -0.2874447 0.17485869 0.02871578
0003e0 c9 20 04 be 6d 29 ec 3e 81 59 bc bc 70 85 3b 3d
       -0.12903132 0.46125355 -0.022991898 0.045781553
0003f0 46 a9 ec bc 31 fb 66 3e fc e5 ff 3d 1d 37 41 bc
       -0.02888931 0.2255676 0.12495038 -0.011792925

encoder_layers.block_1.conv.bias f4 [40]
000000 a0 1c db bd 3a 58 0f be 07 4d 03 3e 34 43 7e be
       -0.10698819 -0.139985 0.12822352 -0.24830323
000010 83 cc 97 3d ff 7c 08 be 1b d2 87 bd c0 21 30 bb
       0.074120544 -0.13328932 -0.06631871 -0.0026875585
000020 c8 30 84 bd 88 36 20 be 85 1d 03 3e 5d 57 0a 3e
       -0.06454617 -0.15645802 0.1280423 0.13509889
000030 b1 3d 4a 3e c2 04 89 3e c4 75 c8 be 34 9c ed 3d
       0.19750096 0.26761442 -0.39152348 0.11602059
000040 0c 3c 3f 3d b4 d6 1b 3e fd a6 98 3c 4f 70 c8 3e
       0.046688125 0.15218621 0.018634314 0.39148185
000050 d0 43 33 bd 72 fc 1e be e1 8d 84 3e af 30 99 3c
       -0.043765843 -0.15525988 0.25889495 0.018699972
000060 27 62 42 be 66 c8 d3 bc a2 47 fa bd c2 7f 85 bd
       -0.18982755 -0.025852393 -0.12220694 -0.065185085
000070 fb 86 c7 be 1c ff 18 3e 87 2c ab bd 25 f6 38 be
       -0.3897017 0.14941067 -0.08358102 -0.18062647
000080 10 a2 09 3d 78 ed 8c 3c 0c 94 a0 3e b4 ab 40 3d
       0.03360182 0.017203078 0.3136295 0.04703875
000090 66 e9 91 3d c2 ac f6 bd 36 70 28 be 7b 76 ae 3c
       0.07124595 -0.1204467 -0.16449055 0.02129673

decoder_layers.block_0.transition.weight f4 [5, 10, 3, 3]
000000 c1 7f 67 3e 1e d8 f3 3c 85 10 e9 3d a4 0a 25 3d
       0.22607328 0.029766139 0.11380104 0.04029335
000010 ec 2c 7b 3e fb 8c 3e 3d fa 43 06 3e 19 19 14 3d
       0.24528855 0.04652117 0.13111869 0.036156747
000020 6b 76 6b 3e fb 1b 85 bc 00 be ad bd 07 b2 16 bd
       0.22994392 -0.016248694 -0.08483505 -0.036790874
000030 cb 87 9c bd 6d da 03 3e 76 08 c6 bd ab de 35 bd
       -0.07643088 0.12876292 -0.096695825 -0.044401806
000040 ee b1 fd bd 1b ba 95 bc b6 41 dd 3d 47 79 ff bd
       -0.12387453 -0.018277219 0.10803549 -0.12474304
000050 a4 65 ae 3d 16 75 6e bd a0 b0 3a 3d 22 50 ca bd
       0.0851548 -0.05821713 0.0455786 -0.09878565
000060 5f ae 5a 3d 68 b6 b5 bd 70 26 a5 3d 24 26 8c be
       0.05338895 -0.08872682 0.08063972 -0.2737285
000070 26 ed 9e bc e9 cd 58 be 4e 23 a6 39 ce 6b f9 bd
       -0.01940019 -0.21172298 0.0003168829 -0.12178765
000080 70 1f 02 bd 9d 11 4a be ac eb 27 bd 32 7a 5e be
       -0.031768262 -0.19733281 -0.04099624 -0.21726301
000090 eb e5 14 be cc ff d1 bc ea 75 8a bd 5b 39 c7 bc
       -0.14540832 -0.025634669 -0.067607716 -0.024319341
0000a0 fc da 30 bd 1d ba a9 bc 13 dc ae bd 6e 13 03 bc
       -0.04317759 -0.020718629 -0.085380696 -0.008000238
0000b0 ed ec 48 be 85 35 91 be 2d b0 8f bd 66 c1 29 be
       -0.1962163 -0.28361145 -0.07016025 -0.16577682
0000c0 54 e6 4e bd 40 c9 a2 3e 48 d1 ba bd ec 09 5d be
       -0.050512627 0.31794167 -0.091219485 -0.21585816
0000d0 b0 a2 2c bd 11 49 84 be 14 77 9c bd 60 3c d4 3d
       -0.04214734 -0.25836995 -0.076399 0.10363078
0000e0 8b cf 10 be ee 70 f3 3d 51 4d f7 3c b1 8c 6d 3d
       -0.14141671 0.11886774 0.030188235 0.057995502
0000f0 8d 73 1e be 5d fb e8 3c 9d 84 36 bd a8 bf b4 bd
       -0.15473767 0.028440172 -0.044560064 -0.08825618
000100 f7 ef 06 3d 45 44 b9 bd 0d b5 89 3b 66 2a 71 3d
       0.032943692 -0.090462245 0.004202491 0.058878325
000110 92 48 f0 3c a3 6f a6 bd f2 4a 15 3d 24 f8 b3 bd
       0.02933148 -0.08126762 0.036448427 -0.087875634
000120 3d 80 db 3c 5c 61 d0 3d f7 61 f1 bd 6f 85 b0 3d
       0.026794547 0.1017482 -0.117862634 0.086192004
000130 ca 37 a1 3d c0 23 f8 3d 04 44 09 be 65 42 c8 3d
       0.07871969 0.12116194 -0.13404852 0.09778289
000140 89 46 36 3d f2 79 95 3e 90 7d 49 bd b5 fb 91 3e
       0.04450086 0.291946 -0.04919201 0.2851235
000150 e5 fd e4 bd d5 59 9c 3d a6 ac ba bd e7 42 92 3e
       -0.11181239 0.076343216 -0.09114961 0.28566667
000160 54 99 b5 bd bc 5f 9f 3e 0e 27 a2 bd be 56 0d 3e
       -0.08867136 0.31127727 -0.07917605 0.13802621
000170 7c bf 2a be f5 de 25 3e ff 7a 00 3e 7f 59 25 3e
       -0.16674608 0.16198333 0.1254692 0.16147421
000180 c9 55 2f be d1 85 15 3e d7 4d b3 bd 45 e8 21 be
       -0.17122568 0.14601828 -0.08755081 -0.1581126
000190 8b 5c 02 3e 2f f2 a9 bd 04 0a ef 3d 00 dc e9 3d
       0.12730615 -0.08298146 0.11671832 0.11418915
0001a0 9b 0a b8 3d 09 c1 a9 bd 57 37 ef 3d bc 94 02 be
       0.08986398 -0.08288772 0.11680477 -0.1275205
0001b0 2a 8b b8 be 38 0c ce bd 3f 38 a9 be be a9 0c be
       -0.36043674 -0.10060924 -0.33050725 -0.13736627
0001c0 64 7f ac 3d f4 19 15 be b5 a3 a7 be 0c 72 19 be
       0.08422735 -0.14560682 -0.32742086 -0.14984912
0001d0 2d 41 a5 be d6 cd 59 3d 46 67 ee bd e8 c2 84 3d
       -0.32276288 0.053174816 -0.116407916 0.06482488
0001e0 17 83 d2 bd 9d 86 25 be 1d fe c1 bd 1b 55 92 3d
       -0.1027891 -0.16164632 -0.094722964 0.07145139
0001f0 9d 4b d4 bd a2 a4 bb 3c ae 9b 49 3e 94 10 97 3d
       -0.103659846 0.022905651 0.19688293 0.07376209
000200 d5 fb 6c 3e af f2 7b 3d 5e a1 6f bd 9a f1 85 3d
       0.23142941 0.061510738 -0.0585035 0.065402225
000210 a9 47 79 3e 6c c9 3c 3d 0e 1d 4a 3e 6f 5c fb bc
       0.24343742 0.04609053 0.19737646 -0.030683724
000220 1e 78 5d 3d 66 b4 e2 bd ce 1f b7 3c a4 00 c9 3c
       0.05406963 -0.110695645 0.022354033 0.024536438
000230 cc 31 e6 3c 3c fa d0 bd f4 6f fa 3c b6 e1 4d bd
       0.028099917 -0.102039784 0.030570962 -0.050264083
000240 39 cc 82 be 22 26 1f be 11 51 8c be 8c 9f 21 be
       -0.25546435 -0.1554189 -0.274056 -0.15783519
000250 89 07 3d be dd d4 e2 bd d8 2e 89 be 68 c8 d1 bd
       -0.18459906 -0.11075757 -0.2679355 -0.102433026
000260 e9 35 93 be 40 d1 14 be 80 6c 7a bd 20 3c 32 be
       -0.28752068 -0.14532948 -0.06113863 -0.17405748
000270 fd 99 61 bd 9c d0 f3 bc 36 ce 1b bd e3 ff 0d be
       -0.055078495 -0.029762559 -0.038038455 -0.13867144
000280 1c 9d 99 bd d8 0b 13 be 4e 01 17 bc 67 1a 3a bd
       -0.07500669 -0.14359987 -0.00921662 -0.045435335
000290 d8 51 b9 bd 0b ad 2b bd 82 52 19 3d a3 70 1f bd
       -0.090488136 -0.041913074 0.0374322 -0.038925778
0002a0 72 0d a6 bd 7f cc cb bc 8c 66 96 bd f8 61 8f be
       -0.08108033 -0.024877785 -0.07343778 -0.28004432
0002b0 63 eb ce bd ef 58 8d be 79 7d b0 bd 37 72 16 3d
       -0.1010349 -0.27606913 -0.08617682 0.036730018
0002c0 ab 00 89 bd 06 a8 88 be 8a 27 94 bd fe 37 9a be
       -0.066895805 -0.26690692 -0.07234104 -0.30120844
0002d0 49 37 48 be 8c b7 a7 bc c3 19 c2 bd a7 c4 32 bd
       -0.1955234 -0.020473264 -0.0947757 -0.043644574
0002e0 60 a0 b2 bd 57 54 4c bd e7 ed ef bd a7 30 0d bd
       -0.08721995 -0.04988512 -0.11715298 -0.034470227
0002f0 81 4b 4f be 95 82 cf bd e1 15 4d be 78 aa b4 bd
       -0.20243646 -0.101323284 -0.20027877 -0.08821577
000300 90 b4 4e be 36 04 e6 3a b2 0b 3b be 9f c7 9a bd
       -0.20186067 0.0017548862 -0.1826618 -0.07557606
000310 ae 93 18 be 75 8c cf bd 86 7a 0a bd 2a 2d 21 bd
       -0.14900085 -0.10134212 -0.033808254 -0.039349712
000320 ee 47 8f bc a5 e4 58 bd 40 9a d4 bc d5 cc 5a bd
       -0.017490353 -0.052952427 -0.025952458 -0.053418
000330 2e 3c 75 bd 5b d3 83 bc 35 2a 63 bd 6a c0 03 be
       -0.059871845 -0.016091993 -0.055460174 -0.12866369
000340 bc c8 e4 ba c9 ca 48 be e8 fc be bc ed 79 ec bd
       -0.0017454843 -0.19608606 -0.023313954 -0.11546693
000350 9a 03 ac 3c 79 14 75 be 6e 2f 1e 3b 8d e5 27 be
       0.020997811 -0.23933591 0.0024137157 -0.1639616
000360 4d 36 25 3e c8 b5 d0 3d ea 55 92 3a ec 6e e0 3d
       0.16133995 0.10190922 0.001116452 0.10958657
000370 d9 91 54 3d d6 23 be 3d 3e 65 5a bb e1 d6 ce 3d
       0.051896904 0.09284179 -0.0033324505 0.10099579
000380 93 36 49 3e fa 3e fa be 37 50 d6 bd 00 6c 78 be
       0.19649725 -0.48876172 -0.104645185 -0.24259949
000390 3a 55 e1 bd 81 17 10 bf 3e 04 d5 bc ce 6e 4d be
       -0.11002584 -0.56285864 -0.026003 -0.200618
0003a0 42 ed 3f bd 99 4d 15 bf a8 25 df bd 75 98 ae 3d
       -0.046857126 -0.5832153 -0.10895854 0.085251726
0003b0 b0 dd a2 bd a8 64 32 3d 7f 97 3a ba 2f ec a4 3d
       -0.0795244 0.043553025 -0.00071179116 0.08052861
0003c0 6f 81 87 bd 73 66 d6 3d 0b 5c c3 bd f7 3d 5e 3c
       -0.066164844 0.104687594 -0.0953904 0.013564578
0003d0 fb b8 53 bb 75 5b 84 3d 61 df 16 3b e9 3d e5 3d
       -0.0032306302 0.064627565 0.0023021328 0.11193449
0003e0 3b 86 88 bb a1 fa 6e 3d 0f 52 6d 3d b4 49 b9 bc
       -0.004166392 0.058344487 0.057939585 -0.022618152
0003f0 4f 12 36 be 02 f6 2a 3e e9 b9 4e 3d af 70 2d 3e
       -0.17780422 0.16695407 0.050470266 0.16937517

decoder_layers.block_0.transition.bias f4 [5]
000000 01 c1 39 3d e1 b0 3a bd 6b 9f cc bc 9f 7a 6c bd
       0.04535008 -0.04557884 -0.02497836 -0.057734128
000010 a1 30 4c 3d
       0.049851064

decoder_layers.block_0.conv.weight f4 [40, 15, 1, 1]
000000 be f7 c7 3d b3 76 be 3d d3 1e a3 3e 42 57 57 bd
       0.0976405 0.09299984 0.31859455 -0.05257345
000010 64 a8 c1 bd b3 3f b7 bc a4 b1 cd 3e 52 b6 29 bc
       -0.09455946 -0.022369241 0.40174592 -0.01035841
000020 04 a9 45 be f8 4e 1f be 12 6a 91 be 57 e6 bc be
       -0.19302756 -0.15557468 -0.28401238 -0.36894485
000030 90 62 2e 3d 9f 14 99 3e 14 dd b4 3e fe a9 0b 3e
       0.042574465 0.29898545 0.3532492 0.13639066
000040 74 8f ef bc 67 8e 37 3e a3 b4 ee bd 4e 93 aa bb
       -0.029243208 0.17925416 -0.116555475 -0.0052055484
000050 41 7a b2 be f9 2d 8c 3e e0 8e d1 3d 61 4d 9d bc
       -0.34858897 0.27378824 0.10232329 -0.019201936
000060 9a 25 41 bd 30 76 10 3e 77 4a e8 bd 83 e0 32 3d
       -0.047155 0.14107585 -0.11342328 0.043671142
000070 f8 e9 8e 3e a9 41 c9 3d e2 3a 6b 3e a8 06 30 bd
       0.2791288 0.09826977 0.22971681 -0.042975098
000080 09 e5 01 bd 22 ac 60 3e 0c 36 8d bc 15 b0 b2 bd
       -0.031712566 0.21940663 -0.017237686 -0.08724991
000090 2a 77 69 bd 35 91 f4 3d ba a6 4a bd 10 77 a5 bc
       -0.05699841 0.119417585 -0.04947541 -0.020198375
0000a0 a3 49 e2 bd 77 3f 0c be 75 c2 9b 3d 0e ff a0 bd
       -0.11049201 -0.13696085 0.07605449 -0.07861148
0000b0 cd f6 85 be 56 07 15 3e 32 bd 6e 3d d5 31 84 bd
       -0.26164857 0.1455358 0.0582859 -0.06454817
0000c0 b6 61 e9 3d ff 40 a3 bd e1 7a 8b bd 1c 30 83 3e
       0.1139559 -0.079713814 -0.06810547 0.25622642
0000d0 b1 26 d7 bc eb e3 fb bc a2 c3 43 bc 5f 3a 96 bd
       -0.026263567 -0.030748328 -0.011948498 -0.07335352
0000e0 54 e4 23 be 91 82 08 bd 4c d0 d7 3d 1f bc ce 3c
       -0.16005069 -0.033327643 0.10537776 0.025236188
0000f0 49 d6 18 3e b6 79 85 3e ce 69 55 bd 48 67 c7 bd
       0.14925493 0.2606942 -0.052102856 -0.09736496
000100 bc 3b 4e bd 22 7b 7b be 05 1a 82 be b7 37 43 be
       -0.050349936 -0.2455869 -0.25410476 -0.19064222
000110 8c 0b 43 bd 35 1c f4 bd 7f 00 9d bd 85 71 c0 bd
       -0.047618434 -0.119194426 -0.0766611 -0.09396652
000120 24 ff 24 be 32 68 4e 3d 7e 2b 30 3d 23 ae 00 be
       -0.16112953 0.050392337 0.043010227 -0.12566428
000130 65 8f 9f bd de 17 0b 3e c4 1a 9f bb eb b6 c6 bd
       -0.07791022 0.13583323 -0.0048554856 -0.097028576
000140 99 4f 2f 3a d6 d1 76 be 74 75 61 bd 6f 05 97 bd
       0.0006687581 -0.24103484 -0.055043653 -0.07374083
000150 8d 82 be bd ee 59 2e be 14 f2 e6 be 63 42 ae bd
       -0.09302244 -0.17026493 -0.45106566 -0.08508756
000160 8f 19 3a 3c 43 8b 7a b9 91 cb ea bc 1f 53 14 3c
       0.011358633 -0.00023893737 -0.028661521 0.009053021
000170 5e 8d 67 be d7 f7 25 be e6 9a 33 be fe 44 23 be
       -0.22612521 -0.16207825 -0.17539558 -0.15944287
000180 2b c6 ed be 49 6d 88 be 83 f2 b0 3d ce 59 ec bc
       -0.46440253 -0.26645878 0.086400054 -0.028851416
000190 9d 6d dc 3c fb f5 b5 bd c4 b8 36 be e3 18 29 3d
       0.026907736 -0.08884808 -0.1784392 0.0412835
0001a0 14 c5 fc bd 2f 09 fa bd e7 ff 56 be dc af ea bd
       -0.12342277 -0.12208783 -0.20996056 -0.11459324
0001b0 a7 26 80 3d 42 8f a5 3d fa 31 4b 3e 61 03 a1 bd
       0.06257372 0.08083965 0.19843283 -0.078619726
0001c0 5b 76 bd bc 1a 9d 86 3e b7 7f 74 3d 54 44 d7 be
       -0.023127725 0.26291734 0.05969211 -0.42044318
0001d0 aa 02 ed 3d e5 2e 93 be 35 e3 fa 3d 7b f2 da 3d
       0.11572774 -0.28746715 0.122503676 0.10690781
0001e0 f4 c4 a7 bd df 77 1a 3e 34 69 be 3a 8f 94 c7 bd
       -0.08191863 0.1508479 0.0014527203 -0.09745132
0001f0 e9 b1 45 3d f2 22 05 3d b3 1a 86 be f7 56 87 3d
       0.04826537 0.03250403 -0.26192245 0.06608384
000200 33 32 9c bd 73 7e 61 be 63 98 22 be a0 88 49 bd
       -0.07626762 -0.22020893 -0.15878443 -0.04920256
000210 1e 1d f2 bd 6e 87 04 3e be 41 3d be bc 65 09 3d
       -0.1182196 0.12942287 -0.1848211 0.033544287
000220 a1 64 8d 3e 42 ec 4d be 9d ad a4 bc 2a 7a 33 bd
       0.27615836 -0.20109656 -0.020102317 -0.043817677
000230 eb bb 2d be 10 c4 ac 3d b2 7e 1a 3e b8 ae 60 bd
       -0.16966216 0.084358335 0.15087393 -0.054854125
000240 a2 b3 0d be 8e 91 8b be 83 46 99 be ad 95 8e bb
       -0.13838056 -0.27259487 -0.2993661 -0.004351339
000250 76 a9 36 bd 9b 90 02 be e3 be 51 3f 70 41 33 bd
       -0.044595204 -0.12750475 0.81931895 -0.043763578
000260 0a 10 b2 3e f0 00 5a 3d 1a 5c fe bd 80 8c 05 3f
       0.34777862 0.05322355 -0.12419911 0.5216751
000270 2a 54 f8 be 00 3e 98 bd dc be 56 be f8 ef 76 3b
       -0.48501712 -0.074337006 -0.20971245 0.0037679654
000280 fd 6e 01 bf b0 d2 8b 3e 55 74 12 be 2a 5d eb 3e
       -0.5055998 0.2730918 -0.1430219 0.45969516
000290 ab 63 32 bd 6d d1 2b 3e 8e 76 be 3d 5b 48 94 bd
       -0.043552082 0.16779108 0.09299956 -0.07240363
0002a0 c7 1b 3b 3e b2 59 21 3e e9 75 67 3f c3 e1 9c 3e
       0.18272315 0.15756872 0.9041429 0.30640993
0002b0 10 fd 13 be 7c 53 69 be 63 53 54 bd e9 e0 0a be
       -0.14452004 -0.22785753 -0.051837336 -0.13562359
0002c0 02 0b cf 3e 96 f4 e4 bc dd 67 57 3d 65 50 0a 3e
       0.40438086 -0.027948659 0.052589286 0.1350723
0002d0 28 92 33 3b fe 9a fe bd dd c6 9c 3c e0 97 08 3d
       0.0027400348 -0.12431906 0.019137794 0.033347964
0002e0 ba 68 61 3e e8 c7 b8 bc e9 28 5d 3d e9 85 b1 bb
       0.22012606 -0.02255626 0.053994093 -0.0054175747
0002f0 4f 17 9b 3c 09 37 9b 3d 05 da 3b 3e f6 b3 f1 bd
       0.018932013 0.075788565 0.18344887 -0.11801903
000300 7f 6c e4 3d 6b bb 5d 3e 25 ad 84 3e e9 e5 b2 3d
       0.111535065 0.21653526 0.2591335 0.08735258
000310 09 e6 b2 3c 5d 0d 95 be b4 00 a5 bd 5d 0b 4e be
       0.021838205 -0.29111758 -0.08056775 -0.20121522
000320 ca a7 99 3e bf 9d 30 3e 1f 0d 68 bd 8d 6b 1c 3e
       0.30010825 0.17247675 -0.05665314 0.15275402
000330 c8 67 67 bd 32 ab 3c 3e eb 3d 50 be d9 0b 7e 3d
       -0.056495458 0.18424681 -0.2033612 0.062023018
000340 88 71 49 3d 7e 97 36 3e 51 48 15 be 8b a7 46 bd
       0.049180537 0.17831227 -0.14578368 -0.048499625
000350 04 ed 5b bd 17 36 e0 3d 89 f5 80 3e f3 22 4e bd
       -0.053692833 0.10947817 0.25187328 -0.0503263
000360 2c 34 08 3e f4 e8 54 3e c1 ef 05 3e b0 c9 21 bd
       0.13301152 0.2079199 0.1307974 -0.039498985
000370 9f 58 e5 bd f4 6f c6 3d d6 1f 54 3c c1 5f 35 3e
       -0.11198544 0.09689322 0.012947043 0.17712308
000380 9a 11 bd 3e 47 99 51 3d 48 1b e5 3c f7 eb 4a bd
       0.3692749 0.051171567 0.02796711 -0.04954144
000390 67 0b 17 3e 4c 06 4f 3e b0 c9 7c bd 78 14 88 bd
       0.14750443 0.20217246 -0.06171578 -0.06644529
0003a0 1d 93 6e 3d 24 33 e0 bc 24 e1 e4 bd 5b fc 9a bc
       0.058245767 -0.027368136 -0.11175755 -0.01891916
0003b0 ec f9 81 3e 15 9d ab 3b 10 25 1b 3e ad fd c4 3d
       0.25385988 0.0052372315 0.15150857 0.09618697
0003c0 19 21 ac 3d a4 23 77 3e dd 36 60 3d e7 f4 8e 3d
       0.084047504 0.2413469 0.05473982 0.06980305
0003d0 ab de fb bc 0b 96 9d 3f 69 3a 42 3d 81 1e f8 3c
       -0.030745825 1.2311414 0.047418986 0.030287983
0003e0 0e 38 ff bd 76 37 57 be c7 a0 34 3e 04 83 96 bd
       -0.124618635 -0.2101725 0.17639457 -0.07349208
0003f0 c7 68 d9 3d e8 97 86 3d 8d bb c2 3d 42 a4 99 be
       0.10615688 0.065719426 0.09508429 -0.3000813

decoder_layers.block_0.conv.bias f4 [40]
000000 1e ba b5 bb a3 f8 a6 3b 5c d3 6b bd 64 3c c2 3d
       -0.0055458685 0.005095558 -0.057574615 0.09484175
000010 cb 35 c7 bd d0 4c 54 bd fa 21 5f bd 3b 61 49 3e
       -0.09727057 -0.051831067 -0.054475762 0.19665997
000020 20 23 14 3d e6 a7 7c bd a9 4f 08 be 09 3c 14 bd
       0.03616631 -0.061683558 -0.13311638 -0.036190066
000030 14 65 b3 3c df c1 c3 bd 63 79 e2 ba 14 ae 35 bc
       0.021898784 -0.09558462 -0.0017278608 -0.011088867
000040 fa 6d 03 be 80 e1 3c 3e 74 80 78 bd 45 ad 07 3d
       -0.12834921 0.18445396 -0.060669377 0.033124227
000050 98 d9 8f be 76 44 0b 3e d3 49 aa 3d 39 d5 b2 bd
       -0.28095698 0.13600335 0.08314862 -0.08732075
000060 6b d5 fc 3d 39 10 99 3d bb e5 97 be eb 5d 1a be
       0.12345394 0.07473797 -0.29667458 -0.1507489
000070 57 72 26 be cb 6b de bd 44 35 27 3d 07 bb e2 bd
       -0.16254555 -0.108604036 0.040822282 -0.11070829
000080 cb a5 76 bc a0 b4 f6 3d c4 89 41 bc 6d 7d 7c be
       -0.015054177 0.1204617 -0.011812631 -0.24657221
000090 1e 6d 37 3c 12 a8 98 3c f0 13 3e bd f3 d8 d9 bd
       0.011195449 0.01863483 -0.046405733 -0.10637083
