trainedModels/learningRate/baseline/1.0/2/0.005/run1/model.pt (torch, 105473 bytes, 11 tensors)

init.weight f4 [10, 1, 1, 1]
-1.0671297 -1.1597565 -1.2971995 0.47480738 -0.7213582 -0.7111234 -1.4020013 0.8833212
1.0867497 1.0798185
00000000: b597 88bf e772 94bf a20a a6bf f419 f33e
00000010: eeaa 38bf 2f0c 36bf c774 b3bf 5721 623f
00000020: 9d1a 8b3f 7e37 8a3f

init.bias f4 [10]
0.09248051 -0.0065550883 0.121035896 -0.013109155 0.039231885 0.019496262 0.0067039295 -0.06577657
0.01624592 -0.1280444
00000000: 6c66 bd3d 11cc d6bb abe1 f73d c8c7 56bc
00000010: 9db1 203d a0b6 9f3c a3ac db3b deb5 86bd
00000020: 2a16 853c 121e 03be

encoder_layers.block_0.conv.weight f4 [40, 20, 3, 3]
0.12754636 0.18038175 0.15740888 0.17655109 0.2043256 0.09085427 0.16619469 0.13452083
0.03788959 -0.08308226 0.034985863 -0.010949833 -0.009826704 0.060937043 0.01807007 -0.05154464
0.018974911 -0.055900123 0.15534876 0.22854269 0.19220679 0.2184924 0.25407863 0.1166724
0.19265202 0.168676 0.07610896 0.08031756 -0.0024717236 0.022527678 0.0036634204 -0.027242063
0.0048403232 0.037548304 0.003854072 0.025020769 -0.017665504 0.02677908 0.02810928 0.018988272
0.07962286 -0.019612927 0.007003344 0.03818048 -0.01889506 -0.06969601 -0.017602563 -0.0097798845
-0.002420694 0.034760762 -0.0061499854 -0.008642867 0.01008601 -0.030979916 -0.0736466 0.03442939
-0.0088909315 0.014949562 0.11119134 0.028027372 -0.04116321 0.0036680712 -0.066174455 -0.056982275
-0.11544926 -0.11010486 -0.11321038 -0.1472377 -0.03374317 -0.12135452 -0.10673582 -0.01966684
0.09958438 -0.0067353304 0.036968164 0.014365883 -0.049638275 -0.02160609 0.061306342 0.00077723165
0.06347454 -0.16411813 -0.1719574 -0.17983432 -0.17265238 -0.17587608 -0.062393468 -0.22907618
-0.12992696 -0.081657216 -0.028161207 0.11131634 0.0031035312 0.16531827 0.19535989 0.1677757
0.022566505 0.13521248 0.03750229 -0.50222194 -0.20040068 -0.00396116 -0.104618214 -0.20905313
0.048035666 -0.44864097 -0.2502102 -0.053817958 -0.069640405 0.010922628 0.0039562955 0.05141939
0.109128006 0.028974108 0.032997597 -0.031192658 -0.02454461 0.15541911 0.08456489 -0.0717423
0.08740704 -0.00020190331 0.05442182 0.01642856 -0.007205218 -0.10803321 -0.14185375 -0.010881766
-0.042890206 0.031358793 0.11057352 0.049809273 -0.0981188 -0.038614985 -0.09816156 0.029578967
-0.047135346 -0.03840104 0.022659611 -0.21763521 -0.061045278 0.0009457605 -0.1243834 -0.07221692
-0.06312547 -0.049399007 -0.28153175 0.16977465 0.36687902 -0.056208704 -0.07544414 0.013152976
-0.21846119 0.026014315 0.2616 -0.15838966 0.16714095 0.30885464 -0.05584171 0.1803921
0.38956815 0.078919426 -0.1914385 -0.16310272 -0.093895085 -0.073122516 -0.032163396 0.0028553356
-0.1938116 -0.035062462 -0.15247406 0.042454023 -0.034067705 0.025550503 -0.080644846 -0.11162221
0.007594978 -0.09153053 0.004584684 0.03259417 0.112980925 0.46985933 0.145664 0.21045753
0.4953464 0.1937702 0.2041969 0.501144 0.1997547 0.122771315 0.23456861 0.17758386
0.13388163 0.043453734 0.1999101 0.11606027 0.15497275 0.14354607 0.13670684 0.56849104
0.18499325 0.25531408 0.5668832 0.23664896 0.24569143 0.57867175 0.24363929 -0.05346848
-0.09072128 -0.11900987 -0.052273966 0.027308038 -0.082039535 -0.02100096 -0.028970204 -0.05531761
0.034861036 0.20572037 0.06819121 0.080752134 0.14963168 0.072405174 0.06860444 0.18533666
0.069754615 0.03540711 0.14810736 0.09015355 0.063520245 0.057163935 0.08924579 0.044478633
0.12119183 0.069903776 0.15364778 0.34133083 0.20976223 0.21747012 0.20165093 0.26553008
0.18908203 0.32376698 0.23761289 -0.08527181 -0.40668592 -0.1266087 -0.16881071 -0.35864893
-0.14112002 -0.14291796 -0.39039937 -0.1651203 -0.1088291 -0.19911963 -0.1511613 -0.08010509
00000000: 839b 023e feb5 383e cb2f 213e cfc9 343e
00000010: bb3a 513e ce11 ba3d f12e 2a3e d4bf 093e
00000020: 1d32 1b3d 0827 aabd 564d 0f3d ee66 33bc
00000030: 2f00 21bc 1f99 793d af07 943c 7920 53bd
00000040: 4671 9b3c 87f7 64bd bf13 1f3e 1807 6a3e
00000050: dbd1 443e 79bc 5f3e 9816 823e f0f1 ee3d
00000060: 9246 453e 67b9 2c3e 04df 9b3d 887d a43d
00000070: a4fc 21bb f78b b83c ff15 703b bf2a dfbc
00000080: 939b 9e3b 40cc 193d 9994 7c3b 5bf8 cc3c
00000090: 3fb7 90bc cd5f db3c 6f45 e63c 4b8d 9b3c
000000a0: 4f11 a33d 4aab a0bc 4f7c e53b 2363 1c3d
000000b0: d0c9 9abc c8bc 8ebd 4033 90bc cf3b 20bc
000000c0: 82a4 1ebb 4d61 0e3d d185 c9bb d09a 0dbc
000000d0: cb3f 253c 98c9 fdbc 07d4 96bd d505 0d3d
000000e0: 45ab 11bc 02ef 743c 49b8 e33d a999 e53c
000000f0: c19a 28bd 0664 703b 7986 87bd 3f66 69bd
00000100: a970 ecbd a87e e1bd d8da e7bd 7bc5 16be
00000110: 4736 0abd b888 f8bd 4f98 dabd 5a1c a1bc
00000120: e5f2 cb3d 0cb4 dcbb ee6b 173d e15e 6b3c
00000130: 8151 4bbd 41ff b0bc 5c1c 7b3d 22bf 4b3a
00000140: f1fe 813d 950e 28be 9a15 30be 7d26 38be
00000150: c9cb 30be dc18 34be 4b90 7fbd f292 6abe
00000160: 930b 05be e63b a7bd 55b2 e6bc d2f9 e33d
00000170: 9d64 4b3b 3149 293e 6c0c 483e 65cd 2b3e
00000180: 64dd b83c 2475 0a3e 009c 193d 9e91 00bf
00000190: d635 4dbe 9ecc 81bb 1342 d6bd 0612 56be
000001a0: 0cc1 443d 45b4 e5be 8d1b 80be 3870 5cbd
000001b0: a19f 8ebd d3f4 323c d0a3 813b 239d 523d
000001c0: 817e df3d 1c5b ed3c 7d28 073d bf87 ffbc
000001d0: c711 c9bc 3026 1f3e 5b30 ad3d a1ed 92bd
000001e0: 7602 b33d 02b6 53b9 6ae9 5e3d 3095 863c
000001f0: c019 ecbb 8440 ddbd 1c42 11be 6f49 32bc
00000200: a4ad 2fbd 1472 003d 5f74 e23d cf04 4c3d
00000210: 82f2 c8bd bf2a 1ebd ee08 c9bd 974f f23c
00000220: fe10 41bd 694a 1dbd a6a0 b93c c4db 5ebe
00000230: 9d0a 7abd eaec 773a b9bc febd 77e6 93bd
00000240: ed47 81bd 9d56 4abd ee24 90be 68d9 2d3e
00000250: 91d7 bb3e 193b 66bd 7582 9abd 947f 573c
00000260: 4ab4 5fbe f91b d53c 6ff0 853e e630 22be
00000270: ff26 2b3e 3222 9e3e 47ba 64bd b5b8 383e
00000280: 7a75 c73e 82a0 a13d 7408 44be 6604 27be
00000290: 114c c0bd 42c1 95bd c4bd 03bd 9520 3b3b
000002a0: 8c76 46be a89d 0fbd 2922 1cbe 45e4 2d3d
000002b0: 948a 0bbd 4a4f d13c 2029 a5bd 2f9a e4bd
000002c0: 4bdf f83b 5c74 bbbd 1e3b 963b 7781 053d
000002d0: 8b62 e73d 6791 f03e f228 153e 2e82 573e
000002e0: 0b9e fd3e b26b 463e fe18 513e f94a 003f
000002f0: 7f8c 4c3e 876f fb3d c132 703e 8bd8 353e
00000300: 4418 093e 8bfc 313d 3cb5 4c3e 02b1 ed3d
00000310: 2db1 1e3e befd 123e e1fc 0b3e a188 113f
00000320: df6e 3d3e 87b8 823e 421f 113f 1b54 723e
00000330: 8996 7b3e d523 143f 947c 793e c401 5bbd
00000340: 14cc b9bd 72bb f3bd 3a1d 56bd 1bb5 df3c
00000350: 5804 a8bd 350a acbc ec52 edbc b894 62bd
00000360: 72ca 0e3d 5ca8 523e d5a7 8b3d 6061 a53d
00000370: 0c39 193e 2a49 943d 7c80 8c3d e5c8 3d3e
00000380: 82db 8e3d 0c07 113d 75a9 173e 6da2 b83d
00000390: e716 823d bb24 6a3d 7fc6 b63d 3a2f 363d
000003a0: 6c33 f83d b629 8f3d d855 1d3e eac2 ae3e
000003b0: e9cb 563e 7db0 5e3e 957d 4e3e 8ff3 873e
000003c0: b89e 413e c9c4 a53e cb50 733e fda2 aebd
000003d0: 2339 d0be b6a5 01be b7dc 2cbe d5a0 b7be
000003e0: c481 10be 1659 12be 6de2 c7be 4c15 29be
000003f0: cbe1 debd 04e6 4bbe 07ca 1abe 230e a4bd

encoder_layers.block_0.conv.bias f4 [40]
0.04385979 0.7478393 -0.048040196 -0.056076255 0.054562997 -0.057525028 -0.09343587 0.18387614
0.11253198 -0.11442739 0.020804608 -0.029651515 -0.0062578563 0.10239769 0.0016984825 0.031176161
-0.044008464 0.03958993 0.199615 -0.047703467 -0.20845284 0.25594434 0.005759688 -0.08237204
0.24240664 0.11808256 -0.16811648 0.29178753 0.07499138 -0.025866855 -0.088068165 -0.02620885
-0.059225492 0.09840778 0.066824116 -0.039096043 0.057586398 0.15496413 -0.15168197 0.05517903
00000000: 53a6 333d 6572 3f3f ccc5 44bd 37b0 65bd
00000010: 737d 5f3d 5d9f 6bbd 4e5b bfbd 074a 3c3e
00000020: 2b77 e63d e858 eabd 6d6e aa3c bce7 f2bc
00000030: b40e cdbb e1b5 d13d 9e9f de3a 2665 ff3c
00000040: 3842 34bd 0d29 223d e067 4c3e b664 43bd
00000050: a974 55be 230b 833e c4bb bc3b acb2 a8bd
00000060: 7239 783e 45d5 f13d ba26 2cbe 2d65 953e
00000070: 1595 993d bae6 d3bc 155d b4bd f1b3 d6bc
00000080: 6e96 72bd 058a c93d 15db 883d 2c23 20bd
00000090: b7df 6b3d ebae 1e3e 8552 1bbe 6803 623d

encoder_layers.block_1.conv.weight f4 [40, 20, 3, 3]
-0.36083066 0.029635934 0.1477432 -0.16530472 0.29115766 -0.010271089 -0.18227197 -0.031422783
0.10249157 0.063717246 0.2809058 0.2579025 0.42806894 0.7461983 0.5469517 0.098481715
0.43180647 0.1327493 0.007299302 0.093434826 -0.072260104 0.07340127 0.34101003 0.18762809
-0.07655286 0.052994873 0.029194172 0.005070115 0.11098582 0.09943774 -0.005313937 0.07097608
0.06871338 -0.015001876 -0.01550712 -0.038177233 0.015259485 -0.05217756 -0.12724473 -0.11106891
-0.28814372 -0.25919518 -0.06349249 -0.20651655 -0.17798363 0.16773245 0.0781287 0.015627882
0.047461994 -0.12036769 -0.14279205 0.04310807 0.06671447 -0.07316411 0.06885762 -0.014020126
0.15557297 0.22676833 0.09049867 0.19067854 -0.1701101 0.103592776 -0.14960806 0.43984112
-0.21173584 0.09779756 0.59929496 0.04234993 0.16028498 0.53191936 -0.029649843 0.07673928
0.033918653 0.1141329 0.1609758 0.14099671 -0.11277238 -0.23968516 -0.019996561 0.18780842
-0.20045432 0.040550318 -0.07659454 0.03226025 -0.17050172 -0.29947242 -0.08156446 -0.07286185
-0.042725924 -0.060749557 0.10724785 0.20446676 0.21022744 0.3213791 0.53398687 0.2584806
0.06714811 0.2942037 0.05234304 0.028682169 0.26483 -0.011647975 0.0052515003 0.07913871
0.1132067 0.08550057 -0.09557225 0.26167214 -0.11462589 0.04935954 -0.03969791 0.105451025
0.4370651 0.18437277 -0.08290419 0.18730867 -0.39320844 -0.41701162 0.039756313 -0.25936052
-0.08057674 0.0910116 -0.16047136 -0.6427988 -0.27697942 -0.4734912 0.29681525 -0.038429275
0.16839628 -0.038670607 -0.21333562 0.09157559 0.13573214 -0.106439516 0.05006303 0.25348344
0.23830485 0.07047262 0.12278972 -0.061628316 0.23780468 0.45703125 0.061775733 0.60283923
-0.13702631 0.026667377 0.05909894 -0.02335075 -0.06525365 0.15224364 0.15160547 0.21156307
0.19691475 0.2926587 0.46966195 0.028486062 0.36908937 0.24663378 0.11596098 0.36504394
0.38624403 0.1607988 0.075522386 0.39119175 0.12620875 0.16727552 0.4471933 0.28836757
-0.06934165 0.19185264 -0.12906475 -0.01817331 0.22390877 0.046409134 0.089647025 0.09836618
0.08541344 0.033397373 0.13710539 -0.034441248 -0.1809437 -0.12067079 -0.16845852 -0.058125224
-0.046560284 0.04704921 -0.10833881 0.22343984 0.013332129 0.0914412 0.22138476 -0.061760098
0.19750452 0.25225553 -0.13149753 -0.059779093 0.010171567 -0.19770777 -0.15576515 0.06851921
-0.106461264 0.049091183 0.1701986 -0.007142479 -0.038357325 0.21487044 0.12996931 -0.14059965
0.17689174 0.08509109 -0.106061734 -0.059261195 -0.18843277 0.12422054 -0.049710434 -0.13288695
-0.015729683 -0.1174482 0.036361866 0.0035808752 0.034129396 -0.079084344 -0.2482149 0.05268729
-0.17999633 0.020271793 0.07547887 0.0007019004 -0.0076384773 -0.12904125 0.09588686 -0.11919762
0.039034527 -0.057328425 0.20351607 0.05327942 0.0042131324 0.029078236 0.19863184 0.35934493
0.0027973694 0.07327628 -0.20488554 0.25663075 0.113856055 0.11689695 -0.010243197 0.10048368
-0.06827233 0.17756076 -0.048058756 0.28219116 -0.033223685 -0.11253058 -0.00057936675 0.21660383
00000000: ccbe b8be 0fc7 f23c fe49 173e a445 29be
00000010: 9e12 953e 1248 28bc 81a5 3abe 2db5 00bd
00000020: 1ae7 d13d 307e 823d e3d2 8f3e cc0b 843e
00000030: da2b db3e da06 3f3f 0705 0c3f c8b0 c93d
00000040: bd15 dd3e 6fef 073e fc2e ef3b c25a bf3d
00000050: 1bfd 93bd 6853 963d de98 ae3e 9421 403e
00000060: bfc7 9cbd 2711 593d 9e28 ef3c 3523 a63b
00000070: 894c e33d 04a6 cb3d 8920 aebb e85b 913d
00000080: 9ab9 8c3d 6eca 75bc 9311 7ebc bb5f 1cbd
00000090: eb02 7a3c 23b8 55bd 714c 02be 1978 e3bd
000000a0: 9387 93be 3bb5 84be 5a08 82bd 1379 53be
000000b0: 5741 36be 0ec2 2b3e f101 a03d 0b06 803c
000000c0: 8267 423d 5683 f6bd 1438 12be 1692 303d
000000d0: 99a1 883d 11d7 95bd 3905 8d3d acb4 65bc
000000e0: 854e 1f3e f535 683e 5e57 b93d 3c41 433e
000000f0: 5831 2ebe 7328 d43d db32 19be db32 e13e
00000100: 48d1 58be 164a c83d 656b 193f 1f77 2d3d
00000110: bf21 243e de2b 083f 3ae4 f2bc 7c29 9d3d
00000120: 49ee 0a3d 83be e93d d7d6 243e 7161 103e
00000130: 35f5 e6bd 0770 75be d4cf a3bc da50 403e
00000140: e643 4dbe 1718 263d 99dd 9cbd 5323 043d
00000150: 0198 2ebe 7354 99be 450b a7bd 9838 95bd
00000160: 6101 2fbd 87d4 78bd c3a4 db3d bc5f 513e
00000170: dd45 573e cd8b a43e 5db3 083f 9257 843e
00000180: f384 893d dea1 963e a865 563d def6 ea3c
00000190: cc97 873e 26d7 3ebc c714 ac3b 7a13 a23d
000001a0: ead8 e73d ec1a af3d 62bb c3bd e4f9 853e
000001b0: fbc0 eabd 3b2d 4a3d 479a 22bd b5f6 d73d
000001c0: ffc6 df3e 37cc 3c3e acc9 a9bd d8cd 3f3e
000001d0: 9e52 c9be 8c82 d5be 84d7 223d e7ca 84be
000001e0: 6b05 a5bd 4a64 ba3d 9b52 24be 768e 24bf
000001f0: 3fd0 8dbe 706d f2be 2bf8 973e 0468 1dbd
00000200: 1370 2c3e 1265 1ebd a774 5abe fc8b bb3d
00000210: 5efd 0a3e f6fc d9bd e40e 4d3d 95c8 813e
00000220: 3006 743e f353 903d 2d79 fb3d f96d 7cbd
00000230: 1283 733e 0000 ea3e 8d08 7d3d ac53 1a3f
00000240: a050 0cbe 8b75 da3c bb11 723d 124a bfbc
00000250: b5a3 85bd c2e5 1b3e 773e 1b3e fda3 583e
00000260: 05a4 493e 5cd7 953e 8877 f03e 9a5b e93c
00000270: 48f9 bc3e 918d 7c3e f37c ed3d 0ae7 ba3e
00000280: c7c1 c53e 71a8 243e 7bab 9a3d 494a c83e
00000290: de3c 013e 464a 2b3e 85f6 e43e eaa4 933e
000002a0: ff02 8ebd 0575 443e 8d29 04be 32e0 94bc
000002b0: 5748 653e 8117 3e3d dc98 b73d 3574 c93d
000002c0: 3eed ae3d afcb 083d 5b65 0c3e 4412 0dbd
000002d0: 4e49 39be 3f22 f7bd 6480 2cbe b714 6ebd
000002e0: ffb5 3ebd acb6 403d bde0 ddbd 6acd 643e
000002f0: 016f 5a3c 8645 bb3d b0b2 623e 28f8 7cbd
00000300: a03e 4a3e a327 813e 4aa7 06be ecda 74bd
00000310: a5a6 263c e873 4abe e680 1fbe cd53 8c3d
00000320: 5d08 dabd d613 493d 8b48 2e3e 750b eabb
00000330: 921c 1dbd ff06 5c3e ad16 053e 5bf9 0fbe
00000340: 1c23 353e 3d44 ae3d e536 d9bd debb 72bd
00000350: 85f4 40be 5767 fe3d 2b9d 4bbd 8413 08be
00000360: 89db 80bc af88 f0bd 2ef0 143d 1ead 6a3b
00000370: 44cb 0b3d f9f6 a1bd 0c2c 7ebe a1ce 573d
00000380: f550 38be 0811 a63c aa94 9a3d bdff 373a
00000390: 314c fabb 6423 04be 5460 c43d e21d f4bd
000003a0: abe2 1f3d 36d1 6abd 8466 503e 853b 5a3d
000003b0: 510e 8a3b 7b35 ee3c 2566 4b3e 0ffc b73e
000003c0: 1254 373b e011 963d 84cd 51be 1b65 833e
000003d0: 5d2d e93d ab67 ef3d 15d3 27bc 63ca cd3d
000003e0: 5dd2 8bbd 7dd2 353e 42d9 44bd 5c7b 903e
000003f0: 8f15 08bd 6f76 e6bd a5e0 17ba 65cd 5d3e

encoder_layers.block_1.conv.bias f4 [40]
-0.221771 -0.013967546 -0.014485376 0.14901899 -0.282247 0.0012053676 -0.31254506 0.082481906
0.18814892 0.19332367 0.29432395 0.19669476 0.37201726 -0.02275329 0.28716877 0.17618632
0.12723723 0.2401054 0.07657957 0.05650521 -0.101081595 -0.0019062739 0.46882206 -0.06330472
-0.14995794 0.32690364 -0.025570676 0.08267453 0.17292607 0.031526383 0.17569649 0.18453152
-0.08991609 -0.066260174 0.024364442 -0.0614918 -0.020135839 0.104909815 -0.14504199 -0.27356783
00000000: f017 63be 22d8 64bc 1254 6dbc 6f98 183e
00000010: ae82 90be 6dfd 9d3a e805 a0be 46ec a83d
00000020: 1caa 403e a4f6 453e a1b1 963e 5a6a 493e
00000030: 0c79 be3e 1c65 babc c907 933e 306a 343e
00000040: 7a4a 023e 31de 753e c0d5 9c3d 0272 673d
00000050: de03 cfbd f0db f9ba 7209 f03e e8a5 81bd
00000060: 938e 19be ea5f a73e 9879 d1bc 4451 a93d
00000070: 8813 313e cf21 013d c8e9 333e d5f5 3c3e
00000080: ed25 b8bd 6ab3 87bd f097 c73c d3de 7bbd
00000090: eaf3 a4bc f5da d63d e385 14be 1511 8cbe

decoder_layers.block_0.conv.weight f4 [40, 10, 3, 3]
-0.019174524 0.05565602 0.011864634 0.11434463 0.12599315 0.06250178 -0.043162506 0.05846353
0.1473232 -0.23973814 -0.07340304 -0.11604319 -0.08252333 0.13676149 -0.018057754 -0.036997046
-0.053712633 -0.08824052 0.14743847 0.042754725 0.12744935 0.01868 0.012364651 0.10216183
0.06454617 0.06403034 0.08912403 0.118945785 0.1186953 0.0862177 0.093529984 0.3136577
0.19231544 0.18803793 0.0408228 0.1595419 0.16196474 0.12723032 0.2494883 0.06173735
0.0454027 0.15077932 0.13997525 0.12665386 0.29386786 0.3215345 0.13716553 0.0028302476
0.06265223 -0.07423861 0.13266514 0.2502744 0.09860318 0.19469757 0.055451944 0.109235145
0.08750112 -0.023874212 0.11468029 0.054851502 0.02960388 0.09947067 0.1416485 0.0419131
0.32682997 0.108997196 0.044547684 0.13400422 0.06083058 -0.07712491 0.0352979 -0.25552025
-0.041612763 -0.2662917 -0.31437385 0.07244598 0.14187387 0.11849821 -0.1758031 0.37911978
0.123763315 -0.076250345 0.04570991 -0.11873125 -0.0878345 0.051374167 0.08239581 -0.13340172
-0.09391035 0.039895903 -0.1123372 0.23931612 0.113956794 0.038306903 0.25138688 0.21076304
0.108227246 0.19660893 -0.061071206 0.27038917 0.0029107858 0.15389448 0.24522851 -0.24539712
0.12769423 0.09372412 0.1720554 0.058359403 -0.033719566 -0.045000054 0.03367295 -0.01835001
0.050654933 -0.042597413 0.013935079 0.059716832 0.015057108 0.07268163 -0.074442744 0.026223602
-0.10023864 -0.311502 -0.13440366 0.03147201 -0.10563992 0.017723776 -0.009791226 -0.0037248046
0.10362755 -0.058967516 0.025832163 0.059561774 0.03831004 0.08058168 0.08467735 -0.028260821
-0.0536393 -0.07757478 0.025789903 0.060169283 0.036015548 -0.033599712 0.030902136 -0.0944665
-0.008599576 0.025458593 0.042182185 -0.17380136 -0.0074275183 0.0019934932 -0.06419778 0.0099483365
-0.0333149 0.08112664 0.27721062 -0.33976024 0.16385 0.3354899 0.18863024 0.17977257
0.19950113 0.024715122 0.1401341 0.08735701 0.043845344 0.015026406 -0.34637392 -0.26074123
0.51941437 -0.15267411 -0.36924696 -0.08732975 -0.09868746 0.009267214 -0.06374275 -0.16280663
-0.123881415 -0.02650656 -0.09073723 -0.2115874 -0.09132135 0.02811555 0.039533854 -0.05672315
-0.011197773 0.061910953 -0.1355126 0.07157746 0.20829815 -0.0067863483 0.0070543494 0.07379308
0.16008422 0.22580849 0.16455826 0.29813248 0.09902842 0.16215712 -0.08149573 -0.08157049
-0.07678148 -0.11138356 -0.13762742 -0.11311856 -0.13389915 -0.11363299 -0.093683355 -0.26534715
-0.1279856 -0.11914732 -0.17507169 -0.07568382 -0.063775696 -0.32944462 -0.11613816 -0.10952677
-0.018002817 -0.06579403 -0.078654125 0.018071702 -0.07337363 -0.07800683 -0.009336314 -0.04182591
-0.032429546 0.25316963 0.05420336 0.07816166 0.061091114 -0.008544041 0.040319487 0.069842994
-0.054598298 -0.028782682 -0.019522848 -0.10558226 -0.19829167 -0.08728026 -0.1310326 0.08856821
-0.10572557 -0.08122821 -0.0781061 0.031440735 0.024413172 -0.1102269 -0.09266678 -0.029888192
-0.091260664 0.06596289 -0.084707156 -0.041687734 -0.051572166 -0.13222417 0.08393791 -0.10310818
00000000: e413 9dbc 91f7 633d e263 423c 842d ea3d
00000010: 5904 013e ef00 803d 2bcb 30bd 7477 6f3d
00000020: e5db 163e ea7d 75be 5554 96bd 0da8 edbd
00000030: fe01 a9bd 340b 0c3e dbed 93bc 378a 17bd
00000040: c701 5cbd 72b7 b4bd 1cfa 163e 941f 2f3d
00000050: 1582 023e cd06 993c 1b95 4a3c 393a d13d
00000060: c830 843d 5722 833d a986 b63d d999 f33d
00000070: 8516 f33d e892 b03d a68c bf3d be97 a03e
00000080: 57ee 443e 048d 403e cf35 273d f45e 233e
00000090: 16da 253e aa48 023e dc79 7f3e 4ee0 7c3d
000000a0: 2ef8 393d e565 1a3e ac55 0f3e 8db1 013e
000000b0: d975 963e 2ca0 a43e 1f75 0c3e ad7b 393b
000000c0: d04f 803d 6a0a 98bd 5fd9 073e f723 803e
000000d0: 77f0 c93d cd5e 473e 9421 633d adb6 df3d
000000e0: ca33 b33d da93 c3bc 80dd ea3d f8ab 603d
000000f0: d683 f23c 47b7 cb3d 4e0c 113e 12ad 2b3d
00000100: 4256 a73e ec39 df3d a277 363d 6738 093e
00000110: 7c29 793d aaf3 9dbd 8894 103d 8dd3 82be
00000120: 2572 2abd 6357 88be 9cf5 a0be 8f5e 943d
00000130: 6247 113e 31af f23d ba05 34be fd1b c23e
00000140: 9f77 fd3d 2429 9cbd 513a 3b3d 5f29 f3bd
00000150: 93e2 b3bd b86d 523d 22bf a83d 769a 08be
00000160: 1254 c0bd e369 233d 0c11 e6bd 490f 753e
00000170: 2e62 e93d b3e7 1c3d c8b5 803e 44d2 573e
00000180: 3fa6 dd3d da53 493e cd25 7abd 7370 8a3e
00000190: e2c2 3e3b 8496 1d3e 2f1d 7b3e 6249 7bbe
000001a0: 47c2 023e 6ef2 bf3d 4a2f 303e 450a 6f3d
000001b0: 871d 0abd fa51 38bd a6ec 093d c352 96bc
000001c0: 8c7b 4f3d a07a 2ebd f54f 643c a399 743d
000001d0: 17b2 763c 1bda 943d 7075 98bd e1d2 d63c
000001e0: eb49 cdbd 317d 9fbe 1da1 09be cbe8 003d
000001f0: be59 d8bd 7431 913c 616b 20bc da1b 74bb
00000200: ae3a d43d ec87 71bd f99d d33c 0cf7 733d
00000210: fdea 1c3d 0208 a53d 526b ad3d 3d83 e7bc
00000220: e2b4 5bbd 87df 9ebd 5945 d33c 1174 763d
00000230: 0a85 133d da9f 09bd 7a26 fd3c a777 c1bd
00000240: 3ce5 0cbc 8a8e d03c 3ac7 2c3d fcf8 31be
00000250: 8a62 f3bb 44a5 023b 207a 83bd 59fe 223c
00000260: 3475 08bd b925 a63d 8dee 8d3e 0ef5 adbe
00000270: 4bc8 273e 55c5 ab3e 4928 413e 4d16 383e
00000280: 064a 4c3e 5e77 ca3c 507f 0f3e 3be8 b23d
00000290: 2d97 333d 5131 763c ec57 b1be e07f 85be
000002a0: 57f8 043f 9a56 1cbe f00d bdbe f1d9 b2bd
000002b0: a71c cabd 83d5 173c 8f8b 82bd c8b6 26be
000002c0: 8ab5 fdbd 4924 d9bc 71d4 b9bd 5eaa 58be
000002d0: b006 bbbd 9552 e63c 40ee 213d 8956 68bd
000002e0: dd76 37bc 5796 7d3d d1c3 0abe 3497 923d
000002f0: 1c4c 553e 0460 debb 2c28 e73b d420 973d
00000300: 1eed 233e 573a 673e f681 283e d2a4 983e
00000310: 6acf ca3d 840c 263e 3ce7 a6bd 6e0e a7bd
00000320: 9c3f 9dbd 101d e4bd 34ee 0cbe b4aa e7bd
00000330: dc1c 09be 6ab8 e8bd 0fdd bfbd 95db 87be
00000340: a80e 03be 8303 f4bd fe45 33be 1e00 9bbd
00000350: d59c 82bd f7ac a8be d8d9 edbd 924f e0bd
00000360: a57a 93bc 05bf 86bd 6a15 a1bd 1b0b 943c
00000370: ea44 96bd 0bc2 9fbd 57f7 18bc a551 2bbd
00000380: d8d4 04bd 739f 813e 5804 5e3d 3813 a03d
00000390: ad3a 7a3d 4efc 0bbc 0c26 253d d809 8f3d
000003a0: 77a2 5fbd a9c9 ebbc 61ee 9fbc 833b d8bd
000003b0: f90c 4bbe febf b2bd 692d 06be 4063 b53d
000003c0: a686 d8bd fa5a a6bd 17f6 9fbd 00c8 003d
000003d0: 22fe c73c a4be e1bd 15c8 bdbd 15d8 f4bc
000003e0: dfe6 babd 8d17 873d f27a adbd c2c0 2abd
000003f0: 563d 53bd c665 07be a4e7 ab3d 622a d3bd

decoder_layers.block_0.conv.bias f4 [40]
-0.050597295 0.076650016 -0.14030786 -0.07924842 0.07743092 0.073943056 -0.1795014 0.21985996
-0.040283933 -0.10979353 0.16882211 0.09962696 0.05592128 0.117268436 0.027070334 0.21501869
-0.015389652 0.16656144 0.007169094 0.049792048 -0.10864597 0.05733942 -0.113136955 -0.18374419
0.07317093 0.116424166 -0.18195254 0.39370763 -0.033680886 -0.112214334 0.05439227 0.012133975
0.098982714 0.048182543 0.041429214 -0.07120754 0.08083018 0.053303387 -0.029585304 0.015450613
00000000: 1c3f 4fbd affa 9c3d ddac 0fbe ff4c a2bd
00000010: 1a94 9e3d 756f 973d 37cf 37be f822 613e
00000020: c400 25bd 6edb e0bd b4df 2c3e 3809 cc3d
00000030: b60d 653d 6f2a f03d 9bc2 dd3c dc2d 5c3e
00000040: e124 7cbc 158f 2a3e b8ea ea3b bff2 4b3d
00000050: c781 debd bddc 6a3d 59b4 e7bd 7027 3cbe
00000060: a4da 953d cb6f ee3d c451 3abe 0c94 c93e
00000070: f8f4 09bd a1d0 e5bd 6eca 5e3d 94cd 463c
00000080: 73b7 ca3d 0f5b 453d aeb1 293d 42d5 91bd
00000090: 4b8a a53d a754 5a3d e15c f2bc 9124 7d3c

decoder_layers.block_1.conv.weight f4 [40, 20, 3, 3]
0.02791738 -0.0038957517 0.0027533881 0.060832042 0.45222402 0.1952466 0.08482889 0.14419067
-0.026468297 0.111330904 0.034452755 0.03343899 0.06463195 -0.020545024 0.021657182 -0.006587992
0.04211208 0.08186688 0.22265363 0.1806371 0.08211222 -0.03142932 -0.06430511 0.25264925
0.082484454 -0.0032942211 0.22571255 0.110262275 0.067932345 0.13982409 0.029228194 -0.079788014
0.0008746463 0.12789536 0.058414765 0.18254529 0.09031705 0.11767329 -0.067334495 0.18413454
0.081789814 0.05962899 -0.001347868 0.10409071 0.063378915 0.1528134 0.061673 0.04957019
0.037277933 -0.24397273 -0.065046415 0.28961083 0.00031999507 0.26341388 -0.041885994 -0.01663851
-0.04096339 0.019775223 -0.17418614 -0.05186136 -0.004682393 0.093030736 0.06935418 -0.14158504
-0.034719888 -0.10907265 0.16340996 0.5479863 0.10788911 -0.047139272 0.17995249 -0.163547
-0.053044748 -0.029466536 0.07039013 0.13170758 -0.32986823 -0.23675388 0.021722356 -0.017071754
0.03213272 -0.0905981 0.12100475 -0.11897264 0.039455473 0.27748016 0.18164064 0.016843827
-0.3504975 -0.023528738 -0.03141733 0.059896514 -0.10990589 0.13847977 0.102585256 0.05524499
-0.11160077 0.038585868 -0.0952873 -0.18312515 -0.08372537 -0.1700132 0.05935444 0.15404712
-0.08405094 -0.082656726 -0.08837269 -0.036893405 -0.2734724 0.12653553 -0.27052134 0.19558875
0.729659 0.037298135 -0.2122705 0.045605734 -0.1966542 -0.25703818 0.21605754 -0.2787338
0.28026363 0.4330002 0.2288142 -0.2630095 0.26629883 -0.16710344 0.093769744 -0.03173944
0.04382217 0.12499421 0.011779516 0.094858125 0.056217313 -0.08400502 0.017290402 0.0771398
0.0775773 0.11658062 0.10752199 -0.5529054 0.065444976 0.111427225 0.059621084 0.19708773
-0.065082654 0.0048063993 0.028909981 0.04087319 0.11977972 0.03154262 -0.030710485 0.069319814
-0.09330535 0.03686228 0.16984145 -0.1370309 0.20687152 0.2772691 0.17791978 -0.019085739
0.18269965 -0.011134496 0.08696952 0.09473211 0.08730361 0.12983628 0.11333473 0.12238512
0.1007404 0.15113938 0.10349652 -0.02776047 -0.16598286 0.058399368 -0.02340411 -0.23582412
-0.10144494 -0.0053681093 -0.088438824 0.045235496 0.12851796 -0.045740575 -0.086326234 0.06590534
0.13308683 0.07573789 -0.070382744 -0.070656344 -0.03908666 -0.083061814 0.13978386 -0.005243023
0.074761845 0.10182469 0.06963881 0.02871508 0.02800259 -0.051367104 0.11326136 0.1417355
0.048640206 0.11164291 -0.11722518 -0.04778606 0.16832124 -0.119608864 -0.015625115 0.09272163
0.14051534 0.11813358 -0.0407726 0.04102997 0.052974414 0.074363366 -0.07886473 0.06148842
0.0066238046 0.0018389589 0.054189906 0.009767362 -0.13847186 -0.01372965 0.026282946 -0.07558759
-0.0048464155 -0.05383825 0.0011848328 0.0953808 -0.13448104 -0.2086476 0.057379246 0.028499348
0.11498019 -0.051519915 -0.12259649 -0.019630738 0.05572672 0.084151395 -0.076364584 -0.041786022
0.07917398 0.04218073 0.03420469 0.016508887 0.008347706 -0.027805874 0.13161907 0.09210747
-0.0076772003 0.17569232 -0.07812376 0.041089073 0.032426715 0.0056821313 -0.019968955 -0.054946
00000000: fdb2 e43c de4f 7fbb 3072 343b 052b 793d
00000010: e889 e73e baee 473e c5ba ad3d b8a6 133e
00000020: 0bd4 d8bc 7501 e43d 551e 0d3d 53f7 083d
00000030: c15d 843d 0a4e a8bc 676a b13c 15e0 d7bb
00000040: b77d 2c3d d3a9 a73d 50ff 633e eff8 383e
00000050: 742a a83d 08bc 00bd 66b2 83bd 3e5b 813e
00000060: 9ced a83d dce3 57bb 3121 673e 30d1 e13d
00000070: 1d20 8b3d 0c2e 0f3e f76f ef3c e667 a3bd
00000080: 8548 653a 00f7 023e 5244 6f3d 27ed 3a3e
00000090: 25f8 b83d b2fe f03d abe6 89bd c48d 3c3e
000000a0: 6b81 a73d 873d 743d f2aa b0ba 832d d53d
000000b0: cecc 813d 1e7b 1c3e d49c 7c3d 1d0a 4b3d
000000c0: bfb0 183d fdd3 79be 0e37 85bd df47 943e
000000d0: 03c5 a739 2fde 863e a690 2bbd 7c4d 88bc
000000e0: 3ac9 27bd a6ff a13c da5d 32be 946c 54bd
000000f0: c26e 99bb e686 be3d 9009 8e3d abfb 10be
00000100: 7136 0ebd 7b61 dfbd f154 273e d548 0c3f
00000110: f7f4 dc3d 1c15 41bd 7745 383e dd78 27be
00000120: 7345 59bd ce63 f1bc b328 903d 5ade 063e
00000130: 7de4 a8be 9c6f 72be 15f3 b13c 10da 8bbc
00000140: 999d 033d 7f8b b9bd 57d1 f73d eda7 f3bd
00000150: 109c 213d e111 8e3e 0100 3a3e 11fc 893c
00000160: 6974 b3be 57bf c0bc 75af 00bd 0c56 753d
00000170: 5716 e1bd a4cd 0d3e 3818 d23d 9248 623d
00000180: f28e e4bd 370c 1e3d fd25 c3bd 2985 3bbe
00000190: 3578 abbd f117 2ebe a41d 733d 87be 1d3e
000001a0: e622 acbd ee47 a9bd befc b4bd 8a1d 17bd
000001b0: 9304 8cbe 8892 013e c681 8abe 6b48 483e
000001c0: efca 3a3f eec5 183d 705d 59be 14cd 3a3d
000001d0: b85f 49be 829a 83be 303e 5d3e 32b6 8ebe
000001e0: b77e 8f3e 34b2 dd3e 454e 6a3e 2ea9 86be
000001f0: 5258 883e 2a1d 2bbe 5a0a c03d 3701 02bd
00000200: e07e 333d f7fc ff3d dffe 403c fa44 c23d
00000210: 2044 663d d30a acbd 9aa4 8d3c 79fb 9d3d
00000220: d9e0 9e3d d2c1 ee3d 7d34 dc3d 358b 0dbf
00000230: 0408 863d f533 e43d 3d35 743d 5ed1 493e
00000240: 0e4a 85bd 007f 9d3b a0d4 ec3c a56a 273d
00000250: 124f f53d d632 013d 8e94 fbbc 8cf7 8d3d
00000260: e016 bfbd e7fc 163d ebea 2d3e d451 0cbe
00000270: 21d6 533e 37f6 8d3e 9a30 363e b259 9cbc
00000280: 9e15 3b3e 766d 36bc 131d b23d e902 c23d
00000290: 3ccc b23d cdf3 043e 0a1c e83d 0da5 fa3d
000002a0: fc50 ce3d 48c4 1a3e fcf5 d33d ed69 e3bc
000002b0: 69f7 29be 2d34 6f3d fab9 bfbc e17b 71be
000002c0: 5dc2 cfbd f7e6 afbb 6a1f b5bd db48 393d
000002d0: 369a 033e 785a 3bbd cfcb b0bd 61f9 863d
000002e0: ea47 083e 781c 9b3d d424 90bd 46b4 90bd
000002f0: 5519 20bd 501c aabd 8023 0f3e aacd abbb
00000300: bd1c 993d 7789 d03d cb9e 8e3d e33b eb3c
00000310: b065 e53c 5066 52bd 92f5 e73d 1c23 113e
00000320: f43a 473d 0aa5 e43d c113 f0bd 51bb 43bd
00000330: 675c 2c3e 7ef5 f4bd 3e00 80bc d7e4 bd3d
00000340: 41e3 0f3e 05f0 f13d 2b01 27bd 0b0f 283d
00000350: b3fb 583d d24b 983d d583 a1bd 48db 7b3d
00000360: 800c d93b 3909 f13a 3cf6 5d3d 4907 203c
00000370: 91cb 0dbe 53f2 60bc 554f d73c abcd 9abd
00000380: aece 9ebb 7f85 5cbd 644c 9b3a 0257 c33d
00000390: 66b5 09be b7a7 55be 8006 6b3d 7777 e93c
000003a0: bc7a eb3d 8c06 53bd de13 fbbd a4d0 a0bc
000003b0: b341 643d 9157 ac3d 0965 9cbd d227 2bbd
000003c0: f825 a23d b3c5 2c3d 381a 0c3d a53d 873c
000003d0: d1c4 083c 25c9 e3bc 26c7 063e d7a2 bc3d
000003e0: 0691 fbbb b0e8 333e 5aff 9fbd 044d 283d
000003f0: e0d1 043d 2c31 ba3b ef95 a3bc 0f0f 61bd

decoder_layers.block_1.conv.bias f4 [40]
-0.12684324 -0.322989 0.09623612 -0.22335173 -0.13697205 0.041193437 -0.079140306 0.053557526
0.32794216 0.016624374 0.007308282 0.19889873 0.2372692 0.21476884 0.21904162 0.3284538
0.14279026 0.2088819 0.39100838 0.1594968 0.06004129 -0.048951045 0.40179026 -0.14126469
0.045994453 0.4050614 0.04197754 0.11787233 0.050700705 -0.011682587 0.043395735 0.14879538
-0.049759187 -0.021258147 -0.02745059 -0.031521864 0.043168288 -0.23933466 -0.43877092 -0.08652487
00000000: 32e3 01be d05e a5be 7117 c53d 51b6 64be
00000010: 6742 0cbe 73ba 283d 5014 a2bd 235f 5b3d
00000020: 09e8 a73e d72f 883c 507a ef3b 1cac 4b3e
00000030: b2f6 723e 5dec 5b3e 724c 603e 192b a83e
00000040: 9c37 123e 23e5 553e 4032 c83e 2153 233e
00000050: dbed 753d e480 48bd 74b7 cd3e b1a7 10be
00000060: ae64 3c3d 3564 cf3e a4f0 2b3d 0c67 f13d
00000070: 8bab 4f3d 5268 3fbc babf 313d d15d 183e
00000080: 4ad0 4bbd 9125 aebc 0fe0 e0bc 121d 01bd
00000090: 3bd1 303d 2514 75be 95a6 e0be f333 b1bd

read.weight f4 [1, 10, 1, 1]
-0.07329356 0.0077077625 0.034001946 -0.13474832 0.022563731 -0.18876827 -0.15330587 0.03778823
0.11020205 0.12205863
00000000: ef1a 96bd 6691 fc3b a045 0b3d 77fb 09be
00000010: 93d7 b83c 784c 41be 37fc 1cbe d5c7 1a3d
00000020: 9db1 e13d e0f9 f93d
