trainedModels/wave/horizon-20-40/lateral2/run3/model.pt (torch, 45673 bytes, 19 tensors)

init.weight f4 [11, 1, 1, 1]
0	0x3e026324	0.12733132
1	0x3ef090b5	0.46985403
2	0xbe7e86ce	-0.24856111
3	0xbf0300ff	-0.51173395
4	0xbf11dd35	-0.5697816
5	0xbca0488a	-0.01956584
6	0xbed5cb61	-0.41756728
7	0x3f50125f	0.8127803
8	0xbecd4c06	-0.40097064
9	0x3f2da408	0.67828417
10	0x3e699786	0.22811708

init.bias f4 [11]
0	0xbd069d30	-0.03286475
1	0xbd65986b	-0.05605356
2	0x3e28f2bc	0.16498846
3	0xbe6bdf43	-0.23034386
4	0xbef67114	-0.48133147
5	0xbe5223ad	-0.20521422
6	0xbe1381a6	-0.14404926
7	0xbec32984	-0.3811761
8	0xbd3dd984	-0.046350017
9	0xbecf15b7	-0.40446255
10	0xbe157f1c	-0.1459927

encoder_layers.block_0.transition.weight f4 [11, 22, 3, 3]
0	0xbd2f3b3b	-0.042781096
1	0x3bc9e305	0.006161096
2	0x3d98f901	0.07469369
3	0x3ca276b4	0.019831993
4	0xbc9135c6	-0.017725836
5	0xbce4bd8b	-0.027922412
6	0xbd043d3e	-0.032284968
7	0x3c931da1	0.017958464
8	0x3bc8df7e	0.006130158
9	0xbe0cd20e	-0.13752005
10	0xbd7f0a54	-0.06226571
11	0xbdc3900b	-0.095489584
12	0xbc6200d9	-0.013794147
13	0xbcaeb8af	-0.021328298
14	0xbdb722b5	-0.08942167
15	0xbde10bf2	-0.109886065
16	0xbdace732	-0.084425345
17	0xbde66e4c	-0.11251506
18	0x3d32433d	0.043521155
19	0x3c7c636b	0.0154045625
20	0x3c698add	0.014254299
21	0x3d21b668	0.039480597
22	0xbc078eab	-0.008273761
23	0xbc7e4143	-0.015518489
24	0x3d0f2994	0.03495176
25	0x3cc8d5ba	0.024515975
26	0x3b8565b0	0.00407096
27	0x3e07e6eb	0.13271682
28	0x3d40d1cb	0.047075074
29	0x3e41ca12	0.1892474
30	0x3d463474	0.048389867
31	0xbd3d0c15	-0.0461541
32	0x3da0d910	0.078539014
33	0x3e04bf7d	0.12963672
34	0x3d9aa76d	0.07551465
35	0x3e2715da	0.1631693
36	0x3ddcac57	0.10775059
37	0x3d0930d7	0.033493843
38	0x3e284ef2	0.16436365
39	0x3cb8eb2b	0.022573074
40	0xbd768f65	-0.060195345
41	0x3d15bc6e	0.036556654
42	0x3e17f528	0.14839613
43	0x3d304318	0.043032736
44	0x3e27da7f	0.16391943
45	0x3d5edf18	0.054411978
46	0x3b2cc5a9	0.0026362932
47	0x3d567ccc	0.05236511
48	0xbd23ae9f	-0.039961454
49	0xbdb2d8ee	-0.08732782
50	0xbcca2a2a	-0.024678309
51	0x3d701030	0.058609188
52	0x3c1189ed	0.008882982
53	0x3d39a2fc	0.04532145
54	0x3e0c37b5	0.13693126
55	0x3d2af4cd	0.041737366
56	0x3dd421e5	0.10358027
57	0x3d36db17	0.044642534
58	0xbdb758fc	-0.08952519
59	0x3d36609a	0.04452572
60	0x3e27ef25	0.1639982
61	0x3d9c6a16	0.07637422
62	0x3e332339	0.17493905
63	0xbe08807d	-0.13330264
64	0xbd9b91b4	-0.0759615
65	0xbdd09ad9	-0.10185785
66	0xbd768567	-0.060185816
67	0xbd1bd9a2	-0.038049348
68	0xbd4a15b6	-0.04933711
69	0xbdf7a30f	-0.12091648
70	0xbd170a2e	-0.036874942
71	0xbdad956e	-0.08475767
72	0x3de93aa0	0.11388135
73	0x3d565585	0.05232765
74	0x3e10f0fc	0.14154428
75	0x3c1f7d05	0.009734397
76	0xbd89364c	-0.066998094
77	0x3dc20de7	0.09475308
78	0x3e14d54e	0.14534494
79	0x3dc7d39a	0.09757157
80	0x3e3aaa8d	0.18229122
81	0xbde3a747	-0.1111589
82	0xbd71c2ab	-0.05902354
83	0xbd83ac1f	-0.06429314
84	0xbdb92931	-0.0904106
85	0xbd2f3e07	-0.042783763
86	0xbdb9a948	-0.09065491
87	0xbddad7e0	-0.10685706
88	0xbceb89e6	-0.028752279
89	0xbdef9ed3	-0.11700215
90	0xbdaca16a	-0.08429225
91	0xbd91e50f	-0.071237676
92	0xbc979148	-0.018501893
93	0xbd560e2b	-0.052259605
94	0xbd684e20	-0.05671513
95	0xbd5553ef	-0.052082
96	0xbc9291e5	-0.017891834
97	0xbb242239	-0.0025044812
98	0xbda78f39	-0.081816144
99	0xbcffbe45	-0.031218657
100	0x3d22d207	0.03975108
101	0xbd7e0d2b	-0.062024277
102	0x3dcc244c	0.099678606
103	0x3e64d049	0.2234508
104	0x3cb0abfe	0.021566387
105	0x3d1d3280	0.03837824
106	0x3dc3627f	0.09540271
107	0xbc979f1d	-0.018508488
108	0xbe218b6d	-0.15775843
109	0xbd80e55a	-0.06293745
110	0xbd1ea066	-0.038727187
111	0xbd8fe51c	-0.07026121
112	0x3db36172	0.087588206
113	0xbd25dc1a	-0.04049311
114	0xbe15f074	-0.14642507
115	0xbd838f34	-0.06423798
116	0xbd655673	-0.055990648
117	0xba5d46c2	-0.00084410247
118	0x3b16f0f0	0.0023031794
119	0x3d38ef81	0.045150284
120	0x3cdd6069	0.027023511
121	0x3dc5ff36	0.09667818
122	0x3c710479	0.014710539
123	0x3cfdf41f	0.031000195
124	0x3c54eef4	0.012996424
125	0x3c66ec37	0.014094404
126	0xbd58c0cb	-0.052918237
127	0x3d108c0e	0.035289817
128	0xbdbdcb19	-0.092672534
129	0x3ca7701e	0.020439204
130	0x3e00fddf	0.12596844
131	0xbc8f5ba2	-0.017499749
132	0xbd56fac5	-0.052485246
133	0xbba01c43	-0.0048861816
134	0xbde550ca	-0.1119705
135	0x3cbbc5d9	0.02292149
136	0xbd94512c	-0.07242045
137	0x3d5a440e	0.05328756
138	0xbcbfa4cc	-0.023394011
139	0xbcb8992f	-0.022533981
140	0xbd1268e4	-0.035744563
141	0x3dbf0bc8	0.09328419
142	0xbcf0d2a4	-0.029397316
143	0x3ccc6ca3	0.024954146
144	0x3cddd311	0.027078183
145	0x3af721a7	0.0018854634
146	0x3d537eb7	0.051634517
147	0x3d1398e5	0.036034483
148	0xbd4b3f09	-0.049620662
149	0x3ca6bb1b	0.02035289
150	0x3d50a19a	0.050935365
151	0x3c281106	0.010257965
152	0x3de42312	0.11139502
153	0x3d5a2624	0.05325903
154	0xbda99262	-0.082798734
155	0x3cec696d	0.028858865
156	0xbd21e4d0	-0.039524853
157	0xbde084cc	-0.10962829
158	0xbd1f3641	-0.0388701
159	0x3e051223	0.129952
160	0x3cad105e	0.021125969
161	0x3d012cc0	0.031536818
162	0xbc1f690f	-0.009729638
163	0x3c8062d2	0.015672121
164	0xbd2b1438	-0.04176733
165	0x3a509dfb	0.0007958111
166	0xbc090540	-0.008363068
167	0x3cbac443	0.022798663
168	0xbd2401c6	-0.040040754
169	0xbd719c42	-0.05898691
170	0xbbd94f20	-0.006631747
171	0xbe481be1	-0.19541885
172	0xbd76ee8e	-0.060286097
173	0xbe3487dd	-0.17629953
174	0xbd63c1a8	-0.055604607
175	0x3e211fd5	0.15734799
176	0xbda166c6	-0.078809306
177	0xbe33180b	-0.1748964
178	0xbdb74271	-0.089482196
179	0xbe21bcf5	-0.15794738
180	0xbd6c463c	-0.05768417
181	0xbc962e0c	-0.018332504
182	0xbb38716d	-0.002814378
183	0xbd18f77c	-0.037345394
184	0x3d703ce7	0.05865183
185	0x3ce7a02f	0.028274624
186	0xbd3fb427	-0.046802666
187	0xbc884950	-0.01663652
188	0x3d0a35b3	0.033742618
189	0x3c157eee	0.009124501
190	0x3b8c2fae	0.004278145
191	0xbcef99b0	-0.029248089
192	0xbd2346e5	-0.039862532
193	0x3d47a25f	0.048738834
194	0xbdc77ecc	-0.097409815
195	0xbdb958d3	-0.09050145
196	0xbdaf6e2f	-0.08565938
197	0xbdf05692	-0.11735262
198	0x3d64636a	0.05575887
199	0x3ba12ecd	0.004918909
200	0x3c931ee2	0.017959062
201	0x3bef9470	0.0073113963
202	0x3da415a8	0.08011943
203	0xbba5ce7e	-0.005060016
204	0x3c75fcc4	0.015013877
205	0x3d23b955	0.03997167
206	0xbc9f010c	-0.019409679
207	0xbdae0b54	-0.084982544
208	0xbd1cdf16	-0.03829869
209	0xbdadf397	-0.08493727
210	0xbc349506	-0.011021858
211	0x3de33030	0.110931754
212	0xbb31b57d	-0.0027116232
213	0xbdbee0aa	-0.09320195
214	0x3c915e62	0.0177452
215	0xbd29fc4e	-0.041500382
216	0x3c4fe5b0	0.012689039
217	0x3cd88be0	0.026433885
218	0x3c0dcfba	0.008655483
219	0xbacfde7c	-0.0015859152
220	0xbd96e5bd	-0.07368038
221	0x3ccae9ba	0.024769653
222	0x3d27c5db	0.040960174
223	0x3af8fb75	0.0018995838
224	0x3d39006d	0.04516642
225	0x3def0d06	0.11672406
226	0x3cbf0552	0.023317967
227	0x3e3781a0	0.17920542
228	0x3d324fc8	0.043533117
229	0xbe863df6	-0.26219147
230	0xba6cb7c9	-0.00090300717
231	0x3dd97441	0.10617877
232	0xbd032acf	-0.032023247
233	0x3dba85e9	0.091075726
234	0x3dab7c45	0.08373312
235	0x3d0da6f2	0.03458304
236	0x3e0dd0ec	0.13849229
237	0x3cf71d80	0.030165434
238	0xbe6dc94f	-0.23221324
239	0xbb7725a7	-0.0037711652
240	0x3e04e7ea	0.12979093
241	0x3d0f2ba0	0.034953713
242	0x3dc984fa	0.098398164
243	0x3c3ff824	0.011716876
244	0xbd094108	-0.033509284
245	0x3da2755b	0.0793254
246	0x3b0ea066	0.0021763085
247	0xbdf00d33	-0.117212676
248	0x3c99a524	0.018755503
249	0x3d4521a9	0.048127804
250	0x3d23f361	0.040027026
251	0x3caada75	0.020856122
252	0x3dfb3a21	0.122669466
253	0x3d695183	0.0569625
254	0x3de39173	0.111117266
255	0x3cb782cd	0.022401238

encoder_layers.block_0.transition.bias f4 [11]
0	0x3dca8218	0.09888095
1	0x3d83544f	0.06412565
2	0xbc7fba7e	-0.015608428
3	0xbab9e82d	-0.0014183574
4	0xbd8ad500	-0.06778908
5	0x3d7d19cc	0.06179218
6	0x3c74df89	0.014945873
7	0xbd894716	-0.06703012
8	0x3b4c3681	0.0031160417
9	0x3daf372a	0.085554436
10	0xbe5687ef	-0.20950292

encoder_layers.block_0.conv.weight f4 [44, 11, 1, 1]
0	0x3e142d52	0.14470413
1	0x3e18af1b	0.14910547
2	0x3c6b6d24	0.014369283
3	0x3da8e4d9	0.08246774
4	0xbbe16f73	-0.006879741
5	0x3e00c802	0.12576297
6	0x3cbd6921	0.023121418
7	0x3d15d587	0.03658059
8	0xbe166a5c	-0.1468901
9	0x3a1aa671	0.00058994355
10	0xbd38d85b	-0.045128208
11	0x3dbf8fb8	0.09353584
12	0x3e54cebd	0.2078199
13	0x3d8def87	0.06930452
14	0x3d9e9ebf	0.07745122
15	0x3ebe4c10	0.37167406
16	0x3eabe328	0.33571744
17	0xbd8475a0	-0.06467748
18	0x3d78be97	0.060728636
19	0xbe80d7ea	-0.2516473
20	0x3b6174ee	0.003440197
21	0x3e1a6e5a	0.15081158
22	0x3efb3d3a	0.4907015
23	0xbdad1c16	-0.084526226
24	0xbe298d82	-0.16557887
25	0xbe934f83	-0.287716
26	0x3d954b8a	0.072897986
27	0xbe576d81	-0.21037866
28	0xbd89fc74	-0.06737605
29	0x3e6dbeb7	0.23217283
30	0x3e3037e9	0.17208828
31	0x3e85877b	0.26079926
32	0x3dab6d09	0.08370406
33	0x3d4ab487	0.04948857
34	0x3da0b649	0.07847268
35	0xbe10cde8	-0.14141047
36	0x3d824ec6	0.06362681
37	0xbd6987ba	-0.057014205
38	0x3e05987e	0.13046452
39	0x3e4d0ea8	0.20025122
40	0x3ab0c617	0.001348677
41	0xbdd323fa	-0.10309596
42	0x3d212ec1	0.03935123
43	0xbe407fce	-0.18798754
44	0x3dd04d4f	0.101709954
45	0xbca61097	-0.020271583
46	0xbdcadefd	-0.09905813
47	0xbe037c30	-0.12840343
48	0x3c65da02	0.014029028
49	0xbd9e71f6	-0.0773658
50	0x3dbaa96c	0.09114346
51	0xbd6a7bef	-0.0572471
52	0x3d1f9cd2	0.038967915
53	0x3e306c20	0.17228746
54	0xbd09fd32	-0.03368873
55	0x3f5a2fd8	0.85229254
56	0x3d248598	0.040166467
57	0xbed7377f	-0.42034528
58	0xbee640e0	-0.4497137
59	0xbd510eed	-0.051039625
60	0xbe3754bd	-0.17903419
61	0xbd123032	-0.035690494
62	0x3d1d8d7a	0.038465
63	0x3d8b928a	0.068150595
64	0x3ecb2b90	0.39681673
65	0xbe3ce353	-0.18446092
66	0xbd88142f	-0.06644475
67	0xbcbc27a5	-0.022968123
68	0x3d1adb8a	0.037807025
69	0xbe486161	-0.19568397
70	0xbe319a1e	-0.17343947
71	0xbe77fe25	-0.24218042
72	0xbdff10b3	-0.12454357
73	0x3e35da2e	0.1775901
74	0x3de529b9	0.111895986
75	0xbd523ea7	-0.05132928
76	0xbdd18b57	-0.10231655
77	0x3e8e0956	0.27741498
78	0x3e0908d6	0.13382277
79	0x3e2f80a9	0.17138924
80	0x3e034186	0.12817964
81	0xbd34cea0	-0.044142365
82	0x3e3a32dc	0.18183464
83	0x3de497db	0.11161777
84	0x3e3af9f2	0.18259409
85	0xbdb7e1c5	-0.08978609
86	0x3e07d4b0	0.13264728
87	0xbe1bf872	-0.15231493
88	0x3e6b3beb	0.22972076
89	0x3d55a8fc	0.05216311
90	0x3d2f93be	0.042865507
91	0x3d1e323d	0.03862213
92	0x3e4b3e2a	0.19847932
93	0xbdaa0742	-0.083021656
94	0x3de3c84d	0.11122189
95	0xbca22d18	-0.019796893
96	0x3cb42140	0.021988511
97	0x3e18ef5f	0.14935063
98	0x3e353eef	0.17699789
99	0xbdbbbc0c	-0.091667265
100	0x3eb30de4	0.34971535
101	0xbdc96133	-0.098329924
102	0x3e99097a	0.29890043
103	0xbe01231e	-0.12611052
104	0x3ecad556	0.39615887
105	0xbf02c9b9	-0.51089054
106	0xbeb60123	-0.35547742
107	0x3c1631e1	0.0091671655
108	0xbe629df3	-0.22130565
109	0x3e026859	0.12735118
110	0xbe9dd05a	-0.30823022
111	0xbe38a783	-0.1803265
112	0x3d196127	0.037446167
113	0xbe4544c4	-0.19264513
114	0xbd191c2e	-0.03738039
115	0xbdd6f9c9	-0.104968615
116	0x3e813785	0.2523767
117	0x3e8b04a0	0.27151966
118	0x3de5f9e6	0.11229305
119	0x3d84d643	0.0648618
120	0xbd8df7e7	-0.06932049
121	0x3e51f773	0.2050455
122	0xbd2c9598	-0.04213485
123	0xbefdcca0	-0.4957018
124	0xbdaa1dac	-0.08306441
125	0xbe071759	-0.131925
126	0xbcbc1bcc	-0.022962473
127	0x3e34ffed	0.17675753
128	0x3e920e43	0.28526506
129	0xbe29ba5e	-0.16575
130	0xbcd21a24	-0.02564723
131	0xbd2417c8	-0.040061742
132	0x3d9c0509	0.07618148
133	0xbdb54c8e	-0.08852492
134	0xbe619be9	-0.22032131
135	0xbeca60ce	-0.3952698
136	0xbc848a1f	-0.016179143
137	0x3bbb6d1c	0.005719794
138	0xbe333310	-0.17499948
139	0x3aa39803	0.0012481216
140	0xbde2354e	-0.11045323
141	0x3eb2ccbd	0.34921828
142	0xb8af309b	-8.353704e-05
143	0x3e2555eb	0.16146056
144	0x3ed57a24	0.41694748
145	0x3e2daac1	0.16959669
146	0xbe072636	-0.1319817
147	0x3e8919a2	0.2677737
148	0xbd4332e4	-0.047655955
149	0x3e22aef3	0.1588705
150	0x3d4fdbdb	0.05074678
151	0xbda593a1	-0.080847986
152	0x3e5d6561	0.21620704
153	0xbd8eddfd	-0.06975935
154	0x3dc40776	0.095717356
155	0xbe42bbc3	-0.19016938
156	0x3c285ab9	0.010275536
157	0xbe2e7360	-0.170362
158	0xbe095751	-0.13412215
159	0xbe8f87c1	-0.2803326
160	0x3dedb8d7	0.11607521
161	0x3e1cd589	0.15315832
162	0x3e3f15cc	0.18660659
163	0x3d99423d	0.07483337
164	0x3dcf140f	0.10111248
165	0xbca3737f	-0.019952534
166	0x3dcdecec	0.10054955
167	0xbcfa79ba	-0.030575622
168	0x3d96ed27	0.07369452
169	0xbe253b8a	-0.16135994
170	0x3e82ce8d	0.2554821
171	0xbe2fa5cc	-0.1715309
172	0xbe0c5ccf	-0.13707279
173	0x3c8a5092	0.016884122
174	0xbe38f923	-0.18063788
175	0xbe53d2cf	-0.20685886
176	0x3e98b9de	0.29829305
177	0x3e8eba21	0.2787638
178	0xbdc6a79b	-0.09699937
179	0x3ce2c603	0.02768231
180	0xbe4ac429	-0.19801392
181	0x3eb500c3	0.35352144
182	0x3e3b1f4d	0.18273659
183	0x3e798364	0.24366528
184	0xbe9d8fd3	-0.30773792
185	0x3e5d2f8b	0.21600167
186	0xbe68454a	-0.22682682
187	0x3e605ae6	0.21909675
188	0x3df7036f	0.12061202
189	0x3da3d2db	0.07999202
190	0x3e52ef51	0.20599104
191	0xbe2154d8	-0.15755022
192	0x3dade337	0.084906034
193	0xbe65b906	-0.22433862
194	0xbe9282fd	-0.2861556
195	0x3d77064e	0.060308747
196	0xbd8a0763	-0.0673969
197	0xbd623e0a	-0.055234946
198	0xbb81433d	-0.003944783
199	0xbbcaa0f1	-0.0061837365
200	0xbe6a8672	-0.2290285
201	0x3e877df5	0.26463285
202	0xbe06a738	-0.13149726
203	0x3b7da6ea	0.0038704225
204	0x3e027912	0.12741497
205	0xbdbbbc98	-0.09166831
206	0x3ea50992	0.32233864
207	0xbba5f466	-0.005064535
208	0x3d2b91bf	0.04188704
209	0xbdb1bb2b	-0.086782776
210	0x3de11f30	0.10992277
211	0x3e81bb99	0.25338438
212	0xbead38f8	-0.33832526
213	0xbe0b4119	-0.13599052
214	0x3df64ea2	0.12026717
215	0x3ee7360b	0.4515842
216	0x3c96407e	0.0183413
217	0xbc8152ce	-0.015786555
218	0x3d976296	0.07391851
219	0xbe92cc4e	-0.28671497
220	0xbd88cf51	-0.066801675
221	0xbe2ee8e1	-0.17081024
222	0xbdf995b0	-0.12186754
223	0x3dfe2ce7	0.12410908
224	0xbe903e9d	-0.2817277
225	0xbd8509e8	-0.0649603
226	0x3daa3b09	0.08312041
227	0xbe52f57b	-0.20601456
228	0xbdc1919e	-0.094516024
229	0x3e08fa8c	0.13376826
230	0xbe05c5ab	-0.13063686
231	0xbe3dc4a4	-0.18532044
232	0xbe7e19bc	-0.24814504
233	0x3d8dd930	0.06926191
234	0x3d51cc33	0.05122013
235	0x3e2bb400	0.16767883
236	0xbd1fd2ae	-0.03901928
237	0x3e6ed7b2	0.23324469
238	0x3cf20dff	0.02954769
239	0xbbbcf551	-0.0057665487
240	0xbc1ed30e	-0.009693874
241	0x3e9894a5	0.29800907
242	0x3ca1fdf8	0.019774422
243	0x3dbfb926	0.09361486
244	0x3d1b5446	0.037922166
245	0x3cfebd2a	0.03109606
246	0x3e9d7aed	0.30757847
247	0x3ed5ec6c	0.41781938
248	0x3c9f579e	0.019450959
249	0x3e800089	0.25000408
250	0xbdeb4b49	-0.11488969
251	0xbe086dc8	-0.13323128
252	0x3def5eb1	0.11687983
253	0x3d88ad8f	0.06673729
254	0xbe4acc1f	-0.19804429
255	0xbe10797e	-0.14108846

encoder_layers.block_0.conv.bias f4 [44]
0	0x3d7a5c62	0.06112326
1	0xbe4d17a7	-0.20028554
2	0x3d0b000e	0.0339356
3	0x3a2d7595	0.00066169474
4	0xbd3316b7	-0.043722834
5	0x3dcc4b02	0.09975244
6	0x3d79d9c8	0.060998708
7	0x3d41caa4	0.047312394
8	0x3d31522c	0.043291256
9	0x3dd9eefa	0.10641284
10	0xbcdc4bb7	-0.026891572
11	0xbdb447d4	-0.08802763
12	0x3e4503e3	0.19239764
13	0xbdb6b5e4	-0.08921412
14	0x3db123c7	0.08649402
15	0x3e7eafd0	0.24871755
16	0xbe764db1	-0.24053074
17	0x3eb554e3	0.35416326
18	0x3e6aaae4	0.22916752
19	0x3db53001	0.08847047
20	0xbb639b69	-0.0034730083
21	0x3e04ee50	0.12981534
22	0xbe907f29	-0.28222016
23	0xbdabef1d	-0.083952166
24	0xbc8d9498	-0.01728277
25	0xbdf757e0	-0.12077308
26	0x3e12217e	0.14270589
27	0x3ccb5a84	0.024823435
28	0xbe181b3f	-0.14854144
29	0xbe181b2e	-0.14854118
30	0xbdef505f	-0.116852514
31	0xbe4d9c6f	-0.20079206
32	0xbe6518b9	-0.22372712
33	0x3da7c6c9	0.08192212
34	0xbc8395fe	-0.016062733
35	0xbd56fb8d	-0.05248599
36	0x3d54a8e1	0.051918868
37	0x3df25abd	0.11833713
38	0xbd79a94c	-0.06095247
39	0x3e249c74	0.16075307
40	0x3b80657f	0.0039183493
41	0x3db87ada	0.09007807
42	0xbe0d3697	-0.13790356
43	0x3dba80cd	0.09106598

encoder_layers.block_1.transition.weight f4 [11, 22, 3, 3]
0	0xbce505a3	-0.02795679
1	0xbbd3db59	-0.0064653573
2	0xbda4ae06	-0.08041005
3	0xbc9ef369	-0.019403176
4	0x3d28a45a	0.041172363
5	0xbc9ccfbb	-0.019142022
6	0xbd424ba4	-0.047435418
7	0xba22090a	-0.00061811565
8	0xbd65432a	-0.055972256
9	0x3bf7af7d	0.0075587616
10	0x3d858929	0.06520302
11	0x3d0527af	0.03250855
12	0x3d8c7eca	0.068601206
13	0xbc325bcc	-0.010886144
14	0x3d9ecf38	0.077543676
15	0x3d15ecdc	0.03660284
16	0x3d838356	0.06421535
17	0x3ca57444	0.020197041
18	0xbbddcb6a	-0.0067686336
19	0x3d642e63	0.0557083
20	0x3ce9d2ef	0.028542964
21	0x3c5f9fdb	0.013648952
22	0x3c54971e	0.012975482
23	0x3da955d0	0.082683206
24	0x3cae759f	0.02129632
25	0x3d3b303d	0.0457003
26	0x3c7d58c4	0.015463058
27	0xbbefbfb6	-0.007316555
28	0x3b8e065c	0.004334254
29	0xbbda523c	-0.006662635
30	0x3d1811a2	0.03712619
31	0xbd745829	-0.05965439
32	0x3b15f3f7	0.002288101
33	0xbcb86d91	-0.022513183
34	0x3c27972a	0.010228911
35	0xbbc8262a	-0.006108065
36	0x3d6e4de1	0.05817974
37	0xbb9a583d	-0.004710226
38	0x3d384aa5	0.04499306
39	0x3ca29ba8	0.019849613
40	0xbe6956a6	-0.2278696
41	0xbc558572	-0.013032304
42	0x3dc74051	0.09729064
43	0xbbd7d966	-0.006587195
44	0x3d1cebb3	0.038310718
45	0xbc0be85b	-0.008539285
46	0xbbffc4de	-0.007805451
47	0x3b8c6e17	0.0042855847
48	0x3bc21b62	0.0059236744
49	0xbe08b851	-0.13351561
50	0x3d0099bd	0.031396616
51	0xbcd9678c	-0.026538633
52	0x3c995b0a	0.018720169
53	0x3be928e2	0.0071154693
54	0xbd325e61	-0.043547038
55	0x3db7f2c1	0.089818485
56	0x3ba33e01	0.0049817567
57	0x3d882822	0.0664828
58	0x3dae8c70	0.0852288
59	0x3dc3ec2a	0.09566529
60	0xbc929b1c	-0.017896228
61	0x3d6f0f24	0.05836405
62	0xbd9db500	-0.07700539
63	0xbd87ed68	-0.066370785
64	0x3c4faef4	0.012675989
65	0xbd9c1c68	-0.076226056
66	0x3c324857	0.010881505
67	0xbcf80c75	-0.030279377
68	0x3b7d4400	0.0038645267
69	0xbd8a1f84	-0.067442924
70	0x3bc06740	0.0058716834
71	0xbd3e5bda	-0.046474315
72	0xbdf17568	-0.117899716
73	0xbcf3c152	-0.029755268
74	0xbe0dde91	-0.13854434
75	0xbd16aabc	-0.03678392
76	0x3d26955f	0.040669795
77	0xbd2b985b	-0.041893344
78	0xbd97387e	-0.07383822
79	0xbd7f8d16	-0.06239041
80	0xbdf4c471	-0.11951531
81	0xbc77b85b	-0.015119637
82	0x3cdbd053	0.026832735
83	0x3c19af93	0.009380239
84	0xbcbf6657	-0.02336423
85	0xbdeeac6c	-0.116539806
86	0x3cc3d6f2	0.023906205
87	0xbcdff85f	-0.027340112
88	0xbc38eb9b	-0.0112866415
89	0xbc862c55	-0.016378561
90	0xbd2b2b73	-0.041789483
91	0xbd94134a	-0.072302416
92	0xbd67ede3	-0.05662335
93	0xbd23bacb	-0.03997306
94	0xbcef3a75	-0.02920268
95	0xbd54e5b4	-0.051976874
96	0x3c026be1	0.007960291
97	0xbd5194a0	-0.05116713
98	0xbcf7cdd6	-0.030249517
99	0x3ddd12a0	0.10794568
100	0x3e2f597d	0.17123981
101	0x3e0ba4c4	0.13637072
102	0x3e1716cf	0.14754795
103	0x3e0d6d3f	0.13811205
104	0x3e499266	0.19684753
105	0x3db92612	0.090404645
106	0x3e0a2071	0.13488938
107	0x3dee0209	0.11621482
108	0xbbf39353	-0.007433334
109	0xbd289332	-0.041156
110	0xbd170a61	-0.036875132
111	0xbd281bd3	-0.04104216
112	0x3d660d00	0.05616474
113	0xbd837edf	-0.06420683
114	0xbd1fe309	-0.039034877
115	0xbdba4f4b	-0.09097155
116	0xbcc02150	-0.023453385
117	0xbb8d01c7	-0.0043031904
118	0x3d23fa8b	0.04003386
119	0xbd80ccae	-0.062890396
120	0x3da9ac53	0.08284821
121	0x3e133454	0.1437543
122	0x3c79ba8a	0.015242228
123	0xbd95a0e1	-0.07306076
124	0x3dc5c074	0.09655848
125	0x3c1d96fb	0.009618516
126	0xbdad2c57	-0.08455723
127	0xbd0716e2	-0.032980807
128	0xbb97e5f4	-0.004635567
129	0x3cbfda16	0.023419421
130	0xbce3368c	-0.02773597
131	0xbb8c0545	-0.004273089
132	0xbb3ca001	-0.0028781893
133	0xbc30be5c	-0.010787573
134	0xbdcbc689	-0.09949977
135	0xbde9cc9f	-0.114159815
136	0xbdfc1b4f	-0.12309896
137	0xbc836cd4	-0.016043104
138	0xbdbf01f9	-0.09326548
139	0xbc139ff7	-0.009010307
140	0xbd9e4720	-0.0772841
141	0xbda46b34	-0.0802826
142	0xbd84ded9	-0.06487817
143	0xbde2bcfd	-0.11071203
144	0x3e192da3	0.14958815
145	0x3eabf19a	0.33582765
146	0x3c7b4128	0.015335359
147	0x3d55d5b9	0.052205775
148	0xbef06da7	-0.46958658
149	0x3ea6a7cb	0.3254989
150	0xbc12fb69	-0.008971074
151	0x3dcf76f8	0.10130113
152	0x3dcd5027	0.100250535
153	0xbd8efdbd	-0.069819905
154	0xbce3e01d	-0.027816826
155	0xbd6390c6	-0.05555799
156	0xbd9189e1	-0.071063764
157	0xbde3a245	-0.11114935
158	0xbd57870a	-0.052619018
159	0xbcf6de20	-0.030135214
160	0xbd30f34f	-0.043200787
161	0xbd5f768b	-0.05455641
162	0xbdc1a7c9	-0.094558306
163	0x3d0a0224	0.033693448
164	0xbe94dabd	-0.29073134
165	0xbbb147e0	-0.0054101795
166	0xbf08fc9a	-0.5351044
167	0xbcf8dd8c	-0.03037908
168	0xbe390f90	-0.18072343
169	0xbb70c3cf	-0.0036737805
170	0xbd728edd	-0.059218276
171	0xbba893f4	-0.0051445905
172	0x3d46660a	0.048437156
173	0xbc380a9c	-0.011232998
174	0x3b43c27d	0.0029870563
175	0xbdd5d6fb	-0.10441395
176	0x3d3aeb68	0.045634657
177	0xbca93d1b	-0.02065902
178	0xbd1de251	-0.03854591
179	0x3aceb340	0.0015769973
180	0xbd5b1f07	-0.053496387
181	0xbd0bd046	-0.034134172
182	0xbd5fa390	-0.054599345
183	0xbddba0d3	-0.10724034
184	0xbd8585ab	-0.06519636
185	0xbcf4e456	-0.029894035
186	0xbd496678	-0.049169987
187	0xbd807b43	-0.0627351
188	0xbd6ec4cb	-0.058293145
189	0xbdb2e146	-0.08734374
190	0xbd71aef0	-0.059004724
191	0xbdace4d8	-0.08442086
192	0xbd951cef	-0.07280909
193	0xbe34df8c	-0.17663401
194	0xbdd1c616	-0.1024286
195	0xbdca23a9	-0.09870083
196	0xbd75e9e3	-0.060037505
197	0xbd1f20d9	-0.038849685
198	0x3e0b82a1	0.1362405
199	0x3dadd48c	0.08487806
200	0x3e6b96df	0.23006772
201	0x3d644082	0.055725582
202	0xbd2ae0fa	-0.04171846
203	0xbc0fe29e	-0.008782057
204	0x3e302613	0.17202024
205	0x3c44620e	0.011986269
206	0x3dcf5ff5	0.10125724
207	0xbe3691d4	-0.17829067
208	0x3d96f30e	0.07370578
209	0xbd37bfc5	-0.04486062
210	0x3e3f0a33	0.18656234
211	0x3e0ce8ce	0.13760683
212	0x3d20af30	0.03922957
213	0xbca0fd6b	-0.01965209
214	0x3e4577c7	0.19283973
215	0xbdce0d35	-0.10061113
216	0x3d9d10a3	0.07669189
217	0xbd60c58c	-0.054875895
218	0x3e21d8cd	0.15805359
219	0x3b95e85f	0.00457482
220	0xbe93b56f	-0.2884936
221	0xbce1ea99	-0.027577685
222	0x3e3feb39	0.18742074
223	0xbe120f26	-0.14263591
224	0x3dd79d96	0.10528104
225	0xbd80d624	-0.06290844
226	0xbe35f9f5	-0.17771132
227	0xbd958c82	-0.0730219
228	0xbd97c612	-0.07410826
229	0x3dce77e4	0.10081461
230	0xbe37883b	-0.17923062
231	0xbd80ff5b	-0.06298705
232	0x3ad86655	0.001650999
233	0xbd8178fb	-0.06321903
234	0x3cfd32fd	0.030908102
235	0xbd891d59	-0.06695051
236	0xba850481	-0.0010148437
237	0xbe1f1ccc	-0.15538329
238	0xbe0db34c	-0.13837928
239	0xbdf9b909	-0.12193496
240	0x3d660b43	0.056163084
241	0xbdef2b2b	-0.116781555
242	0x3de4f9f5	0.11180488
243	0x3ac29759	0.001484613
244	0xbd120894	-0.035652712
245	0xbc6daceb	-0.014506559
246	0xbd556b0a	-0.052104034
247	0x3cfc127d	0.030770535
248	0xbd14e80a	-0.036354102
249	0x3d34df88	0.04415849
250	0xbd0151e3	-0.031572234
251	0xbd0cad0a	-0.03434471
252	0x3e0b1bf8	0.13584888
253	0xbe099aa3	-0.13437895
254	0x3d9d85bb	0.07691523
255	0xbde9468f	-0.11390411

encoder_layers.block_1.transition.bias f4 [11]
0	0xbd0a32e2	-0.033739932
1	0x3e0029fd	0.12516017
2	0xbe2edcd9	-0.17076434
3	0xbd7b5f7c	-0.061370358
4	0xbe1626e7	-0.14663278
5	0xbd671b93	-0.05642278
6	0xbcf8a7a8	-0.030353382
7	0x3d798388	0.060916454
8	0xbd8a7283	-0.067601226
9	0x3d65a7d1	0.056068245
10	0xbe0c1af0	-0.13682151

encoder_layers.block_1.conv.weight f4 [44, 11, 1, 1]
0	0x3ea854bf	0.32877156
1	0xbd28cfed	-0.04121392
2	0x3e79e97c	0.24405473
3	0x3ec50fc7	0.384886
4	0x3f267a54	0.6503041
5	0xbe1a2073	-0.15051441
6	0x3e8d8a37	0.27644512
7	0xbd8d521a	-0.06900425
8	0x3f17bc01	0.59271246
9	0x3e5b1286	0.21393785
10	0x3ef8512c	0.4849943
11	0xbe6cfc50	-0.23143125
12	0x3c787bf0	0.015166268
13	0xbd312b9a	-0.043254472
14	0x3de03652	0.10947861
15	0xbe3b4178	-0.18286693
16	0xbb67dbad	-0.003537874
17	0xbe53c2cd	-0.2067978
18	0x3d4f9b76	0.05068537
19	0x3d8bcc51	0.0682608
20	0x3c7b6722	0.015344413
21	0xbce8a8c9	-0.028400796
22	0x3edaca85	0.42732635
23	0xbf46c10b	-0.7763831
24	0x3ebd2d40	0.36948586
25	0x3ea7e6cf	0.3279328
26	0xbdd4349a	-0.103615955
27	0x3ec771cd	0.3895401
28	0x3f707526	0.93928754
29	0xbd7df3f3	-0.062000226
30	0x3ec85793	0.39129314
31	0xbf50170a	-0.81285155
32	0x3edd9d9c	0.4328431
33	0x3e967f58	0.2939403
34	0xbedeca66	-0.43513793
35	0x3e6ec867	0.23318635
36	0x3ea80a82	0.32820517
37	0xbd4945a7	-0.04913869
38	0x3ed7e4c6	0.42166728
39	0x3eff8bab	0.49911246
40	0xbdc4c112	-0.09607138
41	0xbca92f8d	-0.020652557
42	0xbc7a5a2a	-0.015280286
43	0x3ee1349c	0.4398545
44	0x3e697926	0.2280012
45	0xbf45a0d8	-0.77198553
46	0x3f1e2c60	0.6178646
47	0x3fa5297c	1.2903285
48	0x3ef219e9	0.47285393
49	0x3ea97404	0.33096325
50	0x3ef7285c	0.4827298
51	0xbece3443	-0.40274248
52	0x3df85d29	0.12127144
53	0xbef6bf21	-0.48192695
54	0x3f6d504d	0.92700654
55	0xbd85ddc0	-0.06536436
56	0x3dcb7229	0.09933884
57	0xbd6da7cc	-0.05802135
58	0xbe33e7b5	-0.17568858
59	0xbe91ca1e	-0.28474516
60	0xbcd62d35	-0.026144603
61	0x3e76fba6	0.24119434
62	0x3dabf85b	0.083969794
63	0xbcd9f7de	-0.02660745
64	0x3e1742ca	0.14771572
65	0x3e4c2ecc	0.19939727
66	0x3db999c0	0.090625286
67	0x3d6f648e	0.058445506
68	0x3e0cd562	0.13753274
69	0x3e10d496	0.14143595
70	0xbec540b2	-0.3852592
71	0x3bee5c9e	0.0072742244
72	0xbd34acee	-0.04411023
73	0xbe7574ad	-0.2397029
74	0x3e8432a4	0.25819886
75	0x3e546ec1	0.20745374
76	0xbd856911	-0.065141805
77	0x3e93ded6	0.28880948
78	0xbe101a4c	-0.14072531
79	0xbdf66c62	-0.12032391
80	0x3d537263	0.05162276
81	0xbeda2e24	-0.42613328
82	0xbdc8a3f6	-0.09796898
83	0xbec6e8d1	-0.388495
84	0xbe35aa17	-0.17740665
85	0x3f4114f2	0.75422585
86	0x3e240430	0.16017222
87	0x3de7cef0	0.11318767
88	0xbd1659dd	-0.036706794
89	0xbe5bdb66	-0.21470413
90	0x3e8265c2	0.2546826
91	0x3c2ab480	0.010419011
92	0xbdfe8554	-0.12427774
93	0x3e1de1f5	0.15418227
94	0x3f28a94b	0.6588332
95	0xbdf84d23	-0.12124088
96	0xbe374632	-0.17897871
97	0xbec37be6	-0.38180465
98	0x3d0b4e36	0.034010135
99	0x3cc369d1	0.023854168
100	0x3e388c31	0.18022229
101	0xbda550a0	-0.080720186
102	0x3e83512e	0.25647873
103	0xbd27a71d	-0.040930856
104	0x3e0bf012	0.13665798
105	0xbecacace	-0.39607853
106	0x3e10b26a	0.1413056
107	0xbdca717a	-0.09884925
108	0x3e9489ea	0.2901147
109	0x3dc9c5b8	0.09852165
110	0x3e3107ee	0.17288181
111	0xbeb1cfa6	-0.34728736
112	0x3ed30397	0.41213676
113	0x3e9bf39b	0.30459294
114	0x3d8b713f	0.06808709
115	0x3dd88e1c	0.1057398
116	0x3e051f77	0.13000284
117	0x3c6d75ea	0.014493445
118	0x3e75873e	0.23977372
119	0x3e93062a	0.2871564
120	0x3e499d41	0.19688894
121	0xbcfd97cf	-0.030956177
122	0x392910e3	0.00016123387
123	0x3e34c96b	0.1765496
124	0x3e8ec450	0.2788415
125	0x3deb3ace	0.114858255
126	0x3ef8ef3a	0.48620015
127	0x3dfc4477	0.12317746
128	0x3e1485f3	0.14504223
129	0x3ebb6416	0.36599797
130	0xbea55ca8	-0.32297254
131	0xbdae0c0b	-0.08498391
132	0xbd44eec2	-0.04807926
133	0x3c41a90a	0.011820087
134	0x3e8d0ed9	0.2755039
135	0xbd962119	-0.073305316
136	0x3e9dd6c5	0.3082792
137	0x3e5a2031	0.21301343
138	0x3f596e17	0.8493361
139	0xbdaa6709	-0.08320434
140	0x3f11092e	0.5665463
141	0xbf06fccf	-0.52729505
142	0x3dac504b	0.08413752
143	0xbe1181c5	-0.1420966
144	0x3e85fed7	0.2617099
145	0xbe9567df	-0.2918081
146	0x3c603f8d	0.013687027
147	0xbdf36b72	-0.11885728
148	0xbe847c52	-0.258761
149	0xbe54c109	-0.20776762
150	0x3dde24be	0.10846852
151	0xbcb494d2	-0.02204362
152	0x3db5b541	0.08872462
153	0xbdeba5f7	-0.11506265
154	0xbcc9a4fa	-0.0246148
155	0xbdbbc331	-0.09168089
156	0x3d7b96c8	0.061423093
157	0x3e1cf7a7	0.15328847
158	0xbe71771f	-0.23580597
159	0xbdbe4fc6	-0.09292559
160	0xbe800583	-0.25004205
161	0xbe02de21	-0.12780048
162	0x3d0a0c2e	0.03370302
163	0x3df3ac67	0.118981175
164	0x3e9484df	0.29007623
165	0xbe6d90ce	-0.2319977
166	0x3db2c23c	0.087284535
167	0x3d106b55	0.03525861
168	0x3dc38f1f	0.095487826
169	0xbc8454d8	-0.016153738
170	0x3b26a8c6	0.0025430187
171	0x3c6778b1	0.014127896
172	0x3e2966cc	0.1654312
173	0xbdaf1ac0	-0.08550024
174	0x3e3d9132	0.18512419
175	0xbe03f406	-0.12886056
176	0x3e17f990	0.14841294
177	0xbaa411e6	-0.0012517541
178	0x3f00e724	0.5035269
179	0xbf04f568	-0.5193696
180	0x3e83a392	0.25710732
181	0xbe4c79fd	-0.1996841
182	0xbe68291f	-0.22671936
183	0xbdc5f56b	-0.096659504
184	0xbe8a3829	-0.26995972
185	0xbc87b9ca	-0.016568083
186	0x3e4335b7	0.1906346
187	0xbe4493be	-0.19196984
188	0x3eb0ae76	0.34508103
189	0x3dcbedd5	0.09957472
190	0xbd34eccc	-0.04417114
191	0x3ea553c1	0.32290462
192	0xbe16d940	-0.14731312
193	0xbe2d7acf	-0.16941379
194	0x3c665cd3	0.014060217
195	0xbdedf08e	-0.11618148
196	0x3e17cb09	0.14823546
197	0xbdb2fe7d	-0.08739946
198	0x3ccf893b	0.025333991
199	0x3e16ba5a	0.14719525
200	0x3e241efb	0.16027443
201	0xbea9d817	-0.33172676
202	0x3ece9dd4	0.40354788
203	0x3d8a7272	0.0676011
204	0x3eae950d	0.34098092
205	0xbd4ef0d8	-0.050522655
206	0xbe5584d7	-0.20851456
207	0x3e35cb77	0.17753397
208	0x3e7938e3	0.24338107
209	0xbd517d62	-0.051144965
210	0xbe0286c2	-0.12746719
211	0xbd62c14a	-0.055360116
212	0xbe9472bd	-0.28993788
213	0xbe0dd59c	-0.13851017
214	0xbbd89336	-0.006609346
215	0xbf184f3e	-0.59495914
216	0x3da4ccdf	0.080468886
217	0x3da10abe	0.07863377
218	0x3ec63c39	0.3871782
219	0x3e4a7053	0.19769411
220	0xbdb7877c	-0.089613885
221	0xbe4855c8	-0.19563973
222	0xbe21a780	-0.15786552
223	0xbd040afa	-0.03223703
224	0xbe438705	-0.19094475
225	0xbe1eab67	-0.15495072
226	0xbcb228b6	-0.021747928
227	0xbe0c97c3	-0.13729768
228	0xbe2da27e	-0.16956517
229	0x3ecb08eb	0.3965524
230	0xbe06d4d7	-0.1316713
231	0xbd42975a	-0.04750762
232	0xbe43980a	-0.19100967
233	0x3dc86187	0.09784227
234	0x3d64a74a	0.0558236
235	0xbebe4bbe	-0.37167162
236	0x3e1ca8d5	0.1529878
237	0x3e01691d	0.12637754
238	0x3c4bb81d	0.012434033
239	0x3d9c2d7e	0.076258644
240	0x3e998153	0.2998148
241	0x3e13581a	0.14389077
242	0x3cf36b71	0.029714318
243	0x3eb456d5	0.35222498
244	0x3e41733e	0.18891618
245	0x3df24663	0.118298315
246	0xbdf7ed10	-0.12105763
247	0x3d266341	0.040622
248	0xbdf148f4	-0.11781493
249	0xbf20fd99	-0.6288696
250	0xbdda94d3	-0.10672917
251	0x3e5a620a	0.21326461
252	0x3eb994e8	0.3624642
253	0x3b93b5db	0.004507763
254	0xbe11703c	-0.1420297
255	0x3e73d7c4	0.23812777

encoder_layers.block_1.conv.bias f4 [44]
0	0xbeda666b	-0.42656264
1	0xbdb0d6cd	-0.0863472
2	0xbee3292e	-0.44367355
3	0xbebdbd38	-0.37058425
4	0xbec50d3d	-0.38486663
5	0x3d41855d	0.047246326
6	0xbd8fd2f5	-0.07022659
7	0xbe69956a	-0.22810903
8	0xbe3e6139	-0.18591775
9	0x3d9caba8	0.07649928
10	0xbde73077	-0.11288541
11	0xbe287c5a	-0.16453686
12	0xbe080e4f	-0.13286708
13	0x3e3504fe	0.17677686
14	0xbda5f283	-0.08102896
15	0x3e8da76c	0.27666795
16	0xbe2180be	-0.15771767
17	0xbd9cb0ce	-0.0765091
18	0xbba345b4	-0.0049826745
19	0x3e5d2f0f	0.21599983
20	0x3e109ff4	0.14123517
21	0x3e4e5bba	0.20152178
22	0xbc80ab74	-0.015706755
23	0x3dc06236	0.09393732
24	0x3d992d1b	0.07479306
25	0x3d0dd2b8	0.034624785
26	0xbdb248d5	-0.08705298
27	0xbe9d1e5d	-0.30687228
28	0xbc816730	-0.015796274
29	0xbe3e4bc2	-0.18583587
30	0xbdfa4be4	-0.12221506
31	0x3e7977b3	0.24362068
32	0xbdf02bde	-0.11727117
33	0xbddc5b5d	-0.10759614
34	0xbe57035e	-0.20997378
35	0x3dfd9d92	0.1238357
36	0x3d8e5cf7	0.069513254
37	0xbe2bda1a	-0.16782418
38	0xbdc1b05f	-0.09457468
39	0x3e164ca0	0.14677668
40	0xbed10e00	-0.40830994
41	0x3dff90bb	0.12478777
42	0xbd3a1b3e	-0.045436136
43	0xbdb292d1	-0.08719409

decoder_layers.block_0.transition.weight f4 [11, 11, 3, 3]
0	0x3d38d193	0.04512174
1	0x3dc99416	0.09842698
2	0x3c8d3e30	0.017241567
3	0x3d9d7f10	0.07690251
4	0x3c563099	0.01307311
5	0xbcf6baba	-0.030118335
6	0x3d91d247	0.07120185
7	0x3d7d9837	0.06191274
8	0xbc0a1d83	-0.008429888
9	0x3d6fcec4	0.058546796
10	0xbdd03b41	-0.10167552
11	0xbc4cf191	-0.012508766
12	0xbdbd5175	-0.09244052
13	0xbe154f7c	-0.14581102
14	0xbd530e1f	-0.05152714
15	0x3c80d841	0.015728118
16	0xbd90e46e	-0.070748195
17	0xbd03672e	-0.03208082
18	0xbd9a33dd	-0.075294234
19	0xbe2fb886	-0.17160234
20	0xbd8222b8	-0.06354278
21	0xbe28e88b	-0.16494958
22	0xbe16f45e	-0.14741656
23	0xbe6145ae	-0.21999237
24	0xbdb9d08f	-0.090729825
25	0xbe646ca8	-0.22307074
26	0xbdd7b60e	-0.10532771
27	0x3ca2a3d6	0.019853514
28	0x3dd5fff0	0.10449207
29	0xbd3b66a6	-0.04575219
30	0x3d80b688	0.06284815
31	0x3db7a0a0	0.08966184
32	0x3dc9d173	0.098544024
33	0x3c8f50bb	0.01749455
34	0x3dda98c0	0.10673666
35	0x3d89d8e8	0.06730825
36	0x3d2e6ccf	0.042584237
37	0x3ce7bb5d	0.028287584
38	0x3d9b0ca0	0.075707674
39	0xbcdf2eda	-0.02724402
40	0x3c957b75	0.018247345
41	0xbbc112c7	-0.005892131
42	0x3d9c3284	0.076268226
43	0xbc9b1a57	-0.018933458
44	0x3d663b97	0.056209173
45	0xbc4606f5	-0.01208662
46	0xbd89091d	-0.06691191
47	0xbd7a96ed	-0.06117909
48	0x3c97370d	0.018458867
49	0xbda4b720	-0.08042741
50	0xbc797463	-0.015225503
51	0xbc228d82	-0.009921433
52	0xbd8888fb	-0.06666752
53	0x3d08e5a1	0.033422116
54	0x3bcfb324	0.006338494
55	0xbc041765	-0.008062218
56	0xbd15b3ff	-0.03654861
57	0x3b8cbf84	0.0042952914
58	0x3e085e0f	0.1331713
59	0x3d0fc208	0.035097152
60	0xbd7ecf02	-0.062209137
61	0xbb3b98b4	-0.0028624954
62	0xbd272b96	-0.04081305
63	0x3dcd881a	0.10035725
64	0x3dc55729	0.09635765
65	0x3debdffa	0.115173295
66	0x3d25da08	0.040491134
67	0x3b74f3ad	0.0037376687
68	0xbc9f75c9	-0.019465344
69	0x3dc40044	0.09570363
70	0xbb89a288	-0.0042002834
71	0x3c8b1174	0.016976096
72	0x3d9c5138	0.07632679
73	0x3cd554e9	0.026041465
74	0x3da5afd3	0.080901764
75	0xbc8b20ac	-0.016983353
76	0xbd336508	-0.043797523
77	0x3c81d3f6	0.015848141
78	0x3d642eb0	0.055708587
79	0xbb795954	-0.0038047628
80	0x3d80f229	0.062961884
81	0xbe040cf2	-0.12895563
82	0xbcb674ea	-0.022272546
83	0xbde3b87f	-0.11119174
84	0x3cb7358f	0.022364406
85	0x3e5cd8ae	0.21567032
86	0x3b893152	0.0041867876
87	0xbd86a2bc	-0.06574008
88	0x3d4f4c2d	0.050609756
89	0xbd3e7100	-0.046494484
90	0x3d9ec242	0.077518955
91	0xbcfef8d6	-0.031124514
92	0xbbf57d9c	-0.0074917804
93	0xbad013aa	-0.0015875001
94	0xbc801ad0	-0.015637785
95	0xbde204bd	-0.1103606
96	0xb9adaeee	-0.00033127464
97	0xbdbd3e79	-0.09240431
98	0x3d86be8f	0.06579315
99	0xbbd607e1	-0.006531701
100	0xbdc1cf6e	-0.09463392
101	0x3d006dcd	0.031354714
102	0xbd8d44d6	-0.06897895
103	0xbd4215e7	-0.04738417
104	0xbe2072ab	-0.15668742
105	0x3de91863	0.113816045
106	0xbda18561	-0.07886768
107	0xbd6ebbc9	-0.058284555
108	0xbc200a91	-0.009768144
109	0x3ce63163	0.028099721
110	0x3dbe8ba1	0.09303976
111	0x3d3c0098	0.045899004
112	0x3c90f53b	0.01769506
113	0xbb16869c	-0.0022968417
114	0x3d05bb5c	0.032649383
115	0x3d58b8a0	0.052910447
116	0x3c7333c4	0.014843885
117	0x3ddc37f9	0.107528634
118	0x3e03d56b	0.12874381
119	0x3caecf56	0.0213391
120	0x3dfef84d	0.12449703
121	0x3dfaaf4e	0.12240468
122	0x3df63300	0.12021446
123	0xbb75e4e4	-0.0037520463
124	0x3d79479c	0.060859308
125	0xbc2b7a6d	-0.0104662
126	0xbdcd96dc	-0.1003854
127	0x3ca0e193	0.019638812
128	0xbd2b0809	-0.04175571
129	0xbd98dadf	-0.07463621
130	0xbd2719a5	-0.04079594
131	0xbd6f60a0	-0.05844176
132	0xbd903952	-0.07042183
133	0xbd9cf213	-0.076633595
134	0xbd236758	-0.03989348
135	0xbc4f2d4f	-0.01264508
136	0xbdfe1455	-0.12406222
137	0x3dd65918	0.10466212
138	0xbda8c3b8	-0.082404554
139	0xbe03d7ad	-0.12875243
140	0xbd1e54f1	-0.038655225
141	0x3de3d93d	0.11125419
142	0xbcd32f08	-0.025779262
143	0x3d42aaab	0.047526043
144	0x3a00f563	0.0004919378
145	0x3c0d7e66	0.008636093
146	0xbb9b4166	-0.0047380207
147	0xbcca7afa	-0.024716843
148	0x3dabfbd7	0.08397644
149	0x3dc296c2	0.09501411
150	0xbd0ac0f7	-0.033875432
151	0x3db25c06	0.08708958
152	0x3d134363	0.035952937
153	0x3db9d411	0.090736516
154	0x3b5cafdd	0.0033674159
155	0xb96a16d4	-0.00022324483
156	0xbb6aa18e	-0.003580186
157	0xbe0c5510	-0.13704324
158	0xbd03aa57	-0.03214487
159	0x3c30bd14	0.010787267
160	0xbd5d28e6	-0.053994082
161	0x3d74fdde	0.05981242
162	0x3dabfc54	0.08397737
163	0xbc82604d	-0.01591506
164	0x3a61d4f4	0.00086148013
165	0xbcb4546c	-0.022012912
166	0xbccf5277	-0.025307877
167	0xbdd054e5	-0.10172442
168	0xbc95762e	-0.018244829
169	0xbdb3fd97	-0.08788603
170	0x3bd04f2e	0.006357095
171	0xbe0bdb99	-0.13657989
172	0xbcbc3be1	-0.022977771
173	0xbcc36e94	-0.023856439
174	0xbd34c47d	-0.0441327
175	0xbdead30d	-0.11466036
176	0x3ceeaf26	0.029136252
177	0xbbf20822	-0.0073862234
178	0x3dcea017	0.100891285
179	0x3d4cbda8	0.049985558
180	0xbe4d8d9f	-0.20073555
181	0xbe018e2c	-0.1265189
182	0xbdb42311	-0.08795751
183	0xbde6eede	-0.11276029
184	0xbd8080de	-0.062745795
185	0xbe33c6e1	-0.17556335
186	0xbe246787	-0.16055118
187	0xbe124d6b	-0.14287345
188	0xbdf1e815	-0.11811844
189	0xbdb2249a	-0.086983874
190	0x3e24b55b	0.16084807
191	0x3d0264a0	0.031834245
192	0x3e2598d3	0.16171579
193	0x3e54aa7d	0.20768161
194	0x3e75065f	0.23928212
195	0xbd0569ab	-0.032571476
196	0x3e3d0a97	0.18461071
197	0xbe5f58d8	-0.21811235
198	0x3d369dae	0.04458397
199	0x3dbf39e8	0.093372166
200	0x3d479128	0.048722416
201	0x3dbfd29e	0.09366344
202	0xbc82efaf	-0.01598343
203	0x3cad841f	0.021181164
204	0x3de4c6be	0.111707196
205	0x3cbffc38	0.023435697
206	0x3dbeaf4a	0.093107775
207	0xbba649a0	-0.0050746948
208	0xbce2b8fd	-0.0276761
209	0x3d6ac516	0.057316862
210	0xbdaaab8a	-0.083335
211	0xbe27350b	-0.16328828
212	0xbd33fb46	-0.043940805
213	0x3caaeff3	0.02086637
214	0x3ca073e7	0.019586517
215	0x3cd5c969	0.026097016
216	0xbd81f0ad	-0.063447334
217	0xbe8966bf	-0.26836202
218	0xbe111a34	-0.14170152
219	0xbe8d0cfb	-0.27548966
220	0xbe5f1970	-0.21787047
221	0xbe97a191	-0.29615453
222	0xbe2f36cb	-0.17110746
223	0xbe8ad82b	-0.27118048
224	0xbc782ef1	-0.01514791
225	0x3d67b3e2	0.056568034
226	0x3d5c752a	0.053822674
227	0x3c823d4c	0.01589837
228	0x3d832e9c	0.064053744
229	0x3dbfed2f	0.09371411
230	0x3df7b12d	0.120943405
231	0x3cbc3422	0.022974078
232	0x3da2182f	0.07914769
233	0x3d9b3fa1	0.075804956
234	0xbce0ea22	-0.027455393
235	0x3cf5e3cf	0.030015854
236	0x3cf00289	0.029298084
237	0x3c87de25	0.016585419
238	0x3d565842	0.052330263
239	0x3c952bc5	0.018209348
240	0x3cbc9bea	0.023023564
241	0x3d296376	0.04135462
242	0xbcf4afc7	-0.029868973
243	0x3d7611d9	0.060075615
244	0x3c9cca52	0.019139443
245	0xbc2744ad	-0.010209245
246	0xbd3842b9	-0.044985507
247	0xbdb30746	-0.08741622
248	0x3bb1e8f1	0.00542938
249	0xbd7dfcc3	-0.06200863
250	0xbd7ea8e4	-0.062172785
251	0x3cb1714f	0.021660475
252	0x3d0dec10	0.034648955
253	0x3d5366d9	0.051611755
254	0xbc0f57d6	-0.008748969
255	0x3d73ed55	0.05955251

decoder_layers.block_0.transition.bias f4 [11]
0	0xbd8570d1	-0.06515659
1	0x3c933cd9	0.01797335
2	0xbdc9e1db	-0.09857532
3	0xbd757788	-0.059928447
4	0xbe1d30db	-0.15350668
5	0x3e2103a7	0.1572405
6	0xbcf0ec6b	-0.029409608
7	0x3d83f867	0.06443863
8	0xbd0bf27c	-0.034166798
9	0xbc9110c7	-0.017708195
10	0x3cc144cf	0.02359238

decoder_layers.block_0.conv.weight f4 [44, 11, 1, 1]
0	0xbc8a07ac	-0.016849361
1	0x3e02a699	0.12758864
2	0xbd08afad	-0.033370662
3	0xbe9f9ee1	-0.31175902
4	0xbd7a486e	-0.06110423
5	0xbe13323e	-0.14374635
6	0x3d588baa	0.05286757
7	0x3e062bba	0.13102618
8	0xbd09038d	-0.033450652
9	0xbdea0033	-0.11425819
10	0x3a3e1620	0.00072512217
11	0x3e1003f9	0.14064015
12	0x3d3aea71	0.045633737
13	0x3d256856	0.040382706
14	0xbe272eac	-0.16326398
15	0x3e07ab52	0.13248947
16	0xbe8a6e0b	-0.2703708
17	0xbd56f807	-0.05248263
18	0xbec13304	-0.37734234
19	0xbcea20f9	-0.028580176
20	0x3d910173	0.070803545
21	0xbdd1290c	-0.10212907
22	0xbe6c7bb6	-0.23094067
23	0x3e3b5e07	0.18297587
24	0xbc5146e4	-0.012773249
25	0xbd8d2275	-0.06891338
26	0x3da22400	0.07917023
27	0xbe6b0fa5	-0.22955187
28	0x3e71240d	0.23548909
29	0x3de35839	0.111008115
30	0x3e6c97f1	0.23104836
31	0x3d4c0f50	0.04981929
32	0x3e095f1d	0.13415189
33	0x3e5b402f	0.21411203
34	0x3e1dfa74	0.15427572
35	0x3e4debd0	0.20109487
36	0xbc949a43	-0.018139964
37	0x3d4e8324	0.050418034
38	0x3e24bb96	0.16087183
39	0xbe179dd7	-0.14806305
40	0x3c34b9cc	0.011030626
41	0xbebfcc98	-0.3746078
42	0x3e3a590d	0.18198033
43	0xbd88c1ab	-0.06677564
44	0x3d5a0574	0.053227857
45	0xbc21687f	-0.009851574
46	0x3e2d1edc	0.16906303
47	0x3d29b6ee	0.04143422
48	0x3e350ebb	0.176814
49	0x3db087a3	0.08619621
50	0x3aee4060	0.0018177144
51	0x3dca93e4	0.09891489
52	0xbe004f72	-0.12530306
53	0x3d9095ef	0.070598476
54	0x3d03b8a7	0.03215852
55	0xbf16c995	-0.5890134
56	0x3e3f31c5	0.1867133
57	0xbe9b8adc	-0.3037938
58	0xbe3b971e	-0.18319365
59	0x3e05b882	0.13058665
60	0xbe866f38	-0.26256728
61	0x3e97a995	0.29621568
62	0xbc99752d	-0.018732632
63	0x3d7b6e23	0.06138433
64	0x3d02a9b2	0.031900115
65	0x3e622e4c	0.22087973
66	0x3d407fe8	0.04699698
67	0x3e312755	0.1730016
68	0x3d808888	0.06276041
69	0xbc9085c7	-0.017641915
70	0xbd3dfda1	-0.046384457
71	0xbd55fb7f	-0.0522418
72	0xbdd632dd	-0.1045892
73	0xbd606585	-0.054784317
74	0x3db9d51a	0.09073849
75	0x3e77b92d	0.24191733
76	0x3c0baf3f	0.008525669
77	0xbbdef351	-0.006803908
78	0x3dc45a76	0.095875666
79	0xbe793cdf	-0.24339627
80	0x3dcedaf6	0.10100357
81	0x3c27b27a	0.010235423
82	0x3e21e5ec	0.15810364
83	0x3d4f35af	0.050588306
84	0x3d321638	0.04347822
85	0x3ded5b42	0.11589672
86	0xbd9753c4	-0.07389024
87	0x3e190a83	0.14945416
88	0xbe8f7865	-0.2802154
89	0x3df40aea	0.11916144
90	0x3acaa0de	0.0015459319
91	0xbe0e0ed8	-0.1387285
92	0x3dbaa4c4	0.09113458
93	0xbe116218	-0.14197576
94	0x3ce3fa1b	0.02782922
95	0x3cf8b17c	0.030358069
96	0xbaca6d72	-0.0015443994
97	0xbce4a491	-0.027910503
98	0x3c458ee7	0.012057996
99	0x3e744e55	0.23858006
100	0xbe38d337	-0.18049322
101	0x3e53aaab	0.20670573
102	0x3d24821a	0.040163137
103	0x3e9e8921	0.30963996
104	0xbda4db19	-0.08049602
105	0x3e1083df	0.14112805
106	0x3e176343	0.14783959
107	0x3dd8dca6	0.1058896
108	0x3d50f98e	0.051019244
109	0xbddd0ec0	-0.10793829
110	0x3d97eceb	0.074182354
111	0xbd5eed4c	-0.054425523
112	0x3e0be957	0.13663231
113	0x3e105c11	0.1409762
114	0x3e58d8a1	0.21176387
115	0x3e0aae7e	0.13543126
116	0x3ca13c86	0.01968218
117	0x3e148311	0.14503123
118	0xbe708f36	-0.2349213
119	0x3de495c9	0.11161382
120	0xbce7c033	-0.02828989
121	0x3d5096be	0.05092501
122	0x3d7503ad	0.05981796
123	0x3d9627c4	0.073318034
124	0xbe3e28a2	-0.18570188
125	0x3d2f3e37	0.042783942
126	0x3e44323a	0.19159785
127	0x3d4de1d8	0.05026421
128	0xbdc383b4	-0.09546605
129	0xbc0d0526	-0.0086071845
130	0x3dbc4888	0.09193522
131	0xbd8d9e50	-0.06914961
132	0xbde0b316	-0.10971658
133	0xbe70a591	-0.23500659
134	0x3d551bbe	0.05202841
135	0xbd4ccd5c	-0.050000533
136	0x3dadc876	0.084855005
137	0x3e14ea8a	0.14542595
138	0xbe7fd9c6	-0.24985418
139	0xbe8af606	-0.27140826
140	0xbdde484d	-0.10853634
141	0xbd493e18	-0.049131483
142	0xbc335660	-0.010945886
143	0x3e1f88e4	0.15579563
144	0x3c07b1b7	0.008282117
145	0x3ddba6aa	0.10725148
146	0xbd324e31	-0.0435316
147	0xbd950b56	-0.07277553
148	0x3d47a0f9	0.0487375
149	0x3d684df0	0.056714952
150	0xbdbebbe8	-0.09313184
151	0x3d6e19e2	0.058130153
152	0x3e13a6ec	0.14419144
153	0xbd9d9a01	-0.076953895
154	0xbda10a73	-0.07863321
155	0xbe695fbc	-0.22790426
156	0x3cc15afd	0.023602957
157	0x3d3d9d2c	0.04629247
158	0xbe2b5a97	-0.16733776
159	0x3e5f1370	0.21784759
160	0xbd83bb4d	-0.06432209
161	0x3e8be752	0.2732492
162	0xbda503f3	-0.08057394
163	0x3d300f1f	0.04298317
164	0x3d46899c	0.04847108
165	0x38043a2c	3.152543e-05
166	0xbe04da36	-0.12973866
167	0x3d3db317	0.04631337
168	0x3e0e0c6f	0.1387193
169	0xbd7b73e2	-0.06138981
170	0x3cecfd24	0.0289293
171	0x3e38649c	0.1800713
172	0x3e2c2902	0.16812518
173	0xbe1de009	-0.15417494
174	0x3e617dc9	0.2202064
175	0xbacc629f	-0.0015593356
176	0xbf189246	-0.59598196
177	0x3e33773b	0.17525952
178	0xbeb1ee1a	-0.3475197
179	0xbe81cf57	-0.253535
180	0x3d78d994	0.060754374
181	0xbd154217	-0.03643998
182	0x3ea3a996	0.3196532
183	0x3d900e22	0.070339456
184	0x3ed4a26e	0.41530174
185	0xbb7b358a	-0.0038331472
186	0x3ef5f19e	0.48035902
187	0x396acad1	0.00022391534
188	0xbebd3348	-0.36953187
189	0x3e1c0c94	0.15239173
190	0xbd3b325c	-0.045702323
191	0xbcaf4740	-0.02139628
192	0x3e61e6e1	0.2206073
193	0xbe82e9b1	-0.25568917
194	0x3e571728	0.21004927
195	0x3e02cd88	0.12773716
196	0x3db64087	0.08899026
197	0x3c3886b9	0.011262589
198	0xbe11f4a9	-0.14253487
199	0x3e80ba1f	0.25142
200	0x3d6d9b6c	0.05800955
201	0xbf2140ff	-0.629898
202	0xbe876507	-0.26444265
203	0x3d2e2fba	0.042525984
204	0xbdf83d6f	-0.121210925
205	0xbcc47de4	-0.02398581
206	0x3da37518	0.07981318
207	0x3db76f94	0.08956829
208	0xbb883a21	-0.00415732
209	0x3e12dc21	0.14341785
210	0x3e16acf1	0.1471441
211	0x3de17d9e	0.11010288
212	0xbe502d89	-0.2032987
213	0x3d330a90	0.043711245
214	0x3c3f574b	0.011678527
215	0x3e24e5ff	0.16103362
216	0xbc3ad243	-0.011402669
217	0xbdd27b2d	-0.102774
218	0xbe7902de	-0.243175
219	0x3c1a78e7	0.009428239
220	0xbe6e2532	-0.23256376
221	0xbd2e28a7	-0.042519238
222	0x3d688e65	0.056776423
223	0x391e0e8a	0.0001507347
224	0xbdaf0c49	-0.08547265
225	0x3e2b5fd0	0.16735768
226	0x3b3a81af	0.0028458645
227	0xbd290371	-0.041263048
228	0xbdd0548b	-0.10172375
229	0x3e55d1ae	0.20880768
230	0xbeb0c6eb	-0.34526762
231	0x3e4d00ee	0.20019886
232	0x3e502a2e	0.2032859
233	0x3e166a56	0.14689001
234	0xbea43ae1	-0.3207617
235	0xbdc507f3	-0.09620657
236	0x3da85f22	0.0822127
237	0x3e04f74f	0.12984966
238	0xbe41b903	-0.18918233
239	0x3ef857a5	0.48504367
240	0x3e30a452	0.17250183
241	0x3e436c27	0.19084226
242	0xbde2a8d7	-0.1106736
243	0x3e6236ca	0.22091213
244	0xbe6bacbe	-0.23015115
245	0xbd1f73bf	-0.038928743
246	0xbe458d39	-0.19292153
247	0xbe6d7d3e	-0.23192307
248	0xbd57cf2f	-0.05268782
249	0xbe1ec837	-0.15506063
250	0x3c09ea00	0.008417606
251	0xbc61509b	-0.013752128
252	0xbd1af58f	-0.03783184
253	0xbe76ba9c	-0.24094623
254	0x3e04565b	0.12923567
255	0xbe564720	-0.2092557

decoder_layers.block_0.conv.bias f4 [44]
0	0x3df5800c	0.11987314
1	0x3d49b110	0.049241126
2	0xbd3f4858	-0.04669985
3	0xbdfa0746	-0.122084185
4	0xbd8abce8	-0.06774312
5	0xbe2a6c07	-0.16642772
6	0x3d837d1f	0.06420349
7	0xbd705a07	-0.058679607
8	0x3c979534	0.018503763
9	0xbc05b551	-0.008160905
10	0xbdae2451	-0.085030206
11	0x3db292ee	0.08719431
12	0x3d3bd044	0.045852914
13	0x3e09eabf	0.13468455
14	0x3e6b38db	0.22970907
15	0x3e054cf7	0.13017641
16	0xbe2fc2ac	-0.17164105
17	0x3e0d9f89	0.13830389
18	0xbd95b667	-0.07310181
19	0xbdba32ad	-0.09091697
20	0x3e3ffe7b	0.1874942
21	0xbdd1e287	-0.10248285
22	0xbd0015b0	-0.031270683
23	0xbe129487	-0.14314471
24	0x3d179c83	0.037014496
25	0x3d953fbf	0.07287549
26	0xbe6bbbde	-0.23020884
27	0xbe0d6456	-0.13807806
28	0xbc85f67c	-0.016352884
29	0xbe5b66e4	-0.21425968
30	0x3c8fb807	0.017543806
31	0x3e31141e	0.1729283
32	0xbd7fc81f	-0.06244671
33	0xbe2380da	-0.15967122
34	0xbdf6f4f6	-0.12058441
35	0x3e0fadec	0.1403119
36	0xbd3fbae4	-0.046809092
37	0xbe4f11a1	-0.20221569
38	0x3e2aa358	0.16663873
39	0xbd117d38	-0.03551981
40	0xbca3618f	-0.01994398
41	0xbd8a6ca5	-0.067590035
42	0xbec3a253	-0.3820978
43	0xbc95b5c1	-0.018275144
