trainedModels/learningRate/baseline/1.0/2/0.0005/run5/model.pt (torch, 105473 bytes, 11 tensors)

init.weight f4 [10, 1, 1, 1]
00000000: 64de 9d3f ca0f a53f 942d dc3f a0e5 683f
00000010: f1c3 4e3f 2e37 8e3f 8620 9cbf 9195 e73f
00000020: 9e5f b8bf fd53 bcbf
1.2333493 1.2895443 1.7201409 0.9097538 0.8076773 1.111059 -1.2197425 1.8092519
-1.440418 -1.4713131

init.bias f4 [10]
00000000: d800 423f 095c 06bf c645 a4bd a6c1 49bf
00000010: ebdf 52bf be8a 203f a127 16bd 3a9f 443f
00000020: 1250 3f3e 9a53 0b3f
0.7578254 -0.52484185 -0.08021121 -0.7881111 -0.8237292 0.62711704 -0.036658887 0.7680546
0.18682888 0.5442444

encoder_layers.block_0.conv.weight f4 [40, 20, 3, 3]
00000000: 6a1b 0e3e f77a 0f3e 6978 3a3e e35a 243e
00000010: 9a4d 6b3e 675f 443e 2248 453e 2081 333e
00000020: 11c8 073e 90ee efbd cc99 92bd 0b12 17be
00000030: 097c 14be c28e 38be b5c4 bdbd c2cc acbd
00000040: 068f 80bd 01ae dcbd 445c 263d 948d c5b9
00000050: ba40 c9bb a1f7 7d3c d256 333d 0b35 0cbd
00000060: 9c7c 5f3d edcd 10ba 821b 933d 6ab5 a1bd
00000070: 4ee5 14be a816 30be df43 20be f949 93be
00000080: ab29 d4bd 7fa5 95bd b708 eebd 04f9 f3bd
00000090: 0261 66bd 4e64 2ebe d3ec debd e0aa 1ebe
000000a0: 1331 82be fcbf 2bbe b8e9 4fbd 3e75 d7bd
000000b0: 1bfd febd eae3 303e eba9 563e ca20 aa3d
000000c0: 78e6 6b3e 5580 a63e f381 703e 67cf 263e
000000d0: afd4 213e f9a4 6c3d ab2d 21be 4d6c 5fbe
000000e0: c113 bdbd d95e 22be 3cfd 54be f645 45be
000000f0: 6cb8 2dbe 7642 15be 7a69 2dbe 3a6e b03d
00000100: 206a 443e 4950 ff3d 9fae 123e 7cbf bb3e
00000110: 139d 5c3e ab40 113e b33c 5a3e f3e6 173e
00000120: 3bf3 71bc a708 b53d 5aa5 333d 5c0e a73c
00000130: ac4d 183e 331e 163e ec55 823d 7914 e23d
00000140: 5e6d d93d 7640 ca3d 3d47 7c3d 5ffd 8c3d
00000150: a337 e23d 6c8e 583e 5dd7 253e 9492 6f3d
00000160: 0576 5a3d c0fb 403c 4f5f b13d b57d 1e3d
00000170: 29cb 0d3e 4ae4 c33a 3720 ea3d 4f72 103d
00000180: c7a8 903d ecef 12bb 39bd 97bb 832c 793d
00000190: 0358 b43d 4753 e03c 04dc 163e cd9c 1b3e
000001a0: f847 8d3d e6e5 6c3d 9b0e 113d 947f d63d
000001b0: 4868 213e 411a 5c3e 0238 113e daae 183e
000001c0: def2 843e f368 503e d9e0 033e bff0 473e
000001d0: 0893 9f3d e529 7c3d 59f2 c53d d01a 273d
000001e0: c95a fb3c 545d 953d b535 11bd a0b0 a7bc
000001f0: 1795 34bd b708 593c c89d 45be 69bd 38be
00000200: 504f f5bd d909 4ebe a9e0 f1bd 5aae 9dbd
00000210: 46ac e2bd 6abb 31be cc2a 11be 883e a93d
00000220: 8bd3 203e 7bc5 c23d b835 343e 8ff5 913e
00000230: c762 2c3e d7a7 ff3d ec95 0b3e 45df 833d
00000240: 2953 bdbd 37a2 6abd f1ab b8bd 9247 c6bd
00000250: d34d 49be 410e dbbd 7b4f 43be 9200 44be
00000260: 53ef 3abe 8163 b8bb 432a 21be 8d42 22be
00000270: 03ba d3bd 2971 21be ba17 16be e232 9fbd
00000280: 6ca8 4dbd 7f53 c9bd 32d8 11be eb86 13be
00000290: 008a c2bc afd5 4cbd d429 babd f9af 97bd
000002a0: 774f cbbd da5d 3dbd 8779 f2bd 0a4d 5bbd
000002b0: 64ce 2ebe 0ee6 94bd 772b 07be 9345 2dbe
000002c0: 0b2b 84bd 99f3 f2bd 87b1 3ebe f683 57bd
000002d0: f2f1 8ebd d453 fcbc 1243 243d ccd0 053c
000002e0: 50e9 793d ca4a a03d 4021 a7bd d714 3bbc
000002f0: f8f4 8abd 853f 573d aa02 263d 9c6f 35bd
00000300: 61c0 56bc 2816 76bd b7b7 c23c c719 c5bc
00000310: 5168 fbbc 3ad2 d33c cfa6 30be 9237 11be
00000320: f7a5 6abd 99c0 40be 984a dfbd 3f9e 4b3d
00000330: 16f8 41be 6fbe dbbd 155f bcbd e8ab 413d
00000340: 78c1 5b3d 2f5f a83c 7ea7 203c b779 3f3c
00000350: 8b33 80bd a274 c73c f187 ab3c c957 643d
00000360: fce0 96bc bf40 c9bc cb27 f73c 3c32 69bc
00000370: 9677 49bd 0d6d 2abd 4198 9dbc ba6b 16bc
00000380: 7053 fa3c c94c 9cbd 0afa e3ba abeb b43b
00000390: 2184 8ebd 32c1 ca3b 399c 8c3d 03d5 713a
000003a0: 0caf 0d3d a628 32bb 71a8 bc3d cc03 bc3d
000003b0: bd6e 15bc cc09 1f3d 4b2e bbbc 9abb 10bc
000003c0: 2a0d c13d b8b9 063d fea8 043e 99b3 3ebd
000003d0: e0d8 86bd cfd5 983b f987 72bd 6e57 693d
000003e0: ea69 35bc abe2 d6ba 04b6 ccbb c2b6 003c
000003f0: 1d29 2a3d be31 393d 8081 0abd 2ddf 873d
0.13877645 0.14011751 0.18209995 0.16050296 0.22978821 0.19177018 0.19265798 0.17529726
0.13259913 -0.11715424 -0.07158241 -0.14752977 -0.1450044 -0.18023208 -0.092660345 -0.08437492
-0.062772796 -0.10775376 0.040615335 -0.00037680252 -0.006141749 0.015500934 0.04378397 -0.034230273
0.054562196 -0.00055238494 0.07182981 -0.0789593 -0.14540598 -0.17196143 -0.15650891 -0.28767374
-0.1035951 -0.073069565 -0.11622756 -0.1191273 -0.056244858 -0.1703045 -0.108850144 -0.15494871
-0.25428066 -0.16772455 -0.05076 -0.10520409 -0.1245062 0.17274442 0.20963256 0.08307035
0.23037136 0.32519785 0.23487072 0.16290055 0.15803789 0.057774518 -0.15740077 -0.21818657
-0.092322834 -0.15856494 -0.20799726 -0.19264969 -0.16964883 -0.14576134 -0.16934767 0.08614774
0.19181108 0.12466485 0.14324425 0.36669528 0.21544294 0.14184825 0.21312217 0.14834194
-0.014767463 0.08839541 0.043858863 0.02039259 0.1487338 0.14659958 0.063640445 0.11039061
0.10616563 0.09875576 0.061591376 0.06884264 0.11045768 0.2114808 0.16195436 0.058489397
0.05333521 0.011778772 0.08660757 0.038694102 0.1384703 0.0014945355 0.11431926 0.035265263
0.07063442 -0.0022420837 -0.0046307114 0.060833465 0.088058494 0.02738346 0.14732367 0.15196534
0.068984926 0.057836436 0.03541432 0.10473552 0.15762436 0.2149439 0.14181522 0.1491045
0.25966543 0.20352535 0.12878741 0.19525431 0.07791716 0.06156339 0.09665365 0.040797055
0.030682938 0.072931916 -0.03545161 -0.020469964 -0.044087496 0.013246707 -0.1929847 -0.18041004
-0.11978018 -0.20120944 -0.11810429 -0.076992705 -0.11068015 -0.17356649 -0.14176482 0.0826388
0.15705697 0.09510323 0.17598617 0.2850766 0.16834556 0.12483185 0.1363141 0.0643907
-0.09244377 -0.057283606 -0.0901717 -0.0968162 -0.19658594 -0.10696078 -0.19073288 -0.19140843
-0.18255357 -0.005627096 -0.15738778 -0.158457 -0.10338213 -0.15765823 -0.14657488 -0.07773377
-0.050209448 -0.09830379 -0.14242628 -0.14406936 -0.023747444 -0.050008472 -0.09090009 -0.07406611
-0.09927266 -0.046232082 -0.11839586 -0.053540267 -0.1707092 -0.07270442 -0.13200174 -0.16921072
-0.06453522 -0.11862869 -0.18622409 -0.052616082 -0.06979741 -0.030801691 0.040103026 0.008167457
0.06101352 0.07826765 -0.08160639 -0.011418543 -0.06785005 0.05255081 0.040529884 -0.044295892
-0.01310739 -0.060079724 0.023769243 -0.024060143 -0.03068939 0.02585708 -0.17251132 -0.14181355
-0.057287183 -0.1882347 -0.109028995 0.049711462 -0.18942294 -0.10729682 -0.09197823 0.047283083
0.053651303 0.0205532 0.009805558 0.011686734 -0.06259831 0.024347607 0.020938845 0.05574778
-0.018417828 -0.024567006 0.030170342 -0.014233168 -0.04918631 -0.041607905 -0.01923764 -0.009180957
0.030557364 -0.07631833 -0.0017393243 0.005521258 -0.06958795 0.0061875815 0.068657346 0.00092251616
0.034590766 -0.0027184873 0.09211815 0.09180412 -0.00912064 0.038827702 -0.022849223 -0.00883379
0.09426339 0.03289196 0.1295509 -0.046557996 -0.065843344 0.00466416 -0.059211705 0.056968145
-0.011072615 -0.0016394457 -0.006247284 0.007856073 0.041543115 0.045213453 -0.033814907 0.06634364

encoder_layers.block_0.conv.bias f4 [40]
00000000: fcf4 913e f144 b33d 785f a63d 03d7 ad3c
00000010: 473c 863b a845 133e 9135 113d 570a b23d
00000020: f24d 0a3e 61fc 843d 7dc8 c33b 3b66 123d
00000030: 4f26 72bc 7456 b2bc 86b5 cb3c 4be6 953d
00000040: 48fc b93d 7c91 1e3d f1f0 903d eed1 22bc
00000050: d440 a43c bcd0 323d 42fe a9bb 6153 f53c
00000060: d4a2 993c 375e ec3c 9665 093d 6906 de3c
00000070: 224c 573e 3b40 1ebc 9baa 2dbd cf69 423e
00000080: 6fe4 f33b dea1 d83c d340 923c d976 5f3d
00000090: 18b8 ce3c 8716 cbbd 1f34 b5bc b606 be3b
0.2850722 0.08753384 0.08123678 0.02122069 0.004096541 0.1438204 0.035451476 0.086933784
0.13506296 0.0649345 0.005974828 0.035742026 -0.014779641 -0.02176974 0.02486683 0.073193155
0.09081322 0.038712963 0.07077206 -0.009937746 0.020050444 0.043656096 -0.0051877806 0.029946985
0.0187544 0.028853519 0.033544146 0.027102666 0.21025136 -0.009658868 -0.04239903 0.18985675
0.007443003 0.026444372 0.017853176 0.0545567 0.025234267 -0.09916406 -0.02211958 0.00579914

encoder_layers.block_1.conv.weight f4 [40, 20, 3, 3]
00000000: 45e6 50bc ccb4 8f3d 7d6b 013e b769 063c
00000010: e997 e73c 0e56 843d 7831 8cbc dc6c 943d
00000020: b3c2 6a3d 3a4c 2bbc 23b5 99bc b223 a93d
00000030: 4b03 b33b 4600 583d 546c 143d d8c2 96bd
00000040: 1e84 5e3d 6a83 983d 7b5d 08bd e6ea 2d3d
00000050: 10b9 fb3d 175e a6bd 06d9 ef3c aff6 673d
00000060: a36c ac3c ed05 dbbd 6b58 463b 54ac ea3c
00000070: 9429 78bc c9a9 f3bd a163 823d 53b4 8bbb
00000080: ae6f 1a3d f032 6cbd e362 cabc a46c 3abd
00000090: 6b07 223c 312d cfba 42b5 d7bd ed4b edbd
000000a0: f626 b9bd c48b 0fbe d74d 29bd 873a 993c
000000b0: e270 0a3d 752e 81ba 41fc ce3c fbfa 403d
000000c0: c6a6 14bd b64d 653d a409 193b 4b5f 343d
000000d0: 5c23 233d 0c1c 653d 8e15 fd3d c52f 35bd
000000e0: d393 27bd 20a8 a43c 0b03 3fbb 3612 1b3d
000000f0: abf6 8e3d 19eb d53c 7032 133d 280f 413d
00000100: bf26 893d dde9 89bd 415b 9c3c 5721 243d
00000110: fed4 b839 8a4c 1aba 1494 8bbb 34f8 153d
00000120: fa69 82bd 0848 2fbe c6f3 1fbd 7148 b1bd
00000130: bd78 6dbd 9651 78bc 6de4 edbd 12f7 e6bd
00000140: 7e42 38bd 7ecb f0bc 7841 883c 5f00 dbbc
00000150: 4344 fd3c 3060 21bd 030d f3bd c5ca 8f3d
00000160: b5a7 553c 3586 e13c 9b6e d3bd c013 55be
00000170: 675d 87bc b2a3 06be 4560 49be 5ee2 cbbd
00000180: ca0c 3bbd 555e b6bd 2060 c2bd 35d9 86bd
00000190: 81f7 d3bd 6833 943d 803f 563d a8de b13d
000001a0: b134 903c 920d 8e3e abd9 c43d 50ce 303e
000001b0: b738 ebbd ea3c 19be 8189 42be 481a 91bd
000001c0: 2a65 a33c e25e 413c 3980 233c 5d6f 293d
000001d0: 8f21 3dbd 6d0b 073e 963f 1abc 1c22 66bc
000001e0: 3c21 263e 5c01 733e 6c63 ea3d c08f 9ebc
000001f0: c13d df3d 7f1f 273e f6cb 1ebe b179 3fbe
00000200: 4b2d 8abe 415f 0ebe 1471 12bd 0a7f acbd
00000210: acd9 60bd 26fb 713d 276d 0d3e 88fc d3bc
00000220: eb01 4e3c 6c2f 33bd 8227 b33d 7e58 8439
00000230: 7903 1a3b 83b1 e33c 24ac 833c a6ce 98bd
00000240: 0e50 32be 98fc 00be 5ff7 6b3d 637a ed3c
00000250: 43b4 bebd 7689 26bd a61c 333e 0edc 223e
00000260: 58db 8dbb 6a67 a3bc e951 c3bd b6a7 aebd
00000270: 9780 8b3d 3322 473d 2666 01bc f0a3 5fbd
00000280: 68da 02be b1e5 a5bc 5264 76bd 8664 93bc
00000290: e48c 85bd dec6 c4bb 0976 193b bec2 e63c
000002a0: 41e5 be3d 6ea5 a43c 0962 3a3d 6b2e 5b3d
000002b0: 1438 2a3e 61f9 1f3e 7454 1f3d 084b 03bc
000002c0: 3bdc 083e 7fed ea3c 563a 233d e39a bb3d
000002d0: 29b1 64bb f6c8 f0bc 3b78 bcbd 7b7b b93c
000002e0: 549b b23d 4cb3 b3bd 3211 953d b62c 583c
000002f0: bdfa 383d b094 bbbd 4ed9 e43c 46ae ef3c
00000300: d8ba 37bc 2a13 373e 6e46 3c3e a198 92bd
00000310: 03fd 243d 8fde 9c3d d790 e4bb bfa1 b9bc
00000320: e844 91bd b674 943c d43a 8a3d d378 4b3d
00000330: a2bb 6cbc c617 73bd 7cff 01ba a517 673d
00000340: 630b ba3d e5ee 0f3d 7f8d 67bd fba7 963c
00000350: 2d0a 873d 0d23 c8bd afc8 19bd 0447 133d
00000360: aee9 133c cc03 223d 6b70 e73d 13bd d53c
00000370: cd95 d53c 40c7 173d e461 d43d 82e3 87bc
00000380: c744 bebb 446d a3bc 9fd0 6e3b 08b7 393d
00000390: 7287 58bd 1cb4 b63d 5037 e53b c6cd debd
000003a0: df53 5bbc 2134 1fbd 4cea e13d 5f8d 203e
000003b0: 237e 583e b855 953b f533 423d 370c 8e3d
000003c0: 780c ad3d 7b20 58bc d022 573d f1eb 223e
000003d0: 1d00 fcbc ecb4 2a3c 54c4 ad3d 7c58 45be
000003e0: 8048 81bd 3e1a aebc 25ff 253c eedf eb3d
000003f0: 39ee 24bd 000c 9fbc 3fc9 ce3d bc15 263d
-0.012750213 0.07016906 0.1263866 0.008203915 0.028270679 0.06461726 -0.017113432 0.07247326
0.057314586 -0.010455186 -0.01876313 0.082587615 0.005463039 0.052734636 0.036236122 -0.07361382
0.054325216 0.0744694 -0.033292275 0.042460345 0.12291157 -0.08123415 0.02927829 0.05663174
0.021047896 -0.1069449 0.0030265104 0.028646626 -0.015146632 -0.11897618 0.06366659 -0.0042634397
0.037704162 -0.057665765 -0.024705356 -0.045513764 0.009889464 -0.0015806315 -0.10532619 -0.11586747
-0.09040634 -0.1401816 -0.041334 0.018704666 0.03379906 -0.0009855764 0.025266768 0.047114354
-0.03629186 0.055982314 0.0023351694 0.04403619 0.039828643 0.05593495 0.12357627 -0.04423501
-0.04091246 0.0200997 -0.00291461 0.037859164 0.06980642 0.02611308 0.035936773 0.047133595
0.06696843 -0.06734059 0.019086482 0.040070858 0.00035253906 -0.0005886039 -0.0042595956 0.036613658
-0.0636787 -0.17117321 -0.03905084 -0.08656395 -0.057976473 -0.01515617 -0.116158344 -0.11277594
-0.044985287 -0.029393908 0.01663278 -0.026733575 0.030916339 -0.039398372 -0.11867716 0.07021097
0.013040473 0.027529815 -0.10323831 -0.20808315 -0.01652403 -0.13148382 -0.1966563 -0.099552855
-0.045666493 -0.08904711 -0.09490991 -0.06584398 -0.10349942 0.072363675 0.052306652 0.086850464
0.01760325 0.27744728 0.09611829 0.17266202 -0.11485427 -0.14964643 -0.18997766 -0.07085091
0.0199457 0.011802407 0.009979301 0.04136597 -0.046174582 0.13187952 -0.009414574 -0.014046218
0.16223615 0.23730987 0.114447445 -0.019355655 0.109004505 0.16320609 -0.15507492 -0.18698765
-0.2698768 -0.13903524 -0.03575237 -0.08422668 -0.054895088 0.059077404 0.1381117 -0.025877252
0.0125736995 -0.043746397 0.0874777 0.00025242934 0.0023500605 0.027794605 0.016073294 -0.0746129
-0.17413351 -0.12596357 0.05760896 0.028989023 -0.09311726 -0.040658437 0.17491397 0.15904257
-0.0043291263 -0.019946773 -0.095371075 -0.08528082 0.06811636 0.0486166 -0.007897889 -0.054599702
-0.12778628 -0.020251127 -0.060154267 -0.01799227 -0.065210134 -0.006005152 0.0023416302 0.028169032
0.093210705 0.020098414 0.04550365 0.053511064 0.16622955 0.15622474 0.0388989 -0.008013494
0.13365261 0.0286777 0.039850555 0.09160402 -0.0034895635 -0.0293927 -0.0920262 0.022641888
0.08721033 -0.087744325 0.0727867 0.013194254 0.045160998 -0.09159219 0.02793565 0.029257905
-0.011213981 0.17878404 0.18386242 -0.07158018 0.040280353 0.07659637 -0.006975274 -0.022660134
-0.07093221 0.018122058 0.06749502 0.049675774 -0.014449032 -0.059348844 -0.00049590296 0.056419034
0.09084203 0.035139937 -0.056531426 0.018390646 0.06593738 -0.097723104 -0.037544902 0.035956398
0.009027882 0.039554402 0.11300739 0.026091134 0.026072407 0.037055254 0.10370234 -0.016587976
-0.0058065387 -0.019949563 0.0036440266 0.045340568 -0.052863546 0.08921072 0.006995119 -0.10879092
-0.013386696 -0.038868073 0.11031017 0.15678929 0.21141867 0.0045573376 0.04741283 0.069359235
0.08449644 -0.013191338 0.052523434 0.15910317 -0.030761773 0.010419112 0.08484712 -0.19272035
-0.063126564 -0.021252748 0.010131632 0.115173206 -0.04026625 -0.019414902 0.100969784 0.04054807

encoder_layers.block_1.conv.bias f4 [40]
00000000: f6b9 f03d 0785 d43d 6ee9 d43c 5b5c 4fbd
00000010: 66d0 5bbc e431 063b 9caf 1a3e 7289 363e
00000020: e23a f23d 35a9 dc3c 84d2 783a 3992 4c3e
00000030: eb0f 963d 3d67 923d 665a a83d 2228 db3d
00000040: 68b5 a63d dbc7 023e fc40 e93b 1a78 933d
00000050: 6743 973d 00a2 c43d 7f61 393e a0ab 883b
00000060: aac8 bb3b 763b 4a3b e4ca 5bbd 5f23 f03c
00000070: 6131 ffbc 6070 9b3d fc52 a53c 4267 05bd
00000080: 6a33 583c 8898 95bd 5e11 48bc cc4a 71bd
00000090: bd7b bebd ee4c 18be 7745 5ebb 34b9 ccbb
0.11754219 0.103769355 0.025990214 -0.050625186 -0.013416385 0.0020476514 0.15106052 0.17825869
0.11827637 0.026936153 0.00094918185 0.19977655 0.07327255 0.071485974 0.08220367 0.10701014
0.08140069 0.12771551 0.0071183424 0.07200642 0.07385903 0.096012115 0.18103598 0.00417085
0.005730708 0.0030858195 -0.05366029 0.029313741 -0.031151475 0.07589793 0.020181172 -0.032569177
0.013195852 -0.07304484 -0.012211172 -0.058909222 -0.09300945 -0.14873096 -0.0033915916 -0.006247664

decoder_layers.block_0.conv.weight f4 [40, 10, 3, 3]
00000000: 782e 2bbc 1afc 02be 3588 73bd 78fb 23be
00000010: a8ee 1bbc cd4c c2bd fe58 ccbd 545e 5fbd
00000020: a1f9 2ebe 4504 99bc ff63 36bc 6559 cebd
00000030: e4ed 603c 38e8 633c 2ab3 fe3d 7af6 883d
00000040: 3bb7 4cbd a228 f13d 0e66 883c 80c7 243d
00000050: f9b6 a23d 67c6 463e 8cd8 273e b2df 2b3d
00000060: c9a1 bb3d 2092 f93d 6dcf 04bb abd2 da3d
00000070: d903 bd3d ef24 04be 8129 543d 29c1 853e
00000080: ebd5 df3d 768a 213d d4f2 853d b6e1 a93c
00000090: 5018 733c 8ca6 29bd a360 9a3a 45cc b8bd
000000a0: 8666 98be d1c5 b6bd 083c 7bbc 776e cbbc
000000b0: 0a7c 76bd 9e44 b23d c8e4 4c3d 9089 73bd
000000c0: 7f7a c43d c662 603e a93e cb3d 2ca6 c8bd
000000d0: 2abc 343d 4d2e 4abd 02d4 cd3d 3559 c5bc
000000e0: e41d 05be 9b41 6bbd 3f88 a9bd a93f bcbc
000000f0: 7dcd cf3c e8ba 173d bd70 903d d0b6 49bd
00000100: 8440 1f3d d69e d73c b7aa 8abd 5c31 93bd
00000110: 3ede 0bbe cbf3 b7bc 8805 33be 98db febd
00000120: dbae d83d c698 c73c 2f4b 373e badc 44bb
00000130: 782f 8dbd 6da7 0bbd d1a0 beba 2772 343b
00000140: 1fce 173d 975c 033e db49 e83d dbfc b23c
00000150: b6ed c43b 2ba7 09bd e2a9 76bc bf40 593d
00000160: a084 0a3e 6d71 b03d 9f5d 803d 384c 83bd
00000170: 78d3 8bbc e71f 793d 9804 c9bd 8c50 9dbd
00000180: 7fa7 403d 67f6 c43c dfe5 a53d 5cde b8bd
00000190: 487e 7b3d 818e 90bd 160f 8cbb 7f74 da3d
000001a0: fa6d c2bd 8e88 1bbc 8af6 8b3c 5b48 3dbd
000001b0: fddd cfbd 2660 913d e30a ac3d 8169 6dbc
000001c0: d9c6 723d 7984 213e 6f86 8c3c 0738 273b
000001d0: 687b d63c ffaa 023c 1916 fc3c b499 923c
000001e0: 784a 19be eea2 3a3b 47cc e23d 8930 963d
000001f0: e367 e93c 02ed d53b b19c 5abd 675f 1dbe
00000200: d4ec f7bc 6a93 103d 8646 f7bd 2766 cebb
00000210: 18c2 323d 66b1 a4bd 44e8 9fbd 906e 30bd
00000220: 6cbc ea3d 1b8a 01bd 6346 2bbd 4c39 d73c
00000230: 8003 143d 5b16 393d 85ee 59bd 4998 a23d
00000240: 98d6 a83d c46f 873d 2720 733d 5b54 9c3d
00000250: 9c90 3b3e c6fc c53d c120 773d af5d 043d
00000260: 25aa 893d 1314 b8bd f344 97bd 5862 72bd
00000270: d479 b2bd ac0d 17be ec55 ecbd 08cb 673c
00000280: 424a 79bd f6ca 6ab9 e0b2 a23c 2a06 84bd
00000290: 63a3 113d 6067 2cbe 218d 0ebd 2362 b93d
000002a0: 5841 fa3c 2a4b cd3c 08de 313d 8dec 69bd
000002b0: c3e3 3c3d 4a0f 5abe 858e b5bc 9aa7 8e3d
000002c0: b857 05be e181 133e 5bee 1fbb 29d0 53bd
000002d0: ce84 1ebe 6060 b83b cffd 0bbe c8c6 0dbe
000002e0: 8a2e 49bd 8368 9abd 96a3 5ebd 021b bebd
000002f0: 5b63 2dbe 1614 c93d b4cc d43d 032a 5c3b
00000300: 656b e13d 18fa f13d bbf5 843e 46b2 403d
00000310: 5d28 f33d f26c 403e ac50 7fbd da38 98bc
00000320: 3804 623d 4ff2 063d 0988 313d bd7b 4a3d
00000330: 28a2 243c cab9 38bd b323 4f3d 4971 f13c
00000340: e143 893d 8092 5fbd a246 7b3d 882e bf3b
00000350: e010 0d3d a757 c13c 6b3a e43c ab93 3cbd
00000360: e779 02be e214 e2bc 26d7 4a3d 1e0a c1bd
00000370: f710 1bbd b9ab 5a3d 8512 98bd 0614 19bb
00000380: f513 edbb 65dc 4fbd bb07 0c3c 9b2c ca3d
00000390: 5b70 cb3d 38e4 6c3d 27eb db3d 8249 2fbc
000003a0: 6009 223d 684f 623d 74bc 5a3d 2017 11bd
000003b0: 1698 1a3d 3878 d43d ad15 723d 4f57 6dbd
000003c0: eb42 bb3d e362 a13d d6c0 ee3d 0c83 513c
000003d0: b810 69bc dcdf 95bc 3c45 693d 903b 08bd
000003e0: 07ba 623d 67ba 99bd 3e0d 923b 1cff d6bd
000003f0: c4a2 003d 09ca 5abd d058 413e ad6f 983d
-0.010448091 -0.12791482 -0.05945607 -0.16013896 -0.009517349 -0.09487305 -0.099779114 -0.054533318
-0.17087413 -0.018678794 -0.011132239 -0.100756444 0.013728593 0.013910346 0.124365166 0.06687637
-0.04997943 0.11775328 0.016650226 0.04022932 0.079450555 0.19411622 0.163912 0.04196138
0.091617174 0.12186074 -0.0020265237 0.10684713 0.092292495 -0.12904714 0.051797394 0.26123932
0.109294735 0.039438687 0.065404564 0.02073751 0.0148373395 -0.041418597 0.0011778068 -0.09023336
-0.2976572 -0.08924449 -0.015334137 -0.024832947 -0.060176887 0.08704494 0.05002287 -0.05945736
0.09593677 0.21912679 0.09924061 -0.0979732 0.04412476 -0.049360562 0.10050203 -0.024090389
-0.12999684 -0.057435613 -0.0827794 -0.022979574 0.02536654 0.037043482 0.07052753 -0.04924661
0.038879886 0.026320856 -0.067708425 -0.07187149 -0.13658997 -0.022455117 -0.17482579 -0.12444228
0.10580226 0.02436484 0.17899774 -0.003003879 -0.068938196 -0.034095217 -0.0014543777 0.002753386
0.037061807 0.12828289 0.11342212 0.021849087 0.0060097827 -0.03360669 -0.015055152 0.053040262
0.13527155 0.08615384 0.06267857 -0.06411022 -0.01706861 0.06082144 -0.09815329 -0.07681379
0.047034737 0.024043275 0.08100485 -0.09026787 0.061399728 -0.070584305 -0.0042742593 0.10666751
-0.094936326 -0.009493006 0.017085332 -0.04621158 -0.10149763 0.07098417 0.08400514 -0.014490486
0.059271667 0.1577319 0.017153947 0.0025515573 0.026181892 0.007975339 0.030772256 0.017895557
-0.14969814 0.0028478461 0.11074119 0.07333476 0.02849192 0.0065284977 -0.05337209 -0.15368424
-0.030264296 0.035296835 -0.12073998 -0.0062987986 0.043642133 -0.080416486 -0.07807973 -0.04307419
0.1146172 -0.03162585 -0.041815173 0.026272438 0.03613615 0.045187335 -0.053205986 0.07939202
0.082440555 0.066131145 0.059356835 0.07633277 0.18316883 0.09667353 0.06033397 0.032315906
0.067219056 -0.08988204 -0.07386198 -0.05917582 -0.08714643 -0.14751309 -0.11539826 0.0141475275
-0.060861833 -0.00022391588 0.019860685 -0.06446488 0.03555621 -0.1683631 -0.03480256 0.09051921
0.030548736 0.025060255 0.043424636 -0.057110358 0.046115648 -0.21294895 -0.022162685 0.06965561
-0.13021743 0.14405014 -0.0024403546 -0.05171219 -0.15480348 0.005626723 -0.13671039 -0.1384536
-0.04911665 -0.07539465 -0.054355226 -0.09282495 -0.16932432 0.09818284 0.103906065 0.0033594377
0.11006812 0.1181528 0.25968727 0.047045015 0.11872933 0.1879156 -0.062332794 -0.018581796
0.055179805 0.032945927 0.043342624 0.049434412 0.010048427 -0.045099057 0.050571155 0.029472964
0.067024 -0.054583073 0.061346658 0.0058344044 0.03443992 0.023601366 0.027859887 -0.046039265
-0.12741815 -0.027597848 0.049521588 -0.09425758 -0.037857976 0.053386424 -0.07425407 -0.0023357882
-0.007235045 -0.050747294 0.008546765 0.09871789 0.099335395 0.057834834 0.10738211 -0.010698678
0.039559722 0.05525151 0.05340238 -0.035422444 0.037742697 0.103744924 0.059102703 -0.057944592
0.09143623 0.07880189 0.11657874 0.012787592 -0.0142251775 -0.018295221 0.056950793 -0.03325993
0.05535319 -0.075062566 0.004457145 -0.10497877 0.031405225 -0.053415332 0.18881536 0.074431755

decoder_layers.block_0.conv.bias f4 [40]
00000000: 809b 48ba 79cd f73c 2375 71bc e4bb b73e
00000010: 5f47 a5bc 9d3a 6b3d d7bd 8b3a 1038 e93c
00000020: 58d8 0e3d fbb5 9a3d bcc0 ccbc a0ba 2e3e
00000030: ac72 31bd 117a f03d 3123 ab3c ae66 11bd
00000040: 1083 2d3e c3fd 063c 4d5f 323e dd70 aa3d
00000050: b94d 193d 1004 bf3d 23ec 223d f1ae 903b
00000060: 4878 bd3d 12d7 d33d a36b bd3d bd95 e3bc
00000070: f33c 033e 1131 d53d 9774 c23d c287 cd3d
00000080: 6f36 49bc 6d69 413e b14b 3b3c e452 f5bb
00000090: 9473 553d 1b64 e0bd 78cc cabd 62b7 5abe
-0.0007652566 0.030249344 -0.0147374 0.35885537 -0.020175634 0.057428945 0.0010661435 0.028469115
0.03487429 0.07554241 -0.024994247 0.1706338 -0.04332225 0.11742032 0.020890804 -0.035498314
0.16944528 0.008239212 0.17419167 0.08322308 0.037427638 0.09326947 0.03977598 0.004415386
0.092514575 0.10343756 0.09249046 -0.027781362 0.12816219 0.10409749 0.09494894 0.100356594
-0.012281044 0.18887873 0.01143162 -0.007486688 0.052112177 -0.109565936 -0.099022806 -0.21359017

decoder_layers.block_1.conv.weight f4 [40, 20, 3, 3]
00000000: 5a1a d63c 5c3f bdbd f808 6dbd 41d6 d93c
00000010: c3f9 21bd 66a0 f03c 5e07 1dbb febc 1cbd
00000020: dea5 cf3c fda1 2c3d 78be ac3d f1d1 163d
00000030: b235 193d e1e5 b33d d8d8 bd3d 7751 c03d
00000040: 786c e03d f51a 0f3e 0c20 98bc 44c8 0e3b
00000050: c635 2e3d 7f96 943c 717d 66bd 6424 9e3b
00000060: 3617 253d 7636 a6bc 3c6f 5dbc bba8 4bbc
00000070: f975 61bd 990e 1e3b 9c21 0c3c d10d a1bb
00000080: bf1b 203d d3f2 d539 943e 68bd 331c f23c
00000090: 3736 6e3d 141c 10bc e932 eabd 3178 4bbd
000000a0: 7e4d 6dbd fd82 2abb c32a f2bc e5ba d9bd
000000b0: 0dcb 70bd 4471 9cbc 9b24 5dbd 2d75 b93c
000000c0: 4b33 92bb 90a0 1c3d 2419 75bd 6911 2a3e
000000d0: b180 123c 81ef bd3c 204a a2bc 47f9 293d
000000e0: 0b6d 14bd 859f aabc 4363 623d 2e45 a53d
000000f0: 6dcd ac3c c5f8 493d 0a72 493d f6e5 1abd
00000100: 7a9c 3d3c 6cd1 843d 6020 8dbd af2e d83c
00000110: 8cd6 203c b16c a33d d583 483c bf97 90bd
00000120: 8837 733d e49d 88bd 65f9 54bc 3591 b9bc
00000130: ce50 eebd 813c 193d 66e4 b8bd 4a0e 0bbe
00000140: 5b96 a5bc caf2 053e 8a48 4a3c 22b7 4ebd
00000150: 299f 0c3d dcec 933d 808d 0fbd fcfe 0a3d
00000160: 3e54 053e 77bf d03d ed1a 38be 8c0c 36be
00000170: b1d1 58be b485 4ebe 0e3e 03be 1e37 7dbe
00000180: 7fb1 2fbe 552c 39be bb94 90be 3643 28bd
00000190: f532 2ebd 0fc6 13bd b571 e4bc ed47 63bd
000001a0: d9fc 87bd 574a 9cbd 4074 93bd 5699 c1bd
000001b0: b451 62bd 19c4 59bc 63eb 003e d527 0dbd
000001c0: d779 bcbd 7c08 9a3c 6316 03bd 2e81 abbc
000001d0: d999 983d 89d0 63bc ec8e 0e3e 6dcf 9b3d
000001e0: 1b3e 5b3e b0bc 863d 8567 083c 1720 1f3e
000001f0: 0cbc 9b3d 3250 10bd ba0e e8bc 6c16 48bc
00000200: a6ce 2fb9 81aa 8bbc 1309 8fbd 9ae7 acbc
00000210: 29f3 043c b052 c93c 7c9d 3c3d 533e 57bd
00000220: d772 75bd 6926 f6bd 5e73 37bd 60e0 4fbd
00000230: 5a0a e6bd 88cb 67bd 0637 27bd 4685 613c
00000240: 7b37 203d 2dbf d4bd 5f78 46bd 639b 21bd
00000250: ec5d 37be 4c9b 66be 3f27 c9bd 0155 a2bd
00000260: e23f 4bbd f8cb 993d 3c61 1f3d a6b2 de3d
00000270: 8699 a5bc 640b bb3b 9420 8e3d b395 e93d
00000280: ab15 113e 8a08 bf3d 5f36 16be e580 b63c
00000290: 8df8 af3d 0160 2a3c 0266 c43e 5aab c2bc
000002a0: 46ee afbc eb77 fc3d fd5f 66be d4d4 8e3d
000002b0: 20e0 8b3b 2549 8a3c 5e08 35bc ced6 9cbd
000002c0: a074 133d 304e 003d 0bf8 44bc 3181 a53c
000002d0: 96ae bdbd 331a dcbc eea7 813d b01c 08bc
000002e0: 9740 d23d be05 46bc abe4 d33c e6d7 333c
000002f0: 2233 8cbc 5c2a 6abd efc3 2bbc 088b cd3c
00000300: c754 9cbb 5c68 b33d b5b9 403e b7e4 4cbd
00000310: d7b8 aa3d e6b3 203e fd4f bf3d 4d85 b93d
00000320: 786a 96bc 423d 9d3d 343d 813c eba7 64bc
00000330: 788b 783d f110 053c 9a7e 5e3d d230 353b
00000340: 42cf 04bc ed7e 39bc a945 24bd ee24 5cbc
00000350: 79ae 7a3d c955 54bc 8c65 78bc 938c 6e3d
00000360: d2bc a1bd 7358 b7bc 51f8 d2bd a9d4 84bd
00000370: eae2 623b 7227 21bb edff 97bc 0765 b5ba
00000380: 51c5 a5bb fb27 283d 16f2 d73c 15ba 033e
00000390: e9fb 9ebc b610 a73c 42a8 4e3d 3b55 043e
000003a0: 6543 a73c d74c 943d af10 68bc 6bdc c2ba
000003b0: e267 62bd 4a64 19bd 458d 8dbc 7cf5 af3b
000003c0: b1c0 583a 9d6c 31bd 8a52 963d e559 173c
000003d0: e480 dd3c eeae 213c 6cbc efbc a580 7abc
000003e0: daf0 b7bd 8338 eebb e0b0 11bd 4bca 07bd
000003f0: bec9 f03b 8168 91bd c5a7 bdbd 86c6 1b3e
0.026135612 -0.092406005 -0.05786988 0.026591422 -0.039544832 0.029373359 -0.002396069 -0.038266174
0.025347646 0.04214667 0.084347665 0.03682131 0.037404723 0.0878408 0.09269875 0.09390538
0.10958189 0.13975127 -0.018569969 0.0021786848 0.04253175 0.018138168 -0.056271974 0.0048261154
0.04030534 -0.02028964 -0.01351529 -0.012430365 -0.055044148 0.0024117588 0.008552935 -0.004914977
0.03908896 0.00040807444 -0.056700304 0.029554462 0.058157172 -0.008795757 -0.114354916 -0.04967517
-0.05793523 -0.0026018017 -0.029561406 -0.106313504 -0.058787394 -0.019096978 -0.053989988 0.022638882
-0.004461681 0.03823906 -0.05983843 0.16608204 0.008941815 0.023185493 -0.019810736 0.041497495
-0.036236804 -0.020828018 0.055270445 0.080698356 0.021094048 0.04930951 0.04918102 -0.037816964
0.011572951 0.064852566 -0.06890941 0.026389448 0.009816777 0.079797156 0.012238462 -0.07060193
0.05937913 -0.0667074 -0.012998913 -0.022652248 -0.11636506 0.037411217 -0.090279385 -0.1357967
-0.020213297 0.13080898 0.012346396 -0.050467618 0.034331474 0.07222912 -0.035047054 0.03393458
0.13020417 0.10192769 -0.17979021 -0.17778224 -0.21173741 -0.20168191 -0.1281664 -0.24728057
-0.17157553 -0.18083318 -0.28238472 -0.041079722 -0.042529065 -0.036077555 -0.027886251 -0.055488516
-0.06640024 -0.07631367 -0.07199907 -0.09453075 -0.0552537 -0.013291382 0.12589793 -0.034461815
-0.092029266 0.018802874 -0.03200377 -0.020935621 0.07451219 -0.013904699 0.13921708 0.07607923
0.2141041 0.06578958 0.008325462 0.15539585 0.076042265 -0.03523273 -0.028327335 -0.012212377
-0.00016766283 -0.017049076 -0.06984153 -0.02110653 0.0081146145 0.024575561 0.046048626 -0.05254967
-0.059923973 -0.12019045 -0.044787757 -0.05075109 -0.11232443 -0.056590587 -0.04082396 0.013764685
0.03911541 -0.103880264 -0.04845464 -0.03945483 -0.17906922 -0.22520179 -0.09821939 -0.079263695
-0.04962147 0.07509607 0.03891109 0.10873918 -0.020214807 0.005708145 0.069398075 0.11405506
0.14168422 0.093278006 -0.14669178 0.022278259 0.08592329 0.010398866 0.38359076 -0.023763347
-0.021475922 0.1232756 -0.22497554 0.069741875 0.004268661 0.016880581 -0.011049358 -0.07658158
0.035999894 0.031324565 -0.012022029 0.020203205 -0.09261815 -0.026867962 0.06330858 -0.008307621
0.10266226 -0.01208633 0.025865873 0.010976767 -0.017114226 -0.057169303 -0.010483726 0.02509071
-0.0047708484 0.08760139 0.18820842 -0.050022807 0.08336037 0.15693626 0.093414284 0.09058628
-0.018361315 0.076776996 0.015776254 -0.01395605 0.060679883 0.008121715 0.054319955 0.0027647507
-0.008106055 -0.011321765 -0.040105496 -0.013436539 0.061201546 -0.012959906 -0.015160929 0.05823953
-0.07897343 -0.022381043 -0.10301269 -0.06485874 0.0034620115 -0.0024590162 -0.018554652 -0.0013839313
-0.0050589223 0.041053753 0.026360553 0.12863953 -0.01940723 0.02039371 0.050453432 0.12923138
0.020417878 0.072412185 -0.014164134 -0.0014866715 -0.05527485 -0.03744916 -0.017279277 0.00536984
0.00082684594 -0.043316472 0.07339962 0.009237741 0.027038999 0.009868367 -0.029264651 -0.01528946
-0.08981486 -0.0072699203 -0.03556907 -0.033151906 0.0073482683 -0.07100011 -0.09260515 0.1521245

decoder_layers.block_1.conv.bias f4 [40]
00000000: 9de2 b93d 42e4 8e3d a00c 233e b36f a2bc
00000010: ebfa f73d ad07 2a3d 424a 593e c99e a53d
00000020: 1a8f 453d bc30 933d 258d a03d a8d2 463d
00000030: be97 fc3d a636 f63d d8be ef3d 53c8 9f3d
00000040: fff8 0c3e 0dfc f43d 5e6c dc3d 6bb5 a13c
00000050: fa5e 133e 42c6 47bb a315 f93d ca8e 973d
00000060: 65f8 0f3e a823 ac3d ae65 863e 4812 d33d
00000070: 2444 343e e043 c83d 77ae c6bd c75d 723d
00000080: f915 30be af8f 683a 8b1c 67be 3d95 c6bd
00000090: 7de5 bbbd 1968 b9bd d602 d73c a5f0 8b3d
0.09076426 0.069771305 0.15922785 -0.019828653 0.12108406 0.041511226 0.21219733 0.080869265
0.048232175 0.0718703 0.07839421 0.04854074 0.1233363 0.12022142 0.117063224 0.07801881
0.1376686 0.11962137 0.10762857 0.019739827 0.143917 -0.003048316 0.1216233 0.07400282
0.14059599 0.084052384 0.2624945 0.10306221 0.17604119 0.09778571 -0.09701245 0.059171464
-0.17195882 0.0008871508 -0.22569482 -0.09696434 -0.09174631 -0.09053058 0.02624647 0.06833009

read.weight f4 [1, 10, 1, 1]
00000000: 8b8b 7b3d 03d8 cf3d 34cc 463e 3474 3cbe
00000010: d980 ee3d 7f5b 333e 5f8f 953e 4f58 643e
00000020: 6271 a5bd 84f6 08be
0.061412375 0.10148623 0.19413835 -0.18403703 0.116456695 0.17515372 0.29210946 0.22299312
-0.08078267 -0.13375288
