trainedModels/wave/horizon-20-40/lateral/1/1/run4/model.pt (torch, 27433 bytes, 19 tensors)

init.weight f4 [8, 1, 1, 1]
0	0xbece30e7	-0.40271685
1	0x3ee3fde9	0.44529656
2	0x3f4ac99e	0.79213893
3	0x3bfcaefa	0.0077112885
4	0xbf1168fc	-0.5680082
5	0x3e1fa5cc	0.1559059
6	0xbf14d3f9	-0.58135945
7	0x3f335a85	0.70059997

init.bias f4 [8]
0	0x3ddbbea9	0.10729725
1	0xbe01ae65	-0.12664182
2	0xbe068565	-0.13136823
3	0x3e7b74aa	0.24556223
4	0x3e156202	0.14588168
5	0xbe7d8742	-0.24758628
6	0xbef919d7	-0.48652527
7	0xbec8373a	-0.39104635

encoder_layers.block_0.transition.weight f4 [8, 16, 3, 3]
0	0xbd1b2c71	-0.03788418
1	0x3e1e1ddc	0.15441078
2	0xbb94c293	-0.0045397966
3	0x3dcd17fa	0.10014339
4	0xbe903692	-0.28166634
5	0x3de30d7e	0.11086558
6	0x3c29845d	0.010346499
7	0x3db3e48b	0.087838255
8	0x3c9c4735	0.019076923
9	0xbca759d3	-0.020428574
10	0xbdc3203a	-0.09527631
11	0xbd069894	-0.032860354
12	0xbde7913d	-0.11306999
13	0x3e86f340	0.2635746
14	0xbdf8c097	-0.121461086
15	0xbd2e82e2	-0.04260529
16	0xbdf15217	-0.117832355
17	0x3c3b456e	0.011430128
18	0x3d97465f	0.07386469
19	0xbd293435	-0.041309554
20	0x3d13ed82	0.036115177
21	0xbd9d8257	-0.07690876
22	0x3edc39c7	0.4301283
23	0xbdc3325e	-0.09531091
24	0x3d5e159f	0.05421984
25	0x3cbf7fa8	0.0233763
26	0x3c039925	0.008032118
27	0x3d90218e	0.0703765
28	0x3e18a0d5	0.14905103
29	0x3df475aa	0.11936505
30	0x3d1ea60a	0.038732566
31	0x3de4921c	0.11160681
32	0x3da669f8	0.08125681
33	0xba9e35ff	-0.0012070535
34	0x3e01b10b	0.12665193
35	0x3ded0902	0.11573984
36	0x3b95a89b	0.0045672185
37	0x3ded595e	0.11589311
38	0xbc7ac070	-0.01530467
39	0x3d543084	0.05180408
40	0xbe92c3ab	-0.28664908
41	0x3e02159f	0.1270356
42	0x3c0b6588	0.008508094
43	0x3d6b48ff	0.05744266
44	0xbc91e4be	-0.017809268
45	0xbd21e774	-0.03952737
46	0xbe427620	-0.18990374
47	0xbda3c95c	-0.07997391
48	0xbdd3349f	-0.10312771
49	0xbd2769eb	-0.040872496
50	0xbe1c78e7	-0.15280496
51	0xbccaf584	-0.024775274
52	0xbd63ade2	-0.05558575
53	0xbdad43c1	-0.08460189
54	0xbdbaf4fb	-0.091287576
55	0xbdac2cde	-0.08406995
56	0xbe0b1ec1	-0.1358595
57	0xbda2f08d	-0.07956038
58	0xbeb53cd3	-0.35397968
59	0xbd9a298a	-0.07527454
60	0xbd21ec56	-0.03953203
61	0xbd4456da	-0.04793439
62	0xbddc0385	-0.10742859
63	0xbc675b40	-0.014120877
64	0xbe32cf6c	-0.17461938
65	0xbc8d6bcf	-0.017263321
66	0xbd272c3f	-0.04081368
67	0x3e252658	0.16127908
68	0xbdba31f4	-0.09091559
69	0xbd6d3d89	-0.057920013
70	0xbdf64b7b	-0.120261155
71	0x3c801cd3	0.015638744
72	0xbde9ba9f	-0.11412548
73	0xbd8da4e9	-0.0691622
74	0xbdb07c71	-0.08617485
75	0xbdc7e95f	-0.09761309
76	0xbc449029	-0.011997261
77	0xbd7929b4	-0.060830787
78	0xbe235a08	-0.15952313
79	0xbdc481fa	-0.095951036
80	0xbe02a8dd	-0.12759729
81	0xbd3e0537	-0.046391692
82	0x3abea006	0.001454354
83	0xbe30651a	-0.17226067
84	0x3d6239a7	0.055230763
85	0x3e3bf374	0.18354589
86	0x3d494a9e	0.049143426
87	0xbd627ba7	-0.055293705
88	0x3d198d67	0.037488367
89	0xbddd5e02	-0.10808946
90	0x3e13b2e5	0.14423712
91	0x3e92b39b	0.28652653
92	0x3e5d20aa	0.21594492
93	0x3e3bca7c	0.1833896
94	0x3e8a2cf7	0.2698743
95	0x3e75f6bd	0.24019904
96	0x3e84a7eb	0.2590936
97	0x3e8d7213	0.27626094
98	0x3e7b126e	0.24518749
99	0x3e06fc86	0.13182268
100	0x3da9d97d	0.08293436
101	0x3dc0122a	0.093784645
102	0x3d202542	0.03909803
103	0x3cdcb146	0.02694
104	0x3dcc193b	0.0996575
105	0x3d7ede7e	0.062223904
106	0x3d5d0881	0.053963188
107	0x3d9fc9a3	0.07802131
108	0xbdd87f8a	-0.10571201
109	0xbe5cde50	-0.2156918
110	0xbe25eb78	-0.16203105
111	0xbe34e9c4	-0.176673
112	0xbe0cf08e	-0.1376364
113	0xbe45c534	-0.19313508
114	0xbe401c00	-0.18760681
115	0xbdb951d3	-0.0904881
116	0xbdc0bd34	-0.09411088
117	0xbd86b388	-0.065772116
118	0xbd8b1362	-0.06790806
119	0xbd08c887	-0.033394363
120	0xbd48ae1e	-0.048994176
121	0xbc50f7a2	-0.012754353
122	0xbd8d6685	-0.0690432
123	0xbd823b53	-0.063589714
124	0xbd899d29	-0.06719429
125	0xbd2a3eec	-0.041563913
126	0x3e318da1	0.17339183
127	0x3d6ed177	0.05830523
128	0x3e934dd1	0.28770307
129	0x3db1ee76	0.08688061
130	0x3b195b72	0.0023400453
131	0x3d77e071	0.06051678
132	0x3e395400	0.1809845
133	0x3dcf7e84	0.10131553
134	0x3e2e61cf	0.17029499
135	0xbc89a4a8	-0.016802147
136	0x3bc13df9	0.0058972803
137	0xbd9f3286	-0.077733085
138	0xbdd32a0d	-0.10310755
139	0x3c8241a8	0.015900448
140	0xbd0d6ecc	-0.034529492
141	0xbded66db	-0.11591884
142	0xbd4158b3	-0.04720373
143	0xbd8a501b	-0.0675356
144	0x3c63431b	0.01387098
145	0x3cd2e64c	0.02574458
146	0x3d2fe639	0.042944167
147	0x3d2f096e	0.042733602
148	0xbe8e82d3	-0.27834186
149	0xbcbe885a	-0.023258377
150	0x3c2a4fef	0.010395034
151	0x3c01b301	0.007916213
152	0x3d3417c7	0.04396799
153	0xbd4f39bb	-0.050592165
154	0xbc076590	-0.0082639605
155	0xbd517317	-0.05113515
156	0xbabb58ca	-0.0014293429
157	0x3e8089ac	0.25105035
158	0xbbdb3a0d	-0.00669027
159	0xbd8fc611	-0.070202
160	0x3af29144	0.0018506427
161	0xbd1ac23f	-0.037782904
162	0x3b51b3b7	0.0031997988
163	0x3d9419f0	0.0723151
164	0xbda8be53	-0.082394265
165	0x3d5fad65	0.05460872
166	0x3e93f946	0.28901118
167	0x3d4cfc79	0.050045464
168	0xbd53cb44	-0.05170752
169	0x3d4f6410	0.050632536
170	0xbd91d40c	-0.07120523
171	0xbd0e8f77	-0.034804787
172	0x3de2b126	0.11068945
173	0x3bfe5081	0.0077610617
174	0x3df60319	0.120123096
175	0x3e1d12c2	0.15339187
176	0x3e0335f1	0.12813546
177	0x3d85aa92	0.06526674
178	0x3daf6842	0.085648075
179	0xbc50ae81	-0.0127369175
180	0x3cc08491	0.023500713
181	0xbd3c1dc1	-0.045926813
182	0x3d56f03e	0.052475207
183	0x3c3497c7	0.011022515
184	0xbe989917	-0.29804298
185	0xbd58d0f8	-0.052933663
186	0x3d6e2049	0.05813626
187	0x3ce3c561	0.027804079
188	0x3bf9ecd4	0.007627109
189	0xbd9764ac	-0.073922485
190	0xbd9a54c4	-0.07535699
191	0xbc313327	-0.010815418
192	0xbd9b8aa6	-0.075948045
193	0xbd7d95cf	-0.061910447
194	0xbdd4cf3c	-0.10391089
195	0xbc9b7103	-0.018974787
196	0xbddb961f	-0.10721993
197	0xbc554730	-0.013017461
198	0x3cccff61	0.025024118
199	0xbd9d716d	-0.0768765
200	0x3b87b695	0.0041416385
201	0xbd24bed7	-0.04022106
202	0xbe896858	-0.2683742
203	0xbdf0c0ef	-0.11755549
204	0xbd4f7528	-0.05064884
205	0xbd8aa043	-0.06768849
206	0xbd1a8291	-0.037722174
207	0xbdb08f84	-0.086211234
208	0xbc514777	-0.012773386
209	0xbd3481c4	-0.044069067
210	0xbd877a6d	-0.06615148
211	0x3e93350c	0.2875141
212	0xbc7980e4	-0.015228484
213	0xbcbdbaa3	-0.023160284
214	0xbd0af871	-0.03392834
215	0xbd6e2535	-0.058140952
216	0xbd0d33cc	-0.034473225
217	0xbd64174e	-0.055686288
218	0xbd4ce440	-0.050022364
219	0xbccfe6cc	-0.025378607
220	0xbcad1b4e	-0.021131184
221	0x3d481f4f	0.048857983
222	0x3d2ab235	0.041673858
223	0x3d4ecc3b	0.050487738
224	0xbd32827d	-0.043581475
225	0xbd1ea98b	-0.038735908
226	0x3d29af5b	0.041426998
227	0xbd82f079	-0.06393523
228	0x3c030b91	0.007998363
229	0x3d590798	0.052985758
230	0xbcd803c1	-0.026368978
231	0xbde2c6bb	-0.11073061
232	0x3d678fab	0.056533497
233	0xbd310098	-0.043213457
234	0xbc055b0e	-0.008139385
235	0x3e153397	0.14570461
236	0x3caf98ab	0.021435102
237	0x3d3ec13e	0.04657101
238	0x3e1c1da3	0.1524568
239	0x3dc1a3a9	0.09455044
240	0x3d697fb1	0.05700654
241	0xbd451941	-0.048119787
242	0xbdf277d5	-0.118392624
243	0x3c23d482	0.009999396
244	0x3dfc06e7	0.12306004
245	0x3db8fc91	0.09032548
246	0x3dc95c4c	0.09832057
247	0x3e5bdfcb	0.21472089
248	0x3dd0b072	0.10189904
249	0x3d01ae5b	0.03166042
250	0x3ddc44c9	0.10755307
251	0x3d26f3a2	0.04075969
252	0x3df49f91	0.119444974
253	0x3d73f85f	0.059563037
254	0x3d65d8c4	0.056114927
255	0x3b103d01	0.0022009017

encoder_layers.block_0.transition.bias f4 [8]
0	0x3de0f38d	0.109839536
1	0x3e1ffef7	0.15624605
2	0x3d116e5f	0.03550565
3	0xbe12301e	-0.14276168
4	0x3d13e83e	0.036110155
5	0xbceb9857	-0.028759165
6	0x3d910781	0.070815094
7	0x3da8568f	0.08219635

encoder_layers.block_0.conv.weight f4 [32, 8, 1, 1]
0	0xbccf0aa1	-0.025273623
1	0xbe481f94	-0.19543296
2	0x3d93da1b	0.07219335
3	0x3d1f33e0	0.03886783
4	0x3e3abb9e	0.18235633
5	0x3e34d0f8	0.1765784
6	0xbe077308	-0.13227475
7	0xbd0115ad	-0.031514812
8	0xbe3daaa7	-0.1852213
9	0xbe06a90e	-0.13150427
10	0x3d763d21	0.06011689
11	0xbe499a18	-0.19687688
12	0xbbcbed3e	-0.00622335
13	0x3ed8381e	0.42230314
14	0xbecdfad8	-0.4023044
15	0x3e75ca89	0.24003042
16	0x3c4dcbee	0.012560828
17	0xbe14540d	-0.14485188
18	0x3ed41900	0.41425323
19	0xbd7e8fe1	-0.062148932
20	0xbef596da	-0.47966653
21	0xbc89e8ec	-0.016834699
22	0x3efda3e6	0.49539107
23	0x3e8115c5	0.2521192
24	0xbdba6a98	-0.091023624
25	0xbe187e74	-0.14891988
26	0x3e22a588	0.15883458
27	0x3d807e8b	0.06274136
28	0x3dcce623	0.100048326
29	0x3e3fe660	0.18740225
30	0x3dd6867e	0.10474871
31	0xbc4dd08e	-0.01256193
32	0x3dd6a7b7	0.10481208
33	0xbe000f20	-0.1250577
34	0x3e0e46a1	0.1389413
35	0xbd9f4ab2	-0.07777919
36	0xbdc91838	-0.098190725
37	0x3e6623f9	0.2247466
38	0x3e918601	0.2842255
39	0x3eda792f	0.4267058
40	0xbe8ed51e	-0.2789697
41	0x3df6fb2b	0.12059625
42	0x3e25c7d5	0.16189511
43	0xbe1d618a	-0.1536924
44	0xbe157a37	-0.14597403
45	0x3e643e21	0.22289325
46	0x3e5c9460	0.21540976
47	0x3dda6867	0.106644444
48	0x3ea70108	0.32617974
49	0x3c9e536c	0.019326888
50	0x3eaaa10a	0.33325988
51	0x3dccbce7	0.09996968
52	0x3caa5328	0.020791605
53	0xbcd7d6a0	-0.026347458
54	0x3dc04636	0.09388392
55	0x3e1d6d17	0.15373646
56	0xbeafe233	-0.34352264
57	0xbd8e418e	-0.06946097
58	0xbca32546	-0.019915234
59	0x3def1339	0.11673588
60	0xbbcbd185	-0.006220045
61	0x3e15e173	0.14636783
62	0x3dfcb069	0.12338335
63	0x3cee07a5	0.02905638
64	0x3ecfd559	0.4059246
65	0x3f0769ee	0.5289601
66	0x3d92365e	0.07139276
67	0xbe04a471	-0.12953354
68	0x3adc670e	0.0016815381
69	0xbdbd3b03	-0.09239771
70	0x3d9f5040	0.07778978
71	0xbe4a0d72	-0.19731691
72	0x3e778064	0.24170071
73	0x3e53670d	0.2064478
74	0x3de773e9	0.11301405
75	0xbd5c009f	-0.05371153
76	0x3cd70cf8	0.026251301
77	0x3d1aecc9	0.037823472
78	0xbe44322c	-0.19159764
79	0x3d887ebf	0.066648
80	0x3e59e97d	0.21280475
81	0xbdfc2384	-0.123114616
82	0x3e435525	0.19075449
83	0x3e8876da	0.26653177
84	0xbc909711	-0.01765016
85	0xbdbe11f1	-0.09280766
86	0xbd9162c9	-0.0709892
87	0xbd3f5728	-0.046713978
88	0xbf1e62ac	-0.6186931
89	0xbea634af	-0.3246207
90	0x3c9def0c	0.019279025
91	0xbe01013a	-0.12598124
92	0xbead50dd	-0.33850756
93	0xbe0a7204	-0.13520056
94	0xbef5b2e9	-0.4798806
95	0x3e0a4a9d	0.13505025
96	0xbe02e056	-0.1278089
97	0xbe9335b8	-0.28751922
98	0x3c8d128a	0.017220754
99	0x3e15265a	0.14565411
100	0x3dcad1ba	0.099032834
101	0x3e35f9ae	0.17771026
102	0x3df74961	0.12074543
103	0xbe1cbc7f	-0.1530628
104	0x3ea49b79	0.32149866
105	0xbd362b68	-0.04447499
106	0xbd7a2d2d	-0.06107824
107	0xbe07f627	-0.13277493
108	0x3d875df0	0.06609714
109	0x3dd2493d	0.10267875
110	0xbe24ef78	-0.16106975
111	0x3eb65121	0.3560877
112	0xbe2df4b2	-0.16987875
113	0xbe331ddc	-0.17491859
114	0x3ded8711	0.115980275
115	0xbdfdcff0	-0.123931766
116	0x3e5013fe	0.20320126
117	0x3e29b1b5	0.16571696
118	0x3d22e408	0.03976825
119	0x3e19e9e6	0.15030631
120	0x3e5e19f2	0.21689585
121	0xbd14fbef	-0.036373075
122	0xbe236c45	-0.1595927
123	0x3dab27bb	0.08357187
124	0xbd916eb8	-0.07101196
125	0x3b92c381	0.0044788723
126	0xbc886e40	-0.016654134
127	0x3ce23a2a	0.027615625
128	0xbf009a67	-0.502356
129	0xbd1c33a9	-0.038135204
130	0x3cf31499	0.029672908
131	0xbe551a90	-0.20810914
132	0xbf0919b3	-0.5355484
133	0x3dc5e041	0.09661914
134	0xbe135fb1	-0.14391972
135	0x3ec48edb	0.3839024
136	0xbe8d468d	-0.27592888
137	0xbde52d72	-0.11190309
138	0xbd84796a	-0.064684704
139	0x3e8c5c5a	0.2741421
140	0xbcfd9c44	-0.030958302
141	0xbe31a1f6	-0.1734694
142	0xbe8dd926	-0.27704734
143	0xbe86bb68	-0.26314855
144	0x3d4977ad	0.049186397
145	0x3e4f713f	0.20258044
146	0x3d1e0732	0.03858108
147	0x3e99d831	0.30047753
148	0xbdd82064	-0.10553053
149	0xbdc071f2	-0.09396733
150	0x3f75e2b1	0.9604903
151	0xbe6f00b4	-0.23340112
152	0x3b03633f	0.002004817
153	0x3902e975	0.00012484736
154	0x3c94779f	0.018123446
155	0x3e00939f	0.12556313
156	0xbdc5e93d	-0.09663627
157	0xbda9e6b9	-0.0829596
158	0x3f64f4b0	0.89435863
159	0x3ca30414	0.019899406
160	0xbf15da2a	-0.58536017
161	0xbe088974	-0.13333684
162	0x3ec7eb96	0.39046925
163	0xbcf52c32	-0.0299283
164	0x3db9b7bd	0.090682484
165	0x3e8fee9c	0.28111732
166	0x3d0262a0	0.031832337
167	0x3ee3804b	0.44433817
168	0xbe4687da	-0.19387761
169	0x3ce508da	0.027958322
170	0x3d13a569	0.03604642
171	0x3e20e7c5	0.15713413
172	0x3e4f9c88	0.20274556
173	0x3e0e2f77	0.13885294
174	0x3f15fd59	0.585897
175	0xbe338476	-0.17530999
176	0x3d86fea4	0.065915376
177	0x3ae0b6d5	0.0017144332
178	0x3ecb516f	0.39710566
179	0xbe1472e1	-0.14496948
180	0xbdd0eb99	-0.10201187
181	0x3e27d8c3	0.16391282
182	0x3e983007	0.29724142
183	0x3e5b4445	0.21412762
184	0xbc156286	-0.009117728
185	0xbde055c2	-0.10953857
186	0xbe5ad072	-0.21368578
187	0x3e7a80a6	0.24463138
188	0x3e053fcf	0.13012622
189	0x3d160600	0.036626816
190	0xbf1dabe1	-0.6159039
191	0xbc2c7d8f	-0.010527982
192	0xbe226192	-0.15857533
193	0xbe4c59fc	-0.19956201
194	0x3dc0d238	0.09415096
195	0xbe0aa156	-0.13538107
196	0xbf13f394	-0.57793546
197	0xbd8beb2b	-0.06831964
198	0xbea3bc2d	-0.31979504
199	0x3e3a1636	0.18172535
200	0x3c930846	0.017948281
201	0x3d3738b8	0.044731826
202	0x3cc124f0	0.023577183
203	0x3d4bcad8	0.049753994
204	0xbe12aefe	-0.14324567
205	0x3e6ab9ce	0.22922441
206	0xbd2b8d17	-0.0418826
207	0xbb4656c9	-0.003026413
208	0xbc96d084	-0.018409975
209	0xbdf83ff4	-0.12121573
210	0x3c987e68	0.018614963
211	0x3e9c0898	0.30475307
212	0xbc09977d	-0.008397934
213	0xbdc6b189	-0.09701831
214	0xbe697328	-0.22797835
215	0xbddc24c3	-0.10749199
216	0x3d1fb6ea	0.0389928
217	0xbcbb84f4	-0.022890545
218	0x3e266449	0.16249193
219	0xbe85833e	-0.26076692
220	0x3d5ffa22	0.054681905
221	0x3da4872f	0.08033597
222	0x3e92692c	0.28595865
223	0x3dad74aa	0.084695175
224	0xbe2f8c40	-0.17143345
225	0xbe7da831	-0.24771191
226	0x3dabaca1	0.08382536
227	0xbdc9e137	-0.098574094
228	0xbe0619b1	-0.13095738
229	0xbc49e4ed	-0.012322647
230	0x3e9bcbc5	0.304289
231	0x3ed49182	0.41517264
232	0xbd6b0d56	-0.057385765
233	0xbe291760	-0.16512823
234	0xbda41135	-0.080110945
235	0xbd85281b	-0.0650179
236	0xbcc91c73	-0.024549698
237	0x3c5ca35d	0.013466683
238	0xbd80a65a	-0.06281729
239	0xbdd239a1	-0.10264898
240	0xbe2e8efc	-0.17046732
241	0xbebb54ae	-0.36588043
242	0x3e292d6a	0.1652123
243	0x3cce9728	0.025218561
244	0xbe2a0c21	-0.1660619
245	0x3bdaf81f	0.0066824104
246	0xbe239617	-0.15975223
247	0x3d5bbd5d	0.053647388
248	0xbe3195b3	-0.17342262
249	0xbe2e73cd	-0.17036362
250	0x3c0a5c27	0.008444822
251	0xbe7c0a95	-0.24613412
252	0xbeaf445e	-0.34231848
253	0x3d3c6160	0.0459913
254	0xbd3c4aa7	-0.04596963
255	0x3e97a0c6	0.29614848

encoder_layers.block_0.conv.bias f4 [32]
0	0xbdd58e2d	-0.104275085
1	0x3c7fb15f	0.015606253
2	0xbd5eae38	-0.054365367
3	0xbe647a1a	-0.22312203
4	0xbdd877e7	-0.105697446
5	0xbe5d6f43	-0.21624474
6	0xbe8d7759	-0.27630118
7	0xbd918948	-0.071062624
8	0x3e498f18	0.19683492
9	0x3e86a252	0.26295716
10	0xbda036ad	-0.078229286
11	0x3dcebdfb	0.1009483
12	0xbea2ad02	-0.3177262
13	0x3e560f30	0.20904231
14	0x3d93bd4e	0.072138414
15	0xbe6cb0ac	-0.2311427
16	0xbd954ac7	-0.07289653
17	0xbe3745d1	-0.17897727
18	0x3ca4abc5	0.020101437
19	0x3e11ec0d	0.14250202
20	0xbea95d08	-0.3307879
21	0xbe6280c3	-0.22119431
22	0x3d0de964	0.034646407
23	0x3dab6f6f	0.08370864
24	0x3e023832	0.1271675
25	0x3d9d4cd1	0.07680667
26	0xbea0866a	-0.3135255
27	0x3e540cdd	0.20708032
28	0xbe0cbb96	-0.13743433
29	0xbda9e2d0	-0.08295214
30	0xbe3c2757	-0.18374382
31	0xbdab3903	-0.083604835

encoder_layers.block_1.transition.weight f4 [8, 16, 3, 3]
0	0xbc16f0a4	-0.009212647
1	0xbd84f093	-0.064911984
2	0x3ce6b758	0.028163597
3	0xbdc8dffa	-0.09808345
4	0xbd97ad7b	-0.07406136
5	0xbd8cb39b	-0.068701945
6	0x3c22d664	0.00993881
7	0xbddcb977	-0.10777562
8	0x3d168b47	0.03675392
9	0x3cfea210	0.031083137
10	0xbc675b87	-0.014120943
11	0xbde14a7d	-0.11000536
12	0x3d08954e	0.033345513
13	0x3d9c867b	0.076428376
14	0xbcd802ac	-0.026368462
15	0x3c82c7a8	0.015964344
16	0x3d109b1f	0.035304185
17	0xbd2ead10	-0.042645514
18	0x3d212744	0.039344087
19	0xbdaa3e80	-0.08312702
20	0x3d7d4112	0.061829634
21	0x3d8c84cc	0.068612665
22	0xbde818d0	-0.113328576
23	0xbd26cfa0	-0.04072535
24	0x3e1161a8	0.14197409
25	0x3d5fc553	0.054631542
26	0x3db4cc25	0.08828
27	0x3d990fcd	0.07473717
28	0xbb218ae0	-0.0024649426
29	0x3d1df4a0	0.03856337
30	0x3da82749	0.08210618
31	0xbc33d1ca	-0.010975311
32	0x3d4509f2	0.048105188
33	0x3d851805	0.06498722
34	0x3dc2c7db	0.09510776
35	0x3dcd216e	0.10016142
36	0x3c9b16e4	0.018931814
37	0x3d3ab9b5	0.04558726
38	0xbd9d55fa	-0.07682414
39	0x3dcf68df	0.101274244
40	0x3e7db406	0.24775705
41	0x3d89cd4a	0.06728609
42	0xbd879a85	-0.06621269
43	0x3dad57fd	0.08464048
44	0xbbaeecc2	-0.0053382823
45	0xbe70687b	-0.23477356
46	0x3d4cbd61	0.049985293
47	0xbe1f1e1a	-0.15538827
48	0x3cc6421e	0.024201449
49	0x3d1785b4	0.036992744
50	0x3da693e0	0.08133674
51	0xbe73f774	-0.23824865
52	0xbd3e7031	-0.046493713
53	0xbe2dc717	-0.16970478
54	0xbd547182	-0.051866062
55	0x3d3ac0f9	0.04559419
56	0x36a7042f	4.977475e-06
57	0x3d886003	0.06658938
58	0x3e73ca7e	0.23807713
59	0x3c701880	0.014654279
60	0xbdcdd87c	-0.10051057
61	0x3e04f901	0.12985612
62	0xbc2317c8	-0.0099544
63	0x3db8d390	0.09024727
64	0x3d60198c	0.054711863
65	0x3e589c5c	0.21153396
66	0x3d7eefba	0.06224034
67	0x3e5c9232	0.21540144
68	0x3d5b230c	0.05350022
69	0x3e2931b3	0.16522865
70	0x3d469498	0.048481554
71	0x3e004d0a	0.12529388
72	0x3e230f41	0.15923788
73	0x3dc994c4	0.09842828
74	0x3e9dc18f	0.30811736
75	0x3d65fa57	0.056146946
76	0x3e67180b	0.22567765
77	0x3d9e2144	0.07721189
78	0x3e439f60	0.19103765
79	0x3d9cabe2	0.076499715
80	0x3d91f613	0.07127013
81	0x3e1d863c	0.15383238
82	0xbcac05ab	-0.020998796
83	0x3d9c8582	0.07642652
84	0xbd15ec12	-0.036602087
85	0xbe93deeb	-0.2888101
86	0xbd7be26e	-0.061495237
87	0x3dce2050	0.10064757
88	0xbd3bb96a	-0.04583112
89	0x3e1c2814	0.15249664
90	0x3dc60ef7	0.09670823
91	0x3b8d5f8e	0.0043143695
92	0xbcfff691	-0.031245502
93	0xbd94048c	-0.0722743
94	0xbd2956cd	-0.041342545
95	0x3cf41f80	0.029800177
96	0xbd066dcc	-0.032819554
97	0xbe046acf	-0.12931369
98	0x3ca3de8e	0.020003583
99	0xbdc7867d	-0.097424485
100	0xbdddd0ae	-0.10830818
101	0xbe4d97c4	-0.20077425
102	0xbdb4c360	-0.08826327
103	0xbecaf179	-0.39637354
104	0xbdb9b9ed	-0.09068666
105	0xbe369d97	-0.17833553
106	0xbdfe4f9f	-0.1241753
107	0xbd7264d7	-0.0591782
108	0x3e885679	0.26628473
109	0xbd8385d7	-0.06422012
110	0x3e52be10	0.20580316
111	0xbce31daa	-0.027724106
112	0xbef1f60d	-0.47258034
113	0xbd96df2f	-0.07366788
114	0x3e42be8b	0.19017999
115	0xbb9cf5eb	-0.004790058
116	0x3e659eb3	0.2242382
117	0x3c9d2e3c	0.019187085
118	0xbdec5394	-0.11539379
119	0x3ce43795	0.027858535
120	0xbe27ab27	-0.16373883
121	0x3e282b70	0.1642282
122	0xbdb2f4cb	-0.08738097
123	0x3caf0fb7	0.021369798
124	0xbe1f1df5	-0.15538771
125	0xbc9166fa	-0.017749298
126	0x3e28bb2f	0.16477655
127	0xbe88245f	-0.2659025
128	0x3c8348c4	0.016025908
129	0xbe872116	-0.2639243
130	0xbeb16839	-0.34649828
131	0xbe89645a	-0.26834375
132	0xbb759ec1	-0.0037478658
133	0xbe61e8cc	-0.22061461
134	0x3e343741	0.17599203
135	0x3cf93c5c	0.03042429
136	0x3e85b8ce	0.26117557
137	0x3d3352e1	0.04378021
138	0x3e7d326f	0.2472627
139	0x3e2606ee	0.16213581
140	0x3e81c649	0.25346592
141	0x3c4568b5	0.01204889
142	0x3e4a9738	0.19784248
143	0xbbe038ac	-0.0068426933
144	0xbcbe10a0	-0.023201287
145	0x3cfae818	0.030628249
146	0x3dd8930b	0.10574921
147	0x3d598ac0	0.053110838
148	0xbd471ad3	-0.048609566
149	0x3ba3bb24	0.004996674
150	0xbd0ccc8c	-0.03437476
151	0x3d1d34b8	0.038380355
152	0xbcef07e7	-0.029178573
153	0xbad6bfa3	-0.0016384016
154	0x3cb7e8f0	0.02244994
155	0xbcb5244d	-0.022112036
156	0xbddcb15e	-0.107760176
157	0xbe85641b	-0.26052937
158	0x3cf48146	0.029846799
159	0xbc92d084	-0.017921694
160	0xbdee1ddd	-0.1162679
161	0xbd00c5e1	-0.031438712
162	0x3d35a53f	0.044347044
163	0xbbdee28e	-0.0068019098
164	0xbd12dd76	-0.035855733
165	0xbc9b51e2	-0.018959943
166	0x3d9712b1	0.07376612
167	0x39ddaedb	0.00042282682
168	0x3ca25e28	0.019820288
169	0x3bac7443	0.005262883
170	0x3a1719fd	0.00057640654
171	0x3c46e01e	0.012138395
172	0xbdc6db51	-0.097098
173	0x3d6808cb	0.05664901
174	0xbe189270	-0.14899611
175	0x3e919a37	0.2843797
176	0xbe14e798	-0.14541471
177	0x3bebd970	0.0071975514
178	0xbe4e0510	-0.20119119
179	0xbc88e542	-0.016710881
180	0x3db4b042	0.08822681
181	0xbd8574f7	-0.0651645
182	0x3ddd7e69	0.108151264
183	0x3c9f54e2	0.019449655
184	0xbe5aef36	-0.21380314
185	0xbd996459	-0.07489843
186	0x3d5d3e60	0.054014564
187	0x3cdb5753	0.026775038
188	0x3dac00bc	0.083985776
189	0x3e1e5f8d	0.15466137
190	0x3d9f49cb	0.07777747
191	0x3e329808	0.17440808
192	0x3d958cff	0.073022835
193	0x3c2c52ac	0.010517757
194	0x3da59b2c	0.08086237
195	0x3e449cb6	0.19200405
196	0x3cf397fb	0.029735556
197	0x3e171c5d	0.14756913
198	0x3e2e7536	0.170369
199	0x3db06044	0.08612111
200	0x3c0fbecb	0.008773516
201	0x3d627516	0.055287443
202	0x3ed4bea5	0.415517
203	0x3df8255c	0.12116501
204	0x3dbdd82c	0.09269747
205	0x3e02a08f	0.1275656
206	0x3e79a4e2	0.24379304
207	0x3bc93a5a	0.0061409893
208	0xbd81d3ed	-0.0633925
209	0xbd8c703e	-0.06857346
210	0xbc547673	-0.012967694
211	0xbf104401	-0.56353766
212	0xbd618d38	-0.055066317
213	0xbc62de1c	-0.0138469
214	0xbcedf6d3	-0.029048359
215	0x3d4968b6	0.049172126
216	0xbd0f3fcb	-0.034972947
217	0xbe48227a	-0.19544402
218	0xbd24aff7	-0.040206876
219	0xbe4f4ea6	-0.20244846
220	0xbe7c982a	-0.24667421
221	0xbe6cfab7	-0.23142515
222	0xbdbfb7c1	-0.0936122
223	0xbe464582	-0.19362453
224	0xbce5536f	-0.027993886
225	0x3c98f30f	0.018670587
226	0xbd89e765	-0.06733588
227	0xbc470023	-0.012146029
228	0xbd8f365a	-0.069927886
229	0x3cd56d9c	0.026053242
230	0xbd06f3d0	-0.03294736
231	0x3cfae11b	0.030624917
232	0xbd56afd9	-0.052413795
233	0x3d62128c	0.05519347
234	0x3c75e6f1	0.015008674
235	0xbe86766b	-0.2626222
236	0x3cf8f101	0.030388357
237	0xbe75f1f3	-0.24018078
238	0x3d372847	0.044716146
239	0xbe77659e	-0.24159858
240	0x3dabb476	0.083840296
241	0xbe52bbdf	-0.2057948
242	0x3cc57c9c	0.02410727
243	0x3ca3cf58	0.01999633
244	0x3c750bb5	0.014956404
245	0x3cd6f75a	0.026240993
246	0x3b887dd0	0.0041653886
247	0xbe451f84	-0.19250304
248	0x3d57f554	0.052724198
249	0x3c639e77	0.013892761
250	0x3cc74c61	0.024328412
251	0xbcb85c49	-0.022504942
252	0x3dfe733a	0.124243215
253	0x3ea9c7b6	0.3316018
254	0x3ca42b40	0.020040154
255	0x3ea75410	0.32681322

encoder_layers.block_1.transition.bias f4 [8]
0	0x3e3c412d	0.18384238
1	0xbe33f534	-0.17574006
2	0xbe4007ac	-0.18752927
3	0x3e46fc0a	0.19432083
4	0x3cd68dfb	0.026190748
5	0x3e637d85	0.2221585
6	0x3cf4c541	0.029879214
7	0xbdd428b7	-0.10359328

encoder_layers.block_1.conv.weight f4 [32, 8, 1, 1]
0	0x3e8b7a90	0.27241945
1	0x3e1b2f07	0.15154658
2	0x3d8c337e	0.06845759
3	0x3dcf1108	0.1011067
4	0xbe931faa	-0.28735095
5	0x3e4c963a	0.19979182
6	0xbecddf93	-0.40209636
7	0xbe04b93d	-0.12961288
8	0xbf667b79	-0.90032154
9	0x3edd2f1e	0.4320001
10	0xbdcc016f	-0.09961211
11	0xbd3ec985	-0.046578903
12	0x3eaa714a	0.33289558
13	0x3e950db4	0.29112017
14	0xbf3aa5c4	-0.7290919
15	0xbefac4b2	-0.48978192
16	0x3e076dc5	0.13225468
17	0x3f0d53d0	0.5520601
18	0x3da32228	0.07965499
19	0xbe59e010	-0.2127688
20	0xbce9b61e	-0.028529223
21	0xbe287ca4	-0.16453797
22	0xbe5003e5	-0.20313986
23	0x3e026521	0.1273389
24	0xbe87efc7	-0.26550123
25	0xbdf8d010	-0.1214906
26	0x3e290c4a	0.16508594
27	0x3c235db9	0.009971076
28	0x3d99f58e	0.07517539
29	0xbe1d178b	-0.15341012
30	0x3ef54197	0.47901604
31	0xbde61e2b	-0.11236223
32	0x3e3014ba	0.17195407
33	0xbe6689c0	-0.22513485
34	0x3ec923da	0.39285165
35	0xbf013c55	-0.50482684
36	0xbec709f8	-0.38874793
37	0xbe8f4e48	-0.2798941
38	0xbec35081	-0.38147357
39	0x3f154762	0.58312047
40	0xbf19e70f	-0.6011819
41	0x3e8a3c37	0.26999065
42	0x3f340662	0.7032224
43	0x3e9c0a9e	0.3047685
44	0xbe41f3e1	-0.18940689
45	0x3dabe5d3	0.08393445
46	0xbf20351e	-0.6258105
47	0xbdb938d3	-0.090440415
48	0x3d855263	0.06509855
49	0xbece3dce	-0.40281528
50	0x3ed39a8b	0.41328844
51	0x3e244c66	0.16044769
52	0x3e2f0e21	0.17095234
53	0x3d777677	0.06041571
54	0x3eb2bf20	0.34911442
55	0xbe57ef68	-0.2108742
56	0xbf4f009b	-0.808603
57	0x3ec15412	0.37759453
58	0x3d4c3828	0.049858242
59	0x3d94dfa3	0.07269218
60	0x3d4f4fb3	0.050613116
61	0xbe6f7aba	-0.2338666
62	0xbe8ab143	-0.27088365
63	0xbdf2372f	-0.11826932
64	0x3e93e6ee	0.28887123
65	0xbcbf0fd1	-0.023322972
66	0xbde02cc3	-0.109460376
67	0xbbd553da	-0.00651024
68	0x3ebd5b19	0.36983564
69	0x3e3439e8	0.17600214
70	0xbe117bd9	-0.142074
71	0x3e6aebc4	0.229415
72	0x3f148cb2	0.58027184
73	0x3f0ddf05	0.55418426
74	0x3e01bf87	0.12670718
75	0xbd14575b	-0.03621612
76	0x3e29694b	0.16544072
77	0x3f04c2c8	0.5185971
78	0xbd05ef90	-0.032699168
79	0x3d1c5d8c	0.03817515
80	0x3e3cdff3	0.18444805
81	0xbda4e8fe	-0.08052252
82	0x3d004bdb	0.03132234
83	0x3e36deb3	0.1785839
84	0xbd38072d	-0.04492872
85	0xbebe8f8e	-0.372189
86	0xbe63c309	-0.22242369
87	0x3d24d635	0.040243346
88	0xbe0f6976	-0.14005074
89	0xbbb7df86	-0.005611363
90	0x3e683ee0	0.22680235
91	0xbb5c4582	-0.0033610766
92	0x3d7f6a2d	0.062357116
93	0x3de4d75c	0.11173889
94	0xbd589705	-0.0528784
95	0x3ea9446c	0.33060014
96	0x3ca10220	0.019654334
97	0x3e6b8d23	0.23003058
98	0xbec528e3	-0.38507757
99	0x3daaf167	0.08346825
100	0x3c4fa3b6	0.012673309
101	0xbd73a1c1	-0.059480432
102	0x3ebdf832	0.3710342
103	0x3e360b04	0.1777764
104	0xbea812f9	-0.32826975
105	0x3ef062e6	0.46950454
106	0x3f06a94a	0.52602065
107	0x3ed23f92	0.41064125
108	0x3e2be836	0.167878
109	0x3d902c7b	0.07039734
110	0x3db3a039	0.087707944
111	0xbf040bf0	-0.51580715
112	0x3c1ebaad	0.009688062
113	0xbe9dd4c0	-0.30826378
114	0xbe8cfa78	-0.27534842
115	0x3e167dde	0.14696452
116	0x3e3ad643	0.18245797
117	0x3e7f92d7	0.24958359
118	0xbe835fc4	-0.25659
119	0xbde33721	-0.110944994
120	0x3e258162	0.16162637
121	0x3f8256e4	1.0182767
122	0x3e5424fc	0.20717233
123	0xbe98d517	-0.29850075
124	0xbece2535	-0.40262762
125	0x3d2f441c	0.042789564
126	0xbc5a0d40	-0.013308823
127	0x3e8b6ffd	0.27233878
128	0xbd6cf094	-0.05784662
129	0x3eb0760c	0.34465063
130	0x3d556719	0.052100275
131	0xbe4dcd2d	-0.200978
132	0xbe4c41cd	-0.19946976
133	0xbd19bb7f	-0.037532326
134	0xbed37b71	-0.41305116
135	0xbe826be6	-0.25472945
136	0xbec8d1db	-0.39222607
137	0x3e793f3f	0.24340533
138	0x3e2a9f93	0.16662435
139	0xbdc1a4fd	-0.09455297
140	0x3e97d04f	0.29651114
141	0x3e963f77	0.29345295
142	0x3c85b73d	0.016322726
143	0xbe4fc270	-0.20289016
144	0xbe2c7858	-0.16842782
145	0x3ebce895	0.36896196
146	0xbe91089a	-0.28326875
147	0xbdf24898	-0.118302524
148	0xbe83abe1	-0.2571707
149	0x3e5ad8ba	0.21371737
150	0xbe6601fa	-0.22461691
151	0xbe503972	-0.20334414
152	0xbd947339	-0.072485395
153	0xbe827a89	-0.25484112
154	0x3dfb2026	0.12261991
155	0x3ea8f583	0.3299981
156	0xbf27b480	-0.65509796
157	0xbf067167	-0.5251679
158	0x3e10c69e	0.14138266
159	0x3f189b50	0.5961199
160	0xbe02e878	-0.12783992
161	0xbd6bb086	-0.057541393
162	0xbc8a82eb	-0.01690813
163	0xbd2f0a8f	-0.04273468
164	0x3da4227a	0.080143884
165	0x3d92a665	0.071606435
166	0xbf230125	-0.6367362
167	0x3f308ccd	0.68964845
168	0x3e86db8a	0.2633937
169	0xbd1cb84b	-0.038261693
170	0xbd002e1b	-0.03129397
171	0xbee808ff	-0.45319363
172	0xbef9dc8c	-0.48801076
173	0x3df0792c	0.11741862
174	0xbd8a562c	-0.06754717
175	0xbeca381f	-0.39495942
176	0xbfe06550	-1.7530918
177	0xbe6d0742	-0.231473
178	0xbe80eadf	-0.25179192
179	0xbe42ca65	-0.1902252
180	0x3e9a5cb1	0.30148843
181	0x3e1f23cf	0.15541004
182	0xbde3e664	-0.11127928
183	0x3f25ec7b	0.64813966
184	0xbe0d10b1	-0.13775899
185	0x3d92d8f3	0.07170286
186	0xbea7fedc	-0.3281163
187	0x3e21aa5e	0.15787646
188	0x3ecb4bfe	0.39706415
189	0xbd125214	-0.035722807
190	0xbcf55dfc	-0.029952042
191	0x3cd7fea9	0.026366549
192	0x3d3948aa	0.045235313
193	0xbc7cdf16	-0.015434047
194	0x3b4152ce	0.0029498818
195	0xbe91f1ef	-0.28504893
196	0xbdc5381b	-0.09629842
197	0xbc393dc5	-0.011306231
198	0x3ebd2958	0.36945605
199	0x3eb0cff0	0.34533644
200	0xbe02ef83	-0.12786679
201	0x3e406b6a	0.18790975
202	0xbe389168	-0.18024218
203	0xbe964b30	-0.2935424
204	0xbda21664	-0.07914427
205	0x3c911204	0.017708786
206	0x3e8ef26f	0.27919337
207	0xbce372bc	-0.02776467
208	0x3c55d81d	0.013052014
209	0x3e4dd92a	0.20102373
210	0x3e2f3091	0.1710837
211	0xbb77682f	-0.0037751307
212	0x3e5cb6d8	0.21554124
213	0x3dabee16	0.08395021
214	0x3e919434	0.28433383
215	0x3e1155ab	0.14192836
216	0x3d994ba9	0.07485134
217	0xbe9345b5	-0.2876412
218	0xbe477a6a	-0.19480291
219	0xbd2f49bc	-0.042794928
220	0x3e64cfb5	0.22344859
221	0x3ca7c703	0.020480638
222	0xbe0dfecf	-0.13866733
223	0x3e53a188	0.20667088
224	0xbe6c5b58	-0.2308172
225	0x3e9d76a6	0.30754584
226	0x3e1d26c9	0.15346827
227	0xbd8bc44c	-0.0682455
228	0xbcccdc54	-0.025007404
229	0xbe331e73	-0.17492084
230	0xbb1fd45c	-0.002438805
231	0x3dcaa432	0.09894599
232	0xbe034321	-0.12818576
233	0x3aa2388f	0.0012376475
234	0xb8e6f825	-0.00011013475
235	0xbed5b0fc	-0.4173659
236	0x3e624118	0.22095144
237	0xbe1a5493	-0.15071325
238	0x3ca37553	0.019953405
239	0x3e779138	0.2417649
240	0xbe6ff179	-0.23431958
241	0xbe165596	-0.14681086
242	0x3e1fbe36	0.15599903
243	0xbe256705	-0.1615258
244	0x3e6d7973	0.2319086
245	0xbe32ba77	-0.17453943
246	0xbc695184	-0.014240626
247	0x3db0ff7d	0.086424805
248	0x3e012111	0.1261027
249	0x3d41e443	0.047336828
250	0x3b757106	0.00374514
251	0xbc1f1224	-0.009708915
252	0xbc95153c	-0.018198602
253	0x3d922221	0.07135416
254	0x3d33f293	0.04393251
255	0xbe85ea21	-0.2615519

encoder_layers.block_1.conv.bias f4 [32]
0	0x3c8b0ec5	0.016974816
1	0xbd943e25	-0.07238416
2	0xbe6bd2b3	-0.23029594
3	0x3e8c00d2	0.27344376
4	0xbe9e8509	-0.30960873
5	0xbdb1820c	-0.086673826
6	0x3e21c4e7	0.15797769
7	0xbeaf7c5d	-0.3427457
8	0x3e33e954	0.17569476
9	0x3f146579	0.57967335
10	0xbd9c5057	-0.07632511
11	0x3de37d2a	0.111078575
12	0x3d5b7b94	0.05358465
13	0x3d712c33	0.058880042
14	0x3e258e49	0.16167559
15	0xbeed0c8f	-0.46298644
16	0xbe8bc60b	-0.27299532
17	0xbe81f0f3	-0.25379142
18	0xbe89daf6	-0.26924866
19	0x3ea226dd	0.31670275
20	0xbe170911	-0.14749552
21	0xbdccb14b	-0.099947535
22	0xbe386231	-0.18006207
23	0x3e2283f1	0.15870644
24	0xbd3462da	-0.044039585
25	0xbe973990	-0.29536104
26	0xbd4c7f0f	-0.04992586
27	0x3dbea0da	0.09308024
28	0x3a9e839d	0.0012093667
29	0x3a29ec8c	0.00064820866
30	0x3e22bb6f	0.15891813
31	0xbdcb839a	-0.099372104

decoder_layers.block_0.transition.weight f4 [8, 8, 3, 3]
0	0x3be769df	0.0070621814
1	0xbe0e6bc0	-0.13908291
2	0xbd35e020	-0.044403195
3	0xbdc3dfee	-0.095641956
4	0xbe14e83d	-0.14541717
5	0xbd864890	-0.06556809
6	0xbc9cd2c2	-0.019143466
7	0xbdb25da8	-0.0870927
8	0xbd957a33	-0.07298698
9	0x3c50bb25	0.012739931
10	0xbdc7e39b	-0.09760209
11	0x3d73eabf	0.059550043
12	0x3a85ec4d	0.0010217518
13	0xbc403014	-0.011730213
14	0xbd5f268e	-0.054480128
15	0x3c0c457e	0.00856149
16	0x3cd8c720	0.026462138
17	0xbd4a48f5	-0.049385983
18	0x3c63e863	0.013910386
19	0x3e0a1b4e	0.13486978
20	0x3d03399d	0.032037366
21	0xbc831382	-0.016000513
22	0xbd987aa4	-0.07445267
23	0x3d88ecaa	0.06685765
24	0xbcbe78e9	-0.023251014
25	0xbd464ec2	-0.048414953
26	0x3da72b45	0.0816255
27	0xbd76270e	-0.06009584
28	0xbc6d00a2	-0.014465483
29	0xbd6b00df	-0.057373878
30	0xbd278cd0	-0.040905774
31	0xbd653335	-0.055957038
32	0x3db83d67	0.089960866
33	0xbdd94ced	-0.106103756
34	0x3c232451	0.009957389
35	0xbe0f08e6	-0.13968238
36	0x3d01f71c	0.031729802
37	0xbd912c79	-0.070885606
38	0xbcf344d2	-0.029695902
39	0x3bdeb403	0.0067963614
40	0x3ec15e21	0.37767127
41	0x3d6945d1	0.056951348
42	0xbd90ca2d	-0.07069812
43	0x3b1df141	0.0024100097
44	0x3c90f930	0.017696947
45	0x3d606543	0.05478407
46	0x3db01b11	0.085989125
47	0xbc16adff	-0.009196757
48	0x3e45f56b	0.19331901
49	0xbe3f1216	-0.18659243
50	0x3e0e17a0	0.138762
51	0xbe27e195	-0.16394646
52	0x3e953fad	0.29150143
53	0x3d667033	0.056259345
54	0x3d90017c	0.07031533
55	0x3e2422bd	0.16028877
56	0xbcb5d710	-0.022197276
57	0x3e0f1793	0.13973837
58	0x3e6abff5	0.22924788
59	0xbd158e80	-0.03651285
60	0x3cb1cef4	0.021705128
61	0x3d1d72fd	0.03843974
62	0x3d8bcdd5	0.06826369
63	0x3d978811	0.073989995
64	0x3cd86fec	0.026420556
65	0x3d7f6288	0.062349826
66	0x3e712dca	0.23552623
67	0xbc27304d	-0.010204387
68	0x3d1a56c5	0.037680406
69	0x3db1d718	0.08683604
70	0x3e78caf8	0.24296176
71	0x3db9e74a	0.09077318
72	0xbd7162a3	-0.058931958
73	0xbdf108b5	-0.11769239
74	0xbdb41fcf	-0.087951295
75	0xbcc2e66c	-0.023791514
76	0xbdb2186c	-0.08696064
77	0xbde40a55	-0.11134783
78	0xbdd82f05	-0.10555843
79	0xbca0594d	-0.019573832
80	0xbda7885a	-0.08180304
81	0xb95766b1	-0.00020542253
82	0x3d9e1600	0.0771904
83	0xbc7bacf4	-0.015361059
84	0xbda7bcfb	-0.08190342
85	0xbde12aea	-0.10994513
86	0x3c60a874	0.013712037
87	0x3c914565	0.017733285
88	0xbdbffa77	-0.09373944
89	0xbcaf1453	-0.021371996
90	0xbe02c31b	-0.1276974
91	0xbe16994b	-0.14706914
92	0xbe08d169	-0.13361134
93	0xbdf9c875	-0.12196437
94	0xbe0f003b	-0.13964932
95	0xbd7d923d	-0.06190704
96	0xbdc3f146	-0.09567504
97	0xbdfed273	-0.12442484
98	0xbd99874e	-0.074965104
99	0xbe1621f1	-0.14661385
100	0xbd54af78	-0.051925153
101	0xbd83b21d	-0.06430457
102	0x3d0d301c	0.03446971
103	0x3e066eeb	0.1312825
104	0xbdab5fde	-0.083678946
105	0xbdcb377a	-0.09922691
106	0x3d20ab83	0.039226066
107	0xbdbe0af5	-0.09279434
108	0xbd556899	-0.052101705
109	0xbcad0c76	-0.021124106
110	0x3db0c31c	0.08630964
111	0xbba3d650	-0.0049999133
112	0x3dcedbd3	0.10100522
113	0x3de0e122	0.10980441
114	0x3da3a26d	0.07989965
115	0x3d883b3d	0.06651924
116	0x3cce2ed7	0.02516882
117	0xbcd90ea3	-0.026496237
118	0x3d2d2225	0.04226889
119	0xbc8705d6	-0.016482275
120	0xbcce8612	-0.025210414
121	0xbe346817	-0.17617832
122	0xbd188e08	-0.037244827
123	0xbcc2b1a3	-0.023766344
124	0xbd8d24a8	-0.06891757
125	0xbd9d3618	-0.07676333
126	0x3d631105	0.055436153
127	0x3c03a1d9	0.008034193
128	0x3b92b425	0.0044770413
129	0x3d70098c	0.058602855
130	0x3e0cda5a	0.1375517
131	0xbb26f5a5	-0.0025476005
132	0x3d26e61f	0.040746804
133	0x3c9229c5	0.017842183
134	0xbdb65d04	-0.0890446
135	0x3dd8ec5d	0.10591958
136	0x3e047d6f	0.12938474
137	0x3da4bb06	0.080434844
138	0x3e25f699	0.16207351
139	0x3d1d064b	0.03833608
140	0x3d2c04a4	0.041996613
141	0x3cc57cc2	0.02410734
142	0x3e060ef2	0.13091639
143	0x3db22dd0	0.08700144
144	0xbb532e8a	-0.0032223784
145	0xbc9410ff	-0.01807451
146	0x3d9bee75	0.076138414
147	0x3c9857e8	0.018596604
148	0xbc07ef99	-0.008296871
149	0x3d8e32fc	0.06943318
150	0x3d86e7e7	0.065872006
151	0x3dc3bc09	0.09557349
152	0x3d7f6afd	0.06235789
153	0xbd797bef	-0.060909208
154	0xbd2bb99e	-0.041925065
155	0x3cf9ba20	0.03048426
156	0xbd1c44ab	-0.038151424
157	0xbe63c84c	-0.22244376
158	0xbe408901	-0.18802263
159	0x3da4fffe	0.08056639
160	0xbdae3f6d	-0.08508191
161	0x3bb33fc0	0.005470246
162	0x3decf37f	0.11569881
163	0x3df55541	0.119791515
164	0x3dc1e514	0.09467521
165	0xbd3f82e7	-0.046755698
166	0x3d95f6d5	0.0732247
167	0x3de00971	0.10939301
168	0x3cc0af0a	0.023520965
169	0xbce5881a	-0.028019
170	0x3d6bdbe0	0.057582736
171	0xbde0fa75	-0.10985271
172	0xbd09f6ca	-0.033682622
173	0xbce9848f	-0.028505592
174	0x3ca9a8b6	0.02071033
175	0x3d2ed71a	0.042685606
176	0x3d14b6da	0.036307193
177	0xbdaae806	-0.08345036
178	0x3e09d8db	0.1346163
179	0x39b98de3	0.00035391664
180	0x3ba8712a	0.0051404433
181	0xbd4c03e7	-0.04980841
182	0xbcce51ad	-0.02518543
183	0xbc267b66	-0.010161256
184	0x3c551959	0.013006532
185	0x3c561524	0.013066564
186	0xbddc5deb	-0.10760101
187	0xbc98a731	-0.01863441
188	0x39af8300	0.00033476204
189	0x3ddfb0f2	0.109224215
190	0x3e0ca960	0.13736486
191	0x3da86ac2	0.082234874
192	0x3e09fecb	0.13476102
193	0xbe17ca56	-0.14823279
194	0xbe557c99	-0.20848311
195	0x3d9303d1	0.07178462
196	0xbe204878	-0.15652645
197	0xbd4f5c51	-0.05062515
198	0xbe15ec4a	-0.14640918
199	0x3d12682e	0.035743885
200	0xbcbd8983	-0.02313686
201	0xbd971e25	-0.073787965
202	0xbdb2f941	-0.08738948
203	0x3e0b712c	0.1361739
204	0x3cd48eb0	0.025946945
205	0xbd1288f6	-0.035775147
206	0x3d5bfe33	0.05370922
207	0x3e038440	0.12843418
208	0xbd888154	-0.066652924
209	0x3da0f754	0.07859674
210	0x3c22773a	0.009916121
211	0xbebde90f	-0.37091872
212	0xbe2a2a7b	-0.16617768
213	0x3db2189f	0.08696102
214	0xbd1265fd	-0.035741795
215	0xbd68573f	-0.05672383
216	0xbd847a1e	-0.064686045
217	0xbca57e3d	-0.020201797
218	0xbccd6f95	-0.02507762
219	0x3d5d9496	0.05409678
220	0x3e9acdaf	0.3023505
221	0x3cfdd032	0.030983064
222	0xbc792027	-0.01520542
223	0x3db24323	0.087042116
224	0xbd22e652	-0.03977043
225	0x3b5baff5	0.0033521627
226	0x3d2fd9f3	0.042932462
227	0xbe2d49fd	-0.16922756
228	0x3d4c40e2	0.049866565
229	0x3e233f5b	0.15942137
230	0x3dc58108	0.096437514
231	0x3dece597	0.11567228
232	0x3d57f483	0.05272342
233	0x3b89a0ea	0.0042000907
234	0xbb3a1d50	-0.002839882
235	0xbd85be03	-0.065303825
236	0x3c9b05c0	0.01892364
237	0xbda5ea28	-0.081013024
238	0x3dd0ebf4	0.102012545
239	0xbc1021ff	-0.008797168
240	0xbd93ef15	-0.07223336
241	0xbd9f0753	-0.07765069
242	0xbcc58b9a	-0.024114419
243	0x3d847604	0.06467822
244	0x3e7e8904	0.24856955
245	0x3d0504ff	0.032475468
246	0x3e457fa7	0.19286977
247	0x3ef1e147	0.47242185
248	0x3e87f0cb	0.26550898
249	0x3b0e550b	0.002171817
250	0x3e5edf88	0.21764958
251	0xbcfb5d73	-0.030684208
252	0xbd9865a1	-0.07441259
253	0x3ca18220	0.019715369
254	0x3e2c6167	0.16834031
255	0xbd589aa8	-0.052881867

decoder_layers.block_0.transition.bias f4 [8]
0	0x3d07d832	0.033165164
1	0x3d6e1c4a	0.058132447
2	0xbd33fba8	-0.04394117
3	0x3d947072	0.0724801
4	0x3dd680af	0.10473763
5	0x3ba1092c	0.0049144235
6	0xbdaedff0	-0.085388064
7	0x3b9102ed	0.0044253976

decoder_layers.block_0.conv.weight f4 [32, 8, 1, 1]
0	0xbe88d143	-0.26722154
1	0xbeaeb7ee	-0.34124702
2	0x3e8def1f	0.27721497
3	0xbe99bfdc	-0.3002919
4	0xbea8c05f	-0.32959267
5	0x3c1914da	0.00934335
6	0x3e09c24c	0.13453025
7	0xbe5ca8fb	-0.21548836
8	0xbe574646	-0.21022901
9	0x3bf2d07d	0.0074101076
10	0x3d7a555e	0.06111657
11	0xbe3f1662	-0.18660882
12	0xbc440913	-0.011965054
13	0x3c5f517c	0.013630267
14	0x3e735610	0.23763299
15	0x3e0f4372	0.13990572
16	0xbe3542c1	-0.17701246
17	0xbe3b450f	-0.18288063
18	0xbe1b1b70	-0.15147185
19	0x3b452f4f	0.0030088013
20	0x3e5f7d94	0.21825248
21	0x3e72f120	0.23724794
22	0xbcf4da03	-0.029889112
23	0x3e1cd49e	0.15315482
24	0x3dfc58e8	0.12321645
25	0x3e8391a0	0.2569704
26	0xbe68c64b	-0.22731893
27	0xbdc122d8	-0.09430474
28	0x3d1fff90	0.039062083
29	0x3dbdc6b9	0.09266419
30	0xbddf8898	-0.10914725
31	0x3e32fc15	0.17478974
32	0xbcfe3555	-0.03103129
33	0xbda03945	-0.07823423
34	0xbd9ca21b	-0.07648107
35	0x3da125c2	0.0786853
36	0xbdf1b781	-0.11802579
37	0xbc7a0712	-0.015260475
38	0x3e61add6	0.2203897
39	0xbc2ae730	-0.010431096
40	0x3e0b559e	0.13606879
41	0xbe646987	-0.2230588
42	0x3e51e789	0.2049848
43	0xbdaef586	-0.08542924
44	0x3d98f9b6	0.074695036
45	0xbd19e562	-0.037572272
46	0xbcf34df1	-0.029700251
47	0xbdedd3d5	-0.116126694
48	0xbe039426	-0.12849483
49	0x3dcfb124	0.10141209
50	0x3e9fa377	0.311794
51	0x3ca910c6	0.020637881
52	0xbdaebfe3	-0.08532693
53	0xbe473a19	-0.19455756
54	0x3e739dd7	0.2379068
55	0x3def3d92	0.116816655
56	0x3cf06c9f	0.02934867
57	0x3e2efb8e	0.17088148
58	0x3dd4f995	0.103991665
59	0xbd414d71	-0.047192995
60	0xbd8aa169	-0.06769068
61	0xbdc6add0	-0.09701121
62	0xbe11a146	-0.14221677
63	0xbc218a2e	-0.009859605
64	0xbd745cf7	-0.05965897
65	0x3e58a249	0.21155657
66	0x3c36571d	0.011129168
67	0x3d3ed7b3	0.046592426
68	0x3d9eb46d	0.07749257
69	0x3e82481d	0.25445643
70	0xbeada265	-0.3391296
71	0x3d0aea64	0.03391494
72	0xbe049258	-0.1294645
73	0xbc496b3d	-0.012293634
74	0x3e11cf23	0.14239173
75	0xbdd38e37	-0.1032986
76	0xbd39e128	-0.04538074
77	0x3e688912	0.22708538
78	0x3e40b26a	0.1881806
79	0xbda00d5b	-0.07815047
80	0x3e65362b	0.22383945
81	0x3c6401fe	0.013916491
82	0xbdeadae8	-0.11467534
83	0xbe6e96b6	-0.23299679
84	0xbe6a2b6c	-0.22868127
85	0x3c94f3ef	0.018182723
86	0xbc3ebe72	-0.011642085
87	0x3d0451d9	0.03230462
88	0x3eb072c2	0.34462553
89	0x3e167872	0.14694384
90	0x3ce90fc4	0.0284499
91	0x3e156d05	0.14592369
92	0xbe8398d1	-0.25702527
93	0xbe64a731	-0.22329403
94	0x3ee57f20	0.4482355
95	0xbd1d7e6e	-0.03845065
96	0x3d9d2c7a	0.07674499
97	0xbc46f0d2	-0.012142377
98	0x3c90dd26	0.017683577
99	0x3e775ae3	0.24155764
100	0xbd2c8e5b	-0.04212795
101	0xbb84a29a	-0.004047704
102	0x3e488bd4	0.1958459
103	0xbd6f128b	-0.058367293
104	0xbe6896be	-0.22713754
105	0xbd0f9986	-0.03505852
106	0xbdfb1886	-0.12260537
107	0x3e492e8f	0.19646667
108	0x3e81351b	0.2523583
109	0x3e511a9a	0.20420304
110	0xbdc3b582	-0.09556104
111	0xbdc1f5cd	-0.09470711
112	0xbe0947cc	-0.13406295
113	0xbe23fa70	-0.16013503
114	0xbe002cc6	-0.1251708
115	0x3e6a1451	0.22859313
116	0xbb414107	-0.0029488222
117	0x3de6594f	0.11247503
118	0xbdf52b3e	-0.119711384
119	0x3d99fe80	0.07519245
120	0xbda90fd8	-0.08254975
121	0xbe3b7326	-0.18305644
122	0xbe13ac2b	-0.14421146
123	0x3ddcbc0d	0.10778055
124	0xbd193071	-0.037399713
125	0x3d763f10	0.060118735
126	0x3cac014f	0.020996718
127	0xbe7364bf	-0.237689
128	0x3cdca825	0.026935646
129	0x3c85c689	0.01633002
130	0xbde7c24a	-0.113163546
131	0x3e024995	0.12723382
132	0x3d5875e0	0.05284679
133	0xbe04d3c4	-0.12971407
134	0x3df5b448	0.119972765
135	0xbe22d7bf	-0.15902613
136	0xbcd77249	-0.026299613
137	0x3ea22190	0.3166623
138	0xbe809245	-0.25111595
139	0xbe7cacdf	-0.2467532
140	0x3e04d43a	0.12971583
141	0xbe102b93	-0.14079122
142	0x3e017193	0.12640981
143	0x3d35c7c6	0.044379972
144	0xbde320f9	-0.110902734
145	0xbb073be9	-0.0020635074
146	0xbe196529	-0.14979996
147	0xbde99d21	-0.11406923
148	0xbdcaf3b8	-0.09909767
149	0xbe1ae1b8	-0.15125167
150	0xbdd7886e	-0.10524069
151	0x3d7297ef	0.059226926
152	0x3e955bdf	0.29171655
153	0x3eae011e	0.33985227
154	0x3ae64437	0.0017567937
155	0x3eb923ef	0.36160228
156	0xbc388b55	-0.011263688
157	0xbe6b8f11	-0.23003794
158	0xbe95ee1e	-0.29283231
159	0x3e7fe8c4	0.24991137
160	0x3df37972	0.11888398
161	0x3e03dde8	0.1287762
162	0xbe123c89	-0.14280905
163	0xbe0353d4	-0.12824947
164	0xbda0ca63	-0.07851102
165	0x3dade30e	0.08490573
166	0xbe2511bc	-0.16120046
167	0x3e45941f	0.19294785
168	0xbcd054c6	-0.025431048
169	0xbe6f765c	-0.23384994
170	0x3db7fa14	0.089832455
171	0xbe07883d	-0.13235565
172	0xbda67e2d	-0.08129535
173	0xbe5184c7	-0.20460807
174	0x3e3b6843	0.18301491
175	0x3c2ae77a	0.010431165
176	0x3d9d8c94	0.07692829
177	0x3cb424aa	0.021990139
178	0x3de09cf9	0.1096744
179	0xbd355f62	-0.044280417
180	0xbc8d699d	-0.017262274
181	0x3d0998ad	0.03359287
182	0xbc765038	-0.015033774
183	0xbe04d4b9	-0.12971772
184	0x3d8707cd	0.06593285
185	0x3e5351bf	0.20636652
186	0xbdc61bde	-0.09673284
187	0xbe167d91	-0.14696337
188	0x3c5e660e	0.013574136
189	0xbc2b340e	-0.0104494225
190	0xbd66fa9c	-0.056391343
191	0x3e2a831e	0.1665158
192	0xbe30784d	-0.17233391
193	0x3dc45da2	0.095881715
194	0x3b6698e5	0.0035186347
195	0xbda697be	-0.08134411
196	0x3d657640	0.056020975
197	0x3e7aa84c	0.24478263
198	0xbe11cd7e	-0.14238545
199	0xbd9eb86c	-0.077500194
200	0xbe8d6c1e	-0.2762155
201	0x3e2b3fa7	0.167235
202	0xbdac2a6b	-0.08406528
203	0xbb0196f9	-0.0019773825
204	0x3d1dcab3	0.038523387
205	0xbc9c8847	-0.01910795
206	0x3e7b025c	0.24512619
207	0x3e28defb	0.1649131
208	0xbccb0a5c	-0.024785213
209	0xbdb69dc9	-0.08916814
210	0x3e1948bc	0.14969152
211	0xbe1a39d5	-0.15061124
212	0xbe734b0f	-0.23759101
213	0x3e797b07	0.24363337
214	0x3e912274	0.28346598
215	0xbd06fc6c	-0.032955572
216	0x3de18b13	0.110128544
217	0x3dd2b692	0.10288729
218	0x3e4b2b3f	0.19840716
219	0xbe2d1ddc	-0.16905922
220	0xbe94ac4c	-0.29037702
221	0xbcbca32d	-0.023027027
222	0xbd5dabfb	-0.05411909
223	0xbe5c25b7	-0.21498762
224	0x3e0d91ed	0.13825198
225	0x3cf41a3f	0.029797671
226	0xbcc4ddc7	-0.024031533
227	0xbda388a7	-0.07985049
228	0xbeab151f	-0.33414552
229	0xbe43229f	-0.19056176
230	0xbe29d23f	-0.16584109
231	0x3e16c904	0.14725119
232	0x3e8ae34b	0.27126536
233	0x3e885d60	0.2663374
234	0xbd923c42	-0.071403995
235	0xbe57ec07	-0.21086131
236	0xba60815d	-0.00085641985
237	0x3e3c08f7	0.18362795
238	0x3e833afb	0.25630936
239	0x3e843127	0.2581875
240	0xbdbe7724	-0.09300068
241	0x3e20d29a	0.15705338
242	0x3e94d65d	0.29069796
243	0xbe0d0e3b	-0.1377496
244	0xbe318df8	-0.17339313
245	0xbe6f4cbf	-0.2336912
246	0xbdb8b6c1	-0.090192325
247	0x3d940d7c	0.072291344
248	0x3e2c9c8d	0.16856594
249	0x3e8b0f03	0.2715989
250	0xbd81ae4f	-0.06332075
251	0xbc9ac57e	-0.018893
252	0x3e47c4e6	0.19508705
253	0xbdfa0f75	-0.122099794
254	0xbd35ada4	-0.04435505
255	0x3e803d61	0.25046828

decoder_layers.block_0.conv.bias f4 [32]
0	0x3d6e4232	0.058168598
1	0x3d577180	0.052598476
2	0x3a45f515	0.00075514737
3	0xbdd8337d	-0.105566956
4	0x3dd6b625	0.1048396
5	0x3e02474c	0.1272251
6	0x3d421bba	0.047389723
7	0x3d2d856d	0.042363573
8	0x3dd49d58	0.103815734
9	0x3e688197	0.22705685
10	0x3d23c016	0.03997811
11	0xbe409124	-0.18805367
12	0xbe0b3a32	-0.13596418
13	0x3e99438c	0.29934347
14	0x3e4e3d18	0.20140493
15	0x3db72f96	0.08944623
16	0x3cc8810a	0.024475593
17	0x3cf8cd94	0.030371465
18	0xbddb14b0	-0.10697305
19	0x3e35e183	0.17761807
20	0x3d12d137	0.035844054
21	0x3cae1242	0.02124894
22	0x3cb67ec5	0.022277245
23	0xbe415df0	-0.1888349
24	0xbda2579d	-0.07926867
25	0xbc99b541	-0.018763186
26	0xbe15196c	-0.14560479
27	0xbc7825c8	-0.0151457265
28	0xbdc79af8	-0.09746355
29	0xbe444a6b	-0.19169013
30	0x3d8f9f47	0.070128016
31	0x3e1155e3	0.1419292
