trainedModels/learningRate/lateral/1.0/2/5e-05/run3/model.pt (torch, 110633 bytes, 19 tensors)

init.weight f4 [18, 1, 1, 1]
00000000: 184c 933f f5df 85bf fc20 65bf aa64 763e
00000010: 0184 323f 927c fa3e 2a17 6f3f 91b2 cbbe
00000020: c31f 723f c1f3 fa3e 7a61 3ebf a8f2 8a3f
00000030: 3572 183f f2d2 1f3e 87af e33c dab9 6bbf
00000040: 80b1 74bc b7ba 1bbf
1.1507597 -1.0458971 -0.89503455 0.24061838 0.6973267 0.48923165 0.9339472 -0.39784673
0.94579715 0.49014094 -0.7436749 1.0855303 0.59549266 0.15607813 0.027793659 -0.9208046
-0.014934897 -0.6083178

init.bias f4 [18]
00000000: 1037 773e 0b53 b2be e71e fb3e 0814 423f
00000010: a009 51bf dd79 333f c43b 3fbd 1a4a 343f
00000020: 1ab6 313e 5a44 293f ab5a 953c adfd 233e
00000030: 9cab 243e 8cf9 65bf 11fb 10bf 3f01 273f
00000040: d491 d23e 6eae b03e
0.24142098 -0.34828982 0.49047014 0.75811815 -0.8165531 0.70107824 -0.046687856 0.7042557
0.17354622 0.6611992 0.01823171 0.16014738 0.16081089 -0.89833903 -0.56633097 0.65236276
0.41126883 0.3450808

encoder_layers.block_0.transition.weight f4 [18, 36, 3, 3]
00000000: b017 5e3c b33a cd3b d8fe aabc f621 343b
00000010: c1fc da3b 9153 2e3d e3b8 6a3d e883 6f3d
00000020: ab19 393d a342 e0bc 9c9c 9c3b 3ae3 3d3d
00000030: 3d5c d63b e78c 81bc c277 1fbd 2583 53bd
00000040: 0533 4bbd d99f 163d ffce 02bd f91c abbc
00000050: d7af 37bd 56cb 78bd a679 1bbd e9ba 15bd
00000060: 9913 53bd 50f3 23bd 0b6d a43c f73e 1dbd
00000070: 401a 893c 12dc 36bd fbbd 47bd 194c c53c
00000080: 58f7 61bd dfc7 bfbc 7f28 4bbd 899d d5bc
00000090: d9da 983d a501 463d d6fc 763d ab14 a43b
000000a0: 2de8 30bc eb89 88bb 13e4 2d3d dde5 b7bb
000000b0: 2095 973d 317b 543b aea3 e7bc 0738 54bc
000000c0: 8bf6 d9bc e2f5 16bb b034 1b3d 2b7a 6cbd
000000d0: 8965 dbbc 1b8f 81bd 0e4a fb3d 5d07 433d
000000e0: 6638 7b3d 9b1e ed3d 7d21 9f3d 64e0 8f3d
000000f0: edc2 b43d ab7a cd3d 72fa d03d 777b a5bb
00000100: 23cd 76bd a1c7 c2bc 96cd b53b 15ad b4bc
00000110: a359 d53c 5a6c 5dbd 929b 08bd c8e9 573c
00000120: f529 b3bc 22e6 ce3c 5130 8f3d 5a32 5e3d
00000130: 8138 16bc 38c8 dd3b ace1 183c e6c8 8d3d
00000140: 718b a03d dcad 293c 79f9 84bd 17f3 50bd
00000150: 9d82 4bbd d6d5 6a3b cd90 17bd 8899 823c
00000160: a0f9 4abd 8906 2ebb c042 b0bd 8530 00be
00000170: a16c e1bd 8743 70bd d664 54bd 6965 3ebd
00000180: 5569 e4bd 74a4 66bd f1b7 dfbd 054b 0cbc
00000190: ade7 da3c 7836 7f3d ee79 a6bb 6f57 57bc
000001a0: f778 823d d25e 91bc ef5e 8b3d d3e1 98bc
000001b0: cae5 643d 7f95 13bd 8f4b 06bc 4b1c 35bd
000001c0: 2388 0fbc 3c18 b03c 38ed 673d 8395 823b
000001d0: ce63 31bc 3abb 03bd 17d7 8c3d ff65 a03c
000001e0: 7b61 c83c 7776 853d 36e1 8e3d 62ab 273d
000001f0: 78e8 0c3d a0d8 413d b09b 4a3d 26b9 7e3c
00000200: a6a8 b8bc 15b4 473d 41d9 99bc 3605 523d
00000210: c04f efbc edbc 3e3c a581 17bd a39a 90bc
00000220: a394 91bd 119c 293c a979 d73b d49c f83b
00000230: 64a6 37bd 1d82 10bd c04c 61bd 50a4 8dbc
00000240: ee16 50bd 4e3f 32bc c6f3 163d 6097 1fbd
00000250: 570d 4ebd 45f4 6cbd 0379 8dbc 22d2 82bc
00000260: 654d 20bd cbe6 6dbd dd20 07bd 7daf aabd
00000270: e59c 333b 2287 5cbd 5f70 97bd ff18 39bc
00000280: 75f6 55bd db5d 9ebd c872 e7bb 246c e7bc
00000290: 49c1 b0bd fab3 063c e3fd 93bd 5f6c debc
000002a0: 63f9 9ebd 8dfb 2fbd 4643 a9bd ec0d 75bd
000002b0: 3f66 3abb 5757 68bd 60bf 3bbc 18a3 8bbd
000002c0: 6204 973b a741 4fbd cbfc 9cbd a9e9 fe3c
000002d0: a38e 3abd d1b8 d63c b4a7 8d3c d1ec 35bd
000002e0: 7601 a9bc 9bef 623d cc0c f8bc 436a d1bb
000002f0: 60a5 083d 2e63 f8bc c7ee 2dbd ed8c d8bc
00000300: 9ad1 7a3c 9fde 12bd 4734 623d ee56 333d
00000310: ff07 c538 fef9 ae3a ad71 1c3c 426f 433a
00000320: f5a7 e3bc ebe0 f6bc 5fbf 35bd e6c6 abbc
00000330: 8fac 92bd c385 863c cce2 f9bc b4d7 1dbd
00000340: 22b7 1dbd a4c9 61bd 1265 443c 5a67 4c3c
00000350: 738d e83b c2f5 d0bc 7c7c d5bc 1c67 5b3c
00000360: 23e8 abbb 132c b9bb 57a4 a13d 0f32 673d
00000370: c8bc 163c 4889 9abb 4cf0 813d 32dc f83b
00000380: 1af9 7c3b b043 3c3d fe22 b1bb c56e 8d3d
00000390: 1edf 843d 65ba d3bc bbcc e13c 54f5 813c
000003a0: cb26 853d e9af 893d 66c8 093d 7b26 69bc
000003b0: 6c59 373d 5431 343d 870f 0fbd cf79 aa3b
000003c0: a2e8 673d c3c0 3db9 d0e0 663d 64db 7abd
000003d0: b361 5ebd d661 f53c c4ac 2bbd dfaf 90bd
000003e0: f847 5f3b f4e9 81bd 64ad e83b dcdc 80bd
000003f0: 4ce8 bd3b 9405 6d3b f313 79bd 848b d1bc
0.013555452 0.006263101 -0.020873472 0.0027486063 0.0066829626 0.042560164 0.057305228 0.058475405
0.045190495 -0.027375525 0.0047794115 0.04635928 0.0065417574 -0.015814258 -0.03893257 -0.05163874
-0.049609203 0.036773536 -0.031935688 -0.020887839 -0.04484543 -0.06074079 -0.03795781 -0.036555205
-0.05153236 -0.040026963 0.020071527 -0.038390126 0.01673615 -0.04464347 -0.048765164 0.024084138
-0.055167526 -0.023410736 -0.049599167 -0.026076095 0.07463617 0.048341412 0.060299717 0.0050073466
-0.0107975425 -0.0041668317 0.042453837 -0.0056121186 0.0740149 0.003242206 -0.02827629 -0.012952811
-0.026606819 -0.0023034741 0.037892044 -0.057733696 -0.026781814 -0.06326123 0.12269984 0.047614444
0.061333083 0.11578103 0.07770059 0.07025221 0.08826242 0.10033163 0.10204019 -0.0050501185
-0.060254227 -0.023776831 0.0055481894 -0.022055188 0.026043719 -0.05405841 -0.03335149 0.013178296
-0.021870593 0.02525622 0.069916375 0.054247238 -0.009168745 0.0067682527 0.009331148 0.06923084
0.07839096 0.010356393 -0.06492896 -0.05101308 -0.04968511 0.0035833023 -0.037003327 0.01594235
-0.049554467 -0.0026554188 -0.086064816 -0.12518509 -0.110070474 -0.05865815 -0.051853977 -0.04648343
-0.11152903 -0.05630918 -0.10923756 -0.008562808 0.0267218 0.062307805 -0.005080453 -0.013143404
0.063707285 -0.01774541 0.068052165 -0.018662369 0.055883206 -0.036031242 -0.0081967255 -0.044216435
-0.008760485 0.02149593 0.056622714 0.0039851083 -0.010827018 -0.032160975 0.06876963 0.019579886
0.024460545 0.06516736 0.06976549 0.040934928 0.034401387 0.04732573 0.04946488 0.0155470725
-0.022541355 0.048755724 -0.018780353 0.0512745 -0.029212832 0.011641723 -0.036988873 -0.017651862
-0.07108428 0.010352151 0.0065757823 0.0075870547 -0.044836417 -0.035280336 -0.055004835 -0.017290264
-0.050803117 -0.010879351 0.036853574 -0.03896272 -0.05030569 -0.05785014 -0.017269617 -0.01596934
-0.03913631 -0.05808143 -0.032990325 -0.08334253 0.002740675 -0.05383981 -0.0739448 -0.011297463
-0.052236993 -0.07732745 -0.0070632435 -0.028249808 -0.08630616 0.008221621 -0.072261594 -0.027151285
-0.077624105 -0.042964507 -0.082647845 -0.05982773 -0.002844229 -0.05672392 -0.011459202 -0.06818217
0.004608677 -0.05059972 -0.07665404 0.031117277 -0.045546185 0.026211174 0.017291881 -0.0444153
-0.02063058 0.055404287 -0.03027954 -0.006390841 0.03336084 -0.03032073 -0.042464044 -0.026434386
0.015308762 -0.03585684 0.055225637 0.043784074 9.3951814e-05 0.001334965 0.009548587 0.00074552384
-0.02779005 -0.030136546 -0.04437196 -0.020968866 -0.07161819 0.016421204 -0.030503653 -0.03853579
-0.038504727 -0.05512394 0.011986988 0.012475813 0.00709694 -0.025507811 -0.026060335 0.013391282
-0.0052461787 -0.005651006 0.078926735 0.056444224 0.009200282 -0.004716072 0.06344661 0.0075946087
0.0038600625 0.04596299 -0.0054057827 0.06905893 0.06487869 -0.025845716 0.027563443 0.015864052
0.0650154 0.06723005 0.03363838 -0.014230366 0.044763014 0.043992355 -0.034926917 0.005202509
0.05661834 -0.00018096254 0.05636674 -0.061244383 -0.054292392 0.029953878 -0.04191281 -0.07064795
0.0034069996 -0.06343451 0.007100748 -0.062921256 0.005795514 0.0036166655 -0.06081004 -0.025579222

encoder_layers.block_0.transition.bias f4 [18]
00000000: 720c aa3c f175 6b3c 26cf 093b 8b11 b6bc
00000010: 4447 bebc b4dc 90bd d564 c1bc baa9 963b
00000020: 0ddd bd3c df69 b7bc c8c8 943c 5aa7 1dba
00000030: deb8 3c3d f53a e83c f60e 853d 23fa cb3c
00000040: b48f 1b3d 50d0 353d
0.020757888 0.014371381 0.002102801 -0.022225162 -0.023227341 -0.07073346 -0.02360765 0.0045978697
0.023176694 -0.02238935 0.018162146 -0.0006014012 0.04607474 0.028348425 0.06496994 0.024899548
0.037978843 0.044388115

encoder_layers.block_0.conv.weight f4 [72, 18, 1, 1]
00000000: c04b 82be 3ce2 9abe 1e52 183e f023 9b3e
00000010: f460 d2bd 009d cab9 2bf6 a8bd 7840 523e
00000020: 1a70 28be 96dc 74be bcd8 193d 55cc dd3d
00000030: 3a16 1abe 95f4 15be 6f97 3639 b9a4 67be
00000040: 6caf 4f3e 00e6 263e 0bdc ebbc f766 52be
00000050: 385c 14be 4ada 2f3e e33a 99bc 98cc 60bd
00000060: 7d89 85bd 0542 253e 7e88 293e 685d 4ebe
00000070: eb38 773e 723d 39be ab4c 4abc 795b e53d
00000080: 9527 dd3c 8e4f 49be b047 17bc c5e6 c63d
00000090: 4c79 5fbe b1e7 87bd 4318 203c 8856 4b3e
000000a0: 05f4 3dbe fab5 36be 2739 2ebe c84e 53be
000000b0: 3f30 1cbc 7aea 573d 7897 95bd 149a 693e
000000c0: 7103 64be cc0e 7abd 2b00 20be ed56 65be
000000d0: 16c4 1ebd c4b9 2c3e 0817 553e db53 86bd
000000e0: 9c11 293e c9de 0cbe 2ea7 773c 8922 4cbd
000000f0: b5a3 fcbd 7558 76bd 4b71 33be a7f9 4fbe
00000100: 0db9 69be bc7d 9c3d 0b47 e13c 9f9c b8bd
00000110: e662 203e 74ce 36be 4553 133e f5b3 503e
00000120: 5cb3 b1bd 880d f83d 6668 76be 2bf1 6b3e
00000130: 64b1 51be 11d1 873d 9e5c 133e cc54 343e
00000140: fd22 543e 4045 0d3e 54fa 8e3d 3de4 3e3e
00000150: 5aef 0dbe 192f babd a539 253e 2c5c e63d
00000160: 5333 a83d ac26 2e3e 73b6 313e 4745 71be
00000170: ec9b 34be 1595 9dbc 8ff5 193e 10ec 68be
00000180: a257 1c3e a216 833d 97c3 febd 45db 253e
00000190: 7d98 023e a962 d93d a21a 5bbe 3a14 c53d
000001a0: 950d 5d3e 848f 3bbd 52cb 283e e1a1 273e
000001b0: 4461 54be 2d99 e53c d5fd 683d b26b adbd
000001c0: 5536 7e3d f254 01be f3f9 eebd 0816 34be
000001d0: fdbe fe3d 9426 59be 4cff 2abe bffa 0bbe
000001e0: c92d 15be 9c9b 4b3c b8a0 d63d 4813 bf3d
000001f0: 8a5f ad3d 7ecd 7d3d dca2 2a3e 7e23 93bc
00000200: d6bf 3fbe 386b 14be 220c 383e fefc aebd
00000210: e591 2dbd 283a adbd a6ff e83d 4982 33be
00000220: 25dc 16be 78a6 e23c 0983 143e 4cad d43d
00000230: d77b 013e f934 50be 1534 e43d d084 563e
00000240: 56f4 163d b6dd 0c3d b16a c33d 3265 22be
00000250: 63ae b33c a023 02be dcb3 383e c9dc ca3c
00000260: b93f 4dbe 7b7e 23be 38c5 9cbb c7c1 d6bd
00000270: 54cd 70be 2ba6 043e 160b 733d bc59 453d
00000280: 8adc 73bd 4eee 213e 7ed6 4f3e d775 bdbc
00000290: e32b 1d3e 23f9 ab3d 189a 86bd d1e6 dc3c
000002a0: 8e42 473e a5f4 cabd 0ed9 1d3d db3f a03d
000002b0: 90ba d83c 48d2 13bd 85f5 b23d 0e2c 8a3d
000002c0: 6fe6 56be 1e3c 4abd 7676 113e 8186 dfbc
000002d0: 5b9c 7ebd 4fdf f83d 3566 d8bd 6217 6c3e
000002e0: 5d09 80be c222 a03d 7c55 4b3d a440 84bc
000002f0: 3456 00bd 9b42 b53d 8824 30be eb14 ff3d
00000300: 8b68 b43d 2ba7 4dbe 09fa d43c 098a 57be
00000310: cb45 213e 2420 473c bd82 383d 87fd 693d
00000320: 8907 073e 34c4 c93d 659e a9bd 7fc7 143e
00000330: 3dad 2c3e 4a53 4a3e ad63 0d3e 2ce8 013d
00000340: 10db acbd 8d60 633e 4900 60be be81 6fbe
00000350: 0822 f8bc 9000 38bd 441a 2bbc 937a 23be
00000360: 0a10 a13d 9c07 9cbd 9366 d1bd c7f5 c53d
00000370: cc9b 2dbe 1f8c 43be e713 87bd 7480 59bd
00000380: 7e4c 81bd e748 6bbe 4d50 7fbe 8997 67be
00000390: 8121 d7bd a86f 4c3e 15b8 c7bd d90d 7c3e
000003a0: e73f 2cbe 67a3 3a3c 04f8 5dbe 608b 443e
000003b0: 547a 5bbe 1597 623e 5f9f d2bd 77f5 3ebd
000003c0: e379 ed3d e004 64be d131 273c 8f3e 1b3c
000003d0: 83cb 45be 0f89 023d 0d79 c53c e24f 64be
000003e0: 678d 553e 2576 d3bd f347 d13d a16d 09be
000003f0: bc5c 40bd eeeb 53be 3289 873d ed5e dbbb
-0.25448418 -0.30250728 0.14875075 0.30300856 -0.102723986 -0.00038645416 -0.08250078 0.20532405
-0.16449013 -0.23912272 0.03756021 0.10829989 -0.15047541 -0.14644082 0.00017413286 -0.2262143
0.20281762 0.16298676 -0.028791448 -0.2054709 -0.14488304 0.17173114 -0.018704837 -0.054882616
-0.065203644 0.16138466 0.16555974 -0.20152819 0.24142806 -0.18089846 -0.012347381 0.11199088
0.026996413 -0.19659254 -0.0092334 0.097119845 -0.21823615 -0.066359885 0.009771409 0.19857228
-0.18550117 -0.17842856 -0.1701399 -0.20635521 -0.009532987 0.05271385 -0.07304281 0.22812682
-0.22266938 -0.061049268 -0.15625064 -0.22396441 -0.03876122 0.16867739 0.20809567 -0.06558963
0.16510624 -0.13756861 0.015115542 -0.049837623 -0.12335912 -0.060142953 -0.17523687 -0.20310079
-0.22824498 0.076411694 0.027499696 -0.09014248 0.15662727 -0.17852193 0.14387234 0.20381148
-0.08676788 0.12111956 -0.24063262 0.23041217 -0.20477825 0.06631673 0.143908 0.17610472
0.20716472 0.13795948 0.0698134 0.18641753 -0.13860837 -0.090910144 0.16135271 0.11248049
0.08212914 0.1700694 0.17354755 -0.23561583 -0.17637604 -0.019236127 0.1503508 -0.227463
0.15267804 0.06400801 -0.124396496 0.16196926 0.12753482 0.10614521 -0.21396878 0.096229985
0.21587212 -0.045791164 0.1648381 0.16370346 -0.20740229 0.028027141 0.056882698 -0.08467807
0.062063534 -0.1263006 -0.11668768 -0.17586529 0.12438772 -0.21206123 -0.1669895 -0.13669871
-0.14568247 0.012427237 0.104798734 0.093298495 0.08465488 0.06196355 0.16663688 -0.01796126
-0.18725523 -0.14494026 0.17973378 -0.08544348 -0.042375464 -0.08458358 0.11376886 -0.17530169
-0.14732416 0.02766727 0.14503111 0.10384616 0.12644897 -0.20332707 0.11142746 0.20949101
0.03685411 0.034391128 0.09541834 -0.15858915 0.02193374 -0.12708902 0.18037361 0.024763482
-0.2004384 -0.15966217 -0.0047842525 -0.10486179 -0.23515826 0.12954013 0.059336744 0.04818128
-0.059536494 0.15813562 0.20296666 -0.02312748 0.15348773 0.083971284 -0.0657236 0.02696553
0.19458982 -0.099099435 0.038537078 0.078246795 0.026456147 -0.03608921 0.087382354 0.06746684
-0.20986341 -0.04937374 0.14205346 -0.027285816 -0.06216083 0.12151968 -0.105663694 0.23055795
-0.25007144 0.078191295 0.04964207 -0.016144104 -0.03133221 0.088505946 -0.17201436 0.12455162
0.088090025 -0.20083301 0.025998132 -0.2104875 0.1574928 0.012153659 0.045046557 0.05712655
0.13186468 0.09851876 -0.082821645 0.14529227 0.1686296 0.19758335 0.13807555 0.031715557
-0.0844022 0.222048 -0.21875109 -0.23389336 -0.030289665 -0.04492241 -0.010443274 -0.15964727
0.07864387 -0.07618639 -0.102246426 0.09666019 -0.16953963 -0.1909642 -0.06595593 -0.053101018
-0.06313418 -0.22977029 -0.24932976 -0.226164 -0.10504437 0.19964468 -0.09751908 0.24614657
-0.16821252 0.011391497 -0.21676642 0.19193792 -0.21433383 0.22127946 -0.10284304 -0.046620812
0.11595514 -0.22267485 0.010204748 0.009475364 -0.19315915 0.03186899 0.024105573 -0.22296098
0.20854722 -0.10325269 0.10218801 -0.13420726 -0.04696344 -0.20695469 0.06617965 -0.0066946656

encoder_layers.block_0.conv.bias f4 [72]
00000000: 4cf9 473d 8986 13bd e0b5 5cbe dfc8 3a3e
00000010: b86b 17be a063 ed3d 4203 dabd 86f5 043d
00000020: 5826 89bd 68f1 2a3e ad8b 593e 7e6a bfbd
00000030: 440c 043e 14f6 a13d c8d4 26be bcac 85bd
00000040: ce57 973d 1f12 033e cbdf cc3c bc1b 6c3e
00000050: 2633 1dbd cc28 3abe 1858 b13d 4454 3cbe
00000060: 36b2 8e3b 0420 3f3e 0b64 23be 427c 173e
00000070: bd72 3fbe 6c53 38be 7ce7 4bbe f810 1abe
00000080: 4374 0ebe bfde f03d 41cf 223e 9976 073e
00000090: f89a d5bd f8ed 62be 20ec a73d 8c2c 18be
000000a0: 9a79 a8bd 01ad 50be d9ae e53d 06b9 d3bd
000000b0: 2c98 1ebe 22ef 223d 84ac 323e ee3f 1b3d
000000c0: 8ed6 d13c f831 5ebd b3e4 70bd 8ca2 bcbd
000000d0: 9ed4 6d3d cb70 cebd 8082 85bc 2418 563e
000000e0: f7bd 33be 9e52 143e fb3b ff3d 4d11 c83c
000000f0: 0369 eebc 3df7 53be 647a 9b3d ac4c 083e
00000100: acc3 b4bd c088 343e 8d49 f63c af22 c23d
00000110: d79c debd f08c 3cbd b3bf 97bd 9cf9 d73d
0.048821732 -0.036016975 -0.21553755 0.18240689 -0.14787185 0.115912676 -0.10645153 0.032460712
-0.066967666 0.16693652 0.21244688 -0.09346484 0.12895304 0.07908264 -0.16292107 -0.06527087
0.07389794 0.12799881 0.025009057 0.23057455 -0.038378857 -0.18179625 0.08659381 -0.1839152
0.0043547405 0.18664557 -0.15956132 0.14793494 -0.18696113 -0.18000573 -0.19912523 -0.15045536
-0.13911538 0.117612354 0.15899374 0.13228835 -0.104299486 -0.2216109 0.08199334 -0.14860743
-0.08226319 -0.20378496 0.1121499 -0.10338025 -0.15487736 0.039778836 0.17448622 0.037902765
0.025615003 -0.054246873 -0.058811855 -0.09210691 0.058064096 -0.10080107 -0.016297579 0.20907646
-0.17552935 0.14484641 0.12462612 0.024422312 -0.029102808 -0.20699783 0.075917035 0.13310498
-0.08826384 0.17630291 0.030064369 0.094792716 -0.108697586 -0.046032846 -0.074096106 0.10545656

encoder_layers.block_1.transition.weight f4 [18, 36, 3, 3]
00000000: 0f66 543d abe9 8f3d 0b5f 2bbc 0fcf 433d
00000010: 8b46 9e3d 8a8f 9a3d 7aa4 8a3d 19a6 9e3d
00000020: d45e 73bc a832 1abd 8a0a 263d 20ca 43bc
00000030: 006b af3c 1e2d 7b3c 808f 5e3a f50f eb3c
00000040: 0b40 e43c 74da d5bc 8f3f 833d 1c10 f63b
00000050: 6ba7 6ebb 6034 a8bc 5d1a a63d 5a49 203d
00000060: 4d65 3abb 678a 853d e39e ac3d e64e 2c3d
00000070: 61e9 263d 8ec8 473d 5f51 a6bb 73a4 d2bc
00000080: ec89 4b3d 2d67 3a3d e67f 903c ad89 54bc
00000090: c7b6 00bc 661c a1bc d549 1cbd 72e7 96bd
000000a0: f997 5f3c b9fb 433b 97ec cbbc 77f6 79ba
000000b0: 14c7 d2bc 341f 25bd 7c89 fc3c 1c4c f2bc
000000c0: 1fbc 2139 7968 fe3c 56da b939 f847 65bd
000000d0: acf0 00bd 4b61 4fbd 77fc ce3c 7a89 28bd
000000e0: 5a5b 8fbc 8cfa 5cbc 9e24 a43c 7bb5 1cbc
000000f0: b6a8 8bbc ee35 6c3c 90b3 44bc 7cac 6bbc
00000100: b2b1 513c de64 85bc 5818 093a 57a0 cfbc
00000110: b02e 863c 1b48 113c 7abe f03c d167 f9bc
00000120: 1774 4f3d 9b95 9f3c 216c 81bc 5396 dfbc
00000130: 6035 2c3d 7ca0 86bc bbb4 4a3d f2b8 eabc
00000140: b7c0 ee3c 3be7 0d3d 6e86 563a 8da1 2f3d
00000150: 5271 21bd fb2f f23c dc64 103c 11d0 45bd
00000160: 40d6 24bd 0f06 d8bc db29 e6bc 5e2a 6a3b
00000170: f190 5fbc e3b8 efba 8af2 653d 5be2 d83c
00000180: 24c6 493d ce22 df3c e5b4 12bd 9443 0b3c
00000190: e4b6 bc3c 7d66 7dbc d8ca 0cbc aaf6 2a3c
000001a0: 2778 85bd 63ed 073d db31 85bd d37a b43c
000001b0: 21d7 433d 2690 f03c f0a7 e83c b41d 553d
000001c0: 30c7 8a3c f29d 223d 35f6 d13c c074 cbbc
000001d0: de91 96bb 9f8d 98bc 91ab 8fbd 0a10 e0bc
000001e0: 6a76 65bd 9a2e 103b 69e4 42bd 14f5 2dbc
000001f0: a098 d9bb 49ca 423c 20fb cfbb 7012 9cbc
00000200: 745a 943c e823 d2bc 5d25 3b3d 6cc7 7c3c
00000210: 43d9 393d 9a93 483d 43df 663d 5496 853c
00000220: 0060 243d c25b 303d 36c6 923c 6f0f 1ebd
00000230: 42b4 473d f2a8 243d 72ad 723d 413d 833d
00000240: e9ac 293d 4b90 333d cced 41bc a6eb 74bd
00000250: 57b0 713b 3ff0 c4bc 1640 e83c 8b94 573b
00000260: ed51 4cbd e2b7 4fbc 5288 d3bc bc2d 8abd
00000270: c3da 3fbd 9a3e b0bd 5ec0 42bb 81bb b8bd
00000280: 965c 90bd dbbc 62bd 1754 f33c 6cc5 28bd
00000290: 6915 1fbc f7bf 433c 93da 6b3d ed85 2f3d
000002a0: 0fa6 3c3d 560c b0bb 4dd5 1fbd c935 013d
000002b0: 4d0a 0abd 0993 0d3c 933c a33c c830 ab3c
000002c0: 48c4 923c aaff 0fbd 3e79 21bd 0cb5 c33c
000002d0: d030 02bc a50c ba3a a8e5 333d 7ca9 f33c
000002e0: 3001 73bc 3b92 293d 1dad 033c dac1 723c
000002f0: d000 f0bc 9892 b83c ce51 973c 151a 25bc
00000300: 8c88 633d 699e d038 6cc4 253d 9840 1dbd
00000310: eaf7 27bd eaec debb 79ce 2f3d ed0f 4c3d
00000320: 8b23 843c 5202 033d 6920 623d e548 453d
00000330: 8cfd 09bd 5acd 0cbd e912 823d 138c d33b
00000340: 2c28 a83c 2bdf 88bc 7f8a fabc 6734 09bd
00000350: 6afb 02bd 947d 72bd 4e4a 9d3c a626 73bd
00000360: 0f3d d33c aa81 763d c466 173d 5fa4 cbbc
00000370: 5954 3d3d 9cdd 8dbc 3fb9 9c3c a46a 9a3b
00000380: f23c b83c d341 0f3d ed49 7d3d 73a6 54bc
00000390: 48a9 923d bc4f 9e3d 7657 a73d a4e9 783d
000003a0: c530 453d f36c 603d d347 3f3b d780 20ba
000003b0: 3873 c63c fe3e c0bb 2320 0abd a091 be3b
000003c0: 1299 5f3c 6445 0cbd caef 583d 2278 fb3c
000003d0: af9f 1d3d ba48 75bb 28fb f1bb 117a 2fbd
000003e0: b948 d33c 765d 823d 7144 a43c e743 7bbc
000003f0: 8ac0 4d3c 313d d63c 9e29 e03c 5307 2abd
0.051855143 0.070269905 -0.010459672 0.04780489 0.07728299 0.07546909 0.06769653 0.07746524
-0.014854152 -0.037645966 0.040537395 -0.011950046 0.021413326 0.015330581 0.0008490011 0.028694132
0.02786257 -0.026105143 0.06408607 0.0075092446 -0.0036415707 -0.020532787 0.08110497 0.039132454
-0.0028441728 0.06520539 0.08428743 0.04206743 0.04074991 0.04877525 -0.005075618 -0.025713181
0.04969208 0.045508552 0.017639112 -0.012972278 -0.0078560775 -0.019666862 -0.03815635 -0.073683634
0.013647073 0.0029904677 -0.024893088 -0.00095353223 -0.025729693 -0.04031296 0.030827276 -0.029577307
0.00015424237 0.031055676 0.00035448623 -0.055976838 -0.031479523 -0.050629895 0.025266869 -0.041146733
-0.017499615 -0.013487469 0.020036992 -0.009564753 -0.017048221 0.014417155 -0.012005702 -0.014384385
0.0127987135 -0.016283449 0.0005229763 -0.02534501 0.016379684 0.008867289 0.029387701 -0.030445011
0.05064782 0.019480517 -0.01579863 -0.02729336 0.04204309 -0.016433947 0.049488764 -0.028652642
0.029144628 0.034644347 0.0008183484 0.042878676 -0.03941471 0.029563894 0.008813109 -0.04829413
-0.040243387 -0.026370076 -0.02809613 0.003573082 -0.013645397 -0.0018289353 0.056139506 0.026475122
0.049261227 0.027238276 -0.035817046 0.008499999 0.023036428 -0.01546633 -0.008593284 0.010434786
-0.06517058 0.033185374 -0.0650365 0.022031223 0.047812585 0.02936561 0.028400391 0.05203028
0.016940683 0.03970141 0.025630096 -0.024835944 -0.0045950254 -0.018622218 -0.070151456 -0.027351398
-0.05602113 0.0022000433 -0.04758111 -0.010617513 -0.006640509 0.011889049 -0.006347075 -0.01905176
0.018109538 -0.025651887 0.04568993 0.015428405 0.045373213 0.04896889 0.056365263 0.016307034
0.040130615 0.043056257 0.01791678 -0.038588937 0.04875589 0.04020018 0.05924744 0.06408168
0.041424666 0.04383878 -0.01183648 -0.059795044 0.0036878788 -0.02404034 0.028350871 0.0032894935
-0.049882818 -0.012678118 -0.025821839 -0.067470044 -0.046839487 -0.0860569 -0.002971671 -0.090201385
-0.07048909 -0.055355888 0.029703183 -0.0412039 -0.009709694 0.011947623 0.057581495 0.04285233
0.046056803 -0.0053725643 -0.03902178 0.031545434 -0.03370123 0.008641013 0.019926345 0.020897284
0.01791586 -0.03515593 -0.039422266 0.02389004 -0.007946208 0.0014194442 0.04392019 0.029743902
-0.014831826 0.041399222 0.008036879 0.014816726 -0.029297262 0.022530839 0.018471625 -0.010077019
0.055550143 9.947719e-05 0.040470526 -0.03839168 -0.041007914 -0.0068031447 0.042921517 0.049819876
0.01613023 0.031984635 0.05520669 0.04816522 -0.033689067 -0.034375526 0.06351263 0.006455907
0.020526968 -0.016707977 -0.030583618 -0.03349724 -0.03197805 -0.059201792 0.01920047 -0.05936303
0.025785951 0.06018225 0.03696324 -0.024858652 0.04622302 -0.017317586 0.019131301 0.0047124196
0.022489998 0.034974884 0.06183808 -0.012979138 0.07161194 0.07730052 0.08170979 0.060769692
0.048142213 0.054791402 0.0029187098 -0.0006122714 0.024224862 -0.0058668843 -0.033722054 0.0058156997
0.013647335 -0.034245864 0.052963056 0.030696932 0.038482364 -0.0037427382 -0.0073846765 -0.04284102
0.025791513 0.063654825 0.020052167 -0.015336013 0.012558112 0.026152225 0.027363595 -0.04151089

encoder_layers.block_1.transition.bias f4 [18]
00000000: 6104 203c 28fe 2e3d 120d 153c 2558 523b
00000010: 9f42 fbbc e912 7bbc aab4 81bd a21f d93c
00000020: 69fb f2bc ffc9 5b3c 9482 5abb 2d24 ce3b
00000030: d0f0 a0bc dd6a 463d ccce 9f3c 39ce 2cbd
00000040: 4d5d 103b f524 b43c
0.009766669 0.04272285 0.0090973545 0.0032095995 -0.030671416 -0.015324333 -0.06333287 0.026504342
-0.029660897 0.013414859 -0.003334199 0.0062909336 -0.019646078 0.048441757 0.019507788 -0.042188857
0.0022028268 0.021990279

encoder_layers.block_1.conv.weight f4 [72, 18, 1, 1]
00000000: dd81 463e 7b74 783e 3e95 c2bd 1e5a 6f3e
00000010: 509c 5cbd e8db 7dbe ab36 0b3e 9658 e1bd
00000020: db9c b3bd b019 32be e8ea 423e 532f 00be
00000030: 0863 e7bd d67f 0c3e e609 66be 41da ab3d
00000040: bdbf ab3d 5a3d 82be b102 4c3e 64dd 0ebe
00000050: 2a2c 43be b593 263e 8403 603e fe4d 1d3d
00000060: 44a0 35be 3e68 093e 7fca 263e d9ff 10be
00000070: 879c 033c 28eb f43d bc36 fcbd 0bfa 593e
00000080: 62fd 693d 2284 2abd 1a52 82bd cff6 fcbc
00000090: 6b3c ea3d 5409 103e c12e af38 8253 bb3c
000000a0: 6eb2 bc3d 9486 66be 6931 c2bd 044e 183d
000000b0: 94dc 203c 2261 103d fab2 073e ed9d 90bd
000000c0: 1050 193e 83c4 1cbe 1a08 6ebd 0694 4abd
000000d0: 4432 1a3c e903 c13d 5563 543e 6280 183e
000000e0: 075e 21be 2692 283d 7e5f b23d bf95 4bbd
000000f0: ca2d 0b3e 69af a6bb de54 183d b65d 4bbe
00000100: 6fba 97bd a9c0 5abe db37 4ebe ab72 2abd
00000110: ae7f 283d e34b 2abd a1e5 e3bd 6858 47bd
00000120: b6fd cabb 1b42 df3c 5241 aabc 478f 653c
00000130: 899d 32be f95a 3dbe 46a1 423e d615 50be
00000140: 866d 223e d484 63be 57ac aabd f4dc 38be
00000150: 3965 ebbd 600a 95bd 9fe0 e83a 0533 513e
00000160: 3c94 453e 9015 953d 596d 56be 09f5 063d
00000170: 68b2 763e f10d 503d 369b 683e 42e9 123e
00000180: e108 1a3e 95f5 afbd c750 d83d 980c b2bd
00000190: 6820 5a3e a820 cb3c acc7 9dbc 9d0e 6c3e
000001a0: 2c3e f3bc af75 393e e8cc fbbd 3e89 90be
000001b0: 7f57 4e3c fba6 a93b 29c2 1e3e 9a0d 5abe
000001c0: 8b79 95bd 8881 edbd 5194 19be 4710 83bc
000001d0: dc3e 313e f8b5 d93d 6124 7a3e dea6 04be
000001e0: 7db8 08be f936 2e3c a200 83bd abce 1fbe
000001f0: 7db7 623e 8d02 ecbb 67e9 03be 7562 efbd
00000200: e77d 8d3b 43a5 893e ea0b 8cbd a929 533d
00000210: cb21 90bd b5a6 b7bc ba55 493e 6a95 2cbe
00000220: 7592 82be 3196 933e eee8 59be 4711 73bd
00000230: 9bc6 933d 4c29 663e b380 753d 6e30 87bd
00000240: 9330 7e3e cd29 503c 6d81 453e 7185 dcbd
00000250: 45d4 abbd 1289 00bc 8d3e 08be a54c 7a3d
00000260: 1131 52bc c27a 523c e833 f53d f634 cb3c
00000270: 2c5f c83d 7ccb 41be 4389 5ebe d8c1 63bd
00000280: 2526 5e3e 9bb2 81be b0f8 40be e0e6 d13d
00000290: 6591 073d 49e7 623e 5128 02be 283f debd
000002a0: 652e 0b3e 9c7b 9ebd 50b1 853d ca1f 923d
000002b0: 6c5f 18be 9bfc 623e 2972 5a3e 1477 453d
000002c0: 04da 173e d3a4 68be e965 10be d40e 62bd
000002d0: 090e d13d fa81 6abe d608 a53d 38ab a23d
000002e0: 7d50 08bd 0df2 513c 4327 2c3c e657 443d
000002f0: 48f7 29be bde3 bcbc a0a7 10be e7cb 783e
00000300: 329d 6b3d c146 a43d 9fc9 e03d b8d8 e33d
00000310: d18b 21be e8e8 223d afa5 35be b060 cbbd
00000320: 4334 373e d125 45bd 76f8 253e 4e6b 8fbe
00000330: 6ce7 533d 75d1 123e 3e8d eb3d b67d 7e3c
00000340: 818b 233e 96f9 19be b702 463e 795f 40be
00000350: 1920 923a cf52 ddbd 0b8a de3d 4d7a e43c
00000360: ab99 f23d 7639 713e bbe5 f33d ff75 c33d
00000370: f71e 843e f49e 323e cb3c 013e c67a fabd
00000380: d401 7cbd f295 66be 5928 c2bd 3c3c 2ebe
00000390: 43d6 4ebb bb6b 703e 51fc 42be 205f f9bd
000003a0: 2c9c b63d 2c27 9fba 24a8 9f3d e555 913e
000003b0: c8b6 fcbd 9d9d 54bd e9c1 76bd efb7 163e
000003c0: ace4 be3d 73ff c93d 35fd 22bd 62ed febb
000003d0: 5700 68be 88bc 633e 0152 553d bd59 7d3d
000003e0: 3147 57be 6387 0b3c 6b2a 2e3e 0e4b ddbc
000003f0: 1a47 71be adfd 5a3b 7fe3 573e 48f9 fe3d
0.19385476 0.24263184 -0.09501122 0.2337422 -0.05386001 -0.24790919 0.13595073 -0.110032246
-0.08770152 -0.17392612 0.19034922 -0.12518053 -0.112981856 0.1372064 -0.22464713 0.08391238
0.083861805 -0.25437433 0.19922902 -0.13951641 -0.19059816 0.16267283 0.21876341 0.038404457
-0.17736918 0.13418671 0.16288184 -0.14160098 0.0080329245 0.11958915 -0.12315127 0.2128679
0.05712641 -0.041629918 -0.06363316 -0.030879406 0.11437305 0.14066058 8.353359e-05 0.022866968
0.0921372 -0.22512275 -0.094820805 0.037183776 0.009818215 0.035248883 0.13251868 -0.07061372
0.14971948 -0.15309338 -0.058113195 -0.049457572 0.009411398 0.09424574 0.20741017 0.14892724
-0.15758525 0.041155003 0.0870962 -0.049703356 0.13591686 -0.0050868285 0.03719031 -0.19859967
-0.07408606 -0.21362557 -0.20138495 -0.041613262 0.04113739 -0.041576277 -0.111277826 -0.048668295
-0.0061947955 0.027253201 -0.0207831 0.014011211 -0.17442907 -0.18491735 0.19006833 -0.2032083
0.15862092 -0.22218639 -0.083336525 -0.18053037 -0.11493916 -0.072773695 0.0017767138 0.20429619
0.19294828 0.07279503 -0.2094015 0.032948527 0.24091494 0.050794546 0.22715458 0.14346793
0.1504245 -0.08591763 0.10562282 -0.08693808 0.21301425 0.024795845 -0.01926025 0.2305245
-0.029692732 0.18111299 -0.12294942 -0.28229707 0.012594103 0.0051773763 0.15503754 -0.21294251
-0.07298573 -0.11596972 -0.14997984 -0.015998973 0.17309135 0.10630411 0.2442794 -0.1295428
-0.13351627 0.010633224 -0.06396605 -0.15606181 0.22140308 -0.0072024525 -0.12882005 -0.11688701
0.0043179872 0.26883897 -0.0683821 0.051553402 -0.070376955 -0.02241836 0.19661608 -0.16853872
-0.25502363 0.28825524 -0.21280262 -0.05934265 0.07215615 0.22476691 0.05993719 -0.06601034
0.24823217 0.012705279 0.19287653 -0.107676394 -0.083900966 -0.00784518 -0.13305111 0.06110825
-0.012829081 0.012846651 0.11972791 0.024805527 0.097837776 -0.1892528 -0.21732049 -0.055604786
0.21694238 -0.25331578 -0.18844867 0.10249114 0.033097643 0.22158541 -0.12710692 -0.1085189
0.13591917 -0.0773842 0.0652796 0.071349695 -0.1488015 0.22166674 0.21332611 0.048209265
0.1482926 -0.22719125 -0.14101376 -0.055189922 0.10207755 -0.22901145 0.08058326 0.07942814
-0.033279885 0.012814057 0.010507408 0.04793539 -0.16598237 -0.023057813 -0.14126444 0.24296533
0.05752296 0.08021308 0.10975956 0.1112532 -0.15775992 0.039772898 -0.17738985 -0.09930551
0.1789103 -0.048131768 0.16208062 -0.28011554 0.051734373 0.14337714 0.11501549 0.0155329015
0.15971185 -0.15036616 0.19336973 -0.1878642 0.0011148482 -0.1080681 0.10866173 0.027890349
0.11845716 0.23557076 0.11909052 0.0954399 0.25804874 0.17443448 0.12620847 -0.122304484
-0.06152518 -0.22518137 -0.09480352 -0.17015165 -0.0031560815 0.23478596 -0.19041564 -0.12176347
0.08916506 -0.0012142411 0.07795742 0.28385845 -0.1233955 -0.051908124 -0.06024352 0.14718603
0.093209594 0.09863176 -0.03979226 -0.007779763 -0.2265638 0.22239888 0.05208016 0.06185316
-0.21023251 0.008516165 0.17008369 -0.027013328 -0.2356228 0.0033415363 0.21082877 0.124498904

encoder_layers.block_1.conv.bias f4 [72]
00000000: 0174 5d3e 3e78 26be 6d43 cebd e1bc 45be
00000010: 0dc3 f3bd 187c 8bbd 93c2 50be 9b0d 873d
00000020: b5fe 59be 26da 353e 4c40 38be 96ce 673e
00000030: 5e48 9f3d e671 40bc 2756 38bc 8f16 2f3e
00000040: 2b4c 003e 5110 9a3a b32e 7f3e a526 40bd
00000050: 58f6 6a3e 7757 1c3e 5801 c43d d302 8c3e
00000060: 0a35 113d dd64 27be 9313 c4bd b17a 40be
00000070: 41e6 4fbe 44c8 04be d0ee 4dbe f9f5 2ebe
00000080: d982 5c3d 3c96 47be d83d 973d 4f11 bf3b
00000090: cd0f 05bb 8445 b0bd 2c10 a6bd 7330 89bc
000000a0: fd13 3b3e 4e95 61bd c314 6f3e 82b8 e7bd
000000b0: 2322 35be c5ba 4fbe 7d08 b23d 491a 7f3d
000000c0: 6632 47be 9299 9b3e 71c5 8dbd 1052 90bd
000000d0: 4d4f 2dbd aa63 5bbd b594 67be e2ca 61bd
000000e0: 33b3 1e3d f067 8dbd 6b68 d1bd e209 553d
000000f0: 5da1 a83d 028e 6bbc 9753 9abd d570 453d
00000100: 4e71 4d3d 94d7 09be 9366 b8bc b79d 1fbe
00000110: 6bc8 e7bd eb6d b93d 0aad a7bd 1908 3b3e
0.21626283 -0.16256806 -0.10071454 -0.19310333 -0.11902437 -0.068107784 -0.20386724 0.06594392
-0.2128857 0.17758998 -0.17993277 0.226374 0.07777475 -0.0117459055 -0.011251009 0.17098449
0.12529056 0.001175413 0.24920158 -0.046911854 0.22945535 0.1526774 0.09570569 0.27345905
0.035450973 -0.1634707 -0.09574046 -0.18796803 -0.20302679 -0.1296702 -0.20110631 -0.17086019
0.053835724 -0.19490904 0.07384843 0.0058309208 -0.0020303607 -0.08607009 -0.08108553 -0.016746735
0.18269344 -0.05507403 0.23347764 -0.11314489 -0.17688803 -0.2028609 0.08693025 0.062280927
-0.19452819 0.30390602 -0.069224246 -0.07046902 -0.042311955 -0.053561844 -0.22615321 -0.055125125
0.038745116 -0.0690459 -0.10224994 0.052011378 0.082339026 -0.014377119 -0.07535475 0.048203308
0.050156884 -0.13461143 -0.022509849 -0.15587507 -0.113175236 0.09054168 -0.081873015 0.18264808

decoder_layers.block_0.transition.weight f4 [18, 18, 3, 3]
00000000: 55de bbbd 9391 88bd bdd2 e4bd e1d1 c9bc
00000010: 965f 90bc b93e ecbd bc5f a4bd fdf9 12be
00000020: 2e34 4abd 4649 3cbd 1e16 23bc ffdf 58bd
00000030: b181 3c3d 40b6 4d3c 7599 c6bc 77fc 23bd
00000040: b33c 9dbd 3904 9fbd 6983 e0bb 153c 63bd
00000050: 8ca3 82bd cb44 3f3c 1a53 243d 8a08 b0bc
00000060: b9dd 123d 85bb 72bd f431 af3c 84ad 70bd
00000070: 44c0 283d 19fe 743d 7c01 70bd 46d0 643d
00000080: d07d 4f3b e906 4bbb 7226 ac3c cd63 d2bc
00000090: 4150 e7bc a2e7 39bd 2796 093d b5c3 2c3d
000000a0: 137e abbd c5f8 6fbd 3cf2 f23c 9741 bdbd
000000b0: ef0e 15bd 006b 083d 1f2b 88bd 0958 bebd
000000c0: 62db 74bd 76c0 89bd b887 633c 2b53 4fbd
000000d0: 8c7c 80bc d5f6 983c 8d25 29bc 4c5b e73b
000000e0: 6951 343d 23fc 403d 9914 833c bf1e 3c3d
000000f0: ee95 29bd 19c0 183d 05a6 d4bc af30 b53d
00000100: 4628 7c3d fd33 373d d313 21bc dbf0 95bb
00000110: 0555 bd3d 40eb 833c 7190 913d 0206 0dbd
00000120: c1ae 8ebd ed8e 36bd adad a73d dbbd 453c
00000130: a23b 36bd f663 53bd 10fa 193d de02 133d
00000140: a97f e03c 4213 a7bd 2f0f 16bd 2ebb e53b
00000150: c7cd 283d 7f7d 35bd 82ed 3c3d 7cff 2d3d
00000160: 4a60 c13d 7d9b b33d 23e9 ecbc 6f9c 923c
00000170: 4ea8 a13d b16f 90bc 5d77 61bd 214f 153d
00000180: 4bb4 2e3d a7a7 99bb 8d4b 033d 9974 8dba
00000190: 8e62 d5bc 6c63 ebbd 4f76 4e3d 512c 553d
000001a0: fbc1 4abd fba4 20bd 9a25 91bd 382a 8abc
000001b0: b5cb f83b 5cd0 ecbc 2956 2abc 54cf 4a3d
000001c0: 3e94 a8bc 2072 983d 2672 43bd b04e 923d
000001d0: 545e a53c fa1e da3b ebf6 fbbb 29cd 94bd
000001e0: ab05 4f3d ab25 95bd 6e82 79bd e74a 82bd
000001f0: 35cd e2bc 746d b33c 7285 4fbc d4ae c5bc
00000200: bbb9 babb 221d 4ebd c74f 993b 7625 683c
00000210: 300c 5f3d a549 913d 49e9 2e3d 8ea1 923d
00000220: d19a 873d 758e de3c 5343 1bbc 0722 cc3d
00000230: c011 cabc e9f0 b2bc 85e5 b93c a254 2abd
00000240: 0634 603d edee 1ebd 254c 5b3d 4fb7 133c
00000250: 9517 c43c 27db 3bbd 4d01 fcbc 844d 57bd
00000260: a4e8 13bd 56ef 5d3d 61b6 8dbb 15be 443d
00000270: 6fed b73d faf7 413d 38a1 ed3d 5fa9 733d
00000280: 292e c93c d4a4 87bc 10ae 1abc 0f77 29b9
00000290: f799 a93c c7ef bb3d 7670 c33d 6d24 943d
000002a0: c828 d23d 8ebb 8f3d b71c a43d a56e 1cbc
000002b0: 3cd9 b1bc d0ad 8a3d 5fa8 3ebd c787 253d
000002c0: 19ff c6bc 3ef5 3dbc 41c4 30bd 06d4 b13c
000002d0: e93c 8dbd 8093 aabd 436b 81bd 8e79 9d3a
000002e0: 5f18 b4bc 5abb cf3c b93c c9bb 9c2e 87bd
000002f0: 883a 2a3d 3d5a 34bd bdff 003d 6d30 a7bb
00000300: a959 ce3d 2cb8 c03d 36de 433d e54d a53c
00000310: 73b2 58bd a767 eebb 4070 663d cb7c 20bd
00000320: efe0 463d a241 29bd 62a2 4bbd 69e1 5abd
00000330: d4b7 443d efd2 873d db18 21bb 076e 11bd
00000340: b416 d6bc 698c 06bd deec 3dbd 35b7 e2bd
00000350: 3620 603d af2f 803d 890d 143d e544 2cbd
00000360: d420 3bbd 7c3c 98bd c85c 213d 4040 b3bb
00000370: c5ae 06be 9420 9ebc a37e 95bd 960a 03bd
00000380: af2b 3dbd 27b3 a1bd 04e6 783d 0d7a 56bd
00000390: c532 5a3c d61f 4b3d 653e a2bd da48 3dbd
000003a0: d0d5 d3bb cb50 253b 917b 103d 14c7 70bd
000003b0: 69d0 d4bd 74d0 f3bc 94b0 a43d ce14 9abd
000003c0: 05f0 66bd 72bc 593d 7563 913b d8e4 ce3c
000003d0: ddfb 31bd 594a 42bc 8f41 2bbd 233b ed3b
000003e0: 4715 a1ba 3523 0cbd 5f44 aa3d 119b 473a
000003f0: c807 86bc e64e 4e3d e056 743d 7652 a33d
-0.09173266 -0.06668391 -0.11173008 -0.02463621 -0.017623704 -0.11535401 -0.080260724 -0.14353175
-0.04936617 -0.045968316 -0.009954004 -0.052947994 0.04602212 0.012555659 -0.024243096 -0.04003569
-0.07677593 -0.07764477 -0.006851603 -0.05547722 -0.0637885 0.011674116 0.040118314 -0.021488447
0.035855982 -0.059260864 0.021386124 -0.058759227 0.041198984 0.05981264 -0.058595166 0.055862688
0.0031660683 -0.003097946 0.021014426 -0.025682354 -0.02823651 -0.045386918 0.033590462 0.04217883
-0.08373656 -0.058586854 0.029656522 -0.09241026 -0.036391195 0.03330517 -0.0664885 -0.09294135
-0.059779532 -0.06726162 0.013887338 -0.050616425 -0.015684389 0.018672386 -0.010323894 0.007060444
0.04402295 0.047115456 0.016001033 0.04592776 -0.04140275 0.037292574 -0.02595807 0.08847176
0.061561845 0.044727314 -0.009831387 -0.0045758313 0.09244732 0.016103387 0.07107628 -0.034429558
-0.069669254 -0.0445699 0.08187423 0.012069191 -0.044490464 -0.051609002 0.037591994 0.035891406
0.027404623 -0.0815797 -0.036635574 0.007010839 0.04121187 -0.044309136 0.046124943 0.042479977
0.09442194 0.087698914 -0.028919762 0.017896859 0.0789343 -0.017631384 -0.055045474 0.036452416
0.04265241 -0.004689175 0.032054473 -0.0010792195 -0.026047971 -0.114935726 0.050405797 0.052044217
-0.0495014 -0.039219838 -0.0708725 -0.016865835 0.007592643 -0.028907947 -0.010396519 0.04951413
-0.0205785 0.074436426 -0.047716282 0.07143915 0.02018658 0.0066565247 -0.007689347 -0.07265694
0.050542515 -0.07282575 -0.060915403 -0.06361943 -0.027685741 0.021902777 -0.012666093 -0.024131216
-0.0056984103 -0.050320752 0.0046786997 0.014169088 0.054454982 0.07094125 0.042702947 0.0715972
0.06621326 0.027167538 -0.009476501 0.09967428 -0.024666667 -0.02184339 0.022692451 -0.04158462
0.054737113 -0.038802076 0.053539414 0.009015872 0.023937026 -0.045863297 -0.030762339 -0.05256416
-0.036110535 0.054183327 -0.00432472 0.04803284 0.08980834 0.04735563 0.11603016 0.059487697
0.024558144 -0.016558088 -0.009440914 -0.00016161449 0.020703299 0.09176593 0.095429346 0.0723351
0.10261685 0.07018195 0.080132894 -0.009547864 -0.02171003 0.06771433 -0.04654729 0.04041269
-0.024291562 -0.011594115 -0.043155912 0.021707546 -0.06896383 -0.08328915 -0.06319287 0.0012014376
-0.021984277 0.02535789 -0.006141272 -0.06600687 0.041559726 -0.04403137 0.03149389 -0.0051022083
0.10075695 0.09410128 0.04781934 0.020178745 -0.052904557 -0.00727554 0.056259394 -0.03918151
0.048554357 -0.041322358 -0.049715407 -0.053437624 0.048026875 0.06632029 -0.0024581465 -0.03550532
-0.026133873 -0.03284875 -0.046368472 -0.110701 0.05471822 0.06259095 0.03614572 -0.04205789
-0.045685604 -0.074334115 0.039395124 -0.0054703057 -0.13152607 -0.019302644 -0.07299545 -0.031992517
-0.046184238 -0.07895499 0.060766235 -0.05236249 0.013317768 0.049590908 -0.07922057 -0.046212055
-0.0064646974 0.0025225158 0.035274092 -0.058783606 -0.103913136 -0.029762484 0.08041492 -0.075234994
-0.056381244 0.05315823 0.004436905 0.025255606 -0.043453086 -0.011858546 -0.04181057 0.0072397157
-0.0012289666 -0.034213264 0.08313822 0.0007614354 -0.016361132 0.050368212 0.059653163 0.079747126

decoder_layers.block_0.transition.bias f4 [18]
00000000: 4c0f cbbd 2a7c b5bd 7c86 babc 4a84 a63c
00000010: d0a9 1cbd 8612 193d 4fd2 a83d b044 4bbd
00000020: 5e0a 6338 f3f2 ad3d b7eb ea3c 7754 26bd
00000030: 7a94 843c d135 3cbd 9706 84bc ff9d 8cbd
00000040: 6cef 133d 32ca 9bbc
-0.09915027 -0.08861573 -0.022769205 0.020326752 -0.038247883 0.03737118 0.08243238 -0.049626052
5.4130673e-05 0.084936045 0.02867685 -0.040607896 0.01618408 -0.04594976 -0.016116424 -0.06866073
0.036117002 -0.019017313

decoder_layers.block_0.conv.weight f4 [72, 18, 1, 1]
00000000: 2422 26bd 1855 c43c 974e 4fbe 529d 2d3e
00000010: 2e76 39bd 5e47 243e 2345 783e 56cb eebc
00000020: 605e 6ebe c2bf 2b3e f8ed 8b3e 82ed 243e
00000030: 1a7b a33e 787a 2abe a463 cbbc 5636 f5bc
00000040: 87bf 66bd e864 3f3e 0d3d 093e 0282 56be
00000050: 0b14 72be 3f67 20be cdee c7bc 390f 163e
00000060: 19b3 c7bd 8c9d 0e3e 2163 123e d713 6ebd
00000070: dc20 cdbd f481 253e de64 433e f08b 083e
00000080: eab5 5dbe 0289 e33d 382b 763e 71b1 fdbd
00000090: 426a 153d afe3 c3bc 9725 6b3d 50c0 933e
000000a0: 03a0 37be daf9 943e cb00 a73e 0efc 82be
000000b0: 8180 d0bd d6ad 833e 693d 313c 28bd 9c3e
000000c0: b3a9 dd3d cd14 9cbe 522d 433e 2fc5 2c3e
000000d0: 2f37 44bc dbec 20be 02cd 45be 452f e3bd
000000e0: ed1b 6fbd 15b1 e93d 2dfb 3fbc 810d 9bbd
000000f0: fcd2 5bbe aef8 b13c 20f2 31be ce0f 56be
00000100: 983c 6aba 191d 11be 58ce 5a3d 9832 76be
00000110: 242f 7a3e 8949 0dbe 9138 d23d 31e2 f9ba
00000120: b90c 18be 7b0d 063d 86c5 ebbd 5d39 b33d
00000130: 1c3b 25bd ef60 bd3d 8f68 5dbd f0d8 7d3d
00000140: b1b4 e13d f70e 673e cca4 ac3d 12cd 133e
00000150: 2121 373e 21bb 84be dbb9 5c3e 464d 9fbc
00000160: 24c5 a43e dc03 7f3e cbf9 d73d 1086 4fbe
00000170: d083 40bd 192b 023e e4b7 1a3e 2fb7 18be
00000180: 8b79 c33c 746e 8abd cc93 6ebe 5917 1a3e
00000190: c853 5bbe 7546 513e f5fa 503d 5710 d7bd
000001a0: 9fbc 91bb 1200 38be d769 44be 2cd9 553e
000001b0: b4ef 273d c8d6 5bbd d026 cbbd 318d 033e
000001c0: 0978 d5ba 39c6 16be ffd1 653e b395 e3bd
000001d0: d96a 78bd c7ff 453e d888 0ebe ac3b 8ebd
000001e0: 6783 933d 4f46 81be d883 573e e661 803e
000001f0: 13ed a5bd 16d6 84bd ff9e 3cbe d7b3 953d
00000200: a425 333e 1a36 163e d2d6 51be e614 52be
00000210: cb47 0bbe a66b 7fbe 929b 1e3e 13ee 5f3e
00000220: e06e 353e 19b6 5ebe 00d4 3e3e 3174 1e3e
00000230: 2414 713e 4029 e53c dbce 623b e64e 33be
00000240: 11dc 63be f9af 44be e26a 5cbe c47d 513e
00000250: 12fd ff3d 9057 c9bd 7bca 1c3d e6ee cabd
00000260: 0b65 5f3d 30b6 39be 5713 95bd ba1a b53d
00000270: a123 453d d6a8 063e b169 d7bd ed1e 293e
00000280: 1605 c83c ff32 5ebd d1fd 0f3e fdf9 e33d
00000290: bdb8 3d3e 8b7f 353e 7a84 7dbd 0f8d 3cbe
000002a0: bf9c 4c3d c7a0 973d 6eb5 84be 65f6 853d
000002b0: d7ef 833e a643 9b3d 8f2f a7bc 7a8b 6f3d
000002c0: e1f4 553e 9a28 27be 8ce9 0e3e d36e 373d
000002d0: a7ed 5fbe 481b 333e 2389 86be bb94 9bbd
000002e0: 977f b73d d90b 7b3e f29a cb3d 6b29 3dbe
000002f0: 0441 1f3d 8194 823c 89ad 9c3d 3bb0 2f3e
00000300: e107 393e 15f5 7bbe aec4 2e3e 20ed f3bd
00000310: c875 d4bd 8297 8a3d c386 f53d a384 27be
00000320: 90e1 aebd fb14 5e3e 35db 0abe 79d7 183e
00000330: 7a07 4e3d 8649 d1bd 8d89 8abe 1e6c 7d3d
00000340: de7b 403e 71fe 843e f45e 0a3e 0a3e bbbd
00000350: e01c 243e 09bc 19bd 8950 8c3e 031d 23be
00000360: 01ab 13be 12ae d8bd c6c0 9fbd 6135 02be
00000370: 7e18 0a3e 5eaa 41be de04 30bd 9b48 62be
00000380: 5915 0c3e a691 6fbd 37c1 483e c296 ffbd
00000390: aa6b 343e a2a4 243e eef1 1d3e 6577 93bd
000003a0: 2776 31bd a75d 603e a8aa 04be 9c48 463e
000003b0: d96e 33be 38f9 313e 5686 2a3e 79f3 993b
000003c0: ca94 41be 8b28 cfbd 52f8 8dbd 83da 683e
000003d0: 9b80 6ebd f2ea 273e 2290 a9bc 53d2 63bd
000003e0: 8de5 3a3e 9d31 273e e89b 00be bea6 433e
000003f0: 83b5 e13d ed71 3b3e 44c4 5a3c 736b d5bc
-0.040559903 0.023966357 -0.20244823 0.16954544 -0.04527872 0.1604285 0.24245124 -0.029149693
-0.23278189 0.16772369 0.27329993 0.16106227 0.31929857 -0.1664828 -0.024827786 -0.029933136
-0.056335 0.18690836 0.13402195 -0.20948032 -0.23640458 -0.15664385 -0.024405861 0.14654244
-0.09750957 0.13927287 0.14295627 -0.05812439 -0.10016033 0.16162854 0.19081447 0.13334632
-0.21651426 0.111101165 0.24039924 -0.1238736 0.03647829 -0.023912279 0.057408895 0.2885766
-0.17932133 0.29096872 0.32617792 -0.25582927 -0.1018076 0.25718564 0.010817864 0.30613065
0.10823383 -0.3048462 0.19060257 0.16872095 -0.011976047 -0.15715353 -0.19316486 -0.11093
-0.05837624 0.11410729 -0.0117176 -0.07570935 -0.21467203 0.021725025 -0.1737752 -0.20904467
-0.0008935421 -0.14171256 0.05341944 -0.24042737 0.24432045 -0.13797583 0.102646954 -0.0019064603
-0.14848603 0.0327277 -0.11512284 0.087511756 -0.040339574 0.09247004 -0.054054793 0.061974466
0.11020792 0.22564302 0.0842987 0.14433697 0.17883731 -0.25924018 0.21555273 -0.019446027
0.32181656 0.24903816 0.10545691 -0.20265985 -0.047000706 0.12711753 0.15109211 -0.14913629
0.023861667 -0.067593485 -0.23298568 0.15047969 -0.21418679 0.20437033 0.05102058 -0.105011635
-0.004447534 -0.17968777 -0.19181 0.20883626 0.041000083 -0.05367163 -0.09919512 0.12846829
-0.0016286384 -0.14724053 0.22443388 -0.11112537 -0.060648773 0.19335853 -0.13919389 -0.06944975
0.072027974 -0.25248954 0.21046388 0.2507469 -0.08101859 -0.06486146 -0.18420027 0.07309692
0.17494828 0.14669076 -0.20492104 -0.20515785 -0.13601606 -0.24943408 0.15489033 0.21868162
0.17718077 -0.21749152 0.18635559 0.15474011 0.2354284 0.027973771 0.0034608159 -0.17510566
-0.22251917 -0.19207753 -0.21525148 0.20458132 0.12499441 -0.09831154 0.038279038 -0.099088475
0.05453972 -0.18135905 -0.072790794 0.08842988 0.04812968 0.13150343 -0.10518206 0.16515703
0.024416488 -0.054247852 0.14061667 0.11131666 0.18527503 0.17724435 -0.061893918 -0.18413185
0.049954172 0.07403713 -0.2591967 0.06541137 0.2576892 0.07581262 -0.02040842 0.058482625
0.20894195 -0.16324082 0.13956279 0.044783425 -0.21868001 0.17490876 -0.26276502 -0.075967275
0.08959883 0.24516238 0.09941663 -0.18472831 0.038880363 0.015939953 0.07650287 0.1715707
0.18069412 -0.2460521 0.17067215 -0.119104624 -0.103740275 0.06767179 0.119885944 -0.1635919
-0.085391164 0.21687691 -0.13560183 0.14925946 0.0503001 -0.102191016 -0.27058068 0.061870687
0.18797252 0.25975373 0.13512784 -0.091426924 0.1602664 -0.03753284 0.27405193 -0.15929036
-0.14420702 -0.10580076 -0.078004405 -0.12715675 0.13485906 -0.18912646 -0.04297339 -0.2209801
0.13680018 -0.05848851 0.19604956 -0.12479927 0.17619196 0.16078427 0.1542432 -0.07200507
-0.04332557 0.21910726 -0.12955725 0.19363636 -0.17522754 0.17380226 0.16652808 0.0046982137
-0.18904415 -0.10115155 -0.06932129 0.22739606 -0.058228116 0.16398218 -0.02069861 -0.055620503
0.18251629 0.1632752 -0.12559474 0.19106576 0.11020949 0.18305178 0.013352457 -0.026052212

decoder_layers.block_0.conv.bias f4 [72]
00000000: df82 4a3d b974 34be 6d28 16bd c8f7 053e
00000010: f681 dcbd 878d cc3d a782 d4bc 3521 343e
00000020: 147a 36be 4b0f 2fbd 2152 e73d 3e5a 0bbe
00000030: 81b9 5d3e 5ba9 8ebd e5fb 47be 24ec 123e
00000040: b4fb 193e 2db3 cbbd 4a06 913d dbbb 6f3d
00000050: 58da 783e 4340 fa3d 870d eb3d b9c1 133e
00000060: 334a 4ebe 2629 483e 4c6f 303e b5d6 213e
00000070: 21dc 4bbd f6d7 a5bd d2d8 a23d 32cf 8fbd
00000080: 65df 20be 8c9e 0e3e f6e1 ab3d 4446 e03a
00000090: 42c5 76bd a015 953b 3bd3 c3bc ae58 ffbd
000000a0: 72e0 9f3c dcd8 2d3e e393 91bd 5bcb 273e
000000b0: 6ac9 51be 5bec 483e d847 6abc 563f 323c
000000c0: 59a6 e83d 7dea 0b3d 1f82 1ebe a487 23be
000000d0: 0022 6e3e 3133 4a3c d1c6 afbd d688 ed3d
000000e0: 3ad2 d43d 4482 d4bd 0c40 5b3e 34cf 543e
000000f0: 9b6e 163e dcd3 82bd 7dc4 a93b 293b 28be
00000100: 5d41 44be 8831 e43d ab34 14bd 1286 2e3e
00000110: 337b 0dbe d1c2 d4bd f11c 59be 7acb 8a3d
0.049441215 -0.17622651 -0.036659647 0.13082802 -0.107669756 0.09987932 -0.025941206 0.17590792
-0.17820007 -0.042739194 0.11294962 -0.13608643 0.21652795 -0.06965896 -0.19529684 0.14347893
0.15037423 -0.099462844 0.07081278 0.058528762 0.24302042 0.12219288 0.114771895 0.14429368
-0.20145492 0.19546947 0.17229956 0.1580456 -0.04977048 -0.08097832 0.079515114 -0.07021941
-0.15710218 0.13927668 0.08392708 0.0017110785 -0.060246713 0.004549697 -0.023904433 -0.12468086
0.019516204 0.16977257 -0.07108285 0.16386168 -0.2048699 0.19621412 -0.014299355 0.010879358
0.11359853 0.034159172 -0.15479325 -0.15969712 0.23255157 0.012341307 -0.08582843 0.11598365
0.1039166 -0.10376409 0.2141115 0.20782167 0.1469063 -0.06388065 0.005180894 -0.16428818
-0.19165559 0.1114226 -0.03618304 0.17043331 -0.13816528 -0.10388721 -0.21202447 0.06777091
