trainedModels/speed/range/skip/upper/run1/model.pt (torch, 105257 bytes, 19 tensors)

init.weight f4 [16, 1, 1, 1]
0	0x3f86bd7f	1.052658
1	0x3f3256fb	0.6966397
2	0x3f6708d4	0.90247846
3	0xbf4f778f	-0.81041807
4	0xbf2e0a03	-0.67984027
5	0xbf8e9fcb	-1.1142515
6	0x3fa17647	1.261422
7	0x3f3e48fd	0.7433012
8	0xbf262eb5	-0.6491502
9	0x3f4deb2f	0.80436987
10	0xbf81632b	-1.0108389
11	0xbf6f2e63	-0.93430156
12	0x3f85297a	1.0403283
13	0x3f8d9098	1.1059752
14	0xbf676085	-0.9038165
15	0x3f36f744	0.7147105

init.bias f4 [16]
0	0x3bd28fb7	0.0064258236
1	0xbca2629e	-0.019822415
2	0xbd9ccc37	-0.076561384
3	0xbd77318b	-0.060349982
4	0xbdc4e742	-0.096144214
5	0xbe985a15	-0.29756227
6	0x3db59c5c	0.08867714
7	0xbd17cde5	-0.03706159
8	0xbe1f53dd	-0.15559335
9	0xbd28d113	-0.041215014
10	0xbd88d8dc	-0.06681988
11	0xbcf78145	-0.030213008
12	0x3e4f3843	0.20236306
13	0x3be93740	0.007117182
14	0x3dc2a2d5	0.09503714
15	0xbe42851b	-0.18996088

encoder_layers.block_0.transition.weight f4 [16, 32, 3, 3]
0	0x3de0df31	0.109800704
1	0x3e41edf4	0.18938428
2	0x3dd69c7c	0.10479066
3	0x3de15b58	0.110037506
4	0x3ede35d2	0.43400437
5	0x3d9286c0	0.07154608
6	0x3d9337eb	0.071884
7	0xbccda43d	-0.025102729
8	0x3d7220f3	0.059113454
9	0x3c85cffc	0.016334526
10	0x3db3e7e4	0.08784464
11	0x3d834658	0.064099014
12	0x3d66d070	0.056351125
13	0x3e932f26	0.2874691
14	0x3de41d63	0.111384176
15	0x3d5f4d36	0.054516993
16	0x3c187d54	0.009307224
17	0x3d7112c6	0.058855794
18	0x3cfb3682	0.03066564
19	0x3df81610	0.12113583
20	0x3d5cfba5	0.053950924
21	0x3e11dc87	0.14244281
22	0x3e8e7686	0.278248
23	0x3e1a3801	0.15060426
24	0x3dcc3b91	0.09972299
25	0x3d5ff021	0.054672364
26	0x3ddf20a1	0.10894895
27	0xbdd19811	-0.102340825
28	0xbd942a98	-0.072346866
29	0xbd173f31	-0.0369255
30	0xbd67d517	-0.056599703
31	0xbddff43c	-0.10935256
32	0xbd4fdd1f	-0.050747987
33	0xbd86d74c	-0.06584033
34	0xbb95ba0a	-0.0045692967
35	0x3be50755	0.0069893994
36	0xbcc8ab28	-0.024495676
37	0xbd6ecb17	-0.05829915
38	0xbd6cfd17	-0.057858553
39	0xba31e643	-0.0006786326
40	0xbd28899f	-0.04114687
41	0x3b5e1a98	0.0033890363
42	0xbb2c45aa	-0.002628664
43	0xbcdb41a7	-0.026764704
44	0x3c71c3d1	0.014756159
45	0xbd27efad	-0.041000057
46	0xbd246382	-0.04013396
47	0xbc7754be	-0.015095888
48	0xbc983d82	-0.018584017
49	0xbd58b5bc	-0.05290769
50	0xba9723db	-0.0011531072
51	0xbce7b3b2	-0.028283928
52	0x3b249903	0.0025115616
53	0x3c5cc2d7	0.013474188
54	0x3dd363f1	0.10321797
55	0x3e2d5a81	0.16929056
56	0x3dc26d15	0.09493462
57	0x3de7af29	0.11312706
58	0x3eaa535a	0.33266717
59	0x3dc69bc3	0.09697678
60	0x3d93362a	0.07188065
61	0xbaa5e6c7	-0.0012657278
62	0x3d900b53	0.0703341
63	0x3d14c149	0.036317144
64	0x3e0ae5cc	0.13564223
65	0x3deb7f0b	0.11498841
66	0x3dd3a5d6	0.10334365
67	0x3ea56dee	0.32310432
68	0x3e10de59	0.14147319
69	0x3daab8a3	0.08335998
70	0x3d6925ff	0.056921
71	0x3dde83e2	0.108649984
72	0xbd105681	-0.035238747
73	0xbd254bfc	-0.040355667
74	0xbc16a85c	-0.009195413
75	0xbb5a8755	-0.0033344824
76	0xbd4e84ab	-0.05041949
77	0xbcb10529	-0.021608906
78	0xbd111691	-0.03542191
79	0x3cec86a5	0.028872797
80	0x3bb0f171	0.005399876
81	0x3d3e084f	0.046394642
82	0x3e26a70f	0.16274665
83	0x3db44927	0.08803015
84	0x3e1d9968	0.15390551
85	0x3ec9a26c	0.3938173
86	0x3de6a5b8	0.11262077
87	0x3d9ddcb4	0.077081114
88	0x3da9ac48	0.08284813
89	0x3dcd070e	0.10011111
90	0xbe061558	-0.1309408
91	0xbdf57534	-0.11985245
92	0xbdbfd900	-0.09367561
93	0xbdf52aaf	-0.11971032
94	0xbe86db0a	-0.2633899
95	0xbd66a034	-0.056305125
96	0xbd9f571c	-0.07780287
97	0xbd25dee4	-0.04049577
98	0xbcc67f82	-0.024230722
99	0xbde4a8b0	-0.11164987
100	0xbe3b5eef	-0.18297933
101	0xbdb994a2	-0.090615526
102	0xbe0d699b	-0.13809817
103	0xbedaaf9d	-0.42712107
104	0xbd89b326	-0.06723623
105	0xbde8744f	-0.11350309
106	0x3c1f444c	0.009720873
107	0xbd9c3da4	-0.076289445
108	0x3d830923	0.06398227
109	0x3cb4be20	0.022063315
110	0x3d686eaa	0.056746162
111	0x3d31db2d	0.043421913
112	0x3d617d06	0.055050872
113	0x3ce17bb1	0.027524801
114	0x3d39688f	0.04526573
115	0x3c0e21f4	0.008675087
116	0xbbf61af9	-0.0075105396
117	0x3d852453	0.06501069
118	0x3e46c91e	0.19412658
119	0x3e12b5b2	0.14327124
120	0x3e1f0239	0.15528192
121	0x3ef972bf	0.48720357
122	0x3dade52a	0.08490975
123	0x3de5f57f	0.11228465
124	0x3cc41ed1	0.023940476
125	0x3d9c3011	0.076263554
126	0xbccf3503	-0.025293833
127	0xbdabd193	-0.083895825
128	0xbd6d500a	-0.05793766
129	0xbde46db0	-0.11153734
130	0xbe8f7daa	-0.28025562
131	0xbdeb0316	-0.11475198
132	0xbdb0a4aa	-0.08625157
133	0xbd46e995	-0.048562605
134	0xbdd7695a	-0.10518141
135	0x3c93f232	0.018059824
136	0x3d39b153	0.045335125
137	0x3bb39b23	0.00548114
138	0x3d49dbc3	0.049281847
139	0x3db06818	0.08613604
140	0x3da27e76	0.07934277
141	0x3d207696	0.039175592
142	0x3d4168ba	0.047219016
143	0x3d82211b	0.063539706
144	0xbd7a6dc5	-0.06113984
145	0x3cd10d59	0.02551906
146	0xbda5850f	-0.080820195
147	0xbd39d679	-0.045370553
148	0xbe12cd64	-0.14336163
149	0xbe28d569	-0.1648766
150	0xbe35aa16	-0.17740664
151	0xbe498a6d	-0.19681711
152	0xbdcae2c9	-0.09906537
153	0x3e130cd6	0.14360365
154	0x3dcc67b6	0.09980719
155	0x3e173958	0.14767969
156	0x3dede8bb	0.116166554
157	0x3ea501b1	0.32227853
158	0x3dabd8a7	0.083909325
159	0x3dd876eb	0.10569557
160	0x3dc5db26	0.0966094
161	0x3e528930	0.20560145
162	0xbcfd7bb4	-0.030942775
163	0xba1dd0b3	-0.00060201733
164	0x3d3ee857	0.046608295
165	0xbe087858	-0.13327157
166	0x3e1196b5	0.14217646
167	0x3d81c7ac	0.063369125
168	0xbd69aba1	-0.057048444
169	0x3d26eef4	0.040755227
170	0xbb650391	-0.0034944753
171	0xba4e951c	-0.00078804954
172	0x3d4c440d	0.049869586
173	0x3d838912	0.064226285
174	0xbd05d1b3	-0.032670688
175	0xbe4bd55d	-0.1990561
176	0x3d9a2a2b	0.07527574
177	0x3dd6317a	0.10458656
178	0x3cdb357a	0.026758898
179	0x3d7eb7b0	0.062186897
180	0xbd57e84a	-0.052711762
181	0xbd41414d	-0.047181416
182	0xbdc97c4f	-0.09838163
183	0xbcea1265	-0.028573224
184	0xbe0efc49	-0.13963427
185	0xbd9b51d1	-0.075839646
186	0xbd8b5119	-0.068025775
187	0xbdb7cc49	-0.08974511
188	0xbdc0587c	-0.09391877
189	0xbd18b633	-0.037283134
190	0xbd08ab0a	-0.03336624
191	0xbd116760	-0.035498977
192	0xbd76e32c	-0.06027524
193	0xbe7a0c9d	-0.24418874
194	0xbd27ee98	-0.040999025
195	0x3b274c4c	0.0025527654
196	0xbdfc0525	-0.12305669
197	0x38e81ebd	0.000110683475
198	0xbc1318b9	-0.008978062
199	0x3c999d00	0.018751621
200	0xbd929014	-0.07156387
201	0xbbfbe440	-0.0076871216
202	0xbd9007c4	-0.07032731
203	0xbd3a7ec3	-0.045531046
204	0xbd1f38ac	-0.038872406
205	0xbc6dbb9c	-0.014510062
206	0x3bd14e4a	0.0063875066
207	0x3e02ad3b	0.12761395
208	0x3da465a1	0.08027197
209	0x3dc401b5	0.09570638
210	0x3dfcb7de	0.123397574
211	0x3e9011fe	0.28138727
212	0x3df2b5b8	0.11851066
213	0x3da2303f	0.079193585
214	0x3da639ac	0.08116469
215	0x3da89b6c	0.08232769
216	0x3d0763f8	0.033054322
217	0xbd816399	-0.06317825
218	0x3d096e1b	0.03355227
219	0x3d3b77d7	0.045768585
220	0x3e52dbde	0.20591685
221	0x3d084778	0.033271283
222	0xbbee7d68	-0.007278133
223	0x3de55b08	0.111990035
224	0x3c46f5e0	0.012143582
225	0xbc81375b	-0.015773466
226	0xbc61b14e	-0.013775183
227	0xbce2e0bf	-0.027695058
228	0xbca4b751	-0.020106943
229	0xbdea8a14	-0.114521176
230	0xbd9043c8	-0.07044178
231	0x3ccbffb2	0.024902198
232	0xbd11ecab	-0.035626095
233	0xbd40af50	-0.04704219
234	0xbd502bbb	-0.050822955
235	0x3de01ed0	0.10943377
236	0x3c7def20	0.015498906
237	0x3c87226a	0.016495902
238	0xbdd04e53	-0.10171189
239	0xbc864c0e	-0.016393688
240	0x3906d2c4	0.00012857752
241	0xbd6e164f	-0.058126744
242	0xbdeee900	-0.11665535
243	0xbc547fab	-0.012969892
244	0x3d372c75	0.044720132
245	0x3cc54d47	0.0240847
246	0x3d2e50f4	0.04255767
247	0xbd7235d0	-0.05913335
248	0x3d3cb298	0.046068758
249	0x3d39ef4a	0.04539422
250	0x3d4b2758	0.049598068
251	0x3de0e9ba	0.1098208
252	0xbd040150	-0.032227814
253	0xbc087d49	-0.008330652
254	0xbe8fd5c8	-0.2809279
255	0x3e32a63d	0.17446227

encoder_layers.block_0.transition.bias f4 [16]
0	0xbcb5b24d	-0.022179747
1	0x3d9a538c	0.075354666
2	0x3e1f776f	0.15572904
3	0xbd5dae1a	-0.054121114
4	0x3dddaf34	0.10824433
5	0x3d1dd0a4	0.038529053
6	0x3bb026a0	0.005375698
7	0xbc472e22	-0.012156995
8	0x3c2e3fec	0.010635357
9	0x3d82da00	0.063892365
10	0x3b9a5be6	0.004710662
11	0xbd41c075	-0.047302682
12	0x3e2295ba	0.15877429
13	0xbd1738ad	-0.036919285
14	0x3e11e863	0.14248805
15	0x3dd9249a	0.10602684

encoder_layers.block_0.conv.weight f4 [64, 32, 1, 1]
0	0x3d97ca0c	0.07411584
1	0x3e217052	0.15765503
2	0x3db3367e	0.08750628
3	0xbe23dde2	-0.1600261
4	0x3e29f2cb	0.16596524
5	0xbbcbd6db	-0.006220681
6	0xbe064527	-0.13112317
7	0xbdc229ef	-0.094806544
8	0xbdd9d69d	-0.10636637
9	0x3e4cbe72	0.19994524
10	0xbd304095	-0.04303034
11	0xbd10edd3	-0.035383057
12	0x3c6a4c6a	0.014300445
13	0x3cedb9c5	0.029019246
14	0x3e78171c	0.24227566
15	0xbc614463	-0.013749215
16	0x3c0b7be1	0.008513422
17	0x3dfb5306	0.12271695
18	0x3d73a90f	0.0594874
19	0x3e2eb5ec	0.17061585
20	0x3dc6cd85	0.097071685
21	0xbd035758	-0.03206572
22	0x3eee35cd	0.46525422
23	0xbe9d1df0	-0.30686903
24	0x3dff529c	0.12466928
25	0x3da8392b	0.08214029
26	0xbdcaa6cd	-0.09895096
27	0xbe2839a3	-0.16428237
28	0x3c3fc4b0	0.011704609
29	0x3d13586f	0.03597301
30	0x3d8d237a	0.06891532
31	0xbdfd9004	-0.123809844
32	0xbe89ada7	-0.268903
33	0xbdf4a26d	-0.11945043
34	0x3ea36929	0.31916168
35	0x3df666bf	0.12031316
36	0x3e3a3e04	0.1818772
37	0x3e8e1a93	0.2775465
38	0xbdc22de6	-0.09481411
39	0x3daaf46d	0.08347402
40	0x3d092641	0.033483747
41	0x3d6ef8a6	0.0583426
42	0xbe396f08	-0.18108761
43	0xbd85d187	-0.06534105
44	0x3d96cf13	0.07363715
45	0xbd98d99b	-0.0746338
46	0xbd79f22d	-0.061021972
47	0xbe353a81	-0.17698099
48	0xbd05607e	-0.032562725
49	0x3dd64345	0.104620494
50	0x3e8eec1a	0.27914506
51	0xbe82f949	-0.25580814
52	0x38cdef72	9.819762e-05
53	0x3d409ad2	0.04702265
54	0x3d128683	0.03577281
55	0xbe43146c	-0.19050759
56	0xbb9a1aeb	-0.004702916
57	0x3c8b7ba8	0.017026737
58	0xbe453415	-0.19258149
59	0xbe26a115	-0.16272385
60	0x3d2e9739	0.042624686
61	0x3e393f50	0.18090558
62	0xbcc82269	-0.02443047
63	0xbe8fd3ff	-0.28091428
64	0xbe2c429d	-0.16822286
65	0xbd59636b	-0.053073328
66	0x3b38da1d	0.0028206178
67	0xbc29cbe0	-0.010363549
68	0xbe1341c1	-0.14380552
69	0xbae6c070	-0.0017604958
70	0xbd0e26d8	-0.034705013
71	0xbd43e63d	-0.047826994
72	0x3d170e0f	0.03687864
73	0xb93ec1a7	-0.00018191953
74	0xbd69402c	-0.056945965
75	0x3b62af74	0.0034589441
76	0x3d29b0e6	0.04142847
77	0xbd2fd84b	-0.042930882
78	0x3e073548	0.13203919
79	0xbd47513a	-0.048661448
80	0x3dc55209	0.096347876
81	0xbc8f0014	-0.017456092
82	0x3e3d7cf2	0.18504694
83	0xbd20152b	-0.039082687
84	0xbd247b06	-0.040156387
85	0x3d88001e	0.06640647
86	0xbca80bcc	-0.020513438
87	0xbe35011b	-0.17676203
88	0x3d669820	0.05629742
89	0xbcf04f0b	-0.029334566
90	0xbd8a5a01	-0.06755448
91	0xbd356941	-0.04428983
92	0x3e21765e	0.1576781
93	0x3e0bb90a	0.13644806
94	0x3da40cbb	0.08010241
95	0xbdc6834d	-0.096930124
96	0x3d1a1621	0.03761876
97	0x3ec828e3	0.39093694
98	0xbda8432f	-0.08215939
99	0xbe49aa1e	-0.19693801
100	0x3ed48a7d	0.41511908
101	0xbe02c12d	-0.12769003
102	0xbe9a2ef0	-0.30113935
103	0xbe8c9872	-0.27460057
104	0xbe8db4f4	-0.2767712
105	0x3e88275f	0.26592538
106	0x3e735fd9	0.23767032
107	0xbe9a0032	-0.30078274
108	0x3e9b57a0	0.3034029
109	0xbec45469	-0.3834565
110	0xbe460a92	-0.1933997
111	0x3e83e1ef	0.2575831
112	0xbe2a16d2	-0.16610268
113	0x3dbccf2c	0.092192024
114	0x3c5ab312	0.013348358
115	0x3e13c6f9	0.14431371
116	0x3dfc3960	0.12315631
117	0x3ce7cade	0.028294977
118	0x3e997bd7	0.29977295
119	0xbe12d86d	-0.14340372
120	0xbdfe9452	-0.124306336
121	0x3ee06867	0.43829653
122	0xbe8e0d8a	-0.27744704
123	0xbe43d496	-0.19124064
124	0x3dd4aac2	0.10384132
125	0x3e2c0047	0.16796981
126	0x3ecf7d58	0.40525317
127	0xbcb24f96	-0.021766465
128	0x3cb62963	0.022236532
129	0x3e502dc1	0.20329954
130	0x3e803a30	0.25044394
131	0xbe0b6d0b	-0.13615815
132	0x3e927e5a	0.28612024
133	0x3d0ba90e	0.03409677
134	0xbd613a5c	-0.054987296
135	0x3dec4f7c	0.11538598
136	0xbe263b84	-0.16233641
137	0xbd42e33b	-0.047579985
138	0xbde45f38	-0.11150974
139	0x3ded4797	0.1158592
140	0x3c5bdefc	0.013419863
141	0x3dc8efca	0.09811361
142	0x3eb37a20	0.3505411
143	0x3eb231b3	0.34803542
144	0x3c3bfaf3	0.011473405
145	0x3c4ed610	0.012624279
146	0x3d17266a	0.03690187
147	0xbcf20678	-0.0295441
148	0xbe105040	-0.14093113
149	0x3e32c819	0.17459144
150	0x3e4abb6a	0.19798055
151	0xbca9b465	-0.020715902
152	0xbded9608	-0.11600882
153	0x3dcd4210	0.10022366
154	0xbd772dd4	-0.06034644
155	0xbe900890	-0.28131533
156	0x3db865a2	0.0900376
157	0x3dc6b4d8	0.09702462
158	0xbcfcf9c0	-0.030880809
159	0xbdfedaf2	-0.12444104
160	0x3e5065d6	0.20351347
161	0x3efeba24	0.4975139
162	0x3ec01dcd	0.37522736
163	0xbec62160	-0.38697338
164	0x3ef469b9	0.4773691
165	0xbe4c1bf3	-0.19932537
166	0xbec303ea	-0.38088924
167	0xbf01bf5a	-0.50682604
168	0x3d6e2d73	0.058148813
169	0x3edf1291	0.43568853
170	0xba076c0b	-0.0005165941
171	0xbf199ef0	-0.60008144
172	0x3efd0501	0.4941788
173	0xbef4b881	-0.47797015
174	0x3e2584bc	0.16163915
175	0x3edf311c	0.43592155
176	0xbe9ed361	-0.31020644
177	0x3f1133fe	0.5671996
178	0x3e487305	0.19575126
179	0xbca05ae7	-0.019574596
180	0x3d967581	0.07346631
181	0xbe92ac62	-0.28647143
182	0x3e8e0a5f	0.27742288
183	0xbd188cfd	-0.037243832
184	0x3cbe8d89	0.023260849
185	0x3e8580f7	0.26074955
186	0xbefbd6f0	-0.49187422
187	0xbecf091f	-0.40436646
188	0xbf3deb46	-0.74187124
189	0x3da00887	0.078141265
190	0x3d9977a0	0.0749352
191	0x3e28872f	0.16457818
192	0x3d8b3b8d	0.06798468
193	0x3e303fcd	0.17211838
194	0x3c531689	0.012883791
195	0x3e1b7a0b	0.15183274
196	0x3e595e8f	0.21227477
197	0xbd6079a5	-0.05480351
198	0xbd175ff2	-0.036956735
199	0x3c4d9e45	0.012549941
200	0xbd1704a0	-0.036869645
201	0x3c4f63e9	0.012658098
202	0xbe1a3c62	-0.15062097
203	0xbd6fd7a1	-0.05855525
204	0xbce2bd26	-0.027678084
205	0x3d166263	0.036714923
206	0xbdfb6ef7	-0.12277024
207	0x3d618eb5	0.055067737
208	0xbd42e41d	-0.047580827
209	0x3ebfed67	0.3748581
210	0x3e5fceb4	0.21856195
211	0xbc30d47f	-0.0107928505
212	0xbe089848	-0.1333934
213	0x3d793e1e	0.060850255
214	0x3daeadd4	0.08529249
215	0xbe191a18	-0.1495136
216	0xbdbda3c7	-0.09259754
217	0x3d8a25e7	0.067455105
218	0xbe816102	-0.25269324
219	0x3d15f5ff	0.036611553
220	0xbe90a4aa	-0.2825063
221	0x3dda704e	0.10665952
222	0x3e88ffed	0.26757756
223	0x3e64c466	0.22340545
224	0x3dbff090	0.093720555
225	0x3d9a5f3e	0.07537697
226	0xbe0e756e	-0.13911983
227	0xbdca5915	-0.09880272
228	0x3c22c1e8	0.009933926
229	0xbe2f3e2d	-0.17113562
230	0x3cd3415b	0.025788
231	0x3e07e8b6	0.13272366
232	0xbe0b94fa	-0.13631049
233	0x3e11a902	0.14224628
234	0x3d8f1d33	0.06987991
235	0xbc7ce371	-0.015435086
236	0xbe1f915d	-0.15582795
237	0x3e051cf5	0.12999327
238	0xbe14c3f6	-0.14527878
239	0xbdca922b	-0.098911606
240	0x3cce081e	0.025150355
241	0x3e528ded	0.20561953
242	0x3e0feb6b	0.14054649
243	0xbd743ebf	-0.05963015
244	0xbe02d5f6	-0.12776932
245	0x3de696b0	0.1125921
246	0x3e520e11	0.20513178
247	0xbe274d3a	-0.16338053
248	0xbe3aeb81	-0.182539
249	0xbc9f29e1	-0.01942915
250	0xbcea7a12	-0.02862266
251	0xbe010358	-0.12598932
252	0xbdb1df63	-0.08685186
253	0xbe51cadc	-0.20487541
254	0xbd3c3568	-0.04594937
255	0x3e2530d2	0.16131905

encoder_layers.block_0.conv.bias f4 [64]
0	0x3d8ab3fc	0.067726105
1	0x3de49033	0.11160316
2	0x3d19cd21	0.03754914
3	0x3e89de82	0.26927572
4	0xbc988df0	-0.018622369
5	0x3f0c9fa8	0.54931116
6	0x3dd24378	0.10266775
7	0xbdd8a435	-0.10578195
8	0xbd3aeee5	-0.045637984
9	0x3e0bf502	0.13667682
10	0x3e22a80f	0.15884422
11	0xbd2fbde8	-0.042905718
12	0x3e7086ea	0.23488966
13	0x3f976d5d	1.183025
14	0x3d8cda71	0.06877602
15	0x3f0986d6	0.5372137
16	0xbc5e9b75	-0.0135868685
17	0x3dc25803	0.09489443
18	0x3e1b0528	0.15138686
19	0x3d712dfc	0.058881745
20	0x3df8da10	0.12150967
21	0x3e11e89e	0.14248893
22	0x3dc2a657	0.09504383
23	0x3ea52ce5	0.32260814
24	0x3ec461f2	0.38355976
25	0x3dbd3025	0.092376985
26	0xbbefb561	-0.007315323
27	0xbd449fb7	-0.04800388
28	0x3e0150fe	0.12628552
29	0xbd28be58	-0.04119715
30	0x3e353726	0.17696819
31	0x3c6b94dc	0.014378753
32	0x3ab409ee	0.001373587
33	0x3e83bcb4	0.25729907
34	0x3e340f15	0.17583878
35	0x3e9cbed3	0.30614337
36	0xbb9403b7	-0.0045170444
37	0x3f55836e	0.8340367
38	0x3e162377	0.14661966
39	0x3dac51f6	0.0841407
40	0x3e3bcbc8	0.18339455
41	0x3debfb64	0.11522558
42	0x3be7fa8c	0.007079428
43	0x3dd5fa7f	0.10448169
44	0x3e9dc9be	0.3081798
45	0x3f9d89e7	1.230771
46	0x3d264f72	0.04060311
47	0x3f29ad38	0.66279936
48	0x3d839217	0.06424349
49	0x3bd0d806	0.0063734083
50	0x3dc3e4ec	0.09565148
51	0xbd9e1884	-0.0771952
52	0xbdb1e013	-0.08685317
53	0xbd370d4a	-0.044690408
54	0x3cfe2db7	0.031027658
55	0xbd76351a	-0.060109235
56	0xbd20e4a9	-0.039280567
57	0x3cd85815	0.026409188
58	0xbd50c955	-0.050973255
59	0x3a32b362	0.0006816891
60	0xbd0aa1ca	-0.0338457
61	0x3d578142	0.052613504
62	0x3d27c714	0.04096134
63	0x3c84ea04	0.016224869

encoder_layers.block_1.transition.weight f4 [16, 32, 3, 3]
0	0xbc02850c	-0.007966291
1	0x3caca647	0.021075381
2	0xbd935dc6	-0.0719562
3	0x3d0bab08	0.034098655
4	0x3c21524e	0.009846283
5	0x3b88d7f8	0.004176136
6	0xbc4eb145	-0.012615507
7	0x3c55a6e0	0.013040274
8	0x3d5e3c22	0.054256566
9	0xbd8387d4	-0.064223915
10	0xbd36d184	-0.044633403
11	0xbde68532	-0.11255874
12	0xbd8e65b4	-0.06952992
13	0x3d9d47ff	0.07679748
14	0xbdd1289f	-0.10212826
15	0xbe071790	-0.13192582
16	0xbe136ce6	-0.1439701
17	0xbd933b0f	-0.07188999
18	0x3b04d36f	0.0020267626
19	0xbbaa2ed0	-0.0051935688
20	0x3cdaca98	0.026707932
21	0xbc8f036a	-0.017457683
22	0x3c04a652	0.0080962945
23	0x3c4b649b	0.012414123
24	0xbd0c061b	-0.03418551
25	0xbc3d133d	-0.011540231
26	0xbd708db5	-0.058728892
27	0x3d68e4ab	0.0568587
28	0xbce7804d	-0.02825942
29	0x3e009be2	0.12559465
30	0xbd9880be	-0.074464306
31	0xbe991f0e	-0.29906505
32	0x3c8649c9	0.016392605
33	0x3e153fea	0.14575163
34	0x3c4cbb2a	0.012495795
35	0x3dd99ae8	0.10625249
36	0x3dde44e2	0.10852982
37	0x3d96d2b4	0.07364407
38	0x3deff8dc	0.11717388
39	0x3d06019a	0.03271637
40	0xbe1f8695	-0.15578683
41	0x3d1425a3	0.036168706
42	0x3d8ad018	0.06777972
43	0x3d1bb64f	0.03801566
44	0x3d7fa439	0.062412474
45	0x3e0595c2	0.1304541
46	0xbdbfa504	-0.09357646
47	0x3e522e95	0.20525582
48	0xbdd9cfb2	-0.10635318
49	0xbf00d7a0	-0.5032902
50	0xbddbc8c7	-0.107316546
51	0x3e333d4b	0.1750385
52	0xbe281d76	-0.16417488
53	0x3e44af7d	0.19207568
54	0x3e015385	0.12629516
55	0x3ce7ef77	0.028312428
56	0xbbd7972b	-0.0065793
57	0x3d45ffa0	0.048339486
58	0x3ace9cf0	0.0015763324
59	0xbc0adb32	-0.008475112
60	0x3d611804	0.054954544
61	0xbc48e21c	-0.01226094
62	0x3d5f7295	0.054552633
63	0xbd439269	-0.04774705
64	0x3cc9a64c	0.02461543
65	0xbddd4500	-0.10804176
66	0x3c9e0d3e	0.019293424
67	0x3e06812b	0.13135211
68	0xbd5cf628	-0.05394569
69	0xbe493254	-0.19648105
70	0xbd0e6959	-0.034768436
71	0xbdea4b2a	-0.11440118
72	0xbde41e8a	-0.11138637
73	0xbd118383	-0.03552581
74	0xbdfd3bda	-0.123649314
75	0x3da7159a	0.08158417
76	0x3cf1847c	0.029482119
77	0xbd48f8ab	-0.049065273
78	0xbd8fcac1	-0.07021094
79	0x3d512631	0.051061813
80	0xbe0e80ee	-0.1391637
81	0x3d8e8f43	0.06960919
82	0x3ce03897	0.027370734
83	0x3cc86b4e	0.02446523
84	0xbd1147db	-0.035468917
85	0xbd97de2a	-0.07415421
86	0x3ce36200	0.027756691
87	0x3d450b25	0.04810633
88	0x3d6d1490	0.057880938
89	0x3d52d98e	0.051477008
90	0x3da89d6c	0.08233151
91	0xbaa3f96f	-0.001251025
92	0x3dca86b1	0.098889716
93	0xbdd64bfa	-0.1046371
94	0xbe6d8847	-0.23196517
95	0xbd742a9c	-0.059610948
96	0x3d56ac9d	0.05241071
97	0xbd852935	-0.06502
98	0x3d221422	0.03956998
99	0xbd3499ca	-0.044091977
100	0xbcc4c3ce	-0.024019148
101	0x3c9de700	0.019275188
102	0xbbfd1745	-0.007723721
103	0xbd897edf	-0.06713652
104	0x3da8c3b5	0.08240453
105	0x3c959608	0.018260017
106	0x3c8e4b54	0.017369904
107	0x3d755ea6	0.059904717
108	0x3e850872	0.25983006
109	0x3b84d4fe	0.004053711
110	0x3df85dfc	0.12127301
111	0x3d97f10a	0.074190214
112	0xbe303e7f	-0.1721134
113	0x3d22161f	0.039571878
114	0x3e9a3f8c	0.30126607
115	0xbc432322	-0.011910232
116	0x3dd19ce9	0.10235006
117	0x3cc2ec91	0.023794444
118	0x3e757601	0.23970796
119	0xbd2bd02a	-0.041946568
120	0x3ddda884	0.108231574
121	0x3e817ad1	0.25289014
122	0x3da4c006	0.08044438
123	0xbdb66489	-0.08905894
124	0x3d32d617	0.043661203
125	0xbde92b2b	-0.11385187
126	0x3d5afe5f	0.053465243
127	0x3c13a9b7	0.009012631
128	0x3e134b19	0.14384116
129	0xbba43484	-0.005011143
130	0xbdd801f4	-0.105472475
131	0x3dacc9c9	0.08436925
132	0x3dcd8d40	0.10036707
133	0x3d20c0bc	0.039246306
134	0x3e1a7bd4	0.15086299
135	0xbcec1635	-0.028819183
136	0xbdcd4882	-0.100235954
137	0xbd594a69	-0.05304948
138	0xbdf74fa5	-0.12075738
139	0xbe50e911	-0.20401408
140	0xbe574bb8	-0.21024978
141	0xbd0184e2	-0.031620868
142	0xbe64ad29	-0.2233168
143	0x3ca2263f	0.019793628
144	0x3c3d2e88	0.011546738
145	0xbd19a2a2	-0.037508614
146	0x3d38f158	0.04515204
147	0xbc7f4051	-0.015579299
148	0x3db78221	0.08960367
149	0xbc7e7d38	-0.015532784
150	0x3d80c450	0.06287444
151	0xbd229110	-0.039689124
152	0xbd00b3c9	-0.031421456
153	0xbd3130ad	-0.04325931
154	0xbe0b29d2	-0.13590172
155	0x3dd1dc4e	0.10247098
156	0xbdee6116	-0.116396114
157	0xbe6a5968	-0.22885668
158	0x3d5df4a8	0.0541884
159	0xbbbcc1f0	-0.005760424
160	0xbc63f582	-0.013913514
161	0x3dbd07b6	0.09229986
162	0x3dbb3da6	0.09142618
163	0xbdc97395	-0.09836499
164	0x3e00596c	0.12534112
165	0xbd83b6c3	-0.064313434
166	0xbe029df0	-0.12755561
167	0xbd39e388	-0.045383006
168	0x3e29f6dd	0.16598077
169	0xbd20e2ed	-0.039278913
170	0x3df2d672	0.118573084
171	0x3db2efe7	0.08737164
172	0x3e045c7b	0.12925903
173	0x3dbb07f1	0.09132374
174	0x3df38216	0.11890046
175	0xbd7146ba	-0.05890534
176	0x3d88a432	0.06671943
177	0x3de37c1f	0.111076586
178	0x3d76f691	0.060293738
179	0xbb9aa7de	-0.0047197184
180	0xbced944c	-0.029001378
181	0xbb375b8e	-0.0027978155
182	0xbdc2bab5	-0.09508268
183	0x3c498601	0.012300015
184	0x3d810e91	0.063016064
185	0xbca27143	-0.019829398
186	0xbdb939ae	-0.09044205
187	0xbd3a5144	-0.045487657
188	0xbd66c3e7	-0.05633917
189	0x3e5b1c73	0.21397571
190	0x3dc92856	0.098221466
191	0x3d5d7b2f	0.054072555
192	0x3e246d82	0.16057399
193	0x3e73ce3d	0.23809142
194	0xbc9ae132	-0.01890621
195	0x3daa18f8	0.08305544
196	0xbd3907d3	-0.045173477
197	0x3ca68f4b	0.020332
198	0xbdea879b	-0.11451646
199	0xbd09a1a3	-0.033601414
200	0xbe005338	-0.12531745
201	0x3ac7133c	0.0015188227
202	0x3ebf7598	0.37394404
203	0x3cdd47ef	0.02701184
204	0xbe265eb6	-0.16247067
205	0x3d0f644f	0.03500777
206	0xbe064651	-0.13112761
207	0x3e250342	0.16114524
208	0xbdc4f356	-0.09616725
209	0x3e80a9a6	0.2512943
210	0xbe159457	-0.14607368
211	0xbe98c843	-0.29840288
212	0xbe692b6e	-0.22770473
213	0x3e768e40	0.24077702
214	0xbe40bfd0	-0.1882317
215	0x3e6d0ca8	0.23149359
216	0x3cb331b9	0.021874296
217	0x3dc2bbf4	0.095085055
218	0xbd1afb60	-0.037837386
219	0x3de6e5fd	0.112743355
220	0x3e8f17a1	0.27947715
221	0x3d92f9ce	0.07176553
222	0xbcf690e3	-0.030098384
223	0x3e02a3ac	0.12757748
224	0xbccd259a	-0.025042344
225	0xbdbb0a47	-0.091328196
226	0x3cff810f	0.03118947
227	0xbe206a7e	-0.15665624
228	0x3dc0bcf1	0.09411038
229	0x3efabefc	0.48973835
230	0xbd2502ac	-0.04028575
231	0xbe079388	-0.13239872
232	0xbc4bb12a	-0.012432376
233	0xbe5e50a8	-0.21710455
234	0xbd99c580	-0.07508373
235	0x3cca3510	0.024683505
236	0xbc5f53fe	-0.013630865
237	0x3d8e4dda	0.06948443
238	0x3e5debd3	0.21671991
239	0xba8e72a0	-0.0010867901
240	0x3d1235fd	0.03569602
241	0x3d281118	0.041031927
242	0xbd273eba	-0.040831305
243	0x3cf49f32	0.029861066
244	0x3d7edcb4	0.062222198
245	0xbdb54f33	-0.08852997
246	0x3c9edf87	0.019393696
247	0xbdfa00b3	-0.122071646
248	0xbd4c31a2	-0.04985202
249	0xbdf49ef3	-0.1194438
250	0xbda9160d	-0.08256159
251	0xbda95907	-0.08268934
252	0x3b6fcf68	0.003659213
253	0x3d31053f	0.043217894
254	0x3c027d95	0.007964511
255	0x3d7b6e10	0.06138426

encoder_layers.block_1.transition.bias f4 [16]
0	0xbd129d5e	-0.03579461
1	0x3d1aeaee	0.037821703
2	0xbc98836f	-0.01861736
3	0xbdab8f08	-0.083768904
4	0x3d5925b0	0.053014457
5	0xbc970f43	-0.018439895
6	0xbd4554da	-0.048176624
7	0xbd2cd86d	-0.042198587
8	0x3b0372db	0.0020057473
9	0x3c1884a3	0.009308967
10	0x3cdba413	0.026811635
11	0x3c3d9eee	0.011573536
12	0xbcbf7da1	-0.023375334
13	0xb93aad82	-0.00017802979
14	0xbc493a16	-0.012281915
15	0xbdaa1a90	-0.08305848

encoder_layers.block_1.conv.weight f4 [64, 32, 1, 1]
0	0x3d4d398a	0.0501037
1	0x3d98ddbe	0.07464169
2	0x3ddd3b17	0.10802286
3	0xbdb9d57a	-0.090739205
4	0xbc632a16	-0.013865015
5	0xbdb64c29	-0.08901245
6	0xbd15954b	-0.03651933
7	0xbdab485d	-0.083634116
8	0x3eadb352	0.33925873
9	0x3dd68743	0.10475018
10	0xbe68a16e	-0.2271783
11	0xbcd3c7ff	-0.025852202
12	0x3d381099	0.044937704
13	0x3c570924	0.013124738
14	0x3db771ba	0.089572385
15	0x3d80bb02	0.06285669
16	0x3d5ec2b7	0.054384913
17	0x3e507312	0.20356396
18	0x3ccd90f3	0.025093531
19	0x3d13fcdd	0.03612982
20	0x3dff55c9	0.12467534
21	0xbe51b09c	-0.20477527
22	0xbc7a8dec	-0.015292626
23	0xbdb259cc	-0.08708534
24	0xbcb40eba	-0.021979678
25	0x3d1b9f91	0.03799397
26	0xbdb76faa	-0.08956845
27	0x3dabd9e8	0.08391172
28	0x3e958f27	0.2921078
29	0x3d529746	0.051413797
30	0xbd01fd4b	-0.0317357
31	0xbead51e2	-0.33851534
32	0x3e17d2e0	0.14826536
33	0xbdb66631	-0.0890621
34	0xbdd5f548	-0.10447174
35	0xbdf521c2	-0.119693294
36	0x3e9645ec	0.2935022
37	0xbf0dae01	-0.55343634
38	0xbdab8d01	-0.08376504
39	0x3e42ffe2	0.19042924
40	0xbcdfeeef	-0.027335612
41	0x3e861f89	0.26195934
42	0xbe7f0172	-0.24902895
43	0x3d195990	0.03743893
44	0xbc57b2e6	-0.013165211
45	0x3dc5dde7	0.09661465
46	0xbdf18d51	-0.11794532
47	0xbe273823	-0.16330008
48	0xbc3f72d1	-0.011685089
49	0xbe7c67f4	-0.2464903
50	0xbe9f449f	-0.3110704
51	0xbf07e591	-0.53084666
52	0xbcae03f9	-0.021242129
53	0xbd6e9b76	-0.058253728
54	0x3c3c04b8	0.011475734
55	0x3cdf9518	0.027292773
56	0x3e0da77c	0.13833421
57	0x3cdba9aa	0.0268143
58	0x3e8edb65	0.2790176
59	0x3e2c82c9	0.16846766
60	0xbf0bb6f3	-0.54576033
61	0x3ebc5f87	0.36791632
62	0xbf00c297	-0.5029692
63	0x3d70c566	0.058782004
64	0xbec282e9	-0.37990502
65	0x3e6d25c3	0.23158936
66	0xbd3ba535	-0.04581185
67	0x3ed8782a	0.42279178
68	0x3ed41ee9	0.41429833
69	0x3e03a430	0.12855601
70	0x3f748d30	0.95527935
71	0x3e1a7911	0.15085246
72	0xbee8de14	-0.45481932
73	0x3e714b97	0.23563991
74	0x3ee2f97d	0.4433097
75	0xbe5a093a	-0.21292582
76	0xbf02216f	-0.50832266
77	0x3e1ab605	0.15108497
78	0xbf228052	-0.6347705
79	0xbf07f26d	-0.5310429
80	0x3ed263bd	0.4109172
81	0xbdd6eadd	-0.10494015
82	0x3e178dc6	0.14800176
83	0xbdcf4190	-0.10119927
84	0x3f270e34	0.6525605
85	0x3cd77245	0.026299605
86	0xbe4618a7	-0.19345342
87	0x3ee856e1	0.45378783
88	0xbcbf3ed8	-0.023345396
89	0xbe4c82fc	-0.19971842
90	0xbd5bc1fe	-0.053651802
91	0xbe908a9d	-0.28230754
92	0xbef7209d	-0.4826707
93	0x3f03624f	0.5132188
94	0xbe0da06f	-0.13830732
95	0x3ec67818	0.387635
96	0xbeb59850	-0.35467768
97	0xbe454e2d	-0.19268103
98	0x3d8d6e22	0.06905772
99	0x3e944b85	0.28963867
100	0xbd971144	-0.0737634
101	0x3f81e1a0	1.014698
102	0x3e65b224	0.22431237
103	0x3dd2489e	0.10267757
104	0xbd939ec8	-0.072080195
105	0x3e55ffca	0.20898357
106	0x3f17c88b	0.5929038
107	0x3a59a745	0.0008302818
108	0x3daaa346	0.08331923
109	0xbe2f811e	-0.17139098
110	0xbcfa0ce9	-0.030523734
111	0xbe58794f	-0.21140026
112	0x3e03c0e0	0.12866545
113	0xbcc7f4ed	-0.024408782
114	0x3e5f6310	0.21815133
115	0x3e49c77e	0.19705006
116	0x3d8265cd	0.06367073
117	0xbe9d63bc	-0.30740154
118	0xbdfc63b5	-0.12323705
119	0x3ede7677	0.43449757
120	0xbe256e24	-0.16155297
121	0xbf0af239	-0.5427585
122	0xbb917901	-0.0044394736
123	0x3eafb0b5	0.34314504
124	0x3daf1ec8	0.08550793
125	0xbda53d5f	-0.08068346
126	0xbc21de07	-0.009879596
127	0xbe3c68ad	-0.18399306
128	0xbda7bced	-0.081903316
129	0xbd3e7d60	-0.046506286
130	0xbd824f85	-0.063628234
131	0xbe0737e6	-0.13204917
132	0xbd744d31	-0.059643928
133	0x3e9e7523	0.30948743
134	0xbe4a37b4	-0.19747812
135	0xbdb034c9	-0.08603818
136	0xbcc95fe4	-0.024581857
137	0x3e37e78f	0.17959426
138	0x3da80c44	0.082054645
139	0xbe20bb6a	-0.15696493
140	0x3e8cc9c1	0.27497676
141	0xbdfaf1f9	-0.12253184
142	0x3de00a74	0.10939494
143	0xbd9098fd	-0.0706043
144	0xbe35d0f1	-0.17755486
145	0x3e2e3b81	0.17014886
146	0xbdd72b2e	-0.10506283
147	0x3e8cf1d2	0.27528244
148	0xbd99e8ac	-0.07515082
149	0xbd717218	-0.0589467
150	0x3d05dddc	0.032682285
151	0x3ddee0ab	0.10882696
152	0xbe4df825	-0.20114191
153	0xbed8a8fe	-0.4231643
154	0xbccbf436	-0.024896722
155	0x3ddf7e50	0.10912764
156	0x3de189c4	0.11012605
157	0xbe587b2d	-0.21140738
158	0xbcf57e6b	-0.029967507
159	0x3df75e70	0.120785594
160	0x3e5645c4	0.20925051
161	0xbe843b9a	-0.25826722
162	0x3dbcb9fb	0.092151605
163	0xbbdca8e6	-0.0067340015
164	0xbba5700a	-0.0050487565
165	0xbe513895	-0.2043174
166	0xbd1fcb3c	-0.03901218
167	0xbd59c9ce	-0.05317097
168	0x3db46510	0.08808339
169	0xbe7974c6	-0.24360952
170	0x3da00c95	0.078149
171	0xbcc133d8	-0.023584291
172	0x3db76000	0.089538574
173	0xbdd2f25c	-0.10300133
174	0x3c8032b4	0.015649177
175	0x3d303dfc	0.043027863
176	0xbe0a3441	-0.13496496
177	0xbe745a8d	-0.23862667
178	0x3ebdaf36	0.37047738
179	0xbe133ea5	-0.14379366
180	0x3e05ba26	0.13059291
181	0x3b1f13f5	0.002427337
182	0xbe8d76bf	-0.2762966
183	0xbe34a870	-0.17642379
184	0x3cb30235	0.021851638
185	0x3f196a00	0.5992737
186	0x3e02300b	0.1271364
187	0xbc829c64	-0.015943713
188	0xbe356f56	-0.17718253
189	0x3dad253e	0.08454369
190	0xbcf38725	-0.029727528
191	0x3e9f91de	0.31165975
192	0x3dfb412c	0.1226829
193	0x3d45d903	0.04830266
194	0xbef18fe1	-0.47180083
195	0x3d872b02	0.066
196	0x3edd921c	0.43275535
197	0x3f1eb4e7	0.61994785
198	0x3ea82085	0.3283731
199	0xbba467fc	-0.0050172787
200	0xbf0aecff	-0.5426788
201	0x3e052ec9	0.13006128
202	0x3ef33557	0.47501633
203	0xbeed1a4a	-0.4630912
204	0xbc8148ee	-0.015781846
205	0xbde06af6	-0.10957901
206	0xbee9a19e	-0.45631117
207	0xbeb4d02c	-0.35315073
208	0x3ef26038	0.47339034
209	0x3dc67071	0.09689415
210	0xbf64bc22	-0.8934957
211	0x3ee1f2f3	0.44130668
212	0x3f3ed9cd	0.7455109
213	0xbf0fd5ba	-0.56185496
214	0x3e651e1d	0.22374769
215	0x3eb37ec7	0.3505766
216	0xbe05b9fe	-0.13059232
217	0xbe5d9f71	-0.21642853
218	0xbdf861a6	-0.12128
219	0xbcfe65a9	-0.031054335
220	0xbea42656	-0.32060498
221	0x3ecce9ec	0.40022218
222	0xbe63f568	-0.22261584
223	0x3f228eae	0.6349896
224	0x3cc5bc34	0.024137594
225	0xbe08e359	-0.13367976
226	0xbd57fdf6	-0.05273243
227	0xbe2e3888	-0.17013752
228	0x3ee6cd9d	0.45078745
229	0xbd148fa2	-0.03626979
230	0xbda39025	-0.07986478
231	0xbd1fcda2	-0.039014466
232	0xbd90aa2d	-0.070637085
233	0x3ee2cc36	0.44296426
234	0xbd88ed60	-0.06685901
235	0x3d9fc1e7	0.07800656
236	0x3e1792af	0.14802049
237	0x3e9498e2	0.2902289
238	0xbd90976d	-0.07060132
239	0xbec187f3	-0.37799034
240	0x3edce3b3	0.4314247
241	0xbe809749	-0.2511542
242	0x3d98ef14	0.074674755
243	0x3e1e7f86	0.15478334
244	0x3ed7916c	0.42103136
245	0x3e98c298	0.29835963
246	0x3e757e9c	0.23974079
247	0x3d55111e	0.052018277
248	0x3ea96a70	0.33089018
249	0xbddd150d	-0.10795031
250	0xbee6e24c	-0.45094526
251	0xbeb30976	-0.34968156
252	0xbd2917ec	-0.04128258
253	0x3f3a6591	0.7281123
254	0x3daa7db4	0.08324757
255	0x3e86a279	0.26295832

encoder_layers.block_1.conv.bias f4 [64]
0	0xbc5a4a08	-0.0133233145
1	0x3dca5605	0.09879688
2	0x3d9bf48e	0.076150045
3	0x3dfb8074	0.1228036
4	0x3e5ff7c8	0.21871865
5	0xbd7c1589	-0.061543975
6	0x3e86f31c	0.26357353
7	0x3f204801	0.6260987
8	0x3e3d730e	0.18500921
9	0x3eb9094f	0.36139914
10	0x3ec8c6fb	0.3921431
11	0xbc0c7ff5	-0.008575429
12	0x3dc587de	0.09645055
13	0xbc586422	-0.013207467
14	0xbcfccbea	-0.030858953
15	0x3e1e6a0d	0.15470143
16	0x3de47be7	0.11156445
17	0xbe063dd0	-0.13109517
18	0x3e30c6f6	0.17263398
19	0x3cf971af	0.030449716
20	0x3db14687	0.0865603
21	0x3e24b754	0.16085559
22	0x3cdff727	0.027339531
23	0xbe004ba5	-0.12528856
24	0x3dcf1ab4	0.10112515
25	0x3daf40ba	0.085572675
26	0x3da663d1	0.08124507
27	0x3ed4cc73	0.41562232
28	0x3e800d68	0.25010228
29	0xbdf03f85	-0.117308654
30	0xbcc2ad59	-0.0237643
31	0xbd7ceac7	-0.06174734
32	0x3d8eb8de	0.06968854
33	0x3ddf9dba	0.10918756
34	0x3e2daa63	0.16959529
35	0x3d8725f2	0.06599034
36	0x3d7eab60	0.062175155
37	0xbd470fdf	-0.04859912
38	0x3e8f6ad4	0.2801119
39	0x3efccf44	0.4937688
40	0x3ed99e12	0.4250341
41	0x3ee3a7ef	0.4446406
42	0x3e83d779	0.2575033
43	0x3e074f47	0.13213836
44	0x3e131b1f	0.14365815
45	0x3db085f3	0.08619299
46	0x3d8a793c	0.06761405
47	0x3ec38585	0.38187805
48	0x3dea96df	0.114545576
49	0xb9d4f0f2	-0.0004061531
50	0x3d5ef120	0.054429173
51	0xbd4d43b8	-0.05011341
52	0x3d9a2f5d	0.07528565
53	0xbc94d3c8	-0.018167391
54	0x3d4fbaf7	0.050715413
55	0x3d15d920	0.03658402
56	0x3c93d484	0.018045671
57	0xbd5e9e77	-0.054350343
58	0xbd16dc9d	-0.036831487
59	0xbcfd2e6c	-0.030905925
60	0xbcaba34c	-0.02095189
61	0x3d59e25f	0.0531944
62	0xbc9540e8	-0.018219426
63	0x3cc3a550	0.023882538

decoder_layers.block_0.transition.weight f4 [16, 16, 3, 3]
0	0x3d217032	0.03941364
1	0xbc8735c0	-0.016505122
2	0x3d8c5553	0.06852212
3	0xbc83ac0b	-0.016073247
4	0xbce8f35a	-0.028436352
5	0xbb854f18	-0.0040682666
6	0x3d80ba73	0.06285562
7	0xbcfa33d6	-0.030542295
8	0x3d1af1e7	0.037828352
9	0xbe2f8699	-0.17141189
10	0x3bef2c1d	0.00729896
11	0x3cc6d1d3	0.024269974
12	0xbe3717ad	-0.17880125
13	0x3c0952a1	0.008381517
14	0x3e38cc89	0.18046774
15	0xbddade37	-0.10686915
16	0x3c215447	0.009846753
17	0x3d160b94	0.036632136
18	0x3ae5d28f	0.0017534065
19	0xbd703872	-0.05864758
20	0xbdde99c5	-0.10869173
21	0x3df06761	0.11738468
22	0x3d456932	0.048196025
23	0xbdec68af	-0.11543404
24	0x3e08431f	0.13306855
25	0x3de05bb0	0.10954988
26	0x3cfdf255	0.030999342
27	0x3d2d6318	0.04233083
28	0x3d6704cb	0.056401055
29	0xbdaea5ec	-0.08527741
30	0x3c694b28	0.01423911
31	0x3d89ada6	0.06722574
32	0xbd46b2d0	-0.048510373
33	0xbd381a8c	-0.044947192
34	0xbd8fc7e1	-0.07020546
35	0xbdc66143	-0.0968652
36	0xbe0048bd	-0.12527747
37	0xbe0602c4	-0.13086993
38	0xbe1125fd	-0.14174648
39	0x3d3558dd	0.0442742
40	0x3d99a2c4	0.07501748
41	0xbdaf6dd5	-0.08565871
42	0x3cf7638f	0.03019884
43	0x3df5ed08	0.12008101
44	0x3cd2b4f1	0.025721045
45	0xbd5cdb79	-0.053920243
46	0xbda20aee	-0.07912241
47	0xbd0d7926	-0.034539364
48	0xbcd55030	-0.026039213
49	0xbc1d07a5	-0.009584342
50	0xbc67afb0	-0.014141008
51	0xbda7b91b	-0.08189603
52	0xbcacf414	-0.02111248
53	0xbd0c522f	-0.034258064
54	0x3d655982	0.055993564
55	0xbcc56d2c	-0.024099909
56	0x3d17b242	0.037035234
57	0xbcd7ce15	-0.026343385
58	0xbc9a649d	-0.018846804
59	0x3d11f7b0	0.035636604
60	0xbb92b5e2	-0.0044772485
61	0x3c98b48f	0.018640785
62	0x3d31d976	0.043420278
63	0x3c50fde2	0.012755843
64	0x3cda466f	0.026644913
65	0x3d862f6f	0.06552016
66	0x3c9d2546	0.019182812
67	0xbca829d1	-0.020527752
68	0xbd1cd64f	-0.038290318
69	0x3d9b103d	0.075714566
70	0xbd67e110	-0.05661112
71	0x3bb68237	0.005569722
72	0xbc1bb308	-0.009503134
73	0xbd554ff0	-0.052078187
74	0x3ce4b245	0.027917037
75	0xbbfdb5c5	-0.007742616
76	0xbdac59f0	-0.08415592
77	0x3a7b992d	0.0009597715
78	0xbac5378e	-0.0015046464
79	0x3d0eef04	0.03489591
80	0x3d2497de	0.040183894
81	0x3d343fae	0.044006042
82	0x3d459fa5	0.048247952
83	0x3d7a70bc	0.061142668
84	0x3c9301f2	0.017945264
85	0xbcbe7663	-0.02324981
86	0xbcd63a4b	-0.026150843
87	0xbc416386	-0.011803513
88	0xbcf403c7	-0.029786957
89	0x3c6def94	0.014522452
90	0xbe474a12	-0.1946185
91	0xbe2ed769	-0.1707436
92	0xbe2869bd	-0.16446586
93	0xbdadb9e7	-0.08482724
94	0x3d90751c	0.07053587
95	0x3bc11aaa	0.005893071
96	0x3e00d40e	0.12580892
97	0x3e858d33	0.2608429
98	0x3e1deb59	0.1542181
99	0xbd7e9a33	-0.062158775
100	0x3bfaf7a2	0.0076589147
101	0xbdabfc1a	-0.08397694
102	0x3cd67773	0.026180005
103	0x3d28ceea	0.041212954
104	0xbd26f94a	-0.040765084
105	0x3c9c1de6	0.019057225
106	0xbd07a3d9	-0.03311524
107	0xbd35a6e9	-0.04434863
108	0xbdbffa1f	-0.09373879
109	0xbca31b01	-0.019910337
110	0xbab0f09f	-0.0013499445
111	0xbd58ce70	-0.05293125
112	0x3c32248b	0.01087297
113	0x3d915219	0.07095737
114	0xbd2afe39	-0.041746352
115	0x3d08469a	0.033270456
116	0xbd593d69	-0.05303708
117	0x3d0a1c80	0.033718586
118	0xbc887943	-0.016659385
119	0xbc29be27	-0.010360277
120	0x3db4e9ee	0.08833681
121	0x3c6ed8bf	0.0145780435
122	0x3cef748a	0.029230375
123	0x3dd1440d	0.10218058
124	0x3d58492e	0.052804165
125	0x3d902fcb	0.07040366
126	0x3bcf6922	0.0063296715
127	0xbc328113	-0.0108950315
128	0xbcdd2ba6	-0.026998352
129	0xbc201cb3	-0.009772467
130	0x3d8a0cd1	0.06740726
131	0x3cc3a382	0.023881678
132	0xbd8943f7	-0.067024164
133	0xbd8c1f23	-0.06841876
134	0xbde1dad7	-0.110280685
135	0xbe2f07f9	-0.17092885
136	0xbde4e9ad	-0.111773826
137	0xbe3358d3	-0.17514353
138	0xbe0d9de3	-0.1382976
139	0xbde7faea	-0.11327155
140	0xbe3b0263	-0.18262629
141	0xbe0908c7	-0.13382255
142	0xbdf01f8c	-0.11724767
143	0xbe2b7c60	-0.16746664
144	0xbd8daf53	-0.06918206
145	0xbca20eed	-0.019782508
146	0x3c05cd45	0.008166616
147	0xbc098e76	-0.008395782
148	0xbc8017aa	-0.015636284
149	0x3e039bd3	0.12852411
150	0xbb8bbfae	-0.0042647934
151	0x3ca4e845	0.020130286
152	0x3dcfb5a7	0.10142069
153	0xbd9518ee	-0.072801456
154	0x3d17b8a6	0.03704133
155	0x3e136534	0.14394075
156	0xbd24b542	-0.040211923
157	0xbca38105	-0.019958982
158	0xbda48885	-0.080338515
159	0xbd44b4bb	-0.04802392
160	0x3d8e5a1b	0.0695078
161	0xbd148eaf	-0.036268886
162	0xbda51aaa	-0.080617264
163	0xbe25fe8c	-0.16210383
164	0xbe269232	-0.16266707
165	0x3e0f714a	0.1400806
166	0x3d61ba35	0.05510922
167	0x3c3c0d82	0.01147783
168	0x3e1c0ed6	0.15240034
169	0xbcf677c7	-0.030086411
170	0xbced5060	-0.02896899
171	0x3d8456be	0.06461857
172	0xbdc5756f	-0.09641539
173	0xbdca07c5	-0.09864763
174	0x3d7a131c	0.06105338
175	0xbe10cf07	-0.14141475
176	0xbe328a38	-0.17435539
177	0x3da4fd63	0.08056142
178	0xbdaeb9d3	-0.08531537
179	0xbdad0052	-0.08447327
180	0xbc990666	-0.018679809
181	0xbd8b7c2c	-0.06810793
182	0xbd49e9c7	-0.049295213
183	0x3be560ae	0.0070000505
184	0x3d4e7fd6	0.050414883
185	0x3d19e2d7	0.037569847
186	0x3da89d43	0.0823312
187	0xbbe274e5	-0.0069109076
188	0x3cbd3782	0.023097757
189	0xbc37295d	-0.011179295
190	0xbc5c2712	-0.013437049
191	0x3b107889	0.00220445
192	0x3ddb56cb	0.10709914
193	0x3cd4b38e	0.025964525
194	0xbd85f04c	-0.065399736
195	0x3ca5bbcf	0.020231156
196	0x3c63baeb	0.013899545
197	0xbcae3fb1	-0.021270605
198	0xbe8af810	-0.27142382
199	0xbdfac9a9	-0.12245495
200	0xbd960153	-0.07324471
201	0xbe83be3f	-0.25731084
202	0xbd870730	-0.06593168
203	0x3c0a14be	0.008427797
204	0xbe4e4b4e	-0.20145914
205	0xbd84c884	-0.06483558
206	0x3df259aa	0.11833508
207	0xbdc281b0	-0.09497392
208	0xbdf93b83	-0.12169554
209	0xbd9646c0	-0.07337713
210	0xbdfa01b1	-0.12207354
211	0xbd7e5722	-0.062094815
212	0x3d8eb569	0.06968195
213	0xbdb1fa10	-0.08690274
214	0xbc16ac6d	-0.009196383
215	0x3dd1e5e8	0.10248929
216	0xbe49d520	-0.19710207
217	0xbddc8a96	-0.10768621
218	0xbd86e7f6	-0.06587212
219	0xbe17820c	-0.14795703
220	0x3d23d1ad	0.039994884
221	0x3df0fd83	0.117671035
222	0xbdbb759b	-0.09153291
223	0x3d1518e8	0.036400706
224	0x3e09b6c9	0.13448633
225	0xbcdb9940	-0.026806474
226	0xbd92d4bf	-0.07169484
227	0x3ad23a66	0.0016039133
228	0xbd7e34e2	-0.06206215
229	0x3c18a268	0.009316064
230	0x3c8cd38d	0.017190719
231	0xbcad3b5d	-0.02114647
232	0x3d1c956a	0.03822843
233	0xbbd07022	-0.0063610235
234	0xbe667a65	-0.22507627
235	0xbd92a8e3	-0.07161119
236	0x3d79a421	0.06094754
237	0xbdad54f7	-0.084634714
238	0x3e1b743c	0.15181059
239	0x3e33d615	0.17562135
240	0x3d60cd40	0.05488324
241	0x3d819f69	0.06329233
242	0x3de49767	0.1116169
243	0x3ccab4a0	0.024744332
244	0xbda41c95	-0.08013264
245	0xbc997fe1	-0.018737735
246	0x3de6d057	0.112702064
247	0x3b589f8d	0.0033054084
248	0xbd6aa8ed	-0.057290006
249	0x3d5f806b	0.05456583
250	0x3c4c2ec2	0.01246232
251	0xbd402680	-0.046911716
252	0xbd6739e4	-0.056451693
253	0x3b1455a3	0.0022634051
254	0x3c829d3a	0.015944112
255	0x3d51e33b	0.051242094

decoder_layers.block_0.transition.bias f4 [16]
0	0xbb8d046d	-0.004303506
1	0xbcaa6da1	-0.020804228
2	0x3a986be6	0.0011628836
3	0x3d14da10	0.036340773
4	0x3aa8a99b	0.0012867929
5	0x3d37b071	0.044846002
6	0xbcd30969	-0.025761323
7	0xbc940272	-0.018067572
8	0x3c17816e	0.009247167
9	0xbc84b99a	-0.016201783
10	0xbd037df8	-0.032102555
11	0xbad31513	-0.0016104303
12	0x3b90203b	0.0043983734
13	0x3d4f5fd2	0.05062849
14	0x3c9db18f	0.019249706
15	0x3d1cae19	0.03825197

decoder_layers.block_0.conv.weight f4 [64, 32, 1, 1]
0	0x3da9a675	0.08283702
1	0xbdb05ca8	-0.08611423
2	0x3d4232f3	0.04741187
3	0x3d85fce9	0.065423794
4	0xbe866de3	-0.26255712
5	0xbd7b1b72	-0.06130547
6	0xbd2ee99e	-0.042703263
7	0xbd9b3f1b	-0.07580396
8	0x3d4b2598	0.0495964
9	0x3d82cd7a	0.06386848
10	0xbc57cc35	-0.013171245
11	0x3deff8c0	0.11717367
12	0xbe72c689	-0.23708548
13	0xbdf3e4e0	-0.11908889
14	0x3d92798c	0.071520895
15	0xbd0b8713	-0.034064364
16	0x3d0e406c	0.034729406
17	0x3d9812b3	0.074254416
18	0x3e1df024	0.15423638
19	0x3e1b5c0d	0.15171833
20	0xbd9308ef	-0.07179438
21	0xbd5a9030	-0.053360164
22	0x3db114f8	0.086465776
23	0xbc77df6a	-0.01512895
24	0xbdd6e245	-0.10492376
25	0x3cec53fd	0.028848642
26	0x3ba15050	0.004922904
27	0xbe23b9df	-0.15988873
28	0xbc6ada87	-0.014334328
29	0x3d42ce12	0.047559805
30	0xbd81f4f4	-0.06345549
31	0xbc050c6f	-0.00812064
32	0x3ddf10a1	0.108918436
33	0x3cdfa2d5	0.027299324
34	0x3e045895	0.12924416
35	0x3dded1c9	0.10879857
36	0xbe0c065b	-0.136743
37	0x3e04f19d	0.12982793
38	0x3d89fc0c	0.06737527
39	0x3da12545	0.07868437
40	0x3e33b81e	0.17550704
41	0xbd92dbfe	-0.071708664
42	0xbe65d9a7	-0.22446309
43	0x3bdd47dc	0.006752951
44	0x3e876f94	0.26452315
45	0x3e4eb643	0.20186715
46	0x3d17b581	0.03703833
47	0x3e3d61ae	0.18494293
48	0x3e43190e	0.19052526
49	0xbe37e74c	-0.17959327
50	0xba6c3a02	-0.00090113294
51	0xbf018cb6	-0.5060533
52	0xbf116d5b	-0.5680749
53	0x3f1924a3	0.5982153
54	0xbe88d509	-0.26725033
55	0xbd0f11b9	-0.03492901
56	0x3d07b859	0.033134792
57	0xbe869a0b	-0.262894
58	0x3e9a9bab	0.3019689
59	0xbf6405a3	-0.890711
60	0xbe1aa835	-0.15103228
61	0xbdac736f	-0.08420455
62	0xbebc33b7	-0.36758205
63	0x3e16eba5	0.14738329
64	0xbe3fe72c	-0.18740529
65	0x3dc7c4b4	0.09754315
66	0xbe2b859f	-0.16750191
67	0x3e254eaf	0.16143297
68	0x3c21091d	0.009828833
69	0x3e43a7a4	0.19106919
70	0xbd8c8d9c	-0.06862947
71	0xbd541f35	-0.051787574
72	0x3df254c0	0.11832571
73	0xbd9d10c2	-0.07669212
74	0x3ae4a9f6	0.0017445672
75	0x3e07562d	0.13216467
76	0x3ed97819	0.4247444
77	0x3e199add	0.15000482
78	0xbd29b3a1	-0.041431073
79	0x3e5f6285	0.21814926
80	0x3def1d6e	0.11675535
81	0xbdbaaf13	-0.09115424
82	0x3e04b7a0	0.12960672
83	0xbe873cec	-0.26413667
84	0xbee7634a	-0.4519294
85	0x3ef64081	0.48096088
86	0xbf00c28d	-0.5029686
87	0xbf0c3531	-0.54768664
88	0xbe0eaa65	-0.13932188
89	0xbe56fd11	-0.20994975
90	0xbbfa0adc	-0.007630689
91	0xbe669408	-0.22517407
92	0x3e85acf3	0.26108512
93	0xbd62d5e6	-0.05537977
94	0xbd88cc7c	-0.06679627
95	0xbe4043b5	-0.18775828
96	0xbd4ecbe3	-0.05048741
97	0x3def334b	0.11679705
98	0x3d83ed0e	0.06441699
99	0xbd86fd1c	-0.065912455
100	0x3cc12808	0.023578659
101	0x3c762fea	0.015026072
102	0xbd531a20	-0.051538587
103	0x3d02c1d6	0.031923138
104	0x3de650f8	0.11245912
105	0xbd385cb4	-0.045010284
106	0x3e109124	0.14117867
107	0xbcaee6a4	-0.021350212
108	0x3d2043b7	0.039127078
109	0xbdf25eb7	-0.11834472
110	0x3c256ec1	0.010097207
111	0x3afa37b9	0.0019090093
112	0xbe172f84	-0.1476422
113	0x3c40d490	0.011769429
114	0x3ddd087e	0.107926354
115	0xbe0953ff	-0.13410948
116	0x3c39f7a8	0.01135055
117	0x3d887f51	0.06664909
118	0xbda21ca2	-0.079156175
119	0xbe3333fb	-0.17500298
120	0xbe33dda7	-0.17565022
121	0x3b6dc370	0.003627982
122	0x3dcfe7f5	0.10151664
123	0x3dad749d	0.08469508
124	0x3e158127	0.14600049
125	0x3d08b918	0.033379644
126	0x3e0432de	0.1291003
127	0xba0361f2	-0.00050118484
128	0xbcef6b70	-0.029226035
129	0x3e839502	0.2569962
130	0xbe0a37b6	-0.13497815
131	0xbda77fc4	-0.08178666
132	0x3d1ccaa6	0.038279198
133	0x3e5d55a3	0.21614699
134	0xbdd0cc76	-0.10195248
135	0xbe05be32	-0.13060835
136	0xbe077717	-0.13229023
137	0xbdba9fc0	-0.09112501
138	0xbe554576	-0.20827278
139	0x3e963dd6	0.29344052
140	0x3e4d7bbf	0.20066737
141	0x3ddf1e3e	0.1089444
142	0x3c50b785	0.012739067
143	0x3c95b743	0.018275863
144	0x3ea891bd	0.3292369
145	0x3e8f817f	0.28028485
146	0xbe3b46f0	-0.1828878
147	0xbe465882	-0.193697
148	0xbe93a033	-0.2883316
149	0x3e511f3f	0.20422076
150	0xbe0f5fe0	-0.14001417
151	0xbda685d7	-0.08130997
152	0xbe8c92f4	-0.27455866
153	0xbe21ea3e	-0.15812013
154	0xbc7ce6be	-0.015435873
155	0xbe3cd470	-0.18440413
156	0x3e2ae473	0.16688709
157	0xbe6edcb2	-0.23326376
158	0xbd8dfbbd	-0.06932781
159	0x3e846ecb	0.25865778
160	0x3dba0c43	0.0908437
161	0xbd3c953a	-0.04604075
162	0x3d1fa0c0	0.038971663
163	0x3da87180	0.082247734
164	0xbdfa794e	-0.12230168
165	0x3d7a85ad	0.06116264
166	0x3db448e6	0.08802967
167	0x3d03cae1	0.032175902
168	0xbe002a95	-0.12516244
169	0xbd92e3df	-0.07172369
170	0x3d94c916	0.072649166
171	0xbdd32e44	-0.10311559
172	0xbdc2d6a7	-0.09513598
173	0x3da43789	0.08018405
174	0x3cffd984	0.03123165
175	0xbda1320a	-0.07870872
176	0x3ca9d5bb	0.020731797
177	0xbda2c822	-0.079483286
178	0x3d300da8	0.042981774
179	0xbc24f955	-0.010069211
180	0x3e1375a5	0.14400347
181	0xbd8d992d	-0.069139816
182	0xbd94f54e	-0.07273351
183	0xbe313b1b	-0.17307703
184	0xbdc6aa63	-0.097004674
185	0x3e60c1f8	0.21948993
186	0xbe482f7c	-0.19549364
187	0xbd0b4284	-0.03399898
188	0x3d808299	0.062749095
189	0x3dda6bea	0.10665114
190	0x3dc98083	0.09838965
191	0xbd8ff0a3	-0.0702832
192	0xbc6320e0	-0.0138628185
193	0x3d1deeba	0.038557746
194	0xbe062317	-0.13099323
195	0xbddb33d4	-0.10703245
196	0xbdde0c4b	-0.108421884
197	0x3de3570d	0.11100588
198	0xbcf1ea55	-0.029530684
199	0x3dc91a1c	0.09819433
200	0x3e25bf15	0.16186173
201	0x3db54d00	0.08852577
202	0xbb0e175d	-0.0021681406
203	0x3dd8f7fe	0.10594176
204	0xbc0bd5c5	-0.008534853
205	0x3c6e10f4	0.014530409
206	0x3cfb317c	0.030663244
207	0x3be9df04	0.0071371812
208	0x3e8549e6	0.26032943
209	0x3de91257	0.11380451
210	0xbd66d417	-0.05635461
211	0xbde90b4b	-0.11379107
212	0x3e019f16	0.12658343
213	0xbca53870	-0.020168513
214	0x3d87237c	0.06598565
215	0xbd654935	-0.05597802
216	0xbd21b735	-0.03948136
217	0xbd536cce	-0.051617436
218	0x3d10da5c	0.035364494
219	0xbd9c6017	-0.07635515
220	0xbd14f81e	-0.036369435
221	0x3dc9969b	0.09843179
222	0x3db06ffa	0.08615108
223	0xbdd0261d	-0.101635195
224	0x3d7fbe78	0.062437505
225	0x3d1c0d17	0.03809842
226	0x3d9899b6	0.07451193
227	0xbcc77db5	-0.024351934
228	0x3d2ccc84	0.04218723
229	0x3da5e56c	0.081003994
230	0x3dc43219	0.09579868
231	0x3db6e2c7	0.08929973
232	0x3e48a125	0.19592722
233	0x3e51315e	0.20428988
234	0xbd89335a	-0.06699248
235	0xbdd2ae94	-0.102872044
236	0x3e17f7c2	0.14840606
237	0xbd630062	-0.055420287
238	0x3da78f75	0.08181659
239	0xbd224d0a	-0.03962425
240	0x3dc40d5c	0.095728606
241	0x3e2728b1	0.16324116
242	0xbcf38dfb	-0.029730788
243	0xbddbc33a	-0.10730596
244	0xbc8f3af9	-0.017484175
245	0xbe297bed	-0.1655118
246	0x3d25ad56	0.04044851
247	0x3e692986	0.22769746
248	0xbd816d96	-0.0631973
249	0xbe8801d5	-0.26563898
250	0x3e33f0f3	0.17572384
251	0xbe79383c	-0.24337858
252	0xbc182d4f	-0.009288146
253	0xbc0ed43b	-0.008717592
254	0x3e28eb97	0.1649612
255	0x3d977776	0.07395832

decoder_layers.block_0.conv.bias f4 [64]
0	0xbd1b2a6f	-0.037882265
1	0x3eaef11b	0.34168324
2	0x3e14aebb	0.1451978
3	0xbe06ea1a	-0.1317524
4	0x3d56a3de	0.05240237
5	0x3ca0018b	0.019531986
6	0x3d22e9fe	0.039773934
7	0x3da7625f	0.0817306
8	0xbdb1a79a	-0.086745456
9	0xbdc78f5b	-0.0974414
10	0x3e3bcf61	0.18340828
11	0xbe137e9c	-0.14403766
12	0x3a0661aa	0.00051262474
13	0xbdc1de72	-0.09466256
14	0x3dc47157	0.0959193
15	0xbdd19bc8	-0.10234791
16	0x3caa11ce	0.020760443
17	0x3e6a00b1	0.22851826
18	0x3dd56b18	0.10420817
19	0xbdc43646	-0.09580664
20	0x3e340921	0.17581607
21	0x3dd05c56	0.10173862
22	0x3e974cdf	0.29550835
23	0x3e905617	0.2819068
24	0x3db6a8cd	0.08918915
25	0x3ce6dc80	0.028181314
26	0x3cf12c46	0.029440057
27	0xbe0ee99a	-0.139563
28	0x3c8cd3e1	0.017190875
29	0x3cc23278	0.023705706
30	0x3e1170a3	0.14203124
31	0x3e45ef1f	0.19329499
32	0x3c05e23c	0.008171614
33	0x3ed0617f	0.40699384
34	0x3e97a0b6	0.296148
35	0xbdc37d5a	-0.09545393
36	0x3c207471	0.009793387
37	0xbd8932d5	-0.066991486
38	0xbd01dbda	-0.031703807
39	0x3d8c3753	0.0684649
40	0xbe1ce47d	-0.15321536
41	0xbe13d3bb	-0.14436238
42	0x3e8e16f8	0.277519
43	0xbcc3cfd1	-0.023902806
44	0xbd9636ea	-0.07334693
45	0x3d72ecb5	0.059307773
46	0x3e0f2807	0.13980113
47	0x3cd8c176	0.026459437
48	0x3d2cc71d	0.042182077
49	0x3c88aa73	0.016682839
50	0xbcf2d7a0	-0.029643834
51	0xbd18ce2a	-0.03730599
52	0xbba34185	-0.004982176
53	0xbae4d919	-0.001745972
54	0xbb9629ef	-0.0045826356
55	0x3b20f04f	0.0024557298
56	0x3b950ac1	0.004548401
57	0xbc05153d	-0.008122739
58	0x3d0900b6	0.033447944
59	0xbc218f2d	-0.009860796
60	0xba324c6a	-0.0006801548
61	0xbc054bee	-0.008135779
62	0xbcca2c87	-0.024679435
63	0xbc6ed2c6	-0.0145766195
