trainedModels/wave/horizon-20-40/twoLayer/2/3/run3/model.pt (torch, 215121 bytes, 27 tensors)

init.weight f4 [13, 1, 1, 1]
00000000: c7be 2e3f a4c8 23bf 1226 1d3f 6ef7 22bf
00000010: 22dd 1dbf bc88 14bf bb3c e33e 6d1e c2be
00000020: 0377 a23e ac9d b63e 4d45 0abf 4781 a03c
00000030: 41f4 f8bc
0.68259853 -0.6397803 0.61386216 -0.636588 -0.61665547 -0.5802114 0.4438227 -0.37913838
0.31731424 0.3566717 -0.54011995 0.019592894 -0.030389907

init.bias f4 [13]
00000000: 54b8 4cbd 2486 7bbe 851c 50be 852c a1be
00000010: e958 c93e 753d a7be 1171 063e 74d7 293e
00000020: 4b49 ffbd c6a5 cf3d dd83 84be b5e0 783b
00000030: 2724 02bc
-0.049980476 -0.2456289 -0.2032338 -0.31479278 0.39325646 -0.32664075 0.13129069 0.16586095
-0.124651514 0.10139041 -0.25881854 0.0037975733 -0.00794319

encoder_layers.block_0.transition.weight f4 [26, 26, 3, 3]
00000000: f038 383d a192 173d 6621 24bd 7fbd f23b
00000010: 2801 8dbd be91 c9bd c6ce a03c 8779 03be
00000020: 8792 5abc 25fb a6bd d024 4ebc 5815 483d
00000030: c6d8 47bd 447f 433d 0223 f23d 1a3e 4bbd
00000040: 62d8 ba3d 890a f63b f832 c53c bccd 8ebc
00000050: a872 69bd 4d94 993c 3252 3ebd ade5 48bd
00000060: 7d61 e7bc 7c95 afbd fbab 643c 33cb 98bd
00000070: a900 9c3c 11c7 b5bc d8da e03b 3abc a73d
00000080: 6d57 4e3d cd52 4fbd 6e5f b33d bfd9 c7bc
00000090: e75d 22bd db4f 3cbd 451f 483d fa0f c7bc
000000a0: 6735 5f3c f179 0f3d 9b28 fe3c 8a22 3b3c
000000b0: 724e 153d 2c8b 97bd a42d de3b 08d5 0f3d
000000c0: c9bd dfbc 2f3b 9b3d ee26 7b3d 3bec 64bd
000000d0: 4147 133d 6c44 47bd 9295 aa3d 233c 3fbd
000000e0: cdec fcbc b33d 89bc d73d 1abd 12aa cabd
000000f0: 7509 6f3d ce76 b9bd 8520 8bbb 2848 ab3b
00000100: 1272 8f3c 6042 f6b9 abe9 fb3a 384e 33b8
00000110: 902e 703d 8410 ba3c 669c 893d 8887 743c
00000120: 569a 58bc 830e 1c3d e2de d8bc d76c ca3c
00000130: 2ea7 2dbd 13f5 b0bd 2d19 c3bc d942 70bd
00000140: 7dc1 95bc 2bf7 8f3d cc8d a83c 1b7a 3639
00000150: cf0f 24bc 2f98 8bbd 2b5f a9bd c94c e43c
00000160: 8cf4 96bd 6c49 e03c 50b8 6bbd 855d f13a
00000170: bae9 373c ad8b f3bc 1a95 143d 01b1 e63c
00000180: 2bfd 6dbc 47cd 443d 9187 81bc a715 cd3b
00000190: 519c 213d dfe6 d63b ff75 c73b 40c0 f6bc
000001a0: 997d 70bc dba8 a43b 528a 31bd 60b7 173d
000001b0: 31da 9c3c 4fa4 40bc 0888 223c b1df 98bc
000001c0: e307 d53c ed2f 123d 8ff2 fabc bd9f a23c
000001d0: bfb8 0ebb a383 423d d56b f63c 4e5f 803d
000001e0: 8a79 2b3c 1f33 d4bc e474 213c eca3 233c
000001f0: 980f 7f3d 0cd9 bf3d c075 8f3c f54e a5bc
00000200: 58c6 cf3c 19fc 3c3c 7d6f 803d d03f f63c
00000210: 077b c8bc cf11 6cbc 12e6 853b c6d5 393d
00000220: f997 4c3d 93de 1b3e e470 033e 9016 fc3d
00000230: 9e21 b53d 13f2 c03c 5544 e13d e0ee 1d3c
00000240: 7fd4 aabb 7c1e 303d dc5e 1abd 486b 663d
00000250: 2a30 273d 1e6e a13b 7abd 51bd f25e 383c
00000260: ab72 38bd 3f59 15bd a84c a43c c3ff 3e3d
00000270: 207b 1dbd f42b d63c d13a 083d cd74 c2bc
00000280: b2b5 13bd 3870 a1bd 27aa dabd 700e 29bd
00000290: b3d1 b63c fb44 893d 6a92 d33d 4e48 a63d
000002a0: 2ace c5bd 19e7 643d 1070 a83c 6710 453e
000002b0: 9cd0 863b 4d54 a73d d7aa 943d eb67 5abd
000002c0: c47b 923c 7efb 593d cbe0 63bd 70e7 d1ba
000002d0: a2d1 813d b9fa 2cbd 78b9 6e3d 3f2a 723d
000002e0: e115 603c 800e b0bc ad1c afbc bc07 b1bc
000002f0: 9f7c 733b 8bdd 073c 4f7c 9b3d 2f6c 853d
00000300: 97ba b63d 9323 8b3d 0184 a93d 1543 6abd
00000310: 9342 fbba a905 68bd 16c8 473d 8760 08bd
00000320: af49 393d b529 90bc ad3d e2bd 158f c03c
00000330: f4c9 b73c b5ab 413b 8e3b f73d c6da bcbd
00000340: b2b2 f6bd 83f9 c5bb cdb2 84bd 948e 94bd
00000350: ff7b 413b df86 e2bc 15a2 5b3d 323c ffbc
00000360: 3b50 813d c241 183c 87ff c33d bdac 703b
00000370: 603c 9b3c 104a 2a3d 2a4e 72bd 0b54 493c
00000380: b26b 113b a367 0fbd 8f6c d1bc 5b48 b0bc
00000390: a8bc fabb 1aea 5abd 0fa9 963c 3d27 ae3d
000003a0: 058b 0c3d 556d cd3d 8bf0 aab9 5a97 9dbc
000003b0: 2880 713d 8222 743d 0eb3 0f3e 3356 9a3d
000003c0: 3c4b 5c3d 23af 823d ecab cb3d c00e 38bd
000003d0: adf0 713d 693d 453c c888 0f3a a9c3 1ebd
000003e0: 7765 1ebd 7f8b 30bd 5eaa 08bc d4e8 4abd
000003f0: e7d1 7e3c d809 3bbc b7bb 053d 7c71 3c3d
0.044976175 0.03700507 -0.040070914 0.0074078436 -0.06884986 -0.09842251 0.019629847 -0.12839328
-0.013340599 -0.08153371 -0.012582019 0.04884848 -0.048790716 0.04772879 0.118230835 -0.04961977
0.09123303 0.00750858 0.024072155 -0.017432086 -0.05699411 0.018747473 -0.046465106 -0.04904716
-0.028244728 -0.08573434 0.013957019 -0.07460632 0.019043284 -0.022189649 0.0068620257 0.08190198
0.050376344 -0.050616074 0.08758436 -0.024395822 -0.039640334 -0.045974594 0.048857946 -0.02429961
0.013623572 0.0350284 0.031025222 0.011421809 0.036451764 -0.07399592 0.006780343 0.03511527
-0.027312176 0.07579648 0.061316423 -0.05588935 0.035956625 -0.048649237 0.083293095 -0.04668821
-0.030874634 -0.016753053 -0.03765663 -0.098957196 0.05835863 -0.09055863 -0.00424582 0.0052271076
0.017510448 -0.0004697023 0.0019219419 -4.2749773e-05 0.058638155 0.022712953 0.06719284 0.014924891
-0.01322039 0.038099777 -0.026473466 0.024710102 -0.042395763 -0.08640494 -0.023815716 -0.0586575
-0.018280739 0.070295654 0.020575427 0.0001740236 -0.010013535 -0.06816136 -0.08270105 0.027868645
-0.07370862 0.02737876 -0.05754882 0.0018414712 0.011225158 -0.029729689 0.036275007 0.028160574
-0.014525692 0.04804733 -0.015811713 0.0062586847 0.039455716 0.0065582837 0.0060870643 -0.030120969
-0.014678382 0.005025012 -0.043344803 0.037040114 0.01914701 -0.011757924 0.009920128 -0.018661352
0.026004737 0.035690237 -0.03063324 0.01985156 -0.0021777598 0.04748882 0.030080715 0.06268178
0.010465989 -0.025903283 0.009854529 0.0099878125 0.06227073 0.0936757 0.017512202 -0.020179251
0.025363132 0.011534714 0.06271265 0.030059725 -0.024472727 -0.014408543 0.0040862644 0.045369886
0.04994962 0.15221624 0.12836033 0.12308991 0.088443026 0.02355293 0.109993614 0.009639472
-0.00521332 0.042997822 -0.03768812 0.056254655 0.040817417 0.004926457 -0.05120609 0.0112531055
-0.04503123 -0.036462065 0.020056084 0.046630632 -0.0384475 0.026144005 0.033259217 -0.023737336
-0.03606195 -0.07882732 -0.10676985 -0.041273534 0.02231679 0.0670261 0.10330661 0.0811926
-0.09658463 0.055884454 0.020561248 0.19244538 0.0041142236 0.08170376 0.072591476 -0.05332176
0.017881282 0.053218357 -0.0556343 -0.0016014408 0.063388124 -0.042231295 0.058282346 0.05912232
0.013677091 -0.02149129 -0.021375978 -0.021610133 0.0037153137 0.008292566 0.07592069 0.06514775
0.08922308 0.067938946 0.08277131 -0.05719288 -0.0019169621 -0.056646023 0.0487748 -0.03329518
0.045236286 -0.017598012 -0.1104692 0.023505727 0.022435166 0.0029551808 0.12071906 -0.09221415
-0.12045802 -0.006041707 -0.06479416 -0.07253757 0.002952337 -0.027652202 0.05362137 -0.031156633
0.06314131 0.009293022 0.09570222 0.0036724054 0.018949687 0.041574538 -0.059156574 0.012288104
0.0022189436 -0.035010945 -0.02556446 -0.021518877 -0.007651884 -0.053445913 0.01839116 0.08503578
0.034312267 0.10030619 -0.00032604145 -0.01923721 0.05896011 0.05960322 0.14033148 0.075359724
0.053782687 0.06381061 0.09944901 -0.04493594 0.059067417 0.012038567 0.0005475399 -0.038760815
-0.038670983 -0.043101784 -0.0083414 -0.04953845 0.015552974 -0.011415921 0.032649722 0.046006665

encoder_layers.block_0.transition.bias f4 [26]
00000000: 1eab 31bc 57c0 62bc d964 493d 7982 ed3c
00000010: affc 513d 05ba e03c 576c a03d 8b49 e23d
00000020: bfdd d7ba c0fa ba3d 6250 f63c cd20 9a3d
00000030: e303 fe3d 8153 c43d db29 7cbc cd09 453d
00000040: 3ff7 2dbc 5947 fdbc 6153 85bb d112 1bbd
00000050: ce7e 873d fdc3 11bd 6343 893d 01ea e73c
00000060: 5303 603d e25c 3fbd
-0.01084402 -0.013839803 0.04916844 0.028992878 0.05126637 0.027432451 0.07833164 0.110491835
-0.0016469284 0.09129858 0.030067626 0.075257875 0.12403085 0.095862396 -0.0153908385 0.04810505
-0.01061803 -0.03091781 -0.0040687774 -0.03785974 0.06615983 -0.0355873 0.06702306 0.028309824
0.05469067 -0.04671944

encoder_layers.block_0.transition_deep.weight f4 [26, 26, 3, 3]
00000000: c4aa 213c f1f8 cdbc 395a 30bd 263b 5d3d
00000010: 2670 6abd ffd9 9d3d 4db9 153d b691 d13d
00000020: f744 e73c 0297 45bb 6b40 323d 04e4 cbbc
00000030: 04b7 093d 5754 96bc 2f9b 82bc 7ddb 823d
00000040: 70c6 153c e66e b83d 5ee6 8bbd 2a34 ddbd
00000050: 1cea 57bd d07d eabd a250 d2bd 734f 0dbe
00000060: a9da 83bd b120 18be 9152 b6bd e355 a43d
00000070: 68db 243d 14a8 373c e876 9b3d 7160 d5bc
00000080: aac3 8b3d 2666 2f3d 7875 ac3d 3a3c d03c
00000090: df7b 93bd e667 97bc fb59 613c 0bf4 de3d
000000a0: 2590 733d c373 9d3d b2f6 22bc 0acb 55bc
000000b0: d957 58bd 6b03 8abd 2c45 49bd 9f85 4c3e
000000c0: 259f fb3d 15a0 c7bd 5341 79bd 1bfd 2b3d
000000d0: 5148 f73d df74 ddbc d812 bebd 6851 bcbc
000000e0: 0c31 c0bd c4af e1bc a5b9 313d 473a e339
000000f0: 461f 96bc 62f4 b2bd 085a 24bd 1c3c 773d
00000100: e4d2 fbbc 444e 74bb a2a7 4abc 40f0 a83d
00000110: d8e2 dfbd 1861 0b3d 9b3b 7d3d 79b3 bf3d
00000120: f6e4 c8bc 947b 36bd 6b0f 9cbd e060 e1bd
00000130: f651 75bd 9a36 aabd 10a1 0cbd aa84 d5bd
00000140: e560 9ebd 11ac a2bd e3ed 89bd e8a0 ebbc
00000150: 4924 b7bb e9cc cdbd 1d0d e0bd d215 e6bc
00000160: 7ebb debd aa77 53bc c594 6cbd 66a2 d4bd
00000170: d2df c3bd 1306 aabd 15cf 8dbd 431b a3bd
00000180: 9148 39bd 59c6 0bbe 4b97 f6bd e6c9 853c
00000190: dfa9 943d 3153 c3bb 3321 08be b70d 05be
000001a0: 5109 c53d 66a7 833d bdce 923d 96bc 62bd
000001b0: dc1f e43d f8bf 55bd c7c9 31be 9fbb 183e
000001c0: eb55 7ebd 085a b63d 69a0 31bd c70c d43d
000001d0: d2b4 393e 91f9 06bd c8a0 b6bc ca77 d1bc
000001e0: 5c30 93bd 4e7e dfbc fc6a 45bc 675d e03b
000001f0: 6bc9 fabd 48b3 ddbc ac95 233d 813d 693c
00000200: 3339 143d 4a10 0dbc 71f1 d6bc 72a1 993c
00000210: e9f5 c6bd f51c 133d a4e4 503c ad7c dc3d
00000220: 078f 0dbd 7274 0f3e 610c e0bd 0e4f c2bd
00000230: 5439 acbc a05d 6f3c 2de1 08be 0ddc 9a3d
00000240: 45c7 a9bc 0bba 3c3d 7b4d 78bd a912 5f3c
00000250: 280a 783e 0ff2 debd 1374 37bb 621f 973b
00000260: a609 4dbd b811 1cbc 64ca 78bd b87b 8e3d
00000270: e30c 8a3d 2c37 8fbd ac51 143d 66c4 203c
00000280: 8d59 e7bb 9ac2 85bd 8039 683d 3533 eb3c
00000290: 6620 0e3d 8db6 43bb cec7 95bb f0fd b63d
000002a0: ba4b a43d 02f9 273d 53ba a33d 653a c4bd
000002b0: a2ae bd3d 215b cebd 3fcf 873d 3256 663e
000002c0: 9552 943d 20bc 3abd d131 5abb 11e4 10bd
000002d0: 1e60 05bd 5ae0 d73a c25c dc3b 752d 19bc
000002e0: 854f 963d 4413 d73c c907 4ebd d258 0dbc
000002f0: e11b 14be 7e9d 1bbc 7b7c 563d 20e4 753c
00000300: 75a6 173d c972 3fbc 1744 9cbc 7991 97bb
00000310: e72d ba3b 4d46 563d 2bc5 083d f371 93bc
00000320: a108 36bb cde5 013d ea11 0dbc b927 cfbd
00000330: b8d1 cdbd 520d 923a 23f4 85bd 6891 0dbd
00000340: abd8 b0bb a90c fa3a 5280 92bc 6775 3f3c
00000350: f94c 0abd f3f9 c5bc 08f9 e3bc f622 90bd
00000360: e32f d3bd 0f0f e4bd 6231 56bd ae2c fdbd
00000370: e060 abbd 0281 b4bd a14b 03be 39f4 16be
00000380: 0b1c 07be 3955 9c3d f387 843d f8db 4c3d
00000390: c3f3 2f3c c347 413d 6853 933c cbe0 433d
000003a0: f474 793d e9e5 c03c 372a c6bc 2ba6 6e3c
000003b0: 9ea0 66bc 0bf6 84bd 7d11 dabc af7a 0abe
000003c0: a5e0 12be fe10 b1bb 9151 d3bd 8240 38bc
000003d0: ba12 d43d fdb3 e03d dcb1 973c 783c f7bb
000003e0: 3485 07bd 0e03 e83d 2e7c 82bb 1ac7 b13b
000003f0: 2198 13bd 1e65 5ebc afb0 99bd 97cc 303d
0.009867374 -0.025143119 -0.043054793 0.054011486 -0.05723586 0.07707595 0.03655367 0.1023287
0.028231127 -0.0030149822 0.043518465 -0.024889 0.033621803 -0.018350763 -0.015943138 0.0638952
0.0091415495 0.09005527 -0.068310484 -0.10800965 -0.0527135 -0.11449778 -0.10269286 -0.13799839
-0.064381905 -0.14856221 -0.08902467 0.08024194 0.040248305 0.011209507 0.07591039 -0.026046963
0.06824429 0.042822026 0.08420843 0.025419343 -0.07201361 -0.01848216 0.013754363 0.10886391
0.05946364 0.076880954 -0.009946512 -0.013048897 -0.052818153 -0.06738933 -0.049138233 0.19972847
0.12286214 -0.0974733 -0.060853314 0.041989427 0.1207434 -0.027033268 -0.09280938 -0.022988036
-0.09384355 -0.027549632 0.043389935 0.00043340234 -0.01832546 -0.087380186 -0.040124923 0.06036006
-0.030740209 -0.0037278095 -0.012369068 0.08248949 -0.10931939 0.034028143 0.061824422 0.093604036
-0.02452324 -0.044551447 -0.07620128 -0.110048056 -0.059892617 -0.08311196 -0.03433329 -0.10425694
-0.07733325 -0.07942975 -0.067348264 -0.02876325 -0.0055890423 -0.10048849 -0.10940001 -0.028086577
-0.10875605 -0.012906948 -0.057759065 -0.103825375 -0.09564175 -0.0830194 -0.069242634 -0.07964184
-0.04523522 -0.13649882 -0.120405756 0.016331624 0.07258963 -0.005960845 -0.13293914 -0.12993513
0.096209176 0.06428413 0.071683384 -0.05535563 0.11138889 -0.05218503 -0.17362128 0.14915322
-0.062093657 0.08903891 -0.04336587 0.103539996 0.18135384 -0.03295285 -0.022293463 -0.025569815
-0.07186958 -0.027281906 -0.012049433 0.006847072 -0.12245449 -0.027063027 0.03993766 0.014235855
0.036187362 -0.008609841 -0.026238175 0.018753741 -0.097148724 0.035916287 0.012749825 0.107659675
-0.03456023 0.14009264 -0.10939861 -0.09487735 -0.02102343 0.014609724 -0.13367148 0.075615026
-0.020724902 0.046075862 -0.060620766 0.013615289 0.24222624 -0.10886013 -0.002799277 0.0046118954
-0.05005803 -0.009525709 -0.06073989 0.06957191 0.06740739 -0.06992945 0.0362107 0.00981245
-0.007060236 -0.06531258 0.05669546 0.02871094 0.034698866 -0.0029863447 -0.0045709377 0.089351535
0.08022256 0.041008957 0.07994523 -0.095814504 0.09261824 -0.10075975 0.06631326 0.22493818
0.07242314 -0.045589566 -0.0033293853 -0.03537375 -0.032562368 0.001647006 0.006724925 -0.009349217
0.07339386 0.026254304 -0.050300393 -0.008627133 -0.1446376 -0.009497998 0.052364808 0.0150080025
0.03702398 -0.011685082 -0.019075437 -0.004625496 0.0056817415 0.052313138 0.03339116 -0.017998671
-0.002777614 0.031713296 -0.008610228 -0.10114998 -0.10049766 0.0011142886 -0.06540706 -0.0345625
-0.0053969226 0.0019077259 -0.017883454 0.011685706 -0.033764813 -0.024167037 -0.027828708 -0.07037918
-0.10311868 -0.11135685 -0.05229319 -0.123620376 -0.08368087 -0.08813669 -0.12821819 -0.14741601
-0.13194291 0.076334424 0.06471243 0.050014466 0.01073927 0.047187578 0.017984107 0.0478218
0.06090255 0.02354713 -0.024190051 0.014565985 -0.01407638 -0.064922415 -0.026619667 -0.13523363
-0.14343508 -0.005403637 -0.10318292 -0.011245849 0.10355134 0.1097183 0.018517427 -0.0075450502
-0.033086017 0.11328708 -0.0039820885 0.005425346 -0.036033753 -0.013573913 -0.07504403 0.043163862

encoder_layers.block_0.transition_deep.bias f4 [26]
00000000: 7135 a9bd b958 b0bd 409c 35bd bf59 9c3d
00000010: e2d0 993d cd6e 1e3d d05b 943d d220 4c3e
00000020: 9eb1 ed3d 65c4 1ebd b2ad e9bd 6a2b a63d
00000030: 0165 233c 65d2 c53c dbac 493d eed6 2e3c
00000040: af26 87bd a6a6 9abd 7df2 0ebe 15eb 673e
00000050: 1de3 54bd 91d4 133e 949f 1f3e fb1e e6bc
00000060: 597f 0fbe 082e 233e
-0.08262146 -0.086106725 -0.044338465 0.07634305 0.07510544 0.038679887 0.07244074 0.19934395
0.116061434 -0.038761515 -0.11410083 0.08113749 0.009972812 0.024148175 0.049237113 0.01067136
-0.06599175 -0.07551317 -0.1395969 0.2264827 -0.051974405 0.14436556 0.15588218 -0.028090945
-0.14013423 0.15935528

encoder_layers.block_0.conv.weight f4 [52, 26, 1, 1]
00000000: 0fa5 433c a928 36be 2d23 703d 2b6e 5ebe
00000010: f8bd 7fbb 3ae8 513d 0585 083f 0cb2 83be
00000020: 68d1 143c c3b4 443e 0eb8 003d 7dee fcbc
00000030: 61a2 c3bc 2ea0 a03d a8e6 84be 20a0 dd3d
00000040: 1b82 68bd 77df 6dbd ca3c 8f3d 9392 413d
00000050: d7f3 d33d 1820 63bc 76c1 93bd e42c d53d
00000060: 4255 66bd 1c83 b7bb e37d 7e3e 68d3 00be
00000070: 526c 8fbd dafd 973d f7ee cebd a80f 323d
00000080: 12bb 73bc c47d dfbd e6e8 19be dbe8 c2ba
00000090: 0772 01be fff1 8bbe 00d7 e63d 2077 7bbe
000000a0: c059 cc3d 40d8 3cbe d8c4 123c 4b56 f13d
000000b0: db58 e03e 022b 48be e3a8 473d 8c40 d7be
000000c0: 5db2 c0bc 42c2 e9bd aae3 c3bc c4a5 95bc
000000d0: d101 a83c 61fb 4fbd 8dc4 16be d54e 68bd
000000e0: 7705 9dbe ed11 28be e4b6 f83c 2f79 20be
000000f0: 8af0 aebd a623 0e3e 96cf 023c 41c3 2d3d
00000100: ec2d 1cbe 4a78 0dbd 0ed8 76bd b694 e63c
00000110: c0f7 25bd 39bb 46bd 2217 0f3d 6607 0d3d
00000120: bb45 3a3d b0b7 763d 8975 953d eb7c 81bd
00000130: 0a38 87bd a563 443c af48 193e a179 85bd
00000140: 0128 bebc c7f6 d2bc 5aa5 083d a899 213e
00000150: abe0 febd a4ee 843d 5140 c1bd 3cc9 053d
00000160: fb58 083d ecb5 cabd d0f8 083e 4d13 2c3d
00000170: 13c5 cebd 2754 b2bd 389a 0c3c c0e9 723e
00000180: 8a4c 9bbc 9105 dabc f3b3 c03c 7d2f f73b
00000190: 3248 65be f6da 523e b71d ad3d b234 9fbd
000001a0: e9a8 54be dfd3 09bb 39c5 4abe db66 853d
000001b0: 8902 a1be 5093 11bf c243 6c3d 1b1f 09be
000001c0: c511 4abd f8cb 173e d344 cdbd 9b2b 203d
000001d0: 1c61 25bf e82e 0a3e ac41 4fbe 59d6 483e
000001e0: 3d77 573e 5899 403e 03a0 00bd 4484 14bd
000001f0: b2ac c2bd 9be4 623d 7fc3 86bd a57b 09be
00000200: 51c1 4dbe 67d8 c3bc b21b 883e 1c7a 713d
00000210: c903 9ebd 2a43 0c3d 6a58 debb 67fc 173e
00000220: 60c9 d9bb 8b17 89bd 39e1 88bd 6ab3 453d
00000230: a5a3 e93b faf8 c7bd 1dc2 4e3c b524 8ebe
00000240: 7858 243d c8d4 82be 7026 b83d 357f 1c3d
00000250: 8908 c13e 3e12 e3bc 0f31 00be 3a36 d8be
00000260: 00ba dfbd 7313 1ebe df77 4f3e 9e49 95ba
00000270: d5a2 133e b132 503d 8273 d6ba 333b 10be
00000280: 0190 40bd 5a24 093e bb96 043d e249 b7bd
00000290: 84c9 0bbe 1ee2 433c 42b7 fe3d 045e 8a3d
000002a0: b0fb a33d 1f93 b8bc 6c9f bbbd 65b1 38bd
000002b0: 7ccb 21bd ff9c 473e c712 833d 3ce1 62bd
000002c0: 12c9 373e 7742 0c3c 04be 07be 0f7d f13d
000002d0: 77c1 3a3e bc0c 3abd 6c99 e73b 10ff fabd
000002e0: 6a13 bfbd d984 e13d 195d 0f3c 3144 1bbe
000002f0: 1593 d5bd b149 e0bd 5533 3abd 331e e63d
00000300: f3d7 47bc 53c2 aabd 9183 1fbd c83c 8bbe
00000310: 6f6d 893d de52 c93c 9182 963d 22d2 00be
00000320: 60d3 083e b7d6 cabd ce08 cb3d f38f 29be
00000330: aaec 193e d0e8 c2bd 85d0 b7bc 0fb3 6f3c
00000340: bf2b 4b3c 05e2 dcbd 50e8 79bd 7aa5 db3c
00000350: ab67 2abe f896 6a3c e917 bfbd f87d 0abe
00000360: f2b6 65be 4ff2 39bd be2d 28be 87fb 68be
00000370: 33c2 213d 729a 563c 8b63 afbd 284a 9ebd
00000380: 98b7 71bd 5035 163e 86be f23d 61c8 fabe
00000390: fbc2 353e 9941 fabc 2b3b 5c3e f8fb 1c3e
000003a0: 326a 0b3c 227e d3bc f6a3 043d 7829 6cbe
000003b0: 0ead 37be cef7 503d 1fb2 0bbf 2301 93bd
000003c0: b00b f939 d93c ffbc 46fa e93b d10f 013e
000003d0: 97a2 0cbf df33 c1bd bd80 a4bd bfb9 55be
000003e0: bee6 ba3d 22a6 b13d c0cd 103e 2a77 b0bd
000003f0: e893 c0ba 33df 0abd c872 30be 0e2a 5a3d
0.0119412085 -0.17788948 0.058627296 -0.21721713 -0.0039023142 0.05124686 0.5332797 -0.25721776
0.009083129 0.1920958 0.03142553 -0.030875439 -0.02388114 0.07843052 -0.25957227 0.10821557
-0.056764703 -0.05807444 0.069940165 0.047258925 0.10349243 -0.013862632 -0.07214634 0.10408953
-0.056233652 -0.0056003463 0.2485271 -0.12580645 -0.07003082 0.07421465 -0.10104173 0.043471962
-0.014876144 -0.1091266 -0.1503025 -0.0014870422 -0.12641154 -0.27333066 0.11271477 -0.24557161
0.09978056 -0.18441868 0.008958064 0.11784037 0.4381779 -0.19547656 0.048745047 -0.42041433
-0.02352255 -0.11414005 -0.02391227 -0.01826752 0.020508679 -0.050776843 -0.14723416 -0.056715805
-0.30668232 -0.16413088 0.030360647 -0.15671228 -0.08541973 0.13880786 0.007984063 0.042422537
-0.15251893 -0.034538545 -0.06026464 0.028147083 -0.040519476 -0.048518393 0.03493417 0.034430884
0.045476656 0.06023377 0.07297809 -0.06322654 -0.066024855 0.011986648 0.14969133 -0.065173395
-0.023212435 -0.025752438 0.033360817 0.15781271 -0.12445196 0.064908296 -0.094360955 0.032662615
0.033287983 -0.0989798 0.13376164 0.042010594 -0.10096183 -0.08707457 0.0085816905 0.23721981
-0.018957395 -0.026613982 0.023523306 0.007543503 -0.22390822 0.2059134 0.08452933 -0.07773723
-0.20767559 -0.0021030826 -0.19801797 0.06513759 -0.31447247 -0.56865406 0.057681806 -0.13390772
-0.049333353 0.14823902 -0.10022893 0.039104085 -0.646013 0.13494456 -0.20239896 0.19613017
0.2104158 0.18808496 -0.0314026 -0.03625895 -0.09505595 0.055393796 -0.06580257 -0.13426073
-0.20093276 -0.0239069 0.2658363 0.058954343 -0.07715566 0.03424374 -0.006785442 0.14842378
-0.00664632 -0.066939436 -0.06683583 0.048266806 0.0071301037 -0.097642854 0.012619522 -0.2776238
0.040123433 -0.25552964 0.08991706 0.03820725 0.37701824 -0.02771866 -0.12518714 -0.42228872
-0.109241486 -0.15437107 0.20260571 -0.0011389737 0.14417584 0.050829593 -0.0016361328 -0.14085083
-0.047012333 0.13392773 0.03237031 -0.08949639 -0.13651091 0.011955766 0.124372974 0.06756213
0.0800699 -0.02253109 -0.09161267 -0.04509105 -0.0395007 0.19493483 0.06400066 -0.05539058
0.17947796 0.008560768 -0.13256079 0.11791431 0.18237863 -0.0454223 0.00706785 -0.122556806
-0.09329875 0.11011667 0.008750224 -0.15162732 -0.10428444 -0.109515555 -0.04545911 0.11236229
-0.012197482 -0.08337846 -0.03894383 -0.2719481 0.06710326 0.024575647 0.07349122 -0.1258016
0.13361883 -0.09904235 0.09913789 -0.16558819 0.15031686 -0.09517062 -0.022438297 0.014630093
0.012400567 -0.10785297 -0.061012566 0.026812304 -0.16641109 0.01431822 -0.093307324 -0.13524616
-0.2243307 -0.0453971 -0.164237 -0.227522 0.039491843 0.013098346 -0.08563908 -0.07728988
-0.05901298 0.14668775 0.11852746 -0.48981002 0.1775016 -0.030548858 0.21506946 0.15330493
0.008509206 -0.02581698 0.032382928 -0.23062694 -0.17937109 0.051017575 -0.54568666 -0.07177951
0.0004750169 -0.031156944 0.0071404306 0.1260369 -0.5493559 -0.09433722 -0.080323674 -0.20871638
0.09126042 0.086742654 0.14140987 -0.08616479 -0.0014692517 -0.033904266 -0.17231286 0.053262763

encoder_layers.block_0.conv.bias f4 [52]
00000000: 0fec 053e e6e2 b4be 4541 efbd 2514 14bd
00000010: 366d 293c 2ca0 c4be ab28 4ebe 9e11 90be
00000020: c6ec ebbd 0c6c b7bd 4337 0fbe cff3 b6bd
00000030: e98c b5bd d75e b23e 17af 1fbe c538 46be
00000040: 7dd6 5a3e 70d8 34bd c4a6 4d3d 5f05 b3bc
00000050: 1db8 64bd 24e9 213e ddb0 313e bed9 e43d
00000060: a4f7 9d3d 3b7a bcbd 161f febd a13d a9bd
00000070: d846 58bd 50fb 1abd 23b9 a3bc a4a9 d8bd
00000080: 90f4 8ebc 1e44 323c 76e5 d8bd 7c6c 6abc
00000090: ceab 303c 1487 19be d32e 723c 449b a93d
000000a0: 8cd7 223d 876a 2dbd 1e50 0f3d fe9a a6bd
000000b0: c78d 32be 9a4a 51be 376e a1bb 7470 eabd
000000c0: 100e 9cbd 0719 38be c2ad b63c 8cf2 1bbd
0.1307833 -0.3532936 -0.11682371 -0.036152024 0.010340979 -0.3840345 -0.20132701 -0.2813844
-0.1151977 -0.08956155 -0.13985924 -0.089332215 -0.08864767 0.34837982 -0.15594135 -0.19357593
0.21370883 -0.044151723 0.05020787 -0.021853147 -0.055839647 0.15811592 0.17352624 0.111743435
0.07713249 -0.09203001 -0.12408273 -0.08263708 -0.052801937 -0.037837327 -0.019985741 -0.105792314
-0.0174506 0.010880498 -0.10590641 -0.014308091 0.010783149 -0.14992934 0.014781672 0.08281568
0.039756343 -0.04233792 0.034988515 -0.08135031 -0.17436896 -0.20438614 -0.0049264687 -0.1144723
-0.0761987 -0.17978297 0.022299651 -0.038073108

encoder_layers.block_1.transition.weight f4 [26, 26, 3, 3]
00000000: 524f 24be 5fce 03bd 03f2 cdbd 5b9d 04be
00000010: 4dff 21be 4e2e 35bd a799 67bd c491 13be
00000020: b29b 48bc 361d 15ba 769f 8e3c d379 d53c
00000030: 3110 ed3b 8249 8b3d b2e4 543d 28db 67bc
00000040: 5152 933c 8a45 b93c bbec 1fbd eb7d 71bd
00000050: 8c4e 643c 3bef a0bc 5e7b adbc 213b 543d
00000060: 8fc5 06bc b8e8 e3bc 6902 8fba 7166 a7bc
00000070: 251f 893c f7e5 7dbb 5b0b c03b a0ac 7d3d
00000080: df04 b33c f2d5 083d 1e6d b0bc e63f 993d
00000090: ef62 a4bd d387 79be edd0 5bbe 8ba8 31be
000000a0: 08d0 81bd 0ec5 3abe 7311 bc3c 1f30 1dbe
000000b0: fde0 bebd eb72 3abd 8aa9 2dbc 8536 b5bc
000000c0: 2d1c b93d 5374 7a3d a676 4bbc c893 a43d
000000d0: b6c5 093e 1a79 cf3b d69a 0abd e1a7 49bd
000000e0: 7651 ea3c f610 37bc 5235 cbbd f7e0 c2bd
000000f0: 9ecd dc3c 3bb0 d5bd 100b be3d ae20 3fbd
00000100: f419 d8bc 6cd1 ea3c 0a9c 9abc dd48 31bc
00000110: 4e28 ab3c b0d8 c4bc 5093 4c3d 39cf 85bc
00000120: 2376 03bd 78a2 a8bd e73e 97bd 042e 3dbd
00000130: 7d10 743b 3d28 a0bc 6f45 9dbd 9016 fabb
00000140: f996 9ebb 4ad6 e33d beb9 1bbd 56f2 b3bd
00000150: 62bd b5bd 4042 95bd f64f bdbd e08e e23d
00000160: f035 b0bd cc4f 2ebd d5a0 453d aac0 223b
00000170: 3254 efbc 4e29 8cbd b6a5 4d3d 8908 373b
00000180: 4e1e 0f3c da73 42bd 94de 35bd 50f8 2abd
00000190: 8eb3 0abd ccc0 1c3c 4659 763d 224c 07bd
000001a0: 3e92 e43b 2a73 d8bc 7928 92ba 5c7c 323d
000001b0: 1c57 2e3c 35ef c6bb b432 393c 6943 ef3d
000001c0: 4be9 9dbb 7e6c 2abc 271a aabd 4e7a ac3d
000001d0: fbfd e7bc 9074 6dbd 12ff 2fbd 9075 cbbd
000001e0: 60df 663d f5a6 cdbd 8a1e 0d3d 0f6b 853d
000001f0: 3952 f03d 3088 c7bc fc45 b2bc 44a6 5dbd
00000200: 56d1 5d3e 1c11 493d 7006 cb3e 172a 013e
00000210: 76ca be3d 9af8 873e dfef 093e 5a08 9ebd
00000220: b9f2 d0bb 9a95 63bb 8fd4 25bd 8e47 95bc
00000230: 93b1 f93b c851 b4bd d8e4 adbc 7eaf 333d
00000240: 8f78 78bd 5cad e7bd 939e 76bd 74e7 f43c
00000250: e08e aabd f144 ca3d 41ec 503d 9f56 b73d
00000260: c23a 8c3d 2e4e 3c3d 56c4 863d 53de 603d
00000270: c908 c73d c00b 19be 4e9a 6b3d 5778 4d3e
00000280: 32e1 933d 8c8d 203e c167 efbd 0974 db3d
00000290: b698 3fbe 4c49 4f3d 736e 2fbe 793b 61bd
000002a0: 27e0 dc3c 2d9b 9fbd 0a35 a13e db93 903d
000002b0: d7db e6bb ed42 263d 81d0 3dbc fa18 193e
000002c0: 1430 1ebd 0f37 203e 0f26 24bd 36f5 0ebe
000002d0: 166d 9a3c bf28 61bd 84e1 09bc 87b2 f33d
000002e0: 8022 bcbd 9a10 a3bc 5961 463e 9d88 b33d
000002f0: 7852 0f3e f7d2 8abc bd42 0ebe 1ef2 59bc
00000300: e2a5 b63b 995c 6a3b bc30 f8bd 4288 ab3d
00000310: a918 83bd 5404 05be a810 07be 5fec 3abe
00000320: ec91 983c 0239 10be d88a efbd 897c 0bbe
00000330: c7fd f63c fb4a 0cbe 1a7e c7bd 98c7 3abe
00000340: 6cb5 013c 2e38 e3bd 156d 92bd 84ad 3d3d
00000350: 1091 83bb 780f 95be 06cf b8bd d36d 14be
00000360: 3de9 8a3d a374 933d 6e38 a63d d431 39bd
00000370: f3bf cc3d 423f 833d 4dc1 c73c a1bb 02bd
00000380: d0ae 823d 1023 0e3d fd69 15be 7741 00bd
00000390: 7347 c6bd ca67 9fbd 8f4f 7cba aa09 fdbd
000003a0: 89c1 48bd 911d efbc c281 d73d 5f65 673e
000003b0: 8740 133e 3efb 8e3e 58af a93e fbac 2e3e
000003c0: e712 423e 0cb5 2b3e bd45 f93b 0837 173d
000003d0: fd5b 13bd 16a1 953d b259 cd3b f84e ab3d
000003e0: 2517 3d3c 808c 833d 3a94 183d efe7 2e3d
000003f0: 02e5 c2bb 6d5b a8bd 7a27 bcbb 7214 1dbd
-0.16045883 -0.032179233 -0.10055926 -0.12950651 -0.15820046 -0.044233613 -0.05654302 -0.14411074
-0.012244152 -0.00056882517 0.017410021 0.026059067 0.007234596 0.0680113 0.051975913 -0.014151372
0.017983587 0.022616167 -0.039044123 -0.058957975 0.013934743 -0.019645324 -0.02117699 0.051814202
-0.008225813 -0.02782093 -0.0010910752 -0.02043459 0.016738484 -0.0038741806 0.0058607287 0.061932206
0.021852909 0.03340716 -0.021536406 0.07482891 -0.080266826 -0.24368219 -0.21466418 -0.1734945
-0.06338507 -0.18239233 0.02295754 -0.15350388 -0.09320257 -0.04551975 -0.010599503 -0.022120724
0.09038577 0.06114609 -0.012418425 0.080359995 0.13454327 0.006331575 -0.03383907 -0.049232367
0.028603297 -0.011173477 -0.099222794 -0.09515565 0.026953515 -0.10434004 0.09279454 -0.046662025
-0.026379563 0.028664313 -0.018873233 -0.010820595 0.020893242 -0.024029106 0.049945176 -0.016334163
-0.032095086 -0.082341135 -0.073850445 -0.046186462 0.0037241273 -0.019550437 -0.07679259 -0.007632084
-0.0048397747 0.11124857 -0.038018934 -0.08786456 -0.088740125 -0.07288027 -0.09243767 0.110624075
-0.08604038 -0.04255657 0.048249085 0.0024834075 -0.029214952 -0.06843816 0.050206862 0.0027928671
0.008735253 -0.047473766 -0.04440172 -0.041740716 -0.033862643 0.009567451 0.06014373 -0.03303159
0.0069754412 -0.026422102 -0.0011150978 0.04357563 0.010640886 -0.006070996 0.0113035925 0.11682779
-0.0048190705 -0.010401843 -0.083057694 0.08421765 -0.02831935 -0.05797249 -0.042967863 -0.09934533
0.05636537 -0.1004161 0.034452952 0.065145604 0.11734433 -0.024356931 -0.021761887 -0.05411364
0.21661887 0.049088582 0.3965335 0.12613712 0.0931596 0.26556855 0.1347041 -0.07716437
-0.006376591 -0.003472662 -0.040485915 -0.018222596 0.0076200454 -0.08804661 -0.021227285 0.043868534
-0.06066185 -0.113123626 -0.060209822 0.029895522 -0.083280325 0.09876431 0.05100656 0.089520685
0.06847145 0.045972995 0.06580417 0.054899525 0.097184725 -0.14945889 0.057520203 0.20065437
0.07220687 0.15678996 -0.11689711 0.10715491 -0.18710598 0.05060701 -0.17131977 -0.05498836
0.026962353 -0.07793269 0.31485778 0.07059451 -0.00704525 0.04059117 -0.011585356 0.14950934
-0.03862007 0.15646003 -0.040075358 -0.13960728 0.018850844 -0.0549705 -0.0084155835 0.11899286
-0.09186268 -0.019905377 0.19373073 0.08766291 0.13996303 -0.016946299 -0.13892646 -0.013302354
0.005573974 0.003576076 -0.1211867 0.083755985 -0.06401188 -0.12989932 -0.13189948 -0.18254231
0.018624268 -0.14084247 -0.11696404 -0.13621725 0.030150307 -0.13700478 -0.09740849 -0.18240201
0.0079167895 -0.110947 -0.07149712 0.046308056 -0.0040150955 -0.29113364 -0.090238616 -0.1449502
0.06782768 0.07199981 0.08116232 -0.045213535 0.09997549 0.0640855 0.024384165 -0.031917218
0.06380999 0.034701407 -0.14591213 -0.031312432 -0.096815966 -0.07783468 -0.0009624892 -0.12355359
-0.049012695 -0.029188903 0.10522796 0.22597264 0.14380084 0.27926058 0.3314159 0.17058174
0.18952523 0.16768283 0.0076071904 0.036917716 -0.0359764 0.07306115 0.006266796 0.083646715
0.011541163 0.064232826 0.037250735 0.042701658 -0.00594771 -0.08220563 -0.0057420107 -0.038349576

encoder_layers.block_1.transition.bias f4 [26]
00000000: 1e15 063d bca0 923c 12c8 bdbc a405 09bb
00000010: 9c33 b0bd 59dd f0bd 53a1 e23c 63c8 e23c
00000020: 42e6 8d3b 5475 483c d82d 41bd eceb 07bd
00000030: 3ce0 323d 1435 56bd aa1c f2bc 7eef 89bc
00000040: 5512 353d dd69 a5bd 7e12 273c 609e 9ebb
00000050: 5520 bcbb 6d13 673c 44de c83c 1fb9 c03d
00000060: 2271 68bd f728 33bc
0.032734983 0.01789891 -0.02316669 -0.0020907903 -0.08603594 -0.11760969 0.027664816 0.027683442
0.0043304274 0.012235004 -0.04716286 -0.033183977 0.043670878 -0.052296713 -0.029554684 -0.016837832
0.044206936 -0.080768324 0.01019728 -0.004840657 -0.005741159 0.014103753 0.024520047 0.09410309
-0.056748517 -0.01093506

encoder_layers.block_1.transition_deep.weight f4 [26, 26, 3, 3]
00000000: 81db b0bd 7e26 c1bd df30 71be b8fd a1bb
00000010: f3c0 02bc 0870 9dbc 848d 5dbc e1c7 b93c
00000020: 557b 5cbe ea51 953c 1103 0c3e 13e1 613e
00000030: e539 913d f638 423e 95d1 143e 6580 b13d
00000040: 76bf eb3d 6462 233e 6cf5 633d 6165 f63c
00000050: 2243 483e 4312 443d 2e82 bdbe 271e d03d
00000060: f2e7 ac3d 1305 323d c9af 8d3c 1b7a cabd
00000070: 533c bf3c 64e9 26be 3a7a 2abe c504 8bbe
00000080: 0cff a5bc b354 29be 5875 abbe c47f f9bd
00000090: a20d 03bd c4fa 79bd e907 d73c 4c3a 41bd
000000a0: 5bfb 0fbb 3cd0 f93c dfba a4bc 1919 5e3b
000000b0: aaa9 103d a190 6b3e 9558 0b3d 498b fd3a
000000c0: 3f7f 103e 6cf8 9d3d e82b 15be 4ce9 7f3d
000000d0: 35f6 243d 1f5e a9bd 109d 943c af8c f8bc
000000e0: 41b8 2b3c a9d6 623d 7e31 09bd c24a a03c
000000f0: bee6 53bc 08f7 a8bb c1a2 d13c e4cb 8e3d
00000100: 5aab 04bd df5a 6a3b 8b34 703d bf2e a6be
00000110: d4df 6ebe 1b24 503d 1c0f 663c 9436 983d
00000120: 631b aabc 4863 5c3d f10a 8bbb 479a 983d
00000130: 9731 4a3e a612 c83d 234e 16be b6d4 ac3d
00000140: fa28 1ebd 73f3 a8bc 3e6d 9e3b bc72 febd
00000150: fcd9 67bc 26f9 72be 2be0 753c 548f 15bd
00000160: 56cb edbb 137f 4f3c 9000 c2bd 0085 0cbd
00000170: 0271 00be 9808 fdbd 7140 88be c57a 17be
00000180: 90f4 1abd 0986 833d da68 66ba 6662 cabb
00000190: 2f41 4b3c 37c0 f73c 7300 70bd 3c65 cf3c
000001a0: 6d2f b4bd f7a3 f6bc 8415 fdbb 63aa 03bd
000001b0: e4f0 dabd 6b65 72bb 9062 f0bd a21b a9bd
000001c0: 4a62 b7bc 0d6c 323d 5954 e5bd ec1e d4bd
000001d0: 066a d5bd 17c6 cc3c a023 f33d afd5 b2bb
000001e0: 5165 d23d ffe1 353e 4490 9e3e f55a 1fbd
000001f0: 4b45 053d 75ce c2bd a816 e8bc 3fc8 54bd
00000200: 5c67 2bba 5a65 c83d c31f c03d 6cdd 393e
00000210: 30af 383e e8aa 88bd 4d16 873d adaa 833c
00000220: a235 113e 1aa9 053b 337c 8fbd fa58 9e3e
00000230: 7332 4dbe 25b5 8c3e 9649 1ebd 8b54 373e
00000240: b4eb bd3e 48c5 aebd 525a 233e 1bca 50be
00000250: fcdd ce3e febf c63d 48c0 343e a009 72bc
00000260: 2e42 123e e29b 773e 3e16 323d 19b9 9c3e
00000270: c96e d4bd 2d63 3c3e 5925 523d 259e 4b3c
00000280: 4635 bfbd 0d0f e0bb 7d69 fcbc bd36 5abc
00000290: ae05 e13c a986 2b3c 6042 f2bc 7106 a73d
000002a0: e162 eabc 2431 c8bc 879f 813d e4ba 04be
000002b0: bc3e 2dbe ae14 ca3d f9b3 4abe 9a37 473e
000002c0: 622f 043d dece d03e d288 433c ffc3 6a3e
000002d0: 9892 933d bb70 033e ebbd fb3d 19c0 633d
000002e0: eafd 443e 67ef e23c c9b3 163d 2f33 81bd
000002f0: 7079 cb3c f44e 8a3c 0863 9c3d 2018 bb3c
00000300: 9282 753d 26dd 123d 6922 45bd ae0e dcbb
00000310: f111 5ebb c88c 1c3c 9b18 b0bc 8fd6 e0bc
00000320: edd9 8cbd 95b2 81bd 39da 45bd cdae 73bd
00000330: d0b5 22bd b78a b1bc c778 9bbc 7ef4 29be
00000340: fc99 2e3e d323 73bd 2a02 41be fa02 4ebe
00000350: 2d9f 62bd f6ca 9dbd 2a98 833d 0e28 a0bd
00000360: 3ec8 c2bb 3382 a8bd 31ec 1bbd faaf e0bd
00000370: 7273 3fbc 3226 d93c 9aea f8b9 e036 42bd
00000380: 6b2a 803c 72d6 1c3e 95fb 8e3d e7b1 3f3e
00000390: b3ec d33d a1f0 59be c8e0 d9bd 3c33 083d
000003a0: a825 2e3e 4399 4abd 948a 84bd 1e6c d13c
000003b0: c004 0e3c ddbb d5bd 7dc4 6dbd f77a 8ebd
000003c0: d1ee 85bd 1794 37be c436 53bd bc84 50bd
000003d0: 67b2 29bd d693 11bd 23fb 97bd beec db3d
000003e0: daff ac3d 6802 f8bd f2a1 87bb 3b33 54bd
000003f0: 020f 39bd 8b25 e8bd e187 093e 242d f23c
-0.08635617 -0.0943117 -0.23553799 -0.0049435757 -0.007980573 -0.01921846 -0.0135225095 0.022678318
-0.21531422 0.018227536 0.13673045 0.22058515 0.07091121 0.18967041 0.14533074 0.086670674
0.11511128 0.15955502 0.055653974 0.030077638 0.19556859 0.04786898 -0.37013382 0.10162001
0.084426776 0.04346187 0.017295735 -0.09886571 0.023344195 -0.16299969 -0.16648188 -0.27152076
-0.020263217 -0.16536216 -0.33487964 -0.121825725 -0.031995423 -0.061030164 0.026248889 -0.047174737
-0.0021969888 0.030494802 -0.020108638 0.003388947 0.035318054 0.2300439 0.034020025 0.0019343878
0.1411104 0.07713398 -0.1456753 0.06247835 0.040273864 -0.08269905 0.0181413 -0.03034052
0.010480941 0.055380497 -0.033494465 0.019566897 -0.012933431 -0.0051564015 0.025590302 0.06972483
-0.032389976 0.003575973 0.05864386 -0.3245754 -0.23327571 0.050815683 0.014041688 0.07432285
-0.020765012 0.05380562 -0.0042432477 0.07451301 0.1974548 0.09769182 -0.14678244 0.08439009
-0.038613297 -0.020623898 0.0048348 -0.124242276 -0.014151093 -0.23727855 0.015007059 -0.03651364
-0.0072569055 0.012664574 -0.094727635 -0.034306526 -0.12543109 -0.12355155 -0.26611665 -0.14792927
-0.03783089 0.064220496 -0.0008789428 -0.006176281 0.012405678 0.030243022 -0.05859418 0.025316827
-0.08798108 -0.030107481 -0.007723512 -0.032144915 -0.106904775 -0.003698672 -0.11737549 -0.08257224
-0.022385735 0.043560077 -0.11197729 -0.103574604 -0.10420613 0.0249968 0.11872029 -0.005457602
0.10273231 0.17761992 0.3096944 -0.038905103 0.032536786 -0.09512035 -0.028331116 -0.051948782
-0.0006538534 0.09784956 0.09381058 0.18150872 0.18035579 -0.06673223 0.065960504 0.016072595
0.14180616 0.0020394982 -0.07006111 0.3092726 -0.20038776 0.27481952 -0.038644396 0.17903344
0.3709389 -0.08533722 0.15952423 -0.20389597 0.40403736 0.09704588 0.17651474 -0.014772803
0.14283058 0.24180558 0.043478243 0.30609968 -0.10372693 0.18397208 0.05130515 0.012427841
-0.09336333 -0.0068377317 -0.03081202 -0.013318715 0.027468529 0.010469117 -0.029572666 0.081555255
-0.028611602 -0.024437495 0.063292556 -0.12961918 -0.16918463 0.098672256 -0.19795217 0.19454804
0.03227175 0.40782827 0.011934476 0.22926329 0.07205695 0.12835972 0.12292083 0.05560312
0.19237486 0.027702047 0.03679255 -0.063085906 0.02483818 0.01688335 0.07636076 0.022838652
0.059938975 0.035855435 -0.04812852 -0.006715617 -0.0033885206 0.009555049 -0.021496108 -0.02744606
-0.068775035 -0.0633289 -0.048303816 -0.059492875 -0.03972417 -0.02167259 -0.01897849 -0.16597173
0.17050928 -0.059360337 -0.18848482 -0.20118323 -0.055327583 -0.07704727 0.06425507 -0.0782014
-0.005944281 -0.082279585 -0.038067047 -0.10971065 -0.011685239 0.02650747 -0.00047477038 -0.047415614
0.015645226 0.1531618 0.06981579 0.18720208 0.10347881 -0.21283199 -0.10638577 0.033251986
0.17006552 -0.049462568 -0.06471744 0.02556425 0.008668125 -0.10436223 -0.058048714 -0.069570474
-0.06539691 -0.17927586 -0.0515659 -0.050907835 -0.041429903 -0.035541378 -0.074209474 0.10738514
0.08447237 -0.12109834 -0.0041391784 -0.05180667 -0.04518033 -0.11335286 0.1343074 0.02956254

encoder_layers.block_1.transition_deep.bias f4 [26]
00000000: 1ea0 8fbd b266 7d3d 6b8a 32bd 19fd d53d
00000010: 8bb8 babd 0c1f ed3c 60e4 c9bc 62e8 1c3e
00000020: 1dd1 1bbe 6085 0f3e d3a8 7c38 d21b b93d
00000030: 3e02 0e3d 1623 07bd fda7 b13d 3868 653d
00000040: 2b1f 0a3e 16f5 5ebd 5e61 d9bd f68c 40bc
00000050: 31fb 02bd 3e68 1abe cea7 cc3e 1507 153c
00000060: 1e7c b73d 9090 1a3c
-0.07012962 0.061865516 -0.043589037 0.10448665 -0.0911723 0.028945468 -0.02464503 0.15323022
-0.15216489 0.14015722 6.023871e-05 0.090385094 0.034670107 -0.032992445 0.08674619 0.056007594
0.13488452 -0.05443295 -0.106142744 -0.011752358 -0.031977836 -0.15078828 0.39971775 0.009095927
0.0895922 0.00943388

encoder_layers.block_1.conv.weight f4 [52, 26, 1, 1]
00000000: 75ff 723e a484 373e ba99 aabd 8e18 a3bc
00000010: a280 c8bd fed9 82bd e3c3 31bf f28b 9a3b
00000020: 1ff0 15be 23a8 083f acc6 183e 03c2 3d3d
00000030: 4c90 f43d dcca 94be ea09 303d 324f 7abd
00000040: 7f0a cfbd ac6a 98bd 93b2 32be 9d2b 89be
00000050: 8851 163e ba14 b5bd 075d 363d 30db 8b3d
00000060: 9751 a3bc 1990 8ebd fa9d 8ebe 3330 c03c
00000070: 153e b93d cd57 8d3e ef91 0d3e a68b 553e
00000080: 63cf 00bc a697 91be d395 883d 852b 97bd
00000090: 0aa3 973e cf59 bc3e 3548 babe 67e3 8ebc
000000a0: c765 2c3e 8fd1 03bf ede3 11be 73ed 1dbe
000000b0: 70c2 94bd ba60 353e e92b e93c adca 44bd
000000c0: 6745 a5bd 1862 f63c f54c c1ba 3edf 1c3e
000000d0: d190 5bbd 3f7b d3bc f25a e3bd c3f9 863e
000000e0: ae3c f3bd 15a8 813e 93ce 46bd f44e 08be
000000f0: 6f96 c33d 79cb 6c3b 2cdb ba3e 911c a43d
00000100: 9819 fa3c 4edb 883b c0e8 c43d dd40 a4bc
00000110: 7772 b13d 5321 8dbd aec7 77be 3653 c8bd
00000120: 9e29 0ebe 8234 6dbd 8224 59bd 51b9 d33e
00000130: 26e3 a3be 354b e4bd bc88 f63c c154 f8bd
00000140: 9f3d 7bbd 778e 83be b4c7 66be 1cfe 303f
00000150: c2e9 9ebe 7633 353d e078 adbe 8210 663e
00000160: e776 efbe 7311 59be f083 2d3e 2f3a 32be
00000170: 543c 8c3d c7ca 003e b93e 113e 305a 163e
00000180: 4043 9c3d 6447 c1bc a691 783e eacd 57bd
00000190: eedd 093f d196 603e ec3e 50bb d429 19bf
000001a0: d6dc d83d 04f9 003e c58c 513d b296 68bc
000001b0: 5348 6ebd 0fc7 bfbe cf26 4e3c 1e49 40bb
000001c0: 2947 833d 44c7 bbbd 3781 d73d 441f e33d
000001d0: 803a 54bd e801 cc3d 5f2b d13b 1820 f6bd
000001e0: 73f7 cd3b 07dd 16be 96b9 d23d 39ed 52be
000001f0: ba62 ca3d faf6 2c3d fe2e 96bd 0e8b 44bd
00000200: 0157 db3d 49d6 453e ad84 ffbd f130 afbd
00000210: 8d0f f93c 664f e8bd 9b6c 9a3d 268d 2b3e
00000220: 0610 e6be f569 e43b 399d abbd 820b 8c3e
00000230: e1ba 2e3e 9798 18be 9686 9c3d f938 4fbe
00000240: a67e 2f3d 0d4c e53d 6184 bebd d3b7 a53d
00000250: 38c9 f83e a70e 13bd a804 84bc e6a7 a5bd
00000260: 1d35 61bd 4b6c bd3d 6cfe 77be 3db8 5d3d
00000270: f5fe 4fbe aff8 0cbe 326d 4b3c 9ee4 fd3d
00000280: 27eb 14be c7a1 3b3e 1f89 0fbe fb5d e63d
00000290: c9c9 3abd 7782 bb3d 99d0 35bd dc55 bbbd
000002a0: f6fa 093e 4683 003e a0bb d7bc 1387 3f3d
000002b0: a19f a73b 987a 873d 92bd 6ebb 4f98 0c3d
000002c0: 5fe9 733b 8c02 56bd e10c c13d 4230 403d
000002d0: 8158 4abd 4329 84be 54e0 343e d3de 9c3b
000002e0: ddad 0abe a1eb 36be b480 2fbc ed95 90bd
000002f0: affd 7dbd 6c4f a23e 49bc 75bd 0cbe a53d
00000300: cd30 ce3d a551 3ebe 3404 c4bc fd86 40bd
00000310: f893 95bd c9de 353e 1345 85bd c48a 0c3e
00000320: de28 fc3d da96 1cbe 0df8 ef3d 7694 013e
00000330: 53d4 873e 66fb 8bbe eb47 f93c d17d 333e
00000340: 2355 a1be 2512 e1bd 73f6 b0bd 7dd8 c03e
00000350: 6bec debd c10c 283d 358e 7fbe 4d2d 5d3e
00000360: bb24 14bf 1de8 1f3e 9243 bfbd 2821 86be
00000370: 5c72 ccba 590e c1bd 34fd bebc 2015 c63d
00000380: b513 8b3c 92f5 1d3e 886d 883e 92f8 d93e
00000390: d13f 7b3b 21a0 1abe 5cc7 6b3f 0eb2 90bd
000003a0: e5fb fdbe d82c 79be a8d4 473d 8083 dd3d
000003b0: 0789 d83c 4875 ea3e 9303 2abe 5cb6 833e
000003c0: 8aa6 ffbd 5c2d ba3d 69de e9be b0bf 783e
000003d0: 59bc b5be b473 89bd 8c47 d53d 48ca 5abe
000003e0: ace2 a73d 2260 1c3e bcb3 5dbd 16c4 f13c
000003f0: ace9 efbe dded 89bd f405 543d 640c 7fbd
0.23730262 0.17921692 -0.08330102 -0.01990917 -0.0979016 -0.06389235 -0.69439524 0.00471639
-0.1464238 0.53381556 0.14919537 0.046327602 0.11941585 -0.2906102 0.042978205 -0.061110683
-0.10109424 -0.07442221 -0.17450933 -0.26791087 0.14679539 -0.08841844 0.04452231 0.06828916
-0.019936366 -0.06961078 -0.27854902 0.023460483 0.09045044 0.2760605 0.138252 0.20854053
-0.007861945 -0.2843601 0.06669202 -0.073813476 0.29616576 0.3678727 -0.36383215 -0.017442418
0.168357 -0.51491636 -0.14247103 -0.15422611 -0.072636485 0.1771268 0.02846332 -0.04804485
-0.08069878 0.030076072 -0.0014747666 0.15319535 -0.053604905 -0.025815604 -0.11101331 0.26362428
-0.11876808 0.2532355 -0.04853685 -0.13311368 0.09550177 0.0036132021 0.3649534 0.08013261
0.030529782 0.004176534 0.09614706 -0.02005046 0.086644106 -0.06891122 -0.24197266 -0.09781496
-0.13883063 -0.057911403 -0.053013332 0.41352323 -0.32009238 -0.11147157 0.030094497 -0.121255405
-0.061338063 -0.2569463 -0.22537118 0.6913774 -0.31037718 0.04423853 -0.33881283 0.22467235
-0.46770403 -0.21198063 0.16944861 -0.17405008 0.06847444 0.12577353 0.14184083 0.14682841
0.076300144 -0.023593612 0.2427431 -0.05268661 0.5385426 0.21932532 -0.0031775786 -0.5982945
0.10588996 0.12594992 0.05115964 -0.014196085 -0.058174442 -0.37456557 0.012582495 -0.0029340456
0.06410057 -0.09168866 0.10522693 0.11089948 -0.051813602 0.09961301 0.006383344 -0.1201784
0.0062856018 -0.14732753 0.10289304 -0.20598306 0.09882112 0.042227723 -0.07333182 -0.047984175
0.10709954 0.19320025 -0.12476478 -0.08554257 0.030402923 -0.11343269 0.07540246 0.16753063
-0.449341 0.006970639 -0.08379597 0.2735253 0.17063476 -0.14901958 0.07642858 -0.20236577
0.04284539 0.11196146 -0.09302593 0.08091702 0.48591018 -0.035902645 -0.016115502 -0.08088665
-0.054982293 0.09249171 -0.24218148 0.05413078 -0.20312102 -0.1376674 0.012416171 0.12397121
-0.14542829 0.18323432 -0.14017151 0.11248394 -0.045602594 0.091557436 -0.044388387 -0.09147236
0.1347464 0.12550077 -0.026334584 0.046759676 0.005115465 0.0661518 -0.003642891 0.03432494
0.0037217957 -0.052248523 0.094262846 0.046921022 -0.04940081 -0.2581273 0.176637 0.004787305
-0.13542886 -0.17863323 -0.010711838 -0.07059846 -0.06200951 0.3170122 -0.059994016 0.08092889
0.10067902 -0.18585832 -0.023927785 -0.047003735 -0.073036134 0.17760767 -0.065073155 0.1372481
0.12312482 -0.1529192 0.11717234 0.1265429 0.26529178 -0.2734024 0.030429801 0.17528464
-0.31510267 -0.10989789 -0.086407565 0.37665167 -0.10884937 0.041027788 -0.24956591 0.21599312
-0.57868546 0.15615888 -0.0933906 -0.2619717 -0.0015598047 -0.09426565 -0.023314096 0.09671998
0.01697717 0.15425709 0.26646066 0.42572457 0.0038337598 -0.15100147 0.92101073 -0.07065211
-0.49606243 -0.24333513 0.04878679 0.10816097 0.026432527 0.45792603 -0.16602926 0.25725067
-0.12482937 0.09090683 -0.45677498 0.24291873 -0.3549526 -0.06711522 0.10414037 -0.21366227
0.08197531 0.15271047 -0.054126486 0.029512446 -0.46857965 -0.06734822 0.05176349 -0.062267676

encoder_layers.block_1.conv.bias f4 [52]
00000000: 0089 bd3d f6f6 5dbd 55be 8abe 9692 3e3d
00000010: 15e4 813d f22f cdbd 2b0a 6a3d 81e3 2c3e
00000020: 65b5 f93e 828f cebc c14d b7bd 7684 ad3d
00000030: b857 38be fc1f 98be 59e0 bdbb a04b ed3e
00000040: 8a01 5dbc 2d24 38be 4453 c93c 9b7b c13d
00000050: fb73 f6bd 6c20 02bd 833f 843d 8b6e 1bbe
00000060: dcb9 62be 8af1 0ebe c5ce 22bd a496 7fbd
00000070: 8fc7 a0bd 5323 0dbe 159f 983d 5f6e 0f3e
00000080: 0ca3 d43e 8b67 f13d 56ad 51be 5401 cfbe
00000090: 6c47 c53c 37ba 183d ac16 14bc 347f 0fbc
000000a0: 8280 23be 8766 c1bd 0726 6c3e 8ec8 c4bd
000000b0: fa78 70bd fe29 cb3c 59e7 2e3e 5ade 273e
000000c0: 2dd5 cfbd af14 17be 11f6 a2be f788 c23b
0.09254646 -0.0541906 -0.27098337 0.046526514 0.06342331 -0.100189105 0.057138603 0.16883661
0.48771206 -0.025214914 -0.08950377 0.084725305 -0.18002212 -0.29711902 -0.0057945666 0.4634676
-0.0134891365 -0.1798255 0.024575837 0.09447404 -0.1203384 -0.0317692 0.064574264 -0.15178888
-0.22141212 -0.13959327 -0.039747972 -0.06239952 -0.07850563 -0.13783006 0.074522175 0.14006947
0.41530645 0.117873274 -0.20476279 -0.404307 0.024081908 0.037286963 -0.0090386085 -0.008758355
-0.1596699 -0.09443384 0.23061381 -0.09608565 -0.058709122 0.024800297 0.1708044 0.16393414
-0.10148082 -0.14753984 -0.3182836 0.0059367376

decoder_layers.block_0.transition.weight f4 [26, 13, 3, 3]
00000000: b426 febd fafa e5bd 70c6 0dbe d264 04be
00000010: 200c 0d3c db97 acbc a2f9 c7bd 419a d1bd
00000020: 3678 df3b 07c6 5b3d 4bb0 c33b fa0d a8bc
00000030: 3880 b4bc 9a6b 7a3d 96bf 77bd 051e 263d
00000040: 2725 93bd 7652 ddbc 157d 32bd cd3b ecba
00000050: 628e 6c3d c5cb 583c 8314 17be 319d 52bd
00000060: 2fed e83d 23b4 27be af8f 3b3d bc2d da3d
00000070: 29e9 443d 2294 043e 22b6 673c 68e4 3cbd
00000080: 1018 06bd ecb5 663c 6180 06be b803 a5bd
00000090: 016f 4bbe 4f50 353e 5912 b7bd c70b 45bd
000000a0: 1431 383e 3a04 d03d ff9b a1bd 8b5b 85bd
000000b0: 783f c5bc 62ad b8bd e82d 58bd c829 08bd
000000c0: 487d fbbd 49a3 4cbd 07e1 ffbb d481 97bd
000000d0: f285 853d 9751 353d 476b 4d3d c41d 2d3e
000000e0: 9bab 0bbe 7b4b ba3d 7a5b ad3e 67b1 683d
000000f0: 8e71 d3bd a417 b03d b292 efbc 96f1 573e
00000100: 57f9 a13d f06e b23c 780e 493d 5df0 093d
00000110: 2fd4 fbbb 0189 803c f6b0 43bc 67b9 ddbd
00000120: e0d7 83bd ad39 c4bc cdb9 6abd be2b a63b
00000130: f314 003e 5eef a43d b4e4 60bd fc23 ac3d
00000140: f1d9 f2bc 70c0 b13e 086a efbc e329 0e3e
00000150: 9490 51bd fa07 9bbe e253 ad3d da49 f93d
00000160: 6f42 4fbd cb67 16be d97f 0cbd 2bc2 1cbc
00000170: d0f8 dabd 85e7 263d 6700 213d 970d 62bc
00000180: 7571 1e3d be0b aabc f869 773c 833a 10be
00000190: 9f74 e7bd ec41 8fbd 47b6 19be 76ec 4dbd
000001a0: 5c07 d7bc 9b41 18bd a56f e63d 7a6b 2d3e
000001b0: 56cf 1b3e 68d6 f73d 0bc1 b9bb ae5e acbd
000001c0: 62b1 6b3e 946a e2bc 3370 c2bc abdb efb9
000001d0: d788 aebd 1a0d fe3b a559 243c f46c c8bc
000001e0: 182b 9b3c bc53 73bb 32ab c7bb f45a b7bd
000001f0: 6b63 5dbd 136a a9bd c704 aa3d 7de1 953c
00000200: 7413 733c 2639 cc3d 2871 793d 8f2b 9a3d
00000210: 815f b63d 5365 153d ed99 a83d b963 09bd
00000220: 9f52 9e3c b2e2 0abd 2a8e 253c b0af c73d
00000230: a49b 0dbd 8b9f 9dbd b8ca 363d e99f b6bc
00000240: d3b6 c3bd 1966 6abd 096f c9bc f82a e1bd
00000250: 3e2a 80bd 08a4 49bd 25b9 bbbc 74e9 eabd
00000260: ede8 683a 51d0 4e3d 380a 7e3b deb9 3ebd
00000270: 3d72 2fbd c403 a33d 2d31 bebc f7b2 b6bd
00000280: 776b a1bc 9f29 7c3d d8da 61bc e7d8 983d
00000290: fc53 20bd b1db e93c 671c ed3d 65f9 c23d
000002a0: 7683 48bd 8442 8d3d 3323 503d 5c73 9dbd
000002b0: 40eb 2b3d 185e d63c 474e cebd a0a8 883d
000002c0: a5db cebc 5370 80bd 3634 04bd bfeb cebd
000002d0: 6920 a7bc 1b66 76bd 415d a9bd dc10 16bd
000002e0: 92a2 fdbc 4d5c 8fbd 4c70 91bd 2787 593c
000002f0: 0fde 20bd ba90 d8bd 8711 0e3d df46 f4bc
00000300: 889b 96bd 17b4 30bd 7679 84bc 4ebc f6bc
00000310: 7331 96bd 40a7 1fbd 74d4 fd3d 7902 0b3c
00000320: 7818 a63b e4bb 103d 7699 813d 53bd ea3d
00000330: f97a 9bbd 31f1 8cbd 4327 5f3d 8220 18be
00000340: 33d0 1dbe b8a0 33be 81cc 1ebe 327c eabd
00000350: b6ff 2ebd 11aa 01be 6760 61bd 7c2c adbd
00000360: f5fc fbbd 1b80 a13c d143 5fbb 02a7 dcbb
00000370: 98e0 87bc 7ce0 f6bc 38be 10bd 4224 473d
00000380: 1f87 8cbb d4e8 c03b a8c5 25bd 2289 abba
00000390: fb0f cfbb 7035 06bd 0811 21bc 8abd eabc
000003a0: 0d84 43bd df60 b9bd 20e8 d5bd f2ed d23c
000003b0: 8fe4 923c f11d babd 5346 013c d19a a33d
000003c0: 2fad 34bd 0579 943d 8d36 d63d 37ee bfbd
000003d0: 1444 07be f0da 3d3d 9eb5 843c 0355 11bd
000003e0: d614 9a3c b593 f93c fd94 843d cb7c d0bd
000003f0: c6f4 a33d 32a3 cbbc 2b8d acbd 3a9e 1bbe
-0.12409726 -0.112295106 -0.13845229 -0.12929085 0.008608848 -0.021068504 -0.097644106 -0.102345
0.00681975 0.05365565 0.0059719435 -0.020514477 -0.022033796 0.061137773 -0.060485445 0.040555973
-0.071848206 -0.02701686 -0.04357632 -0.0018023193 0.057752974 0.013232176 -0.14753918 -0.05141944
0.11373364 -0.1637731 0.045791324 0.106532544 0.04807392 0.12947133 0.014142545 -0.046116263
-0.03273779 0.0140814595 -0.1313491 -0.0805735 -0.19866563 0.17706417 -0.089390464 -0.048106935
0.17987472 0.10157056 -0.07891082 -0.06511601 -0.024078116 -0.09017445 -0.052778155 -0.03324297
-0.12279755 -0.04996041 -0.007808808 -0.073978096 0.06519689 0.044267263 0.050151136 0.16905886
-0.13639681 0.09096428 0.33858854 0.05680981 -0.10324393 0.08598259 -0.029244754 0.21088251
0.07908886 0.021781415 0.049086064 0.033676494 -0.0076852064 0.015690329 -0.011944046 -0.10826378
-0.06437659 -0.023953283 -0.0573061 0.0050711324 0.12507991 0.08053468 -0.05490561 0.08405301
-0.029644938 0.3471713 -0.029225364 0.13883166 -0.05116327 -0.30279523 0.08463265 0.12172289
-0.050600465 -0.14688031 -0.034301613 -0.009567778 -0.106919885 0.040748138 0.039307024 -0.013797185
0.03868242 -0.020757552 0.0151009485 -0.1408482 -0.113015406 -0.069949955 -0.1501094 -0.050274335
-0.026248626 -0.03717194 0.11251763 0.1693553 0.15215811 0.121014416 -0.0056687645 -0.08416496
0.23016885 -0.027638711 -0.023735141 -0.00045749298 -0.08522194 0.0077530267 0.010031139 -0.024466015
0.018941447 -0.0037128767 -0.006093406 -0.08952895 -0.05404989 -0.08272185 0.083016925 0.018295998
0.014836181 0.09971838 0.06089893 0.075278394 0.08904935 0.036473583 0.08232484 -0.03354237
0.019326506 -0.0339076 0.010104695 0.097503066 -0.03457226 -0.07696446 0.04462692 -0.022293048
-0.09556355 -0.057226274 -0.024589079 -0.10994524 -0.06258057 -0.049228698 -0.022915432 -0.11470309
0.00088848063 0.050491635 0.0038763415 -0.046563976 -0.042833555 0.079597026 -0.023216808 -0.089208536
-0.019704564 0.06156313 -0.013785087 0.07463246 -0.039142594 0.02854714 0.11577683 0.095202245
-0.048953496 0.068974525 0.05081482 -0.07688019 0.0419724 0.026167914 -0.10073524 0.06672788
-0.025251219 -0.06271424 -0.032276355 -0.10103559 -0.020401197 -0.06015597 -0.0826974 -0.036637172
-0.030961309 -0.07000027 -0.07101497 0.013276852 -0.03927427 -0.105744794 0.034684684 -0.02981895
-0.07353884 -0.043140497 -0.016171198 -0.030119088 -0.073336504 -0.03897786 0.12394038 0.008484476
0.005068835 0.035335436 0.063280985 0.11461892 -0.075918145 -0.06881941 0.054480802 -0.14856151
-0.15411453 -0.17541778 -0.155077 -0.114494696 -0.042724334 -0.12662531 -0.055023577 -0.0845575
-0.12304107 0.019714406 -0.0034067521 -0.006733776 -0.016586587 -0.03013634 -0.035337657 0.048618563
-0.0042885686 0.0058871303 -0.040471703 -0.0013087133 -0.0063190437 -0.032765806 -0.009830721 -0.028654832
-0.047733355 -0.0905168 -0.10444665 0.025748227 0.01793125 -0.09087742 0.007890302 0.07988513
-0.044110473 0.07249645 0.104596235 -0.09371608 -0.13209563 0.046351373 0.016199883 -0.035481464
0.018808763 0.03046594 0.0647373 -0.10180052 0.08005671 -0.024858091 -0.08425363 -0.15197077
