trainedModels/saveForLater/delete/lr/baseline/run18/model.pt (torch, 68993 bytes, 11 tensors)

init.weight f4 [8, 1, 1, 1]
0	0x3f1e6e0a	0.61886656
1	0x3fb8526f	1.4400157
2	0x3fbd87dd	1.4807087
3	0x3f9a3a7b	1.2049097
4	0xbfa752cc	-1.3072143
5	0x3f752f1c	0.9577501
6	0xbfb4876d	-1.4103829
7	0xbf93a041	-1.1533281

init.bias f4 [8]
0	0xbd61b018	-0.055099577
1	0xbe675fee	-0.22595188
2	0xbe998194	-0.29981673
3	0x3e02302a	0.12713686
4	0xbc3566c5	-0.011071865
5	0x3d9f4429	0.077766724
6	0x3e8efffd	0.2792968
7	0xbe4f86c4	-0.20266253

encoder_layers.block_0.conv.weight f4 [32, 16, 3, 3]
0	0x3cc63493	0.024194991
1	0xbbccaba8	-0.006246049
2	0x3d812732	0.06306304
3	0x3d6e63fd	0.058200825
4	0xbd0309f5	-0.031991918
5	0x3b1daf46	0.002406077
6	0x3dec0763	0.115248464
7	0x3bb0f959	0.0054008183
8	0x3d9ec0c0	0.07751608
9	0xbba45ffe	-0.005016326
10	0xbdefe70d	-0.11713991
11	0x3d9ecb25	0.077535905
12	0x3b2ef9fe	0.00266993
13	0xbd703fa6	-0.05865445
14	0xbda110ba	-0.078645185
15	0x3e163ed4	0.14672405
16	0xbbcc4811	-0.006234177
17	0x3dbd437a	0.09241386
18	0x3d583155	0.05278142
19	0xbd9305a3	-0.071788095
20	0x3d81708b	0.06320294
21	0x3cb3a6d7	0.021930141
22	0xbd6dcaf5	-0.058054883
23	0xbc6e7608	-0.014554508
24	0x3e2dccfd	0.16972728
25	0x3d27de29	0.040983353
26	0x3e332415	0.17494233
27	0xbe63e57a	-0.22255507
28	0xbdb15fae	-0.086608276
29	0xbe14867f	-0.14504431
30	0xbe179446	-0.14802656
31	0xbd9d2e2a	-0.07674821
32	0xbe015cdc	-0.1263308
33	0xbe5ffc3d	-0.21873565
34	0xbe3de0ac	-0.18542737
35	0xbe7cd1a8	-0.24689353
36	0x3e8664ed	0.26248875
37	0x3e841582	0.2579766
38	0x3e75bb67	0.2399727
39	0x3e6d2860	0.23159933
40	0x3de31a5f	0.11089014
41	0x3e591fa9	0.21203484
42	0x3e7babbb	0.24577229
43	0x3e9e2cef	0.30893657
44	0x3e86d55c	0.26334655
45	0xbe5f4908	-0.21805203
46	0xbd90ad24	-0.07064274
47	0xbe3203eb	-0.17384307
48	0xbe0ed65c	-0.13948959
49	0xbd6485fa	-0.055791833
50	0xbe05a860	-0.13052511
51	0xbe5f6638	-0.21816337
52	0xbe45c6e8	-0.19314158
53	0xbe544f97	-0.20733486
54	0xbd2ffcf9	-0.042965863
55	0x3d8eda9f	0.069752924
56	0xbd702177	-0.058625665
57	0xbc9f738e	-0.01946428
58	0x3d1faf3b	0.038985472
59	0x3ce322b7	0.027726514
60	0xbe20fd90	-0.15721726
61	0xbd052281	-0.03250361
62	0xbe2eca6f	-0.1706941
63	0x3e48c915	0.19607957
64	0x3da34272	0.07971658
65	0x3e3add3d	0.18248458
66	0x3de7691a	0.112993434
67	0x3d1ed406	0.03877642
68	0x3e1c248b	0.15248315
69	0x3e6a9f8d	0.22912426
70	0x3e458639	0.19289483
71	0x3e82c44c	0.25540388
72	0x3c50f422	0.012753518
73	0xbd1e6fff	-0.038681027
74	0xbd838b39	-0.06423039
75	0x3cf88663	0.030337518
76	0xbd330965	-0.04371013
77	0xbe14f8c3	-0.1454802
78	0xbe6c9884	-0.23105055
79	0xbdef801e	-0.11694358
80	0xbe0f7cb6	-0.14012417
81	0xbda3e013	-0.08001723
82	0xbdba30ff	-0.090913765
83	0x3cb29e29	0.021803932
84	0xbde4937c	-0.11160943
85	0xbde17b0f	-0.110098
86	0xbc4a8751	-0.0123613635
87	0xbd703859	-0.058647487
88	0xbd60436d	-0.054751802
89	0xbcc96360	-0.024583519
90	0xbe792c6b	-0.2433335
91	0xbd2cf052	-0.042221375
92	0xbe32cb52	-0.17460373
93	0xbe2397af	-0.15975831
94	0x3dc64f33	0.09683075
95	0xbe106322	-0.14100316
96	0xbec51bb7	-0.38497707
97	0xbe4a4eb3	-0.19756584
98	0xbe4fd351	-0.20295455
99	0xbed45510	-0.41471148
100	0xbe4e9151	-0.20172621
101	0xbea24412	-0.3169256
102	0x3de2445d	0.110481955
103	0xbc3bb058	-0.011455618
104	0xbdbd5eff	-0.09246635
105	0xbd683549	-0.05669144
106	0xbdd21e75	-0.102597155
107	0x3d5d9db7	0.054105487
108	0x3d083504	0.033253685
109	0x3dc83ee1	0.09777618
110	0x3dfce018	0.1234743
111	0x3dd3376d	0.10313306
112	0x3e0f80cf	0.1401398
113	0x3e08f917	0.1337627
114	0x3d0e0834	0.03467579
115	0x3e0bc407	0.13648997
116	0x3bf2915a	0.007402581
117	0xbdceae7b	-0.10091873
118	0x3e301d63	0.1719871
119	0xbe0e86e2	-0.13918641
120	0xbca3ad45	-0.019980082
121	0x3dee5f81	0.1163931
122	0xbd643a0a	-0.055719413
123	0xbeb9ee04	-0.36314404
124	0xbd674134	-0.056458667
125	0xbd40ffa3	-0.047118794
126	0xbe0f6417	-0.14003025
127	0x3e0e2ed9	0.13885058
128	0x3d7d0bf5	0.06177898
129	0xbbac6f73	-0.005262309
130	0x3dcc5677	0.09977429
131	0xbda655d9	-0.08121843
132	0xbd4f95cd	-0.05067997
133	0xbda6a23a	-0.08136411
134	0xbc4c9d38	-0.012488656
135	0xbd8d31bd	-0.068942524
136	0x3e2389e9	0.15970577
137	0xbb3e32ac	-0.0029021902
138	0xbe232a79	-0.15934171
139	0x3dce4002	0.10070802
140	0xbc8e9044	-0.017402776
141	0xbe9f795c	-0.31147277
142	0xbe93b1a6	-0.28846473
143	0xbeb10ee1	-0.34581664
144	0xbc5e5412	-0.013569849
145	0xbe248972	-0.16068056
146	0x3985d886	0.0002552906
147	0xbd02c229	-0.031923447
148	0xbe914ead	-0.28380337
149	0xbd47d5ea	-0.04878799
150	0x3cdd52e3	0.027017063
151	0xbdd4ee4a	-0.103970125
152	0x3c7d8f46	0.015476054
153	0xbdb00403	-0.08594515
154	0xbe7bdda0	-0.24596262
155	0xbd6f12f5	-0.05836769
156	0xbe0fdc1c	-0.14048809
157	0xbe92259d	-0.28544322
158	0xbda1920d	-0.07889185
159	0xbcfdf62a	-0.03100117
160	0xbdbf7fc2	-0.0935054
161	0xbc7376db	-0.01485988
162	0xbd8c4b34	-0.06850281
163	0xbe2a76b2	-0.16646841
164	0xbd9b2baa	-0.07576688
165	0xbde60f28	-0.112333596
166	0xbe5174cd	-0.20454712
167	0xbd1117c3	-0.03542305
168	0xbc9158e0	-0.017742574
169	0xbd81c810	-0.06336987
170	0x3cbb6f65	0.022880265
171	0x3c01b846	0.007917469
172	0xbcf74ecb	-0.030188939
173	0x3c11531c	0.0088699125
174	0xbd13549f	-0.035969373
175	0xbdb8214e	-0.08990727
176	0xbd9ef72a	-0.077619866
177	0x3cba2f4e	0.022727635
178	0xbd9bd6ae	-0.07609306
179	0x3a2b8de5	0.0006544276
180	0x3c2f9bc0	0.010718286
181	0x3e321abf	0.17393015
182	0x3daad135	0.08340684
183	0x3def4045	0.1168218
184	0x3e9f2be0	0.3108816
185	0x3e486cbf	0.19572733
186	0x3d19d347	0.037555005
187	0x3df8a001	0.12139893
188	0xbb033ab6	-0.0020024008
189	0x3d27b690	0.04094559
190	0xbd0aa329	-0.033847008
191	0x3ca6efe0	0.020378053
192	0xbd729a0b	-0.059228938
193	0xbd8f21e7	-0.06988888
194	0xbd614f0a	-0.05500702
195	0x3b2092bd	0.0024501525
196	0xbccfba66	-0.025357436
197	0xbcd91d41	-0.026503207
198	0x3d7bd9a5	0.06148686
199	0x3e137926	0.14401683
200	0x3da09884	0.0784159
201	0x3db4be08	0.08825308
202	0x3e11a064	0.1422134
203	0x3c95ede1	0.018301906
204	0xbc31d4fe	-0.010854004
205	0x3d68c1e6	0.05682554
206	0xbb34ee1b	-0.0027607742
207	0xbcf66456	-0.03007714
208	0x3cdfaf75	0.027305344
209	0xbd075d1e	-0.033047788
210	0x3b572de6	0.0032833754
211	0x3d3f3dfd	0.046689976
212	0x3d53b2fc	0.051684365
213	0xbc2ab4cb	-0.010419081
214	0x3b90e748	0.004422102
215	0x3c561e1e	0.013068704
216	0xbd549ab8	-0.051905364
217	0xbcff1493	-0.03113774
218	0xbda7a219	-0.081852145
219	0x3aaf9acb	0.0013397572
220	0xbce16bc2	-0.027517203
221	0xbdde33ea	-0.108497456
222	0x3c8937ce	0.016750243
223	0xbda46070	-0.080262065
224	0xbd971662	-0.07377316
225	0xbd497eb3	-0.049193095
226	0x3d29d015	0.041458208
227	0x3c9ab00e	0.018882778
228	0xbd9f5b6d	-0.0778111
229	0x3d668f9a	0.056289293
230	0x3c969085	0.01837946
231	0xbccffe4c	-0.025389813
232	0x3c0d9036	0.00864034
233	0xbcdc9eaa	-0.026931126
234	0x3b84d8cd	0.004054165
235	0x3d90b77c	0.07066247
236	0x3db2847a	0.08716674
237	0x3c5fe298	0.013664864
238	0x3b7ce258	0.003858706
239	0xbc58258d	-0.013192547
240	0xbd1d2d79	-0.038373444
241	0xbd934a19	-0.071918674
242	0xbd55b64c	-0.052175805
243	0xbbd8ca75	-0.0066159316
244	0x3cb2963a	0.02180015
245	0xbde624e6	-0.112375066
246	0xbcf2f2b6	-0.02965675
247	0x3bd46b18	0.006482493
248	0xbd11b7a9	-0.035575543
249	0x3d970450	0.073738694
250	0xbcfb597d	-0.03068232
251	0x3bfcbd6c	0.0077130105
252	0x3dbfcf69	0.09365732
253	0xbbe65645	-0.007029327
254	0x3d122c47	0.035686757
255	0xbcf77893	-0.030208861

encoder_layers.block_0.conv.bias f4 [32]
0	0x3d09acdb	0.033612113
1	0x3d1f292a	0.038857616
2	0x3c8aca99	0.01694231
3	0xbcaad138	-0.020851716
4	0xbd492304	-0.04910566
5	0xbbe58be3	-0.007005201
6	0x3be3afd1	0.006948449
7	0x3d013dd1	0.031553093
8	0xbcb2bd1e	-0.021818694
9	0x3d50f3f8	0.051013917
10	0x3c119d75	0.008887638
11	0xba24b68c	-0.0006283305
12	0x3d0ec808	0.034858733
13	0x3caefad4	0.021359839
14	0x3da25d66	0.079279706
15	0xbd2a3739	-0.04155657
16	0xbcb0844e	-0.021547463
17	0xbe034bbd	-0.1282186
18	0xbe3ca17b	-0.18420975
19	0x3d7fdc23	0.062465798
20	0xbd86f809	-0.06590278
21	0x3da8bca6	0.08239107
22	0x3d3462e5	0.044039626
23	0x3c88ed4a	0.01671471
24	0xbbeb61b5	-0.0071832784
25	0x3b921a2c	0.0044586863
26	0x3baeb2b9	0.005331364
27	0xbdce21a0	-0.10065007
28	0xbd2bab22	-0.04191125
29	0xbca64a6e	-0.020299163
30	0xbe8c8146	-0.27442378
31	0xbdf35cd3	-0.11882939

encoder_layers.block_1.conv.weight f4 [32, 16, 3, 3]
0	0x3c1ddec2	0.009635629
1	0xbddd9e06	-0.10821156
2	0xbd0b34ef	-0.03398603
3	0x3cdce5d8	0.026965067
4	0xbe2c5a1d	-0.1683125
5	0x3c71e451	0.0147639075
6	0xbd5e9277	-0.0543389
7	0x3d68a634	0.05679913
8	0xbded87db	-0.11598178
9	0x3dc72e4a	0.09725626
10	0xbdaceb0d	-0.0844327
11	0xbd977b2c	-0.0739654
12	0x3ca32af4	0.019917943
13	0x3bde87b6	0.0067910803
14	0xbd0d27d9	-0.03446183
15	0x3c9856ab	0.018596014
16	0x3d7952a4	0.060869828
17	0x3da88cb2	0.082299605
18	0xbd7a6bb9	-0.06113789
19	0xbd0616d7	-0.032736626
20	0xbdbf43e5	-0.09339122
21	0xbd9d1213	-0.07669463
22	0xbe2e5459	-0.17024364
23	0xbdf193c7	-0.117957644
24	0x3d8ef5f0	0.069805026
25	0xbd94aac8	-0.072591364
26	0xbdbd02cd	-0.0922905
27	0xbd5e729a	-0.05430851
28	0xbd6e221f	-0.05813801
29	0x3bef6eb0	0.007306896
30	0xbd9bf41c	-0.076149195
31	0x3dfd4e65	0.12368468
32	0x3dc7e351	0.09760154
33	0x3da2fd78	0.079585016
34	0xbddf7cc8	-0.10912472
35	0x3e38d325	0.18049295
36	0xbd0af7c5	-0.033927698
37	0xbd22fb6d	-0.03979056
38	0xbcaef8a2	-0.021358792
39	0xba3d7998	-0.0007227897
40	0xbd4d1fc1	-0.05007911
41	0xbdc82415	-0.09772507
42	0xbd158ca8	-0.036511093
43	0x3b52eea0	0.0032185689
44	0x3da612d6	0.081090614
45	0x3cb055b4	0.021525241
46	0x3d97bfef	0.07409655
47	0xbda062db	-0.07831355
48	0x3e4d05a5	0.20021684
49	0x3df90ec1	0.12161017
50	0xbdc7270a	-0.09724243
51	0xbe72afcb	-0.23699872
52	0x3e03fad4	0.12888652
53	0xbd9ef29d	-0.077611186
54	0xbc8b7e4e	-0.017028
55	0x3e3c63e9	0.18397488
56	0x3bc79128	0.006090302
57	0xbdc65872	-0.09684838
58	0xbe00104d	-0.12506218
59	0x3ddeca40	0.1087842
60	0xbd91c124	-0.07116917
61	0xbe8a9cb3	-0.27072677
62	0xbd3ca886	-0.046059154
63	0x3d6846dd	0.056708205
64	0x3d4c8231	0.049928848
65	0xbe021927	-0.12704907
66	0xbda8964a	-0.0823179
67	0xbdee4277	-0.11633771
68	0xbe2a3054	-0.16619998
69	0x3c923704	0.0178485
70	0xbd30fdc8	-0.043210775
71	0x3dac64b0	0.08417642
72	0x3d887c42	0.06664325
73	0x3d53ec6a	0.051739134
74	0x3e118f5e	0.14214846
75	0xbd0b1e10	-0.033964217
76	0x3e135dfc	0.14391321
77	0xbe1b8d4c	-0.15190619
78	0xbc377f2f	-0.0111997565
79	0x3db3f1d6	0.08786361
80	0x3e2b0dd6	0.16704497
81	0xbd8c1ab8	-0.06841034
82	0xbbc50ae7	-0.0060132626
83	0xbde86254	-0.113468796
84	0xbdeecfae	-0.116607055
85	0xbc4e80ea	-0.012603978
86	0xbdf45a65	-0.11931304
87	0xbdca0800	-0.09864807
88	0x3d1dc945	0.038522024
89	0xbe7fa541	-0.24965383
90	0xbda115d7	-0.07865494
91	0xbe3ea351	-0.18616988
92	0xbe288734	-0.16457826
93	0xbe5a0f88	-0.21294987
94	0x3ec4731b	0.38369069
95	0xbdb6cbba	-0.089255765
96	0xbe387a0c	-0.18015307
97	0xbe3a832f	-0.18214105
98	0xbe2e6ef5	-0.17034514
99	0xbdf1d28c	-0.11807737
100	0xbdb65e47	-0.08904701
101	0xbe7c31bc	-0.24628347
102	0x3d5444ad	0.051823307
103	0x3e6c6c81	0.23088266
104	0xbdafa9dc	-0.0857732
105	0x3ad67eb0	0.001636466
106	0x3d1118c1	0.035423998
107	0xbdf5334b	-0.11972674
108	0xbcaae075	-0.020858983
109	0xbd1e70c1	-0.03868175
110	0x3a9a19a4	0.0011756909
111	0x3c7c8a91	0.015413896
112	0xbf45a1bf	-0.7719993
113	0xbe43862f	-0.19094156
114	0xbdfc2c63	-0.123131536
115	0xbdbfbe7a	-0.093625024
116	0x3de6beac	0.112668365
117	0x3e0a6046	0.13513288
118	0xbe352985	-0.1769162
119	0x3c8c6799	0.017139243
120	0x3dd8515b	0.10562392
121	0xbee55e94	-0.4479872
122	0x3d9b643b	0.07587477
123	0x3e1c155f	0.15242527
124	0x3b2da098	0.0026493426
125	0x3dc9304d	0.09823666
126	0xbdd76696	-0.105176136
127	0xbd9139eb	-0.07091125
128	0xbe5263d2	-0.20545891
129	0xbd11c6f2	-0.03559012
130	0xbdde203b	-0.10845991
131	0xbdbd433a	-0.09241338
132	0xbc2e4407	-0.010636336
133	0x3d85963b	0.06522795
134	0xbdb20caa	-0.08693822
135	0x3dd38173	0.10327425
136	0x3dfc4dd4	0.12319532
137	0x3d9ecdd1	0.077541
138	0xbd04972b	-0.032370728
139	0xbe4e0eef	-0.20122884
140	0x3dbd8322	0.09253527
141	0xbe554102	-0.2082558
142	0xbc6aab7b	-0.014323111
143	0xbca79964	-0.020458885
144	0xbdb924c8	-0.090402186
145	0xbe4654a5	-0.19368227
146	0xbe2d621a	-0.16931954
147	0xbde4e0aa	-0.11175664
148	0x3d099c69	0.03359643
149	0xbe4a9341	-0.19782735
150	0x3dfbb827	0.12290984
151	0x3c885626	0.016642641
152	0xbe1812c2	-0.14850906
153	0xbe26d716	-0.16292986
154	0xbe5480ec	-0.20752305
155	0xbcd85df4	-0.026411988
156	0xbd3d8f16	-0.046279036
157	0xbe032344	-0.12806422
158	0xbd686d67	-0.05674496
159	0xbd8e257b	-0.069407426
160	0xbdb7f044	-0.08981374
161	0xbc43d0f8	-0.0119516775
162	0xbc0273a5	-0.007962142
163	0xbe165666	-0.14681396
164	0xbd1dacbc	-0.03849481
165	0x3c859393	0.01630572
166	0xbd60cd28	-0.054883152
167	0x3d867e8b	0.06567105
168	0x3d1cf59e	0.038320176
169	0x3d217914	0.03942211
170	0x3e1b408a	0.15161338
171	0x3e856e27	0.26060602
172	0x3e90dbba	0.28292638
173	0xbe9ba1e5	-0.30396953
174	0x3e573e9f	0.21019982
175	0xbdd71473	-0.10501947
176	0xbe2c69d7	-0.1683725
177	0xbd9d2e1e	-0.07674812
178	0xbe773e35	-0.24144824
179	0xbe924eb8	-0.28575683
180	0x3e5c3c21	0.21507312
181	0x3e792274	0.24329549
182	0x3e42766f	0.18990491
183	0x3e11a965	0.14224775
184	0x3e0ee4ab	0.13954417
185	0x3bf577a1	0.0074910675
186	0x3e534045	0.20629986
187	0x3defdbbe	0.11711834
188	0x3e2dd3c0	0.16975307
189	0xbe017de0	-0.12645674
190	0xbea5465b	-0.3228024
191	0xbe14ce18	-0.14531744
192	0xbe85b7b4	-0.26116717
193	0xbddef9aa	-0.108874634
194	0x3beb6cbd	0.0071845935
195	0xbe106e5f	-0.14104603
196	0xbd04d644	-0.032430902
197	0xbe02176c	-0.12704247
198	0x3e8a8511	0.27054647
199	0x3df947e3	0.121719144
200	0xbe43b9a4	-0.19113785
201	0x3ed397a4	0.4132663
202	0x3de496cc	0.11161575
203	0xbe86e879	-0.26349238
204	0xbdce800f	-0.10083019
205	0xbbe1d3b4	-0.006891692
206	0xbe231ba9	-0.1592852
207	0xbe9c4b93	-0.3052641
208	0xbdc71964	-0.0972164
209	0x3c065eea	0.00820134
210	0xbdba0a3d	-0.09083984
211	0x3eadffa9	0.33984116
212	0x3d376964	0.044778243
213	0xbcba909a	-0.02277403
214	0x3e762722	0.24038365
215	0xbe73d178	-0.23810375
216	0x3b8eff44	0.004363926
217	0xbe050367	-0.12989579
218	0x3e1baa79	0.15201749
219	0x3d64407d	0.055725563
220	0xbe4be157	-0.19910179
221	0x3e004560	0.12526464
222	0xbdbf103c	-0.09329268
223	0xbc70764a	-0.01467664
224	0x3d1869bc	0.03721021
225	0xbe86ba71	-0.26314119
226	0x3d9fd65f	0.0780456
227	0xbde15494	-0.1100246
228	0xbdac75d7	-0.08420914
229	0x3e17e912	0.14835003
230	0xbba0c7b6	-0.00490662
231	0x3d1a76b2	0.037710853
232	0x3e0118f8	0.12607181
233	0xbd15abcd	-0.036540795
234	0x3c5255d7	0.012837849
235	0x3e3b6856	0.1830152
236	0xbe40c32c	-0.18824452
237	0x3e03f23e	0.12885377
238	0xbea0fb3b	-0.31441674
239	0xbe55f262	-0.20893243
240	0x3df8d639	0.12150235
241	0xbe40a5bd	-0.18813224
242	0xbc41ef86	-0.011836892
243	0xbe1cda61	-0.1531768
244	0xbee6c87a	-0.45074826
245	0xbde31fca	-0.11090048
246	0xbd375b37	-0.044764724
247	0xbe15e26a	-0.14637151
248	0x3daec1ee	0.08533083
249	0xbd19ea65	-0.03757705
250	0xbcc328c9	-0.023823159
251	0xbcd8640f	-0.0264149
252	0x3da46608	0.080272734
253	0x3b0b3716	0.002124255
254	0x3d3e02ee	0.046389513
255	0x3da6af17	0.081388645

encoder_layers.block_1.conv.bias f4 [32]
0	0xbe3d63bb	-0.18495075
1	0x3dc75d34	0.09734574
2	0xbedb38c2	-0.4281674
3	0xbd0ee5ce	-0.034887128
4	0x3d8a557e	0.067545876
5	0x3cb4bde3	0.022063201
6	0x3d86ce92	0.06582369
7	0x3cbd8405	0.02313424
8	0xbd59e108	-0.053193122
9	0xbd3d27b3	-0.04618044
10	0xbc97c05d	-0.018524343
11	0xbd318d1d	-0.043347467
12	0xbe06d80e	-0.13168356
13	0xbe3eb63b	-0.18624203
14	0x3d1dd231	0.038530532
15	0x3cd35771	0.025798531
16	0xbd394491	-0.045231406
17	0xbd8c9492	-0.06864275
18	0xbe207ef9	-0.15673436
19	0xbe216975	-0.15762885
20	0x3e21df3b	0.15807812
21	0x3db608b8	0.08888382
22	0x3ac5ed37	0.0015100603
23	0xbc57a79d	-0.013162521
24	0xbe43c466	-0.19117889
25	0x3c5a3034	0.013317157
26	0xbe65d44b	-0.22444265
27	0xbe33a000	-0.17541504
28	0x3d706340	0.058688402
29	0xbdb054ca	-0.08609922
30	0xbbc83f62	-0.0061110714
31	0x3c428d2e	0.01187448

decoder_layers.block_0.conv.weight f4 [32, 8, 3, 3]
0	0x3ddac930	0.10682905
1	0x3db2a3c8	0.08722645
2	0x3dccdcb7	0.100030355
3	0x3df88e0b	0.121364675
4	0x3dabbdcf	0.083858125
5	0x3df1436b	0.11780437
6	0x3dc3343d	0.09531448
7	0x3dd9461f	0.10609078
8	0x3da4ecd6	0.08052985
9	0x3cc8378f	0.024440555
10	0xbb87bd0e	-0.00414241
11	0x3d3b4a23	0.045725
12	0xbd1dff48	-0.038573533
13	0xbc313007	-0.010814673
14	0xbccd3431	-0.0250493
15	0x3d61c560	0.055119872
16	0xbd5e6814	-0.054298475
17	0xbd28bdda	-0.04119668
18	0xbd6d20b3	-0.057892513
19	0x3b5eb09a	0.0033979774
20	0xbd8e3b2c	-0.0694488
21	0x3d41255e	0.047154777
22	0xbbfa7ab4	-0.007644022
23	0xbd4ed6d4	-0.050497845
24	0xbc863f5c	-0.016387634
25	0x3c723aa3	0.014784488
26	0xbcb903dd	-0.02258485
27	0x3d4f3a6d	0.05059283
28	0xbde7b39d	-0.113135554
29	0xbd32b064	-0.04362525
30	0x3e127209	0.14301313
31	0x3e57c121	0.21069767
32	0xbe01e037	-0.12683187
33	0x3b5f312f	0.0034056415
34	0x3d06d8b6	0.032921515
35	0xbd871bd3	-0.06597104
36	0xbdc9bbc8	-0.098502696
37	0xbda56a28	-0.08076888
38	0xbdf55e62	-0.11980893
39	0xbd3e31c1	-0.046434168
40	0xbda43afd	-0.080190636
41	0xbdac42e7	-0.08411198
42	0xbd6d2b85	-0.05790283
43	0xbda8bfc2	-0.082397
44	0x3a707297	0.00091723487
45	0xbd8b4562	-0.06800343
46	0x3e0dcaa5	0.13846834
47	0x3d08423d	0.033266295
48	0x3d99b051	0.07504333
49	0x3e7ff721	0.24996616
50	0x3dbd207d	0.09234712
51	0xbd11697f	-0.035501
52	0x3da5cf68	0.080962
53	0xbc7b40a1	-0.015335233
54	0xbd76dd90	-0.060269892
55	0x3c9b674a	0.01897015
56	0x3a343d17	0.0006875558
57	0xbdc98692	-0.098401204
58	0xbd2378d9	-0.03991017
59	0x3c978cbe	0.018499728
60	0xbd983b1e	-0.07433151
61	0x3d8144d1	0.06311954
62	0x3ca70ec5	0.020392785
63	0x3c4ecc7a	0.012621993
64	0x3d17267d	0.03690194
65	0xbd23a6cc	-0.03995399
66	0x3ca87791	0.020564826
67	0x3c82aa06	0.015950214
68	0x3cbbad94	0.022909917
69	0xbd278a39	-0.040903304
70	0x3ced4313	0.028962648
71	0x3d098e40	0.033582926
72	0xbbfaaf50	-0.0076502934
73	0x3d060513	0.032719683
74	0x3d2d294e	0.04227572
75	0x3d4fd121	0.05073655
76	0x3e075701	0.13216783
77	0x3dbaf628	0.09128982
78	0x3ce94fcd	0.028480435
79	0x3d147e74	0.036253408
80	0x3d946275	0.07245342
81	0xbc440ef0	-0.011966452
82	0x3d012edf	0.03153884
83	0xbc47ac87	-0.01218713
84	0x39b1848e	0.00033858832
85	0x3d13959e	0.036031358
86	0x3d683e61	0.056700114
87	0x39e1e1e1	0.00043083637
88	0x3d0bf860	0.034172416
89	0x3dd553d4	0.104163796
90	0x3d8463d7	0.064643554
91	0xbcd992af	-0.026559202
92	0x3c83998b	0.016064426
93	0x3c7deaa7	0.01549784
94	0xbd955ee2	-0.07293488
95	0xbc567901	-0.013090373
96	0x3c2851e1	0.010273428
97	0xbd9f1077	-0.07766812
98	0x3c4376a9	0.011930146
99	0x3dd1ae1d	0.102382876
100	0xbbbc978f	-0.005755372
101	0x3cacf867	0.021114541
102	0xbe57d704	-0.21078116
103	0xbe346388	-0.17616093
104	0x3e2b0817	0.16702305
105	0xbe01aab2	-0.12662771
106	0xbdc50452	-0.09619965
107	0x3e111440	0.14167881
108	0x3bedbcc8	0.0072551705
109	0xbd830b4d	-0.0639864
110	0x3cc3e723	0.023913926
111	0xbd0285e1	-0.031865958
112	0xbdb46a47	-0.08809333
113	0xbcaba661	-0.02095336
114	0xbd2e5f09	-0.0425711
115	0xbda5b9ba	-0.08092065
116	0x3b6d0df8	0.0036171656
117	0xbd006b70	-0.03135246
118	0xbce2ebd1	-0.027700337
119	0xbcee2fb9	-0.02907549
120	0xbd1c056c	-0.03809111
121	0xbd78700f	-0.060653742
122	0xbda50815	-0.08058182
123	0x3cfbebce	0.030752089
124	0xbcaa94f4	-0.02082298
125	0x3b300c13	0.0026862666
126	0x3e4910e3	0.19635348
127	0x3d6fde59	0.058561657
128	0x3d54ce83	0.051954757
129	0x3e0831f8	0.13300312
130	0x3d884692	0.06654085
131	0xbd551581	-0.05202246
132	0xbc832b94	-0.01601199
133	0x3d0fd04b	0.035110753
134	0x3d927266	0.07150726
135	0x3d42cb67	0.04755726
136	0xbd5f9ee7	-0.0545949
137	0x3d3a20dd	0.045441497
138	0x3c8e0e49	0.017340796
139	0xbd85b438	-0.065285146
140	0xbc0789f6	-0.008272639
141	0x3d828cd6	0.063745186
142	0x3d60915b	0.05482612
143	0x3d8e80ac	0.06958136
144	0x3ccc1e75	0.024916867
145	0x3d219a9d	0.03945409
146	0x3d6124ec	0.054966852
147	0x3c918f6e	0.017768588
148	0xbbb35f23	-0.0054739877
149	0x3c991d3c	0.018690698
150	0x3cb6a3f2	0.022294972
151	0x3d866ef6	0.06564133
152	0x3d8950cf	0.06704866
153	0x3db9cec9	0.09072644
154	0x3e1c6dfa	0.15276328
155	0x3dfb9aa7	0.12285357
156	0x3d451ce7	0.048123267
157	0x3e1d37d8	0.15353334
158	0x3dc337d4	0.09532133
159	0x3d7b7791	0.061393324
160	0x3dfc46ab	0.12318166
161	0x3dcadc37	0.09905284
162	0x3ddb90f5	0.10721008
163	0x3e5a9aa6	0.21348056
164	0x3e5375cc	0.20650405
165	0x3e2e3e42	0.17015937
166	0x3dd04e50	0.10171187
167	0x3deee5c4	0.11664918
168	0x3de31811	0.11088575
169	0x3daf02dc	0.08545467
170	0x3dbfdc18	0.093681514
171	0xba3a36b6	-0.00071034895
172	0x3e17b5a2	0.14815381
173	0x3cf0c276	0.029389601
174	0xbdb79048	-0.08963066
175	0xbe49bbde	-0.19700572
176	0x3daaff8d	0.08349524
177	0x3d0f4abe	0.03498339
178	0xbdb843de	-0.0899732
179	0x3d3c33af	0.045947727
180	0xbc1fc539	-0.009751611
181	0xbb56c13f	-0.0032768992
182	0x3dc9a84b	0.098465525
183	0x3d5aefd3	0.05345137
184	0x3d869302	0.06571008
185	0x3c8431e1	0.016137065
186	0x3d959086	0.07302956
187	0xbc96bdbc	-0.01840102
188	0x3d7c2b58	0.061564773
189	0xbd39cacc	-0.045359418
190	0xbe5ac320	-0.21363497
191	0xbe06f571	-0.13179566
192	0xbe37f9bc	-0.1796636
193	0xbe7db59c	-0.2477631
194	0xbe204a36	-0.15653309
195	0xbc9c0696	-0.01904611
196	0xbdc25936	-0.09489672
197	0xbdd20916	-0.10255639
198	0x3d114a58	0.03547129
199	0x3d6b2506	0.057408355
200	0xbd018dc3	-0.031629335
201	0x3e1b5ae4	0.15171391
202	0x3e3eb4cc	0.18623656
203	0xbcee37b6	-0.0290793
204	0xbd1856ed	-0.037192274
205	0xbe193ac5	-0.14963825
206	0xbbe664f5	-0.007031078
207	0x3da4225f	0.08014368
208	0x3c34a04e	0.011024548
209	0x3d56c63b	0.05243514
210	0x3dbf2f51	0.09335197
211	0x3e10231f	0.14075898
212	0x3c6a4d32	0.014300631
213	0xbcbe09da	-0.023198057
214	0x3da347e2	0.07972695
215	0x3e3d8794	0.1850875
216	0x3d43f48e	0.047840647
217	0xbd9c2d3c	-0.07625815
218	0xbd153334	-0.036425784
219	0xbd16b8fa	-0.0367975
220	0xbdc71e66	-0.09722595
221	0xbdc6ae71	-0.09701241
222	0xbcebcbb2	-0.028783653
223	0x3d1feb5b	0.03904281
224	0x3d80fac4	0.0629783
225	0x3c982c59	0.018575834
226	0xbe133a3e	-0.14377686
227	0xbdd162f4	-0.10223952
228	0xbd0e9c2f	-0.034816917
229	0xbd6da6e5	-0.05802049
230	0xbd6d0ca7	-0.057873394
231	0xbd0399db	-0.03212915
232	0x3c1fa62d	0.009744209
233	0xbc4f28d3	-0.012644011
234	0xbdd7a670	-0.10529792
235	0x3d8f2b50	0.06990683
236	0x3ca4352a	0.020044882
237	0xbddb8ac0	-0.10719824
238	0x3e3b7cc1	0.18309309
239	0x3d840f93	0.06448283
240	0xbdd56cd3	-0.10421147
241	0xbdb99cd6	-0.09063117
242	0xbd46a35f	-0.048495647
243	0xbd7fb957	-0.062432613
244	0xbc270c51	-0.010195808
245	0xbd904c3a	-0.07045789
246	0x3cdaeb93	0.026723659
247	0xbd50017b	-0.050782662
248	0xbdb2fb5c	-0.08739349
249	0xbd07cf90	-0.03315693
250	0xbdb7720c	-0.089572996
251	0xbd14e8c1	-0.036354784
252	0xbd810db9	-0.063014455
253	0x3d2951c6	0.04133775
254	0xbce16123	-0.027512139
255	0xbe1ed43b	-0.15510647

decoder_layers.block_0.conv.bias f4 [32]
0	0x3c5312ce	0.012882901
1	0xbc0cefac	-0.008602064
2	0x3dac09af	0.084002845
3	0x3d21ebb3	0.03953142
4	0xbdc5c9c6	-0.09657626
5	0x3c26a736	0.010171702
6	0x3d831b4e	0.06401692
7	0x3dc154e6	0.09440021
8	0xbc18788c	-0.009306084
9	0x3e0061cf	0.12537311
10	0xbc79c54a	-0.015244791
11	0x3dac155e	0.08402513
12	0x3cfa33bc	0.030542247
13	0xbd2e6944	-0.042580858
14	0x3ddf90c0	0.10916281
15	0x3c2c16a4	0.010503445
16	0xbc0d85f2	-0.008637892
17	0xbc502aa5	-0.01270548
18	0xbdbab6da	-0.091169074
19	0xbda24a05	-0.07924274
20	0xbd53e0e1	-0.051728133
21	0x3d14bb4d	0.036311436
22	0x3c36f788	0.0111674145
23	0xbdd26fd1	-0.102752335
24	0x3d145ac8	0.03621939
25	0xbd632b3d	-0.055461157
26	0x3d037487	0.03209355
27	0x3d4840b7	0.048889842
28	0xbd8347ea	-0.06410201
29	0x3bfe5dda	0.007762653
30	0xbdabe4a2	-0.083932176
31	0xbd9fe919	-0.07808132

decoder_layers.block_1.conv.weight f4 [32, 16, 3, 3]
0	0x3bc4aea4	0.006002264
1	0x3d51362b	0.05107705
2	0xbbbf719e	-0.0058424016
3	0x3d005729	0.031333122
4	0x3d2a5d89	0.04159311
5	0x3d3bdd0a	0.045865096
6	0xbc5ca9a8	-0.013468184
7	0x3d6f0a3b	0.058359366
8	0x3ca18538	0.019716844
9	0xbc4bf766	-0.012449121
10	0x3bc9b639	0.006155756
11	0xbc676839	-0.01412397
12	0x3d616b49	0.055033956
13	0x3d6f5ef6	0.05844017
14	0x3a4a2cab	0.00077123445
15	0x3c174a66	0.009234047
16	0x3d06139c	0.032733545
17	0xbb12c7e0	-0.0022396967
18	0x3d757e8f	0.05993515
19	0x3d5927a3	0.053016316
20	0x3c7888ed	0.015169364
21	0x3da44323	0.08020618
22	0x3d9fd86c	0.07804951
23	0x3dbd931a	0.09256573
24	0x3d8ae5be	0.06782101
25	0x3db52f1b	0.08846875
26	0x3d4e6437	0.05038854
27	0xbc9e61dd	-0.019333774
28	0x3ca4a785	0.02009941
29	0x3d09d2b9	0.033648226
30	0xbca6dc43	-0.0203687
31	0x3d9fd83f	0.078049175
32	0x3c545adb	0.012961115
33	0x3d565fc7	0.052337434
34	0x3d84c45f	0.06482767
35	0xbc947298	-0.018121049
36	0x3bbb5d63	0.0057179197
37	0x3c5ef22b	0.013607542
38	0xbbf31bb9	-0.0074190763
39	0x3d32c5c5	0.04364564
40	0x3c8d174d	0.017223025
41	0x3c37ee30	0.011226222
42	0x3cd7d799	0.026347922
43	0x3cf2977f	0.029613255
44	0x3d947586	0.07248978
45	0x3ca02132	0.019547079
46	0x3d8329dd	0.06404469
47	0x3bf60c92	0.0075088227
48	0x3d92034e	0.071295366
49	0x3d65a039	0.056061003
50	0x3d8e342e	0.06943546
51	0x3d3302bb	0.043703776
52	0x3d0c70a0	0.034287095
53	0x3c0ada00	0.008474827
54	0xbc2a40f8	-0.010391466
55	0x3da0236d	0.07819257
56	0xbd1fb572	-0.0389914
57	0x3bf3fbdd	0.007445796
58	0x3db612ae	0.088902816
59	0xbb6d1ddf	-0.0036181135
60	0xbc78ea71	-0.015192614
61	0xbc5d77e2	-0.013517352
62	0xbd287190	-0.041123927
63	0xbc49cbb4	-0.012316633
64	0x3beeead8	0.007291179
65	0x3d0e0dfe	0.034681313
66	0x3c17651a	0.009240413
67	0x3d946f92	0.07247843
68	0x3cc10cc4	0.023565657
69	0x3bd967f6	0.0066347076
70	0x3d72fd0e	0.059323363
71	0xbb9b4057	-0.0047378945
72	0x3d9494b2	0.07254924
73	0x3d852016	0.065002605
74	0x3d6b6d53	0.057477307
75	0x3e4f9126	0.20270213
76	0x3d7ac4b5	0.06122275
77	0x3ac94a31	0.0015357194
78	0x3d947d70	0.07250488
79	0x3df2ae65	0.11849669
80	0x3e21bc9f	0.1579461
81	0x3d20c53c	0.039250597
82	0x3cd248cb	0.025669476
83	0x3ccb15cd	0.024790669
84	0x3df7a050	0.12091124
85	0x3e1baa5f	0.1520171
86	0x3c00ddfe	0.007865427
87	0x3d308218	0.043092817
88	0x3dbff463	0.09372785
89	0x3cd62554	0.026140846
90	0x3d9a0c00	0.0752182
91	0x3def9322	0.11697985
92	0xbd83f02c	-0.064422935
93	0x3c21bb8e	0.009871377
94	0x3e349153	0.17633562
95	0x3ba4f0a7	0.005033571
96	0xbdc1d324	-0.094641
97	0xbe805285	-0.25062957
98	0x3e8df0d0	0.27722788
99	0x3d28f394	0.04124792
100	0x3dce753f	0.10080957
101	0x3d984db1	0.074366935
102	0x3de7ef2b	0.113249145
103	0x3e8b129d	0.27162638
104	0x3da11a0f	0.078662984
105	0x3e04b7f7	0.12960802
106	0x3e07f36d	0.13276453
107	0xbc09d363	-0.008412215
108	0x3d3c259b	0.0459343
109	0x3dcc075e	0.09962343
110	0x3dc3fa3d	0.095692135
111	0x3de71a43	0.11284306
112	0xbf1cf300	-0.6130829
113	0x3beb8beb	0.0071883104
114	0x3db11bce	0.086478814
115	0x3bf96658	0.0076110773
116	0x3e37f58a	0.1796476
117	0x3d1cc04f	0.038269337
118	0xbd86d2c4	-0.06583169
119	0x3bc4f726	0.0060109077
120	0xbcbf7b9c	-0.023374371
121	0x3e471e00	0.19445038
122	0x3df2d072	0.11856164
123	0x3dad8ab2	0.0847372
124	0x3da96d7c	0.082728356
125	0x3dafcd51	0.08584083
126	0xbc5d0fc9	-0.013492533
127	0xbb05e675	-0.0020431553
128	0x3c0c7914	0.008573789
129	0x3d0b817f	0.034059044
130	0x3b03aca6	0.002009192
131	0xbd5a0739	-0.053229544
132	0x3dbf9f68	0.09356576
133	0x3aa7b509	0.0012795042
134	0xbcbd451a	-0.02310424
135	0x3cef8e51	0.029242666
136	0x3d956993	0.07295527
137	0x3d4fb165	0.050706286
138	0x3d8def62	0.06930424
139	0x3dc8d60e	0.09806453
140	0x3dcda97e	0.10042094
141	0x3d7351f5	0.059404332
142	0x3d948cf1	0.07253445
143	0x3d909fd4	0.07061735
144	0xbd4e02b3	-0.050295543
145	0x3d1a5265	0.037676234
146	0x3cbedd44	0.023298867
147	0x3d55b659	0.052175853
148	0x3d9bff26	0.07617025
149	0x3d26785a	0.04064212
150	0x3cfcac86	0.030843984
151	0x3dc4bb8b	0.096060835
152	0xbd214bb8	-0.03937885
153	0x3c1db1c3	0.009624901
154	0x3d6f625f	0.058443423
155	0x3b531890	0.0032210685
156	0x3c9b17dd	0.018932277
157	0x3e061948	0.13095582
158	0x3d93d16e	0.0721768
159	0x3bf190b2	0.0073719854
160	0x3dbc5fb7	0.09197944
161	0x3d088981	0.03333426
162	0x3dd0f3f1	0.10202778
163	0x3dfe7018	0.12423724
164	0x3d9437b7	0.07237189
165	0x3e03a1b1	0.12854649
166	0x3de1a97f	0.11018657
167	0x3e07e862	0.13272241
168	0x3d90da44	0.07072881
169	0x3db2f253	0.08737626
170	0x3d8047c6	0.0626369
171	0x3917a9d7	0.00014463752
172	0x3e577226	0.21039638
173	0xbcd555b5	-0.026041845
174	0x3c7c76f2	0.015409218
175	0x3d555757	0.052085247
176	0x3d83e77d	0.06440637
177	0xbcba05ad	-0.022707785
178	0x3cd8c8a0	0.026462853
179	0xbd33ed98	-0.04392776
180	0x3d908a7b	0.07057663
181	0x3d5ff58c	0.05467753
182	0x3d4d9642	0.050192125
183	0x3d3c9d47	0.04604843
184	0x3cde52cd	0.027139092
185	0x3d202b6f	0.03910392
186	0x3d779f25	0.060454506
187	0x3c263bad	0.010146064
188	0x3d818deb	0.06325897
189	0x3c4f29a8	0.012644209
190	0x3c979375	0.01850293
191	0xbc59efe9	-0.013301828
192	0x3e0a3e70	0.1350038
193	0x3de83d29	0.113397904
194	0x3d47563e	0.04866623
195	0x39c6a8fa	0.000378914
196	0x3d55bbbf	0.052181
197	0xbc4d1767	-0.012517787
198	0xbd9c7652	-0.07639755
199	0x3d6a8efa	0.05726526
200	0xbca02ebd	-0.019553537
201	0x3d0034d8	0.031300396
202	0x3d70cf31	0.058791343
203	0xbc84edcb	-0.01622667
204	0xbbce7960	-0.00630109
205	0xbde3123d	-0.11087463
206	0xbd64db74	-0.05587335
207	0xbd39f399	-0.04539833
208	0x3c0a9b3d	0.008459863
209	0x3be8bded	0.007102719
210	0x3da1e6b0	0.07905328
211	0x3e3c457b	0.1838588
212	0x3e222a47	0.1583644
213	0x3d4f33e6	0.050586604
214	0x3cdd9031	0.027046295
215	0xbc6f8f1a	-0.01462152
216	0x3d9f32ef	0.07773387
217	0xbdb08bff	-0.08620452
218	0xbd43e62e	-0.04782694
219	0x3dce8656	0.10084216
220	0xbe1830be	-0.14862344
221	0xbde86c24	-0.11348751
222	0x3d00cd8f	0.031446036
223	0xbbbece81	-0.005822957
224	0xbc2133a7	-0.009838975
225	0x3d9bc881	0.076066025
226	0x3e0df39b	0.1386246
227	0x3d9e1c77	0.07720273
228	0x3e50913a	0.203679
229	0x3e146a27	0.14493619
230	0x3e092a72	0.13395098
231	0x3dfd33e6	0.123634145
232	0x3dce3f61	0.10070682
233	0x3e01611b	0.12634699
234	0x3d083288	0.033251315
235	0xbda6fbad	-0.08153472
236	0xbc5b674a	-0.013391325
237	0x3d37d607	0.044881847
238	0xbd9c6b0e	-0.076376066
239	0xbd77c870	-0.060493886
240	0xbdb304cc	-0.08741149
241	0xbd6900b8	-0.05688545
242	0x3cea99a7	0.02863772
243	0xbdc90c35	-0.098167814
244	0xbdacbf4d	-0.08434925
245	0xbc8598b8	-0.016308174
246	0xbc397ee7	-0.01132176
247	0xbe77f94d	-0.24216194
248	0xbdf11a6c	-0.11772618
249	0x3d89a9a4	0.067218095
250	0xbd5a084d	-0.053230572
251	0xbd03e750	-0.03220302
252	0xbdc39174	-0.09549227
253	0x3d20d4a8	0.039265305
254	0x3cfb76ee	0.030696359
255	0xbded9e90	-0.11602509

decoder_layers.block_1.conv.bias f4 [32]
0	0x3d7c945d	0.061664928
1	0x3dc5dbe7	0.09661084
2	0x3db2647a	0.08710571
3	0x3d1873ad	0.037219692
4	0x3d22c9dd	0.039743293
5	0x3d15277a	0.0364146
6	0x3d9d86db	0.07691737
7	0xbcae39f7	-0.021267874
8	0x3db05377	0.0860967
9	0x3cb9cc3d	0.022680396
10	0x3dc4daf0	0.096120715
11	0x3de00f5a	0.10940428
12	0x3dc9e6d4	0.0985848
13	0xbdd73898	-0.10508841
14	0x3dcb0e9d	0.09914897
15	0x3ca0fb60	0.019651115
16	0xbc79dd76	-0.015250554
17	0xbd3a173b	-0.04543231
18	0xbdb6ef7d	-0.089323975
19	0x3c8206ea	0.015872438
20	0x3bcf857f	0.0063330526
21	0xbb95edb0	-0.0045754537
22	0x3cafd936	0.021465879
23	0xbcb2c75f	-0.021823583
24	0xbd97b8b2	-0.07408275
25	0xbd501d9c	-0.050809488
26	0xbe303ea0	-0.1721139
27	0xbe030ae9	-0.1279713
28	0xbe2353f9	-0.15950002
29	0xbe09db25	-0.13462503
30	0xbdf1caa2	-0.11806227
31	0x3d5953c7	0.053058412

read.weight f4 [1, 8, 1, 1]
0	0x3ca302e4	0.01989884
1	0x3d7d446f	0.06183284
2	0x3c89fc70	0.016844004
3	0x3daa4d7f	0.083155625
4	0xbd82b98f	-0.06383049
5	0x3d788cd2	0.06068117
6	0x3cb5d4c8	0.022196189
7	0xbd7fae0e	-0.06242185
