trainedModels/wave/spikes-clip/depthWise/0.01/run5/model.pt (torch, 104169 bytes, 19 tensors)

init.weight f4 [28, 1, 1, 1]
0	0xbe90265f	-0.28154275
1	0xbe9e038e	-0.30862087
2	0x3ef553ae	0.47915405
3	0x3f63f164	0.8904021
4	0x3f2a7fba	0.66601145
5	0xbea19311	-0.31557515
6	0x3cbdd3b4	0.023172237
7	0x3ee75223	0.45179853
8	0xbf1513ce	-0.58233345
9	0xbe6fbb13	-0.23411207
10	0xbe8692c8	-0.2628386
11	0xbf3db445	-0.74103194
12	0xbef8d83f	-0.48602483
13	0xbf2ab23c	-0.66678214
14	0x3f2a7ab6	0.6659349
15	0x3eef9b82	0.4679833
16	0x3f0702d0	0.52738667
17	0x3d953025	0.072845735
18	0x3f494c64	0.7863219
19	0xbe86f21e	-0.26356596
20	0xbeec657b	-0.46171173
21	0xbf1d6b28	-0.6149163
22	0xbf2de340	-0.6792488
23	0xbe26f084	-0.16302687
24	0xbeb9ba2d	-0.36274853
25	0x3ecf154b	0.40445933
26	0x3f13a376	0.57671297
27	0xbf32f928	-0.6991143

init.bias f4 [28]
0	0xbde39483	-0.11112311
1	0x3f0554dc	0.5208261
2	0xbe4264f8	-0.18983829
3	0xbd70d38c	-0.058795497
4	0xbdd94605	-0.10609058
5	0xbef9cf2b	-0.4879087
6	0x3ed09992	0.40742165
7	0x3f1dcfc4	0.6164515
8	0xbea11fa1	-0.31469443
9	0x3e8f8ef7	0.2803876
10	0xbeb06eee	-0.34459633
11	0xbdd10644	-0.10206273
12	0xbe2aadd7	-0.16667877
13	0xbc9c3702	-0.019069199
14	0x3d8e72f3	0.069555186
15	0x3e9460bc	0.28980052
16	0xbe2d2a90	-0.16910768
17	0xbf02ecd7	-0.5114264
18	0x3df0c39d	0.1175606
19	0x3d6f2cba	0.058392264
20	0x3ebb521c	0.36586082
21	0xbd621b05	-0.05520155
22	0x3e9b5b69	0.30343178
23	0xbe7c1d88	-0.2462064
24	0x3d7c2529	0.061558876
25	0xbc9fa3ce	-0.019487288
26	0xbefd703c	-0.4949969
27	0xbe1d71f9	-0.15375508

encoder_layers.block_0.transition.weight f4 [56, 1, 3, 3]
0	0xbe07ea62	-0.13273004
1	0x3c9a8b80	0.018865347
2	0xbded905f	-0.11599802
3	0xbe3bc01a	-0.18335
4	0x3e49ecee	0.19719288
5	0xbe81b41a	-0.2533272
6	0x3e88e5f4	0.2673794
7	0xbdd4412f	-0.10363995
8	0x3d99ee7f	0.07516193
9	0x3caec4e5	0.021334121
10	0xbe692436	-0.2276772
11	0xbdd68166	-0.104738995
12	0xbe77e256	-0.24207434
13	0xbe9c8a0b	-0.30574068
14	0xbd871f8b	-0.06597813
15	0x3d8dccdd	0.0692384
16	0xbdcd32e7	-0.100194745
17	0x3dbe054d	0.09278355
18	0xbe058948	-0.1304065
19	0xbd8c0985	-0.06837753
20	0x3de682a0	0.112553835
21	0xbe7ebbab	-0.24876277
22	0xbdfb0027	-0.122558884
23	0x3e6211ed	0.2207715
24	0x3e5396a8	0.2066294
25	0xbba23125	-0.004949706
26	0xbe859d7b	-0.2609671
27	0x3e52dd24	0.20592171
28	0x3e3a1d8b	0.18175332
29	0xbe1fff37	-0.156247
30	0xbd9a16c0	-0.075238705
31	0xbf1ca86d	-0.611945
32	0xbde9b42d	-0.11411319
33	0xbd72dd56	-0.059293114
34	0xbdc7817a	-0.097414926
35	0xbde1a820	-0.110183954
36	0xbe6d7c67	-0.23191987
37	0x3d0c1a29	0.034204636
38	0xbd53cec0	-0.051710844
39	0xbe6a990d	-0.22909947
40	0x3f1d95d1	0.61556727
41	0x3e221a10	0.15830255
42	0x3c849c5e	0.016187843
43	0x3cab751a	0.020929862
44	0xbe1118c9	-0.14169611
45	0x3e388b4d	0.18021889
46	0x3dec5b3a	0.115408376
47	0x3e481439	0.19538964
48	0xbdcdb7c6	-0.100448176
49	0xbd72d487	-0.059284713
50	0xbd7b8670	-0.061407506
51	0x3d3c2db8	0.04594204
52	0x3e09172c	0.13387746
53	0x3d5505c2	0.052007444
54	0x3de35457	0.11100071
55	0x3e29c27e	0.16578099
56	0xbdb9e0d7	-0.09076088
57	0xbe1ef677	-0.15523706
58	0xbe2d517c	-0.16925615
59	0x3e254816	0.1614078
60	0xbdf08dea	-0.11745818
61	0xbe4188cf	-0.18899845
62	0xbd873d05	-0.066034354
63	0xbd617919	-0.05504713
64	0x3dc96f1c	0.098356456
65	0xbd2120c2	-0.03933788
66	0xbe37a8dd	-0.1793551
67	0x3e7772d3	0.24164896
68	0xbe33dc68	-0.17564547
69	0xbde3bf2e	-0.11120449
70	0x3dd46096	0.10369985
71	0xbe3d04ff	-0.18458937
72	0x3d93cc4a	0.072166994
73	0x3e8b0fda	0.2716053
74	0x3e577087	0.2103902
75	0xbe2f5ec4	-0.17125994
76	0xbe3b2911	-0.18277384
77	0x3e2c334d	0.16816445
78	0x3e55ee01	0.20891573
79	0xbdaaf7ff	-0.08348083
80	0xbd6d2899	-0.057900045
81	0x3e962e5c	0.29332244
82	0x3e91d635	0.2848374
83	0x3d37d55d	0.044881213
84	0x3e6010cf	0.21881412
85	0x3d8120e8	0.063051045
86	0x3de61adc	0.11235592
87	0xbd8bbd09	-0.06823165
88	0xbe07870d	-0.13235112
89	0xbe16c290	-0.14722657
90	0x3e1a5c24	0.15074211
91	0xbd454ebe	-0.048170798
92	0x3e5f2928	0.21793044
93	0xbdde4569	-0.10853083
94	0x3e033e73	0.12816791
95	0x3d177cc6	0.036984228
96	0x3dc8d83e	0.0980687
97	0x3dad4a99	0.08461494
98	0x3cd3684a	0.025806565
99	0x3e90e9a6	0.2830326
100	0xbdc3e527	-0.09565192
101	0xbd445ee5	-0.04794206
102	0xbe19dee0	-0.15026426
103	0x3ee9eb0a	0.45687133
104	0x3d03a38b	0.03213839
105	0x3e2c58c0	0.1683073
106	0x3cb08fa0	0.02155286
107	0x3daa5820	0.0831759
108	0xbe7c915a	-0.24664822
109	0x394896c3	0.0001912965
110	0xbd0f0d04	-0.034924522
111	0xbdbda801	-0.0926056
112	0x3e4429a5	0.19156511
113	0x3e87f009	0.2655032
114	0xbea36905	-0.3191606
115	0x3de49abc	0.11162326
116	0xbe365a3f	-0.17807864
117	0x3dd4870b	0.1037732
118	0x3e84fb0e	0.2597279
119	0xbe346d17	-0.1761974
120	0x3e373aac	0.17893475
121	0x3ef1d8cc	0.47235715
122	0x3bf4aafd	0.0074666725
123	0xbe52e1b3	-0.2059391
124	0x3d91fc70	0.07128227
125	0xbe47a599	-0.19496764
126	0xbe37f432	-0.17964247
127	0x3e7a453f	0.24440478
128	0x3dfaa61f	0.12238716
129	0xbe4b0da7	-0.19829427
130	0xbeb1e29f	-0.3474321
131	0x3e28c406	0.16481027
132	0xbda77cc3	-0.08178093
133	0xbdb3ac94	-0.08773151
134	0x3e1d30c1	0.1535063
135	0xbdf1561a	-0.11784001
136	0xba204a79	-0.0006114613
137	0x3e0b20dd	0.13586755
138	0x3e1ceb83	0.15324216
139	0x3d0ee35f	0.034884807
140	0xbe212c5b	-0.15739577
141	0xbe004ff9	-0.12530507
142	0xbe30c79c	-0.17263645
143	0xbe5da4ca	-0.21644893
144	0xbdbe973a	-0.09306188
145	0xbe9530e0	-0.2913885
146	0x3dc84b17	0.09779947
147	0xbe5ba2fb	-0.21448891
148	0xbe46d586	-0.1941739
149	0x3e07e4a4	0.13270813
150	0xbdea04e6	-0.114267156
151	0x3d30c6d2	0.04315836
152	0xbe5b4f62	-0.21417001
153	0xbe2cdaff	-0.16880415
154	0x3cbf6b0f	0.02336648
155	0xbb9633b1	-0.004583799
156	0xbe3f59ff	-0.18686675
157	0xbe3a882f	-0.18216012
158	0x3e169feb	0.14709441
159	0x3c1b0c71	0.0094634155
160	0x3c84393e	0.016140576
161	0xbe216175	-0.15759833
162	0xbd380294	-0.044924334
163	0xbe633948	-0.2218982
164	0x3d2f8e9a	0.042860605
165	0xbe7a0501	-0.24415971
166	0x3d656aa6	0.05600991
167	0x3d3763c4	0.04477288
168	0xbe9ed72e	-0.31023544
169	0x3e3609a4	0.17777115
170	0xbe03f2a7	-0.12885533
171	0xbe37a614	-0.17934448
172	0xbe86919b	-0.26282963
173	0xbea7df6f	-0.32787654
174	0xbad2172b	-0.0016028633
175	0xbde82b87	-0.11336427
176	0x3e9363c3	0.2878705
177	0xbbacb116	-0.0052701337
178	0xbe89d34d	-0.26919022
179	0x3c9d2ef9	0.019187437
180	0xbe197425	-0.14985712
181	0x3df83d64	0.12121084
182	0xbd4500ce	-0.04809647
183	0xbe4ff39d	-0.20307775
184	0xbd5ab138	-0.053391665
185	0xbe973016	-0.29528874
186	0x3be2d836	0.006922747
187	0xbe84dfe8	-0.25952077
188	0xbb45fdd5	-0.003021111
189	0xbe8dbfd5	-0.2768542
190	0xbea44fb9	-0.32092074
191	0xbe8a4205	-0.27003494
192	0x3d363e78	0.04449317
193	0xbeec7af2	-0.4618755
194	0xbe5687e8	-0.20950282
195	0x3d3697ac	0.04457824
196	0xbd82343c	-0.06357619
197	0xbe143951	-0.1447499
198	0xbe390028	-0.18066466
199	0x3da3db96	0.08000867
200	0xbe26a9b2	-0.16275671
201	0x3e348a51	0.17630889
202	0x3e98caf8	0.29842353
203	0x3cd6cd76	0.026221018
204	0xbe4cbc4f	-0.19993709
205	0xbe908201	-0.28224185
206	0xbc6e4d71	-0.014544831
207	0x3d1b6eb5	0.037947375
208	0xbe24b357	-0.16084038
209	0xbc9a86ea	-0.01886316
210	0xbda2c2ca	-0.07947309
211	0x3dab3051	0.08358825
212	0x3d89b68a	0.0672427
213	0x3e77c5b1	0.24196507
214	0xbde3186b	-0.11088642
215	0x3d99cfc5	0.07510332
216	0xbc6080c3	-0.013702574
217	0x3de6d389	0.11270816
218	0xbe049024	-0.1294561
219	0x3d398f7c	0.045302853
220	0xbdd2f752	-0.10301079
221	0x3e541c38	0.2071389
222	0x3e5b52fc	0.21418375
223	0x3e0bceda	0.13653126
224	0x3e7f75a1	0.24947216
225	0xbe5e1d6a	-0.21690908
226	0x3e4b2e7e	0.19841954
227	0x3d84a653	0.06477036
228	0x3eacb10e	0.33728832
229	0xbe5aa359	-0.21351375
230	0x3e200f27	0.1563078
231	0xbe655bd2	-0.22398308
232	0x3e640cf2	0.22270563
233	0x3db8135c	0.089880675
234	0xbe11c522	-0.14235356
235	0xbdedc15d	-0.11609147
236	0x3d802c30	0.06258428
237	0x3e775ebc	0.24157232
238	0x3e443dac	0.19164151
239	0x3db8c7a1	0.09022451
240	0x3e0695ba	0.13143054
241	0x3e667ee0	0.22509336
242	0xbe2f558d	-0.17122479
243	0x3e75d309	0.24006285
244	0xbc8543f9	-0.016267763
245	0x3eabddc7	0.3356764
246	0x3e4e7b10	0.20164132
247	0x3d64b05e	0.05583226
248	0xbd28dbac	-0.04122512
249	0x3dc74107	0.097292
250	0x3bccd781	0.006251276
251	0x3d6d375b	0.05791412
252	0xbe3be411	-0.18348719
253	0x3ce8fa6c	0.028439723
254	0xbd85b578	-0.06528753
255	0xbe9749ac	-0.29548395

encoder_layers.block_0.transition.bias f4 [56]
0	0xbdca3f27	-0.098753266
1	0x3d8d0c58	0.0688712
2	0xbd85a81d	-0.06526206
3	0xbd6ed0bb	-0.05830453
4	0xbd823011	-0.06356824
5	0x3e258b99	0.16166534
6	0xbe300591	-0.17189623
7	0x3e1ab138	0.15106666
8	0x3de7ff14	0.11327949
9	0xbe130721	-0.14358188
10	0x3e577f8b	0.21044748
11	0x3c9d0dbd	0.01917159
12	0xbdc7c789	-0.09754855
13	0x3e4a9e22	0.19786885
14	0xbcb22f59	-0.021751093
15	0x3e04fce0	0.12987089
16	0x3c916669	0.017749028
17	0x3c0d7244	0.0086332
18	0x3dbcc885	0.092179336
19	0xbdf2ce04	-0.118557006
20	0xbd9d85e3	-0.076915525
21	0x3d610d07	0.054944064
22	0x3cc70ea5	0.024298975
23	0xbe018f97	-0.12652431
24	0x3de87749	0.11350877
25	0x3e02bf08	0.12768185
26	0xbe10568f	-0.1409552
27	0x3e0b5a74	0.13608724
28	0x3e00c663	0.12575679
29	0x3de003d7	0.109382324
30	0x3d0cbe00	0.034360886
31	0xbde72e38	-0.112881124
32	0x3dc6a32f	0.096990936
33	0x3e1422d4	0.14466411
34	0xbd3904a8	-0.045170456
35	0x3d8ebe4e	0.069698915
36	0xbd4f8c22	-0.05067075
37	0xbe101df2	-0.14073923
38	0x3daabd01	0.08336831
39	0x3d58dd1f	0.052945253
40	0xbd09d1a2	-0.033647187
41	0x3cc38fe3	0.023872321
42	0x3dece0a2	0.11566283
43	0x3e145844	0.14486796
44	0xbd6b4b0a	-0.05744461
45	0xbe2751f2	-0.16339853
46	0xbdd91ee5	-0.10601596
47	0xbdffd31d	-0.124914385
48	0xbd30fe6b	-0.043211382
49	0xbdba3997	-0.09093016
50	0xbd17b6dd	-0.037039626
51	0xbc6b36b8	-0.014356308
52	0xbe140e4d	-0.1445858
53	0x3d8a2688	0.067456305
54	0xbe1efbbd	-0.15525718
55	0x3e38540a	0.18000808

encoder_layers.block_0.conv.weight f4 [112, 56, 1, 1]
0	0x3d49530b	0.04915146
1	0x3ae0966b	0.0017134672
2	0x3d54568a	0.051840343
3	0xbdbd28e0	-0.09236312
4	0x3e025ce0	0.12730742
5	0x3d3ce9d6	0.04612144
6	0x3ddfb71f	0.109235995
7	0xbc5c0308	-0.013428457
8	0x3d6f5b34	0.058436587
9	0xbdb1d8d1	-0.086839326
10	0x3e01d7c6	0.12679967
11	0xbd965bb1	-0.073417075
12	0xbdcf2052	-0.101135865
13	0xbe09c624	-0.13454491
14	0xbd741151	-0.059586827
15	0x3df0d736	0.11759798
16	0x3d1913f1	0.037372533
17	0xbdb28bd3	-0.087180756
18	0xbd06b6ed	-0.032889295
19	0x3c6c2e95	0.014415403
20	0x3d42049c	0.047367677
21	0xbcd405c2	-0.025881652
22	0xbe06be72	-0.13158587
23	0x3db1c70b	0.086805426
24	0x3c35018a	0.01104773
25	0xbdc4c341	-0.09607554
26	0x3d3d3d05	0.04620077
27	0xbc71b591	-0.014752761
28	0xbd38140e	-0.044941
29	0x3d793f1e	0.06085121
30	0xbdc457aa	-0.09587033
31	0xbccd09f2	-0.025029156
32	0x3d4061b9	0.046968196
33	0xbd9cd525	-0.076578416
34	0xbe1c1e12	-0.15245846
35	0x3e5178db	0.20456259
36	0x3d0af58e	0.033925585
37	0xbd6e24bb	-0.058140498
38	0xbca5b022	-0.020225588
39	0xbd45341b	-0.048145395
40	0xbd888aec	-0.06667122
41	0xbec2a190	-0.38013887
42	0x3dfabe58	0.122433364
43	0x3d54f1bb	0.051988345
44	0xbda1ccb9	-0.07900376
45	0x3e0b9c92	0.13633946
46	0xbe171461	-0.14753868
47	0x3c869ede	0.016433176
48	0x3d9b60a8	0.07586795
49	0x3d5cd889	0.05391744
50	0xbe840575	-0.25785413
51	0x3ca64d84	0.020300634
52	0xbe071317	-0.13190876
53	0xbde126f7	-0.1099376
54	0xbbd8baa5	-0.0066140466
55	0xbc49ed7e	-0.012324689
56	0x3db501d8	0.08838242
57	0x3e1a4327	0.15064679
58	0xbe2de84d	-0.16983147
59	0x3def69ab	0.116900764
60	0xbcb5e071	-0.022201749
61	0xbd4fc4e4	-0.05072488
62	0x3d8f96c5	0.07011179
63	0x3d377226	0.044786595
64	0xbc464de6	-0.012103533
65	0xbe580703	-0.21096425
66	0x3d576153	0.05258305
67	0xbd06f474	-0.032947972
68	0x3d4632af	0.04838818
69	0xbe627a7a	-0.22117034
70	0x3b1f0ecd	0.0024270297
71	0xbd739c51	-0.059475247
72	0xbe47ef4d	-0.1952488
73	0x3d2f7b2a	0.042842068
74	0xbd8934b7	-0.06699508
75	0xbc971803	-0.018444067
76	0xbcf8dc58	-0.030378506
77	0x3db23d10	0.08703053
78	0xbec7f600	-0.3905487
79	0x3d3e01cf	0.046388444
80	0x3cfaa416	0.03059582
81	0xbd31ace2	-0.043377765
82	0xbeb30b93	-0.34969768
83	0x3c09c5ef	0.008409007
84	0x3da604a5	0.081063546
85	0xbd48476c	-0.04889624
86	0xbc039c56	-0.008032879
87	0xbd250f96	-0.040298067
88	0xbd0266b3	-0.031836223
89	0x3c424616	0.01185753
90	0x3d710162	0.05883921
91	0xbdf02714	-0.117262036
92	0x3e617e01	0.22020723
93	0xbd096927	-0.033547547
94	0xbcc735b1	-0.024317594
95	0x3aad8fff	0.0013241767
96	0x3c7363ff	0.014855384
97	0x3cf5dba4	0.03001196
98	0xbd098af7	-0.033579793
99	0xbe650bd8	-0.223678
100	0x3d6e2b67	0.05814686
101	0x3de1267b	0.10993668
102	0xbc58c9b0	-0.01323168
103	0x3d264541	0.04059339
104	0x3e38e3b2	0.18055609
105	0x3c5e3b47	0.0135639375
106	0xbdbbf407	-0.09177404
107	0x3daab469	0.08335192
108	0x3dd32720	0.10310197
109	0xbe14e0e0	-0.14538908
110	0xbd8aabcf	-0.06771051
111	0x3ca9d271	0.02073023
112	0x3eb06700	0.34453583
113	0x3cd9177e	0.02650046
114	0xbe536510	-0.20644021
115	0x3dbb3653	0.09141221
116	0xbe811148	-0.25208497
117	0xbe8d394e	-0.27582783
118	0xbe2c168d	-0.16805477
119	0xbd18429f	-0.03717291
120	0x3a37507d	0.00069928897
121	0xbdec631f	-0.11542343
122	0x3db1b5de	0.086772665
123	0x3e688608	0.22707379
124	0xbd4ee66f	-0.050512727
125	0xbdcecb3b	-0.10097357
126	0x3d4f45f0	0.050603807
127	0x3a937a11	0.0011251589
128	0xbd81d2cd	-0.06339035
129	0x3db25a2a	0.08708604
130	0x3e113cb9	0.1418332
131	0x3d0576bb	0.032583933
132	0x3da9b749	0.08286912
133	0x3dc9cd74	0.0985364
134	0x3e3a9291	0.18219973
135	0x3d050747	0.032477643
136	0xbd9c506f	-0.07632529
137	0x3f34a067	0.70557255
138	0xbb693f65	-0.0035590765
139	0xbe290bfb	-0.16508476
140	0xbea2b18e	-0.31776088
141	0x3db1945e	0.08670877
142	0x3e8cb852	0.27484375
143	0xbdf9722b	-0.12179979
144	0xbdd2e295	-0.10297123
145	0xbe1339ae	-0.14377472
146	0xbd4fc52d	-0.05072515
147	0xbde0b081	-0.109711654
148	0xbd17ff61	-0.037108783
149	0x3e0143a0	0.12623453
150	0xbe764c13	-0.24052458
151	0x3eccd758	0.40008044
152	0xbd02dc8f	-0.031948622
153	0xbdedf6c3	-0.11619332
154	0xbc984bc2	-0.018590812
155	0x3cb5abbf	0.022176621
156	0xbeb9c8ad	-0.36285916
157	0xbd9d212e	-0.07672344
158	0xbd4741a1	-0.048646573
159	0x3e6febc0	0.23429775
160	0xbd1ef4e5	-0.03880777
161	0x3d4cf42c	0.050037548
162	0x3d5b9a86	0.053614162
163	0x3f0314b0	0.5120344
164	0xbcf31084	-0.029670961
165	0x3e9223f0	0.28543043
166	0x3e8902b6	0.2675988
167	0xbdfe12d0	-0.12405932
168	0xbe707eeb	-0.23485915
169	0x3d01de4f	0.03170615
170	0xbdba3a42	-0.09093143
171	0xbe5bc721	-0.2146268
172	0x3e5818e8	0.21103251
173	0x3e108cfc	0.14116281
174	0x3d6a2365	0.05716266
175	0xbe8b7093	-0.27234325
176	0x3e65cd35	0.22441562
177	0x3e15b2ed	0.14619036
178	0xbc84e9a7	-0.016224695
179	0xbea1f940	-0.31635475
180	0x3e8c801d	0.27441493
181	0x3d8a6270	0.06757057
182	0xbe5cb4e1	-0.21553375
183	0xbd0b7613	-0.03404815
184	0xbd6c6cd9	-0.057720993
185	0xbd7b95ec	-0.061422274
186	0xbe48dece	-0.19616243
187	0xbe0c3d27	-0.13695203
188	0x3d873e58	0.06603688
189	0xbdfc22a4	-0.12311295
190	0xbe72a8b4	-0.23697168
191	0xbdce2823	-0.10066249
192	0x3cf03e6b	0.029326638
193	0xbdfd7909	-0.12376601
194	0x3c7f7782	0.015592458
195	0x3d3888e5	0.045052428
196	0x3e92ce25	0.286729
197	0x3c34b811	0.011030213
198	0x3d0b772e	0.034049205
199	0x3e0aaed1	0.1354325
200	0x3d0432ca	0.032275
201	0x3c87be89	0.016570346
202	0xbe3f74a7	-0.18696843
203	0xbb93b3e1	-0.004507527
204	0xbdb6ff43	-0.08935406
205	0xbcc7bbad	-0.024381483
206	0xbdb74daa	-0.0895036
207	0xbdbfe240	-0.09369326
208	0xbe02bae1	-0.12766601
209	0xbe3713ac	-0.17878598
210	0xbd9f248d	-0.077706434
211	0x3dfa35f3	0.12217321
212	0xbe331494	-0.17488319
213	0x3d9ee8dd	0.07759259
214	0x3d38ac29	0.04508606
215	0xbc80f36e	-0.015741076
216	0x3cb138d9	0.021633552
217	0x3c6ce7fa	0.014459604
218	0xbdc99598	-0.09842986
219	0x3da6f6e0	0.081525564
220	0xbdc8e701	-0.098096855
221	0xbdb874ca	-0.09006651
222	0xbc953175	-0.01821206
223	0x3db4e950	0.08833563
224	0x3d3e6604	0.04648401
225	0xbd349e87	-0.044096496
226	0x3d34a8af	0.04410618
227	0x3d668320	0.056277394
228	0xbdf2a5c5	-0.11848024
229	0xbe085622	-0.13314107
230	0x3e0885cc	0.1333229
231	0x3d113dca	0.035459317
232	0xbdc634b6	-0.096780226
233	0x3e1e87d0	0.15481496
234	0xbde216df	-0.110395186
235	0xbdd37fee	-0.10327135
236	0xbd1a4617	-0.0376645
237	0x3e7e6b55	0.24845631
238	0x3e7424a5	0.23842104
239	0xbe75cf86	-0.24004945
240	0x3dce347f	0.100686066
241	0xbd26e9f9	-0.040750477
242	0x3d79901e	0.060928456
243	0xbdae986e	-0.085251674
244	0x3e36e6b4	0.17861444
245	0x3cb73987	0.022366298
246	0x3ed1ba61	0.40962508
247	0x3d589cfe	0.052884094
248	0xbddcca0b	-0.10780724
249	0xbd4771be	-0.048692457
250	0xbe4a0e38	-0.19731987
251	0x3e1068db	0.14102499
252	0x3e267be3	0.16258197
253	0x3dd4ec0f	0.10396587
254	0x3db3efcc	0.08785972
255	0x3dafbe92	0.0858127

encoder_layers.block_0.conv.bias f4 [112]
0	0xbdce098e	-0.10060416
1	0xbd93e326	-0.072210595
2	0x3dc4ea82	0.09615041
3	0xbd71aa97	-0.059000578
4	0x3d2a8b0b	0.041636508
5	0xbda9945a	-0.08280249
6	0xbcc79e10	-0.024367362
7	0xbcb33fe4	-0.021881051
8	0x3cc842e9	0.024445968
9	0xbd539da3	-0.051664006
10	0x3bc72bf8	0.0060782395
11	0xbc90fa58	-0.017697498
12	0x3d1eafaf	0.038741764
13	0xbe0e340c	-0.13887042
14	0xbdd03efb	-0.101682626
15	0xbc9ba467	-0.018999292
16	0xbd40e60b	-0.047094386
17	0xbd8c0cea	-0.06838401
18	0xbd971391	-0.07376779
19	0x3d80e4ad	0.062936164
20	0xbce4dfdf	-0.027938781
21	0x3c88b35a	0.016687084
22	0x3d779e4e	0.060453705
23	0xbcec7084	-0.028862245
24	0xbe06f3fc	-0.1317901
25	0xbd3edc54	-0.04659684
26	0xbd252e1e	-0.040327184
27	0x3c8160c8	0.01579322
28	0x3dc25509	0.094888754
29	0x3ce49946	0.027905118
30	0x3e1519f2	0.14560679
31	0x3dd3fdaa	0.10351117
32	0x3dbb8eeb	0.09158119
33	0xbbc29b32	-0.005938911
34	0xbdee9015	-0.11648575
35	0x3dc1a0a5	0.09454469
36	0xbd98c701	-0.07459832
37	0x3986cedd	0.00025712597
38	0x3e8a939f	0.2706575
39	0xbcf77a21	-0.030209603
40	0x3d6d283b	0.057899695
41	0x3dda8370	0.10669601
42	0xba8dca72	-0.001081778
43	0x3e0fe1a6	0.14050922
44	0x3de98f6f	0.11404311
45	0xbd533dcd	-0.05157261
46	0xbdf48a0f	-0.11940395
47	0x3cf80ed0	0.0302805
48	0x3db7deec	0.08978066
49	0x3c3a7e1e	0.011382608
50	0x3d4f8d8d	0.050672103
51	0xbad87973	-0.0016515687
52	0x3e21f163	0.15814738
53	0x3df9799f	0.121814005
54	0xbdea2242	-0.114323154
55	0x3e1142af	0.14185594
56	0x3d1309b4	0.035897925
57	0xbd7737d6	-0.060355984
58	0x3da52fd6	0.080657646
59	0xbc4d2692	-0.012521403
60	0xbd8df2fd	-0.06931112
61	0xbd16ac85	-0.03678562
62	0x3cc4c7c8	0.024021044
63	0x3d14514b	0.03621034
64	0x3d4632f1	0.048388425
65	0xbe20886a	-0.15677038
66	0x3d81591a	0.06315823
67	0x3cc148b0	0.02359423
68	0xbd76ad21	-0.060223702
69	0x3da4f060	0.080536604
70	0xbdf5520d	-0.119785406
71	0x3d22939b	0.03969155
72	0x3e0cf053	0.13763551
73	0x3c66168b	0.014043461
74	0xbdfa0beb	-0.122093044
75	0xbc883bcb	-0.016630074
76	0xbdc67ec8	-0.0969215
77	0xba258444	-0.00063139596
78	0x3d8bcd03	0.06826212
79	0xbd8191ec	-0.063266605
80	0x3d7aadc4	0.061200872
81	0x3db93d0b	0.09044846
82	0x3dc89849	0.09794671
83	0x3d5ade92	0.053434916
84	0xbd80a8df	-0.062822096
85	0xbd534f23	-0.051589143
86	0x3d2a1b8e	0.041530184
87	0xbcc6e838	-0.024280652
88	0x3bb5190f	0.005526669
89	0xbd6b3480	-0.057423115
90	0xbe331e64	-0.17492062
91	0xbd10137a	-0.035174824
92	0x3b4d2a8a	0.0031305873
93	0xbdb920f9	-0.09039492
94	0x3cb42f3e	0.021995183
95	0x3da2a4a7	0.07941561
96	0xbb174a86	-0.002308519
97	0xbd0d5a66	-0.03451004
98	0xbdcbc2c6	-0.099492595
99	0xbce239b8	-0.027615413
100	0xbd28c46f	-0.04120296
101	0xbdafbb3e	-0.085806355
102	0xbdded1f3	-0.108798884
103	0x3c026ddf	0.007960766
104	0xbd85f5a6	-0.06540994
105	0x3d3beadb	0.045878273
106	0xbd5e9d81	-0.054349426
107	0xbd5f59d6	-0.054529034
108	0xbd314717	-0.043280687
109	0xbded81c8	-0.115970194
110	0x3c7a2b5f	0.01526913
111	0xbdb6a7aa	-0.08918698

encoder_layers.block_1.transition.weight f4 [56, 1, 3, 3]
0	0x3e4e90cf	0.20172428
1	0xbd584acc	-0.052805707
2	0x3d8cb981	0.068713196
3	0x3ea30867	0.31842348
4	0xbca32b59	-0.01991813
5	0xbd5b451d	-0.05353271
6	0xbdee4432	-0.11634101
7	0x3e385808	0.18002331
8	0xbe677c2b	-0.2260596
9	0x3d350dd2	0.044202633
10	0x3e8ffaac	0.28120935
11	0xbd6b46c0	-0.05744052
12	0x3d01dc56	0.03170427
13	0x3d3126c6	0.043249868
14	0x3e71e6ea	0.23623243
15	0x3debaa5a	0.11507101
16	0xbebb3e5a	-0.36571008
17	0xbeaadb33	-0.3337036
18	0x3d69aa48	0.05704716
19	0x3d1a04a1	0.03760207
20	0xbdf5be53	-0.11999192
21	0xbe30a762	-0.17251351
22	0xbee881dc	-0.45411575
23	0x3cee5f74	0.02909825
24	0xbc8f76c6	-0.01751269
25	0xbe562824	-0.2091375
26	0x3c09a6ed	0.008401615
27	0xbe7792d9	-0.24177112
28	0x3e493fa0	0.19653177
29	0x3dd46365	0.103705205
30	0xbe2dbe13	-0.16967039
31	0xbe9d7e4d	-0.30760422
32	0x3d597549	0.053090367
33	0xbdea94f1	-0.114541896
34	0xbd227006	-0.039657615
35	0x3d175197	0.036943045
36	0xbde03a08	-0.109485686
37	0x3e00b86c	0.12570351
38	0xbd40b12b	-0.04704396
39	0xbd99d4ce	-0.075112924
40	0x3eadd33e	0.33950227
41	0xb96a964a	-0.00022371966
42	0xbe37bcdf	-0.17943142
43	0xbd2a37d9	-0.041557167
44	0x3d505ace	0.050867848
45	0xbdbfb3b0	-0.093604445
46	0x3dab5cb8	0.08367294
47	0x3e2227f3	0.15835552
48	0x3e4ef0c2	0.2020903
49	0x3eacf0f4	0.33777583
50	0x3e0cbb73	0.13743381
51	0x3d56e0eb	0.052460592
52	0x3e537614	0.20650512
53	0x3c8e4e66	0.017371368
54	0x3cd6c283	0.026215797
55	0x3cfa6801	0.030567171
56	0xbda5637f	-0.08075618
57	0xbcc572f4	-0.024102665
58	0xbf0a2ba9	-0.5397287
59	0x3dc61679	0.09672255
60	0x3df3fa37	0.11912959
61	0xbb220d1a	-0.0024727047
62	0xbd1cbf3d	-0.038268317
63	0x3e87cecb	0.26524958
64	0x3e872d2c	0.2640165
65	0x3df649bb	0.12025782
66	0x3e04031a	0.12891808
67	0xbd9341b8	-0.07190269
68	0xba2ae0ed	-0.0006518502
69	0xbde6b281	-0.11264516
70	0xbe791fa8	-0.24328482
71	0x3b95700f	0.0045604776
72	0x3e8dc8ed	0.27692357
73	0x3d53759f	0.051625844
74	0xbe49b0f4	-0.19696409
75	0xbc5f4f3a	-0.013629729
76	0x3effcb59	0.4995983
77	0x3e561223	0.20905356
78	0xbc9a0a7d	-0.01880383
79	0xbd07e843	-0.033180486
80	0xbe24a6cc	-0.16079253
81	0xbe1fc882	-0.15603831
82	0x3e3d907e	0.1851215
83	0xbdc9131e	-0.098180994
84	0x3ddc5837	0.10759013
85	0x3f416cf8	0.755569
86	0x3d9def88	0.077117026
87	0x3cb3955b	0.021921804
88	0xbd92f1c7	-0.071750216
89	0x3dde8407	0.10865026
90	0x3e089834	0.13339311
91	0x3e31e1f0	0.17371345
92	0x3e4a91ad	0.19782133
93	0xbc540d89	-0.01294268
94	0x3e1be74c	0.15224952
95	0x3e1cee22	0.15325215
96	0xbd421d80	-0.047391415
97	0x3dac24be	0.084054455
98	0xbdefeedf	-0.11715483
99	0x3df0649b	0.11737939
100	0x3e31f4f1	0.17378594
101	0x3e1b9498	0.15193403
102	0x3e42c6b6	0.19021115
103	0xbe949849	-0.29022434
104	0x3e854604	0.2602998
105	0xbb1c8970	-0.002388563
106	0x3e40ec49	0.18840136
107	0xbd6b1e2b	-0.057401817
108	0xbd3128f3	-0.043251943
109	0x3c3226e5	0.010873531
110	0x3b8cf49a	0.0043016197
111	0xbe5d251d	-0.21596189
112	0x3d7205ad	0.059087444
113	0xbe3c6eff	-0.18401717
114	0xbda579c7	-0.08079868
115	0xbd7b2007	-0.06130984
116	0x3dfabd67	0.12243157
117	0xbd5b2569	-0.053502474
118	0x3dffeaec	0.1249598
119	0x3d76e990	0.060281336
120	0xbe9228c0	-0.28546715
121	0xbe2e6bb8	-0.17033279
122	0x3eb92dbe	0.3616771
123	0xbdeefdd5	-0.11669508
124	0x3d03481d	0.032051194
125	0x3a1edcdb	0.0006060132
126	0xbe364898	-0.1780113
127	0xbd8ddf33	-0.069273375
128	0x3cf98468	0.030458644
129	0xbe1d1b02	-0.15342334
130	0x3c1d475a	0.009599531
131	0xbdab1118	-0.0835287
132	0xbe3477ed	-0.17623873
133	0xbe48840e	-0.19581625
134	0xbe1757d4	-0.14779598
135	0x3d983a15	0.07432953
136	0x3e82c6ea	0.25542384
137	0x3c5785f7	0.013154498
138	0x3ea613a9	0.32436875
139	0x3ea9ebb1	0.3318763
140	0x3dd1fb96	0.10253064
141	0x3d873a10	0.066028714
142	0x3e4dca38	0.20096672
143	0xbc9a684f	-0.018848566
144	0x3cc01aab	0.023450216
145	0xbd9ec628	-0.07752639
146	0xbe2f8132	-0.17139128
147	0xbe8414f9	-0.2579725
148	0xbe1e94ea	-0.15486494
149	0x3dd802c2	0.10547401
150	0xbe634af3	-0.2219656
151	0xbe85cc43	-0.26132402
152	0xbdbcedf3	-0.09225073
153	0xbcef7617	-0.029231114
154	0x3e04be04	0.1296311
155	0xbe8d967f	-0.27653882
156	0x3e19d29d	0.15021749
157	0x3e319b0e	0.17344305
158	0x3e121bd4	0.14268428
159	0x3e049841	0.12948705
160	0x3e7fa898	0.24966657
161	0x3e13fcea	0.14451948
162	0xbe97a92f	-0.29621264
163	0x3c88759b	0.016657641
164	0xbe133dd7	-0.14379059
165	0x3db7386e	0.0894631
166	0x3e9ea648	0.30986238
167	0x3e8d966d	0.27653828
168	0x3dd7114b	0.10501345
169	0xbdd2c264	-0.10290983
170	0x3db4c509	0.08826644
171	0xbdfb8671	-0.12281502
172	0xbe687513	-0.2270091
173	0x3e70fdfa	0.23534384
174	0x3c621cc5	0.0138008045
175	0xbe31100d	-0.17291279
176	0x3ce2ec61	0.027700605
177	0x3e0e030e	0.13868353
178	0x3e587b45	0.21140774
179	0x3d8b5397	0.06803053
180	0x3da0bd94	0.07848659
181	0x3ddca465	0.10773543
182	0x3dfd34b1	0.12363566
183	0x3e32e286	0.17469224
184	0xbdeeb8c9	-0.11656339
185	0x3e1ace12	0.15117672
186	0x3d9365bc	0.07197139
187	0xbda11035	-0.07864419
188	0x3e75b264	0.23993832
189	0x3dea2e3e	0.11434601
190	0x3e046ed6	0.12932906
191	0xbdcf45ec	-0.101207584
192	0x3e3f8d52	0.18706253
193	0xbdbead72	-0.09310426
194	0xbd0ec0e9	-0.034851942
195	0xba838ca8	-0.0010036426
196	0x3e4def8a	0.20110908
197	0x3cc9617d	0.024582619
198	0xbda41325	-0.08011464
199	0xbddd62bb	-0.10809847
200	0xbd88d1d0	-0.066806436
201	0x3e18b1ba	0.14911547
202	0x3e865fb8	0.26244903
203	0xbd8ae4e8	-0.06781942
204	0x3e1cb80c	0.15304583
205	0x3e1f8e39	0.15581597
206	0xbe5de097	-0.21667705
207	0x3dc4475b	0.095839225
208	0x3ebfc47c	0.37454593
209	0x3e2d6d68	0.16936266
210	0x3e89f38f	0.26943633
211	0x3ec367c3	0.381651
212	0x39c015e0	0.00036637392
213	0x3d24ba1a	0.040216543
214	0x3c0bb74c	0.008527588
215	0x3df8d86e	0.12150656
216	0xbe8755e4	-0.26432717
217	0xbe3e29ec	-0.1857068
218	0xbe23df73	-0.16003208
219	0xbdee5f11	-0.11639226
220	0xbe0f6d4a	-0.14006534
221	0x3d04da19	0.032434557
222	0xbc318f45	-0.010837381
223	0x3ca46df6	0.020071965
224	0xbce96908	-0.028492466
225	0x3e36414b	0.17798345
226	0x3e28dd9a	0.16490784
227	0x3e050296	0.12989268
228	0xbc3d1e2e	-0.01154284
229	0x3e479ef1	0.19494225
230	0x3d2d9397	0.04237708
231	0xbe22b1f1	-0.15888192
232	0x3d93730c	0.07199678
233	0xbe31ec5d	-0.17375322
234	0x3db3404d	0.08752499
235	0xbdbf3f3a	-0.093382314
236	0xbdc059c0	-0.093921185
237	0xbd4f5703	-0.05062009
238	0xbef5c4d8	-0.48001742
239	0xbe2eadbd	-0.17058463
240	0x3b7f09ff	0.003891587
241	0xbde09b75	-0.10967151
242	0xbe1d80f0	-0.15381217
243	0x3dc75586	0.09733109
244	0xbe2dfdbf	-0.16991328
245	0xbe25c517	-0.16188465
246	0x3d0642b9	0.032778475
247	0xbe90abde	-0.28256124
248	0xbdf5f04c	-0.120087236
249	0xbd601036	-0.05470296
250	0xbea68d02	-0.32529455
251	0xbe2e4136	-0.17017063
252	0xbde2d127	-0.11075049
253	0xbd0c2548	-0.03421524
254	0xbe1dc686	-0.15407762
255	0x3d8c01aa	0.06836255

encoder_layers.block_1.transition.bias f4 [56]
0	0xbe0cea7e	-0.13761327
1	0x3b982487	0.0046430263
2	0x3df0b355	0.11752955
3	0xbdab3997	-0.08360594
4	0x3cdc5fff	0.026901243
5	0xbe341a4b	-0.17588155
6	0x3e3ee6d1	0.18642737
7	0xbe314595	-0.173117
8	0xbe67fd3c	-0.22655195
9	0x3de9efde	0.11422704
10	0xbe21f771	-0.15817048
11	0xbd9fd2af	-0.078038566
12	0x3caa23a5	0.02076895
13	0xbce35acf	-0.027753262
14	0xbe0014ff	-0.1250801
15	0xbda2b54f	-0.07944738
16	0x3d75532f	0.059893783
17	0xbcbee60b	-0.023303052
18	0x3d8d3c47	0.068962626
19	0xbe014115	-0.12622483
20	0xbe02adbc	-0.12761587
21	0x3e34a608	0.17641461
22	0xbc1b0f61	-0.009464116
23	0xbd9de532	-0.07709731
24	0x3d957ea3	0.07299545
25	0xbe601fa3	-0.21887068
26	0xbc9507e9	-0.018192248
27	0x3d80b97f	0.062853806
28	0x3d11b951	0.035577122
29	0x3e3beea8	0.18352759
30	0xbe440410	-0.19142175
31	0xbd764bb7	-0.0601308
32	0x3daa4d48	0.083155215
33	0x3dd957a9	0.10612423
34	0xbcf64d6a	-0.03006621
35	0x3dfb5352	0.122717515
36	0xbd8e60b3	-0.06952038
37	0x3dee5bee	0.11638628
38	0x3d9a466c	0.07532963
39	0xbccec4c6	-0.025240313
40	0x3cb01377	0.021493657
41	0xbb924610	-0.0044639185
42	0xbe5390ce	-0.20660707
43	0x3d5fa374	0.05459924
44	0x3d0651f6	0.032793008
45	0x3c60dbdd	0.0137242945
46	0x3cbf9aed	0.023389304
47	0xbe082815	-0.1329654
48	0x3e066549	0.13124575
49	0xbc181ef9	-0.009284728
50	0xbdf99d31	-0.12188185
51	0xbe4cd43f	-0.2000284
52	0x3e55c54f	0.20876049
53	0xbe8358ea	-0.25653774
54	0xbd572812	-0.05252845
55	0x3dee53d5	0.116370834

encoder_layers.block_1.conv.weight f4 [112, 56, 1, 1]
0	0x3c944bb6	0.018102508
1	0xbd965ac7	-0.07341533
2	0xbd999fb3	-0.07501163
3	0xbdf1ddc8	-0.118098795
4	0xbe368779	-0.17825116
5	0xbd1f42db	-0.038882118
6	0xbd657deb	-0.056028288
7	0x3e4b9e9c	0.19884723
8	0x3e0b75bd	0.13619132
9	0xbd7a250f	-0.061070498
10	0xbc8b334e	-0.016992237
11	0x3e5e41e4	0.21704823
12	0xbcb2e19f	-0.0218361
13	0xbe0ae22f	-0.13562845
14	0x3d1812eb	0.037127417
15	0x3cbf053e	0.02331793
16	0xbbcab7a8	-0.0061864443
17	0x3d6ce169	0.057832155
18	0x3deb29d7	0.1148259
19	0xbcac4c9a	-0.02103262
20	0x3d6bfbdd	0.057613242
21	0x3cda8e55	0.026679197
22	0xbcbade3d	-0.02281105
23	0xbe17cd32	-0.1482437
24	0xbc5ad07e	-0.0133553725
25	0x3d75fce8	0.060055643
26	0xbd0e0374	-0.034671262
27	0xbe04187a	-0.12899962
28	0x3e4f93dd	0.20271249
29	0xbe3c01bf	-0.18360041
30	0xbcd36ab2	-0.025807712
31	0x3d525e04	0.05135919
32	0xbe1a4c43	-0.15068154
33	0x3e00312a	0.12518755
34	0x3de0d53c	0.10978171
35	0xbd9412f3	-0.07230177
36	0x3db4b214	0.08823028
37	0x3d534b81	0.051585678
38	0xbb7e0fd5	-0.003876676
39	0x3e826439	0.2546709
40	0x3e0bd83f	0.1365671
41	0x3c9c427c	0.019074671
42	0x3dd9afc9	0.106292315
43	0x3c225adc	0.009909358
44	0x3e882f4e	0.2659859
45	0x3d2e3db3	0.04253931
46	0x3dfea8de	0.124345526
47	0x3db9e3bb	0.09076639
48	0xbcc65f9d	-0.024215514
49	0xbdb30330	-0.08740842
50	0x3d17a9a4	0.037027016
51	0x3cd19ceb	0.02558752
52	0x3c1db636	0.009625962
53	0x3d94c362	0.07263829
54	0xbe57706e	-0.21038982
55	0xbe35d9e1	-0.17758895
56	0x3c87663d	0.016528243
57	0xbe2d2799	-0.16909637
58	0x3deaa7a8	0.11457759
59	0xbd81884d	-0.063248254
60	0xbd34e446	-0.04416301
61	0xbdc55323	-0.09634998
62	0x3e7873f3	0.24262981
63	0xbe175527	-0.14778577
64	0x3d60e5d2	0.054906674
65	0x3d2fa228	0.042879254
66	0xbe118ecc	-0.14214629
67	0xbd590d3a	-0.05299113
68	0x3d3ff4da	0.046864368
69	0xbdb54b3d	-0.08852241
70	0xbd1f4c33	-0.03889103
71	0x3d7d97d0	0.061912358
72	0x3d5ca421	0.053867463
73	0xbb83ac70	-0.004018359
74	0xbc8bca0d	-0.017064119
75	0x3de18d6e	0.11013304
76	0xbddee6dc	-0.10883877
77	0x3d65e3cb	0.056125443
78	0x3dac466f	0.08411872
79	0xbdbc9130	-0.0920738
80	0x3c207c28	0.009795226
81	0x3e24b487	0.1608449
82	0x3d690455	0.056888897
83	0x3caed197	0.021340175
84	0xbd863a7a	-0.06554122
85	0x3dbde2dc	0.092717856
86	0xbeaec8b8	-0.3413751
87	0xbd769ab8	-0.060206145
88	0xbe37399a	-0.17893067
89	0xbd4a5c5e	-0.049404494
90	0xbc46ebc5	-0.012141173
91	0x3d79abc9	0.060954843
92	0x3d5bb365	0.05363788
93	0x3e4b582d	0.19857855
94	0x3dd486e5	0.103772916
95	0xbe081f01	-0.13293077
96	0x3da9392b	0.08262857
97	0x3e746eeb	0.23870437
98	0x3dbfb969	0.09361536
99	0xbdf32d50	-0.11873877
100	0xbb9fe7b6	-0.004879917
101	0x3cc8c710	0.024508983
102	0x3d8a6f3f	0.067595
103	0xbd14a51e	-0.03629028
104	0x3da790a0	0.08181882
105	0x3d2cf3f4	0.04222484
106	0x3e8e5a45	0.27803245
107	0x3d844f83	0.06460478
108	0xbda7b4a2	-0.0818875
109	0x3dfc8bce	0.12331353
110	0xbd4673e0	-0.04845035
111	0x3de1f0db	0.11032268
112	0xbe4fa62c	-0.20278233
113	0xbd6b2dc3	-0.05741669
114	0xbe45bca1	-0.19310237
115	0x3d58064d	0.052740384
116	0xbdcb56cc	-0.099286646
117	0x3c1a6fbf	0.009426056
118	0x3c2dc2d2	0.010605531
119	0xbb341336	-0.002747727
120	0x3e1c1f30	0.15246272
121	0xbcd16b5e	-0.025563892
122	0xbd617f32	-0.055052944
123	0xbc6c6bec	-0.014430027
124	0x3d92713e	0.071505055
125	0xbea1d65f	-0.31608865
126	0x3d0140e0	0.03155601
127	0x3dbd22a2	0.09235121
128	0xbd3c2a55	-0.04593881
129	0xbe1426a7	-0.1446787
130	0x3d0c958e	0.034322314
131	0xbd1e46c0	-0.03864169
132	0xbd6cb5f5	-0.057790715
133	0xbd5ca9f2	-0.05387301
134	0x3ed30818	0.41217113
135	0xbd2010f1	-0.039078657
136	0x3c9ab6cd	0.018885994
137	0xbe5d69dd	-0.21622415
138	0xbd89adfe	-0.067226395
139	0xbcc8c4d1	-0.024507912
140	0x3e75d524	0.24007088
141	0x3c7295d2	0.014806228
142	0xbd9b9d18	-0.07598323
143	0x3d912594	0.070872456
144	0x3c9e6c07	0.01933862
145	0xbe256d17	-0.16154896
146	0x3dd28323	0.102789186
147	0xbe4abaac	-0.19797772
148	0xbcd9d54f	-0.026590971
149	0xbe548c56	-0.20756659
150	0x3d673eba	0.056456305
151	0x3d9555ba	0.07291742
152	0x3d2f2f63	0.0427698
153	0xbe3e55d5	-0.1858743
154	0x3e1724c6	0.14760122
155	0x3e87b0b1	0.26501992
156	0xbe91ab7f	-0.28451154
157	0xbdaac2be	-0.083379254
158	0xbc8d624f	-0.017258791
159	0x3c5bfadc	0.013426509
160	0xbc5e4fd4	-0.013568837
161	0x3dea1ab9	0.11430878
162	0x3d03697a	0.032083012
163	0xbba1f09e	-0.004942014
164	0x3cb50ba4	0.022100277
165	0x3b558ff8	0.0032587033
166	0xbe202171	-0.15637757
167	0xbddeb556	-0.10874431
168	0xbe1a8810	-0.15090966
169	0x3e84768b	0.2587169
170	0xbe1e4a97	-0.15458141
171	0x3d12bcda	0.035824634
172	0x3e6396ef	0.22225545
173	0xbce62afd	-0.02809667
174	0x3d886320	0.066595316
175	0x3db5c899	0.088761516
176	0x3e22802b	0.15869205
177	0x3e159d5e	0.14610812
178	0x3da2ed4d	0.07955418
179	0xbd776fe8	-0.060409456
180	0x3d88f574	0.066874415
181	0x3ed75287	0.4205515
182	0x3cd01bdf	0.025403915
183	0x3c9cc056	0.019134682
184	0xbdc36c11	-0.095420964
185	0xbcd8a303	-0.026444918
186	0xbc02f35a	-0.00799259
187	0xbe77dcf4	-0.2420538
188	0xbe09c77d	-0.13455005
189	0xba8602cc	-0.0010224222
190	0xbda463ca	-0.08026846
191	0xbdb230c1	-0.08700705
192	0x3e254de2	0.16142991
193	0x3dec60a8	0.11541873
194	0xbe30c2dc	-0.17261833
195	0x3ea8215b	0.32837948
196	0x3da9783e	0.082748875
197	0xbd683b51	-0.056697194
198	0x3e9b055b	0.30277523
199	0xbea93ff6	-0.3305661
200	0xbd9f43c5	-0.07776598
201	0xbeeeeefd	-0.4666671
202	0x3f2c8407	0.6738896
203	0xbdc59230	-0.09647024
204	0x3d8770dc	0.06613323
205	0xbf1f0246	-0.62112844
206	0x3eac913f	0.33704564
207	0xbe87841f	-0.26467988
208	0xbe23ce0f	-0.15996574
209	0x3e0a85a1	0.13527538
210	0x3e06568b	0.13118951
211	0xbe3f0aad	-0.18656416
212	0x3e0a72a2	0.13520291
213	0xbcce9554	-0.02521769
214	0x3e524062	0.20532373
215	0xbf3805a7	-0.71883625
216	0xbe0cf4c5	-0.13765247
217	0x3e17d5e0	0.1482768
218	0xbe2e746d	-0.170366
219	0x3db9dc6c	0.09075245
220	0xbdf2d368	-0.11856729
221	0xbd7909db	-0.060800415
222	0x3e29183c	0.16513151
223	0xbeab51e0	-0.33460903
224	0x3dc053ee	0.09391008
225	0x3e36c8e0	0.17850065
226	0xbde1e200	-0.11029434
227	0xbcce98ed	-0.025219405
228	0x3d89d0d6	0.067292854
229	0x3e4ae471	0.19813706
230	0xbdb31a26	-0.08745222
231	0xbe9360b7	-0.28784725
232	0x3e094bc0	0.13407803
233	0xbe2daac8	-0.16959679
234	0x3de3ac13	0.11116805
235	0xbe01d996	-0.12680659
236	0xbbb3d554	-0.005488077
237	0xbe6f5dd7	-0.23375641
238	0x3d366b0a	0.044535674
239	0x3e04fc44	0.12986857
240	0x3df97fd7	0.12182587
241	0xbb0b4e6e	-0.0021256465
242	0x3e0bf0fe	0.1366615
243	0x3ee30541	0.44339946
244	0x3dd517e8	0.104049504
245	0x3caa3b6e	0.020780291
246	0xbe47a953	-0.19498186
247	0xbd053e17	-0.032529917
248	0xbbc02059	-0.005863231
249	0x3e012508	0.12611783
250	0x3e2d30c3	0.16913132
251	0x3ca6daa5	0.02036793
252	0xbefab7ea	-0.4896844
253	0x3e084752	0.13308457
254	0x3e83fd58	0.25779223
255	0x3e83c928	0.25739408

encoder_layers.block_1.conv.bias f4 [112]
0	0x3db92684	0.090405494
1	0xbda55191	-0.08072198
2	0xbcf434c2	-0.029810313
3	0xbda4486c	-0.08021626
4	0x3c179a80	0.009253144
5	0xbcc1b874	-0.023647524
6	0xbdce550e	-0.10074817
7	0xbda2e8f1	-0.07954586
8	0xbd3e48e8	-0.046456248
9	0xbe0c631d	-0.13709684
10	0x3d5633c3	0.052295458
11	0x3d28b30d	0.04118638
12	0xbdf3f940	-0.11912775
13	0x3e2e8a94	0.17045051
14	0x3dc26a3f	0.09492921
15	0xbe86c595	-0.26322618
16	0x3c8255ec	0.015910111
17	0xbc8baedf	-0.017051158
18	0xbe09d589	-0.13460363
19	0xbd228f1c	-0.03968726
20	0xbd8a7c9b	-0.06762048
21	0x3d457643	0.048208486
22	0x3cb7c601	0.022433283
23	0x3b3c6f42	0.0028752838
24	0xbdcf49c6	-0.10121493
25	0x3c98549e	0.018595036
26	0xbdcb5327	-0.099279694
27	0xbdb95073	-0.090485476
28	0x3d40b325	0.047045846
29	0xbdfe4e15	-0.12417237
30	0x3db9acb9	0.09066147
31	0x3e855e69	0.26048592
32	0x3d437e16	0.047727667
33	0x3e041693	0.12899236
34	0x3c688205	0.014191155
35	0x3d41079e	0.047126405
36	0x3d5b0305	0.053469677
37	0x3e268172	0.16260317
38	0x3e1e4d16	0.15459093
39	0xbbccf78c	-0.006255096
40	0x3da47884	0.08030799
41	0x3e0d5e20	0.13805437
42	0x3e29d4a4	0.16585022
43	0xbdd21ae4	-0.10259035
44	0xbcfee503	-0.03111506
45	0x3d4c0abe	0.049814932
46	0x3dc5f833	0.09666481
47	0xbcc67d43	-0.024229651
48	0x3d8a56a0	0.06754804
49	0xbc7a5e2c	-0.015281241
50	0x3d58970b	0.05287842
51	0xbc6a3cf9	-0.014296764
52	0xbe0afab1	-0.13572194
53	0x3e0bdf45	0.1365939
54	0xbd2e1cb4	-0.042507842
55	0x3d45d8ee	0.048302583
56	0x3c29cdae	0.010363979
57	0x3d7bf68f	0.061514433
58	0xbdecc093	-0.11560168
59	0x3c301d5f	0.01074919
60	0xbd2382b6	-0.039919578
61	0x3bd15e1e	0.0063893935
62	0xbca13cc1	-0.01968229
63	0x3e05e55d	0.13075776
64	0x3d01e2b1	0.03171033
65	0xbe207673	-0.15670185
66	0xbdcd396c	-0.10020718
67	0x3cbd124a	0.02308001
68	0xbb9b9c98	-0.004748892
69	0x3c1fa426	0.009743726
70	0xbd9d0fd0	-0.076690316
71	0x3e34809c	0.17627186
72	0xbdb1835b	-0.08667632
73	0xbc961d8f	-0.018324642
74	0xbd15d421	-0.036579255
75	0x3cc04859	0.023471998
76	0xbd271209	-0.040788684
77	0x3ccd4c5e	0.025060829
78	0xbba6fd61	-0.005096123
79	0xbdfe88b8	-0.12428421
80	0x3d6a0fa1	0.05714381
81	0x3d95139d	0.072791316
82	0xbdc62460	-0.09674907
83	0xbd5c3953	-0.053765606
84	0xbd64182c	-0.055687115
85	0xbbb2001d	-0.0054321424
86	0xbd8e5405	-0.06949619
87	0xbd6b8cde	-0.05750739
88	0xbdb014ca	-0.08597715
89	0xbe144f30	-0.14483333
90	0xbc54de06	-0.012992388
91	0xbd33a26a	-0.043856062
92	0xbd89cc0d	-0.06728373
93	0xbe798661	-0.24367668
94	0xbdc6fbdb	-0.09716006
95	0x3d7dd6db	0.06197248
96	0xbdea38f7	-0.114366464
97	0xbe10674a	-0.14101902
98	0xbabc0262	-0.0014343972
99	0xbca6cffa	-0.020362843
100	0xbd33e1fc	-0.043916687
101	0xbe282238	-0.16419303
102	0x3c1f8bae	0.009737892
103	0xbdaae924	-0.08345249
104	0xbe109a5c	-0.14121383
105	0x3d09343f	0.03349709
106	0x3d3cee04	0.046125427
107	0x3d1c4283	0.038149368
108	0xbd58c6af	-0.052923854
109	0x3d66371b	0.056204896
110	0xbe06b4a9	-0.13154854
111	0xbca323cf	-0.019914536

decoder_layers.block_0.transition.weight f4 [28, 1, 3, 3]
0	0x3e8a1a6c	0.26973283
1	0x3e3ca4d4	0.18422252
2	0x3e3dc14b	0.18530767
3	0x3e5c7fef	0.21533178
4	0x3d992e15	0.074794926
5	0xbdc284d4	-0.09497991
6	0xbc97f60f	-0.018549947
7	0xbd9f8587	-0.0778914
8	0xbd18eb18	-0.037333578
9	0xbea1166d	-0.31462422
10	0x3e60c1ec	0.21948975
11	0x3e581955	0.21103413
12	0xbe3c01be	-0.1836004
13	0x3e10c641	0.14138128
14	0x3edfa359	0.43679312
15	0xbe246498	-0.16053998
16	0x3e57642c	0.21034306
17	0x3ddb5f4e	0.10711537
18	0x3d6e60a8	0.058197647
19	0x3e803267	0.25038454
20	0xbdca41d9	-0.09875841
21	0xbd9c798b	-0.0764037
22	0x3e270b77	0.16312967
23	0x3d8c4301	0.068487175
24	0x3d96a747	0.07356124
25	0x3d1c137d	0.038104523
26	0x3d7b666f	0.061376985
27	0xbd113524	-0.03545107
28	0x3e24b059	0.16082896
29	0x3da34a23	0.07973125
30	0x3d96df00	0.073667526
31	0xbdfe1026	-0.12405424
32	0x3e493a58	0.19651163
33	0xbde4c02b	-0.11169466
34	0x3e214363	0.15748362
35	0x3e4ba219	0.19886054
36	0xbe0e58b9	-0.13901033
37	0x3d0e30d8	0.03471455
38	0xbebadb3f	-0.36495396
39	0xbe26f87e	-0.1630573
40	0x3da9b6f1	0.082868464
41	0x3e3c734d	0.18403359
42	0xbda2347f	-0.07920169
43	0x3e4739ee	0.19455692
44	0xbd179aa3	-0.037012707
45	0xbd92159d	-0.07133029
46	0x3e7856bf	0.24251841
47	0xbd96c49f	-0.07361721
48	0xbe076d47	-0.1322528
49	0x3e64042b	0.22267215
50	0xbd207cb4	-0.039181426
51	0xbe82ab62	-0.2552138
52	0xbcc333da	-0.023828436
53	0xbe86b0e1	-0.26306823
54	0xbe02d35c	-0.1277594
55	0x3ccadcdb	0.024763515
56	0x3e1a6c9d	0.15080495
57	0xbe21aa88	-0.15787709
58	0x3ba19279	0.004930791
59	0x3e3145f0	0.17311835
60	0xbe93d32f	-0.28872058
61	0xbda2a6ed	-0.07941995
62	0xbd3d4ac8	-0.046213895
63	0xbe23b1b1	-0.15985753
64	0xbe77f30d	-0.2421381
65	0xbe4110f8	-0.1885413
66	0xbd9b055e	-0.07569383
67	0x3e4633a6	0.1935564
68	0x3d8e0baa	0.069358185
69	0x3e355239	0.17707147
70	0x3dfd4169	0.123659916
71	0x3df0c1c6	0.11755709
72	0x3e9b2701	0.30303195
73	0x3da34c72	0.07973565
74	0x3e57ed35	0.21086581
75	0x3eaf2f22	0.34215647
76	0xbdb8849e	-0.0900967
77	0x3d8ee207	0.06976705
78	0x3d9e96b3	0.07743587
79	0x3d415301	0.0471983
80	0xbd16c8bf	-0.03681254
81	0xbe1f5349	-0.15559115
82	0xbe80840f	-0.25100753
83	0x3ea3bd25	0.31980243
84	0x3d5bc555	0.053654987
85	0xbe72486e	-0.23660442
86	0xbe4c8e74	-0.19976217
87	0x3c08062c	0.008302253
88	0xbe75ab2e	-0.23991081
89	0xbe8ea986	-0.2786371
90	0xbe420be6	-0.18949851
91	0xbe26787b	-0.16256897
92	0xbcfd4886	-0.030918371
93	0x3b4b6d3a	0.0031040446
94	0xbe0258b3	-0.12729149
95	0xbe1819ef	-0.14853643
96	0x3e1412db	0.14460318
97	0x3cabf37f	0.020990131
98	0x3cda5187	0.026650203
99	0xbdacb5ec	-0.08433136
100	0x3d13847d	0.036015023
101	0xbe901fbf	-0.2814922
102	0x3e056d9a	0.13030091
103	0x3e1e5538	0.15462196
104	0xbe8a97d5	-0.27068964
105	0x3d82b8ac	0.063828796
106	0x3d7e9f1a	0.06216345
107	0x3d95fedd	0.07324002
108	0xbda5bcf6	-0.08092682
109	0x3c402c7d	0.011729357
110	0xbe697db0	-0.22801852
111	0xbdeb9ecd	-0.11504898
112	0xbcd4c5eb	-0.02597328
113	0xbe19a868	-0.15005648
114	0xbe4cf776	-0.20016274
115	0xbd4282e7	-0.04748812
116	0xbbd412f2	-0.006471985
117	0xbde66940	-0.112505436
118	0x3e36d323	0.1785398
119	0x3b478937	0.0030446777
120	0xbeb5b5a3	-0.3549014
121	0xbda2cfd5	-0.07949797
122	0xbe1cd25b	-0.15314619
123	0x3de384c7	0.1110931
124	0x3e0eec30	0.13957286
125	0x3d4cdc9d	0.05001508
126	0xbc642eef	-0.0139272055
127	0xbe3a25b1	-0.1817844
128	0xbdad7c9b	-0.08471032
129	0x3d9dbb0c	0.07701692
130	0xbc58aa6a	-0.013224224
131	0x3df27c9c	0.118401736
132	0xbe615d94	-0.22008353
133	0xbe800407	-0.25003073
134	0xbe3727bb	-0.1788625
135	0xbd6ad951	-0.057336155
136	0xbe7e2ebb	-0.24822514
137	0x3daac19b	0.083377086
138	0xbe02059c	-0.12697452
139	0xbea2a141	-0.31763652
140	0xbb98cde2	-0.004663215
141	0x3e479449	0.1949016
142	0x3e2079bd	0.1567144
143	0xbd118ae6	-0.035532854
144	0x3e901418	0.2814033
145	0x3e7c4b7b	0.24638169
146	0x3e1d39f6	0.15354142
147	0xbc734ac3	-0.014849368
148	0xbe0c0bc3	-0.13676362
149	0x3e222122	0.15832952
150	0xbd931622	-0.07181956
151	0xbd9c9e93	-0.07647433
152	0x3e401a86	0.18760118
153	0x3dc1acf8	0.09456819
154	0x3d6cc8cc	0.057808682
155	0xbd3ff396	-0.04686316
156	0x3e4736fa	0.19454566
157	0x3d560ce2	0.05225838
158	0xbe49ddf3	-0.19713573
159	0xbdd284ce	-0.10279237
160	0x3dabc4ed	0.0838717
161	0xbe84cb69	-0.2593644
162	0xbe85d2f7	-0.26137516
163	0xbe9c1d02	-0.3049088
164	0xbcbbf739	-0.022945033
165	0x3de66e30	0.11251485
166	0xbd88e5a4	-0.066844255
167	0x3da03cac	0.07824072
168	0x3d8d8e25	0.069118775
169	0xbd4281a0	-0.0474869
170	0xbdd74d20	-0.10512757
171	0xbbbb0a01	-0.0057079797
172	0x3e810c6d	0.25204793
173	0x3d57ec31	0.052715484
174	0x3ea78522	0.3271876
175	0x3e8a3a61	0.26997665
176	0x3df2daf9	0.11858172
177	0x3da46d25	0.0802863
178	0x3ebf47c2	0.37359434
179	0x3ba0e141	0.004909665
180	0x3d9b1294	0.07571903
181	0x3da1758e	0.0788375
182	0x3d8d026d	0.06885228
183	0x3e192d8d	0.14958782
184	0x3d2ac9fb	0.04169653
185	0x3db9b2a6	0.090672776
186	0x3e3b2be9	0.18278469
187	0xbd428d9e	-0.047498338
188	0x3e050f65	0.12994154
189	0xbe22dad8	-0.15903795
190	0xbe726f58	-0.23675287
191	0xbcba9e1e	-0.022780474
192	0x3e1a7d25	0.15086801
193	0x3e4118fd	0.18857189
194	0xbe3aa313	-0.1822627
195	0x3c4158f5	0.011800994
196	0xbe16593d	-0.14682479
197	0x3d37aee9	0.04484454
198	0xbc89d7be	-0.016826507
199	0x3e4a57dc	0.19760078
200	0x3e678371	0.22608735
201	0xbd862032	-0.065491095
202	0x3d8f7acc	0.070058435
203	0x3db22b4a	0.08699663
204	0xbe1990f0	-0.14996696
205	0xbdf58558	-0.11988324
206	0x3de497f9	0.11161799
207	0xbdc2791a	-0.094957545
208	0xbd466d6d	-0.0484442
209	0xbe71e747	-0.23623382
210	0x3e21db6a	0.15806356
211	0xbd8edc1d	-0.06975577
212	0xbe2ccccc	-0.16874999
213	0xbd0c2ee7	-0.034224417
214	0xbea96755	-0.3308665
215	0xbeb5ce7e	-0.35509104
216	0x3de6d195	0.11270443
217	0x3d67a8a9	0.05655733
218	0x3e02b660	0.12764883
219	0xbe54cfc6	-0.20782384
220	0xbe90bbe7	-0.28268358
221	0xbd033279	-0.032030556
222	0xbe1199f8	-0.1421889
223	0xbe331253	-0.17487459
224	0xbd1139ff	-0.0354557
225	0xbe085b29	-0.13316025
226	0xbb82f603	-0.003996612
227	0x3e9a9dce	0.3019852
228	0xbc4dd75b	-0.012563552
229	0xbea69c30	-0.32541037
230	0x3d87f3de	0.06638311
231	0xbd0558a8	-0.032555252
232	0xbd97b228	-0.074070275
233	0x3e3ff3e1	0.18745376
234	0xba4e940a	-0.0007880336
235	0x3e63416e	0.22192928
236	0x3e22c9b9	0.15897264
237	0x3e27cccd	0.16386719
238	0x3e03b9f1	0.128639
239	0x3e0b512c	0.13605183
240	0x3de7bcd0	0.1131531
241	0x3e786461	0.24257042
242	0x3e42f080	0.19037056
243	0x3e6eef37	0.2333344
244	0xbe096525	-0.1341749
245	0xbd7f5146	-0.062333368
246	0x3b5b295b	0.0033441398
247	0xbe575681	-0.21029092
248	0xbdc42849	-0.09577996
249	0xbd6453e3	-0.055744063
250	0x3e0115cb	0.1260597
251	0x3e7f78f8	0.2494849

decoder_layers.block_0.transition.bias f4 [28]
0	0x3e1eab23	0.15494971
1	0x3d92a295	0.07159916
2	0xbd59f66d	-0.053213526
3	0xbda8a838	-0.0823521
4	0x3d84ae8e	0.06478606
5	0x3e15152e	0.1455886
6	0x3dd5a2d0	0.10431445
7	0x3dc244e9	0.094858
8	0x3dd2b53f	0.10288476
9	0xbdd9991a	-0.10624905
10	0x3d8467fe	0.064651474
11	0x3d93ff38	0.072264135
12	0xbde76fb0	-0.113005996
13	0x3e0f991f	0.14023255
14	0xbdf9b94b	-0.12193545
15	0xbdbae21a	-0.09125157
16	0x3e212fc6	0.1574088
17	0x3d6b0a5d	0.05738293
18	0x3dcdf80f	0.10057079
19	0x3d723b7b	0.059138756
20	0xbe51c6e9	-0.20486034
21	0x3e0290f1	0.12750603
22	0xbdf68a79	-0.1203813
23	0xbdfadf3a	-0.12249608
24	0x3d9e371c	0.07725355
25	0xbc17cb41	-0.009264768
26	0x3b8cea70	0.004300408
27	0xbdbe1de9	-0.09283049
