trainedModels/wave/horizon-20-70/twoLayer/0.5/2/run4/model.pt (torch, 105105 bytes, 27 tensors)

init.weight f4 [22, 1, 1, 1]
0	0x3ed76f4b	0.42077097
1	0x3e7ea017	0.24865757
2	0x3f160832	0.58606255
3	0xbebc073f	-0.36724278
4	0xbeef52b8	-0.46742797
5	0xbe842ebe	-0.2581691
6	0x3e94645c	0.28982818
7	0xbf1b1242	-0.60574734
8	0x3f3dc49d	0.74128133
9	0xbc8923a4	-0.016740628
10	0xbeb60ff4	-0.35559046
11	0xbe4f9926	-0.20273265
12	0xbf17f74b	-0.59361714
13	0x3f1f6a70	0.62271786
14	0x3db2ae26	0.087246224
15	0xbf35019d	-0.70705587
16	0x3edcfc9c	0.43161476
17	0xbf316fa5	-0.6931098
18	0xbe921023	-0.28527936
19	0x3e5584f7	0.20851503
20	0xbe9f2c99	-0.31088713
21	0xbedd387d	-0.4320716

init.bias f4 [22]
0	0xbed35d16	-0.41281956
1	0xbe990721	-0.2988825
2	0xbdd54f13	-0.10415473
3	0x3cccc524	0.024996348
4	0xbef8d6c9	-0.48601368
5	0xbef12908	-0.47101617
6	0xbe9a0d31	-0.3008819
7	0xbd16f693	-0.036856245
8	0xbd2b5cb2	-0.041836448
9	0x3ea90382	0.3301049
10	0x3e34bb10	0.17649484
11	0x3ee3bb68	0.44478917
12	0xbedcded7	-0.43138763
13	0x3e97d407	0.29653952
14	0x3e4a1528	0.19734633
15	0x3c7c7653	0.01540907
16	0xbee9b9a9	-0.4564946
17	0x3d9656ee	0.07340799
18	0xbdb0266d	-0.08601079
19	0xbe1ed241	-0.15509893
20	0xbede7152	-0.43445832
21	0x3eeb6156	0.459727

encoder_layers.block_0.transition.weight f4 [11, 44, 3, 3]
0	0xbc9233d3	-0.017846977
1	0xbb8a5419	-0.004221451
2	0x3df1396c	0.117785305
3	0xbbea45b3	-0.007149422
4	0x3e174b11	0.1477473
5	0x3dc95f4a	0.09832628
6	0x3e21f063	0.15814357
7	0x3d015532	0.03157539
8	0xbe347d14	-0.17625839
9	0x3d182bd8	0.037151188
10	0xbc7d5127	-0.015461243
11	0x3df72e87	0.12069421
12	0x3d05abeb	0.032634657
13	0x3e063615	0.13106568
14	0x3de7cb2b	0.11318048
15	0x3e18f02c	0.14935368
16	0x3c700647	0.014649934
17	0xbe1d732f	-0.1537597
18	0xbdb42e0b	-0.087978445
19	0x3b8ab8b3	0.0042334436
20	0x3e5b8ab3	0.21439628
21	0xbde31ef0	-0.11089885
22	0x3d47084f	0.048591908
23	0x3dc8eada	0.098104194
24	0x3d952455	0.072823204
25	0xbd99f2dd	-0.075170256
26	0xbe870377	-0.2636983
27	0x3dba1e7b	0.09087845
28	0x3cc0a5cb	0.023516556
29	0xbe6e6caf	-0.23283647
30	0x3ddb74b6	0.1071562
31	0xbd8898a9	-0.066697426
32	0xbdc94095	-0.09826771
33	0xbdc98473	-0.09839716
34	0x3d8e3b32	0.06944884
35	0x3e857551	0.26066068
36	0x3e0dfe83	0.1386662
37	0x3d03142f	0.03200167
38	0xbe26d0d5	-0.162906
39	0x3e7517bf	0.2393484
40	0x3d98dc01	0.074638374
41	0xbd21d845	-0.03951289
42	0x3c94d4dd	0.018167907
43	0x3e1dc76c	0.15408105
44	0x3e4a9e42	0.19786933
45	0x3e105cdf	0.14097928
46	0x3d1314a3	0.035908353
47	0xbddfa453	-0.10920014
48	0x3e8d7e87	0.27635595
49	0x3dde8f74	0.10867205
50	0xbcb71102	-0.022346977
51	0x3ce52376	0.02797101
52	0x3e1e0b25	0.15433939
53	0x3e34fb1b	0.17673914
54	0xbb606f49	-0.0034246019
55	0x3ca5018e	0.020142343
56	0x3e085587	0.13313876
57	0x3cb230da	0.02175181
58	0x3e0c9938	0.13730323
59	0x3dc9d15b	0.098543845
60	0x3dfc20ba	0.123109296
61	0x3c036430	0.008019492
62	0xbe3da8c1	-0.18521406
63	0x3dfd62e5	0.12372378
64	0xbd037f5f	-0.032103892
65	0xbe85fb10	-0.26168108
66	0x3e20827d	0.15674777
67	0xbd23d6c7	-0.03999975
68	0xbdcc1710	-0.09965336
69	0xbd05182a	-0.032493748
70	0x3e14c146	0.14526853
71	0x3e953cb2	0.2914787
72	0xbdadb8a4	-0.08482483
73	0xbba84ec3	-0.0051363423
74	0x3e6d5156	0.23175558
75	0xbe015d3e	-0.12633225
76	0x3d8d2669	0.06892092
77	0x3d9bab9d	0.07601092
78	0x3d42df21	0.047576074
79	0xbe0071f2	-0.12543467
80	0xbe868534	-0.262735
81	0xbdb9c5aa	-0.090709046
82	0xbc973b1e	-0.018460806
83	0xbcb4fd22	-0.02209336
84	0xbe71d538	-0.23616493
85	0xbdfbe004	-0.12298587
86	0xbd34b1ea	-0.044114985
87	0xbe084b05	-0.13309868
88	0xbe0a36ef	-0.13497518
89	0x3c8ce8ca	0.017200846
90	0x3cc13b55	0.023587862
91	0x3c2afa4d	0.010435653
92	0xbe2876a2	-0.16451505
93	0x3ce44061	0.02786273
94	0xbdd8dce5	-0.10589007
95	0xbddc41de	-0.10754751
96	0xbe0f5e3a	-0.14000788
97	0x3d501039	0.05079672
98	0x3e5dd03b	0.21661465
99	0xbd950de8	-0.07278043
100	0xbd09a49c	-0.03360425
101	0xbd9ce654	-0.07661119
102	0xbe0c76fb	-0.13717262
103	0xbe1e6052	-0.15466431
104	0xbd9447d5	-0.072402634
105	0xbe17e2cd	-0.14832611
106	0xbdbfc56e	-0.093638286
107	0x3ded4d8e	0.11587058
108	0x3e16876f	0.14700101
109	0x3c17400f	0.009231581
110	0xbe54a6ba	-0.20766726
111	0x3e6159af	0.22006868
112	0x3d35d1b7	0.044389453
113	0xbda4a14c	-0.080385774
114	0x3c899007	0.01679231
115	0x3e2c2fa7	0.16815053
116	0x3e583c58	0.2111677
117	0xbddc1139	-0.107454725
118	0xbce81366	-0.028329562
119	0x3e66effa	0.22552481
120	0xbe3aab5c	-0.18229431
121	0xbb0cf6da	-0.002150944
122	0x3d424f63	0.04743899
123	0x3cc8b05b	0.024498155
124	0xbe3d52aa	-0.18488565
125	0xbe7e2753	-0.24819688
126	0xbe0ba04d	-0.13635369
127	0xbcd085b0	-0.025454372
128	0x3dbe2af5	0.09285537
129	0xbe8513c2	-0.25991637
130	0xbdd12165	-0.102114476
131	0x3d28b493	0.041187834
132	0xbd9ba61d	-0.07600043
133	0xbe2f012d	-0.17090292
134	0xbddf309b	-0.10897943
135	0x3e0a85d5	0.13527615
136	0x3c46e4c6	0.012139505
137	0xbe7931e7	-0.24335442
138	0x3e19cf39	0.15020455
139	0xbd6a2b23	-0.057170045
140	0xbda0e9ae	-0.07857071
141	0xbd82d952	-0.06389107
142	0x3db95ffb	0.0905151
143	0x3e8acee6	0.27110976
144	0x3cec99f9	0.028882014
145	0x3cfdd5e5	0.030985782
146	0x3e12986e	0.1431596
147	0x39b08173	0.00033665783
148	0x3df4bc06	0.11949925
149	0x3dd25e13	0.102718495
150	0x3e1131cf	0.14179157
151	0xbbdc72f2	-0.0067275697
152	0xbe5896a7	-0.2115122
153	0x3dd81064	0.10550001
154	0xbc6689a4	-0.014070902
155	0xbe576fdf	-0.21038769
156	0x3e16be39	0.14721002
157	0xbd5cfa20	-0.053949475
158	0xbdebabbd	-0.11507366
159	0xbdd91630	-0.10599935
160	0x3de3b3d1	0.11118282
161	0x3e7edb83	0.24888425
162	0x3e0de4ef	0.13856862
163	0x3c7a3038	0.015270285
164	0xbe59fb19	-0.21287192
165	0x3e3bf13e	0.18353745
166	0xbcc02a3d	-0.02345764
167	0xbda33930	-0.07969892
168	0x3aac05ec	0.0013124323
169	0x3e06f8bc	0.13180822
170	0x3e6f0bf1	0.23344399
171	0xbcdf9b72	-0.027295802
172	0x3c7d50c5	0.0154611515
173	0x3e0be7f8	0.13662708
174	0x3c2e60b3	0.010643172
175	0x3de8a71c	0.113599986
176	0x3e05da03	0.13071446
177	0x3dfe1deb	0.1240805
178	0xbc37128c	-0.0111738555
179	0xbe514883	-0.20437817
180	0x3e043cbe	0.12913796
181	0x3d198d9c	0.037488565
182	0xbe2a61dd	-0.16638894
183	0x3e72c4ea	0.23707929
184	0x3dd1af1c	0.102384776
185	0xbd257c81	-0.04040194
186	0x3d0f0819	0.034919832
187	0x3e1ce061	0.15319969
188	0x3e216393	0.15760641
189	0x3c704d51	0.014666871
190	0xbcb60e42	-0.022223596
191	0xbdddc17b	-0.10827919
192	0xbb93ab33	-0.0045064925
193	0xbe2e1e56	-0.1700376
194	0xbddc2810	-0.10749829
195	0xbe24fc19	-0.16111793
196	0xbcb3902e	-0.021919336
197	0x3e564689	0.20925345
198	0xbdc57146	-0.09640746
199	0x3b85e8d8	0.004086595
200	0xbe82680a	-0.2547
201	0xbd9ea099	-0.07745475
202	0x3db5e89b	0.088822566
203	0xbe0ea25c	-0.13929123
204	0xbe4274c6	-0.18989858
205	0xbde3d64b	-0.111248575
206	0x3cb74b9a	0.022374917
207	0x3ce80377	0.028321965
208	0x3d88d896	0.066819355
209	0x3e5ce9b3	0.21573524
210	0xbdd955ce	-0.10612069
211	0xbd8c2c56	-0.06844394
212	0x3dd5d71b	0.10441419
213	0xbbbb1200	-0.005708933
214	0xbcbffffc	-0.023437493
215	0xbd6a33dd	-0.057178367
216	0x3ddbede2	0.10738732
217	0x3e48da8c	0.19614619
218	0x3e8d25a7	0.2756779
219	0x3bef6271	0.0073054363
220	0xbe4f595e	-0.20248935
221	0x3e5044c6	0.20338735
222	0x3d52e83f	0.05149102
223	0xbe055ada	-0.13022938
224	0xbe351492	-0.17683628
225	0x3e1f834c	0.1557743
226	0x3d8a4643	0.067516826
227	0xbd870290	-0.06592286
228	0xbc3e5c65	-0.011618708
229	0x3db73159	0.08944959
230	0xbde75625	-0.11295728
231	0xbda8bd3f	-0.08239221
232	0x3d01f6ae	0.031729393
233	0xbdb3ff59	-0.08788938
234	0x3c16b13d	0.00919753
235	0x3d2781c4	0.04089524
236	0xbb041f03	-0.0020160086
237	0x3dbd35b3	0.09238758
238	0x3e01df07	0.12682734
239	0x3cff0c44	0.031133778
240	0x3e2bea06	0.16788492
241	0x3c9ac5d2	0.018893156
242	0xbd7e2200	-0.062044144
243	0xbc1491eb	-0.009067993
244	0x3cd6f293	0.026238715
245	0x3b191425	0.0023357954
246	0xbc1c215d	-0.009529439
247	0xbdba4439	-0.09095044
248	0xbe0572db	-0.13032095
249	0x3d9a9c73	0.075493716
250	0x3dbd2017	0.09234636
251	0xbc4f54f3	-0.012654531
252	0x3dcc7350	0.099829316
253	0x3e2138f9	0.1574439
254	0xbd19701f	-0.037460443
255	0xbcf69ecb	-0.030105015

encoder_layers.block_0.transition.bias f4 [11]
0	0xbe2182d7	-0.15772568
1	0x3c211762	0.009832235
2	0x3cebe943	0.028797751
3	0xbb3f4c11	-0.0029189626
4	0xbd4bc1cc	-0.049745366
5	0x3c37fc7b	0.01122963
6	0x3d3c8074	0.04602094
7	0x3db4731f	0.0881102
8	0x3cbb92f2	0.022897217
9	0xbba6294b	-0.0050708405
10	0x3d3385a4	0.04382862

encoder_layers.block_0.transition_deep.weight f4 [11, 11, 3, 3]
0	0x3da5baa4	0.080922395
1	0xbd3ad6dd	-0.045615066
2	0xbd8e4d8f	-0.06948387
3	0x3d1d23d0	0.03836423
4	0x3ca40142	0.020020131
5	0x3d39b2f1	0.045336667
6	0xbd69da58	-0.057092994
7	0x3c58622d	0.013207001
8	0x3db2db52	0.08733238
9	0x3d2b1e6c	0.04177706
10	0x3dd0911b	0.10183927
11	0xbd1a8008	-0.037719756
12	0x3c070488	0.008240826
13	0x3e7eef23	0.24895911
14	0x3e3129c5	0.1730109
15	0xbcd760d5	-0.02629129
16	0x3cfe6cd7	0.031057758
17	0xbde7da7a	-0.11320968
18	0xbcfb113c	-0.030647866
19	0x3d31be10	0.04339415
20	0xbd575083	-0.052567016
21	0xbd67544f	-0.056476887
22	0xbd4df8ac	-0.05028598
23	0x3c97b01c	0.018516593
24	0xbe02084f	-0.12698482
25	0xbdba3fe7	-0.0909422
26	0xbd7a102f	-0.06105059
27	0x3d3b8dcf	0.045789536
28	0x3e665ab5	0.2249554
29	0xbd57d43f	-0.052692648
30	0x3d8a1add	0.06743405
31	0x3e80526c	0.25062883
32	0x3e2269e4	0.15860707
33	0x3d8a751d	0.06760619
34	0x3e5fd9ad	0.2186038
35	0x3e07ba5e	0.13254687
36	0x3e165f8f	0.1468489
37	0x3dd2eb5f	0.102988
38	0x3e62dd82	0.22154811
39	0xbd448fe4	-0.047988787
40	0xbdadce37	-0.08486598
41	0xbe930603	-0.28715524
42	0xbe233213	-0.1593707
43	0x3e63c5e9	0.22243465
44	0xbcd8e874	-0.02647803
45	0x3e1091ad	0.14118071
46	0x3e5ed2c4	0.21760088
47	0x3de0d9ee	0.10979067
48	0x3e07a9a8	0.13248312
49	0x3e6a0398	0.22852933
50	0x3e466506	0.19374475
51	0x3d958f46	0.07302718
52	0x3e2cbf9a	0.16869965
53	0x3df4ef63	0.11959722
54	0xbba486ae	-0.005020938
55	0x3dd6ea03	0.10493853
56	0xbd9d21dc	-0.07672474
57	0xbb9949c7	-0.0046779844
58	0x3da6ab9c	0.08138201
59	0xbaf81eb3	-0.0018930048
60	0xbd15f478	-0.036610097
61	0x3bb095a5	0.005388933
62	0xbba21bd6	-0.004947166
63	0x3c66d99d	0.014089969
64	0x3d03c465	0.03216972
65	0x3dca2b24	0.0987151
66	0x3d47e7ee	0.04880517
67	0x3e21e106	0.15808496
68	0x3dc96aa0	0.0983479
69	0x3df2b4b7	0.11850875
70	0x3dede3f9	0.11615748
71	0x3dbf30c5	0.09335474
72	0xbde7f12f	-0.11325299
73	0x3e35aa56	0.17740759
74	0xbc9a6db1	-0.018851133
75	0xbe19154a	-0.14949527
76	0xbe273976	-0.16330513
77	0xbcde350f	-0.02712491
78	0x3dbdbe61	0.092648275
79	0xbd2af13b	-0.04173396
80	0x3e4eeabe	0.20206735
81	0xbca4a8a4	-0.020099945
82	0x3d06b9b7	0.032891955
83	0x3dca19a6	0.09868173
84	0xbc6b8c1b	-0.014376665
85	0x3cf08aeb	0.029363116
86	0xbd9e1621	-0.077190645
87	0x3d8cb4fe	0.06870459
88	0xbcbd7ac9	-0.023129838
89	0x3cfbbb5d	0.03072899
90	0x3d3cb85b	0.046074253
91	0x3d001a3b	0.031275015
92	0x3dc064ef	0.093942516
93	0x3cc1e3fd	0.023668284
94	0x3dc26754	0.094923645
95	0xbd16576f	-0.036704477
96	0xbbcd64a1	-0.0062680994
97	0x3d982fc4	0.074309856
98	0xbd424c1d	-0.04743587
99	0x3beacf1f	0.007165804
100	0x3d67aa2b	0.05655877
101	0x3d1dbc88	0.038509876
102	0x3e4a59ae	0.19760773
103	0x3dddd5e8	0.10831815
104	0xbd25773e	-0.04039692
105	0xba8798fc	-0.0010345276
106	0x3e37b65e	0.17940661
107	0xbbca758f	-0.006178565
108	0x3d885f9a	0.066588596
109	0x3d92eb04	0.07173732
110	0xbbfeb701	-0.0077732806
111	0x3d7c32af	0.061571773
112	0x3d25af4d	0.040450383
113	0xbdf0fcf1	-0.11766995
114	0xbc17591a	-0.009237552
115	0x3dfe391c	0.124132365
116	0xbe13e7e8	-0.14443934
117	0x3d8ac8b8	0.06776565
118	0x3e317f3c	0.17333692
119	0x3d5cab6a	0.05387441
120	0x3e3311ca	0.17487255
121	0x3e557667	0.20845948
122	0x3e1310a8	0.14361823
123	0xbcb798ba	-0.022411693
124	0x3e273727	0.16329633
125	0x3d4e0522	0.050297864
126	0x3e0dc7c1	0.13845731
127	0x3d814e90	0.06313813
128	0x3e24718e	0.16058943
129	0x3d91d280	0.07120228
130	0x3cbf1d11	0.02332929
131	0x3e0641cf	0.13111041
132	0xbd1c6179	-0.038178895
133	0xbab8d9d7	-0.0014103007
134	0xbd64f462	-0.055897124
135	0xbbc8f2f3	-0.0061324774
136	0x3d365d23	0.044522416
137	0xbdab0f42	-0.083525196
138	0xbd78e2e9	-0.060763273
139	0x3e63b514	0.22237045
140	0xbe773ebf	-0.2414503
141	0x3d8c7ba1	0.06859518
142	0x3e13f195	0.14447625
143	0x3df0cd5e	0.11757921
144	0x3d5ee35e	0.054416053
145	0x3cc3e226	0.023911547
146	0x3d9b316f	0.07577788
147	0x3d2f8e4d	0.042860318
148	0xbd59cbd4	-0.0531729
149	0x3d2404ed	0.04004376
150	0x3d9ca33b	0.07648321
151	0x3e3fe00c	0.18737811
152	0x3dda50e6	0.106599614
153	0x3cb34319	0.02188258
154	0x3e2c5ab9	0.16831483
155	0xbccf553e	-0.025309201
156	0xbda21a5a	-0.079151824
157	0x3e0d85e4	0.13820606
158	0x3daa59ca	0.08317907
159	0xbc1acd48	-0.009448357
160	0x3e32634c	0.17420691
161	0x3d052143	0.032502424
162	0xba5f49a4	-0.0008517748
163	0xbc2f098a	-0.010683427
164	0xbdf8fd1f	-0.12157654
165	0xbd59355e	-0.05302941
166	0x3d71e771	0.05905861
167	0xbd970ceb	-0.07375511
168	0xbd435e8f	-0.0476976
169	0x3da30d91	0.07961572
170	0xbda19118	-0.078890026
171	0xbdac1dcd	-0.084041215
172	0x3dd2ac59	0.10286779
173	0x3d98017f	0.0742216
174	0xbda31342	-0.079626575
175	0x3e220183	0.15820889
176	0xbe081b7d	-0.13291736
177	0x3d9caf57	0.07650631
178	0xbd896a8f	-0.067097776
179	0xbcdbec76	-0.026846152
180	0xbdb8bd96	-0.09020536
181	0xbe2f4e96	-0.17119822
182	0xbe7f4209	-0.24927534
183	0x3e097cd0	0.13426518
184	0x3d7ebc58	0.062191337
185	0xbe2af7cf	-0.16696094
186	0x3d9b86ac	0.07594046
187	0xbe1313b7	-0.1436299
188	0xbe1ee268	-0.15516055
189	0xbd4f037c	-0.050540432
190	0xbd8ca0dc	-0.06866619
191	0xbe69ba9e	-0.22825095
192	0xbd25bb11	-0.040461604
193	0x3d5a1df3	0.053251218
194	0x3db9cc63	0.09072187
195	0xbe3675dc	-0.17818397
196	0xbe536e1e	-0.20647475
197	0xbe80ede3	-0.25181493
198	0x3eb7c066	0.35888976
199	0xbd050e77	-0.032484498
200	0xbe17a027	-0.14807187
201	0xbc9ab299	-0.01888399
202	0x3e1dd9b1	0.15415074
203	0x3e597611	0.21236445
204	0x3d393216	0.04521378
205	0x3dba9ee6	0.09112339
206	0x3d9aa0c9	0.075501986
207	0x3e1c2f05	0.15252312
208	0x3de80711	0.11329473
209	0x3d58b8c1	0.05291057
210	0xbd99a14e	-0.075014696
211	0xbdf43729	-0.119245835
212	0x3b1954d3	0.0023396506
213	0x3d462464	0.04837455
214	0x3d26c5d7	0.04071602
215	0xbcaf873d	-0.021426791
216	0x3dccf2b6	0.10007231
217	0x3dd13477	0.10215085
218	0x3cd2a77b	0.025714627
219	0x3e263474	0.16230947
220	0x3dbf233a	0.09332891
221	0x3dde29f2	0.10847844
222	0xba315a03	-0.0006765427
223	0x3dae9a81	0.08525563
224	0xbc0e3cf8	-0.008681528
225	0x3e5d9af9	0.21641149
226	0x3c95be13	0.018279111
227	0x3e1e2d07	0.15446864
228	0x3dc4e48d	0.09613905
229	0x3d36a6f6	0.04459282
230	0x3daa3b54	0.08312097
231	0x3e23f800	0.16012573
232	0x3e01782d	0.126435
233	0x3e02f8d5	0.12790234
234	0xbd0e4e67	-0.03474274
235	0x3cc8f1a7	0.024529291
236	0xbd0aa614	-0.03384979
237	0x3e56cbc4	0.20976168
238	0x3e4d7cb0	0.20067096
239	0x3e9d47b5	0.3071877
240	0x3cc6afcf	0.024253754
241	0xbd8aaee0	-0.06771636
242	0xbe5d4950	-0.21609998
243	0x3c8de085	0.017318973
244	0x3d5885ea	0.052862085
245	0x3d0ea572	0.03482575
246	0xbc8f7724	-0.017512865
247	0x3e24279d	0.16030736
248	0x3d48aa76	0.04899069
249	0x3e244add	0.16044183
250	0x3de89d9b	0.11358186
251	0x3df17bbb	0.11791178
252	0x3de7ae2e	0.11312519
253	0xbc297c42	-0.010344567
254	0x3d37428d	0.044741202
255	0x3c6f5e5e	0.014609901

encoder_layers.block_0.transition_deep.bias f4 [11]
0	0xbcfb2f69	-0.030662255
1	0x3e8b486b	0.27203688
2	0x3db7ecc9	0.0898071
3	0xbd43a931	-0.047768775
4	0x3d942b0f	0.07234775
5	0x3e1e3240	0.15448856
6	0xbdcbd6f5	-0.09953109
7	0x3d0fa3d8	0.035068363
8	0x3e881f1a	0.2658623
9	0x3da64836	0.08119242
10	0x3af67567	0.0018803299

encoder_layers.block_0.conv.weight f4 [88, 11, 1, 1]
0	0xbe204aa9	-0.1565348
1	0x3d261599	0.04054794
2	0xbcb727b7	-0.022357805
3	0x3e055aab	0.13022868
4	0x3e3a519d	0.18195195
5	0x3e294efb	0.16534035
6	0xbc58bf01	-0.013229133
7	0xbe830443	-0.2558919
8	0x3dd46dfa	0.10372539
9	0xbc9469e0	-0.018116891
10	0xbe5d32a7	-0.21601354
11	0x3e1d23aa	0.15345636
12	0xbd6d5130	-0.057938755
13	0x3d7530a5	0.059860844
14	0xbe0aa186	-0.13538179
15	0xbcdc5c5a	-0.026899505
16	0x3d9df813	0.07713332
17	0x39f36557	0.00046424076
18	0xbdfcbbff	-0.12340545
19	0xbe331493	-0.17488317
20	0x3b5ea1f1	0.0033971036
21	0xbd9ccc03	-0.076561
22	0x3e2c12bf	0.16804026
23	0xbdb3bc02	-0.08776094
24	0xbee7a247	-0.45240995
25	0xbdaf329b	-0.08554574
26	0xbe3195b9	-0.17342271
27	0xbe5e85a4	-0.21730667
28	0x3dea41a5	0.11438302
29	0xbd24beac	-0.0402209
30	0x3df5243b	0.11969801
31	0x3e45754c	0.19283026
32	0xbc6f97ad	-0.014623565
33	0x3d207cc0	0.03918147
34	0x3d798a87	0.060923126
35	0x3e31011b	0.17285578
36	0x3df32018	0.11871356
37	0x3c89f99f	0.016842661
38	0x3db5fead	0.08886466
39	0x3e588085	0.21142776
40	0xbe876d91	-0.2645078
41	0xbe6ee740	-0.23330402
42	0x3de2f876	0.110825464
43	0xbde13de7	-0.10998135
44	0x3df0fb15	0.1176664
45	0xbebdbbf4	-0.3705746
46	0x3d12e68b	0.035864394
47	0x3dd014ee	0.10160242
48	0xbe844228	-0.25831723
49	0xbee4d17a	-0.44691068
50	0x3e7f30b5	0.24920924
51	0xbe8cd308	-0.27504754
52	0x3d9a55e7	0.07535916
53	0x3e8f63af	0.2800574
54	0xbda4700e	-0.08029185
55	0xbe18a695	-0.14907296
56	0x3da3fc1f	0.08007073
57	0x3ed814b9	0.4220331
58	0xbc4f0634	-0.012635756
59	0x3e3b727e	0.18305394
60	0x3e26d765	0.16293104
61	0xbe2f551f	-0.17122315
62	0x3e0c3008	0.13690197
63	0xbea719e2	-0.32636935
64	0xbe9429a8	-0.2893803
65	0x3d946267	0.07245331
66	0xbe87198c	-0.26386678
67	0xbe059469	-0.13044895
68	0x3d6d5657	0.05794367
69	0x3e225e3b	0.15856259
70	0xbc9a69bf	-0.018849252
71	0xbdffdeae	-0.12493645
72	0xbdc0fb84	-0.09422973
73	0x3c45a993	0.012064355
74	0xbde993a6	-0.11405115
75	0x3c8379e0	0.016049325
76	0xbe5261c0	-0.20545101
77	0xbee85b31	-0.45382074
78	0xbdfdfb78	-0.124014795
79	0xbd57e7dc	-0.052711353
80	0x3edc42eb	0.43019804
81	0xbc8809f5	-0.01660631
82	0x3ce1e8ca	0.027576823
83	0x3e222d06	0.15837488
84	0xbe925775	-0.2858235
85	0xbdf6aa6b	-0.120442234
86	0xbc8107a0	-0.015750706
87	0xbde5de7d	-0.11224077
88	0x3e3c8a3a	0.18412104
89	0xbe10be87	-0.1413518
90	0xbcfb2ba9	-0.030660467
91	0xbdf4ec69	-0.11959154
92	0x3dd1f33d	0.10251472
93	0x3e6b0db8	0.22954452
94	0x3e9a0ef0	0.3008952
95	0x3d0805cf	0.033208665
96	0xbe4b26c1	-0.19839002
97	0xbdde21e8	-0.10846311
98	0x3e129967	0.14316331
99	0xbeb94db7	-0.36192104
100	0xbcb1d6f2	-0.02170894
101	0x3df63dc7	0.12023502
102	0x3e3628ce	0.17789003
103	0x3e2dff26	0.16991863
104	0xbc33d869	-0.010976889
105	0x3d488343	0.048953306
106	0xbe13ff4e	-0.1445286
107	0xbdc5acda	-0.096521094
108	0xbc08baac	-0.008345287
109	0xbecb8519	-0.39749983
110	0x3ea39c5a	0.31955224
111	0xbd524020	-0.051330686
112	0xbdd7d01c	-0.105377406
113	0xbda39377	-0.07987111
114	0x3ac5a918	0.0015080301
115	0x3df07a9b	0.11742135
116	0x3ecc032b	0.39846167
117	0xbd12726c	-0.035753652
118	0xbe8e1d6b	-0.2775682
119	0xbcbd1b1a	-0.023084212
120	0x3dd703b1	0.10498751
121	0xbde04b6c	-0.109518856
122	0x3df77ad9	0.12083978
123	0x3ce6f9ef	0.02819535
124	0x3e2c2fe0	0.16815138
125	0x3d653825	0.055961747
126	0x3e6bfabf	0.23044871
127	0x3dc792d7	0.09744804
128	0xbd9203a4	-0.07129601
129	0x3e387f2f	0.18017267
130	0xbdffc32b	-0.12488397
131	0x3c877bac	0.016538464
132	0xbe877daa	-0.26463062
133	0x3e5e1f8c	0.21691722
134	0xbd904d7d	-0.0704603
135	0x3e11fe50	0.14257169
136	0xbca48864	-0.020084567
137	0x3d89ec8f	0.06734573
138	0x3d2adaf2	0.04171271
139	0xbddf7f65	-0.109129705
140	0xbe000986	-0.12503633
141	0xbe83e4ed	-0.25760594
142	0xbde3d740	-0.1112504
143	0xbe1c5723	-0.15267615
144	0xbdb164ae	-0.08661781
145	0xbe21e648	-0.15810502
146	0xbda5bfe2	-0.08093239
147	0xbcbb16fd	-0.02283811
148	0xbc54c778	-0.01298701
149	0x3bc61e1b	0.0060460693
150	0xbd9b0dd6	-0.07570998
151	0x3bf59275	0.0074942657
152	0x3d8164cd	0.06318054
153	0xbbb92cdc	-0.0056510996
154	0xbd30a584	-0.043126598
155	0x3e49569a	0.19661942
156	0xbeab8955	-0.33503214
157	0xbe52fd57	-0.20604454
158	0xbf421773	-0.7581703
159	0x3c24dd6b	0.010062556
160	0xbe43ebd7	-0.19132935
161	0xbdf47357	-0.11936062
162	0xbde52b29	-0.11189873
163	0x3e456c56	0.19279608
164	0xbe711896	-0.23544535
165	0x3e830834	0.25592196
166	0x3db1ffcf	0.0869137
167	0x3d5efb4b	0.05443887
168	0xbde0649a	-0.10956688
169	0x3c84b190	0.01619795
170	0xbe2b6cd8	-0.1674074
171	0x3db47f8b	0.088133894
172	0x3d78b5ce	0.060720257
173	0xbddefff5	-0.10888664
174	0xbd0b9f89	-0.03408769
175	0xbe548f61	-0.2075782
176	0xbe47af17	-0.19500385
177	0x3f10a511	0.5650187
178	0x3e1c44b8	0.15260589
179	0x3e0526ce	0.13003084
180	0x3e0969ee	0.13419315
181	0x3c83334b	0.01601567
182	0xbcfc122a	-0.03077038
183	0x3dcc139e	0.09964679
184	0x3e38f813	0.18063383
185	0xbe265bec	-0.16246003
186	0xbd661d07	-0.056180026
187	0x3e04f7f7	0.12985216
188	0x3d14b05b	0.036301
189	0x3e212a2c	0.15738744
190	0xbdd3248c	-0.10309705
191	0x3e2a1166	0.166082
192	0x3ea06387	0.31325933
193	0xbdf45f5a	-0.11932249
194	0xbe61d80e	-0.22055075
195	0xbe823f4d	-0.2543892
196	0xbdd5a9ae	-0.104327545
197	0xbe62ff6d	-0.2216775
198	0x3dd84181	0.10559369
199	0x3dcbc8ff	0.09950446
200	0xbd7496d4	-0.059714153
201	0x3e38c603	0.18044285
202	0xbe271838	-0.16317832
203	0xbe3894b6	-0.18025479
204	0xbe80a356	-0.25124615
205	0x3e7999e0	0.24375105
206	0x3cfb3284	0.030663736
207	0xbcf3a584	-0.02974201
208	0x3f11f0d0	0.57008076
209	0xbd8b4707	-0.06800657
210	0x3d8a6ffc	0.067596406
211	0x3d638700	0.055548668
212	0xbdd1389b	-0.10215875
213	0x3e0e6cba	0.13908663
214	0x3d138bca	0.036021985
215	0x3d19197c	0.03737782
216	0xbe7e3160	-0.24823523
217	0xbe82e1f8	-0.25563025
218	0x3cc7d81c	0.024395041
219	0x3d44c137	0.048035827
220	0x3da2bc13	0.079460286
221	0xbdef693b	-0.11689993
222	0x3e2c9436	0.16853413
223	0x3e13b2b8	0.14423645
224	0x3de48794	0.11158672
225	0xbdb4e828	-0.08833343
226	0xbcb781d7	-0.02240078
227	0x3d2e2035	0.042511184
228	0xbe94d811	-0.29071096
229	0xbdf42b4e	-0.11922322
230	0x3d114f3f	0.035475966
231	0x3e3bb5c4	0.18331057
232	0x3dca6dfc	0.09884259
233	0x3d740af0	0.059580743
234	0xbc99d4cd	-0.01877823
235	0x3bbe1d05	0.0058017992
236	0x3df1a75f	0.11799502
237	0x3d0d5eb5	0.034514148
238	0xbe099035	-0.13433917
239	0x3d7bec35	0.06150456
240	0xba6e2184	-0.0009083974
241	0x3eb6065a	0.3555172
242	0x3d95095b	0.07277175
243	0xbe2e4b00	-0.17020798
244	0xbe4ea282	-0.2017918
245	0xbe7cf34b	-0.24702184
246	0xbe3d38b0	-0.18478656
247	0xbdcb6750	-0.09931815
248	0x3c115356	0.0088699665
249	0x3e03183a	0.1280221
250	0x3ea3f3df	0.32021996
251	0x3dc35b7b	0.09538933
252	0x3ec5fce2	0.38669497
253	0xbd279aad	-0.040918995
254	0xbc780aef	-0.0151393255
255	0xbdf9bae7	-0.12193852

encoder_layers.block_0.conv.bias f4 [88]
0	0x3d796758	0.060889572
1	0x3d84aa50	0.06477797
2	0xbe54aca3	-0.2076898
3	0x3dba9ac4	0.091115505
4	0x3e3f657b	0.18691055
5	0xbcb79555	-0.022410074
6	0x3c317ac9	0.010832497
7	0xbef31dcb	-0.47483668
8	0xbe34e9d5	-0.17667325
9	0xbdde6734	-0.10859528
10	0xbe790f15	-0.2432216
11	0xbe213499	-0.1574272
12	0x3de8736d	0.11350141
13	0xbd608dd9	-0.054822776
14	0x3e7262d8	0.23670518
15	0xbe6584d9	-0.22413959
16	0xbe760af8	-0.24027622
17	0xbe4dbda7	-0.20091878
18	0x3d501e6b	0.05081026
19	0xbca1f80d	-0.0197716
20	0xbf0f1108	-0.5588536
21	0x3da6827a	0.08130355
22	0x3ee9f519	0.45694807
23	0x3da68c6e	0.081322536
24	0xbd028a3a	-0.031870104
25	0x3f2c9e06	0.67428625
26	0x3f3f0d5f	0.7462978
27	0x3d3e9bfc	0.046535477
28	0xbe8f86b5	-0.2803246
29	0x3de3fc7f	0.11132144
30	0x3c7b738d	0.015347374
31	0xbc8f70ed	-0.017509902
32	0xbd9d116e	-0.0766934
33	0xbd8acc0a	-0.067771986
34	0x3e19496d	0.14969416
35	0x3e4d0c46	0.20024213
36	0xbdd9255c	-0.10602829
37	0x3cd00ce6	0.025396775
38	0xbe2eb283	-0.17060284
39	0x3e48efc7	0.19622718
40	0x3ec57261	0.38563827
41	0x3e23b2ad	0.15986128
42	0xbdb7c6d5	-0.08973471
43	0x3e602a98	0.21891248
44	0x3e40d38f	0.18830703
45	0xbe14a0c8	-0.14514458
46	0xbd76dc11	-0.060268465
47	0xbd55fe70	-0.052244604
48	0xbe5599bc	-0.20859426
49	0x3e8bed0b	0.27329287
50	0x3bf9f754	0.0076283608
51	0x3e65214c	0.22375983
52	0x3e75ce44	0.24004465
53	0xbe5f84cc	-0.21828002
54	0xbe74984e	-0.23886225
55	0xbd688eb0	-0.056776702
56	0xbe533062	-0.20623925
57	0xbe2b1ac3	-0.16709428
58	0xbdbe205f	-0.09283518
59	0xbda0c788	-0.078505576
60	0xbe44749b	-0.19185106
61	0xbcb940c0	-0.022613883
62	0xbd68b4e7	-0.056813147
63	0xbd913bea	-0.07091506
64	0xbe0cd4b6	-0.13753018
65	0xbeadadf6	-0.33921784
66	0x3dd356bd	0.103192784
67	0xbd6bed08	-0.057599097
68	0xbdeadb61	-0.114676245
69	0x3b78480b	0.0037884738
70	0xbe31d18b	-0.1736509
71	0x3d53fcd3	0.051754784
72	0xbd7eede7	-0.0622386
73	0xbf07163b	-0.52768296
74	0x3defe342	0.11713268
75	0xbcb0373e	-0.021510717
76	0x3e2fb682	0.17159465
77	0xbccd190d	-0.02503636
78	0xbe1ce451	-0.15321471
79	0x3ee6dd8b	0.450909
80	0x3cd40712	0.025882278
81	0xbe0bcc81	-0.13652231
82	0x3dc9dce7	0.09856587
83	0xbf357b6b	-0.70891446
84	0xbda5d67e	-0.08097552
85	0xbea2bbaf	-0.31783816
86	0xbf133882	-0.575081
87	0x3dc3ca1c	0.09560034

encoder_layers.block_1.transition.weight f4 [11, 44, 3, 3]
0	0xbe00c0e9	-0.1257359
1	0xbe18729d	-0.14887471
2	0xbdd1760e	-0.10227595
3	0xbe651841	-0.22372533
4	0xbeb50467	-0.3535492
5	0xbde391a2	-0.11111762
6	0xbdbe8318	-0.09302348
7	0xbe1cec61	-0.15324546
8	0xbdd2c13c	-0.10290763
9	0xbd86705c	-0.065643996
10	0x3cb3bd35	0.021940807
11	0xbad74fc9	-0.0016426976
12	0x3c9f2289	0.019425647
13	0x3da3b5c3	0.07993653
14	0xbd15181c	-0.036399946
15	0xbdb27912	-0.087144986
16	0xbd7d9ead	-0.061918903
17	0xbd6a3431	-0.05717868
18	0x3c67b5ee	0.0141424965
19	0x3cc922bc	0.024552695
20	0xbcce083a	-0.025150407
21	0x3c9caced	0.019125426
22	0x3d334553	0.043767285
23	0x3cf36954	0.02971331
24	0x3d246c6e	0.04014247
25	0xbb9eb1c0	-0.004842967
26	0xbd0c5e5a	-0.03426967
27	0x3c4180e2	0.011810513
28	0x3b14e95e	0.0022722105
29	0x3df4a901	0.119462974
30	0xbda23a03	-0.07921221
31	0x3daedf67	0.08538704
32	0x3d16a105	0.036774654
33	0xbdbaaa3d	-0.091145016
34	0xbd75374c	-0.05986719
35	0xbaeb6fa3	-0.0017962347
36	0xbd9ddf60	-0.07708621
37	0xbd9f4b32	-0.07778014
38	0xbd824817	-0.06361406
39	0xbe0b4b46	-0.13602933
40	0xbe2d1eeb	-0.16906326
41	0xbe29d4d1	-0.1658509
42	0xbdb60779	-0.08888144
43	0xbe2e2d47	-0.1700946
44	0xbe07b45c	-0.13252395
45	0x3d643bd5	0.055721123
46	0x3d167e36	0.036741458
47	0x3c499373	0.012303221
48	0x3e04a788	0.12954533
49	0x3da4790e	0.08030902
50	0x3dc214fc	0.09476659
51	0x3e0b96ac	0.13631696
52	0x3e196ef3	0.1498373
53	0x3e01e4b1	0.12684895
54	0xbc792047	-0.015205449
55	0xbc85bc02	-0.016325
56	0xbce22795	-0.027606765
57	0xbcb69d21	-0.022291722
58	0x3db47478	0.08811277
59	0xba7cd82c	-0.0009645249
60	0xbd213df6	-0.03936573
61	0x3caf4014	0.02139286
62	0xbda106ad	-0.078626014
63	0x3dc389fd	0.095478036
64	0xbcf9e6a1	-0.03050548
65	0x3c08d4ce	0.008351518
66	0x3d0788c0	0.0330894
67	0xbda098e9	-0.07841665
68	0xbb344f0e	-0.002751294
69	0xbd6bbc85	-0.057552833
70	0xbd13b464	-0.036060706
71	0xbda93c95	-0.08263508
72	0xbcb148f0	-0.021641225
73	0xbc467750	-0.012113407
74	0xbd1cbe35	-0.038267333
75	0xbbbfdfc8	-0.005855534
76	0xbb3e8105	-0.00290686
77	0xbd3a774a	-0.04552392
78	0xbca01c90	-0.01954487
79	0xbca39516	-0.01996855
80	0xbd003df2	-0.031309076
81	0xbb96498b	-0.0045864037
82	0x3b914d7e	0.0044342866
83	0xbd12bdbf	-0.035825487
84	0xbdb06055	-0.08612124
85	0x3c938fee	0.018012967
86	0xbd6b1347	-0.05739143
87	0xbdea7e47	-0.11449867
88	0xbdf65b04	-0.120290786
89	0xbd8bea45	-0.06831793
90	0xbd504c86	-0.05085423
91	0x3d204c25	0.039135117
92	0x3cc9bcb6	0.024626117
93	0x3da435cc	0.080180734
94	0x3e36bea3	0.1784616
95	0x3d4d238a	0.05008272
96	0xbda7dc0f	-0.0819627
97	0x3d892873	0.06697168
98	0xbd1ffaa5	-0.039057393
99	0xbda870ff	-0.08224677
100	0xbe362040	-0.1778574
101	0xb7922b8e	-1.7424838e-05
102	0xbe61f30f	-0.22065376
103	0xbebbd1de	-0.36683553
104	0xbe0886b9	-0.13332643
105	0xbcfc69e8	-0.030812219
106	0xbe2b3840	-0.16720676
107	0xbdd701c8	-0.104983866
108	0xbd6b0912	-0.057381697
109	0xbb3d2e62	-0.0028866758
110	0xbd9244e5	-0.07142047
111	0xbe29e221	-0.16590168
112	0xbdedd2eb	-0.11612495
113	0xbd9718cf	-0.07377779
114	0xbe4fc21a	-0.20288888
115	0xbdb98192	-0.09057917
116	0xbdb69050	-0.08914244
117	0xbdec9862	-0.11552502
118	0xbe0f7efe	-0.14013287
119	0xbdadaef0	-0.08480632
120	0xbe66e06e	-0.2254655
121	0xbe0e98aa	-0.13925424
122	0xbe2ee0c4	-0.17077929
123	0xbe3ec25d	-0.18628831
124	0xbe204467	-0.15651093
125	0xbe00dc37	-0.12584005
126	0x3bff6e4c	0.007795131
127	0x3ce05bb5	0.02738748
128	0x3d37e1e0	0.044893146
129	0xbdb8a6c5	-0.09016184
130	0x3c6a4364	0.014298294
131	0x3ccac1c7	0.024750603
132	0xbd4e8bb1	-0.05042619
133	0x3d2a4367	0.041568186
134	0xbcb3e987	-0.02196194
135	0x3d2f9f12	0.04287631
136	0xbcb5c28e	-0.022187497
137	0xbdabffb8	-0.08398384
138	0x3c42ff0d	0.011901629
139	0xbac804be	-0.0015260202
140	0xbdb4549e	-0.08805202
141	0xbba0bdda	-0.0049054446
142	0xbcdd04e1	-0.026979866
143	0xbd496935	-0.0491726
144	0xbcd656e4	-0.02616448
145	0xbbb1f0fc	-0.005430339
146	0xbdb39c52	-0.0877005
147	0x3cca23c0	0.02467525
148	0x3d99d8f1	0.075120814
149	0xbd83c2b7	-0.06433623
150	0xbd7e4885	-0.06208088
151	0x3bca4715	0.0061730244
152	0xbcad62ce	-0.021165278
153	0xbe56ae58	-0.20964944
154	0xbd598b26	-0.053111218
155	0xbe88d8af	-0.26727816
156	0x3e4fc4e8	0.20289958
157	0x3eb55951	0.35419706
158	0x3e6d6bf1	0.23185708
159	0xbe038dab	-0.12847011
160	0x3e73f907	0.23825465
161	0xbe1e11e0	-0.15436506
162	0xbcc70363	-0.024293607
163	0xbdbb401b	-0.091430865
164	0x3d7432dd	0.05961882
165	0x3db5f5ba	0.08884759
166	0xba9650af	-0.0011468137
167	0x3d968b1a	0.0735075
168	0xbdbc02df	-0.09180235
169	0xbd618022	-0.055053838
170	0x3db0914b	0.086214624
171	0xbd333bc1	-0.043758158
172	0xbd8c7a75	-0.06859294
173	0xbde8d330	-0.11368406
174	0xbe216c85	-0.15764053
175	0xbe23645b	-0.15956251
176	0xbdc14ee9	-0.09438879
177	0xbdc16d09	-0.09444625
178	0xbe17babf	-0.14817332
179	0xbe2f508b	-0.17120568
180	0xbd8e71dc	-0.06955311
181	0xbdd736ae	-0.10508476
182	0xbd8ec78f	-0.069716565
183	0xbde5c351	-0.11218894
184	0xbe587d32	-0.21141508
185	0xbdda6a9d	-0.10664866
186	0x3c6fabb2	0.014628338
187	0xbd5cd0bc	-0.053910002
188	0xbd9528d1	-0.07283176
189	0xbd26b6b5	-0.040701587
190	0x3d518ff6	0.051162682
191	0x3d2d0d1a	0.042248823
192	0x3dc998de	0.0984361
193	0x3e1c5769	0.1526772
194	0x3ca735f6	0.020411473
195	0x3d8c4919	0.0684988
196	0x3dd66f26	0.10470419
197	0xbc1f040d	-0.009705556
198	0x3d9b7345	0.07590345
199	0x3bba2e8d	0.005681819
200	0x3cd0508c	0.025429033
201	0x3e1eb0ea	0.15497175
202	0x3e14a055	0.14514287
203	0x3e27e9ba	0.16397753
204	0x3dcc73cf	0.09983026
205	0x3dba3971	0.09092987
206	0x3d7ebdab	0.0621926
207	0xbd778485	-0.060429115
208	0x3d55624d	0.0520957
209	0xbd8cf259	-0.06882162
210	0xbd1e4b18	-0.038645834
211	0x3d7bbce8	0.061459452
212	0x3d5689a3	0.052377354
213	0xbda70758	-0.081556976
214	0x3cf58a26	0.0299731
215	0xbdaa44fb	-0.08313938
216	0x3d50e958	0.051003784
217	0x3d31d5db	0.04341684
218	0x3d36a437	0.0445902
219	0x3d63e102	0.055634506
220	0x3d997b6e	0.074942455
221	0x3d4cc59d	0.049993146
222	0x3d5f449e	0.054508798
223	0x3ba4a460	0.005024478
224	0x3c733ebd	0.014846501
225	0x3c6b4c33	0.014361429
226	0x3ce339e7	0.02773757
227	0x3cd05f6a	0.025436122
228	0x3cb9e23f	0.02269089
229	0x3d965103	0.073396705
230	0x3d903dc5	0.070430316
231	0xbd1145d6	-0.03546699
232	0x3d00e67e	0.031469814
233	0x3c175065	0.009235476
234	0x3d8967bd	0.0670924
235	0x3dd97336	0.10617678
236	0x3cf503b4	0.029908992
237	0x3e04b38c	0.12959117
238	0x3e74226e	0.23841259
239	0x3dc86c6a	0.09786303
240	0x3ca3653e	0.019945737
241	0x3dafad24	0.08577946
242	0x3d20755f	0.039174434
243	0x3da61745	0.08109907
244	0x3e21714c	0.15765876
245	0x3d430eba	0.047621466
246	0xbce78d22	-0.02826554
247	0x3d8d3103	0.06894114
248	0x3ccfcdaa	0.025366623
249	0xbd06ffcf	-0.0329588
250	0x3d69014a	0.056885995
251	0x3d28a1d6	0.041169964
252	0x3b965b06	0.0045884876
253	0x3d6825b8	0.056676596
254	0xbcd8264e	-0.026385453
255	0x3d3984c4	0.04529263

encoder_layers.block_1.transition.bias f4 [11]
0	0x3b9b2bc9	0.004735444
1	0xbdd58869	-0.10426409
2	0xbd58cba9	-0.0529286
3	0xbd0ee0a6	-0.03488221
4	0x3c85307e	0.016258474
5	0x3c0a780e	0.008451475
6	0xbca1b83d	-0.019741172
7	0x3d27e8cb	0.040993493
8	0x3d32c693	0.043646406
9	0x3d3ab457	0.04558214
10	0xbda69c26	-0.08135252

encoder_layers.block_1.transition_deep.weight f4 [11, 11, 3, 3]
0	0x3cd56cf6	0.026052933
1	0x3e28b205	0.16474159
2	0x3d24ba7e	0.040216915
3	0x3e233cb7	0.1594113
4	0xbdbabe21	-0.091182955
5	0xbcddd397	-0.027078433
6	0xbd965889	-0.073411055
7	0xbb17b682	-0.0023149555
8	0x3da7946e	0.081826076
9	0xbdf7fb34	-0.1210846
10	0x3d488941	0.04895902
11	0x3d255b6f	0.0403704
12	0x3d5c755a	0.053822853
13	0xbe05ead9	-0.13077869
14	0x3d156376	0.036471806
15	0x3bff4535	0.0077902325
16	0xbd776a7b	-0.060404282
17	0x3d9e5ea4	0.07732895
18	0xbb0b2f92	-0.002123807
19	0x3b17c68e	0.002315912
20	0x3c1450f3	0.009052503
21	0x3c4417bd	0.01196855
22	0x3cfc2e4e	0.030783799
23	0x3d1ff713	0.039053988
24	0xbd80c897	-0.062882595
25	0x3d917697	0.07102697
26	0xbd562113	-0.052277636
27	0xbdf7a6e5	-0.120923795
28	0xbcea6710	-0.028613597
29	0xbe3355a8	-0.17513144
30	0xbd8d0d1f	-0.06887268
31	0xbe275462	-0.16340783
32	0xbde7c1b3	-0.11316242
33	0xbdc95a41	-0.09831668
34	0x3d1f0069	0.03881875
35	0x3c095353	0.008381682
36	0x3d1669ef	0.03672212
37	0x3cd09496	0.025461476
38	0xbad2a224	-0.001607005
39	0x3bd99952	0.0066405917
40	0xbd67e8cf	-0.056618508
41	0xbd94c3e6	-0.07263927
42	0xbda946bf	-0.08265447
43	0xbd9b8cb5	-0.07595197
44	0xbce9be75	-0.0285332
45	0xbe12902b	-0.14312808
46	0xbc1e1fe6	-0.00965116
47	0x3d388a0e	0.045053534
48	0x3d75326b	0.059862535
49	0xbc78f19d	-0.015194324
50	0xbe637b46	-0.22214994
51	0xbc94bd70	-0.018156737
52	0xbb80548d	-0.0039163292
53	0x3bbc1b2d	0.0057405443
54	0xbdab8456	-0.083748505
55	0xbea77a6e	-0.32710594
56	0x3a3220f5	0.0006795072
57	0xbe358653	-0.17727022
58	0xbec035b5	-0.37540975
59	0xbe8453b4	-0.2584511
60	0xbdfa81fb	-0.12231823
61	0xbe109fd0	-0.14123464
62	0xbd2f2fd0	-0.042770207
63	0xbd3ce06e	-0.04611247
64	0xbd77cecc	-0.06049995
65	0xbe1f1a29	-0.15537323
66	0xbcd6f025	-0.026237557
67	0xbd8cfe18	-0.06884402
68	0xbe0a92c5	-0.1353255
69	0xbdf4f089	-0.11959941
70	0xbd50c3c8	-0.05096796
71	0xbe2a1a8b	-0.16611688
72	0x3bd721e7	0.006565321
73	0x3e026808	0.12734997
74	0x3d1d714b	0.038438123
75	0xbdffc7bd	-0.12489269
76	0xbda3bd0e	-0.07995044
77	0x3e9eeea3	0.3104144
78	0x3d5c7d67	0.05383053
79	0xbd5e657a	-0.054295994
80	0x3d28b521	0.041188363
81	0xbd468b33	-0.048472594
82	0x3da4c092	0.08044542
83	0xbc8e2dde	-0.017355856
84	0x3e48c58a	0.19606605
85	0x3d83dec4	0.064389735
86	0x3e912323	0.2834712
87	0xbce13c24	-0.027494498
88	0x3e0089b3	0.12552528
89	0xbddef050	-0.1088568
90	0xbe61f5ca	-0.22066417
91	0xbe0d1979	-0.13779248
92	0x3dc65038	0.09683269
93	0x3d088f22	0.033339627
94	0xbe310c18	-0.1728977
95	0xbd0cd7f5	-0.03438564
96	0x3d787b70	0.060664594
97	0xbd32e8c0	-0.043679
98	0x3c7bd51b	0.0153706325
99	0xbe888460	-0.26663494
100	0x3d90f9c1	0.07078887
101	0xbe0c48d5	-0.13699658
102	0x3d986f7e	0.074431404
103	0x3e33657e	0.17519185
104	0xbcc7b94d	-0.02438035
105	0xbddc10df	-0.107454054
106	0x3d82924b	0.063755594
107	0xbe1ce983	-0.15323453
108	0xbe5e3e8e	-0.2170355
109	0x3d9df3ba	0.07712503
110	0xbe866b6b	-0.26253828
111	0xbcfb1f64	-0.030654617
112	0x3d2f0c63	0.042736422
113	0xbc943042	-0.018089417
114	0xbd81da29	-0.06340439
115	0xbda2e259	-0.07953329
116	0xbe55f5f5	-0.20894606
117	0xbe025d3d	-0.1273088
118	0xbd8d7e20	-0.06908822
119	0xbe6d196e	-0.23154232
120	0xbe900e38	-0.28135848
121	0xbe35c9d1	-0.17752768
122	0xbe070d35	-0.13188632
123	0xbdbd4044	-0.09240773
124	0xbdccb3a0	-0.09995198
125	0xbe832710	-0.2561574
126	0xbd8c88ec	-0.06862053
127	0xbd6fb8f0	-0.05852598
128	0x3c057359	0.008145177
129	0x3d9faeaf	0.0779699
130	0xbe1ac279	-0.15113248
131	0x3d17cc07	0.03705981
132	0x3d618154	0.055054978
133	0xbd648215	-0.05578812
134	0x3d2d40eb	0.04229824
135	0xbcf339a2	-0.029690567
136	0xbe213a1b	-0.15744822
137	0xbd935713	-0.071943425
138	0xbdae0bbe	-0.084983334
139	0xbe174203	-0.14771275
140	0xbdf9e4f6	-0.12201874
141	0xbdd617ee	-0.10453783
142	0xbd48c3ea	-0.049014963
143	0xbe06b4b8	-0.13154876
144	0xbe823657	-0.25432083
145	0x3d897d20	0.06713319
146	0xbe0a0edf	-0.13482235
147	0x3d9e984b	0.07743891
148	0xbd1b640f	-0.03793722
149	0xbc8c28e3	-0.01710934
150	0xbe0e6c9c	-0.13908619
151	0x3cad2753	0.021136915
152	0xba9506bb	-0.0011369804
153	0xbe18f634	-0.14937669
154	0xbd6dae82	-0.05802775
155	0x3d08ed71	0.033429567
156	0xbde12295	-0.10992924
157	0xbe889e81	-0.2668343
158	0xbdacfedd	-0.08447049
159	0x3cae2d92	0.021261964
160	0xbe20b6cb	-0.1569473
161	0xbdc39ae7	-0.0955103
162	0x3cfab547	0.030604018
163	0x3c7b9ea7	0.01535765
164	0xbd06544a	-0.032795228
165	0x3dc37f35	0.09545747
166	0x3c31b5dd	0.010846582
167	0x3d8594e5	0.0652254
168	0xbc5755ac	-0.013142984
169	0xbd8d99e0	-0.06914115
170	0x3cf81172	0.030281756
171	0xbd815620	-0.06315255
172	0x3de0488a	0.10951336
173	0x3bba516a	0.005685975
174	0xbc0a850b	-0.0084545715
175	0xbd3d12fc	-0.046160683
176	0xbc8842dd	-0.016633445
177	0x3bb2803f	0.005447417
178	0xbe101c68	-0.14073336
179	0xbe046516	-0.12929186
180	0xbce73bda	-0.028226782
181	0xbda98933	-0.08278122
182	0xbd07c830	-0.033149898
183	0xbd8df474	-0.06931391
184	0xbd7cdbb7	-0.061732974
185	0x3df752c9	0.12076337
186	0xbe0bad5d	-0.13640352
187	0xbdb6223f	-0.08893251
188	0xbd0ff6c6	-0.03514745
189	0x3acffc83	0.0015868101
190	0xbe77aaba	-0.24186221
191	0xbbe40869	-0.0069590104
192	0xbdc1c966	-0.09462242
193	0x3e1eac24	0.15495354
194	0xbdd718bd	-0.10502765
195	0xbe71387c	-0.23556703
196	0xbcdbd0ac	-0.026832901
197	0x3d8ee4a8	0.069772065
198	0xbdf1e53f	-0.11811303
199	0x3e37338e	0.1789076
200	0xbd877131	-0.066133864
201	0x3de2c9bf	0.11073636
202	0x3e6900b6	0.22754177
203	0x3d636491	0.05551583
204	0xbce2496a	-0.027622897
205	0x3e3c7db2	0.18407324
206	0xbd87323b	-0.066013776
207	0xbd51e5d2	-0.051244564
208	0xbd11d230	-0.03560084
209	0xbd7dfebd	-0.062010515
210	0xbe6ab679	-0.2292117
211	0xbef63c03	-0.4809266
212	0xbcf06cb3	-0.029348707
213	0xbcce686e	-0.02519628
214	0xbdf94ec3	-0.12173226
215	0xbdc5c7ba	-0.096572354
216	0x3d18f094	0.03733881
217	0xba873bd6	-0.0010317515
218	0xbcbf0c8d	-0.023321414
219	0x3c477324	0.012173448
220	0x3d3baad3	0.045817208
221	0xbe114288	-0.14185536
222	0xbd90c122	-0.07068087
223	0xbdf666f5	-0.12031356
224	0x3cc81b0d	0.024426961
225	0x3c5a7c04	0.013335232
226	0xbd8cdf12	-0.06878485
227	0xbc7c8e91	-0.01541485
228	0xbd9d3bc7	-0.07677417
229	0x3bb49534	0.0055109505
230	0xbcfeda05	-0.03110982
231	0xbd2929fa	-0.041299798
232	0xbd6f2c60	-0.05839193
233	0xbd90b48f	-0.07065689
234	0xbd45070a	-0.048102416
235	0xbdde9551	-0.108683236
236	0xbdde25ef	-0.10847079
237	0xbd213e25	-0.039365906
238	0xbe214c73	-0.1575182
239	0xbdf825d9	-0.12116594
240	0xbd762c0c	-0.0601006
241	0x3aae7493	0.0013309888
242	0xbb585e33	-0.0033015131
243	0xbe20994c	-0.15683478
244	0x3d03747f	0.03209352
245	0xbda9480a	-0.082656935
246	0xbd5e4717	-0.054267015
247	0x3ea0baec	0.3139261
248	0x3dc57d06	0.09642987
249	0xbd377650	-0.044790566
250	0xbb95b2b4	-0.004568422
251	0xbdbace30	-0.091213584
252	0xbc5d7e6b	-0.01351891
253	0xbd42081a	-0.047371008
254	0xbd761934	-0.06008263
255	0xbe587adb	-0.21140616

encoder_layers.block_1.transition_deep.bias f4 [11]
0	0x3dc62681	0.09675313
1	0xbd0e40ac	-0.034729645
2	0x3e84220f	0.25807235
3	0xbe0f570f	-0.13998054
4	0x3dab54cd	0.08365784
5	0xbd3cfeb5	-0.046141345
6	0xbe05dcde	-0.13072535
7	0x3d1e185c	0.03859745
8	0x3dbbb5f0	0.09165561
9	0x3e51b4e8	0.20479167
10	0xbe55563b	-0.20833676

encoder_layers.block_1.conv.weight f4 [88, 11, 1, 1]
0	0xbe07b8b2	-0.1325405
1	0xbe8f67bd	-0.28008834
2	0xbdc53f87	-0.096312575
3	0x3d0ed5cc	0.03487186
4	0xbdbd2717	-0.092359714
5	0xbd1a1fd4	-0.03762801
6	0x3eba767e	0.36418527
7	0xbe981bba	-0.29708654
8	0xbee72088	-0.45142007
9	0x3df280b2	0.11840953
10	0xbdb03e6d	-0.08605657
11	0x3dd1e701	0.102491386
12	0x3e40bf99	0.18823089
13	0x3e45be4e	0.19310877
14	0xbda5a450	-0.08087981
15	0x3e7965cf	0.24355243
16	0x3dc5d3c0	0.09659529
17	0xbd39cb69	-0.045360003
18	0x3ce78587	0.028261913
19	0xbea78581	-0.32719043
20	0x3d9d22c3	0.07672646
21	0x3e2842c6	0.16431722
22	0x3c47ce5e	0.012195198
23	0xbe91c5cc	-0.2847122
24	0xbe4d3916	-0.20041308
25	0xbd6a3e83	-0.057188522
26	0xbd17229c	-0.03689824
27	0xbe0caaed	-0.13737078
28	0x3e303dc2	0.17211059
29	0xbe255e1d	-0.16149183
30	0x3eb3c448	0.35110688
31	0xbe1881f4	-0.14893323
32	0x3e75047b	0.2392749
33	0x3efef4de	0.49796194
34	0x3ddb12d4	0.106969506
35	0x3e560334	0.2089966
36	0xbdfc080c	-0.12306222
37	0x3e00186b	0.12509315
38	0xbe02d3d2	-0.12776116
39	0xbdea6eca	-0.114469126
40	0x3ebb834d	0.36623612
41	0x3d9c9716	0.07646005
42	0xbe6a8878	-0.22903621
43	0x3cc63f86	0.024200212
44	0x3d3e37df	0.04644
45	0xbc6c8649	-0.014436313
46	0x3d4c363a	0.049856402
47	0xbd684604	-0.056707397
48	0x3e1cc403	0.15309148
49	0xbec6a85d	-0.38800326
50	0x3d72609b	0.05917416
51	0xbeba00d8	-0.3632877
52	0x3e814bc6	0.25253123
53	0xbe697d03	-0.22801594
54	0x3e994171	0.2993274
55	0xbf1ba40b	-0.60797185
56	0x3d642e42	0.055708177
57	0xbe8cf951	-0.27533963
58	0x3d82d9f0	0.063892245
59	0xbeb685f4	-0.35649073
60	0xbe175f29	-0.14782394
61	0xbe7856dd	-0.24251886
62	0xbe2a6380	-0.16639519
63	0xbe43df99	-0.19128264
64	0x3ea582ed	0.3232645
65	0x3d34647d	0.044041146
66	0xbd861960	-0.06547809
67	0xbded314e	-0.1158167
68	0xbd1b8973	-0.03797288
69	0x3e46413f	0.19360827
70	0x3dd43d19	0.10363216
71	0x3ce63aac	0.028104149
72	0xbd6123cf	-0.05496579
73	0xbd0d2448	-0.03445843
74	0xbe147eb1	-0.14501454
75	0x3ebf56fc	0.3737105
76	0x3e951735	0.29119268
77	0xbb3c5424	-0.0028736675
78	0xbd2b01cc	-0.04174976
79	0x3d651206	0.05592539
80	0x3ef02ad9	0.4690769
81	0x3e3cc891	0.18435885
82	0xbd61aef9	-0.055098508
83	0x3e49e70e	0.19717047
84	0xbc0f8052	-0.008758621
85	0xbe4df68f	-0.20113586
86	0xbe45bfaa	-0.19311395
87	0x3e085490	0.13313508
88	0x3e6d4100	0.23169327
89	0x3de41348	0.1113649
90	0x3e301521	0.1719556
91	0x3e0ed6d6	0.13949141
92	0x3e9e7832	0.30951077
93	0xbd5eee0a	-0.05442623
94	0xbe3db544	-0.18526179
95	0x3d9d89d2	0.07692303
96	0x3e39f704	0.18160635
97	0x3e2bf7e3	0.1679378
98	0x3dab3bd9	0.083610244
99	0x3c3248e6	0.010881638
100	0xbe131317	-0.14362751
101	0x3e0e4ce9	0.13896526
102	0xbe9855e8	-0.2975304
103	0xbeaf0129	-0.34180573
104	0xbd12b22c	-0.03581445
105	0xbc7d22dc	-0.015450206
106	0xbd9f085e	-0.07765268
107	0xbc2d6a36	-0.010584405
108	0xbdeb1bf8	-0.11479944
109	0x3dd9a3a5	0.10626916
110	0x3d13a47f	0.036045548
111	0x3e9c9c3e	0.30587953
112	0x3e5667e3	0.20938067
113	0x3dc7e1c3	0.097598575
114	0xbe00bb9e	-0.1257157
115	0xbcc1dff8	-0.023666367
116	0xbd82d165	-0.06387595
117	0xbc6f9063	-0.014621827
118	0x3d008072	0.031372495
119	0x3da4866e	0.08033453
120	0xbdf1bc85	-0.11803535
121	0xbe261a0c	-0.16220874
122	0x3d7a664d	0.061132718
123	0xbd3bb6bf	-0.045828577
124	0xbe724f62	-0.23663095
125	0xbdceb212	-0.10092558
126	0x3e37910a	0.17926422
127	0xbe8c8d0c	-0.2745136
128	0x3d130afc	0.035899147
129	0xbcd6a0bc	-0.026199691
130	0xbd5cf1b8	-0.05394146
131	0x3dd68504	0.104745895
132	0x3d4dd986	0.050256275
133	0x3bf66856	0.007519762
134	0xbd43ad4f	-0.0477727
135	0x3e185a99	0.1487831
136	0x3e148ebc	0.14507574
137	0xbe4dd5a0	-0.20101023
138	0x3d9ba937	0.076006345
139	0xbe0e0768	-0.13870013
140	0xbe7efb47	-0.24900542
141	0xbc132872	-0.008981811
142	0x3dfca6c8	0.123364985
143	0xbe60978d	-0.21932812
144	0xbe4cd38d	-0.20002575
145	0xbd50032e	-0.050784282
146	0x3de4f029	0.111786194
147	0xbc9245c8	-0.01785554
148	0x3e73a636	0.23793873
149	0xbd46f174	-0.04857011
150	0xbdc458ff	-0.09587287
151	0xbe5349c3	-0.20633607
152	0xbe41d0fc	-0.18927377
153	0xbe6cfbf7	-0.23142992
154	0xbe07fbec	-0.13279694
155	0xbe9271f9	-0.2860258
156	0xbe1cd7eb	-0.15316741
157	0x3e176639	0.14785089
158	0xbe7581cb	-0.23975293
159	0x3c84efa7	0.016227556
160	0xbd703aab	-0.0586497
161	0x3e541307	0.20710383
162	0xbec45608	-0.38346887
163	0xbe3c76b1	-0.18404652
164	0xbe11870d	-0.14211674
165	0x3e34d5da	0.17659703
166	0xbd4ba0e7	-0.049713995
167	0xbccc71c6	-0.024956595
168	0x3e765265	0.24054869
169	0x3e90a5eb	0.28251585
170	0xbcdd4b3a	-0.02701341
171	0x3e856b90	0.26058626
172	0x3e48a0c9	0.19592585
173	0x3cfef123	0.031120842
174	0x3e28000b	0.16406266
175	0xbd84b53c	-0.0647988
176	0x3f341231	0.7034026
177	0x3d9234a0	0.07138944
178	0x3d553369	0.05205098
179	0xbccf44d7	-0.02530138
180	0x3e0d6c5e	0.1381087
181	0xbe451657	-0.19246803
182	0x3d3db797	0.046317663
183	0xbe2eccfe	-0.17070386
184	0x3e21155e	0.15730807
185	0xbe6eba40	-0.23313236
186	0x3ed63f55	0.41845194
187	0xbc260be5	-0.010134672
188	0xbeab3c7d	-0.33444586
189	0xbf11d738	-0.5696902
190	0x3e7f3d7b	0.24925797
191	0x3ddca939	0.10774464
192	0xbd44b1c9	-0.04802111
193	0x3e514512	0.20436504
194	0x3d1db09b	0.038498502
195	0xbf0bc596	-0.5459837
196	0x3dcb12c3	0.09915688
197	0xbd3fd1f6	-0.046831094
198	0xbc72780c	-0.014799129
199	0xbe185622	-0.14876607
200	0xbe812478	-0.25223136
201	0x3ec03533	0.37540588
202	0x3e09fe69	0.13475956
203	0xbeabad47	-0.33530638
204	0x3e84064d	0.25786057
205	0xbe859c59	-0.26095846
206	0xbcc39283	-0.023873573
207	0xbca80179	-0.020508515
208	0x3ea55a13	0.32295284
209	0x3f05f30d	0.5232399
210	0x3c63049e	0.013856081
211	0x3c7ab883	0.01530278
212	0x3ec82cf8	0.39096808
213	0x3de8265e	0.11335443
214	0xbe0736ec	-0.13204545
215	0x3e96e639	0.2947252
216	0x3d425074	0.047440007
217	0xbea475a0	-0.3212099
218	0x3c4c8a06	0.012484079
219	0xbd2723d5	-0.040805656
220	0xbf0151e9	-0.5051561
221	0xbe4f2da6	-0.20232257
222	0xbe31b00b	-0.17352311
223	0xbd3da0bd	-0.04629587
224	0xbdc23585	-0.09482864
225	0x3e42d14a	0.1902515
226	0x3d8ddcc2	0.06926872
227	0xbe71eb36	-0.23624882
228	0x3cc146dc	0.023593359
229	0xbc71026a	-0.014710048
230	0xbe27da89	-0.16391958
231	0xbd37bb36	-0.044856273
232	0x3e537560	0.20650244
233	0x3ee3a4d0	0.4446168
234	0xbe9920ae	-0.29907745
235	0xbc1fc4d8	-0.009751521
236	0x3dc5b7d9	0.09654207
237	0xbe9d9df4	-0.3078457
238	0x3e2c331b	0.1681637
239	0x3e04718e	0.12933943
240	0x3e1103ea	0.1416165
241	0xbe11430d	-0.14185734
242	0x3e152bf8	0.14567554
243	0x3d8a67bb	0.06758066
244	0xbbaed340	-0.0053352416
245	0xbe6319be	-0.22177789
246	0x3e0600ce	0.13086244
247	0xbd9f2e96	-0.077725574
248	0xbcfe1644	-0.031016476
249	0xbb88d349	-0.004175578
250	0x3da3acc8	0.0799194
251	0x3df24e4f	0.118313424
252	0x3e02f72b	0.127896
253	0xbdc75dc9	-0.09734685
254	0xbcf1341c	-0.029443793
255	0xbd9f473f	-0.07777261

encoder_layers.block_1.conv.bias f4 [88]
0	0xbe54fd48	-0.20799744
1	0xbd33082a	-0.043708958
2	0xbeedaeed	-0.4642252
3	0x3d05ec20	0.03269589
4	0xbea4cfd2	-0.32189804
5	0x3d998394	0.074958
6	0xbdbb710f	-0.091524236
7	0xbe652c3d	-0.22380157
8	0xbe02c133	-0.12769012
9	0xbce315bb	-0.027720323
10	0x3e5e1626	0.21688136
11	0x3e221a96	0.15830454
12	0xbd8643a5	-0.06555871
13	0xbe0d86e5	-0.1382099
14	0xbe03b40d	-0.12861653
15	0xbe2ad6aa	-0.1668345
16	0xbe2def4b	-0.16985814
17	0xbd08be4e	-0.033384614
18	0xbeba6033	-0.3640152
19	0x3e11d288	0.14240468
20	0x3d057f90	0.032592356
21	0x3e11fcc7	0.14256583
22	0xbdd3f579	-0.103495546
23	0xbd9f377a	-0.07774253
24	0xbce0bbb9	-0.027433263
25	0x3e80cceb	0.2515634
26	0xbde06740	-0.109571934
27	0x3ed5908d	0.41711846
28	0xbd2eab32	-0.042643733
29	0xbe5a15b9	-0.21297349
30	0xbdaca9d9	-0.08430833
31	0x3f86a899	1.0520202
32	0xbcbabc28	-0.022794798
33	0x3d10e2c5	0.035372514
34	0x3dd84d7b	0.10561653
35	0xbda3b567	-0.07993584
36	0x3a9baa57	0.0011876327
37	0xbdf2e4f0	-0.118600726
38	0x3e8e5cc7	0.27805158
39	0xbbf88f0f	-0.0075854133
40	0x3d053a9e	0.032526605
41	0xbe794da4	-0.24346024
42	0xbebea8ee	-0.37238258
43	0x3e2c9429	0.16853394
44	0x3da757b3	0.08171024
45	0x3ed1a4c8	0.4094603
46	0xbceccd60	-0.028906524
47	0xbd8d7856	-0.06907718
48	0x3cc14b19	0.02359538
49	0xbf7d8992	-0.9903804
50	0xbe3ef69c	-0.18648762
51	0xbe1da5df	-0.15395306
52	0xbce9bf20	-0.028533518
53	0xbe0ab7b6	-0.13546643
54	0x3d20f865	0.039299387
55	0x3d456b10	0.048197806
56	0xbe88bc2b	-0.2670606
57	0x3d66e8c2	0.05637432
58	0xbd4232fc	-0.047411904
59	0xbddb2f25	-0.107023515
60	0xbd5c73bb	-0.053821307
61	0xbe0968a1	-0.13418819
62	0x3b9e1b76	0.004825051
63	0xbeb6b1e9	-0.3568261
64	0xbc44c3fc	-0.012009617
65	0x3c4516fb	0.012029405
66	0xbe6a0b84	-0.22855955
67	0x3da586cd	0.08082352
68	0x3da629b5	0.08113424
69	0x3ca0a644	0.019610532
70	0x3d381ac3	0.044947397
71	0xbe39d0e4	-0.18146092
72	0x3ea668c3	0.32501802
73	0xbc202806	-0.009775167
74	0xbe7ec2f5	-0.24879058
75	0xbd08a7da	-0.0333632
76	0xbd3c8ba6	-0.046031617
77	0x3e414ef1	0.1887777
78	0xbd93c019	-0.07214374
79	0xbe868527	-0.26273462
80	0x3d25d0cb	0.040482324
81	0xbe597a23	-0.21237998
82	0xbd679a8d	-0.056543875
83	0x3d77580c	0.060386702
84	0xbd8bd832	-0.06828345
85	0x3dea92f7	0.114538126
86	0xbe7fa07b	-0.24963562
87	0x3e44982a	0.19198671
