trainedModels/speed/border/baseline/44/run5/model.pt (torch, 105473 bytes, 11 tensors)

init.weight f4 [10, 1, 1, 1]
000000 b8 5f 84 3f e0 c4 7e bf da eb 8d 3f a2 39 4b 3f
       1.0341711 -0.9951916 1.1087601 0.79384816
000010 b0 29 5b bf 7f fe 6c 3f f8 1e 9b 3f 71 d1 7b 3f
       -0.85610485 0.9257583 1.2118826 0.9836646
000020 16 f6 60 3f 35 81 56 bf
       0.878755 -0.83790904

init.bias f4 [10]
000000 70 df 08 3f 5d 90 e5 bd 0e 2a ef be 70 b8 aa 3c
       0.5346594 -0.11209176 -0.46711773 0.0208399
000010 93 17 05 bf 3f 0c df be 5c c6 f4 be f1 8c 0b be
       -0.51989096 -0.4356403 -0.47807586 -0.13627984
000020 ad fd e8 bd 73 0b 90 3b
       -0.1137651 0.004395896

encoder_layers.block_0.conv.weight f4 [40, 20, 3, 3]
000000 5e 6b 44 bd d2 dc 04 ba 74 1d d4 bc 23 08 96 3d
       -0.047953956 -0.0005068305 -0.02589295 0.07325771
000010 77 90 a8 3c 9d d5 d3 bc ac 72 9e 3c d4 8a e2 bd
       0.020576699 -0.025858695 0.01934179 -0.110616356
000020 1b cc c1 bc 05 e6 25 bd fe 43 06 bd 8e e3 48 3d
       -0.023656895 -0.040502567 -0.032779686 0.049045138
000030 e6 98 c9 bc aa 4e 67 bb e4 ee 1c 3d 3b bf 46 3d
       -0.02460904 -0.003529469 0.03831376 0.048522215
000040 4e 3b d3 3d 76 2a 04 3c ff 86 02 3d 8f 90 a3 3d
       0.10314046 0.008066764 0.031867024 0.07986557
000050 3a 58 0f 3b c0 ed 95 bd 13 0e 09 bd 36 df 26 3d
       0.0021872655 -0.07320738 -0.033460688 0.040740214
000060 d9 08 2b 3d 0e 75 fe 3d c8 85 b9 3c fc 21 db 3c
       0.041756485 0.1242467 0.0226468 0.026749603
000070 6d 42 c7 bc 24 7e 02 bd 48 fb 26 3d fe 37 66 bd
       -0.024323666 -0.03185858 0.040766984 -0.056205742
000080 e2 cb 5a bd 32 aa 49 bc e0 b8 e9 bd 28 8f 96 bd
       -0.053417094 -0.012308644 -0.11412215 -0.07351524
000090 96 e7 91 bc f7 d6 0c bc 0d ca 38 3d 92 de 96 3c
       -0.017810624 -0.0085961735 0.045114566 0.018416677
0000a0 67 e2 ee 3c 68 6a 6c 3c 4f f6 81 3c 76 92 49 3d
       0.029160691 0.014429666 0.01586452 0.04921194
0000b0 fd 19 6d 3d 29 cc 8c 3c f4 f5 a7 3d 00 70 12 ba
       0.057886112 0.017187195 0.08201209 -0.00055861473
0000c0 ac dc 14 bc 3c e4 3b 3d af ce de 3c c7 b9 f4 3c
       -0.009085815 0.045871958 0.027198164 0.029873742
0000d0 33 3d 00 3d 4d b1 fa 3c c8 d8 59 3c 30 59 c7 3d
       0.031308364 0.030602122 0.013296314 0.09733808
0000e0 9d f5 fe 3c 41 ec e0 bc 4e e4 05 3d 86 c5 28 bc
       0.031122977 -0.027456405 0.03268843 -0.0103009995
0000f0 72 1b 7b 3c da 81 03 3e 36 7b 82 3d 8f 4e 04 bd
       0.015326368 0.12842503 0.06371157 -0.03230148
000100 9e 4a ad 3d 5e 6d b3 3c 92 16 7f bd 1e 1d fb 3c
       0.08461498 0.021902736 -0.062277384 0.030653533
000110 7d a1 40 bd 82 31 57 3d 97 28 96 3c ee 93 73 3d
       -0.047029007 0.05253745 0.018329902 0.05946725
000120 e1 af 7b bd 0c 79 ae 3d 23 ff df 3c 12 15 98 bb
       -0.061447028 0.085191816 0.027343338 -0.0046411837
000130 ae 0d f3 3c 53 e4 51 3d 09 70 7a bc 1f 8d c4 3d
       0.029669609 0.051243138 -0.0152855 0.09597229
000140 ac 69 b2 3a 92 8f 00 3d e8 5c 8b bd 5a 4c 2e 3e
       0.0013611815 0.03138692 -0.0680483 0.17021313
000150 8e f0 b9 3b ba 62 b2 bd 9f 33 3f 3d de 5c da 3d
       0.0056744283 -0.08710237 0.04668009 0.10662244
000160 51 e0 0b 3e 6b 55 1e 3d 41 49 3e 3c 44 99 ce 3d
       0.13659789 0.03865568 0.011614145 0.10087827
000170 7e c1 f5 3c 22 cf 62 3d 41 e4 3b 3e f1 f3 23 3e
       0.02999949 0.05537332 0.1834879 0.16011025
000180 10 a9 15 3d 20 42 98 3d fb 7b 04 3d 89 b1 21 3e
       0.036538184 0.07434487 0.0323448 0.1579038
000190 89 c5 33 3e f3 19 2a 3e 6b 38 8e 3d 13 96 21 3e
       0.17555822 0.16611461 0.069443546 0.15779905
0001a0 b4 f4 86 3d 63 84 94 3d 8c 5c 9c 3d 25 c5 e2 3d
       0.06589642 0.07251813 0.076348394 0.110727586
0001b0 71 88 a0 3d 2b 7a f3 3b c9 d0 07 bd 19 1d 3f bd
       0.07838524 0.007430335 -0.033158097 -0.04665861
0001c0 fc 57 45 3d 4f 10 91 3d a0 cf b5 bc 8c 68 ad b9
       0.04817961 0.07083189 -0.02219373 -0.00033075025
0001d0 fb 9f 62 3c 67 5b 1c bc d6 48 b2 3d d2 56 a4 3d
       0.013832088 -0.009543276 0.087052986 0.08024372
0001e0 05 35 32 bd 68 1b 82 bd 97 f6 fd bd 98 87 14 bd
       -0.043507595 -0.063528836 -0.12400549 -0.036262125
0001f0 b1 78 37 bd 86 cf 04 3e df c4 5b bd d4 4a 6c bd
       -0.044792835 0.12969789 -0.053654548 -0.05768855
000200 91 6f 2c bd 4a 39 82 bd 55 fe ed bc bb 04 d3 bd
       -0.042098586 -0.06358583 -0.029051939 -0.10303637
000210 84 da 89 bd b5 e4 b7 bd 12 da c2 bd 24 43 08 3c
       -0.06731132 -0.08979169 -0.0951425 0.008316789
000220 e9 6f 26 bd a3 70 10 3d df 9f 78 3d a6 cf 13 3e
       -0.04063407 0.03526367 0.06069934 0.1443468
000230 42 af f1 3d fa 7b 2b 3d cf d6 70 3d 42 b1 59 bd
       0.11801006 0.04186628 0.058798607 -0.05314756
000240 79 46 58 3d b5 78 36 3e 16 47 16 3e 5b 7b 33 3d
       0.052801583 0.17819484 0.14675555 0.043818813
000250 a5 04 df 3d 40 33 ee 3d 4c 13 05 3e 5b fc 80 3d
       0.10889558 0.11630869 0.12995642 0.06298133
000260 f8 d3 2e 3e d0 4f 01 be be bc 9f bd 24 2c 23 be
       0.17073047 -0.12628102 -0.077996716 -0.15934807
000270 bc 3f ce 3c ed 2d 2e be cb 6c 00 bd d0 2c b6 bc
       0.025176875 -0.17009707 -0.031353753 -0.022238165
000280 60 25 15 3c d5 43 94 bd 1e d3 2f 3d 8f c3 9d 3d
       0.009103149 -0.072395004 0.042925946 0.077033155
000290 76 d4 5a ba bd 73 a9 3d 18 00 d8 3d d7 79 b3 bb
       -0.0008347699 0.082740285 0.10546893 -0.005477171
0002a0 68 f0 e9 3d 66 55 25 3e 7b 9a 58 3d 27 2b af 3e
       0.11422807 0.16145858 0.0528817 0.3421261
0002b0 f4 8e 2a bc e1 d4 48 3e 95 20 78 3e 66 8a 2f 3c
       -0.010410059 0.19612457 0.24231179 0.010714149
0002c0 97 21 68 3c a4 8a 43 3e e8 06 44 3d 3a 49 c6 bc
       0.014168165 0.19095856 0.04785815 -0.024204839
0002d0 1b 53 9d 3d ee c4 0b 3d bf 90 89 bc 82 8a 2a 3b
       0.07681867 0.034123354 -0.016792653 0.0026022498
0002e0 40 52 58 3d a9 83 ba 3d 30 75 57 3d 4c e3 b4 3d
       0.052812815 0.091071434 0.052601993 0.08832416
0002f0 39 23 94 3d bc 6a fd bd b3 72 4d be 72 88 0e be
       0.07233281 -0.123738736 -0.20063286 -0.13919237
000300 89 29 a2 3c 86 20 8d bc 64 22 93 bd b6 37 d5 bd
       0.019795196 -0.017227422 -0.07184294 -0.10411017
000310 63 54 0a be 48 9a b4 bd 06 4d e4 3c a8 23 5c 3c
       -0.13508753 -0.08818489 0.027868759 0.0134362355
000320 f8 b9 4c 3d e7 5b e3 3c 81 71 4f bd aa 44 15 bd
       0.04998204 0.027753783 -0.050645355 -0.036442436
000330 54 a2 a1 3c 29 df 0b bd e0 8d 4a 3c 7e 4c 1c 3e
       0.019730724 -0.03414837 0.012362927 0.15263554
000340 2b 13 63 3e af 91 22 3e 19 14 3f 3d b3 51 26 bd
       0.22175281 0.15875886 0.046650026 -0.04060526
000350 62 2e bc 3d 22 98 71 3d 25 64 b1 3d 3e 36 e3 3d
       0.09188534 0.058982976 0.08661679 0.1109433
000360 c8 b2 80 bd 4b d3 06 be 51 ce fc bb 11 25 26 bd
       -0.062841 -0.1316654 -0.0077150245 -0.040562693
000370 23 77 f8 bc 55 ee 17 bd 1d 2d 72 bd c1 db 18 bd
       -0.030330246 -0.037092526 -0.059125055 -0.03731895
000380 86 32 04 bd f6 d7 11 3c 57 c2 71 bd 41 24 b5 3b
       -0.032274745 0.008901587 -0.059023228 0.0055280034
000390 f2 0b f0 bc 96 df dd bd 5a 04 59 bd 42 48 c9 bc
       -0.029302571 -0.10833661 -0.052982666 -0.024570588
0003a0 67 c6 2e bd ac 49 94 bd e2 ab 9b 3d e0 0f 7b bc
       -0.04266968 -0.07240614 0.076011434 -0.015323609
0003b0 ab 59 0f bd 78 5e b8 bc 8e fe 97 bd d2 23 b2 3c
       -0.034997623 -0.022505984 -0.07421599 0.021745596
0003c0 6c 30 47 bc 0a 95 af bd c6 27 6c bd ad 04 be 3c
       -0.012157541 -0.08573349 -0.05765512 0.023195589
0003d0 a9 90 4e 3d 71 a7 bd 3c 79 4c 98 bc b4 f7 0d be
       0.050430927 0.023151131 -0.018591153 -0.13864022
0003e0 d5 09 1d 3c db 0f 3a ba 2a 62 d1 bd 78 26 06 bd
       0.009584864 -0.00070976996 -0.102238014 -0.03275153
0003f0 17 cd 3a 3d f8 a3 4c bc 4f 78 ae 3d 0e 4a f1 bc
       0.045605745 -0.012490265 0.08519041 -0.029454257

encoder_layers.block_0.conv.bias f4 [40]
000000 49 88 4b bd 5e e2 8c 3d 12 f1 6f bc 6b 6e 35 3f
       -0.04969052 0.068791136 -0.014644878 0.7087161
000010 9d 61 22 bd 70 6a 33 3f f0 bd 2d 3f 31 5e 38 3f
       -0.039643873 0.70084286 0.67867947 0.72018725
000020 51 6f 3e 3d 1c db 15 3d f6 c0 1e 3d 31 5a 32 39
       0.04649288 0.036585912 0.03875824 0.00017009002
000030 db 81 57 3d 9a 73 87 3c 72 9f 8e 3d 32 b8 bd 3b
       0.052614074 0.016534615 0.069640055 0.00578978
000040 38 c2 82 3d 0d f3 55 bc d6 48 3a bc a5 21 bf b9
       0.063847005 -0.013058436 -0.0113699045 -0.00036455426
000050 97 30 10 3e 00 62 b4 3c 96 6b 6c bd 45 95 3d 3f
       0.14081036 0.022019386 -0.05771979 0.7405589
000060 f4 f7 d5 3b 06 69 25 3f 8a 9f ef 3e b1 e4 24 3f
       0.0065298025 0.6461338 0.46801406 0.64411455
000070 4e 47 a9 3c 07 88 d5 3e 57 e7 9c ba 20 32 7e bd
       0.020663884 0.41705343 -0.00119708 -0.06205952
000080 e8 94 57 3d d7 2c 4f 3d 91 a8 c8 ba ad d5 23 bd
       0.052632242 0.050579872 -0.0015309026 -0.0399987
000090 aa 7f fc ba df 8d 68 3b fc 9b 1b bd 13 1e 16 bc
       -0.0019264121 0.0035484952 -0.037990555 -0.009162444

encoder_layers.block_1.conv.weight f4 [40, 20, 3, 3]
000000 c3 89 84 be b6 6f 00 be ea c1 b8 bd 4a 28 a6 be
       -0.25886354 -0.12542614 -0.09021361 -0.32452613
000010 49 c8 81 be bc 2e 75 be 07 53 8e be f8 d1 76 be
       -0.25348118 -0.23943609 -0.2779772 -0.24103534
000020 26 1b ad be 01 3d 0e 3e d1 bc ec 3d 65 34 d7 bc
       -0.33809775 0.13890459 0.11559451 -0.0262701
000030 9d 3b 0d 3d 14 68 fd 3c 3a 9b ce bd 3d 7f c3 3c
       0.03448068 0.030933417 -0.10088201 0.023864383
000040 41 03 30 bc 39 c0 11 be 2f c2 d6 bb 81 12 41 3e
       -0.010742963 -0.14233483 -0.00655391 0.18854715
000050 a5 b5 1e 3e f2 a8 f8 bb 62 25 00 3e 3a 96 00 3e
       0.1549898 -0.007588499 0.1251426 0.12557307
000060 4b c1 fa 3c 16 c4 37 3e 42 b9 6c 3e 49 48 38 3c
       0.030609747 0.17945895 0.23117545 0.011247703
000070 5e 4f c3 bd 7b 6c 08 be 8f da 32 bc 27 48 9b bd
       -0.095366225 -0.13322632 -0.010916366 -0.07582121
000080 22 80 42 be 99 ec f4 bb 02 7e 29 bd 29 35 f1 bd
       -0.18994191 -0.0074744937 -0.041379936 -0.117777176
000090 94 ae 07 be 97 8d 93 bd 0d 44 37 bd a3 23 0c bc
       -0.1325019 -0.072047405 -0.044742633 -0.008553418
0000a0 34 d7 90 bd 6e 06 9d bd 33 dc fc 3d 15 58 05 3e
       -0.07072297 -0.07667242 0.12346687 0.13021882
0000b0 b9 12 cf 3d 86 6d e3 3d d7 48 2a 3e 73 25 4f 3e
       0.10110993 0.11104874 0.16629349 0.2022913
0000c0 5e 55 0d 3e da 08 f2 3d 39 31 1b 3e 2e e4 94 3c
       0.13802096 0.118180946 0.15155496 0.01817521
0000d0 03 c0 ce bd b7 e6 d6 bb f5 54 98 bd cc 36 92 3c
       -0.10095217 -0.006558265 -0.07438079 0.017848395
0000e0 ac 5e 23 bd ca 75 09 3d 5e b2 c9 3d 19 8a 53 bb
       -0.039885208 0.033559598 0.09848474 -0.0032278358
0000f0 1d eb 49 3d 44 00 ec 3c c5 75 d3 3c a7 61 54 bd
       0.049296487 0.02880872 0.025812993 -0.05185094
000100 53 4f 19 be 1d 46 47 be 41 16 00 be bf 14 a0 bd
       -0.14971666 -0.1946034 -0.12508489 -0.07816457
000110 34 25 86 be 6a 3c 27 be e7 3e 3c be 4b 48 c1 be
       -0.2620026 -0.1633164 -0.1838337 -0.37750468
000120 31 94 d6 3c 21 06 b4 bd ec b3 9d bd 99 3c 9c bd
       0.02619371 -0.087902315 -0.07700333 -0.076287456
000130 09 8e 55 be 79 f1 91 be d6 21 fe bd cd 12 32 be
       -0.20854963 -0.28504542 -0.124087974 -0.17389984
000140 81 5d 4f be d5 3f 09 3e 44 a3 34 3e c4 eb 2c 3e
       -0.20250513 0.13403256 0.17640406 0.16886812
000150 25 ea 5a be 50 c0 3d be da c6 9c bc bd 1b 23 bd
       -0.21378382 -0.18530393 -0.019137789 -0.039821375
000160 73 91 de 3d e9 d9 7f 3e 4c de 91 bd 2b b4 19 be
       0.10867586 0.2498547 -0.07122478 -0.15010135
000170 df 3a 81 be 9a 47 bc 3c 33 37 00 bd 5a 85 2d be
       -0.25240228 0.022983361 -0.031302642 -0.16945401
000180 97 8f 1b be 64 fc 1f be 77 a6 35 be 05 5f 89 bd
       -0.15191494 -0.15623623 -0.17739283 -0.06707577
000190 8b 84 0d bd 4d f1 ec bd a9 4b 0f bd ec 51 a3 bd
       -0.03455023 -0.11569462 -0.034984265 -0.0797461
0001a0 0c bc 09 be e9 dd 9f 3c 3e 59 78 bc e3 56 3c be
       -0.1345064 0.019514995 -0.015157996 -0.1839252
0001b0 4c 02 23 bd f5 77 bf 3d e3 94 36 3e e0 20 42 3d
       -0.039797112 0.09349052 0.17830233 0.047394633
0001c0 bd 69 f7 3d 4a ae 4d 3e 24 e8 1e 3e b7 cc 39 3e
       0.12080715 0.20086017 0.15518242 0.18144499
0001d0 2f 55 84 3e e5 f9 ea bd 3a 52 e7 3c d4 a4 85 bd
       0.2584624 -0.11473445 0.02823745 -0.06525579
0001e0 8a ef d2 3b 68 bc 22 3e 2d c9 74 3d ca 61 2b 3e
       0.0064372467 0.15892184 0.05976217 0.16736522
0001f0 75 48 9e 3e 00 cc 26 3e 86 6d 36 3c bc 2c ab 3d
       0.30914655 0.16288757 0.011134511 0.08358142
000200 3b de 1b 3d 9c 63 af 3d 20 72 5b 3e 3d 5c 91 3e
       0.038053732 0.08563921 0.21430254 0.28390685
000210 e0 d2 c6 3d 70 28 af 3d 29 4d 10 3e 29 e4 24 be
       0.0970819 0.08552635 0.14091934 -0.16102661
000220 b6 a4 e3 bd 51 a5 e9 bd df 7a e3 bd c3 e8 d5 bd
       -0.111154005 -0.11408485 -0.1110742 -0.104447864
000230 d2 2b e5 bd a0 ef 84 bd cc a0 57 bd f6 0d b1 bd
       -0.11189999 -0.06491017 -0.052643582 -0.08645241
000240 cf 89 91 3d 42 e0 1a bc c6 38 19 be 4d 39 ce 3c
       0.07106363 -0.009452881 -0.14963064 0.025173808
000250 4a c8 0c bd 02 ab 1d be e3 bc 04 3d 3d 35 14 bc
       -0.034370698 -0.15397266 0.0324067 -0.009045896
000260 0e 17 65 bd dd 26 17 be cc f6 0f bd 8b ae 20 bd
       -0.05593019 -0.14760919 -0.035147473 -0.039228957
000270 c3 33 17 3d dd 45 be 3d 98 ff 0a 3d f5 a9 d7 3d
       0.0369146 0.09290669 0.03393516 0.105304636
000280 02 c7 58 3e 56 ab fe 3c d3 14 ad bc 82 ac f5 bc
       0.21169665 0.031087559 -0.021128094 -0.029989485
000290 a3 df f1 bc 34 5b 5a bd c6 a8 41 bb 04 1f 0f 3d
       -0.029525584 -0.053309634 -0.002955006 0.03494169
0002a0 de c7 25 3d 82 41 a7 3c a8 ad 0b 3d 1d 2f 4c 3d
       0.04047381 0.020416979 0.03410116 0.04984962
0002b0 32 ac 75 bd ae a0 a2 bd 6a 7d 3d 3d 69 4f 7d bd
       -0.05997867 -0.079408035 0.046262182 -0.06184331
0002c0 ae cb 81 bd 88 6c e5 bd 72 75 ca bd 78 bc ef bd
       -0.06337677 -0.11202341 -0.09885682 -0.117058694
0002d0 a8 77 17 3d 2a b6 5d 3d ee 1c f1 bc 87 86 31 3d
       0.036979347 0.054128803 -0.02943274 0.043341186
0002e0 a2 13 27 3c f9 1e 17 bd 3e 20 b4 bb 49 29 59 bd
       0.010197552 -0.036894772 -0.0054970076 -0.05301789
0002f0 dd 63 b1 3b ab 09 e2 bb 43 20 a3 bd b6 05 d6 bb
       0.005413516 -0.006898125 -0.07965138 -0.0065314425
000300 4b 7d cc bd ae 4d 62 be cf 6b 8d bc a3 39 f7 3c
       -0.09984835 -0.22099945 -0.017263321 0.03017885
000310 cf b8 96 bd 44 46 36 bd a0 e6 50 bc c4 89 6a 3c
       -0.07359468 -0.044500604 -0.012750298 0.014315072
000320 41 4c 05 bd 92 2f 2c bd 68 0d 28 3d 25 64 16 bd
       -0.032543425 -0.042037554 0.04102841 -0.0367166
000330 52 dd 0a 3d e8 c8 c7 3d 57 d4 12 3c 20 22 0c be
       0.033902474 0.09755117 0.008961759 -0.13684893
000340 bf f4 c6 3d cb 58 e9 3c 97 21 c5 bd d9 0d 0d 3e
       0.0971465 0.028484723 -0.096255474 0.13774814
000350 16 aa 04 bd ec 58 a5 3d 1a 0d 86 3d 63 66 65 bd
       -0.03238877 0.08073601 0.06545468 -0.056005847
000360 31 3d c6 3d ac 10 26 3d 65 f4 52 3d 43 f1 8e bc
       0.0967964 0.040543243 0.051502604 -0.017449027
000370 be 10 c9 bc c3 a5 20 bd f4 d1 8c bd 60 d2 f8 bb
       -0.024544116 -0.039220583 -0.06875983 -0.007593438
000380 a1 6f a0 bb c9 e1 93 bc 29 ea 3c bd 2c 58 87 bd
       -0.0048961197 -0.018051999 -0.04612175 -0.06608614
000390 c1 d7 7d 3c df 3d c8 3c e0 da 9a bd a4 78 02 be
       0.015493334 0.024443565 -0.07561278 -0.12741333
0003a0 0e 29 0f be d7 46 74 bd 07 15 95 bd 6b 36 b3 3c
       -0.13980505 -0.05963787 -0.07279401 0.021876534
0003b0 e6 00 66 bd 61 df 9d bd bc 24 53 3d 33 e5 16 be
       -0.0561532 -0.07708622 0.051548705 -0.1473587
0003c0 c2 9a 81 3d 17 8f 3b 3c a3 3a 87 bd 40 68 72 3b
       0.06328346 0.0114476895 -0.06602981 0.0036988407
0003d0 15 da 82 bd 85 f5 92 bd 25 a4 29 be 9c 4f c2 be
       -0.06389252 -0.071757354 -0.16566522 -0.37951362
0003e0 7d 3d 2e be cd c8 ee bd ab 0e ac bd dc 53 fd bc
       -0.17015643 -0.116593935 -0.08401235 -0.030923776
0003f0 2e 9d 2b 3d 35 86 0e 3d 6f 21 1e bd b5 51 e6 bc
       0.041897945 0.03479596 -0.038606104 -0.028115133

encoder_layers.block_1.conv.bias f4 [40]
000000 32 81 99 3e 99 6d cc 3d 75 a5 df 3c cd ab 9b 3e
       0.2998138 0.099818416 0.027300576 0.3040451
000010 bd d5 45 3d 28 30 29 bb 23 22 ed 3d a8 4a 04 3e
       0.04829954 -0.0025816057 0.11578777 0.12919104
000020 ed 25 fe bc be 2f 4f 3d c3 5e 82 bd 4a e5 cd bd
       -0.031023944 0.05058264 -0.063657306 -0.10053499
000030 04 33 9b 3d 6c 3a 9b 3d d1 5a 0b 3d c1 bc 97 3d
       0.0757809 0.075795025 0.034022156 0.07409049
000040 55 1c e7 bc 8a 44 9e bc 1d 8f cb 3d b6 72 01 3e
       -0.028211752 -0.019319791 0.09939406 0.12641415
000050 ad ee f7 3d 15 60 b7 bd 50 25 9b 3c 2e 68 ad 3d
       0.12106071 -0.08953873 0.01893869 0.08467136
000060 ca 2d 9e bd 3b 38 dc ba 0d 01 dc bc c8 a5 a6 3c
       -0.07723577 -0.0016801426 -0.02685597 0.020342723
000070 76 5d 54 bc 38 b9 1f 3d 68 24 76 bb 5b 99 8b 3b
       -0.012961736 0.038994998 -0.003755832 0.0042602248
000080 ad bc e0 3b 0c 6a 45 bd d5 58 6e 3d 1a d7 c2 3c
       0.0068584294 -0.048196837 0.058190186 0.023784209
000090 38 29 5f bd 36 0f ff 3b f3 df f9 3b 56 40 cd bb
       -0.05448267 0.0077837957 0.007625574 -0.006263773

decoder_layers.block_0.conv.weight f4 [40, 10, 3, 3]
000000 69 81 3e 3e 17 18 78 3d fa dd 0a 3e c3 f5 30 3d
       0.18604054 0.06056985 0.1356124 0.043203127
000010 29 f8 01 3e 08 19 4b 3d a8 56 bc ba a3 e7 68 bb
       0.12692322 0.04958442 -0.0014369087 -0.0035538457
000020 4d 55 ab bc bd ce 04 be a7 ee 21 bd 4e 42 06 3e
       -0.020914698 -0.1296949 -0.039534237 0.1311123
000030 0f 13 c3 3a de ae 97 3e a0 d6 9c 3e f0 7f 6c bd
       0.0014882999 0.296256 0.30632496 -0.0577392
000040 4b 28 61 3e 49 f3 96 3d 8c eb 14 be c4 a1 9a bd
       0.21988027 0.07370622 -0.14542979 -0.075503856
000050 96 34 45 3e bc 5a 0d be 07 a2 f0 be f7 39 d0 be
       0.19258341 -0.13804144 -0.46998617 -0.40669224
000060 52 21 7f 3e c1 0d d9 bd 1d b5 1a 3d 74 41 9f 3d
       0.24915054 -0.105983265 0.03777038 0.07776156
000070 57 ab d1 3d ca 3a 5b bd 40 cf ae 3d e4 02 09 3f
       0.102377586 -0.053522862 0.085356236 0.53520036
000080 0a 87 60 3e ae 5c 8c 3d a1 ef d3 3d c7 74 ae 3d
       0.21926513 0.06853615 0.1034844 0.08518367
000090 4b 1d 75 3e 51 ee da 3d 01 68 55 be f6 cc 01 3e
       0.23936956 0.106899865 -0.20840456 0.12675843
0000a0 32 0d 9b bc 28 d1 1d bd d3 76 41 3d 6d 54 d4 3c
       -0.01892719 -0.038529545 0.04723246 0.025919164
0000b0 88 14 c5 bd 52 17 f0 bd 2f bc b8 3d 93 d4 9d 3e
       -0.09623057 -0.11723198 0.09020268 0.30826244
0000c0 5c c9 dd bb 77 d8 c3 be e3 ae 85 bd ee 8e aa 3d
       -0.0067683887 -0.38251087 -0.065274976 0.08328043
0000d0 09 f2 de bc 32 df 0d be 60 83 d6 bd 4b 56 68 be
       -0.02721502 -0.13854674 -0.104742765 -0.22689168
0000e0 98 cd bb bd 4e 94 1c bd f9 9a 00 be 5a f0 e1 bc
       -0.09170073 -0.038227372 -0.12559117 -0.027580429
0000f0 d3 ca d9 be 6b db ca be 42 8c 5c be 04 a2 c1 3d
       -0.42537555 -0.39620528 -0.21537879 0.0945473
000100 1d eb 94 3e 71 d3 69 3e a8 cd 4c 3e 26 62 31 3e
       0.29085627 0.22834565 0.20000327 0.17322597
000110 29 c1 2f 3e d2 c5 a9 3e 66 f3 84 3e 69 2f 9f bd
       0.17163529 0.33158737 0.25966948 -0.07772715
000120 a7 68 50 3e 0d d7 25 3e 27 b9 5f bc ff 7a 5c 3e
       0.20352422 0.16195317 -0.013654984 0.21531294
000130 47 5c 98 3d fb 78 13 3e 7a b7 79 3d 30 b3 d2 3d
       0.074394755 0.14401619 0.060965993 0.102880836
000140 20 b6 58 3e e3 4c 8c 3d 65 4d bf be ad 1d 86 3e
       0.21163225 0.068506025 -0.37363735 0.26194516
000150 9e 5d 73 be c7 b4 c3 bd 88 ed 07 3e 77 a6 a0 be
       -0.23766181 -0.09555965 0.13274205 -0.31377003
000160 f4 ff 8a bc 77 49 80 be 7a ea 0f 3e 93 01 da 3d
       -0.016967751 -0.2505605 0.1405429 0.106448315
000170 0a 6a 6a bd 69 44 de 3d 06 ac 1d 3d 44 1b 03 be
       -0.057230033 0.10852892 0.038494132 -0.1280337
000180 44 d3 1e 3d 94 b4 93 bc 03 f9 2b be 2d a9 15 bd
       0.038775697 -0.018030442 -0.16794209 -0.03653829
000190 0c ab 66 bd d8 48 ca 3a 26 04 12 3e 8f 4f 1d 3e
       -0.056315467 0.0015433086 0.14259395 0.1536238
0001a0 0b cb 4c 3d 5f 42 cb 3c 39 e0 89 3e a6 0d 3c 3d
       0.049998324 0.024811922 0.2692888 0.045911454
0001b0 cb bb 69 be b4 38 b2 bd 20 ce 8f bd 5c c5 b5 be
       -0.22825544 -0.087022215 -0.07021737 -0.35502136
0001c0 64 7a e6 be 10 f9 87 3e 3a 8a 29 be 28 99 de bd
       -0.45015252 0.26557207 -0.16556635 -0.10869056
0001d0 68 e0 d5 3d e5 2d d7 bd 07 ee 59 bd 59 9a 0f be
       0.10443193 -0.105068006 -0.053205516 -0.14023723
0001e0 d2 50 de bd a9 1d a0 be f5 d0 51 3e 03 65 39 bc
       -0.10855259 -0.3127263 0.20489867 -0.011315587
0001f0 8c e9 bd bd d0 a9 a0 3d e2 f4 a2 bb c8 67 73 3d
       -0.09273061 0.07844889 -0.00497304 0.059425145
000200 72 ff ab 3d 2d 42 73 be e2 c0 a0 bd 88 0d 7a 3d
       0.08398332 -0.23755713 -0.078492895 0.06104806
000210 c2 20 15 be 06 5c 1b be f9 2e 53 bc 31 ee 66 be
       -0.14563277 -0.15171823 -0.012889617 -0.225518
000220 1d 26 25 be fe dc 97 bd 4d 23 dc bc b5 5b a9 3d
       -0.1612782 -0.07415198 -0.026872301 0.08269445
000230 20 04 90 3c d0 8d 59 3e 8a 2c 83 3d 69 f3 b7 bd
       0.017580092 0.21245503 0.064049795 -0.08981974
000240 28 6c 2b 3e d7 2e 9a 3d 6c 69 03 be 99 eb af 3c
       0.16740477 0.07528465 -0.12833184 0.021474646
000250 93 46 6c be 88 81 60 bd 8c 11 a0 bc f9 40 da bd
       -0.23073797 -0.05481103 -0.019539617 -0.10656924
000260 3d f0 9f 3c a9 6b d0 3d 22 ad 48 3e c8 e5 37 3e
       0.019523734 0.101767845 0.19597295 0.17958748
000270 31 9f 6a 3d 6a 2e 8b 3e be 84 64 3e d0 d4 e9 3d
       0.057280723 0.2718385 0.22316262 0.11417544
000280 b8 c7 1d 3e 2f 1c d9 3d e1 40 04 3e ee af 25 3e
       0.15408218 0.10601079 0.12915374 0.16180393
000290 57 b6 98 3d 21 e2 06 b9 39 98 3d bd bc 1e 06 bd
       0.074566536 -0.00012863475 -0.04628775 -0.032744154
0002a0 24 27 a9 3d fe 14 22 be 4d c5 5c bd f8 3a 5f bc
       0.082594186 -0.1582832 -0.0538991 -0.013624899
0002b0 5f 52 b8 3d ae 33 05 3e 51 d6 47 3d ad fa a2 3d
       0.09000086 0.13007995 0.048788372 0.07957969
0002c0 8d 70 37 3e f8 08 96 bd 0e 28 e2 bc 59 bd 0a 3d
       0.17914028 -0.073259294 -0.02760699 0.033871982
0002d0 9e 01 b8 be 8b 97 02 be 48 ac 97 be 70 3a 00 3d
       -0.35938734 -0.12753122 -0.29623628 0.03130573
0002e0 1d ad 8e 3e b8 10 2f 3b 21 60 5d 3c 9b e5 74 3b
       0.2786645 0.0026712846 0.013511688 0.00373683
0002f0 58 2e 31 be 49 be 60 3e b9 bc 58 3e 95 5b e2 3d
       -0.17302835 0.21947588 0.21165742 0.11052624
000300 7f 2a 9d 3e e2 e0 2d 3e 3c 96 3e 3e a6 7f 0d 3d
       0.30696484 0.16980317 0.18611997 0.034545563
000310 20 7a 89 3d 5b 54 72 3c c3 40 19 3e 4a cc f1 39
       0.067127466 0.01479062 0.14966111 0.0004611931
000320 78 4a d2 3d cb 95 5e be b3 01 ce be 4e 67 4c be
       0.1026811 -0.21736829 -0.4023567 -0.19961283
000330 cb 26 28 3e 0d 43 e2 bd 52 f5 98 bb 96 46 83 bd
       0.16421048 -0.11047945 -0.0046679163 -0.064099476
000340 f7 74 8e bd 7e 2c 47 3d 9a 95 9f 3b 7b 02 b4 3b
       -0.06955903 0.048626415 0.004870129 0.0054934598
000350 25 be 21 3e f8 77 cc 3d 83 b1 76 3d d2 5d db 3d
       0.1579519 0.0998382 0.060227882 0.10711254
000360 2e 3c b8 bd 2c 32 82 bd f0 29 68 be b2 ab 21 be
       -0.08995853 -0.06357226 -0.22672248 -0.15788153
000370 ee 73 5a be be 60 4e be bb 8e 43 3e 98 d8 7b 3d
       -0.21333286 -0.20154092 0.19097416 0.061485857
000380 6c da 2f be 19 7e 54 3d e4 1d 36 bd b5 d5 2a 3e
       -0.17173165 0.05187807 -0.0444621 0.16683085
000390 7f 1c bf bd 5e fe 38 3e 33 55 9a be 8e b0 8f 3d
       -0.09331607 0.18065783 -0.30143127 0.07016097
0003a0 8c e9 6d 3c b3 84 60 3d 85 83 90 3e e5 08 cc bc
       0.014521014 0.05481405 0.2822534 -0.024906585
0003b0 ac cd c1 3d 90 4e f2 bd ce aa ab be c3 a7 dc bd
       0.09463057 -0.11831391 -0.3352875 -0.107741855
0003c0 7f e8 ad bc 4d 6d 2f be f6 20 27 bd 14 a2 dd bd
       -0.021229027 -0.17131539 -0.04080292 -0.108219296
0003d0 1c 79 93 3a 74 3c 3f be 3b 9e d0 3d 82 d1 8b 3e
       0.0011251303 -0.18675405 0.1018643 0.2730828
0003e0 c9 98 e6 b8 ed 37 00 bd 95 e3 4c 3e 7e 6b bd 3d
       -0.00010995713 -0.031303335 0.2000869 0.09249018
0003f0 85 08 91 3d d0 ab 4e 3e 5f 6f 00 bd d7 c8 9a 3d
       0.07081703 0.20182729 -0.03135621 0.075578384

decoder_layers.block_0.conv.bias f4 [40]
000000 47 37 5c 3f 53 13 05 3e a4 b8 fd 3e 81 b4 8b 3d
       0.86021847 0.12995653 0.49554932 0.06821538
000010 de 27 13 3e e5 41 6b 3f 2d fc 07 bd 23 43 0f 3d
       0.14370677 0.9189742 -0.033199478 0.034976136
000020 75 71 01 3f 8f 08 6d 3d 5b ce 6f 3d 1b b8 60 3d
       0.50563747 0.05786949 0.058546405 0.054863077
000030 99 d4 42 3e 05 37 e5 3d 6b fa 3d 3d df 39 59 3e
       0.19026412 0.11192135 0.046381395 0.21213482
000040 58 01 84 bc 8b ac 8f 3d a8 47 1d 3e 92 18 33 3d
       -0.016113922 0.07015332 0.15359366 0.043724604
000050 93 6e 7b 3f 35 83 12 3e 50 6b d2 3e e0 dd 40 3e
       0.982156 0.14307864 0.41097498 0.18834639
000060 c1 4b 1b 3e 0f f6 89 3f 6b 3f 08 3d 4d 9d 44 3d
       0.15165617 1.0778216 0.033263605 0.048001576
000070 ee 0f 35 3f ac 13 3f 3d 4a 67 85 3d 1e 22 3e 3d
       0.7072743 0.04664962 0.065138415 0.046419255
000080 45 6b 9c bc 15 35 dc 3c e1 e6 63 bc 68 6d 30 bd
       -0.019094119 0.02688078 -0.013910026 -0.043073088
000090 55 6b 2c bd ba 93 24 3d 1f 4f bc 3d 98 7c df bd
       -0.042094547 0.040179946 0.09194779 -0.10912436

decoder_layers.block_1.conv.weight f4 [40, 20, 3, 3]
000000 54 5a d2 bd b2 57 96 bc 1a 14 91 bd 82 83 4b bd
       -0.10271135 -0.018352363 -0.07083912 -0.049685962
000010 04 f3 80 3d 4b 90 99 bc ba 5b 4b 3d fc 39 ab 3d
       0.062963516 -0.018745562 0.049648024 0.08360669
000020 b6 72 e9 3d d1 18 22 bd d7 ac bc 3d e3 9f 9d bb
       0.113988325 -0.039574448 0.09212654 -0.0048103197
000030 af a0 69 3d 0d 31 1c 3e 76 ea 07 3e 91 4c eb 3b
       0.057038005 0.15253086 0.13273033 0.0071807583
000040 8d 7a 88 3c 39 b8 bb bb d2 af 5f bd 1f 5a 95 bd
       0.01666 -0.005728748 -0.054611035 -0.0729258
000050 3d 1e df 3b 8c b3 8e bc fd c6 db bd df 60 e1 3b
       0.0068090246 -0.017419599 -0.107313134 0.006878003
000060 a4 1d 88 bd f5 f3 10 bd ef e9 cf 3d 1f dd 63 bc
       -0.066462785 -0.035388906 0.10152041 -0.0139077
000070 93 a0 5c 3d 2c c4 05 3d ef d8 79 3d fc 12 15 3d
       0.053864073 0.032657787 0.0609979 0.036395058
000080 01 ea db 3d a2 38 8a 3d 86 91 92 3d 96 b9 b8 3d
       0.10737992 0.06749083 0.07156663 0.09019773
000090 2d 8d 1c be 9c 18 e2 bd c1 a9 02 be d2 92 4d bd
       -0.1528823 -0.1103985 -0.12760068 -0.050188847
0000a0 2b 24 1b be d9 b6 33 be c3 d3 5f 3a 0d 5d 8b 3d
       -0.15150516 -0.1755022 0.000853833 0.068048574
0000b0 87 35 c1 3c 7d 7e 8c 3d f8 6d 80 3d 6e 01 8f 3d
       0.023585094 0.06860063 0.06270975 0.069826946
0000c0 a3 2d 9a bd 16 dd ca bd 9c 28 c6 bd fe 52 1e be
       -0.07528236 -0.0990545 -0.096757144 -0.15461347
0000d0 12 34 af bd 1b fe 45 bd 03 bf 16 3e e6 c3 8b 3d
       -0.085548535 -0.048338037 0.14721303 0.06824474
0000e0 89 ef 4e 3e c5 5d f0 bd 3e bb 81 bd 39 7c 15 bd
       0.20208563 -0.11736635 -0.06334542 -0.03649542
0000f0 3e 06 fc 3c 86 8d b3 bd ff c0 49 bd 66 a8 e6 bd
       0.030764695 -0.08767228 -0.04925632 -0.11262588
000100 e9 91 01 bd 89 78 c2 bc c3 90 35 bb 63 a6 b2 3d
       -0.03163329 -0.023739116 -0.0027704693 0.08723142
000110 ec 98 5e 3d f9 07 13 bd 54 91 89 3d 3a 8c 42 3d
       0.054345056 -0.035896275 0.06717172 0.04749701
000120 0f cf 6f 3e ba 4e 0b 3e 83 b4 39 3e be 97 47 bb
       0.2341883 0.1360425 0.18135266 -0.0030455436
000130 37 f8 83 bc a1 75 38 3d ab ab 17 3d 1a 61 b1 3d
       -0.016109569 0.045034055 0.03702895 0.08661099
000140 85 57 00 3e 5d 79 11 3e 1b d8 99 3d 30 2b c7 3d
       0.12533386 0.14206453 0.07511922 0.09725034
000150 30 57 c6 3c 5e bb 50 bd a8 63 75 bd ae 7d 58 3b
       0.024211496 -0.050959937 -0.059909493 0.0033033895
000160 27 3a 7f bc dc 8a 76 bc f5 61 e5 ba 34 3a 2a 3d
       -0.015577829 -0.015047755 -0.0017500507 0.041559413
000170 a8 aa 82 3d a9 eb 95 3d a9 d4 7a 3d d1 41 02 3e
       0.06380206 0.07320339 0.061237965 0.1272042
000180 a6 da 96 3d 78 23 55 3d 3f 87 5c 3d bd 4d 9c bc
       0.07365923 0.05203578 0.05383992 -0.019080037
000190 47 46 86 bd ed 56 2e bd 61 64 b7 bd 55 3e 95 bd
       -0.06556373 -0.042563368 -0.08954693 -0.072872795
0001a0 92 04 ad bd fc b7 02 3d bd d3 bc 3b 66 f2 4f 3c
       -0.08448137 0.031913742 0.005762546 0.01269207
0001b0 4e 9f 09 be a5 71 10 be 57 45 06 be 63 9b 06 be
       -0.13439676 -0.14105852 -0.13112389 -0.13145213
0001c0 8a e8 d6 bd 04 a4 04 be 8f 9b b3 bd f7 b7 29 be
       -0.10493572 -0.12953192 -0.08769905 -0.16574083
0001d0 3a 50 c7 bd 4e 0a d0 3d 29 9e 78 bd af 66 5b 3c
       -0.09732099 0.101582155 -0.06069771 0.013391181
0001e0 c0 1d 9d bd 26 05 3e be 8c 7d b6 bd e9 3b ab 3d
       -0.0767169 -0.18556651 -0.08910665 0.08361036
0001f0 b2 42 ab bc 1c 31 df bc f9 06 dc bc 39 d2 25 3c
       -0.020905826 -0.027245097 -0.026858794 0.010120922
000200 85 61 05 bd a1 d9 4e 3d eb e7 44 3c 55 21 33 bc
       -0.032563705 0.050500516 0.012018184 -0.01093324
000210 b5 08 8d bb 49 e4 d2 3c 9b d8 d3 bc 7a 3a 99 bd
       -0.0043040165 0.02574362 -0.025860121 -0.07481857
000220 45 5a ff 3b 00 af 13 3d aa 80 7d bd 17 b9 65 bc
       0.0077927434 0.036055565 -0.06189028 -0.01402118
000230 b6 e0 94 bc ea 97 ba bb 69 1d b4 3b 51 d1 c8 3b
       -0.018173557 -0.005694379 0.00549667 0.006128468
000240 07 34 68 be 0f 11 a3 bd 47 e7 72 bd ea a9 61 3b
       -0.22676097 -0.07962238 -0.059302595 0.0034433552
000250 f0 57 c4 3d 23 ec da 3d 01 58 a3 bc 46 80 fd 3d
       0.09587085 0.10689571 -0.019939424 0.12377982
000260 da 62 88 3d 96 d0 6e 3e d8 1c 7a 3d ae 8d f8 3d
       0.066594794 0.23321757 0.061062664 0.12136398
000270 f4 5c ab 3d 42 3f 02 3c 32 f7 1b 3d ae 5a 53 bd
       0.08367339 0.007949652 0.03807754 -0.05160015
000280 70 bf bc bd ac 28 7e bd 5b 9e da 3d a3 f6 8f 3d
       -0.09216201 -0.062050506 0.10674735 0.07029464
000290 4c 01 14 bd 95 2a 1e 3e f8 4f b6 3d 34 f5 1f b9
       -0.03613405 0.15445931 0.089019716 -0.00015254767
0002a0 e7 a6 f9 bb b9 c1 3f 3d 63 47 f4 bb df f4 71 3b
       -0.0076187733 0.046815608 -0.007454799 0.0036919636
0002b0 77 36 77 bc 13 d6 6f bc 66 65 d1 bc be c2 81 bd
       -0.015088669 -0.014638442 -0.025561046 -0.06335972
0002c0 bb 1d c7 bd e1 18 b2 3c a7 ec c7 3c 90 72 94 bd
       -0.097224675 0.021740379 0.024404837 -0.072484136
0002d0 a4 ef c3 bd e3 84 e3 3d c6 ae 8c bd a9 c1 b2 3d
       -0.09567192 0.111093305 -0.06869273 0.08728344
0002e0 59 07 d2 3e 23 73 45 3e 3e 95 20 bc 5b e6 37 3d
       0.4102123 0.19282202 -0.009801207 0.04489742
0002f0 88 f1 1a be 61 92 19 3d 49 3b 5d 3e ed d4 e7 bd
       -0.151312 0.037493113 0.21604647 -0.11319909
000300 30 99 f9 3d c2 0a 9e 3e 7c 83 bd 3d 54 1b 78 3c
       0.12187421 0.30867583 0.09253594 0.015143234
000310 20 ce 4a 3e 8a 11 8b bc df e4 78 3e 9d 57 dc be
       0.19805193 -0.016976137 0.24306057 -0.43035594
000320 6c 36 58 3e 7b 30 e8 bd f2 3e 4a bf 64 50 8a be
       0.2111451 -0.11337372 -0.79002297 -0.27014458
000330 55 88 3c 3e e4 d6 c4 be f9 b6 26 3e 2b e8 e4 bc
       0.18411382 -0.384452 0.16280736 -0.027942738
000340 68 cc 9b 3d 98 30 bb bc 64 23 7e 3e 21 93 30 3f
       0.07607347 -0.02285032 0.24818188 0.689745
000350 c4 02 ed 3d 73 01 63 3d 3c 99 ac 3e ad e1 1a 3d
       0.11572793 0.055421304 0.3371066 0.037812877
000360 22 8d bc bd 11 d6 a0 be 41 07 33 be e4 d2 22 be
       -0.092066064 -0.3141332 -0.17483236 -0.15900761
000370 83 53 8e be 46 db be bd fa a0 04 3d a9 ff cf bd
       -0.2779809 -0.09319167 0.03238008 -0.10156185
000380 fd 85 91 bd 6b 6c c1 3d 84 2c 1b 3d c8 9f c2 3d
       -0.07105634 0.09444507 0.03788425 0.09503132
000390 91 fd 6a be 08 03 e7 be 96 d2 54 be d4 b4 a5 3d
       -0.2294829 -0.451195 -0.20783457 0.08091131
0003a0 bf 12 7b be 21 9b ef bd 04 90 13 3e 2f 56 98 be
       -0.2451887 -0.1169951 0.14410406 -0.29753253
0003b0 f6 cf f0 3d cd 47 46 bd 22 bf 75 be aa f6 79 bb
       0.117584154 -0.04840832 -0.23998693 -0.0038141408
0003c0 04 1d 58 be 52 e7 fa be 0d 1a 89 bc f6 7c 44 be
       -0.21104819 -0.49004608 -0.016736055 -0.19188294
0003d0 1b 69 e8 3c be 1c a2 bd dc 6a 87 bd 8f ab cb 3d
       0.02837043 -0.079156384 -0.06612179 0.099448316
0003e0 f8 90 36 3d a5 03 95 bd 47 63 03 3e 98 67 1e bd
       0.044571847 -0.07276086 0.1283084 -0.038673013
0003f0 5f b1 d3 bd 1f 99 49 3e 60 f5 96 3d c2 45 2b 3e
       -0.10336565 0.19687317 0.0737102 0.16725829

decoder_layers.block_1.conv.bias f4 [40]
000000 cc 2c 59 3c be 73 11 3f 12 84 6f 3d fa 0a 11 bd
       0.013255309 0.56817234 0.05847556 -0.03541086
000010 09 aa 04 3e 50 6d 94 3d 9a 48 c5 bc 79 fd 53 3e
       0.12955488 0.07247412 -0.02408247 0.20702161
000020 c0 ba 1c 3e 20 2a 40 3e f1 9d 04 3e 79 aa ea 3c
       0.15305614 0.1876607 0.12950875 0.02864574
000030 a6 d5 ad 3d 8f b8 42 3d 91 7a b2 3d c7 b2 42 3d
       0.08488016 0.04753929 0.08714784 0.047533777
000040 40 a5 a0 3a f9 cf 2d 3d 69 46 49 3e 95 e0 0d 3e
       0.001225628 0.042434666 0.19655766 0.13855202
000050 9f 6a f3 3d 7b 91 0f 3f fd 82 a5 3c 59 6a 26 bd
       0.11885571 0.5608136 0.020204062 -0.040628765
000060 56 6a 59 3e f4 2b 25 3d fe 1c 20 3c ea f0 7d 3e
       0.2123197 0.04032512 0.009772537 0.24798933
000070 78 76 5a 3e 69 0e 69 3e 57 2d 1f 3d 6f 63 5c bc
       0.21334255 0.22759403 0.0388616 -0.013451441
000080 6b ec 11 bd 46 74 19 bd 6e 18 d7 bc a5 f3 af bb
       -0.035625856 -0.037464403 -0.026256766 -0.005369621
000090 fc dd 26 3d 4a 4b d0 bc 48 57 b2 bc 3c d9 3c 3c
       0.040739045 -0.025426526 -0.021770135 0.011526402

read.weight f4 [1, 10, 1, 1]
000000 ef ce d5 bd b9 8a d5 3e d6 58 16 3e 07 32 64 be
       -0.1043986 0.417074 0.14682326 -0.22284709
000010 2a 19 a4 3e f6 d4 ef bc ac a1 26 3e 16 ce 79 3e
       0.3205045 -0.029276352 0.1627261 0.24395022
000020 92 3e 36 be 91 8e d5 bd
       -0.17797306 -0.10427583
