trainedModels/all-40/lateral/1/3/run3/model.pt (torch, 206377 bytes, 19 tensors)

init.weight f4 [25, 1, 1, 1]
000000 17 08 6c bf f5 e8 4d bf 41 4d 43 bf 2f 0a 28 3f
       -0.92199844 -0.8043359 -0.76289755 0.6564054
000010 86 15 e2 be 20 88 47 bf e1 4d 13 3f 2b 8a 70 3f
       -0.44157046 -0.77942085 0.5754071 0.9396083
000020 98 b2 33 bf ec 5a 43 3e 77 ff 62 bf 2b 7d f9 be
       -0.7019439 0.19077653 -0.8867106 -0.48728308
000030 4e 4a e7 be ed bc 6a be aa 06 4c bf 5b fd 6a 3f
       -0.45173877 -0.22923632 -0.7969767 0.9179284
000040 52 d7 15 bf 2e 76 01 bf 7c ed 75 3e 17 09 60 bf
       -0.5853168 -0.5057095 0.24016374 -0.8751387
000050 17 80 75 3e ba fe 3e 3f 1a 55 b8 3e 75 d9 65 3e
       0.23974644 0.7460743 0.36002427 0.22446235
000060 5d 50 16 3e
       0.14679094

init.bias f4 [25]
000000 10 e4 4a bd e7 f8 06 3e 01 ec 10 be 8c ed cf 3e
       -0.049533904 0.13180886 -0.14152528 0.4061092
000010 99 3c 46 3e 19 43 68 3e ee 18 4e 3e 9e c7 26 be
       0.19359054 0.22681846 0.20126697 -0.16287085
000020 cc 54 a8 3e f9 b4 43 bc d7 c4 a7 bd ca 06 64 3e
       0.32877195 -0.011945003 -0.08191841 0.22268215
000030 2a 2a a7 be 60 25 82 3c 29 f1 9e 3d 4c 70 c8 be
       -0.32649356 0.015886962 0.077608414 -0.39148176
000040 af fa 40 3c 87 d4 17 be fe 52 4e 3e 4d ed b0 3e
       0.011778518 -0.14827166 0.20148847 0.34556046
000050 54 47 0b 3e fc e9 06 be 2c 42 e6 bd 7f d6 e5 3d
       0.13601428 -0.13175195 -0.1124309 0.112225525
000060 ee 10 36 3d
       0.04444974

encoder_layers.block_0.transition.weight f4 [25, 50, 3, 3]
000000 b3 a9 1c 3e 77 7f 12 3e 76 43 03 3e ba 3c 0d 3e
       0.1529911 0.14306436 0.12818703 0.13792697
000010 72 66 35 3e ef 80 0f 3e e5 27 21 3e 51 eb 29 3e
       0.17714861 0.14014028 0.15737875 0.16593672
000020 06 b2 01 3e 34 8f 94 3d 06 18 3d 3d ae f7 54 3d
       0.12665567 0.07253876 0.04616549 0.05199402
000030 f2 5d 90 3d b8 7a c6 3d b0 46 99 3d 90 d0 73 3d
       0.07049169 0.096913755 0.07484186 0.059525073
000040 02 55 88 3d 19 95 7d 3d 9f 5c 4d 3d 0e 5b 8b 3d
       0.06656839 0.06190977 0.05013716 0.06804477
000050 fe b8 1b 3d 22 d4 37 3d 90 c8 3f 3d d0 15 60 3d
       0.03801822 0.04488004 0.04682213 0.054708302
000060 bf c1 8f 3d 67 43 3b 3d 7c 05 39 3d 24 53 de bc
       0.07019376 0.045718577 0.045171246 -0.027139254
000070 4f d5 1a bd 16 04 0c bd 3f 69 52 bc 6d 3f 55 bd
       -0.037801083 -0.034183584 -0.012842475 -0.05206244
000080 85 3e e8 bc f5 cf 16 bd 64 72 0c bd 01 be 41 bd
       -0.028350124 -0.036819417 -0.03428878 -0.047300342
000090 80 e2 44 bc a2 68 89 bb 47 dc dd bb 47 d1 ad 3b
       -0.012016892 -0.0041933814 -0.006770644 0.005304489
0000a0 0b 7e a8 bb 50 34 d6 3c 7c 59 df bc f2 80 27 bc
       -0.0051419786 0.026147991 -0.02726435 -0.010223614
0000b0 47 40 81 3c c2 1e b9 3c 62 c8 02 3d d2 53 0c 3d
       0.01577772 0.022597674 0.03192938 0.034259625
0000c0 c3 c8 ad 3c aa 82 7f 3d 82 86 48 3c b2 9b f0 3c
       0.021213895 0.06238047 0.0122391 0.029371116
0000d0 da 23 54 3d df 0f a2 3c 4d e6 06 bd 33 35 0d bd
       0.051792003 0.019782959 -0.032934476 -0.034474563
0000e0 4d dc af bc d4 bf c0 bc 4f f1 23 bd 61 70 2c bd
       -0.021467352 -0.02352897 -0.04002505 -0.04209936
0000f0 80 c7 0a bd f3 4e f8 bc 89 09 27 bd dd f4 7f bd
       -0.033881664 -0.030311083 -0.040780578 -0.06248938
000100 f7 27 9c bd da 63 8b bd 3e 9e 62 bd 41 c9 c4 bd
       -0.0762481 -0.068061545 -0.055326693 -0.09608699
000110 3d c8 a4 bd 0f dd 96 bd cb c6 b8 bd b2 29 1a bd
       -0.08046005 -0.07366382 -0.09022292 -0.03763742
000120 8a 4c 10 3d 21 91 ff 3c 1e 3e ab 3c cc a3 07 bc
       0.035229243 0.031197133 0.020903643 -0.008278798
000130 f4 91 13 3d 93 88 dc 3b 30 97 81 3b 70 61 c1 3c
       0.036027864 0.006730148 0.0039547905 0.023606032
000140 ad df d7 bb b1 0c 26 bd e1 68 8d bb b1 26 97 bc
       -0.0065879435 -0.040539447 -0.004315481 -0.018451067
000150 b7 77 b0 bc 60 99 5a bc 51 7b 81 bc 9e da b2 bc
       -0.02154146 -0.0133422315 -0.015805872 -0.02183276
000160 fb e1 19 bd 68 37 8a 3a 82 19 d3 3d f0 af b4 3d
       -0.037569027 0.0010545077 0.103075996 0.0882262
000170 64 1d 95 3d 10 57 ca 3d a6 21 14 3e 40 0e ca 3d
       0.072809964 0.09879887 0.14465961 0.09865999
000180 34 14 d8 3d 97 c5 f9 3d c9 85 a7 3d 36 18 59 3c
       0.105507284 0.121958904 0.08179814 0.013250401
000190 73 a7 c3 bc e2 fb 91 bb 12 fa 0a 3c 9b e0 30 bc
       -0.023883557 -0.0044550756 0.008482473 -0.010795738
0001a0 e3 2f 96 bc 96 6b c0 bc 2c 2b cd bb 41 b7 fb 3b
       -0.018333381 -0.023488801 -0.00626125 0.0076817577
0001b0 1b 53 85 3c 60 62 0e 3c b1 fe fa 3c f3 66 32 3c
       0.01627498 0.008690447 0.030639024 0.010888803
0001c0 c6 c9 a7 3c 40 a6 3d 3c fd d8 9c 3c 1c 0f 25 3d
       0.020481955 0.011575282 0.019146437 0.040297613
0001d0 4a ee c4 3a 05 22 a0 3c 30 39 bf 3c ee 78 a5 3c
       0.0015024629 0.019547472 0.023342699 0.020199265
0001e0 63 cf d3 3c b8 7b 9f 3c c1 d7 ea 3a b0 e1 08 3d
       0.025855726 0.019468173 0.0017917083 0.033418357
0001f0 b9 a8 01 3d c0 75 c2 3c dc 74 ff 3d bf 77 05 3e
       0.031655047 0.023737788 0.12473461 0.13033961
000200 41 f9 ea 3d 6e 32 07 3e 05 d2 25 3e 9f 05 18 3e
       0.11473323 0.13202831 0.16193397 0.14845894
000210 93 60 ee 3d 72 05 19 3e 6a d6 ae 3d 88 97 db bc
       0.11639514 0.14943483 0.0853699 -0.026805654
000220 d8 8c c5 bc 65 2a 09 bc 56 3a f4 bc fe 84 07 bd
       -0.024115011 -0.008371924 -0.029812973 -0.033085816
000230 7b 0d a2 bb 05 20 15 3c 32 98 fd bb 8f 5d 15 bd
       -0.0049454547 0.009101872 -0.0077390904 -0.036466178
000240 21 bf 6e 3e f0 03 88 3e 62 d5 56 3e 0e fe 7a 3e
       0.23315097 0.26565504 0.20979837 0.24510977
000250 2d 5c 98 3e a0 c9 8b 3e 6e 90 87 3e d1 4d a8 3e
       0.29757825 0.27302265 0.2647738 0.3287187
000260 5c 2d 88 3e 6f ad 2d 3c 25 1e 0a 3d aa 57 2c 3d
       0.26597106 0.010600432 0.033720154 0.04207579
000270 7a 93 9e 3c 0a 3e 12 3d ca 30 e0 3c 2a ce 81 3d
       0.019357432 0.035703696 0.027367014 0.06338151
000280 96 99 18 3d cb c4 0a 3d 08 95 fa bc 60 2b ac bc
       0.037255846 0.033879083 -0.030588642 -0.021016777
000290 03 e9 b0 bc 21 3e 07 bd fe 61 08 ba 26 54 52 bc
       -0.021595484 -0.033018235 -0.000520259 -0.012837445
0002a0 49 b7 1b bd 01 fb 1d bb fa 98 0e 3c 4f d4 c1 3c
       -0.03801659 -0.0024105909 0.008703465 0.023660807
0002b0 53 d6 3f 3c f4 49 48 3d cb f2 03 3d 8a c6 3a 3d
       0.011708814 0.048898652 0.032213967 0.045599498
0002c0 d8 3b ff 3c d0 3e ee 3b 1c f1 8b 3c 97 bf ac 3c
       0.031156465 0.0072706714 0.017082743 0.02108745
0002d0 f1 a2 e2 bc de 98 49 bb fb ff d7 bb a7 38 34 bd
       -0.027665587 -0.0030761282 -0.0065917945 -0.04399934
0002e0 09 4d 1f bc 0f 98 9e bb 15 97 d8 bc fb e3 15 bd
       -0.009722956 -0.004839904 -0.026439229 -0.036594372
0002f0 cc a9 97 3b bc e5 3c bd 86 00 34 bd df 5a 21 bd
       0.0046283957 -0.04611753 -0.04394581 -0.039393302
000300 6a 48 a8 bc 41 31 48 bd 27 9a 1e bd 27 1b e7 bc
       -0.020542342 -0.048875097 -0.03872123 -0.02821119
000310 c7 e8 88 bd 71 35 57 bd 6e 63 15 3c 33 c6 27 3c
       -0.06685024 -0.0525412 0.009117944 0.0102401255
000320 37 80 05 3b 33 32 b1 3c fe 73 f3 bc c2 35 81 bc
       0.0020370611 0.021630382 -0.029718395 -0.015772704
000330 8d ab 06 3c 1b 4c 10 3c 4c 04 75 bc fd e8 68 bc
       0.008219612 0.008807207 -0.014954638 -0.014215705
000340 56 c1 39 bd cc 14 3a bc 27 da a6 bb 3c 86 97 bc
       -0.045350395 -0.011357497 -0.0050919238 -0.018496625
000350 30 ce 88 bb 54 6d 44 bd 3c 86 29 bd 13 ca cd bc
       -0.00417497 -0.047955826 -0.04138778 -0.02512077
000360 86 1b 9c bc 2f 27 18 bd 26 84 13 bc fd cf c1 bc
       -0.019056093 -0.037146743 -0.009003675 -0.023658747
000370 f9 4a 68 bc 37 37 83 bb 7e fd 9e bc 9d 10 f3 bc
       -0.014178031 -0.004004385 -0.019407984 -0.029671008
000380 2a a6 ae bc 1a f2 33 bd a8 f6 2a bd 8b 5c 9b bd
       -0.021319468 -0.043932058 -0.041739136 -0.075860105
000390 7e db a8 bb 6d 0d 8c 3a ff 40 22 bc 78 55 5c bd
       -0.0051531186 0.0010685154 -0.009903192 -0.053792447
0003a0 13 dc c1 bc 73 4e fd bc 1b 85 54 3c 72 a9 05 3e
       -0.02366451 -0.030921197 0.012971188 0.1305292
0003b0 b6 88 94 3d a8 90 cc 3d fd 23 60 3d 25 a7 0a bd
       0.07252638 0.099885285 0.05472182 -0.033850808
0003c0 76 53 b7 bc 2b 67 aa bd 93 94 f5 bb 9b d0 9c 3b
       -0.022378664 -0.08320459 -0.007494518 0.00478561
0003d0 a0 7f 5f bc 82 f4 42 bd 15 18 0a bd 70 1e 67 bd
       -0.013641268 -0.047596462 -0.033714373 -0.05642551
0003e0 de 8b 75 3c 58 3a f6 3c bd 40 9d 3c 29 7c 2a 3a
       0.01498696 0.030057117 0.019195909 0.00065034867
0003f0 f2 05 1a bc 5a 0f 2a bb ca e8 c2 bc bf 8a fe bc
       -0.009400832 -0.0025949092 -0.023792643 -0.031072019

encoder_layers.block_0.transition.bias f4 [25]
000000 be a1 84 3c e0 b5 e1 3c 7a 6f c4 ba 9a 14 c9 bc
       0.016190406 0.027552545 -0.0014986836 -0.024545956
000010 f7 c9 3e 3d b1 62 3b 3d 89 97 05 bc b5 e9 07 3d
       0.046579327 0.045748416 -0.008153805 0.033181865
000020 4a 37 00 3c 39 46 6f 3d 7a f6 31 bb 73 a1 ad ba
       0.007825682 0.05841658 -0.0027154968 -0.0013246968
000030 00 ee 69 3c d0 da 94 bd 51 b1 c6 bc 36 86 9b 3d
       0.014277935 -0.07268298 -0.024254473 0.07593958
000040 80 42 6b bd f6 c6 7c bc d7 a3 6e 3c 23 d0 42 3d
       -0.057436466 -0.015428295 0.01456543 0.047561776
000050 0a 15 ef 3c 26 ce 2b bc ce af 2d bd 7d 8a 72 bc
       0.029184837 -0.010486161 -0.04240399 -0.014803526
000060 52 cd 4d 3d
       0.050244637

encoder_layers.block_0.conv.weight f4 [100, 25, 1, 1]
000000 7b b0 c8 bd 7b 96 21 3e 2e 2e f7 3d 2c b6 b5 3c
       -0.09799286 0.1578006 0.12069355 0.022181593
000010 89 18 34 3e 4d 16 2d be 5e a2 91 3c 74 3f f2 3d
       0.17587484 -0.16903038 0.017777618 0.11828509
000020 fe 68 ee 3c 47 60 9d bd 92 75 97 3d cc 31 45 be
       0.029102799 -0.07684379 0.07395472 -0.19257277
000030 ea d6 7f 3d 19 3c d1 bd 91 1e 7b 3d d2 40 ae 3d
       0.062460817 -0.10216541 0.061308447 0.08508457
000040 96 ca 9c bd 38 8a 51 3d 71 1e 08 3e 60 aa 30 3e
       -0.07655828 0.051157206 0.13292862 0.17252493
000050 15 0d 43 3d f1 26 62 bd 64 e8 98 bd 7d cd d0 3c
       0.047619898 -0.05521292 -0.074662 0.02548861
000060 cc 0c 28 be 52 b9 d2 bd 42 a5 80 3a a5 2c dd 3d
       -0.16411132 -0.10289253 0.0009814876 0.10799531
000070 77 95 0c bd f2 2c d6 3d 8d cc 72 3d 96 52 f0 3c
       -0.03432223 0.104577914 0.059277106 0.029336255
000080 15 99 e3 bd f1 fa 3b 3d 31 67 95 bd 1a 25 33 3d
       -0.111131825 0.045893613 -0.07295073 0.043736555
000090 13 ad 19 bd e3 17 6a bd f6 4d c2 bd 5e 94 55 bd
       -0.037518572 -0.057151686 -0.09487526 -0.052143447
0000a0 54 9c 8e 3d 20 43 11 3d e8 06 04 3c d5 06 8f be
       0.06963411 0.035464406 0.008058287 -0.279349
0000b0 55 64 0a 3c 49 0c 11 3d ff 8a f5 bc b8 78 19 3e
       0.008446773 0.035412107 -0.029973505 0.14987457
0000c0 78 f5 0f be 0f 19 2d bd 42 15 06 be b7 bd f1 3b
       -0.14058483 -0.042260226 -0.13094047 0.007377352
0000d0 3d 02 c7 be 89 19 a4 bd 7b e9 e1 3d 97 45 7f 3c
       -0.38868895 -0.08012683 0.11030861 0.015580556
0000e0 02 fa 1f bd ad 40 82 3e d2 3f 84 bb 25 27 a4 3d
       -0.039056785 0.2543997 -0.0040359283 0.08015279
0000f0 36 ed 0a bb e4 3e 9c bd 93 19 85 bd e1 be 2d be
       -0.0021198518 -0.07629183 -0.064990185 -0.16967346
000100 b8 bc 13 be 6a 75 19 3e 67 a0 da be d8 e2 f2 bd
       -0.14427459 0.14986196 -0.42700502 -0.11859673
000110 7e ec af bd f4 5b 20 3d 4e 0a 3b 3e 27 b7 10 3d
       -0.08590029 0.039150193 0.1826565 0.035330918
000120 16 f3 10 be ff f8 d1 bd 12 56 49 bd b2 25 27 bc
       -0.1415523 -0.1025257 -0.04915435 -0.010201858
000130 93 78 88 3d 91 06 43 3e 97 4c f8 3d ba 0d 35 bd
       0.06663623 0.19045474 0.12123983 -0.044202544
000140 c7 0c 6c bd da 90 65 3d 8a 8d fa bd 65 58 15 3e
       -0.057629373 0.056046344 -0.12234028 0.14584501
000150 f1 07 f0 bd e6 15 8e 3d 7c ca 4a 3e 4b f7 61 3e
       -0.11720265 0.069377705 0.19803804 0.22066991
000160 bb 7b 8b bd 7b 98 4e be 42 ec 75 3d 07 6a 53 be
       -0.06810709 -0.20175354 0.060039766 -0.20645915
000170 3f fa cb 3d 39 9b 07 be d6 38 ed 3c ef 75 ce bd
       0.0995984 -0.13242806 0.028957766 -0.10081088
000180 75 02 38 be e7 0c 7b 3c 95 f6 ee 3d 21 07 9d bc
       -0.17969687 0.0153229 0.116681255 -0.019168438
000190 d6 f7 a1 bd f7 0d 87 bd 75 58 f9 bb 79 a1 70 3e
       -0.07908599 -0.065944605 -0.007609422 0.23499097
0001a0 29 c2 24 3e 7f 30 22 be b0 d4 38 3d 65 f1 ed 3d
       0.16089691 -0.15838812 0.04512471 0.11618308
0001b0 41 d5 6a 3e 83 bf 14 be b8 2c e6 bd 23 46 82 3e
       0.22932912 -0.14526181 -0.11238998 0.25444135
0001c0 12 42 54 bb 3e dc 6c 3d ee 38 d3 bd fe 29 30 3e
       -0.0032388014 0.057827227 -0.10313593 0.17203519
0001d0 2f b1 51 bd bd e9 9d 3d 1b a7 60 be 70 84 15 3e
       -0.051194366 0.07710598 -0.21938746 0.14601302
0001e0 e0 89 bd bc 5d 08 9d bd 33 c3 82 bd 0e cd da 3d
       -0.023137033 -0.07667611 -0.063848875 0.10683642
0001f0 a4 52 98 bd 77 ba 73 bd 85 a9 4a 3e 2f 70 87 bd
       -0.074376374 -0.059504 0.19791229 -0.06613194
000200 53 31 9c 3b 1e cf c7 3c e9 4a 20 be be be 80 bd
       0.004766622 0.024390753 -0.15653576 -0.06286381
000210 6a fd 77 3e 06 cd f0 bd ec 8d f9 bc ee 4a 10 3e
       0.24217764 -0.11757855 -0.030463181 0.14091083
000220 cc cc d0 3c 7c 34 71 3e c5 4e 5d be a4 0c 1c be
       0.02548828 0.23555177 -0.2161208 -0.15239197
000230 53 b9 e8 3b cf 4d 1a be ce 41 d9 bd ad 13 e1 3d
       0.0071021705 -0.15068744 -0.106082544 0.10990081
000240 7b 71 05 3e 46 51 74 bd 9b 24 ce 3d d5 d9 d6 bd
       0.1303157 -0.05964782 0.10065576 -0.10490767
000250 7a 27 83 3d 3d f8 ae 3b 3a 79 9e 3d de eb ff 3c
       0.06404014 0.005339651 0.07737966 0.0312404
000260 6b 3b 72 be 4b f7 9a 3e 69 58 06 3e ed 1c 7f be
       -0.23655479 0.30266795 0.13119663 -0.24913378
000270 58 c4 a5 3d 5b 39 3e 3e 76 6e 6f be e8 21 a6 3d
       0.0809409 0.18576567 -0.23381981 0.08111936
000280 f9 97 4a 3e 83 6f 3b bc 8c 95 91 3d 37 a7 1c bd
       0.19784535 -0.011440161 0.07108602 -0.038245406
000290 9d 16 2e be 0d 95 90 3e e0 25 9f be 75 b0 01 bd
       -0.17000814 0.28238717 -0.31083584 -0.031662423
0002a0 6a 43 08 be 53 73 89 3d 32 b6 16 3d 8b 1f 5b 3e
       -0.13306966 0.067114495 0.03679485 0.21398751
0002b0 b1 23 39 be dd 90 ad bd df e0 68 be 4e ec 05 3e
       -0.18080021 -0.08474896 -0.22742032 0.13078424
0002c0 3f 3a 85 bd ba d7 d7 bc 85 b3 fb bc 02 20 40 bd
       -0.0650525 -0.026347984 -0.03072525 -0.046905525
0002d0 9a c4 6d 3d 3e 88 b4 3d 1a ea 04 be e5 0b 9c 3d
       0.058048822 0.08815049 -0.12979928 0.07619456
0002e0 d1 fc 82 3d d3 92 04 be de 12 81 bd f2 3d 9d bd
       0.06395877 -0.12946634 -0.06302427 -0.07677831
0002f0 ae a6 7b 3d 99 1a 92 3d 8a 23 8f 3d 8f 5d c4 bd
       0.061438255 0.07133979 0.069892004 -0.095881574
000300 bf a0 4d 3d 5e 08 00 3e df fb e5 3c ad ee 4e 3d
       0.050202128 0.12503192 0.028074203 0.050520588
000310 69 e7 b7 bd df 17 ae bd 67 89 b4 bc db f9 49 3d
       -0.08979685 -0.08500647 -0.022038175 0.049310546
000320 07 39 54 bd 2a 33 91 bd 20 37 1f bc 03 4a 25 be
       -0.051812198 -0.07089837 -0.009717733 -0.16141514
000330 6b 7b 50 3e e6 ea 55 3e 22 7e b3 3c 42 2f 4d 3e
       0.2035958 0.20890388 0.02191073 0.20037559
000340 42 1d 4e 3d 28 85 8d 3d b7 70 74 be b1 9b 6a bd
       0.05032087 0.06910163 -0.23871122 -0.057277385
000350 c9 e2 8d 3e 36 58 b8 be 0f 6e 51 be bf 76 a7 3e
       0.27712086 -0.360048 -0.2045214 0.32707784
000360 cc 1f ec be 68 09 9b bd a7 f6 61 be 76 56 98 3e
       -0.4611801 -0.075701535 -0.22066747 0.29753464
000370 50 22 1f 3e b9 7d 69 3e 17 ee 70 be 0d ce 0d be
       0.15540433 0.22801866 -0.23528324 -0.13848133
000380 11 95 4c bd ad 15 19 be ac d8 c9 3c 2c 78 ba be
       -0.04994685 -0.14949675 0.02463945 -0.3641981
000390 1f a0 4a 3c c1 76 57 3e 0a d1 04 be a8 12 3a bd
       0.012367277 0.21041395 -0.12970367 -0.04542795
0003a0 1b ed 4e 3e 7e cd d3 3c 0b cf 19 be a4 82 af 3d
       0.20207636 0.025854822 -0.15020387 0.085698396
0003b0 1d b3 ff 3c fb 9e bf 3b 45 e2 8d 3c 77 30 02 3e
       0.031213338 0.0058478094 0.017319808 0.127138
0003c0 a2 03 c9 3d f0 f8 7b 3d dd e8 a8 bd 27 26 5b be
       0.09815146 0.061516702 -0.0824754 -0.21401273
0003d0 ce c2 db 3d 0c 70 df bd 75 ae 86 be 35 ba a7 3e
       0.107305154 -0.10910043 -0.26304975 0.32759252
0003e0 b5 cf cb 3d 27 a7 69 be 88 70 3f be 95 c4 ce 3d
       0.09951726 -0.2281767 -0.18695271 0.10096089
0003f0 b1 ed ac be 76 5e ca 3d 3e ac 53 3e b8 e1 7d bd
       -0.33775094 0.09881298 0.20671174 -0.06198284

encoder_layers.block_0.conv.bias f4 [100]
000000 42 84 33 bc 5d 4a d4 bb df 3f cc 3d c6 70 c4 bc
       -0.010956826 -0.0064785914 0.0997312 -0.023979556
000010 c6 1b b2 bd ff 82 b3 3d 9f a5 2b 3d f6 e2 26 3d
       -0.086967036 0.0876522 0.041905995 0.04074379
000020 4e d4 82 3e 89 34 16 3d 0a 2c d0 3c e9 8f 12 bd
       0.255526 0.036671195 0.025411624 -0.035781775
000030 99 7a 37 bd 80 6d 2e 3e 56 d8 69 bb 84 c0 65 3d
       -0.044794653 0.17033958 -0.0035681925 0.0560918
000040 77 7d da bd 61 a7 aa 3d 37 93 95 bd 40 ea 1e bd
       -0.10668462 0.08332706 -0.0730347 -0.038797617
000050 56 52 a4 3e f9 c0 ab bd 1d 09 b0 bd 9a d5 48 bc
       0.32094067 -0.08386416 -0.08595488 -0.012257958
000060 e6 a3 ae bc 81 4d 06 3e e2 dd ac 3d 40 a3 c2 3d
       -0.021318387 0.13115503 0.08440758 0.09503794
000070 10 1c 6c bd 85 4d 0d 3e 28 6a 4e bb a4 1d 9c bd
       -0.05764395 0.13799103 -0.003149638 -0.07622841
000080 15 df 22 3e 3f 67 01 3e bc 73 ee bd 69 95 8e bb
       0.15905412 0.12637042 -0.11643168 -0.004351307
000090 5c cc 4c 3d 65 7b a6 3d eb a9 b1 bc 44 18 e6 bd
       0.04999958 0.081290044 -0.021687469 -0.11235097
0000a0 29 db db 3c b6 f4 cb 3d f3 e8 42 be 69 49 b5 3d
       0.026837902 0.09958784 -0.19034176 0.088518925
0000b0 33 b8 52 3e 67 e2 12 3e 2c db 3a 3d 53 bf d5 bd
       0.20578079 0.14344178 0.045619175 -0.10436883
0000c0 3f 8e f4 3c bd 73 26 3d fb 05 f7 bd ce 1b 18 3e
       0.029852984 0.04063772 -0.120616876 0.14854357
0000d0 05 f7 4d 3d 68 c4 05 3e 17 b4 89 bd 02 bc 6c 3d
       0.050284404 0.13063204 -0.067238025 0.057796486
0000e0 bf 5d b9 3c 94 f4 8c bc 11 f9 b6 3e 7e d2 97 3d
       0.02262771 -0.017206468 0.35736898 0.07413195
0000f0 2d 75 8b bd 9c 94 93 3d 90 a3 bf 3b 05 e9 08 3e
       -0.06809459 0.07206079 0.0058483556 0.1337014
000100 77 89 e0 bd 64 f9 b3 3d d2 bd 4b bd 7e 30 e5 3c
       -0.10963719 0.08787802 -0.049741574 0.027977224
000110 a5 0e fd 3d 16 b6 15 bd 71 d6 31 3f ef 78 06 3d
       0.12356309 -0.036550604 0.69467837 0.032830175
000120 be 08 86 3e 87 7b a1 3d 94 7d 60 bd c7 bf a3 bd
       0.26178545 0.07884889 -0.05480726 -0.07995563
000130 03 ed c6 bc bf c7 5a 3c b4 04 13 3d 36 84 f5 bd
       -0.024282938 0.013353287 0.035893157 -0.11988108
000140 94 f0 be 3d 00 8c 02 3e 7f be d8 3d c3 61 70 bd
       0.093232304 0.12748718 0.10583209 -0.058686983
000150 73 20 0b bb 55 8f 76 bd cf 8e 2f 3d d1 f8 45 bd
       -0.0021229058 -0.060195286 0.042860802 -0.048332993
000160 be 6a da 3c 98 81 54 3d 19 e2 ce 3c a2 2c 87 bd
       0.026662227 0.051881403 0.025254296 -0.0660031
000170 cf a1 8c bd 7e 73 ac 3c 60 26 0f bd ed cd db 3c
       -0.068668 0.021051165 -0.034948707 0.026831592
000180 ab 66 3a 3d 3f 78 36 3d ca 84 90 bd c3 90 45 bd
       0.045508068 0.04454827 -0.070565775 -0.04823376

encoder_layers.block_1.transition.weight f4 [25, 50, 3, 3]
000000 28 e9 17 bd e6 ed 20 bd 66 21 ad bd 7d 75 ec bc
       -0.03708759 -0.039289378 -0.08453636 -0.028864617
000010 8f 2b a6 bd c1 5d 8d bd 3d e0 42 bc a2 cd 71 bd
       -0.08113777 -0.06902648 -0.011894283 -0.059033997
000020 16 67 4f bd a6 54 87 3c 7c 18 ae 3d 04 43 38 3d
       -0.05063542 0.016519856 0.08500764 0.044985786
000030 80 0b c3 3c 65 46 db bc e8 6b de 3c 8b 72 b2 bb
       0.023809195 -0.026766965 0.027151063 -0.0054457835
000040 0e d0 1f 3a a7 49 01 bd 9f e0 05 bd 94 d9 a9 bd
       0.0006096371 -0.03156438 -0.03268492 -0.08293453
000050 79 c1 9c 3d 31 bf 4b bd 48 59 14 bd b3 e2 39 bd
       0.076540895 -0.04974288 -0.036217958 -0.045382213
000060 1d dd f4 3c fe e3 ff bc 1b 2b 2b 3d 28 6e 02 bc
       0.029890591 -0.031236645 0.041789155 -0.007960834
000070 a1 45 6e 3d 5b 42 f4 ba 23 2e 83 3c 53 8c b9 3d
       0.058171872 -0.0018635498 0.01601321 0.09059968
000080 f3 4c 75 3d 10 f4 e5 3b 2a 02 78 3d 47 1b 12 3d
       0.059887838 0.00701762 0.06054894 0.035670545
000090 35 c4 45 bd 21 fe 8b bd 36 e5 23 bd cb 3e 2c bc
       -0.04828282 -0.068355806 -0.040013514 -0.010513018
0000a0 6e c8 e0 bd 2f b7 00 bd ab 88 43 bc 37 9d 5f bd
       -0.10975729 -0.031424697 -0.01193444 -0.05459329
0000b0 ea 63 be 3c 28 b5 3d 3c 72 5b a3 3d 23 10 79 3d
       0.023241002 0.011578836 0.07976426 0.060806405
0000c0 c6 37 73 3d dd 17 14 3d 08 e6 9d 3d d6 89 a2 3c
       0.05937936 0.03615557 0.077098906 0.019841116
0000d0 f0 85 aa 3c 42 3e f9 3b 21 ec 83 bd d6 63 05 3d
       0.02081582 0.0076062987 -0.064415224 0.032565914
0000e0 cc 37 c0 3c 6c f6 63 bd 3b b8 a2 bd 50 b2 97 3d
       0.023464106 -0.055654928 -0.079452954 0.07407057
0000f0 33 84 76 bd 3c 71 3e 3d 58 3e f2 3c c5 28 5d bc
       -0.06018467 0.046494707 0.029570743 -0.01349849
000100 d2 3e 59 bc a1 1d c2 3b 18 c0 20 bc 35 55 db bc
       -0.013259606 0.005923942 -0.009811424 -0.026774028
000110 04 e3 8a 3b 68 ae 12 3c df e9 11 3d 57 89 f7 ba
       0.004238488 0.0089527145 0.035623427 -0.0018885535
000120 4b 33 e3 3c 89 d1 13 3c fd 12 19 bc ed 45 c5 3d
       0.02773442 0.009022125 -0.009342906 0.09632478
000130 5a 5a 9c 3d f5 c4 eb 3c a8 73 a3 3d 28 a6 c9 3d
       0.07634421 0.02878044 0.07981044 0.09846145
000140 a8 ec 98 3d b4 38 0f bb 08 a1 1c bc 57 c3 7f bd
       0.074670136 -0.0021853866 -0.009559877 -0.06244215
000150 a3 a7 80 bc b4 f3 0f 3d a7 d4 96 3d 23 af f4 3b
       -0.015704935 0.035144523 0.07364779 0.007467167
000160 1e 1b 24 3c c4 f4 f4 3c 9d 78 1d bd 58 b3 72 bd
       0.010016231 0.02990187 -0.038445104 -0.059253067
000170 be 56 80 bd 58 23 8d 3b 39 0a 92 bd 11 a6 58 bc
       -0.06266545 0.004307192 -0.07130856 -0.013223187
000180 36 27 6d bd ec 94 06 3c 85 08 6b 3b c6 35 15 3c
       -0.057898723 0.008214217 0.0035863232 0.009107059
000190 4f d5 5e bd 73 1e b4 bb 9b 45 9e bb e1 49 e8 bc
       -0.054402646 -0.005496794 -0.004830075 -0.02835554
0001a0 ce 69 6d bd 6a cf 6c bb 71 49 16 bd 7d 01 3c bd
       -0.05796223 -0.003613437 -0.036691133 -0.045899857
0001b0 2f 4c 7e 3b f3 51 cc 3d 70 c0 55 3c db 2a 75 3d
       0.0038802733 0.09976568 0.013046369 0.059855323
0001c0 5f f5 27 3c d2 f1 ef 3b e6 1b 8d bd 94 1f 94 bd
       0.010251372 0.0073225284 -0.06890087 -0.072325855
0001d0 2d e2 8b bd eb 7b 0c bd c6 fd f3 bc 1c 45 1e bd
       -0.06830249 -0.034297865 -0.029784095 -0.038640127
0001e0 e0 be 99 3b 29 79 80 bc 07 e4 09 bd bc dc 54 3b
       0.0046919435 -0.015682774 -0.03366473 0.00324802
0001f0 b7 8b 7c bd 1e 89 a3 ba 37 1c 3f 3d 87 76 06 3c
       -0.06165668 -0.0012476777 0.046657767 0.00820697
000200 8b 81 7c 3b 67 28 a4 3c 44 4f 0b bc 76 57 0d bd
       0.0038529362 0.020038797 -0.008502785 -0.034507237
000210 63 b7 48 3c 7a f9 44 bd 1f de e5 3c f4 be 0d 3d
       0.012250754 -0.048089482 0.028060017 0.034605935
000220 9d 38 b9 3b 08 e1 f3 3c dc f5 48 3d 3e 1c 97 3c
       0.005652501 0.02977039 0.049062595 0.018446084
000230 65 c6 21 bd 0c 82 9c 3c 68 fa 64 3b 1e 58 4a bc
       -0.039495844 0.01910498 0.0034939293 -0.01235011
000240 38 b9 7f bd 28 db ac 3b 97 67 11 3d 29 f1 3b bd
       -0.062432498 0.005275149 0.03549918 -0.045884285
000250 2a ea 56 3b a3 e0 ad bc 62 8c e2 bd 5b a2 c6 bc
       0.0032793381 -0.02122528 -0.11061932 -0.024247339
000260 c7 1a a3 bc 8a ad 14 3c 4b e4 30 bd fb fd f6 bb
       -0.01991023 0.009074578 -0.043186467 -0.007537601
000270 24 11 af 3c ef ff 47 bd 89 51 04 bd 59 8d c3 b7
       0.021370478 -0.04882806 -0.03230432 -2.3311632e-05
000280 46 e2 58 bd a3 d2 2c bd 0b 8c 2e bd 94 35 6f 3d
       -0.052950166 -0.042193066 -0.042614024 0.058400705
000290 7c 94 91 3c 53 22 7d bd 68 89 16 bd 45 50 03 3d
       0.017770998 -0.061800312 -0.036752135 0.032058973
0002a0 16 1f 70 bd 5a 12 7a 3c 57 9f 5e 3d 2f b6 9c bd
       -0.058623396 0.015263164 0.054351177 -0.07651936
0002b0 87 2b 02 be ea 21 02 be c2 08 ad bd 48 06 43 be
       -0.12711917 -0.1270825 -0.08448936 -0.19045365
0002c0 8f c0 29 be 0b ec a9 bd 29 aa e8 bd 3e 20 01 be
       -0.16577362 -0.08296975 -0.113605805 -0.12609956
0002d0 2c 22 b7 3c a9 40 1d be a5 a5 ae bd 43 3f 2e 3d
       0.022355162 -0.15356697 -0.08527688 0.0425408
0002e0 b9 f5 c4 3e 7c 1a 69 be 79 b9 08 3e 13 ba 0e 3d
       0.38468722 -0.22764009 0.13352002 0.034845423
0002f0 d1 74 8d bd bf 4e 7e bd 91 6e a0 bc 2b 77 83 bd
       -0.069070466 -0.062086817 -0.019583972 -0.06419214
000300 60 a7 0e 3c 9c 39 db 3a 66 11 33 3d c7 0b f5 bc
       0.0087068975 0.0016725543 0.043717764 -0.029912842
000310 2e b5 54 bd ed 6a 6e 3c f7 52 74 bd 46 9f 93 bd
       -0.0519306 0.01455186 -0.059649434 -0.07208113
000320 e2 c4 02 bc af 9a 9e bd 36 1c 36 bd ce b1 5d bd
       -0.007981511 -0.07744347 -0.044460498 -0.054124646
000330 a3 42 8d bd 09 02 9b bd dd 39 92 3c 59 dd 80 bd
       -0.068974756 -0.075687476 0.017849857 -0.06292219
000340 97 bb ba 3c 9f 20 48 bd 16 0c 9b bb 98 eb 92 bd
       0.022794528 -0.048859235 -0.0047316654 -0.07173842
000350 27 06 45 3d c5 20 42 3d 60 da a1 3d 48 1e 63 3d
       0.04810157 0.047394533 0.0790298 0.0554488
000360 01 05 0a bd fc 20 86 3c 6f 82 1c bd 51 3a be 3c
       -0.03369618 0.01637315 -0.03821033 0.023221167
000370 3c 48 e5 3c 99 4d 21 3d 3e bb 03 bd 30 20 01 bb
       0.027988546 0.039380644 -0.03216099 -0.0019703023
000380 8e 6a f2 bb d0 74 9d 3c 1a 7a 06 3e af 6f 68 3c
       -0.007397956 0.01922074 0.13132516 0.014186784
000390 9b fa 5c 3c 3d 95 37 3e 39 0c 19 3e 4a 5d 91 3c
       0.013487483 0.17928024 0.14946069 0.017744679
0003a0 23 02 73 3b 12 d8 91 3a 7a 1b ba bd 88 8e 03 be
       0.003708013 0.0011127016 -0.09087272 -0.1284734
0003b0 b5 79 46 bb ea f3 44 be cf 78 5b be 43 30 c5 bd
       -0.0030284945 -0.19233671 -0.21432804 -0.09628346
0003c0 5b 35 ae bd b5 e3 02 be fc 36 98 bd 48 18 6a bd
       -0.085062705 -0.12782176 -0.074323624 -0.057152063
0003d0 5c c5 0b be 1d 76 ff bd 80 0e c3 bd 60 d4 23 be
       -0.13649505 -0.124737 -0.0952425 -0.15998983
0003e0 cd e6 f1 bd d0 7b 31 3d ce b6 9e bd 6b 47 00 3c
       -0.118116 0.043330967 -0.07749711 0.007829527
0003f0 d9 aa a4 bc 5c 1a bb bd 7a 16 f4 bb 66 b6 6a bd
       -0.020100998 -0.09135887 -0.0074489685 -0.057302855

encoder_layers.block_1.transition.bias f4 [25]
000000 28 3e 28 3c c4 1e 04 bd a6 20 cb ba c5 9b 17 bd
       0.010268725 -0.032255903 -0.0015497401 -0.037013788
000010 a3 db b7 bc 78 5a 5c bd 96 8b 86 3d 3e ab 8a bc
       -0.022443598 -0.053797215 0.06569593 -0.016927358
000020 3c c5 1f bd 4f 04 35 bd 57 08 8c bc 12 48 e4 3a
       -0.039006457 -0.044193562 -0.01709382 0.0017416498
000030 fc 67 29 bd e0 b6 54 bc 7d f5 93 bd 4b be 3c bd
       -0.041358933 -0.012983054 -0.072245575 -0.046079915
000040 8e 37 a7 39 fa ca c5 bc b7 40 5d bc 21 24 21 bc
       0.00031894114 -0.024144638 -0.013504199 -0.009835274
000050 73 a7 d0 3b e5 78 a4 3c 6b 2d 64 b9 9e 93 85 bd
       0.0063676178 0.020077178 -0.00021760694 -0.06522296
000060 8b 59 53 3b
       0.0032249417

encoder_layers.block_1.conv.weight f4 [100, 25, 1, 1]
000000 47 f4 b7 3d d1 7f 05 be 86 62 77 3d 2a de 9d bd
       0.08982139 -0.1303704 0.060396694 -0.0770839
000010 5c f4 d9 3d bd 40 6d 3d af 58 35 3d 13 f2 16 bd
       0.10642311 0.057923067 0.04427403 -0.036851954
000020 77 d8 ad b9 ca 11 81 3c 27 93 34 3e 87 8d 1b 3d
       -0.0003315841 0.015755553 0.17634259 0.037976768
000030 da 0d 20 be 66 4c eb bd 33 18 ce bd 39 79 9f 3d
       -0.15630284 -0.11489181 -0.100632094 0.07786793
000040 f2 74 d9 bd a4 16 07 be e9 50 b0 bd 10 10 18 bd
       -0.10618009 -0.1319223 -0.086091824 -0.037124693
000050 48 cb d4 3d 9c 5d 43 3d 90 9c 4e bd f5 ad 32 be
       0.10390335 0.047696695 -0.05044228 -0.17449172
000060 47 ef 24 be 07 5a b7 3c 3c b7 91 bd 28 2e ed 3d
       -0.16106902 0.022381796 -0.07115027 0.11581069
000070 b7 f8 5c 3d 52 d9 5f be 12 94 80 3d 8d 13 c9 3d
       0.05394813 -0.21860245 0.06278242 0.09818182
000080 a1 30 cb bd 56 15 1d 3c a3 72 2b be 61 ce 21 bc
       -0.099213846 0.009587606 -0.16742949 -0.009875865
000090 a7 3d e4 bc 04 8e d7 3d 9b 14 59 bd 3e 33 c7 3d
       -0.02786143 0.10525134 -0.052998167 0.097265705
0000a0 92 73 46 bd 34 96 7e 3e ad 73 b5 bc c3 a1 3f be
       -0.04845006 0.24861985 -0.022149885 -0.18714051
0000b0 04 94 ae bd 88 24 ba bd f7 bc dd bc fc c0 88 ba
       -0.085243255 -0.09088999 -0.027067645 -0.001043349
0000c0 dc 09 71 3e f3 80 75 3d 71 cd 5e 3d 59 ca 2d be
       0.23538917 0.05993743 0.054395143 -0.16971721
0000d0 1e 85 91 3d fc 9a 83 bd 83 e7 48 3d ba 21 03 3e
       0.07105468 -0.06426045 0.04904891 0.12805834
0000e0 38 ce 82 3b 2b 9a 24 be 54 be 9a bd a6 ce 7b 3d
       0.0039918683 -0.16074435 -0.075558335 0.061476372
0000f0 7a 9b 81 bd a9 77 56 3e a7 cd bd bd 63 0c 07 be
       -0.06328483 0.20944084 -0.09267741 -0.13188319
000100 ed 3c df 3d 07 b1 6b be da b1 87 3d ba 0e 15 bd
       0.109002925 -0.2301675 0.06625719 -0.036390997
000110 44 89 0b be 09 84 f6 bc 4e 45 17 be b6 72 04 bd
       -0.13626581 -0.030092256 -0.14772531 -0.03233596
000120 b7 3d 97 3d 54 d1 5a 3e ea 80 07 3c fa a7 f9 3c
       0.07384818 0.21368915 0.008270482 0.030475605
000130 aa db 22 be ae 68 71 bc 42 0b c0 3d 51 ef e0 bc
       -0.15904108 -0.01473443 0.09377147 -0.027457865
000140 aa 5c 20 3d bf 68 ff b9 bb 81 2b be 68 a6 4e bd
       0.03915087 -0.00048715432 -0.16748707 -0.050451666
000150 12 5c 82 be 61 0c 2b 3e 1a 3a 40 be dc f2 e2 bd
       -0.2546087 0.16703941 -0.18772164 -0.11081478
000160 8d 8d 05 3d d0 36 6c be ff 38 75 be b1 ea eb 3a
       0.032605696 -0.23067784 -0.23947524 0.0017999021
000170 fd 6d 92 3d 17 27 af 3d f6 10 5a bd 6a 5b f4 bd
       0.07149885 0.08552378 -0.05323883 -0.11931498
000180 9d 87 7d 3e 05 04 5a bd d5 4b 30 be 6c 0f fd bd
       0.24758764 -0.05322649 -0.17216428 -0.12356457
000190 15 18 d8 bd 84 c4 88 3d bd 95 20 bc 63 6d 06 3c
       -0.10551468 0.066781074 -0.009801325 0.008204791
0001a0 da 57 8b 3d bb bc 4c 3e 0c 7f 12 3e 2f ae 65 bb
       0.06803866 0.1999387 0.14306277 -0.0035046448
0001b0 bc 9c e9 3d 67 db 0c 3d 98 33 7e 3d 53 90 41 3e
       0.11406848 0.034388926 0.062060922 0.18902712
0001c0 06 70 67 3e 4d cb 1a 3e 83 0e 4f bc 4a a5 97 bd
       0.22601327 0.15116616 -0.012637737 -0.07404573
0001d0 2a dc 0d 3d e5 14 b2 3d ed b4 1a 3e 86 0e 4a bd
       0.034633793 0.086953916 0.1510808 -0.049330257
0001e0 b7 50 48 3e 46 dc a7 bc b8 60 49 be 1d 87 62 3e
       0.1956204 -0.020490777 -0.19665802 0.22121854
0001f0 8a a2 7d 3d 29 24 9e 3d 00 5d 83 be a4 4e 42 3e
       0.061922587 0.07721741 -0.2565689 0.18975312
000200 61 3d 20 3e 2a 29 e4 3d 64 58 19 3e a2 49 11 3d
       0.15648414 0.11140664 0.14975125 0.035470612
000210 5d 23 33 be 92 36 90 be 4e cf d4 bd 9c ce f0 3d
       -0.17493959 -0.28166634 -0.10391103 0.117581576
000220 03 71 17 be df 78 44 be 0f a0 64 be 7d 19 42 be
       -0.14789204 -0.19186734 -0.22326683 -0.18955036
000230 53 9f 08 be a3 e4 77 bc bb 81 a7 bc 70 b9 58 3d
       -0.13342027 -0.015130195 -0.020447602 0.052911222
000240 f7 08 3d be 5c 49 b1 3d f8 34 9f 3d d6 3c 84 bc
       -0.18460451 0.0865657 0.07773775 -0.01614229
000250 56 bc 40 3e 04 6b 55 bd f9 7c 4c 3d 74 cf 43 be
       0.18821844 -0.05210401 0.04992387 -0.19122106
000260 d3 57 24 bd 4b 5c 3e be e3 0e f7 3c c9 f4 26 3e
       -0.04012282 -0.18589894 0.030158466 0.16304316
000270 90 91 7f bd 42 ea 21 be 60 76 9c bd af 6a bb bd
       -0.06239468 -0.15812019 -0.07639766 -0.09151208
000280 0b 90 16 3e ea 34 65 3e 1e d5 d9 3c f6 e5 1b be
       0.14703386 0.22383466 0.02659088 -0.15224442
000290 a8 27 7c bd aa 2c 14 bd cd 7b 90 3c 05 e9 49 be
       -0.061561257 -0.036175407 0.017637158 -0.19717796
0002a0 3f bb e7 3d 60 cd 20 bd af f6 f8 bd 1e ca ca 3d
       0.11315011 -0.03925836 -0.12156426 0.09901832
0002b0 fa a9 00 be f2 40 40 be 2c 62 05 be 09 c5 a5 3d
       -0.12564841 -0.18774775 -0.13025731 0.08094222
0002c0 40 4e 3c be 16 3f 06 bd 21 59 a9 bd 8c 2b 19 3e
       -0.18389225 -0.032775007 -0.08268953 0.14958018
0002d0 aa ec 2e 3d 06 59 e7 3d 45 82 8c 3d fc 28 49 3e
       0.04270617 0.11296277 0.068607844 0.1964454
0002e0 4c 72 2c be 22 8b 63 3e 71 bc 77 bd 3b 58 85 3d
       -0.16840476 0.22221044 -0.060482446 0.06510969
0002f0 4c 66 1a be fd 12 dd bd 0c db d8 bd ef 20 4c bd
       -0.15078086 -0.10794637 -0.10588655 -0.049836095
000300 b9 3f 15 3d 2d 42 4f 3e a1 62 4c bd 7b d9 03 be
       0.036437724 0.20240088 -0.049898747 -0.12875931
000310 49 c7 07 3e 90 d8 03 be 56 85 3f be 27 d1 28 3b
       0.13259615 -0.12875581 -0.18703207 0.002575943
000320 c0 ce ee bd c8 bd 14 be e3 c8 1b be 7b 6f 11 3d
       -0.11660528 -0.14525521 -0.15213351 0.035506707
000330 75 34 25 bd 97 5a 89 bd 9e b3 bb 3d 4e fe c2 3c
       -0.04033323 -0.06706732 0.09165119 0.023802903
000340 1d 03 21 be 0c 09 9c bc cd e6 1d 3c db bd 30 be
       -0.15723844 -0.019047283 0.009637547 -0.17259924
000350 4b 31 bd 3c 36 8f dc 3d 86 ae 93 3d 78 54 a0 3d
       0.023094794 0.10769503 0.07211022 0.07828611
000360 cb 31 d2 bc 04 63 11 bd eb d7 b3 bd f8 47 07 be
       -0.025658509 -0.03549482 -0.087814175 -0.13211048
000370 c3 9d cf bd 96 c3 96 bd 81 fe e2 3d 1d f0 d4 bc
       -0.101375125 -0.07361524 0.11083699 -0.025993401
000380 d7 0a c2 3d af bc 04 be 82 d1 9e 3d 10 5a ae 3d
       0.09474724 -0.12962602 0.07754804 0.08513272
000390 7b e5 1e 3d 35 c3 9d bd 47 4e ad bc b2 69 67 3d
       0.03879307 -0.077032484 -0.02115549 0.056497283
0003a0 2f bc 1b 3d f1 e1 80 3e 65 3b 15 3c fa 01 fc bd
       0.038021263 0.2517238 0.009108399 -0.123050645
0003b0 44 3b 30 3e 4a 9d bf 3e 01 9e e4 bc a5 6e 0f 3d
       0.17210108 0.3742469 -0.027907373 0.03501763
0003c0 3e 00 d6 bc 92 4c 54 3e 4f 9a be 3c 72 2e c2 3d
       -0.026123162 0.20732334 0.02326694 0.09481515
0003d0 98 42 6a bd c2 4a 5d 3d 2f 8a c8 bd ef 0f 9e bc
       -0.057192415 0.054026373 -0.097919814 -0.019294707
0003e0 51 f3 25 3e 31 02 8f bd 93 aa da bd 4c db fd bc
       0.16206099 -0.0698284 -0.10677066 -0.030988358
0003f0 ec 03 b7 bd ab 3a 2c be 3d 33 fd 3c 9a f4 ee 3d
       -0.08936295 -0.16819255 0.030908221 0.11667748

encoder_layers.block_1.conv.bias f4 [100]
000000 00 b5 22 be f8 ee 32 bd 53 ce f7 bd c2 60 df 3d
       -0.15889359 -0.04368493 -0.120999 0.10907127
000010 39 3f 8d bd 44 93 f5 bd b2 a7 eb bb 03 d1 28 3d
       -0.068968244 -0.11990979 -0.0071916217 0.041214954
000020 14 45 9e bd 6d 48 e5 bd 61 86 a9 bd 05 77 3f 3d
       -0.07728019 -0.11195455 -0.08277584 0.046744365
000030 82 91 13 3d 42 1c ed 3c 66 73 0d 3e c4 9e b4 bd
       0.03602744 0.028944138 0.13813552 -0.08819345
000040 e2 01 94 3d bb e0 2d 3d 6d c4 ae 3d 78 1a 78 bd
       0.072269216 0.042450648 0.08533559 -0.060572118
000050 a1 78 ca bd e9 82 0f 3e ac 0f 03 3e 4d 27 17 bd
       -0.098862894 0.14014782 0.12798947 -0.036902715
000060 d6 c1 92 bb eb 24 90 3d 8d 76 bf 3b 41 83 8e bc
       -0.0044786735 0.070382915 0.00584299 -0.017396571
000070 ef 97 31 3d cb 49 93 bd 90 8e 88 bd 45 34 69 3c
       0.043357786 -0.07191809 -0.06667817 0.014233653
000080 a3 61 40 3c 7f b4 e8 bc cd 3d 58 bd 7b 04 ab 3d
       0.011742028 -0.02840638 -0.052793313 0.08350464
000090 03 c5 bf bd 92 44 bf 3d a2 6d 68 b9 e5 b8 15 3a
       -0.09363749 0.093392506 -0.00022166086 0.00057114504
0000a0 f6 0e eb 3c 7d 45 57 3e 5f 7f 29 bd b4 8e 53 bd
       0.028693657 0.21022601 -0.041381236 -0.051649764
0000b0 b7 72 56 3d 9e 1a 88 bd a0 8b 27 3c a1 24 d8 3c
       0.052355494 -0.06645702 0.01022616 0.026384654
0000c0 0a 84 74 3d 82 91 27 3e 21 3a 4f 3d 25 95 75 3c
       0.059696235 0.163641 0.050592545 0.014989172
0000d0 61 a6 08 3e d6 2f c7 bd b3 ed 9c bd a1 c2 1f 3e
       0.13344719 -0.09725921 -0.07662525 0.15601589
0000e0 2d 1a 7e bd 1c f2 d5 3d 30 cb 38 be 12 3c ad bd
       -0.062036682 0.10446569 -0.1804626 -0.08458723
0000f0 80 6c be bd f8 8d 38 3b bf bb 65 3d 4e 5f ac bd
       -0.092980385 0.0028160792 0.05608725 -0.084166154
000100 96 c1 c9 3d b8 84 2e 3c 91 1f 89 bd 8f 73 fa bd
       0.09851377 0.01065176 -0.06695474 -0.12229072
000110 5e fa 89 bc 16 f2 ff bd 31 ad 10 bd 87 e6 3d 3d
       -0.016843017 -0.12497346 -0.03532142 0.046362426
000120 47 d6 95 be d7 b8 2b bd 8d eb d9 3d 29 fe b1 3d
       -0.29265043 -0.041924324 0.10640631 0.08691055
000130 1d 0c aa 3d 6e fd f0 bb f2 e7 8d bd 0f a2 96 3c
       0.08303092 -0.00735443 -0.06929006 0.018387822
000140 42 ef 67 bd 37 06 a9 3c 79 7a ed bd ac 7b fa bc
       -0.05662466 0.020632846 -0.115956254 -0.03057655
000150 2d bf 1c 3d f6 9f 32 3d 17 c8 ab bd a2 f0 18 3d
       0.038268257 0.043609582 -0.083877735 0.03733886
000160 fb eb c2 bd d7 bd 99 3c 63 0c fe 3c 1b 5b 26 3e
       -0.09517666 0.01876728 0.031011766 0.16245691
000170 a4 1d bf 3c 55 b1 8b bd 99 99 08 be 70 95 23 3d
       0.023329563 -0.06820933 -0.13339843 0.039937437
000180 bb 2c 8a bc 11 4d e0 3d b8 99 25 be 94 a7 ec bd
       -0.016867032 0.10952199 -0.1617192 -0.115554005

decoder_layers.block_0.transition.weight f4 [25, 25, 3, 3]
000000 d1 3d 82 bb d3 83 49 bc e3 c2 e7 bc d8 e0 80 3d
       -0.0039746542 -0.012299496 -0.028291171 0.062928855
000010 02 10 04 3e b6 a0 94 3d 3d a6 85 3d ea f5 97 3d
       0.12896731 0.07257216 0.06525848 0.07419951
000020 e2 d7 8e 3d c8 16 96 3d 20 69 78 bd 87 27 8e bd
       0.0697477 0.07328564 -0.06064713 -0.06941133
000030 d4 06 06 3c 69 84 e9 bd de 58 00 be ef 16 4f bd
       0.008180339 -0.11402208 -0.125339 -0.05055898
000040 78 5d f3 bc b7 2a 70 3d b3 e5 a8 bc 2f d8 93 3c
       -0.029707655 0.058634486 -0.020617342 0.01804742
000050 7a a3 5f bc 11 d6 c3 ba 49 77 41 bd 9a ef 68 bd
       -0.013649816 -0.0014941116 -0.0472329 -0.056869127
000060 35 f3 80 bb 70 cc 34 bd 4e be c9 bb bb 55 23 bd
       -0.0039352425 -0.04414028 -0.0061567193 -0.03987668
000070 f9 3c 54 3d ca e6 a4 bd 88 f4 33 bd d4 bf 00 3d
       0.05181596 -0.08051832 -0.043934375 0.03143294
000080 d1 8f 5c 3c 82 df 9a bd 90 c4 87 bc 45 8e 4b bb
       0.013462023 -0.07562162 -0.01657322 -0.003106014
000090 54 32 20 bc 8a f4 88 bd e6 e0 f9 bc 42 8c e2 bc
       -0.009777624 -0.06687267 -0.030502748 -0.02765477
0000a0 70 d4 b8 3d 88 a8 1f bb 19 1d 1c 3b a7 bb a3 3c
       0.09024894 -0.0024361927 0.0023821054 0.01998694
0000b0 8b 7f 68 3d 18 85 e2 3d 7a bd f1 3d a6 81 c4 3d
       0.05676226 0.11060542 0.11803718 0.09595041
0000c0 87 14 10 3d 1e 9f 7c bd 58 85 ac 3d 1d 7f 8a 3d
       0.035175826 -0.061675183 0.08423871 0.06762526
0000d0 21 c9 51 bd ce 5a 49 b9 fc 2c c5 3c 4f 7c c4 3c
       -0.051217202 -0.00019202681 0.024069302 0.023985056
0000e0 25 c7 00 bd 2a 76 11 3b 4d f3 e6 bd 74 57 61 bc
       -0.03143992 0.0022195675 -0.11276875 -0.013753761
0000f0 38 3d 38 3d c6 a2 f4 3b 68 f9 bc 3c d5 73 ca 3c
       0.044980258 0.007465693 0.023068145 0.024713436
000100 d1 0c 1b bd ee 4c 3f bd 8c 54 45 3d 42 c9 02 3e
       -0.03785402 -0.046704225 0.048176333 0.12772086
000110 eb 44 30 3d 90 b3 1c 3d 3a 9b f7 3d a4 ad 97 3d
       0.043034475 0.03825718 0.12090154 0.07406166
000120 c9 b0 a0 3c ce ff 02 bd 25 df d6 bc 3d c2 89 3d
       0.019615548 -0.031982236 -0.02622945 0.06726501
000130 8b 01 05 3e 13 61 81 bd 4d 1a 71 bd f5 1f ad bc
       0.1298887 -0.063173436 -0.058862973 -0.021133402
000140 91 1a 07 3b f4 ca f6 3c c5 b0 31 3d 32 da 14 3a
       0.00206152 0.030126072 0.04338147 0.00056782656
000150 e3 b0 d4 3c 69 42 00 be 91 d5 85 3d 05 6b f6 bb
       0.025963252 -0.12525333 0.06534875 -0.007520082
000160 b9 4a 2d bd 8e d2 0c 3d 9f ed 2b bc d9 76 2f 3c
       -0.04230759 0.034380488 -0.010493665 0.010709488
000170 2f bb 22 bb b4 e4 92 bc 4a 21 89 bd f5 74 2a 3d
       -0.0024830808 -0.01793132 -0.066958025 0.041615445
000180 71 26 84 bc d0 2e e6 bc 24 1a b6 ba 77 87 2e 3c
       -0.016131612 -0.028098494 -0.0013893289 0.0106524145
000190 33 f4 39 bd ef c7 61 bb 29 b0 ce 3c 0d 16 be 3d
       -0.045398902 -0.0034451445 0.025230484 0.092815496
0001a0 e9 53 7b bd 55 c7 48 bd 5e ad 84 3b 39 13 56 bd
       -0.06135932 -0.049018223 0.0040489873 -0.052264426
0001b0 0d 32 5e 3d fd c2 07 3d 7a d5 0d 3d ed 4f b8 bd
       0.05424695 0.03314494 0.034627415 -0.0899962
0001c0 ca 52 f7 bd bc 56 25 bd 55 2d 12 bd aa db 05 3d
       -0.12076338 -0.04036592 -0.035687763 0.03268019
0001d0 9e 18 4b bc fc 01 7a 3b ae 5e fa bc 0d 5b 23 bd
       -0.012396006 0.0038148155 -0.030562725 -0.039881755
0001e0 a2 cd 55 3d 04 05 28 3e 87 4d 97 ba 72 50 05 bd
       0.05219806 0.16408163 -0.0011543491 -0.03254742
0001f0 4a c1 c7 3c 12 e2 8c 3c 61 a7 24 bd a7 18 c4 bd
       0.02438416 0.017197642 -0.040198687 -0.095750146
000200 dd 09 10 be 00 91 0f 3d 14 6a bf bd e9 95 66 3c
       -0.14066263 0.035050392 -0.09346405 0.014073827
000210 ff 88 91 bc 22 8a 12 bd 1f f6 83 3b 42 40 d5 3c
       -0.01776552 -0.035776265 0.0040271427 0.026031617
000220 9c 68 19 3b a1 2b 32 bd 77 b7 19 3d 28 de b2 3d
       0.00234083 -0.04349864 0.03752848 0.08733779
000230 81 0c 82 3c 69 6c d5 3c e4 47 f3 3c 78 d7 dc bc
       0.015875103 0.02605267 0.029697366 -0.026958212
000240 5e 12 69 ba db 5b 49 bd 34 41 25 bd 4f bd 1d 3d
       -0.00088909816 -0.049159866 -0.040345386 0.038510617
000250 22 f5 a2 3c e5 8e 0e 3d 8b cc f8 ba c9 13 3a 3d
       0.019892279 0.034804244 -0.0018981857 0.045429025
000260 dd bc 3d bd ef 93 96 3c 85 1f bf 3d 08 24 17 3d
       -0.046322692 0.018381087 0.09332184 0.036899596
000270 e6 d8 35 bd d5 9f 3e be 25 bd 68 3c fd f9 26 3d
       -0.044396304 -0.18615659 0.014205252 0.04076575
000280 8b c1 7a 3d c3 0d 76 3d 00 c0 9d 3b 7e 25 ed 3d
       0.061219733 0.060071718 0.004814148 0.11579417
000290 24 45 1e 3c 65 cf b8 3d 26 6b 7b be da ed da 3d
       0.009660039 0.09023932 -0.24552593 0.10689898
0002a0 97 09 d0 3d 24 85 93 3d c4 57 9e 3d 1d 85 69 bd
       0.10158079 0.07203129 0.07731584 -0.057011712
0002b0 49 23 36 bd b0 31 55 bb f0 86 8a 3c 86 7c 85 3d
       -0.044467244 -0.0032530837 0.016910046 0.065178916
0002c0 f7 30 9a 3c 13 7d 0a bc 92 23 4e 3c 89 ad 3d 3d
       0.018822176 -0.008452672 0.012581723 0.046308074
0002d0 d8 3b 9c 3c 8b 9e 0e 3d ef cd dd bc 0b f0 20 3d
       0.019071504 0.034819167 -0.027075736 0.039291423
0002e0 3a ee 26 3e ef e7 1c 3c c1 8c 7e 3d 23 87 ed 3c
       0.16301814 0.009576782 0.062145952 0.028995102
0002f0 72 f1 aa bc 87 6c 19 3d 02 ca 32 bc ad 28 80 3d
       -0.020867083 0.037457015 -0.01091242 0.06257758
000300 75 50 09 3d 78 07 53 bc 0b f4 8e 3d 51 8d 2b bd
       0.033523995 -0.012880199 0.06980141 -0.041882817
000310 5e 79 21 bd 06 6e ea 3c c8 e4 48 bd e9 c6 fb bd
       -0.039422385 0.028616916 -0.049046308 -0.122937985
000320 c1 9e 76 3c 10 35 0e bd 27 69 3a 3e 7c 54 3c bd
       0.015052498 -0.034718573 0.18204175 -0.045979008
000330 87 27 b1 3c 87 71 2e 3d b3 64 5a bd 13 97 de 3c
       0.021625293 0.042588737 -0.05331869 0.027171647
000340 02 f2 06 3e 75 ac eb bc 57 bd df 3d 76 b7 24 3d
       0.13178256 -0.028768757 0.109247856 0.040214024
000350 99 a9 0b 3e 0d d5 d6 bc e8 e6 c4 bb 34 42 9c bc
       0.13638915 -0.026224637 -0.0060089715 -0.019074537
000360 23 1e d6 bd 0f 61 b8 bd ec c3 c7 bd 53 2c 1e bc
       -0.10454967 -0.090028875 -0.09754166 -0.009654122
000370 e7 13 22 3d 73 56 9f bd ab 93 26 bd d1 43 7c bc
       0.03956976 -0.07780161 -0.04066817 -0.015397028
000380 75 7f 97 bb 0c d9 5f 3d 7a 62 e2 3d 8d 8d a0 3d
       -0.0046233484 0.05465035 0.11053939 0.07839499
000390 96 62 ec b9 2f e8 ba bc 34 74 17 3c 31 a0 50 bd
       -0.0004508688 -0.022815792 0.009244014 -0.05093402
0003a0 0a 22 4f bd 75 ce 8a bd cf 8f f3 bc c2 c7 2b be
       -0.05056957 -0.0677766 -0.02973166 -0.1677542
0003b0 68 a5 7d 3b 4a 08 2e be 19 d4 90 bc 78 53 34 3e
       0.0038703326 -0.1699535 -0.017679261 0.17609966
0003c0 50 5d fa bd 8e 9e 76 bd 53 62 c5 3d 41 4c 10 bd
       -0.12224829 -0.060209803 0.096378945 -0.03522897
0003d0 de 6b 9b bd e3 2c cc 3c 5e 44 b3 bb b7 b9 4d bd
       -0.075889334 0.024923747 -0.0054707965 -0.05022594
0003e0 2a 76 1c 3c d3 5c ab 3b 43 83 96 3d 40 9f 0e bb
       0.009549657 0.0052295714 0.07349255 -0.00217624
0003f0 ad 2c 3c bd 1f 53 41 bd b1 35 b9 3d 1b 42 ba bd
       -0.045941044 -0.04719841 0.09043444 -0.0909464

decoder_layers.block_0.transition.bias f4 [25]
000000 62 d1 71 bd c3 98 29 3d 39 52 8c 3c 67 b1 23 bd
       -0.059037574 0.04140545 0.01712905 -0.039964106
000010 d9 84 dc 3b 5d 6b 0a bd 5b 6e 46 bd b7 59 19 bd
       0.006729704 -0.033793796 -0.048445087 -0.037439074
000020 d5 47 13 3d fc 72 1f bc ef 6d 9b 3d 46 31 c8 bd
       0.035957176 -0.009732004 0.075893275 -0.09775023
000030 35 1b be 3c 97 62 5f bd 48 e5 39 bd 41 64 ed bc
       0.023206333 -0.054537382 -0.045384675 -0.028978469
000040 6b e9 64 bd db cf f8 3c c0 93 df bc e6 cc 0a 3d
       -0.055886667 0.03037255 -0.027292132 0.033886813
000050 11 41 92 bc 2b 86 23 bd 56 64 6c bd 8a e2 40 bd
       -0.017853292 -0.039922874 -0.057712875 -0.047091044
000060 66 2b a7 ba
       -0.0012754023
