trainedModels/learningRate/baseline/1.0/2/0.005/run2/model.pt (torch, 105473 bytes, 11 tensors)

init.weight f4 [10, 1, 1, 1]
00000000: 4cee 163f 33fb 053f 63a9 2cbf c331 1a3f
00000010: 047c 3bbf e871 1abf 9a70 3d3f 4fff 4ebf
00000020: bb30 49bf 7c6f 633f
0.5895736 0.52336425 -0.67445964 0.6023218 -0.7323611 -0.6033006 0.7399994 -0.8085832
-0.7858998 0.88841987

init.bias f4 [10]
00000000: 8712 a03a 1d89 2cbd f9d3 283d 027f 4dbd
00000010: f106 673d 7e6e 5f3d f51f 93bd 7f6b b23b
00000020: 586a 153d da16 e4ba
0.0012212553 -0.04212295 0.041217778 -0.050169952 0.056403104 0.054548733 -0.0718383 0.0054449434
0.03647837 -0.001740183

encoder_layers.block_0.conv.weight f4 [40, 20, 3, 3]
00000000: ea25 c8bc ce8b 5cbd 90ed dcbd 0f0c 01bc
00000010: 3b77 f5bb c5a5 24bd d6d1 0abd d486 913c
00000020: 074c a2bb 8d1c 313e 1e02 f53d d165 af3d
00000030: 7cf7 c53d 81a4 943d 0e1c 973d ddb8 bb3d
00000040: ca82 083e dac2 f33d b337 71be 9592 0fbe
00000050: 310f bdbd 41d1 2ebe c54b fcbd 15dc cfbd
00000060: 574d 35be 674c 84be b375 4cbe d449 353e
00000070: bae5 123e bbef f03d 4fc3 043e ad86 d23d
00000080: 4cae af3d 64c2 063e 65a6 323e 4998 2e3e
00000090: b22a 81be fcec 2bbe 176a ecbd b778 2bbe
000000a0: 69b5 20be 33f8 05be 5bcf 2dbe 1c37 81be
000000b0: ca8c 63be 4a8f 38be b5ab 0dbe 7dba c6bd
000000c0: b897 f7bd 5125 b7bd 7c19 a9bd 8bd1 01be
000000d0: 1abd 3abe f440 1dbe ddf6 5c3e 2fef 343e
000000e0: 383b 093e 6997 0e3e c98a 063e 2a90 da3d
000000f0: 81b0 2b3e 279b 603e e8e0 4e3e 3976 bdbd
00000100: 2c07 6dbd a6a4 323d bbb5 babd 49ef e7bd
00000110: 0755 f9bc 5499 43bd 4cfa 41be 8623 10be
00000120: 24a2 9bbe 46e5 39be 987f e2bd be8a 89be
00000130: 2ff8 67be c2a3 0ebe 81ee 81be 1463 bbbe
00000140: 6e23 a3be b3d0 cd3d 807b 673d 2d06 74bc
00000150: 146b 173e 0a2e 163e 898f ae3d 2cd0 a63d
00000160: 96e4 753e 5d55 2d3e efea 33bd e37c dbbd
00000170: a8b0 43be a838 c33d 3404 513d 5188 14be
00000180: 6f2e e9bc 1949 c53c 7574 45bd fd26 df3d
00000190: 5997 233d b480 033e 1a62 97bc 73ac 15be
000001a0: 67e8 a8bb b4ca 6ebc 8b2c 2bbe 15ee d0bc
000001b0: e031 8abd 3b96 38bd 1811 1e3d 8d9d 08be
000001c0: 7753 383c a6fc 0d3d 211c a1bc 8555 1ebe
000001d0: 7d7c a6bd e24a 353d 66e1 ab3c a406 793d
000001e0: 68de 1a3d 4798 4dbd ccc7 06bd 21f7 2a3e
000001f0: 65e7 8a3c 0d7f 973d 7562 873d 0f2d 133e
00000200: 9975 173e f137 4d3b 5537 893d 37e0 9c3d
00000210: 73d2 ed3c a54d f6bc 5e38 cabc 44d2 743d
00000220: 2f74 1e3e 74ae cb3d e664 86bd 78af c83d
00000230: 4845 d83d 4e1e 333c 728b 5e3c 4481 5ebc
00000240: 1f0d e6bd 114c 2abe c7c5 39be 4092 60bd
00000250: fb60 043e 11c9 123d 90cc 3a3e 7930 633e
00000260: d3e9 b83d 95b6 523e d84f d8bc dd5a 553d
00000270: 9e59 e03d 90b5 4bbe 65d6 b4bd 0606 583e
00000280: 160d 86bd 3ad4 573c 1693 b8bb 787e 7c3d
00000290: 29a7 9bbe f716 c53b 2eba 993e 979c c43d
000002a0: 6945 8b3c a367 133e af1b cbbc 4a65 5bbd
000002b0: edba 693d 4dca 8d3c fdb8 f239 9f4f 75be
000002c0: a1a2 43bc a196 5b3d cfeb 7ebe e8a2 febd
000002d0: de9a 0cbe 7290 0bbd ae42 7fbd f685 2bbd
000002e0: 5cbe 3f3e 6091 e8bb 72db a3bd ea92 603c
000002f0: 2deb 95bd 11d9 963d a3cd cd3d b0e7 a73d
00000300: df4c 963d 0024 873e 546e c93c bd65 b33d
00000310: 0552 9a3d 1b84 df3c 105e 883a e2b1 c4bd
00000320: 974b dfbc c298 a2bd 5a99 d6be d105 53bd
00000330: da8a 9bbd 5c5d 0cbe 4729 13bc 0fd3 863d
00000340: 7345 b33d cda3 913d aebe a63d 85f5 a83e
00000350: b9d5 263d 404c db3d 193e bf3d d30d 693d
00000360: f2e9 2cbd 2635 f2bd 2082 1bbd 6ccc cabd
00000370: bc68 dcbe 38f4 acbd 8281 01be 5d3d 0ebe
00000380: f5c3 69bd 5121 a7bd dfe9 e0bd c1c1 8dbd
00000390: 063e 9dbd c99a 9abe f30c 50bd 16c8 d8bd
000003a0: 5214 bebd 1dd2 21bd afe1 bc3d 37bb ef3d
000003b0: 8fd4 9d3d 8c78 cd3d dd1d b13e de65 5d3d
000003c0: 4cce 1d3e 1dd4 ec3d 119f 3e3d c0c0 0e3e
000003d0: 4224 2fbc 263d 6c3d 1471 703c 5900 b1be
000003e0: 74e1 8ebc dfd0 b03d 0523 b7bd 5f7a 503d
000003f0: d4ec de3d d2e7 08be 20e1 b93d 912f ddbd
-0.024432141 -0.053844266 -0.10787499 -0.00787641 -0.00749102 -0.040197153 -0.03389152 0.017764486
-0.004952911 0.17296048 0.119632944 0.08564342 0.096663445 0.07257939 0.07378398 0.09166119
0.13331142 0.11902399 -0.23556404 -0.1402076 -0.09231413 -0.17072012 -0.123191394 -0.10149399
-0.17705284 -0.2583954 -0.19966774 0.17703944 0.14345446 0.11764475 0.1296513 0.102795936
0.08578166 0.13160092 0.17446287 0.1705028 -0.25227886 -0.16789621 -0.115436725 -0.16745268
-0.15694202 -0.13082962 -0.16973631 -0.25237358 -0.22221676 -0.1802341 -0.13835032 -0.097035386
-0.12089485 -0.089426644 -0.08256814 -0.1267759 -0.18236199 -0.15356809 0.21578546 0.17669366
0.13401496 0.13924946 0.1313888 0.10672028 0.1676655 0.21934186 0.20202982 -0.09251065
-0.057868168 0.043614052 -0.091166936 -0.11324937 -0.030436052 -0.047753647 -0.18943137 -0.14076051
-0.3039714 -0.18153867 -0.11059493 -0.26863664 -0.22653268 -0.13929656 -0.25377277 -0.36599028
-0.31862968 0.10049572 0.056514263 -0.014894051 0.14786941 0.14666 0.08523471 0.081451744
0.2401298 0.16927095 -0.043925222 -0.107171796 -0.19110358 0.09532291 0.0510294 -0.14505126
-0.028464524 0.024082707 -0.048206765 0.10896108 0.03993926 0.12842065 -0.018479396 -0.14616565
-0.0051546576 -0.014574695 -0.1671621 -0.025504151 -0.06747794 -0.045065146 0.03859052 -0.13341351
0.011250368 0.034664772 -0.019666733 -0.1546231 -0.08129213 0.044260867 0.020981502 0.06079735
0.03780976 -0.05019405 -0.032905385 0.16695835 0.01695604 0.0739728 0.06610576 0.14372657
0.14790954 0.0031313861 0.06700007 0.07659953 0.029031014 -0.03006632 -0.024685081 0.059770837
0.15474008 0.09945384 -0.065622136 0.09799093 0.10560089 0.010932518 0.013583051 -0.013580624
-0.112329714 -0.1663058 -0.18141852 -0.054826975 0.1292762 0.035836283 0.18242097 0.2218646
0.090289734 0.20577462 -0.02640526 0.052088607 0.10954593 -0.1989348 -0.08829955 0.21096048
-0.06545465 0.013173157 -0.0056327684 0.061644047 -0.3040097 0.0060147005 0.30024856 0.0960018
0.01700087 0.14395003 -0.024793474 -0.053563394 0.057063032 0.017308379 0.00046295664 -0.23956154
-0.011940629 0.053610448 -0.24894641 -0.12433416 -0.13730952 -0.0340733 -0.06231945 -0.041875802
0.1872496 -0.007097408 -0.0800084 0.013706902 -0.07320247 0.07365621 0.10048988 0.08198488
0.07338881 0.26394653 0.024588741 0.087596394 0.07535175 0.027284672 0.0010404009 -0.09604241
-0.027257724 -0.079392925 -0.41913873 -0.05151922 -0.07594843 -0.13707489 -0.008982009 0.06583225
0.08753481 0.07111321 0.08141838 0.32999817 0.040731166 0.10707903 0.09338016 0.05689795
-0.042215295 -0.118265435 -0.037965894 -0.09902272 -0.43048656 -0.084450185 -0.1264706 -0.13890596
-0.057071645 -0.081606515 -0.10982107 -0.06921721 -0.07677846 -0.30196217 -0.0507936 -0.10585038
-0.092812195 -0.03950702 0.09222733 0.1170563 0.07706558 0.10032758 0.34593096 0.054052226
0.15410727 0.11563895 0.046538416 0.13940716 -0.010689797 0.057675503 0.014675397 -0.34570578
-0.017441489 0.08633589 -0.08942226 0.050897952 0.10885015 -0.13369682 0.09076142 -0.10800088

encoder_layers.block_0.conv.bias f4 [40]
00000000: 6123 2abd 473f c33b 814f fc3a 0a79 cdbc
00000010: 6929 0ebb 0df6 033e 1739 51be 158b 44bd
00000020: 6215 3f3e 7d37 9e3e 0820 b4bd ab4a f03d
00000030: 6f46 e8bd 2b3e 833d 2030 6dbc e702 b13d
00000040: d276 b2bd 9441 2a3e 7c72 b03d 3070 233e
00000050: fd45 43bc 1cd8 813c 9b53 80bd a8de cbbc
00000060: a02b 47bd d3ca 1e3e 8864 213c ecd3 bf3d
00000070: 9a48 bb3d 7f6b 933e e954 913d 6bf0 173e
00000080: 8c5a 963c dd4c 583a 78ef 02be d3d8 33bc
00000090: d33e ec3d 78e8 ccbc 113c b7bd 4d57 d83c
-0.041537646 0.005958471 0.0019249768 -0.02508213 -0.0021692163 0.1288683 -0.20431934 -0.0479842
0.186605 0.3090171 -0.08795172 0.11732992 -0.11341559 0.06408342 -0.014476806 0.08643132
-0.087140694 0.16626579 0.08615586 0.15960765 -0.011918542 0.01585012 -0.062659465 -0.024886444
-0.04862559 0.15507059 0.009850629 0.09366593 0.09144707 0.2879295 0.070962735 0.14837806
0.018353723 0.00082511996 -0.12786663 -0.010976988 0.1153542 -0.025013193 -0.08947004 0.026408816

encoder_layers.block_1.conv.weight f4 [40, 20, 3, 3]
00000000: aa34 79bd 9263 45be 012c edbd e34e 3ebe
00000010: 4dfa 97be 7db7 1ebe 6139 4abe ec6b 8bbe
00000020: 0b71 0fbd 23bf 303d 5aaf a23d 52a1 0d3e
00000030: cf67 1cbd 2647 913d cd5f 66bc 504c 813d
00000040: c97f d73d 8492 9e3d 9731 08bc ce18 eb3c
00000050: ea57 e9bd 1142 95bd fcc4 a8bd 9c84 9b3d
00000060: 7aaa 793c 5f56 8ebd 663c 743d 9d99 ed3d
00000070: 0670 433d f8a2 b83e bfbc c8bd 9056 17bd
00000080: 944a da3c c1d6 533d 9c07 073e 0cec a63d
00000090: 9e87 2b3d f18b 283d 52b4 c33c f228 983d
000000a0: 0dbd 353d 4eb5 bd3d 3af7 573d 1b26 183e
000000b0: b906 083d cb01 003e e263 533e 204d 3d3e
000000c0: eaca acba 14e5 7e3d 52d8 1c3e 19b4 9abc
000000d0: c3f5 833d 9ffb 523d 67d8 85be 40e6 20be
000000e0: 1e70 93be e183 013d 9e95 63be f4d9 84be
000000f0: baa3 d03d 7283 48be a864 36be 4f3c 61be
00000100: ee4b 68be 7967 acbd 908a 3dbe c047 893d
00000110: 067f 26bd 23dc e3bd 231d f8bd 9798 3b3d
00000120: 7c22 583e 1c6c b73d 8cbf 62bd 1757 bb3e
00000130: 4de2 93bd 21a6 da3c eff6 1dbd 7eac 9bbd
00000140: bbba 203b 078f 3a3e 94ef 03bd 0014 6b3e
00000150: 5d85 653c f29b b03d e902 2fbe 59fd 343e
00000160: 2c47 d73d d239 e03d bdfa a2bd 26cf 6e3d
00000170: 1334 1f3c 11db 273e 71ad abbe de2e 45be
00000180: dfdb a6be e02e a0bd b3f1 b2bd 41f6 7a3d
00000190: 8228 653d bf5b 45bd e9f7 85bd e941 723e
000001a0: de83 4b3e d43e fa3c 8c4f 333e ad7f 82ba
000001b0: 5a70 0dbd 94f2 ed3c 3f01 f8bd d5ee f7bc
000001c0: 77a7 ecbd a469 07be 50ce a2bd f0ac 77bd
000001d0: cfc3 003c fbb6 acbe 2290 8b3e ecd1 92bd
000001e0: 0f08 203f 6cc3 a2be 3de1 783d 5685 03be
000001f0: a00a 0d3e 1c9b 713d 05ad 633e 1357 a3bc
00000200: 6ba4 563d 583b 8d3d 65b1 e33d e2b0 433d
00000210: dce7 cb3b 3267 1cbd 9c25 713e dc01 003e
00000220: 45b7 1ebd 8b8d a53d 80a0 a2bc a59b 79bc
00000230: dda6 523e 4d2e 03be e57f 7cbe 64f0 3c3e
00000240: 7c26 f33c 97f4 e3bd 5aa8 14be bb1f 763e
00000250: f6ac 8fbb 5c27 c0bc a3d6 04be 4979 183e
00000260: 4b65 0c3c 8e86 c23c bfec 443e 2865 243e
00000270: 019e 893c 8eb3 6ebe 2b2a d43d 5624 b1bd
00000280: 96a6 cc3c 88fb a6bd 18db b7be 5f10 14be
00000290: 4fa2 fabd 6cc7 a53e 991c 333c 92fb 0f3e
000002a0: 8563 623e 5cc9 30be 5c47 41be 9e79 813e
000002b0: da60 9bbd 2cc5 5bbd 23f7 313e 7dcf 903d
000002c0: 3617 a7be e7f4 df3d 54ba 4e3e adad b0bc
000002d0: 9d32 be3c 6044 723d c2c9 023e 7814 8fbc
000002e0: bbc6 473e bf54 3d3e 07a2 bc3b 9d90 abbd
000002f0: 5987 873d 698d 833d 0bc3 82bc 6ab8 32bd
00000300: f683 b63d 04d7 313e 4fb8 e33c f875 e13c
00000310: 48ef c5bc 1655 e0bd 8459 0b3e c414 36be
00000320: ef6e 2d3e 7b6f ed3c 8d99 8cbd 1114 a3bd
00000330: c2a1 233e 103d f73d d46d 513d d6f2 253e
00000340: d6c8 323d c985 69bd c015 443e 2fe9 ff3e
00000350: 089b a83e 3d72 763e 2eb8 3a3e 2bda b33d
00000360: 1a4f 7cbd 21c6 4abd b2c9 d23d b4b9 003e
00000370: e0af 5f3c ab57 883d 181f f3bd e0a3 4f3e
00000380: c88c 0e3e 3404 58be ce68 1ebe b0a4 27be
00000390: 44a7 023e 8225 42bd 1ecf 3dbd c95e 1fbe
000003a0: fca6 ebbc 9c8f 44be 3943 27bb eb87 213e
000003b0: 9f96 2f3e bf11 f2bd ee0a 413d 203c 4f3b
000003c0: 7693 49be 4b36 823e fe5b 0f3e 2b87 9dbe
000003d0: 33e8 7bbe 7be1 a63d e33d 133e ce8a 3fbe
000003e0: c91a edbd 97c3 4c3c 6c3e 0fbe 5586 ccbd
000003f0: e553 703d a3b2 6f3e 07f2 6bbd 9ae5 2bbc
-0.06084124 -0.19276264 -0.11580659 -0.1858478 -0.29683152 -0.15499683 -0.19748451 -0.27230775
-0.035019916 0.043151032 0.07943602 0.1383107 -0.038184937 0.070936486 -0.014060927 0.063133836
0.1052242 0.077427894 -0.008312604 0.028698351 -0.113937214 -0.07287992 -0.08240697 0.075936526
0.015238399 -0.06950068 0.059627913 0.11601565 0.047714256 0.36061835 -0.098016255 -0.036947787
0.02664689 0.051718477 0.13186496 0.08150491 0.04187738 0.041149084 0.023889694 0.07429685
0.044369746 0.09263097 0.052726008 0.14858286 0.033209536 0.12500684 0.20643571 0.18486452
-0.0013183032 0.062230185 0.15316895 -0.018884705 0.0644336 0.051509496 -0.26141664 -0.15712833
-0.28796476 0.03161991 -0.22225043 -0.25947535 0.10187478 -0.19581392 -0.17811835 -0.21995662
-0.22685215 -0.08418173 -0.18509889 0.06703138 -0.040648483 -0.11125972 -0.121149324 0.045799818
0.21106905 0.08956167 -0.055358455 0.36589882 -0.07220898 0.026690545 -0.038565572 -0.0760126
0.0024525363 0.18218623 -0.0322109 0.22956848 0.014008847 0.08623494 -0.17090954 0.1767477
0.10511622 0.10948528 -0.07957981 0.05830302 0.009717005 0.16392161 -0.33530763 -0.1925616
-0.32589623 -0.07821441 -0.08737507 0.061270002 0.055946834 -0.0481832 -0.06541426 0.23657955
0.19874522 0.030547537 0.17510813 -0.0009956263 -0.034530975 0.029046334 -0.12109613 -0.030265251
-0.11555379 -0.13223892 -0.07949507 -0.06046766 0.007859184 -0.33733353 0.27258402 -0.07168946
0.62512296 -0.3178972 0.06076168 -0.12843832 0.13773584 0.058985814 0.2223397 -0.019938981
0.052402895 0.068960845 0.1111782 0.04777611 0.006222708 -0.038184352 0.23549503 0.1250071
-0.038749 0.08083638 -0.019851923 -0.015234862 0.20571466 -0.12810631 -0.24658163 0.18451077
0.029681437 -0.11130636 -0.14517346 0.24035542 -0.004384632 -0.023456268 -0.12972502 0.14890017
0.008569072 0.023745801 0.19230936 0.16054213 0.016798975 -0.23310682 0.103596054 -0.08649509
0.024981778 -0.081534445 -0.35909343 -0.1445937 -0.12237989 0.3237871 0.010932111 0.1406081
0.22108276 -0.17264313 -0.18874878 0.252881 -0.07586832 -0.053654835 0.17379431 0.07070825
-0.32634896 0.10935383 0.20188266 -0.02156719 0.023217494 0.05914724 0.12772277 -0.017465815
0.19509403 0.1848936 0.00575662 -0.08377192 0.066176124 0.06423456 -0.015962144 -0.043632902
0.08911888 0.17367178 0.027797846 0.027522072 -0.02416195 -0.10953729 0.13608366 -0.17781359
0.16936849 0.028983822 -0.06865225 -0.07962812 0.15979674 0.120721936 0.05113013 0.16205916
0.043648563 -0.057012353 0.19148922 0.49982592 0.3293078 0.24067016 0.18234321 0.087818466
-0.061598875 -0.049505357 0.102923766 0.1257084 0.013652772 0.06657346 -0.11871165 0.20277357
0.13920891 -0.21095353 -0.15469667 -0.16371417 0.1275912 -0.04739905 -0.0463401 -0.15563501
-0.028766148 -0.19195408 -0.0025522246 0.15774505 0.17147301 -0.11819791 0.047129564 0.003162153
-0.19685158 0.25432047 0.13999936 -0.30767187 -0.24600296 0.08148476 0.14379077 -0.18705294
-0.115773745 0.012497804 -0.13988656 -0.09986559 0.058673758 0.23407988 -0.057603862 -0.010491753

encoder_layers.block_1.conv.bias f4 [40]
00000000: f1c8 0bbe d518 4cbe c971 7bbe 3fb7 a2bd
00000010: 7115 12be 2f83 cfbe 70ed 63be f2c8 9ebe
00000020: 6ff6 09bd f50c 0dbe e6f5 4c3d 96f3 30be
00000030: 1dc3 c3bd c8fd dbbc adaf eb3c cd59 163d
00000040: cf17 203e 934a 3d3e 8706 0bbe 31ff 603e
00000050: c8e5 0dbe 8cb8 b6bc 29c1 57be bacf 4abe
00000060: 5339 e13c faf0 e13d 2e68 ddbc 9038 e03d
00000070: 9d10 a2bd 1c90 683d bd19 a63c 5eed 803d
00000080: f4a5 ec3d ded1 b83d e050 dfbc 7817 91bc
00000090: 6e7b 24bb 1bd4 723c fc52 4abd 5f65 163d
-0.13650872 -0.19931348 -0.24555124 -0.07945108 -0.14265992 -0.40529773 -0.22258544 -0.31012684
-0.033682283 -0.13774474 0.050039195 -0.1728042 -0.09558699 -0.02685441 0.028770292 0.036706734
0.15634082 0.18485479 -0.13576709 0.21972348 -0.13857186 -0.022304796 -0.21069779 -0.19805804
0.027493155 0.11032291 -0.027027216 0.109482884 -0.07913325 0.05677806 0.020275945 0.06295274
0.115550905 0.09024404 -0.027260244 -0.017711386 -0.0025097984 0.014821078 -0.049395546 0.03671777

decoder_layers.block_0.conv.weight f4 [40, 10, 3, 3]
00000000: 8f56 973d 5011 893e 2336 4a3f b0f5 563c
00000010: ed37 863c c206 093f 11c3 873b b04a 743d
00000020: 527a 833e d7fa f4bd 8ecf c8be a715 373e
00000030: 6746 3fbe 2465 15be d394 703e 8f58 7bbe
00000040: 0a76 5bbe d4fc 873c e445 66bd 65ba 03bd
00000050: 0df3 dabd 1f38 04be 6c5d 993d 6ca5 2cbf
00000060: 3b3a d0bd 278c f5bd de81 e4be 7d37 06be
00000070: 0409 cb3d cf62 d83e 7f9b fabd f2e8 993d
00000080: d5a5 b63e 0d0e 51be a89b 6abe 3b0b 2f3e
00000090: 2321 a33b e762 8dbd cbb7 633e 9fea b3bd
000000a0: bf93 83be eab0 7fbd 47f5 20be 3eae 80be
000000b0: c998 f5bc 5311 20be 9a0f 903e ca8f 513e
000000c0: 279f 1cbe f2ed 5b3e c098 8dbd 1106 19be
000000d0: b685 793e 8150 af3d f34c 0fbe 132c 81be
000000e0: 9998 65be ae72 9dbe 6929 623e cbf6 543e
000000f0: 5520 063d a29a 463c ea95 9a3e c518 c23d
00000100: 3d03 133e 26e7 b6bd 7e9c 79bc 3a02 a33e
00000110: 6ee1 793d 9d6a 633d 7de8 9b3e 210a 1fbe
00000120: 3f60 7c3d 24a4 703e 5fa2 68be 0921 913d
00000130: d321 103e 691f f5bb 783a 723e 290d 7b3e
00000140: c1a5 babd 9d67 66be 0439 82bd c420 143e
00000150: d194 d33d 0b3a 5e3e cb4b 3a3e f839 683c
00000160: 22a4 28bd 7d41 85be 6bcb 6bbd e2af 5abb
00000170: b0f9 bebd 126e aebc 9e14 ed3c 8aae bcbd
00000180: 73bd 243e bae6 e43d b469 2ebd 2baa 0cbe
00000190: 1972 3e3d da86 4bbe 1f8a 323e b825 9d3e
000001a0: 20b6 ad3c e9fd c23d 55e4 a63e e60f c2bd
000001b0: 7581 153d e9fa df3d 241c 943d cc77 81bd
000001c0: 129e 52bd 1c67 eb3d e23c b6bb ab1c c7bd
000001d0: 6ecd 273b 6950 b83d 7a26 193e 2577 85bc
000001e0: 7df6 8c3e 29a3 9f3e d968 ee3d 1718 8b3e
000001f0: 5b56 6e3e b8fe 60bd 9f3e 223c 82c0 4cbd
00000200: 37ec f3bd 385b d7bd 5381 e9bd 3c22 8dbd
00000210: 5e4f 96bd 0012 8e3d 57ef 133d e9cc a9bd
00000220: 3c4f afbd 6738 083e 1aa6 863d bf29 413d
00000230: 1cc5 4f3e 3816 aebd ab61 84bd a339 1e3d
00000240: a5f0 a23e 17c0 2b3f a81e 183f 5e4a d93e
00000250: 3118 d53e d3c1 e73e 4eeb c0be 512e b83e
00000260: fa0b 6e3e d4df 133e 4438 b03d eca0 ab3d
00000270: fd64 f33c b5b7 22bf d04c 0dbe c961 803e
00000280: 4e41 80be f2e7 b43d 10dc 32be 903c f3ba
00000290: 4179 a8bc ad38 17be 2aac 42be af46 2abd
000002a0: 2d29 19be 2617 03be 7ef3 37bd 1fd3 24be
000002b0: 4d86 3ebe 6532 7ebe 4a04 cebd ed84 d93d
000002c0: 2fe9 4c3d 453d c93e fc7f ddbc 11dd cfbc
000002d0: be26 2a3c 67f2 2e3e 46c4 223e 053e 683d
000002e0: 6ef2 303e 2b8d 443e ee04 123d f589 043d
000002f0: a43c c23b 58b3 a93e 866a e13e 69a8 d33e
00000300: c05b d83e 8e4e 8c3e 96f3 a83e c276 9e3e
00000310: 620d 9f3e 8ca5 893e 12ff 6abe 0c35 88be
00000320: 6d2f 29be 3fe3 9fbe 912f 89be 4baa 83be
00000330: bf35 52be 8fb8 57be 83d2 e7bd e755 903e
00000340: 0a53 963e 200d bb3e f4f6 a33e 7eeb 0e3e
00000350: fcb4 9b3e 7060 9f3e ab43 ac3e 0ea1 3e3e
00000360: c762 20be cfcd 35be bd45 a8bd a7c9 4dbe
00000370: 7e84 2dbe efe9 38be dc14 62be 97cd 0bbe
00000380: de04 d8bd d167 92bd f176 eb3d 0aff 7a3d
00000390: 47d2 44be c1e6 aa3d cf66 a13d 5f80 4a3e
000003a0: 51eb 153c 09db 993d 177f 9ebc 514f cabd
000003b0: 4429 29be b809 55be f783 f93e 44eb c23c
000003c0: 07bc cbbe 8d07 503e 1926 a5bd c5c5 0f3e
000003d0: 6183 9dbe 7816 88be 10c0 1ebe 3705 9abd
000003e0: f7c0 0abf 5cd6 89bd 05f6 35be b858 35bf
000003f0: d932 28be a9af 26be 42f8 eabd 47ad 76be
0.073895566 0.2677102 0.78988856 0.0131201 0.01638409 0.53525937 0.004143127 0.05964154
0.2567926 -0.119619064 -0.39220852 0.17879353 -0.186792 -0.14589363 0.23494272 -0.24545501
-0.21431747 0.01660005 -0.056218997 -0.03216018 -0.106908895 -0.12912033 0.07488522 -0.67439914
-0.101673566 -0.119896226 -0.4463033 -0.13107105 0.09913829 0.42262885 -0.1223669 0.07515134
0.35673395 -0.20415516 -0.2291094 0.17094128 0.0049783154 -0.0690363 0.2223808 -0.08784985
-0.2569866 -0.062424578 -0.15718566 -0.25132936 -0.02998008 -0.15631609 0.28136903 0.20465007
-0.15295087 0.21477488 -0.069139004 -0.1494372 0.24367413 0.08560277 -0.13994198 -0.25228938
-0.22421493 -0.30751556 0.22086109 0.20797269 0.032745678 0.012121828 0.301925 0.09477381
0.14356704 -0.08930807 -0.015235065 0.31837636 0.061006002 0.055521596 0.30450812 -0.15531208
0.061615225 0.23500115 -0.2271819 0.07086379 0.14075403 -0.007480551 0.23655117 0.24516739
-0.09113646 -0.22500463 -0.06358531 0.14465624 0.10331119 0.21701829 0.18192975 0.014173977
-0.041172154 -0.26026526 -0.05756704 -0.0033368994 -0.09324968 -0.02129272 0.028940495 -0.09212978
0.16087894 0.1117682 -0.042581275 -0.13736789 0.04649553 -0.1987566 0.17435502 0.3069284
0.021205008 0.09521086 0.3259608 -0.09475689 0.036500413 0.10936529 0.0723193 -0.063216776
-0.05142028 0.11494276 -0.005561457 -0.09722265 0.0025604623 0.08999712 0.14956084 -0.016292164
0.27531806 0.3117917 0.11641092 0.27166817 0.2327513 -0.05493042 0.009902625 -0.049988277
-0.11910289 -0.105154455 -0.1140162 -0.06891295 -0.07339357 0.06937027 0.036116924 -0.08291037
-0.08560035 0.13302766 0.0657465 0.047158953 0.20290035 -0.08500332 -0.06463941 0.038629185
0.31824222 0.6708998 0.5942178 0.4243955 0.4162002 0.45265064 -0.37679523 0.35972837
0.23246756 0.14440852 0.08604482 0.08380303 0.02971124 -0.63561565 -0.13798833 0.25074604
-0.25049824 0.088333026 -0.1746676 -0.0018557478 -0.02056563 -0.14767714 -0.19010988 -0.041571315
-0.14957114 -0.12801799 -0.044909947 -0.16096161 -0.18605919 -0.24823911 -0.10059412 0.10621057
0.05002707 0.39304557 -0.027038567 -0.025373967 0.010385213 0.17084657 0.15895185 0.05669977
0.1727998 0.19194476 0.035649233 0.03235813 0.005927639 0.3314464 0.44026583 0.41339424
0.422575 0.27403682 0.3299834 0.3094998 0.31064898 0.26884115 -0.22948864 -0.26602972
-0.16521998 -0.31228063 -0.26794103 -0.2571586 -0.20528315 -0.21066497 -0.11319449 0.28190538
0.2936023 0.3653345 0.32024348 0.1395702 0.30411518 0.31128263 0.33645377 0.18616125
-0.1566268 -0.17754291 -0.082164265 -0.20096456 -0.16945073 -0.18057989 -0.2207827 -0.13652645
-0.10547803 -0.07148708 0.11497296 0.06127838 -0.1922084 0.08344794 0.07880937 0.19775532
0.009150342 0.07512481 -0.01934771 -0.0987841 -0.16519648 -0.20804489 0.48733494 0.023793824
-0.3979189 0.2031538 -0.08063907 0.14040287 -0.30764297 -0.26579642 -0.15502954 -0.07520526
-0.5420069 -0.06730339 -0.1776963 -0.708385 -0.16425647 -0.16277947 -0.11473133 -0.24089538

decoder_layers.block_0.conv.bias f4 [40]
00000000: 288f 07be 77d7 d6bd d215 8f3d 00c9 65bd
00000010: fcee cebd a3e3 72be b24c a6be c25f f9bc
00000020: 5257 833d 3de8 27bb 3eb8 b1bd 59d2 283e
00000030: beb3 a8bc 5297 113e f7ff 9e3d 36b3 98bc
00000040: ce24 da3d 9d9b 00be 35e5 1c3e 114b 9c3d
00000050: 43a1 bbbd 72b7 103c 2438 db3d d1e8 01be
00000060: 954d 55bd 9bce 43be 18ff 07be d696 0bbe
00000070: e4f1 353e a969 f43d 718c 3cbc 6bd3 b23c
00000080: 0d64 b53c 6a2a 5ebd 584c 4e3d d9fa cdbb
00000090: 471a 353d 57df 11bd a748 bbbd ddb3 3d3c
-0.13238204 -0.104903154 0.06986584 -0.05609989 -0.101041764 -0.23719649 -0.3248039 -0.030441169
0.064131394 -0.0025620603 -0.086777195 0.16486491 -0.02059352 0.1421788 0.07763665 -0.018640142
0.10651551 -0.12559362 0.1532181 0.07631505 -0.091616176 0.008832799 0.10704067 -0.12686469
-0.05207594 -0.19121782 -0.13280904 -0.13631758 0.17768055 0.119342156 -0.011508093 0.021829328
0.022142434 -0.054239668 0.050365776 -0.006286007 0.044214513 -0.035613384 -0.09144717 0.011578527

decoder_layers.block_1.conv.weight f4 [40, 20, 3, 3]
00000000: 4d8b 033e c841 163e dcec 573d 2c87 7d3d
00000010: 78de e23d cf8a fd3d 30f7 9cbd abec 293d
00000020: f130 373d e0aa babd f253 cc3c ae1d 863d
00000030: 40d7 f4bc ffab 39bd 96c2 b6bd e6d9 c7bd
00000040: d922 41bd a914 1bbd 54d8 333d c5e5 2cbd
00000050: 1e91 243e 1a57 b6bd 7f30 17be 5289 e8bc
00000060: 8eed 9a3c ad99 10be 1155 ac3d f7d1 d3bc
00000070: 9fa6 54bd a712 b6bd cab8 a7bb d2ec 95bd
00000080: 07bf 9fbd f1fe 89bd 7e35 6cbc 8f64 c7bd
00000090: 0a73 383d 83d0 cebc b225 28bc 0b45 8ebd
000000a0: 1331 dabd 8e40 47ba e4a5 28be 85e3 ecbd
000000b0: 2f48 1c3c 8180 6cbe c6ac 81be 5649 53bd
000000c0: db86 0f3e 7d15 81bd 3623 3a3d dbfb 883d
000000d0: 0750 0dbe b8e9 71bd 2534 523d 2a00 723d
000000e0: 1a01 733c b11e 0d3e f210 f73d 551d 1d3d
000000f0: 5bdd 913d edae 0e3e 3a20 2abc f302 00bd
00000100: 4e4a 573d 6515 a3bd 9a02 5d3d 2d2e 453e
00000110: ceeb 903d 56b9 0a3b 9db2 d43d f5b7 a23d
00000120: 8400 d53d 8819 43bd 82cb c63d 6aff d3bc
00000130: 6b1e 82bb dc75 8a3d 78d2 473d c0eb 573d
00000140: dbc1 1d3e 5c85 a33d 09e4 d43d cfc4 dcbd
00000150: 8740 ba3d c0f5 083e d9d9 f03c d5fc e53c
00000160: 44d6 193d 8683 e63d e242 033d af5d a93d
00000170: 8321 b9bd c64c 803d 665c 433b 8ddf d13d
00000180: f611 89bd e647 543d 0ac5 97bc 0977 7b3d
00000190: 6f5c c9bc b482 383e 534d ac3d 265d 723e
000001a0: 8506 1a3d 962c 643c 7d03 9b3d 5902 a93d
000001b0: 393a 8b3d b898 ec3d 69e9 96be 4841 2fbf
000001c0: 2712 2abf 0b97 383e 01e0 dcbe 72f4 25bf
000001d0: e5d4 8c3d 3538 01be 19db 03be 740d dfbc
000001e0: cb80 233e ce53 123d 9d6f 96be 2769 b73d
000001f0: 4e8d 843e 2ea4 64be 7809 d7bc 0d01 c53c
00000200: e52e 12be 0896 313e dbe4 9c3c 2fd2 f13d
00000210: ab38 4b3e 968d c73d 8f69 9cbc 83cb 24be
00000220: 186c 73bd d858 b23c 19d0 423e e748 b03e
00000230: e2b8 84bd e8e9 d93d 674e 373e cbf6 2cbe
00000240: ab72 333e 1cd6 bf3d 11a0 b03e 9c77 9b3d
00000250: 9d2d 8bbc 9da9 bebc 8e43 8a3c 805f 6c3c
00000260: 2958 303e 0314 723d 259b 6b3e 8c50 46bc
00000270: 92d3 f4be 7d28 90be 2a71 3e3e 8247 0ebf
00000280: 3b04 b5be 5eab a13c c03c 83bd 5609 2f3d
00000290: c9fb 4a3d 82a2 813d 1911 183e 8110 8d3d
000002a0: 19f8 db3c 463d 6e3d 3e7b a23c f6d9 d03d
000002b0: 2c39 b0bd 21ab a9bd d272 67be cd91 7bbe
000002c0: d7fe 58bd 586c f83d 4c94 d1bd dca2 e53d
000002d0: 0e6c 65bd f115 363d 2833 2b3a 4d90 8fbd
000002e0: 6dc5 0b3d 6b5a 9bbb c731 97bd 6b7c e4bc
000002f0: 4645 b5bc 8ac9 24be 9a11 723d 8d21 ecbd
00000300: bec3 d43c a41b 283d 8d70 943d 76be d5bd
00000310: cd51 183b 1a5e 183d dd78 bdbc 0c62 e2bc
00000320: 722e 06bc aa4a 5fbd 6f40 dbbd 51e2 5cbd
00000330: 7232 45bd 0d93 96bd 4689 0cbd a28d ecbd
00000340: acca cfbc a937 88bd f558 0abd a700 db3d
00000350: b334 c1bd b048 08be d38f 29bd dd3c 20be
00000360: 5f98 11bc 5331 bbbd c3f9 aabc c875 00be
00000370: 979d 72be efa8 1bbe 69f7 00be 03d9 16be
00000380: 6a06 e3bc 3510 5d3e 236d 0f3e c80e b2bd
00000390: ca78 423e 3176 083e 855e 8c3d 74ed 03be
000003a0: 8989 fb3c 86ae 6dbe be7a a33d 4bac 4cbd
000003b0: f8e4 4bbd 6334 d7bd 701f 53be 268f 10be
000003c0: b25d 6ebb 91cc b9bd 5c4d 67bc ccbc e7bc
000003d0: 6aa4 f53b ed69 cd3d ceac 793d 8876 c53d
000003e0: e8be 003e 8bb6 633d 94ff 803b ec11 0d3e
000003f0: 9494 a4bc 2def 053d 36a0 6dbd feec 11be
0.12846108 0.14673531 0.05271612 0.061896488 0.11077589 0.12379991 -0.07664335 0.04148547
0.04472441 -0.09114623 0.024942372 0.0654863 -0.029887795 -0.045330044 -0.08923833 -0.09758358
-0.047152374 -0.0378615 0.04390748 -0.042211313 0.16070983 -0.08903332 -0.14764594 -0.028385792
0.018912103 -0.14121123 0.08414663 -0.025856955 -0.051916715 -0.088902764 -0.005118464 -0.073205605
-0.078001074 -0.06738079 -0.01441705 -0.09735977 0.045031585 -0.02524591 -0.0102628935 -0.06946763
-0.106538914 -0.0007600867 -0.16469532 -0.115668334 0.009538694 -0.23095895 -0.25327128 -0.05158361
0.14016287 -0.06302927 0.045443736 0.066886626 -0.1380006 -0.059060782 0.05131926 0.059082188
0.014831806 0.13781239 0.12063779 0.03835805 0.07122298 0.13933916 -0.01038366 -0.031252813
0.052561097 -0.07963065 0.05395756 0.19255896 0.07076226 0.0021167598 0.1038563 0.07945243
0.10400489 -0.04763177 0.09706785 -0.025878627 -0.0039709113 0.06760761 0.048784703 0.052715063
0.15405981 0.07984421 0.10395057 -0.10779726 0.09094339 0.13374996 0.029400753 0.028074661
0.037557855 0.11255555 0.032046206 0.08269822 -0.09039595 0.06264643 0.0029809712 0.10247717
-0.06692879 0.05182638 -0.018526573 0.061392818 -0.024580209 0.1801861 0.08413186 0.23668346
0.037603874 0.013926646 0.07569025 0.08252401 0.067982145 0.11552566 -0.29474953 -0.68458986
-0.6643395 0.18026368 -0.4313965 -0.6482612 0.06876544 -0.12619098 -0.12876548 -0.027228095
0.159671 0.035724454 -0.2938203 0.08955603 0.25889057 -0.22328255 -0.026249632 0.024048353
-0.14275701 0.17342389 0.019152096 0.118076675 0.19845836 0.09743802 -0.019093303 -0.16093259
-0.059429258 0.02177088 0.19024695 0.3443062 -0.06480576 0.10640317 0.17901002 -0.16891019
0.17524211 0.0936701 0.3449712 0.07591173 -0.016989524 -0.023274237 0.016877916 0.014427066
0.1722113 0.059101116 0.23008402 -0.012104165 -0.47817665 -0.2815589 0.18597856 -0.5557786
-0.3535479 0.019735035 -0.064080715 0.042733513 0.049556527 0.06329824 0.14850272 0.068879135
0.0268517 0.058163904 0.019834157 0.10197823 -0.08604655 -0.082845934 -0.22602394 -0.24567337
-0.05297741 0.1213004 -0.102333635 0.112127036 -0.056011252 0.04445452 0.0006530755 -0.07009945
0.034123827 -0.0047410033 -0.07382541 -0.027891358 -0.022127759 -0.16092506 0.059098817 -0.11529837
0.025972243 0.041041985 0.0724803 -0.10436718 0.0023242116 0.037199117 -0.023128921 -0.027634643
-0.008189784 -0.054514565 -0.10705649 -0.05392677 -0.04814381 -0.073522665 -0.0343106 -0.11550452
-0.025365196 -0.06651241 -0.033776242 0.10693484 -0.0943388 -0.13308978 -0.041396927 -0.15648217
-0.008886426 -0.09140267 -0.020871049 -0.1254493 -0.23692928 -0.15201162 -0.1259438 -0.14731221
-0.02771302 0.21588214 0.14006476 -0.086942255 0.1899139 0.13326336 0.06853966 -0.1288355
0.03070523 -0.23211107 0.079823956 -0.049969 -0.04977891 -0.10508039 -0.20617461 -0.14117107
-0.0036371765 -0.09072221 -0.014117565 -0.028288268 0.0074964063 0.10029969 0.060955815 0.09641749
0.12572825 0.05559401 0.0039367173 0.13776368 -0.020090379 0.0326988 -0.058014117 -0.14250562

decoder_layers.block_1.conv.bias f4 [40]
00000000: e609 b1be 4ace 09be 74d0 26bd d704 38bd
00000010: 3b88 e8bd 9b78 53be af81 79bd 90ec 953b
00000020: a9b8 b13c d78b c6bd c907 5cbe f3e5 813e
00000030: 95b7 c23e f1ee 283e d9ab f03e 1583 103f
00000040: e6dd a33e 68b7 3a3f 834f 763d 74f6 f9bd
00000050: 33b4 d1be 691c 023e 1955 e73e b4af 15be
00000060: ac9b 873d 280a 94bd c18f a43e 5222 583f
00000070: d784 883d eee1 33bd 8081 2cbd ee9d 053b
00000080: 88b7 e1bc 46d2 a63c a135 15bc 6162 4c3c
00000090: b585 bbbc 38b5 143b d726 58bc a134 5d3d
-0.34577864 -0.134576 -0.04072614 -0.04492649 -0.11354109 -0.20651476 -0.06091469 0.0045753196
0.021694498 -0.09694641 -0.21487345 0.2537075 0.38030687 0.16497399 0.4700611 0.56450015
0.32005233 0.72936106 0.060134422 -0.1220521 -0.40957794 0.1270615 0.45182112 -0.14617807
0.06621489 -0.072285 0.32140926 0.8442737 0.06665962 -0.043916635 -0.04211569 0.0020388323
-0.027553335 0.020363938 -0.009107024 0.012474627 -0.022890905 0.0022691023 -0.013192854 0.05400527

read.weight f4 [1, 10, 1, 1]
00000000: 079a bdbc 6c4d 05be 3b06 343e 4d14 98bd
00000010: d3f3 093e f07c 07be 7531 8738 04da 983d
00000020: d96d 34bc d5cb 543d
-0.023144735 -0.13017815 0.17580502 -0.07425747 0.13471918 -0.13231254 6.446514e-05 0.07463458
-0.011012518 0.051952202
