trainedModels/test/baseline/1/1/1/run2/model.pt (torch, 20353 bytes, 11 tensors)

init.weight f4 [4, 1, 1, 1]
0	0x3eae5058	0.34045672
1	0x3f1db285	0.61600524
2	0x3e893224	0.26796067
3	0xbf542750	-0.82872486

init.bias f4 [4]
0	0x3efe383c	0.49652278
1	0xbf5949ce	-0.8487824
2	0x3eb476dc	0.35246933
3	0xbf55373e	-0.8328742

encoder_layers.block_0.conv.weight f4 [16, 8, 3, 3]
0	0x3dc79fbe	0.09747265
1	0x3d2932d6	0.041308247
2	0x3da75947	0.08171325
3	0xbbb2a8e6	-0.005452263
4	0xbd639ad2	-0.05556757
5	0x3d14b698	0.036306947
6	0xbd115c02	-0.035488136
7	0x3d57b14d	0.05265932
8	0x3ca249ed	0.019810641
9	0x3d34b68b	0.0441194
10	0xbd92651e	-0.07148193
11	0xbd4061e8	-0.04696837
12	0xbd771086	-0.060318492
13	0xbd9bbae3	-0.07604005
14	0xbddb7187	-0.10715013
15	0xbd463141	-0.048386816
16	0xbba92dde	-0.0051629385
17	0x3d768fb5	0.060195643
18	0x3cac2462	0.021013442
19	0x3d8f9854	0.07011476
20	0xbd0ce4c7	-0.034397867
21	0x3dc37cf0	0.09545314
22	0xbbd58f3a	-0.006517318
23	0xbd439c6f	-0.04775661
24	0x3df22c4e	0.11824857
25	0x3ccf763c	0.025324933
26	0xbd2125ea	-0.0393428
27	0x3c966e83	0.018363243
28	0xbdc5e2e7	-0.09662419
29	0xbb0c3c5c	-0.0021398282
30	0x3dd219ad	0.102588035
31	0xbd8b09a2	-0.06788947
32	0x3cb3df9c	0.021957211
33	0xbd9b6295	-0.075871624
34	0xbda74bc5	-0.08168749
35	0xbc68dab7	-0.014212302
36	0x3d461fa8	0.048370034
37	0xbc9c3265	-0.019066999
38	0xbcab4235	-0.020905593
39	0x3d6930b1	0.0569312
40	0x3da3bef1	0.079954036
41	0x3d87e0ef	0.066346996
42	0xbb98e0cf	-0.004665471
43	0xbcbd9739	-0.023143398
44	0x3da9a5c5	0.08283571
45	0x3ddec889	0.10878093
46	0x3dbb3608	0.09141165
47	0x3d8e234a	0.069403246
48	0xbd02b6f8	-0.031912774
49	0xbd826995	-0.063677944
50	0x3c7e74b4	0.015530754
51	0x3d82c24f	0.06384718
52	0xbcd7e4fe	-0.02635431
53	0x3bca652f	0.006176613
54	0xbdb6eb40	-0.08931589
55	0xbe00b8b0	-0.12570453
56	0xbd972ef4	-0.073820025
57	0xbdf7cfe9	-0.121002026
58	0xbd32e6f4	-0.043677285
59	0xbd61c829	-0.05512253
60	0x3d3e1ce5	0.046414275
61	0x3bb8c8b7	0.0056391614
62	0xbda7c419	-0.081916995
63	0x3d91834e	0.071051225
64	0x3d32b68a	0.043631114
65	0x3db7b0b2	0.08969249
66	0x3df07daf	0.11742722
67	0x3d4bace9	0.049725447
68	0xbd8f6945	-0.070025004
69	0x3d294f24	0.04133524
70	0x3cfe5b2b	0.031049332
71	0x3d568b7e	0.052379124
72	0xbce9ed9e	-0.028555688
73	0x392b51aa	0.00016338253
74	0xbde79275	-0.11307231
75	0x3d9de758	0.07710141
76	0x3bb5bf6b	0.0055465004
77	0x3da09b9c	0.0784218
78	0x3ce7de7a	0.028304327
79	0xbe01bacf	-0.12668918
80	0xbd018cb4	-0.031628326
81	0x3db7e912	0.089800015
82	0xbdc4e03c	-0.09613082
83	0x3cd79a3b	0.02631866
84	0x3ce32cf6	0.0277314
85	0x3d10dc57	0.035366382
86	0xbd2b0604	-0.041753784
87	0x3d14cc89	0.036327872
88	0x3d250eaa	0.040297188
89	0xbce3bc3b	-0.027799716
90	0x3ccea357	0.02522437
91	0xbb1398fa	-0.00225216
92	0x3c907994	0.017636098
93	0x3da4b904	0.080431014
94	0xbd97991f	-0.074022524
95	0x3d772d43	0.0603459
96	0xbc916bd7	-0.017751617
97	0xbd3736a7	-0.044729855
98	0x3d564d83	0.052320015
99	0x3ddc60e6	0.107606694
100	0x3d396eee	0.045271806
101	0x3d9be4c1	0.07611991
102	0x3d95447f	0.07288455
103	0x3dc21a46	0.094776675
104	0x3d74f53c	0.059804186
105	0xbd191597	-0.037374105
106	0x3da3168a	0.07963283
107	0x3e1c54b1	0.15266682
108	0xbded47d7	-0.11585968
109	0x3cd7c742	0.02634013
110	0xbe058ab0	-0.13041186
111	0x3c428387	0.011872179
112	0xbc022226	-0.007942712
113	0xbdb6fee0	-0.08935332
114	0xbd8bba51	-0.068226464
115	0xbd66ba3b	-0.056329947
116	0xbe077e3e	-0.13231751
117	0xbade50ee	-0.0016961375
118	0x3bad9fc2	0.0052985856
119	0x3dba6c5d	0.091027
120	0x3cc38acd	0.023869896
121	0x3d5e99d7	0.05434593
122	0x3daa165e	0.083050475
123	0x3deead4e	0.11654149
124	0xbb0a3140	-0.0021086484
125	0xbd52d6de	-0.051474445
126	0x3b2676ef	0.002540048
127	0x3d2c209d	0.04202329
128	0xbdca7186	-0.09884934
129	0xbd3d50f5	-0.046219785
130	0xbd9228f4	-0.071367174
131	0xbd388bc1	-0.045055155
132	0x3dc48853	0.09596314
133	0x3dac4576	0.08411686
134	0x3d32dc12	0.043666907
135	0x3d836bec	0.06417069
136	0x3d86c1c5	0.06579927
137	0x3d11bec2	0.03558231
138	0xbdb31082	-0.08743383
139	0x3d784fb7	0.060622897
140	0xbdbd0b0b	-0.09230622
141	0x3d98bc09	0.0745774
142	0xbdb370c5	-0.087617435
143	0x3c179a2d	0.009253067
144	0xbbfda800	-0.0077409744
145	0x3d9c14e7	0.07621174
146	0x3d2d121b	0.042253595
147	0x3c514ce0	0.012774676
148	0xbd0e7bdd	-0.034786094
149	0xbe017d51	-0.1264546
150	0xbc299cf7	-0.010352365
151	0xbcb61b1c	-0.022229724
152	0xbceae242	-0.028672341
153	0xbbfc7c47	-0.0077052447
154	0xbdcf6441	-0.10126544
155	0xbda2ed98	-0.07955474
156	0xbdbfa5c9	-0.09357793
157	0x3da54d42	0.080713764
158	0xbd32d17d	-0.043656815
159	0xbd4a338f	-0.049365576
160	0x3ca51f2e	0.02015647
161	0x3e01aee3	0.1266437
162	0xbdffa534	-0.12482682
163	0xbdeea190	-0.11651909
164	0x3d9681ab	0.07348951
165	0xbd85402f	-0.06506383
166	0x3d8500c7	0.06494289
167	0xbdca08d9	-0.09864969
168	0xbdfe1993	-0.12407222
169	0x3d86a624	0.065746576
170	0x3d044254	0.032289818
171	0xbdbd5860	-0.09245372
172	0x3df102e4	0.117681295
173	0x3d8346f0	0.06410015
174	0xba8c0acd	-0.0010684371
175	0xbdbdabe9	-0.09261305
176	0xbda137d4	-0.078719765
177	0x3d0d47f1	0.034492437
178	0xbb13a3bb	-0.002252801
179	0x3d79e9bf	0.061013933
180	0xbc9de7c3	-0.019275552
181	0x3ddf83b1	0.1091379
182	0x3d453c4f	0.048153218
183	0x3dae9c71	0.085259326
184	0xbd8f533a	-0.06998296
185	0xbdd28bb1	-0.1028055
186	0xbcbbe182	-0.022934679
187	0x3d9b2344	0.07575086
188	0xbd8866d6	-0.066602394
189	0xbd877d2e	-0.06615673
190	0xbdd9941e	-0.10623954
191	0x3d76b09f	0.060227033
192	0x3db6bc0a	0.08922584
193	0x3d1bfdff	0.038084026
194	0x3cc890cc	0.024483107
195	0x3d9d822d	0.07690845
196	0x3dc39ca2	0.0955136
197	0x3da792a7	0.081822686
198	0x3d1b852b	0.037968796
199	0x3da21574	0.07914248
200	0xbd2041c0	-0.039125204
201	0xbbec6713	-0.007214436
202	0x3d465b2a	0.048426785
203	0x3bad3257	0.005285542
204	0xbd41d5b2	-0.047322936
205	0xbddbec91	-0.10738481
206	0xbd9ca442	-0.07648517
207	0x3dc10906	0.09425549
208	0x3d517665	0.0511383
209	0xbbf478fc	-0.0074607115
210	0x3d29c9bb	0.04145215
211	0x3dd41236	0.10355036
212	0x3a971168	0.0011525573
213	0x3dc102ef	0.09424388
214	0xbdd7e3be	-0.10541485
215	0x3d209c44	0.039211527
216	0x3e01ad78	0.1266383
217	0x3ddac6fd	0.10682485
218	0x3cd01545	0.025400767
219	0x3c211f41	0.009834112
220	0x3de53beb	0.11193069
221	0x3d79e13c	0.061005816
222	0x3e083407	0.13301097
223	0x3db97a8c	0.09056577
224	0xbd8fabd1	-0.07015193
225	0xbb1b31f5	-0.00236809
226	0xbc9b4262	-0.018952552
227	0x3ca8bdba	0.020598281
228	0xbdfa4dfb	-0.12221905
229	0xbd881e1d	-0.06646369
230	0x3c34e367	0.011040545
231	0xbcc034f6	-0.023462754
232	0x3d7c5585	0.061604995
233	0xbde5077a	-0.11183067
234	0x3da441c9	0.0802036
235	0x3e073f51	0.13207747
236	0x3da410ed	0.08011041
237	0x39def474	0.0004252527
238	0x3d828614	0.063732296
239	0x3c7f6216	0.01558735
240	0xbd1ca834	-0.03824635
241	0xbd73bf93	-0.05950887
242	0xbd080aca	-0.033213414
243	0xbc2a73ad	-0.010403556
244	0xbdac6d90	-0.08419335
245	0xbd2c6a6f	-0.04209369
246	0x3d911afb	0.07085224
247	0xbd6df2a6	-0.058092736
248	0x3d96dccb	0.07366332
249	0xbda96259	-0.082707115
250	0xbd068b4e	-0.032847695
251	0x3cd72a08	0.02626516
252	0xbda1c934	-0.078997046
253	0x3d312542	0.043248422
254	0x3d9c7fcf	0.07641565
255	0x3e14cf64	0.14532238

encoder_layers.block_0.conv.bias f4 [16]
0	0xbd0a9193	-0.033830237
1	0x3d43841d	0.047733415
2	0x3cf5c3c2	0.030000571
3	0x3d3d5bed	0.046230245
4	0x3cfe4046	0.031036507
5	0x3dbeb16b	0.093111835
6	0x3d51fcb2	0.05126638
7	0x3dec502e	0.115387306
8	0x3dafe7b8	0.08589119
9	0xbdc55f1f	-0.096372835
10	0x3d6c1c4a	0.057644166
11	0xbd7ff2d0	-0.062487423
12	0x3cb46f74	0.022025801
13	0xbdc3a0c5	-0.09552149
14	0x3da4503d	0.08023117
15	0x3cfa0077	0.0305178

encoder_layers.block_1.conv.weight f4 [16, 8, 3, 3]
0	0xbbe8838e	-0.0070957607
1	0x3d3dce9e	0.046339624
2	0x3d86c09b	0.06579705
3	0xbd81e544	-0.06342557
4	0xbabc91a9	-0.0014386672
5	0x3cc431cd	0.023949528
6	0x3c350da1	0.011050613
7	0x3db9be16	0.09069459
8	0x3c500198	0.0126956925
9	0x3d601656	0.0547088
10	0x3d55d1f6	0.052202187
11	0xba72980d	-0.0009254225
12	0xbc083426	-0.008313214
13	0xbd59e9cf	-0.053201493
14	0x3d7cab29	0.06168667
15	0x3d9c8f45	0.07644514
16	0x3c8e7cfc	0.017393582
17	0x3d96277b	0.07331749
18	0xbd7da4ca	-0.061924733
19	0xbddfbe6f	-0.10924994
20	0xbba07db7	-0.004897799
21	0xbdf121bb	-0.11774012
22	0xbd85d604	-0.06534961
23	0x3d0c5414	0.03425987
24	0xbdaed80c	-0.085373014
25	0xbd3fdacb	-0.046839517
26	0x3c3623cc	0.011116933
27	0x3cfb4599	0.030672835
28	0x3d790772	0.060798116
29	0xbc84ad24	-0.016195841
30	0x3d2fbfa3	0.04290737
31	0x3db269e4	0.08711603
32	0xbdb6f3ca	-0.08933218
33	0xbcf45ba8	-0.029828861
34	0x3cceb709	0.025233762
35	0xbad7ade4	-0.0016455022
36	0x3cc90abc	0.024541251
37	0x3d0f8a87	0.03504422
38	0xbba12f7c	-0.0049189907
39	0xbd96b489	-0.07358653
40	0x3cffc12a	0.031220037
41	0xbd583a62	-0.052790053
42	0x3c9ad26a	0.018899161
43	0xbdae2266	-0.08502655
44	0xbd1af761	-0.037833575
45	0xbdabdeb1	-0.083920844
46	0x3d12138f	0.035663184
47	0xbd2127e2	-0.039344676
48	0x3da20b51	0.07912315
49	0x3d1edee2	0.038786776
50	0xbd9073af	-0.07053315
51	0x3d8cab0c	0.06868562
52	0xbde71c21	-0.11284662
53	0xbda00ea2	-0.07815291
54	0xbda3de63	-0.08001401
55	0x3d099d10	0.033597052
56	0xbdaf1096	-0.085480854
57	0xbdce7f4d	-0.100828744
58	0xbd39317b	-0.045213204
59	0xbda9552b	-0.082681976
60	0xbdea6101	-0.11444283
61	0xbd5cb0ce	-0.05387955
62	0xbd4c13fd	-0.04982375
63	0x3d948218	0.07251376
64	0x3db24a30	0.087055564
65	0xbda0321f	-0.0782206
66	0xba27fc41	-0.0006408133
67	0xbd2497d5	-0.04018386
68	0xbcce1863	-0.025158113
69	0xbdcb53ec	-0.09928116
70	0xbc84dffe	-0.016220089
71	0x3da597e2	0.0808561
72	0x3de94b65	0.113913335
73	0x3dbea42d	0.09308658
74	0xbd90b56a	-0.07065852
75	0x3d80e382	0.06293394
76	0x3dbb81a7	0.091555886
77	0x3d81ca3b	0.063374005
78	0xbc0e39e0	-0.008680791
79	0xbde4a856	-0.1116492
80	0xbdaa808e	-0.08325301
81	0x3dfada2a	0.12248643
82	0x3e153be2	0.14573625
83	0x3da6f463	0.08152082
84	0xbb97d8a2	-0.004633979
85	0x3d1934be	0.037403814
86	0x3bc5955a	0.006029767
87	0x3c0f7c03	0.008757594
88	0x3d2edc49	0.04269055
89	0x3d913eb8	0.07092041
90	0xbd78c6ad	-0.060736347
91	0xbde5dd42	-0.11223842
92	0xbd934c70	-0.07192314
93	0xbdead689	-0.114667006
94	0x3d89469d	0.067029215
95	0xbd6706d8	-0.05640301
96	0xbd889df8	-0.06670755
97	0xbe097a9d	-0.1342568
98	0xbcca1014	-0.02466587
99	0x3d63c290	0.05560547
100	0x3b91256e	0.004429511
101	0x3d9899e6	0.07451229
102	0xbdb7fd34	-0.089838415
103	0xbda8dfd5	-0.082458176
104	0x3dae534b	0.085119806
105	0x3ce8f886	0.028438818
106	0xbdaddd18	-0.08489436
107	0x3db59d0d	0.08867846
108	0x3dcf8781	0.10133267
109	0x3de6982b	0.112594925
110	0x3d906824	0.07051113
111	0xbccb138a	-0.02478959
112	0xbda09f70	-0.0784291
113	0xbcdd1946	-0.02698959
114	0x3dce092a	0.10060342
115	0xbd940924	-0.07228306
116	0x3dea5cb9	0.11443467
117	0x3db45410	0.08805096
118	0xbdae2b45	-0.08504347
119	0x3c8f632f	0.01750335
120	0x3daf5e3a	0.08562894
121	0x3d2aa688	0.041662723
122	0xbd475b9f	-0.04867136
123	0x3dac296c	0.08406338
124	0xbd427587	-0.047475364
125	0x3d862d39	0.06551594
126	0xbd9eccaf	-0.07753884
127	0x3cc3b059	0.0238878
128	0xbc48591b	-0.012228276
129	0xbded3593	-0.11582484
130	0x3da926b5	0.08259336
131	0x3db02a09	0.086017676
132	0x3d85ec69	0.06539232
133	0xbd565e9e	-0.052336328
134	0x3d84b597	0.06479948
135	0x3d8f5ad7	0.06999748
136	0x3bfd21f5	0.0077249953
137	0x3dc48855	0.09596316
138	0x3c89e67c	0.016833536
139	0xbdeca188	-0.11554247
140	0x3cf951b2	0.030434463
141	0xbdd31b53	-0.10307946
142	0x3dd850e3	0.10562303
143	0xbddaa619	-0.10676212
144	0x3dd30b83	0.1030493
145	0x3cc7ae44	0.024375089
146	0xbde1d2ef	-0.110265605
147	0xbd4c81d2	-0.049928494
148	0xbdd15fb1	-0.1022333
149	0xbd252111	-0.040314738
150	0x3d94e341	0.07269908
151	0x3d35015e	0.044190757
152	0x3dde3ca0	0.10851407
153	0x3cfc552a	0.030802328
154	0x3db0816e	0.08618437
155	0x3dde8b01	0.10866357
156	0xbd999d56	-0.075007126
157	0x3c77510b	0.015095006
158	0x3d1ca088	0.038239032
159	0xbd99e2a2	-0.0751393
160	0x3c94b283	0.018151527
161	0xbd45953a	-0.048238017
162	0x3cbd5729	0.02311285
163	0xbc1924e7	-0.009347177
164	0xbd615ed5	-0.05502208
165	0xbd634e4a	-0.055494584
166	0x3da323fd	0.079658486
167	0xbbf33a84	-0.007422747
168	0x3cc4e8b0	0.024036735
169	0x3d9e87ec	0.07740769
170	0x3d8e61a3	0.069522165
171	0xbdd30a6a	-0.10304721
172	0x3d992cc8	0.074792445
173	0xbd82ed24	-0.06392887
174	0xbcb940c5	-0.022613892
175	0x3d577340	0.052600145
176	0x3d918874	0.071061045
177	0xbd7513e8	-0.059833437
178	0x3dea7101	0.11447335
179	0xbd055b43	-0.032557737
180	0xbdb07fa4	-0.086180955
181	0xbcc1eaf8	-0.023671612
182	0xbd39c182	-0.04535056
183	0xbd916bff	-0.07100677
184	0x3d24eaab	0.04026286
185	0xbdc36c6e	-0.09542166
186	0x3d9185fd	0.07105634
187	0xbd8a3e27	-0.06750136
188	0x3d8046a3	0.06263473
189	0xbdc021c4	-0.0938144
190	0xbd857a6d	-0.065174915
191	0xbdc0aade	-0.0940759
192	0x3c525a66	0.0128389355
193	0x3d8036da	0.06260462
194	0x3d8dff12	0.069334164
195	0xbde1acc6	-0.11019282
196	0xbd813660	-0.06309199
197	0x3d7454f4	0.05965133
198	0x3c117a61	0.008879275
199	0xbce3d9e9	-0.027813869
200	0xbd450c81	-0.048107628
201	0xbce42e6b	-0.027854165
202	0x3d0241bf	0.03180098
203	0x3dce26ec	0.100660175
204	0xbd98bce9	-0.07457907
205	0xbcc3d0e6	-0.023903321
206	0x3da7180e	0.08158885
207	0xbd97017d	-0.07373331
208	0xbd104b99	-0.035228346
209	0x3da22775	0.07917682
210	0xbcca6352	-0.024705563
211	0xbdc5709c	-0.09640619
212	0xbd953a33	-0.07286491
213	0xbd777cf7	-0.06042191
214	0xbb9a7428	-0.004713554
215	0x3c66f43c	0.014096316
216	0xbdb83200	-0.08993912
217	0x3e02e8c0	0.127841
218	0x3cb3536c	0.021890365
219	0xbce41e2a	-0.027846415
220	0x3d71a552	0.058995552
221	0xbd24954f	-0.040181454
222	0x3d757a50	0.0599311
223	0x3dc0798c	0.09398183
224	0xbd6400db	-0.05566488
225	0x3e0ce6a2	0.13759854
226	0x3d930b36	0.07179873
227	0x3d05fd5a	0.032712318
228	0x3e01b4c7	0.12666617
229	0x3dc3ded9	0.09563989
230	0xbd274700	-0.040839195
231	0x3e0a0e2b	0.13481967
232	0x3e12624a	0.14295307
233	0xbd97be63	-0.0740936
234	0x3da7f8df	0.08201765
235	0x3ce2f485	0.027704487
236	0xba99996a	-0.0011718695
237	0xbd9f62b8	-0.07782501
238	0xbdbff130	-0.09372175
239	0x3c587eb8	0.013213806
240	0xbddbc747	-0.107313685
241	0x3d91661a	0.070995525
242	0x3d44e2c4	0.048067823
243	0xbc273f95	-0.01020803
244	0x3c901b2a	0.017591078
245	0xbba7c91d	-0.00512041
246	0x3b1a466e	0.0023540515
247	0x3cb2c837	0.021823986
248	0x3d35d8fd	0.04439639
249	0x3dfc7b09	0.123281546
250	0x3e0b14fb	0.13582222
251	0xbd9a0206	-0.07519917
252	0xbaabc833	-0.0013105929
253	0xbd9d54e8	-0.0768221
254	0xbd8495a4	-0.06473854
255	0xbc521273	-0.012821781

encoder_layers.block_1.conv.bias f4 [16]
0	0xbdd73a2d	-0.10509143
1	0x3d219272	0.0394463
2	0x3c832316	0.016007941
3	0x3d6c46d1	0.057684723
4	0x3d03e0c0	0.03219676
5	0xbd47d65d	-0.048788417
6	0x3d265997	0.040612783
7	0x3c91553c	0.017740838
8	0x3cb49033	0.022041416
9	0xbd6f7ff5	-0.05847164
10	0x3d81ca44	0.06337407
11	0xbdbf84b9	-0.09351487
12	0xbde4c5f2	-0.111705676
13	0xbd4781c8	-0.048707753
14	0x3deb9a60	0.11504054
15	0xbd3b3e21	-0.045713548

decoder_layers.block_0.conv.weight f4 [16, 4, 3, 3]
0	0x3cb8d590	0.022562772
1	0xbd11b113	-0.03556926
2	0x3d3ae16a	0.045625128
3	0xbc199004	-0.009372715
4	0xbcebf797	-0.028804583
5	0xbdd41eb0	-0.10357416
6	0xbd7f5904	-0.06234075
7	0x3d0d2968	0.034463316
8	0x3d72db1a	0.059290983
9	0xbe24f1c1	-0.16107847
10	0x3cb72154	0.02235476
11	0xbdf8d4cb	-0.12149962
12	0x3d79fa94	0.061029986
13	0x3c9073b6	0.0176333
14	0xbe4f5162	-0.20245889
15	0xbe3bbb23	-0.18333106
16	0xbe3a503a	-0.18194667
17	0x3bfbc38c	0.007683223
18	0x3d7d6c94	0.061871126
19	0x3d72066e	0.059088163
20	0x3dfbc35b	0.122931205
21	0xbd9f60f0	-0.07782161
22	0xbd5d3529	-0.054005776
23	0x3d86aa90	0.06575501
24	0x3daf74b8	0.08567184
25	0x38a0d57c	7.669159e-05
26	0x3dfc3971	0.123156436
27	0xbbe551f8	-0.006998297
28	0xbdded703	-0.10880854
29	0xbdc63158	-0.0967738
30	0x3e2772cd	0.16352387
31	0x3e1c665b	0.1527342
32	0xbde217fb	-0.1103973
33	0x3d94378f	0.072371595
34	0x3dae3cf8	0.085077226
35	0xbd95386e	-0.07286154
36	0x3d35fb5f	0.04442918
37	0xbc84df9f	-0.016219912
38	0xbd82d175	-0.06387607
39	0xbdf523e0	-0.11969733
40	0x3e402b03	0.18766408
41	0x3c496a99	0.012293481
42	0x3d9ecaaf	0.077535026
43	0x3d4a7d53	0.049435925
44	0xbc7a9d54	-0.015296299
45	0xbe3cc9f7	-0.18436418
46	0xbdc2687b	-0.09492584
47	0xbe298e62	-0.16558221
48	0xbe3784f6	-0.17921814
49	0x3dc23a41	0.09483767
50	0xbe092106	-0.13391504
51	0xbd02f90d	-0.031975795
52	0xbc80f208	-0.01574041
53	0x3df264af	0.1183561
54	0xbda6248c	-0.081124395
55	0xbd811f6c	-0.06304821
56	0x3baa4b7b	0.0051969863
57	0xbcdaa969	-0.02669211
58	0x3e3e4775	0.18581946
59	0xbd47cc54	-0.048778847
60	0x3ded5335	0.11588136
61	0xbdbf1912	-0.09330954
62	0x3db8ee3a	0.09029813
63	0x3d927cfd	0.07152746
64	0x3e0f12da	0.13972035
65	0xbe1261e1	-0.1429515
66	0xbdaa8eda	-0.08328028
67	0xbd5e6011	-0.054290835
68	0x3d1f99cd	0.038965035
69	0x3da51706	0.08061032
70	0x3de3586d	0.1110085
71	0x3dbd8d69	0.092554875
72	0x3d91872a	0.071058586
73	0xbdfdf666	-0.124005124
74	0xbc8a4e55	-0.016883055
75	0xbcc8b7f4	-0.024501778
76	0x3d1b2a54	0.037882164
77	0x3d5971dc	0.0530871
78	0x3dd421c4	0.10358003
79	0x3d8e76e3	0.069562696
80	0xbdd95733	-0.10612335
81	0x3ddadb30	0.10686338
82	0xba9a2898	-0.0011761365
83	0xbd101ae3	-0.03518189
84	0xbbef0c89	-0.0072951955
85	0xbc827f05	-0.015929708
86	0xbe378b19	-0.17924155
87	0xbe24a2a0	-0.16077662
88	0xbe2b07b6	-0.1670216
89	0xbe26a4e9	-0.16273846
90	0xbdbd091e	-0.092302546
91	0x3e3b8a9c	0.18314594
92	0xbd8bf214	-0.06833282
93	0xbd0579b0	-0.032586753
94	0x3d5d8bbf	0.05408835
95	0x3a5c9ded	0.0008415867
96	0xbcf0bea3	-0.029387778
97	0xbcca2543	-0.02467597
98	0x3e1360e2	0.14392427
99	0xbe02386c	-0.12716836
100	0xbcadc01c	-0.021209769
101	0x3e35ff69	0.17773212
102	0x3e29be66	0.16576537
103	0xbc37947a	-0.011204833
104	0x3e210ffc	0.15728754
105	0xbe0075fc	-0.12545007
106	0x3e1f44c9	0.15553583
107	0xbac01fd4	-0.0014657923
108	0xbd9ec601	-0.0775261
109	0x3e0bae5d	0.13640733
110	0x3e3d473a	0.18484202
111	0x3e16db35	0.14732058
112	0x3e0314f1	0.12800957
113	0x3ccd66cf	0.025073437
114	0x3dea7f1f	0.11450028
115	0xbd9e9d3f	-0.07744836
116	0x3d380f2c	0.044936344
117	0xbca9300f	-0.020652799
118	0x3dbda4a8	0.09259921
119	0xbe04126e	-0.12897655
120	0xbdc5448e	-0.096322164
121	0xbe20e32b	-0.15711658
122	0x3d7e79e5	0.062127966
123	0xbe1064b6	-0.14100918
124	0x3ba39bf4	0.0049929563
125	0x3da1a7c7	0.07893329
126	0x3dd79546	0.105265185
127	0xbdd469a5	-0.103717126
128	0xbdc510cb	-0.09622344
129	0x3e34291d	0.17593808
130	0xbdaa7046	-0.08322196
131	0xbdb5e7f5	-0.08882133
132	0x3d79f0dd	0.06102072
133	0xbd98fe61	-0.07470394
134	0x3e2f2e0f	0.17107414
135	0xbcbb3fda	-0.022857595
136	0x3dfdf345	0.123999156
137	0x3e3bfb01	0.18357469
138	0x3d57850a	0.05261711
139	0xbe02b8be	-0.12765786
140	0x3e0337b0	0.12814212
141	0xbd526cd4	-0.051373318
142	0xbb522313	-0.0032064363
143	0xbdc38908	-0.09547621
144	0xbdbc9646	-0.0920835
145	0x3e3f98e6	0.1871067
146	0xbd73516f	-0.059403833
147	0xbdee2179	-0.11627478
148	0xbd5216a0	-0.051291108
149	0x3d2012c3	0.039080393
150	0xbdd4e18a	-0.10394581
151	0xbd0cc3c4	-0.034366384
152	0xbd2f23a7	-0.04275861
153	0x3d218ac8	0.039438993
154	0xbdcc6f94	-0.09982219
155	0x3d83f046	0.06442313
156	0xbe2067dc	-0.15664619
157	0xbe04ea57	-0.12980019
158	0xbcb17e09	-0.021666544
159	0xbd8e7f2a	-0.06957848
160	0x3d8ad95c	0.06779739
161	0x3def7728	0.11692649
162	0xbc5b76ba	-0.013395006
163	0xbdc4f84b	-0.096176706
164	0xbdbfe574	-0.093699366
165	0x3dc1840e	0.094490156
166	0xbd2f9c96	-0.04287394
167	0x3e370fce	0.17877123
168	0xbde99312	-0.114050046
169	0x3bd93825	0.0066290074
170	0xbdc8cbeb	-0.09804519
171	0xbd91ddda	-0.07122393
172	0x3e11b9c6	0.14231023
173	0x3e287ad5	0.16453107
174	0x3b2096da	0.0024503977
175	0x3b2a09d5	0.0025945802
176	0x3e2b6cf4	0.16740781
177	0x3e33a89a	0.17544785
178	0x39f6af9f	0.00047051624
179	0xbd326d33	-0.04356117
180	0xbdf944a5	-0.12171296
181	0xbdc4a350	-0.09601462
182	0x3d8e1351	0.06937278
183	0xbd82e461	-0.06391216
184	0x3d4f8529	0.0506641
185	0xbdd1482b	-0.10218843
186	0x3de36149	0.1110254
187	0xbdb76e29	-0.08956558
188	0x3b7ca24d	0.0038548887
189	0x3cc9ee19	0.024649667
190	0xbe54ee76	-0.2079409
191	0xbbb3ae61	-0.005483434
192	0x3dd3532a	0.10318597
193	0xbe207602	-0.15670016
194	0xbdfcd559	-0.1234538
195	0xbe43cf42	-0.19122031
196	0xbe52b452	-0.20576599
197	0xbd526b03	-0.051371586
198	0xbdc1c691	-0.09461702
199	0x3d812fad	0.063079216
200	0x3e059fac	0.13049191
201	0xbd6724e6	-0.056431673
202	0x3e321572	0.17390993
203	0x3c82a38c	0.015947126
204	0x3debeffb	0.11520382
205	0xbd3764eb	-0.044773977
206	0xbcf227db	-0.02956002
207	0x3e01117d	0.12604327
208	0xbe181299	-0.14850844
209	0x3de10a21	0.1098826
210	0x3e20f9c9	0.15720285
211	0xbdcf3100	-0.10116768
212	0x3d5911c7	0.05299547
213	0x3aabada7	0.0013098017
214	0x3e074da3	0.1321321
215	0xbe28705d	-0.16449113
216	0x3df06d85	0.11739639
217	0x3e2bc529	0.1677443
218	0xbdb38e30	-0.087673545
219	0xbde88ecd	-0.11355362
220	0xbd3074a0	-0.043079972
221	0xbe085263	-0.13312678
222	0xbcfee1df	-0.031113563
223	0xbe1a5cf3	-0.1507452
224	0x3d9f7e00	0.077877045
225	0xbd538b90	-0.05164677
226	0xbc55a2f6	-0.013039341
227	0x3d29df29	0.041472588
228	0x3b8bac90	0.0042625144
229	0xbe312415	-0.1729892
230	0x3d8c6f16	0.068571255
231	0xbd4d2b3f	-0.05009007
232	0xbd087f78	-0.03332469
233	0x3d97a45c	0.07404396
234	0xbc72b7bc	-0.0148143135
235	0xbdabb809	-0.08384711
236	0xbc31882a	-0.010835687
237	0xbcefa244	-0.029252179
238	0xbdb7dc6d	-0.0897759
239	0x3a7ed23e	0.00097206596
240	0x3d3db8e9	0.046318922
241	0x3cc0b56e	0.023524012
242	0xbadd53c6	-0.0016885928
243	0x3e13ed09	0.1444589
244	0xbdc3f921	-0.09569002
245	0xbd8cfb91	-0.0688392
246	0xbddc272b	-0.10749658
247	0x3cee8315	0.02911524
248	0xbd8453bb	-0.06461283
249	0xbe0e9f1a	-0.1392788
250	0xbdfa6c99	-0.122277446
251	0xbd43b5eb	-0.047780912
252	0xbc9a8558	-0.018862411
253	0x3d98010e	0.07422076
254	0x3c92630e	0.017869499
255	0x3d8f7dfb	0.07006451

decoder_layers.block_0.conv.bias f4 [16]
0	0x3dcb94ce	0.099404916
1	0x3e632738	0.2218293
2	0xbd84d505	-0.06485943
3	0x3c926e01	0.01787472
4	0x3cde7b3d	0.027158374
5	0x3e21af37	0.15789495
6	0x3e4828a5	0.19546755
7	0xbd377b05	-0.044795055
8	0x3e38dddb	0.18053381
9	0x3e5fd4dc	0.21858543
10	0xbdc7e542	-0.09760524
11	0xbca35a11	-0.019940408
12	0x3df7514e	0.120760545
13	0xbe18f772	-0.14938143
14	0x3e45f713	0.19332533
15	0x3d819d4d	0.06328831

decoder_layers.block_1.conv.weight f4 [16, 8, 3, 3]
0	0x3d01f726	0.03172984
1	0xbd479631	-0.048727218
2	0xba6abe0a	-0.00089547096
3	0xbc50a33e	-0.0127342325
4	0x3bf6eb9a	0.00753541
5	0x3d20d5bc	0.039266333
6	0xbddc59e8	-0.10759336
7	0x3defb1d1	0.11703838
8	0x3cb3fa10	0.021969825
9	0x3c24f02d	0.010067028
10	0xbdb1e54d	-0.08686314
11	0x3d2840d1	0.04107744
12	0x3cd03c24	0.025419302
13	0x3d66b64e	0.056326203
14	0xbde3492c	-0.11097941
15	0xbc735baf	-0.014853402
16	0x3cd62451	0.026140364
17	0xbd02e81b	-0.031959634
18	0x3d9ccc79	0.076561876
19	0xbcaa0c44	-0.020757802
20	0x3dc3c877	0.0955972
21	0x3d92bcb2	0.07164897
22	0x3d7fd45d	0.062458385
23	0x3d9da75f	0.07697939
24	0x3ade1ce7	0.001694587
25	0xbc7715d1	-0.015080885
26	0x3e045348	0.12922394
27	0x3d7598ae	0.05996006
28	0xbd0e9e38	-0.034818858
29	0x3dcc4135	0.09973375
30	0xbd8e3294	-0.06943241
31	0x3d291db8	0.041288108
32	0xbd37ae49	-0.044843946
33	0x3c7078a8	0.014677204
34	0x3dc294b2	0.09501018
35	0xbcf4b1a9	-0.029869871
36	0x3d250b09	0.040293727
37	0x3cd53c6f	0.026029794
38	0x3c7276c1	0.014798821
39	0x3d42217e	0.047395222
40	0x3d62c81f	0.05536663
41	0x3ba3b5e3	0.004996048
42	0x3dbf8c1a	0.09352894
43	0x3d076901	0.033059124
44	0xbd2f8581	-0.04285193
45	0x3bbe2901	0.005803228
46	0x3def1c9f	0.11675381
47	0xbdb4bae0	-0.08824706
48	0xbd23e85a	-0.04001651
49	0x3cdb7f33	0.026794052
50	0x3d7aec5a	0.06126056
51	0xbd7284e6	-0.059208773
52	0xbd4935fe	-0.049123757
53	0xbb014c33	-0.0019729256
54	0xbcd4e6ac	-0.0259889
55	0x3d6869e0	0.056741595
56	0x3b4aaa96	0.003092443
57	0xbd8e9912	-0.069627896
58	0xbcf3b895	-0.029751102
59	0x3d8a1df7	0.067439966
60	0xbda2fbcf	-0.07958185
61	0xbe223c37	-0.15843283
62	0xbe21de98	-0.15807569
63	0x3e336eaf	0.17522691
64	0x3e0f9370	0.14021087
65	0x3d84cab3	0.06483974
66	0x3e0c72b4	0.13715631
67	0x3ddf7508	0.10910994
68	0x3d1bbf81	0.03802443
69	0x3da29efd	0.07940481
70	0x3def9a2b	0.11699327
71	0x3e2e6622	0.17031148
72	0xbc23cf0d	-0.009998095
73	0xbce06263	-0.027390664
74	0x3d7d3e0f	0.06182676
75	0xbaada898	-0.0013249097
76	0xbb84c6d7	-0.004052024
77	0xbdc3da4c	-0.09563121
78	0x3d2ecfff	0.04267883
79	0xbd59ac45	-0.053142805
80	0xbde05eb5	-0.10955564
81	0xbdad9f8a	-0.08477695
82	0x3cd455b7	0.025919778
83	0x3be260a2	0.006908492
84	0xbe05b886	-0.13058671
85	0xbdf012ff	-0.11722373
86	0x3d44b407	0.04802325
87	0xbc619a6b	-0.013769726
88	0x3da1fdac	0.07909712
89	0xbd6cf092	-0.057846613
90	0x3c5da358	0.013527714
91	0x3d039725	0.032126565
92	0x3dd8e493	0.10590472
93	0x3e29ce4e	0.16582605
94	0x3c04f314	0.008114595
95	0x3de89294	0.113560826
96	0xbdbc4c24	-0.0919421
97	0x3dec0af2	0.11525525
98	0xbdb26bd6	-0.08711974
99	0xbd287daa	-0.041135468
100	0xbcc34440	-0.023836255
101	0xbdcc9bdd	-0.09990666
102	0x3d8c175c	0.06840393
103	0xbd074b6b	-0.03303091
104	0x3d00f91b	0.031487565
105	0x3d8806e4	0.06641939
106	0x3db345c2	0.087535396
107	0xbc657a63	-0.01400623
108	0x3db52848	0.08845574
109	0xbdf53eaa	-0.11974843
110	0x3db48de7	0.08816128
111	0x3c5d6ac6	0.013514226
112	0x3d2b6d83	0.041852485
113	0xbdb19d51	-0.08672584
114	0x3c891a1b	0.01673608
115	0x3d6adbfd	0.057338703
116	0xbd979b13	-0.07402625
117	0xbda9cd82	-0.08291151
118	0xbc624ee5	-0.013812755
119	0xbdc4883a	-0.09596296
120	0xbd2bd098	-0.041946977
121	0xbdfc54a5	-0.12320832
122	0x3be50a5d	0.006989761
123	0x3ce239ff	0.027615545
124	0xbb76057a	-0.0037539885
125	0x39f0fe05	0.00045965626
126	0xbd54d485	-0.051960487
127	0x3daa747d	0.083229996
128	0x3c99d21c	0.018776946
129	0xbd259834	-0.040428355
130	0xbe025f90	-0.12731767
131	0xbddfe153	-0.10931649
132	0xbda5447e	-0.080697045
133	0x3d9052f9	0.07047076
134	0x3cc7c3fb	0.024385443
135	0x3dcfda31	0.101490386
136	0x3cce80ba	0.025207866
137	0x3e1c9924	0.15292794
138	0x3df6851a	0.12037106
139	0x3e1b3b95	0.15159447
140	0x3d0f5344	0.034991518
141	0x3e3d366c	0.18477792
142	0xbd24bdf7	-0.040220227
143	0x3cb9e34c	0.022691391
144	0x3d7de059	0.061981533
145	0xbd777c1a	-0.060421087
146	0xbe36c0f4	-0.17847043
147	0x3d1ecd58	0.03877005
148	0xbc4140d8	-0.011795245
149	0xbd381133	-0.044938277
150	0xbd81cb27	-0.06337576
151	0x3d803c7a	0.06261535
152	0xbc442a2e	-0.011972947
153	0xbcc538a2	-0.024074856
154	0x3dabfad5	0.08397452
155	0x3cfe77f2	0.031063054
156	0x3e02d279	0.12775601
157	0x3cc3076e	0.023807254
158	0x3c2afd10	0.010436311
159	0xbcb26639	-0.02177726
160	0xbd949299	-0.07254524
161	0x3d37e779	0.044898484
162	0x3d0770ca	0.03306655
163	0xbd6bfd1e	-0.05761444
164	0x3ccbf65a	0.024897743
165	0xbbbadd75	-0.0057026693
166	0xbdd50a68	-0.104023755
167	0xbdb1e531	-0.08686293
168	0xbb4efc98	-0.0031583663
169	0xbcde8a6e	-0.027165618
170	0xbd47ae27	-0.04875007
171	0xbd4d615d	-0.05014168
172	0x3cdfaa85	0.02730299
173	0xbd4f5941	-0.05062223
174	0x3d00c227	0.031435158
175	0xbbc866ff	-0.0061157937
176	0xbdd697dd	-0.10478184
177	0xbe35e113	-0.1776164
178	0xbc2c5dee	-0.010520441
179	0xbdcb588a	-0.09928997
180	0x3d4aef5d	0.04954468
181	0x3cb6abbd	0.022298688
182	0x3d643271	0.055712167
183	0xbd6e65a7	-0.058202412
184	0x3ddd41b3	0.10803547
185	0x3cb8ced0	0.022559553
186	0x3e198bbd	0.14994712
187	0x3da1358f	0.078715436
188	0xbd6ce108	-0.057831794
189	0x3dda91bf	0.1067233
190	0x3d50981c	0.050926313
191	0x3d4fdef6	0.05074974
192	0x3c5706b7	0.01312416
193	0x3dc2fd7d	0.09521005
194	0x3d35eeb9	0.044417117
195	0xbd1776d3	-0.036978554
196	0x3db5c0f2	0.08874692
197	0xbd7934c2	-0.06084133
198	0xbdc6bb8a	-0.09703739
199	0x3d258d09	0.040417705
200	0x3d08e7c1	0.033424143
201	0xba53de7f	-0.0008082166
202	0xbb996af1	-0.004681938
203	0xbb49a436	-0.0030768043
204	0x3dbac225	0.091190614
205	0x3db4bb03	0.08824732
206	0xbdc3abd2	-0.095542565
207	0xbd568d23	-0.052380692
208	0x3d9e033c	0.07715461
209	0x3cd8901d	0.026435906
210	0x3c00abde	0.007853476
211	0x3dec0274	0.115239054
212	0x3d9b4e48	0.0758329
213	0x3dda4201	0.106571205
214	0x3d00bc94	0.031429842
215	0x3dce69fc	0.10078809
216	0xbde8f81f	-0.1137545
217	0xbd92298c	-0.07136831
218	0x3d0c4bd5	0.034252007
219	0x3d0e7534	0.034779742
220	0xbdd790fa	-0.10525699
221	0x3d60bf57	0.054869976
222	0x3d576660	0.052587867
223	0xbd18253e	-0.037144892
224	0xbdd8d8ac	-0.10588202
225	0x3d91e742	0.07124187
226	0xbddd6a13	-0.10811248
227	0xbdad554b	-0.08463534
228	0xbd8c45f4	-0.0684928
229	0x3d419a6c	0.04726641
230	0x3d3691e2	0.04457272
231	0x3c0b62bb	0.008507426
232	0x3d716e02	0.058942802
233	0x3df07304	0.117406875
234	0x3cdb6442	0.026781205
235	0xbdd4e864	-0.103958875
236	0xbd58c27f	-0.05291986
237	0xbcce005c	-0.025146656
238	0xbde0aa66	-0.10970001
239	0xbbac76e5	-0.005263197
240	0xbdc5e251	-0.09662307
241	0xbd7fa67c	-0.06241463
242	0x3b2f4845	0.0026745957
243	0xbd21aec8	-0.039473325
244	0xbcc28734	-0.02374611
245	0x3c518ea5	0.012790357
246	0xbdbdba0e	-0.09264003
247	0xbd700247	-0.05859592
248	0xbd436668	-0.047705084
249	0xbc29e38c	-0.010369193
250	0xbd825b2a	-0.063650444
251	0xbccadd8c	-0.024763845
252	0xbd758de4	-0.05994977
253	0xbd0ee46e	-0.034885816
254	0x3d8a0a36	0.06740229
255	0x3ddec23e	0.108768925

decoder_layers.block_1.conv.bias f4 [16]
0	0xbd315746	-0.04329612
1	0x3c60bf21	0.013717444
2	0xbd8d7315	-0.06906716
3	0xbcbe0c4e	-0.023199227
4	0x3d8f76a2	0.07005049
5	0x3adb9d57	0.0016755265
6	0x3c0963d0	0.008385614
7	0xbdf429ef	-0.11922061
8	0x3cf35001	0.029701235
9	0xbd65e095	-0.05612238
10	0x3d615f07	0.055022266
11	0xbd96643e	-0.073433384
12	0xbdfc9316	-0.12332742
13	0xbd5b63a1	-0.05356181
14	0xbd941e59	-0.07232351
15	0x3d49405e	0.04913365

read.weight f4 [1, 4, 1, 1]
0	0x3eacd324	0.33754838
1	0x3ea26392	0.3171659
2	0xbe35eb3c	-0.17765516
3	0x3e8ea8f1	0.27863267
