trainedModels/wave/spikes-clip/baseline/0.01/run1/model.pt (torch, 105473 bytes, 11 tensors)

init.weight f4 [10, 1, 1, 1]
00000000: 788a 783e 8d66 70be 15b5 4abe 66f3 153e
00000010: 4771 26be 902d 0ebc cfbe 29be 70a4 1fbe
00000020: 701f 013f 1562 a7be
0.24271572 -0.2347662 -0.1979564 0.1464363 -0.1625415 -0.008677855 -0.16576694 -0.15590072
0.50438595 -0.32692018

init.bias f4 [10]
00000000: edf4 a8be b69e c53e 2546 86be b690 12be
00000010: bf42 af3e f651 b73c 5475 003d 227a 82be
00000020: cf24 15be 2298 c03e
-0.32999364 0.3859765 -0.2622539 -0.14313015 0.3423061 0.02237795 0.031361893 -0.25483805
-0.14564823 0.37616068

encoder_layers.block_0.conv.weight f4 [40, 20, 3, 3]
00000000: 5b55 2b3d 9f6d 99bd 16e2 283d fba1 e13c
00000010: 1e19 07be 86ed 133d cb6a 773b c078 92bb
00000020: d358 35bd c32d 61bd af92 f83b f1b7 85bd
00000030: 44a1 00bd 3703 6d3d 4929 51bc e4ac 303c
00000040: 6568 b9bb d2ed 2e3d 9db6 083d 9250 d33d
00000050: 7c94 3a3d 8cc6 6f3d fcdd cb3d fb12 03bd
00000060: d73c 863c a987 27bb 9382 3b3b 6160 9f3d
00000070: 629d 85bc 6772 1e3d 9a6f b23d be6b fabd
00000080: 008d bc3d 049b 3a3b 886a 633c 6dda 81bd
00000090: 19a0 b3bd b8c1 afbc 5822 87bc 18d1 51bb
000000a0: 6af8 383d e4ed 74bd 2013 77ba be36 07bd
000000b0: 0c38 413d d433 92bd 4ffc 0e3d 976c d7bc
000000c0: 8c71 9dbc be7b c43c a0f2 bfbc 647c 3dbd
000000d0: f380 95bc 9b0b afbb 9d71 8cbd 5cbf 773d
000000e0: 3cda c83c 3064 ce3d 736f b33e 28c8 17bd
000000f0: 1dd4 803d 1768 693d 38e3 173d 6a8f 2f3d
00000100: f19d bd3d 9ba3 793d 2f50 1cba 466d 6d3d
00000110: 38ca 98bc eff4 753d 8972 643b 96a0 b93b
00000120: b800 673d 0882 bdbd df5d 67bc e1bd 15bd
00000130: 7962 c4be cbcb 5b3d 6b1b 05bd d7e5 c0bd
00000140: e4aa 3fbd 9c11 3bbd b301 9e3d 12f1 37bc
00000150: 4991 97bd 6841 0c3e dbc3 a4bd a01e 1ebb
00000160: ec83 553d ba84 083d 33c6 bbbd 366c 123d
00000170: ddd5 5ebd 8f74 4a3d c91f bdbc be49 cebc
00000180: cbc6 3abc 2a37 423c 678f bf3d 123d b53d
00000190: 76f3 06bd 5121 2fbd 6c83 e23d 2836 49be
000001a0: 5f46 d8bd 457b aabd 6e1d 1a3c 4e6b 03be
000001b0: 5c47 463e b497 893d f70b b93d eb23 e53d
000001c0: bb18 31bd 3b34 3c3e ce29 70bc 3054 0a3d
000001d0: b81f 9dbc e919 1d3d 23d4 a53d d705 25bc
000001e0: e832 fdbd b55c 0fbe dfd0 f8bd d8e5 e2bd
000001f0: 5ef9 01be 05b7 66be ceed d8bd 224e 293d
00000200: a4c3 5cbc 6e8d 753e ef81 8bbd 616a f0bd
00000210: 92cb 8ebe 3593 20be 1eba aebd 0e01 773d
00000220: 6a90 773e ea66 073c dd61 073e 1e4a ce3c
00000230: 2a09 0b3d d4c4 373d 0e54 2ebc 5cfe 28be
00000240: 170f 3ebe c8ab f8bd 4392 133c 4d1f b7bd
00000250: 541e 0dbd 4635 063d 7750 683c be7a f83c
00000260: 4473 ad3c 0789 ed3d 1572 4a3e 274a 063d
00000270: 111f 303e f028 213e 9783 7f3b 0fed 6f3d
00000280: 4005 f23d a1a7 dfbd c8f6 413e 2076 2c3e
00000290: 395d 93bd 1c97 b33c a19e 4bbc ebc5 8d3d
000002a0: 3818 82be 5af7 d0bd d582 bdbd 6528 c6bd
000002b0: 6b44 69be 776d 023e 45d6 01be 6f9d 163d
000002c0: 57b3 333d 04ed 9fbe f34b 71be df03 203e
000002d0: 18e4 d83d 58c4 af3d 53de 873d 6743 a93d
000002e0: 5705 be3d 51a5 093e 6a52 383d 73c0 753d
000002f0: bdff d33d e396 a1bd a2b1 8cbd 2da3 7ebd
00000300: bfee 80bd de31 25bd 2112 c7bd 2a3c 0ebc
00000310: fa8a 96bc 7d6f bbbd 206f 49bd 3fd6 09bd
00000320: 5879 56bc 240e a3bd 3dd3 26bc b28b acbc
00000330: 3b2a 12bd 7c67 ac3c e08d b7bc d882 de3d
00000340: 07a5 4c3e 88ce ce3d 2247 f63d 77a2 f03d
00000350: 10d8 0f3e 40ab 8e3d a240 9d3c 435d e93d
00000360: b42a 90bb 0461 b8bd 4f4a 0fbd a5f3 a5bc
00000370: db2e 87bd 4c83 75bd 54e2 1ebd 868e 6d3b
00000380: c4fd 6cbd 4e5e 003b fe8d 27bd 8522 c03b
00000390: 39d9 1cbc 58fc 873c efb2 47bc e7a1 91bc
000003a0: 3e10 4fbc 7649 ce3a 7f9c f4bd bbc4 2bbe
000003b0: 65bb c6bd 9d33 95be a55e 0dbf e3d0 4dbe
000003c0: dd32 eebd d25e f8bd c712 f1bd 6528 3dbc
000003d0: 9cd6 95bb b34a 8ebc 5e15 ffbc 0338 40bd
000003e0: 84da 94bd 0f83 5db7 2dd9 17bd 27e3 b43a
000003f0: e180 cb3d ca15 313e 1db9 ec3d 2b27 b63e
0.04182945 -0.07491612 0.041231237 0.027543059 -0.13193175 0.036115192 0.0037752863 -0.004469961
-0.044274163 -0.054975282 0.0075858454 -0.06529225 -0.031403795 0.057864394 -0.012766191 0.010783408
-0.0056581968 0.042707272 0.03337728 0.10318102 0.045551762 0.05853896 0.099544495 -0.032000523
0.016386433 -0.0025563037 0.0028611764 0.07782055 -0.016310398 0.03868332 0.087126926 -0.122275814
0.09206581 0.0028473744 0.0138803795 -0.063404895 -0.087707706 -0.021454677 -0.016495869 -0.0032015499
0.04515878 -0.059797183 -0.0009425152 -0.03301119 0.04717259 -0.07138792 0.03490859 -0.026296897
-0.019219182 0.023984786 -0.023431122 -0.046261206 -0.018249964 -0.0053419597 -0.068576075 0.06048523
0.024518125 0.10077703 0.35045967 -0.03705612 0.062904574 0.056984033 0.037081927 0.04286138
0.092586406 0.060947042 -0.0005962876 0.05796554 -0.018651113 0.06004804 0.0034858307 0.0056648953
0.05639717 -0.09253317 -0.014121502 -0.036558036 -0.3835638 0.05366115 -0.03249685 -0.094188385
-0.046793833 -0.04567109 0.07715168 -0.011226909 -0.07400758 0.13696826 -0.08045169 -0.002412714
0.052127764 0.033329703 -0.09168663 0.03574773 -0.054403175 0.049427565 -0.023086445 -0.025181647
-0.011399935 0.011853972 0.09353524 0.08849539 -0.032947026 -0.042756382 0.11060223 -0.19649565
-0.10560297 -0.08324293 0.009406431 -0.12833902 0.19363159 0.06718388 0.09035485 0.111884914
-0.043236475 0.183793 -0.0146584045 0.033771694 -0.019180164 0.038354788 0.080971025 -0.010072193
-0.12363225 -0.14000209 -0.12149214 -0.110789955 -0.12692782 -0.22530754 -0.10592233 0.04133428
-0.013474379 0.23979732 -0.06811892 -0.1173904 -0.27889687 -0.15681155 -0.08531593 0.06030374
0.24176183 0.008264283 0.13220926 0.025181826 0.033944286 0.044865444 -0.010640157 -0.1650328
-0.18560444 -0.1214214 0.0090070395 -0.08941517 -0.03445275 0.03276565 0.014179341 0.030331966
0.021173127 0.115984015 0.19770081 0.03278556 0.17199351 0.15738273 0.0038988346 0.058575686
0.118174076 -0.109206446 0.18941796 0.16841936 -0.07195515 0.02192264 -0.012427957 0.069225155
-0.25409102 -0.102034286 -0.0925347 -0.096756734 -0.22780006 0.1273707 -0.12679394 0.036771234
0.043872204 -0.31235516 -0.23564129 0.15626477 0.105903804 0.085823715 0.06634202 0.08264809
0.09278362 0.1344197 0.04500047 0.059997987 0.103515126 -0.078901075 -0.06869818 -0.062167335
-0.06295537 -0.04033076 -0.09720255 -0.008681336 -0.018376816 -0.09152124 -0.049178243 -0.033651587
-0.013090454 -0.079616815 -0.010182199 -0.021062706 -0.035684805 0.021045439 -0.022406518 0.108648
0.19984828 0.100979865 0.12025286 0.11749738 0.14047265 0.06966257 0.019195858 0.113947414
-0.004399622 -0.09002879 -0.034982976 -0.02025778 -0.06600734 -0.059939668 -0.038790062 0.003624828
-0.057859197 0.001958746 -0.0409069 0.00586349 -0.009573274 0.016599819 -0.012188657 -0.017777396
-0.01263815 0.0015738446 -0.11943912 -0.16774265 -0.097037114 -0.2914094 -0.5522254 -0.20099215
-0.11630795 -0.121274605 -0.117711596 -0.011545275 -0.0045727026 -0.017369604 -0.031138118 -0.046928417
-0.07268241 -1.3203141e-05 -0.03707235 0.0013800607 0.09936691 0.17293468 0.11558745 0.35576758

encoder_layers.block_0.conv.bias f4 [40]
00000000: cb68 ec3c d8c0 333a 6050 02bd 1b9e c8bd
00000010: 1cdf 003d 533f a8bc 8498 cb3b 6d9f dfbd
00000020: e3a7 a13d 7bfe e0bd 9c7d c6bc 160a ba3c
00000030: c73f d4bc bc42 143d 0a3e a7bd 4197 573d
00000040: 694a 2d3c 81ea 91bd 2a0c ccbc 11b6 8ebc
00000050: 7f1b 35be aea3 9d3c e76c 64bd 884e 3fbe
00000060: f48e 20be 4e2b 20be 6e5f 183d 0f41 f6bb
00000070: 55b2 21be bda6 413d 6077 03bd 760a 9ebc
00000080: e448 76bd b3ca 88bd 7f64 aebc 5405 2c3c
00000090: 691f 35bd 7089 503c 6076 25bc 120a 82bd
0.028858563 0.0006857044 -0.031814933 -0.09795781 0.031462774 -0.020538008 0.0062132496 -0.1091908
0.0789335 -0.10986038 -0.024229817 0.022709887 -0.025909318 0.036196455 -0.0816613 0.05263448
0.010576823 -0.07124806 -0.024908144 -0.0174208 -0.1768627 0.019243088 -0.05576792 -0.18682301
-0.15679532 -0.1564152 0.037200384 -0.00751508 -0.15790685 0.047278155 -0.032096267 -0.019292098
-0.060128108 -0.06679287 -0.021288155 0.010499317 -0.04421941 0.01272808 -0.010099024 -0.06349577

encoder_layers.block_1.conv.weight f4 [40, 20, 3, 3]
00000000: bd94 55be 48ac 963d 16fa 023e 8708 78be
00000010: dd0d 38be a5e8 563d 6b30 81bd d110 953d
00000020: 62bc 203e d797 53bd 2cff 17be c293 433e
00000030: 1131 3e3d 3cfd 2bbe 558d 34bd 34f4 5c3c
00000040: 2ebb b5bc 86dc 583c 58fd 4ebe e36d 77bd
00000050: 9178 933e 4d98 2c3e a74b 6f3e 2535 8b3e
00000060: 3864 d93d 0a5c 9a3c b1b4 dfbd 82fc 85bd
00000070: c9ca 16bd c512 193e 4ead 74be 0e69 8d3d
00000080: e9fe bfbd f1ee 1dbf ae9d 76bd 6b21 2ebe
00000090: bcd4 1b3c c174 743d 4d4c 8a3d eb67 40bd
000000a0: 4fb0 ef3d 69a1 f5be 2f6c a5bc 9c03 213e
000000b0: d45b 123e ed1c dabd 40ab 003c a704 13be
000000c0: aeee 6c3d 9b07 9ebe af69 503e ec50 6d3e
000000d0: 62de cabe 8fe2 733e 4368 563b 8f75 44be
000000e0: 4310 54bc c5b2 a4bd ad73 4fbe d5c1 4dbd
000000f0: 0c68 493d 3902 f0ba ae3c b33d 4b19 c3bc
00000100: b509 e23b c7c8 a93e c023 a6bd b4aa 84be
00000110: 501e 04bd 8030 943e dd64 73bd 3ea3 c3bd
00000120: 4960 40bd 6268 dc3d 39a1 1fbe d763 473d
00000130: 724d 6e3d 2cce 3cbe 1bf8 e3bc 7dc1 b2bc
00000140: 7019 c7be 9d23 5dbe 76c6 1b3e 3635 07bd
00000150: d142 30be 5d4c d0bd b660 24bb 10f9 58be
00000160: 8f68 ebbd a213 8f3d 266a 06be cac4 05be
00000170: c8d7 94bd 0001 113e bf34 893e 5b70 a83c
00000180: 59ff d93b 4727 d8bd 225c bbbd e50a ff3d
00000190: 0ffa 82be a28c 2cbe 243a 503d 7132 563d
000001a0: 19ba 143e 7e18 97bd 17a6 18be a415 383e
000001b0: f636 773e eaed 1cbd dfb2 503e 37c3 c53d
000001c0: 7537 9b3c 8a3e 263e e37f 90be fa55 c4be
000001d0: 9640 65bd aa3b 283e 586f 07be 5a5d 2ebe
000001e0: df73 c53c ec73 023e f4be 92bd ff18 11be
000001f0: 8158 38be 6ae8 a93d f345 1dbe 7e8d a53d
00000200: 88e2 d13d 94f7 97bd a0d0 82be bc9f 9fbe
00000210: 1359 943d 2bf3 483d f674 94bb 9877 8bbd
00000220: cb18 eb3d 14bd ce3d ff08 a63e 8161 ab3e
00000230: 7962 4c3e 94e7 ea3e e9bc 83bd 29c8 3cbd
00000240: eaae c63b 3475 a7be bf90 dc3e 627f dabe
00000250: 0159 42bf bbd7 debe 1362 703e cdf6 b7bd
00000260: 70b6 983e 8858 ecbd fc93 02be a5d2 85be
00000270: 8451 05be 39fb 9ebe 6376 bcbd e05e 793c
00000280: 7698 713d e894 afbd df47 a23d 2e55 84be
00000290: 17df 493c af1b 343b af72 22be 9f8d d0bd
000002a0: 07dd 28bd 7226 9cbc f5f2 2ebe d479 b13c
000002b0: a51e 4fbc c490 2d3a a8cc 9abd c4ec f5bc
000002c0: 3555 443d 4bb3 9cbd 2072 5bbd 8427 e9bc
000002d0: 1c30 d2bd a482 8abd ea16 07bd 5e11 a63d
000002e0: 3f20 f5bc 1f1c b5bd 1184 023e 8131 3dbd
000002f0: 45cf efbb 5475 44bb abe1 923c 844a 283d
00000300: 0807 563c 4bc5 39b8 a5a6 babc 719b bebb
00000310: 8dd1 83bd 40f5 59bd b52d 763c 5937 b43d
00000320: 62f9 9fbd 3535 93bd f354 81bc 2892 5ebd
00000330: b2e2 08be 1ca2 5dbc 716e fcbd 323a 093d
00000340: 44e2 593c 2c3d 1cbc 1f2e eabd 708b 1ebe
00000350: 221c 13be 07f4 a23c 3fd9 17be df5e 24be
00000360: 885e bbbd 30f2 16bc 436c 09bc b8a0 c6bd
00000370: 805d 0e3d 5a4a 4b3e c2e4 f5bd d2c9 0dbd
00000380: b381 353e e830 e1bd a1ef 573d bd48 9fbc
00000390: 2c2f df3d 8372 983e e086 24bd 3d28 033e
000003a0: 1fd0 943e b127 5e3e 5dd4 b8bd 0733 ffbc
000003b0: 778a 0cbc 4396 90bd 9ded 24bb 7be8 d63d
000003c0: 10c9 99bd 478e 12bd 6ffc a03d 0c5d 11bd
000003d0: ec37 f4bd 1ca7 4bbe 00f4 40bd fec5 873e
000003e0: cb3f 05bd b76a 543d 13d5 4b3e e7b1 553e
000003f0: 8027 193e 31a5 aa3d 5a6a d63c 9ae2 9d3c
-0.2085752 0.07357079 0.12790713 -0.24222003 -0.17974038 0.05246796 -0.06308063 0.07278598
0.15696862 -0.051658478 -0.14843434 0.19099334 0.046433512 -0.1679582 -0.044080097 0.013485957
-0.02218398 0.013236171 -0.2021383 -0.06040753 0.28802922 0.16854973 0.23368703 0.27188984
0.10614818 0.018842716 -0.10923136 -0.06542303 -0.036814485 0.14948566 -0.23894235 0.06904803
-0.09374792 -0.6169272 -0.06020897 -0.17004935 0.009511169 0.059681658 0.067528345 -0.046974104
0.1170355 -0.4797471 -0.020193188 0.15724033 0.14292842 -0.106500484 0.007853329 -0.14357243
0.05784481 -0.30865178 0.20352815 0.231754 -0.3962279 0.23816894 0.0032715953 -0.1918547
-0.01294333 -0.0804191 -0.2025897 -0.05023368 0.049171492 -0.0018311209 0.08751808 -0.023815772
0.00689813 0.33160993 -0.081122875 -0.25911486 -0.03225547 0.28943253 -0.059422363 -0.0955262
-0.046966825 0.10762097 -0.15588845 0.0486792 0.058179326 -0.18438023 -0.027828267 -0.021820778
-0.38886595 -0.21595617 0.15212426 -0.03300973 -0.17212988 -0.10170815 -0.0025082058 -0.2118876
-0.11494552 0.069861665 -0.1312643 -0.1306335 -0.072677195 0.14160538 0.26798055 0.020561388
0.0066527543 -0.105543666 -0.09148432 0.1245325 -0.25581405 -0.16850522 0.050836697 0.0522942
0.14524116 -0.073777184 -0.14907108 0.17977005 0.2414206 -0.03831283 0.20380734 0.09656375
0.018947342 0.16234794 -0.2822257 -0.38346845 -0.055969797 0.1642901 -0.13226068 -0.17027798
0.024103103 0.12739533 -0.07165328 -0.14169692 -0.18002512 0.082962826 -0.15358715 0.08083628
0.102482855 -0.07420269 -0.25549793 -0.31176555 0.07243552 0.049060028 -0.0045305444 -0.0680992
0.11479338 0.100946575 0.32428738 0.33472827 0.1995944 0.45879805 -0.06432516 -0.046089325
0.006063332 -0.32706606 0.43079183 -0.4267531 -0.7591706 -0.43523964 0.23474912 -0.089826204
0.2982669 -0.115403235 -0.12751764 -0.26137272 -0.13019377 -0.31051043 -0.09202268 0.015220374
0.05898329 -0.085733235 0.079238646 -0.25846237 0.012321255 0.002748232 -0.15864061 -0.10183262
-0.041226413 -0.0190613 -0.17084868 0.021664537 -0.012641584 0.0006620998 -0.07558566 -0.030020125
0.047932822 -0.07651385 -0.053575635 -0.028461225 -0.102630824 -0.06763199 -0.032980837 0.08108781
-0.029922603 -0.08843254 0.12745692 -0.04618979 -0.0073184096 -0.002997716 0.017929872 0.04108669
0.0130632 -4.429118e-05 -0.02278454 -0.00581687 -0.06436453 -0.053212404 0.015025546 0.08799619
-0.07811238 -0.07187883 -0.015787577 -0.054338604 -0.13367727 -0.013527419 -0.123257525 0.033502765
0.013298575 -0.009536069 -0.11434578 -0.15482879 -0.143662 0.019891752 -0.14828967 -0.16051815
-0.0914889 -0.009213015 -0.008387628 -0.096986234 0.034757137 0.19852582 -0.12006523 -0.0346163
0.17725258 -0.10995656 0.052718762 -0.019443864 0.10897669 0.29774866 -0.04016769 0.12808318
0.29065034 0.21694829 -0.0902488 -0.031152261 -0.0085779345 -0.0705991 -0.0025166043 0.10493561
-0.07509053 -0.035780217 0.07860648 -0.035489127 -0.11924729 -0.19887966 -0.047107697 0.26518244
-0.03253154 0.051859584 0.199055 0.20868646 0.14956474 0.08332289 0.02617376 0.019273091

encoder_layers.block_1.conv.bias f4 [40]
00000000: 8716 19be e276 ce3c 86a2 883d e710 e2bd
00000010: cba3 323c fefb c5bd 73e7 52bd 1a7c 42bc
00000020: 895c 4e3c 52b0 313d 8bcc 583d a944 b3bb
00000030: 3e0f 74bd 043f eb3b 58df 3abc 01b9 c03d
00000040: dca7 26bc 6617 113e cf14 533e 602b 6e3c
00000050: 34ac 28bd 5ebc 8fbc 6ba2 24bd ee4d 613d
00000060: dfbb 40bd 8032 c2bc 9fc1 0d3e 1b49 a4bd
00000070: d9e6 2a3d 4587 163d a847 28bd 3848 eebb
00000080: 4ba5 bebd 103b 10be 5ebf 14bc 8fd4 c6bd
00000090: 26b7 b7bd 327d 28bd 2610 833d 82e8 763b
-0.1495 0.025203172 0.06671624 -0.1103838 0.010903309 -0.09667204 -0.05149026 -0.011870408
0.012595304 0.043381043 0.052929442 -0.0054708314 -0.05958485 0.007179143 -0.011405788 0.09410287
-0.010171857 0.14169082 0.20613407 0.014536709 -0.04117985 -0.017545875 -0.040193956 0.05500596
-0.047054168 -0.02370572 0.13843392 -0.08021756 0.04172406 0.036750097 -0.04108396 -0.0072717927
-0.09308871 -0.1408503 -0.009078829 -0.09708511 -0.0897048 -0.04113502 0.063995644 0.0037675207

decoder_layers.block_0.conv.weight f4 [40, 10, 3, 3]
00000000: 9bca 213e 88db 143e ac43 5c3d e94b 473e
00000010: 8e38 9fbc c3d7 a73d 64a2 b73d 9cb3 f33d
00000020: a0aa 8c3a 1a89 58bd 4924 0bbd 21e8 95bd
00000030: 38bd 84bc d019 99bd 5ceb 39be 8d02 08bd
00000040: f60d 22be 9b77 e0bd 6921 293d 4fb3 ab3d
00000050: 49f5 1bbd 5d73 123e 4882 44bb 20c5 6cbc
00000060: 2ae6 6ebd e9c8 0e3d 81f5 173d 0da4 9cbd
00000070: 383b f53c 24c9 94bb ef0f 67be e9fa ecbc
00000080: 7576 813d 06a8 5abe 37a2 81be 7a02 1bbe
00000090: 1c1d cfbd f10d 08be f5c9 373e 47a1 d53b
000000a0: a6d7 7fbe 786a ddbd cddd 023d 2a0e e63d
000000b0: 73d7 8dbd e3e1 0dbe efa1 a5bd ad15 59bc
000000c0: 92a4 48be 7378 3e3e 14db 003d 5859 2fbe
000000d0: 0a47 50bc 2aeb afbd 86a2 c23d 22a4 213e
000000e0: 9c77 8b3d 83ca 1c3e 4051 9c3d d197 ba3d
000000f0: 6e8e f03d c962 983d b9c0 933d 6a00 05be
00000100: 4ded 5dbd e59e a9bd 560d 04be e47d b53d
00000110: 6cfd 44bd 6c83 3fbd b37c d7bd 3b0f 8ebe
00000120: 7f39 363c 18d9 b93d 85f5 20bc ea14 09be
00000130: 1410 21be 0887 533c 60d7 61bd 125d 5b3c
00000140: 7f3e acbd e6a4 f2bd 5ce2 27be 90eb 0fbe
00000150: 59f9 f5bd 54ab fcbd 33d6 4fbe b776 3bbe
00000160: b461 40be 9517 29be 4bdc b73d 5b7f ea3c
00000170: 9db1 66be f51b d6bc 89fa 12bb 9586 bdbd
00000180: 80fe 7b3d dc22 45bd 5cdd 39bd fcb3 473d
00000190: 8903 c6bb dd15 35bd 734e ad3d 7a7e a33d
000001a0: 2c46 893d 1865 5e3e 0934 123e 7881 2e3e
000001b0: 033a d7bd 7e94 41be b543 403d 1947 5e3e
000001c0: 6982 01be 3a0d 1abe d496 003e eb4f 0e3e
000001d0: 1075 623d 11a2 2dbe 8c73 42be 8f92 9a3d
000001e0: 7914 adbd 3c04 c3bd 4f14 863d d080 e0bd
000001f0: 65af 34be 5559 35bc 0ffd 24bd 046d fbbd
00000200: c93e 9cbd d93b 163e a435 a4be d210 233e
00000210: da72 493c fbb4 21bd a269 b73c 7087 5d3c
00000220: 7f35 373d 7466 703d f158 54bd 802b 22bd
00000230: d3ba c7bc 08dc b43d efc8 c83d dd2b e43c
00000240: 740a 733c cc0e 08bd 8ebb 8c3c 7930 6a3d
00000250: 35cc 5dbd e132 b2bc f6b3 8c3d a4c9 b9bc
00000260: 8ec4 a1bc 43f9 ccbd 9a56 703c b9b2 1cbe
00000270: 02e5 503e ec42 6dbe 0bb5 61be 01c4 08bd
00000280: 5f6c 88be 48cf a7bd 8357 2f3d 8a69 8fbc
00000290: 8327 8bbb 3202 6ebc 883c 61be 8373 0abd
000002a0: 8846 bc3d f973 b6b9 dd66 813d bc04 163d
000002b0: 7f13 903d 7277 25bd 987c ab3c d9b4 18bd
000002c0: 9f8e c6bc 9aa8 3bbc debf 9fbd 29e8 06bd
000002d0: 2c48 303e 6ba0 433d 21ac 0f3c d156 c9bc
000002e0: 1d36 47be fd5f e3bd 2fb5 b23d 04ee 2f3d
000002f0: e039 3d3d 5387 b33c d12f 88bd fd3b 713c
00000300: e405 8a3d 5794 97bd 4c15 e3bc ef3d 54bb
00000310: 209a 943d b5f8 063e 5a01 2f3c f0af a9bc
00000320: f0e4 e2bd 99ce ebbd ad94 48bd 2eb7 86bb
00000330: 7f47 2f3d 3b36 f13c f8e6 49be f240 dbbc
00000340: 2524 da3d d2a6 2abd 0dce 9cbd d6df 1e3e
00000350: 82d4 91bc 9b50 fabd 38b1 32bb 36f1 c6bd
00000360: 9ad3 a7bd d8ee d23d 82c5 953d 8a5f 05be
00000370: 05be a63e e3fe 0dbe 3bfb 2e3e 7cb5 34bd
00000380: 139d 0d3e e755 03be 59ef ab38 5e33 e33d
00000390: 043d 94bd c94c 7abd 248d 8c3e aae1 f63d
000003a0: 3bff 363d 2191 2e3e f0a3 2ebd 3c1e 77bd
000003b0: dbce 20bd 529b e7bd 37ca fcbd b2de 4fbe
000003c0: 508c 44be 68c6 bfbd 737a 39be e4d5 3d3d
000003d0: f264 483d 4485 843c 1116 0cbd f1e8 1abd
000003e0: a5e0 9e3e 395f 8abc ad1f 583d 961e 0fbe
000003f0: 913f 1fbe 2702 e4bd 74c3 e03d de1f 53bd
0.15799944 0.1453687 0.053775474 0.19462551 -0.019436147 0.0819545 0.089665204 0.11899492
0.0010732003 -0.052865125 -0.03397015 -0.07319666 -0.016203508 -0.074756265 -0.18156189 -0.033205558
-0.15825638 -0.10960313 0.041291628 0.0838381 -0.03807572 0.1430182 -0.002998488 -0.014451295
-0.05832497 0.03485957 0.037099365 -0.07648478 0.029935464 -0.0045405794 -0.22564672 -0.028928237
0.06321422 -0.21353158 -0.25319073 -0.15137663 -0.10112974 -0.13286568 0.17948134 0.00651947
-0.24984607 -0.10811323 0.031949807 0.1123317 -0.06925859 -0.138557 -0.08087527 -0.013249797
-0.19594029 0.18600635 0.03145893 -0.17123926 -0.0127122495 -0.08589776 0.09503655 0.15785268
0.06809923 0.15311627 0.07632685 0.09110988 0.11745916 0.07440717 0.07214493 -0.12988439
-0.054181386 -0.0828226 -0.12895712 0.08861902 -0.048093244 -0.046756193 -0.10521831 -0.27745995
0.011122107 0.090746105 -0.009824161 -0.13386884 -0.1572879 0.012910612 -0.05513704 0.013388889
-0.08410358 -0.11847858 -0.16394943 -0.14054704 -0.1201045 -0.12337366 -0.20296554 -0.18307005
-0.18787271 -0.16512902 0.089775644 0.028625181 -0.22528692 -0.026136378 -0.0022427163 -0.09254185
0.061522007 -0.048128948 -0.04537712 0.04875563 -0.006042902 -0.044210304 0.084622286 0.07983108
0.06702837 0.21718252 0.14277662 0.17041576 -0.10509112 -0.18904302 0.04693957 0.21706809
-0.12647404 -0.15044108 0.12557536 0.13897674 0.05528742 -0.16956355 -0.1898939 0.07547485
-0.084511705 -0.09522292 0.06546842 -0.10962069 -0.17645033 -0.011068662 -0.040280398 -0.122766525
-0.07629163 0.14671268 -0.32072175 0.15924385 0.012295449 -0.039479237 0.022389237 0.01352106
0.044728752 0.058691457 -0.051842634 -0.039592266 -0.024381077 0.0883103 0.0980395 0.027852947
0.014834035 -0.033217236 0.017179277 0.057175133 -0.054149825 -0.021752777 0.06870262 -0.022679158
-0.019747045 -0.100084804 0.014669085 -0.15302552 0.2039986 -0.2317006 -0.22041719 -0.03339005
-0.2664518 -0.08193833 0.042808067 -0.01750638 -0.0042466535 -0.014526891 -0.21995747 -0.033801567
0.0919314 -0.00034800151 0.06318448 0.03662561 0.070349686 -0.040397115 0.020933434 -0.037281845
-0.024237929 -0.011453772 -0.07800268 -0.03293625 0.17215031 0.04776041 0.008769066 -0.02457753
-0.19454236 -0.11102293 0.08725964 0.0429516 0.046197772 0.021915114 -0.06649745 0.014723775
0.06739405 -0.074013405 -0.027720116 -0.0032385548 0.072559595 0.13180812 0.010681475 -0.020713776
-0.110788226 -0.11514015 -0.048969913 -0.004111192 0.042792793 0.029444804 -0.19717014 -0.026764367
0.10651425 -0.041663 -0.076564886 0.15515074 -0.017801527 -0.122224055 -0.0027266275 -0.09713976
-0.08194657 0.10299462 0.07313062 -0.13024727 0.32566848 -0.13866763 0.17088024 -0.04411839
0.1382945 -0.12825738 8.1984974e-05 0.11093782 -0.072382 -0.061108384 0.27451432 0.12054761
0.044677 0.1704755 -0.04263681 -0.060331568 -0.039259773 -0.11308922 -0.12343257 -0.20299795
-0.1919415 -0.09364015 -0.18113117 0.04634656 0.048924394 0.016176827 -0.03420073 -0.037819806
0.31030765 -0.016891109 0.052764583 -0.13976511 -0.15551592 -0.11133223 0.1097478 -0.051544063

decoder_layers.block_0.conv.bias f4 [40]
00000000: c0a7 9ebd 8911 103d 42e9 21bd d98c 1bbc
00000010: aee4 a53c 5e56 0fbe 5862 02bd 0d65 72bd
00000020: 19e1 85bd 132e 2ebc de85 bc3d 0fb8 063d
00000030: 12f9 b33d 510d e23b 6ab6 c53c a659 0ebd
00000040: fcfd 103d 2c3e 873c 0fcc 8c3d db30 5cbc
00000050: 3060 cbbd cd35 cebd 8ef3 74bc 192d 33be
00000060: d10c 2dbc 8038 f9bd 2fab 2fbd cee8 1cbe
00000070: 1bec b9bd ff98 ba3c 5f4d 71bd e4e3 f4bd
00000080: 06b4 64bd 34e6 27be e896 9f3a 888a e7bd
00000090: d43d 023d 36f4 20be 1c0e 27bb 95a0 3fbd
-0.077468395 0.035172973 -0.039529093 -0.00949403 0.020250645 -0.1399779 -0.03183207 -0.0591784
-0.065370746 -0.010631102 0.09205221 0.032890376 0.08787741 0.00689856 0.024134833 -0.034753464
0.03539847 0.016509138 0.068748586 -0.013439382 -0.09930456 -0.100688554 -0.014950646 -0.17497672
-0.010562138 -0.1216898 -0.042887863 -0.15323183 -0.09078237 0.022778032 -0.058911677 -0.11957529
-0.055835746 -0.1639641 0.0012175711 -0.113057196 0.031797245 -0.15718159 -0.0025490588 -0.046784002

decoder_layers.block_1.conv.weight f4 [40, 20, 3, 3]
00000000: a2c9 9e3c 4247 04be a45c 8e3d a62d 2abb
00000010: 5d93 42bd 44e6 1bbe 1b59 e33c 2738 bf3d
00000020: 7cbe 5e3d fd4e 20bd 8956 07be e55c 86bd
00000030: 3e9a cdbb 8971 49bd 273c debd f45a dbbc
00000040: 83f0 31bd c77b 55bd 2f1d 503d aee0 313d
00000050: 1491 c3bd c8ad c9bc 80dd 22be ce0d a6bc
00000060: 0c57 99bd 1250 343c 2ef5 eebd fdea bd3d
00000070: e51c c63d 7880 713d 9b05 513d dd3f f2bd
00000080: fbd0 aa3c 5c5c 083d 61ff 7ebd cc55 463d
00000090: b3bb 813c 68a1 163e 1be9 c1bd 715c 9e3d
000000a0: 5107 133e 4e39 12be 591f b13c fb55 2abc
000000b0: 1ff4 273d d461 b63d 3b2a ab3d c09d 8b3d
000000c0: 7aea 833d ac03 533d 0b55 b23c ab75 2f3d
000000d0: 2d4d 733b 0082 873d 7fe9 19bd e7c3 d2bd
000000e0: 71e4 0ebe 384a eebd 569b 20be 0ac6 0cbe
000000f0: f025 13be 5dc3 f1bd 26e0 fbbd 50c0 c7bd
00000100: dd1b 0abd 0790 703c b005 b8bd 8355 76be
00000110: a9b0 853c ce6e 2c3d aa80 1bbd c3fe 16bd
00000120: 0ad7 80bd 9c0a e43c a77d a23c 1fe7 96bc
00000130: 1fd5 d4bd b51b 99bd 23ec 07bd 2b9e 07bd
00000140: 701d 42bd b4c4 9a3d 90c4 ab3c 703b ae3d
00000150: c766 123d d0d5 133d 7b6e 78bb fe5b 9c3d
00000160: 0df6 933d 6475 853d 62a0 f33d c909 10bb
00000170: 631a f33d 7456 143e 0f42 b83b b478 5d3a
00000180: 585b 1c3e 0307 1d3e e1e5 f83d 0ca6 8b39
00000190: 3ddb f73d ac71 9c3b 8878 dd3c 416c 713d
000001a0: 35a1 403d 470b a0ba f08b 05bd 2292 07bd
000001b0: 63ad c33a 7271 11bc 44d0 9bbd da40 2dbd
000001c0: 32dd 833d fac4 863d bfc6 3e3d 8af3 a63d
000001d0: 5818 583d 80b2 5a3d 5ec8 2dbc 60e0 bcbc
000001e0: b7c6 dcbb ab98 e3bc cf99 15bd 6f03 cf3d
000001f0: b938 e13b e61f ba3c e90e 913d 4380 0f3d
00000200: 0f88 9f3d 246f 03bb 0575 e63c 7c5a a83c
00000210: e390 a13d 6209 b93c 85c2 e93c 15ab 07bd
00000220: a84b 36bc 1f1c 903d e68b 0fbe b1e6 98bc
00000230: 2f18 f73d fda3 1b3d 191f 80bd ceeb 4b3d
00000240: 80c8 b4bd 69e5 aebd cc0d 963d 3f8f bcbd
00000250: 8e59 95bd 0f77 bb3d 80ef 4b3d f170 803d
00000260: b0dc 393d 4a7c 9dbd 9bce a0bd ceda f1bd
00000270: c660 2ebd 5ae6 10be 71ec a5bd e0b6 17bd
00000280: 8669 ebbd 5a4b 68bd 1066 033a b771 313b
00000290: c447 9a3d a976 f9bc 049e 7dbd c56f 883d
000002a0: 06eb 503d 07b4 803c d86d b33d d725 8e3d
000002b0: 389b 883d 272f 103e a1cd 8a3c cbdb 793d
000002c0: 2470 b23d 363c 673c d752 313d 0f67 3d3d
000002d0: 7fc1 4b3c 9338 dbbb 2296 c5be c3ef cabd
000002e0: b158 213e 8045 1b3d 1cad a9be 3bf4 bfbe
000002f0: cd72 a7be 0abe cbbd 47a1 86bd 28fe 263d
00000300: 4a5b f6bc 2720 48bd 574f 003d 2827 843c
00000310: 3139 66ba c4eb 283d 0c10 13be 5b28 28bd
00000320: 3746 d03d 18f2 ed3d aade 2d3e b9a6 73be
00000330: 5a7e ee3c 0792 5c3d 86fe 17be 1ce6 ae3d
00000340: c8da 8dbd 67dc c53d 7200 68bd 9f57 44bb
00000350: 57e4 773e 4c0f e0bc 03b1 393b 1cc7 383d
00000360: 4f9b a2bd f4b0 cebd ceeb e43d a7b5 0b3e
00000370: 3e06 713c 672a c73d 2942 893d 2270 c83d
00000380: 0bc0 27be 2a8f b3bd 0f8a a1bc 3285 073e
00000390: f3e6 593c 44a7 5abb d883 7d3d d9f8 2abd
000003a0: 08fa 8c3d 2572 bd3d c537 63bd ca81 10bd
000003b0: 08db 72bd d9fb 493d 9292 283d ad7d a53d
000003c0: 1b70 d9bc 2883 133c b70f e4bc 419d 793d
000003d0: b134 9e3c 6c95 413d a1d8 48bd 8371 763d
000003e0: 386a 2b3e 5871 813d 2567 01bd fc33 f23d
000003f0: 7108 c1bc 3f49 39bd 18a0 76bd 8abb c63b
0.019383255 -0.12917808 0.069512635 -0.002596715 -0.047503818 -0.15224558 0.02775245 0.09336882
0.05438088 -0.03913783 -0.13216604 -0.06560687 -0.0062744906 -0.04918054 -0.10851317 -0.026776768
-0.04344226 -0.052119996 0.05080908 0.043427162 -0.09549156 -0.024618998 -0.15904808 -0.020270254
-0.07487306 0.011005418 -0.11667858 0.09273336 0.0967348 0.058960408 0.051030736 -0.11828587
0.020851603 0.033291206 -0.062255267 0.048421666 0.015836572 0.14710009 -0.094682895 0.077324755
0.1435826 -0.14279673 0.021621393 -0.010396476 0.041004296 0.08905378 0.08357664 0.06817198
0.06441207 0.051517174 0.021769067 0.042836826 0.0037124858 0.066165924 -0.037576195 -0.10291272
-0.13954331 -0.1163525 -0.15684256 -0.13747421 -0.14369941 -0.11804841 -0.12298612 -0.097534776
-0.03371798 0.014682776 -0.0898546 -0.24056058 0.01631959 0.04209786 -0.0379645 -0.036864053
-0.062910154 0.02783709 0.019835306 -0.018420754 -0.10392212 -0.07475988 -0.033184182 -0.033109825
-0.047391355 0.075570494 0.020967752 0.085074306 0.035742547 0.03609258 -0.0037907648 0.076347336
0.07224665 0.06516531 0.11895825 -0.0021978489 0.11870267 0.14486104 0.005623109 0.0008448467
0.1526922 0.15334706 0.12153221 0.0002663586 0.12102363 0.004774293 0.027035013 0.05894113
0.04702874 -0.0012210392 -0.032604158 -0.033098347 0.0014928993 -0.008877145 -0.07608083 -0.042298175
0.06438674 0.06580539 0.046576258 0.0815192 0.05275759 0.053392887 -0.010606853 -0.02305621
-0.006737556 -0.027782759 -0.036523636 0.10108077 0.006873217 0.022720288 0.07082922 0.03503443
0.07789623 -0.0020055259 0.028131971 0.020550959 0.07888963 0.022587482 0.028535137 -0.03312214
-0.011126436 0.07036614 -0.14018211 -0.01866469 0.120651595 0.03799819 -0.062559314 0.049785428
-0.08827305 -0.0853985 0.0732685 -0.092070095 -0.07292472 0.09153568 0.049788952 0.06271542
0.04537648 -0.07689722 -0.07851907 -0.11809312 -0.04257276 -0.14150372 -0.08101738 -0.037039638
-0.114947364 -0.056712486 0.0005012462 0.0027075836 0.075332195 -0.03045209 -0.061918274 0.06661943
0.051005386 0.015710844 0.087611854 0.06940811 0.066702306 0.14080487 0.016943755 0.061000627
0.087127954 0.0141134765 0.043291893 0.046240862 0.01243627 -0.006690094 -0.38591105 -0.09909012
0.1575649 0.037908077 -0.33139884 -0.3749102 -0.32704774 -0.099483564 -0.0657373 0.040769726
-0.030072827 -0.048858788 0.031325664 0.016131952 -0.0008782326 0.04124047 -0.1436159 -0.04105411
0.101696424 0.11618441 0.16979471 -0.23794068 0.029112983 0.0538502 -0.14843187 0.08539984
-0.06926495 0.09661179 -0.05664105 -0.0029959453 0.24208198 -0.027351044 0.0028334267 0.04511176
-0.07939779 -0.10092345 0.11177789 0.13643514 0.014710961 0.097248845 0.06702072 0.09787013
-0.16381852 -0.08767541 -0.019719152 0.13234404 0.0132996915 -0.0033363858 0.061893314 -0.041741226
0.06883627 0.09250287 -0.055473108 -0.035280026 -0.059290916 0.049312446 0.041155405 0.080806114
-0.026542714 0.009003438 -0.027839525 0.060940985 0.019312235 0.04726164 -0.04903472 0.060166847
0.16739738 0.06320447 -0.031592507 0.118263215 -0.023563595 -0.04523587 -0.06021127 0.006064837

decoder_layers.block_1.conv.bias f4 [40]
00000000: 9758 4c3c b48e 533d 8554 f63c 7c33 bc3d
00000010: 4611 853c 03d2 98bd 1796 f4ba e295 113d
00000020: 0ab0 36bd 6ebc c83d 6b63 cd3c 3b3c 35bc
00000030: e03f 1dbd 373b 183c de3d 6ebb 56a2 0b3e
00000040: 6a5d 97bc 2368 723c 009c c43b 45e4 133d
00000050: 68d0 86bc efb2 26bd 9c99 9fbc 365e 3bbe
00000060: ba35 32bd 5546 f9bd 6662 993b 42ee 98bd
00000070: 24fd 2bbd 5e5a 0bbe 360c 05bd d887 64bb
00000080: f231 7bbd 2984 2cbd 1652 aebd 81eb f5bc
00000090: f850 bfbd 2315 d63c df83 053d 4f98 c63a
0.012472293 0.051649764 0.030069599 0.09189507 0.016243588 -0.074619316 -0.0018660453 0.03554333
-0.044601478 0.09801565 0.02507182 -0.011061723 -0.038390994 0.009291462 -0.0036352794 0.13636145
-0.01847716 0.014795336 0.006000042 0.036106367 -0.016456798 -0.040697988 -0.019482426 -0.18297657
-0.04350827 -0.12171618 0.0046809195 -0.07467319 -0.04198946 -0.13608691 -0.03248235 -0.0034871008
-0.06132693 -0.042118225 -0.085117504 -0.030019524 -0.093416154 0.026133126 0.032596465 0.0015151593

read.weight f4 [1, 10, 1, 1]
00000000: 285f 6b3f c3b1 efbd 2d62 c2be 6d48 28bf
00000010: 3c40 213e 25e8 76bf 45c4 213f e036 3dbe
00000020: 38a3 0d3f da02 12bf
0.9194207 -0.11703827 -0.37965527 -0.6573551 0.1574716 -0.96447974 0.6319011 -0.18477964
0.5532718 -0.570356
